model_weight/best_VIETNAM_model.pth (torch, 73885 bytes, 14 tensors)

lstm_cells.0.b_c f4 [64]
000000 ab 33 25 3c 93 74 4f bb c2 4b 6a 3c 97 0a a4 3b
       0.010083119 -0.0031655177 0.014300289 0.005006145
000010 47 de 17 3c bc c3 19 bc b9 82 d1 3b 7f 70 07 3b
       0.009269304 -0.009385046 0.006393757 0.0020666418
000020 ca 49 95 3b 53 6f 14 bd f4 1b 98 bc d0 2b 18 3c
       0.0045559155 -0.03623898 -0.018568017 0.009287789
000030 6f c8 b2 3b ab 98 7e 39 1c b3 9a 3b 02 be 8f 3c
       0.0054560225 0.00024280201 0.0047210585 0.017546657
000040 21 a1 a9 bc 15 45 7c bc 43 0e a8 bc ac e4 e9 3b
       -0.020706715 -0.01539733 -0.020514613 0.0071378555
000050 10 8e a9 bb 4e 98 5d bc 68 7f 59 3c f0 6e 16 bc
       -0.005174406 -0.013525082 0.013275005 -0.009181723
000060 14 40 96 3c 79 83 9b 3c a2 d6 ce bb cc b7 89 3b
       0.018341102 0.01898359 -0.0063122073 0.0042028185
000070 db fc 1f 3b dc 5c 9c 3b 1f 45 e9 bc 76 5e 53 bc
       0.0024412188 0.004771812 -0.028475342 -0.012900939
000080 1f 3a 01 bc 80 f9 6c 3c 6c 3d 1c 3c eb 2d 0a 3c
       -0.007887392 0.014463782 0.0095361285 0.008433799
000090 97 bd 3e bb f0 3c 3f bc 5c fa b5 bc 20 b3 81 3b
       -0.0029104704 -0.0116722435 -0.022214107 0.003958121
0000a0 01 cc dc 3b 7d 46 9b bc 29 62 90 3c ed 58 1e bd
       0.0067381863 -0.01895451 0.017624931 -0.038659025
0000b0 cc 38 a5 ba f6 fa b6 bb 77 48 0a 3c f4 7e 22 bd
       -0.0012605428 -0.005584116 0.0084401285 -0.039671853
0000c0 49 f0 bf 3a 91 fd 26 3a 61 0f 96 bc d0 08 e9 3b
       0.0014643754 0.0006370182 -0.01831788 0.0071116462
0000d0 43 e9 56 3c 48 8b 0a bc ff 59 0a bc ac a8 d6 ba
       0.013117137 -0.008456059 -0.008444308 -0.0016377172
0000e0 7f d9 a4 3b b9 45 07 bc 47 3b 0c bc 40 04 13 bb
       0.0050308104 -0.008256369 -0.008559055 -0.0022432953
0000f0 f6 79 e8 bb 12 81 69 bc c3 f2 dc bc 17 99 9b 3a
       -0.007094617 -0.014251964 -0.026971227 0.0011871186

lstm_cells.0.W_ic.weight f4 [64, 1]
000000 9a 9c 2e bf 7f 4e 67 bf 06 9f c3 3e 04 94 de 3e
       -0.68207705 -0.9035415 0.38207263 0.43472302
000010 c1 3e 2d 3f d8 63 4e bf 27 61 c6 3e 20 4b 3e bf
       0.6767388 -0.806211 0.38745996 -0.7433338
000020 73 c6 49 3f 04 0c 09 bf 6d 93 fc bd c7 73 d4 be
       0.78818434 -0.5353396 -0.12332807 -0.4149458
000030 57 09 a3 3d 86 bc 8e be 52 f1 5e be 2a 49 27 3d
       0.07960766 -0.27878207 -0.21771744 0.04084126
000040 b1 46 33 bf cc 32 44 bf c6 9b 58 bd 2a 95 2b 3f
       -0.7002974 -0.7664001 -0.052882932 0.6702448
000050 24 f8 29 bf f4 ae ec be 54 63 6d 3f 61 7d 18 bf
       -0.6639426 -0.4622723 0.9272969 -0.59566313
000060 1d 6f 5a 3f 61 c5 28 3f 78 dd e2 be f8 e3 8e 3e
       0.85325795 0.65926176 -0.44309592 0.279083
000070 99 72 a0 bd a8 9e 34 3e fb b5 4c bf fd 94 ce be
       -0.07834358 0.17638648 -0.7996518 -0.40348044
000080 4b 5b 66 bf 9d d8 3e 3f 01 da 30 3f a3 a2 44 3f
       -0.8998305 0.74549276 0.6908265 0.76810664
000090 e5 51 f5 be b7 af 40 bf a8 69 6c bf b8 b8 2d 3f
       -0.47914043 -0.7526812 -0.9234872 0.67859983
0000a0 f7 b8 2c 3e 13 c9 59 bf 9b 5b 1e be fd 5d 0a be
       0.16867433 -0.8507244 -0.15464632 -0.13512416
0000b0 9a 7d 8e 3e 09 03 0f bf ae ce 6c 3f 20 e6 49 bf
       0.278302 -0.55864006 0.9250287 -0.7886677
0000c0 9e 4f e1 be 09 15 46 bf b5 43 76 be 57 1f dd be
       -0.44006056 -0.7737585 -0.24049266 -0.43187973
0000d0 37 d5 cb 3e e2 33 8c 3c 33 4d 2e bf 1c 4b 27 bf
       0.39811108 0.017114583 -0.68086547 -0.6534898
0000e0 15 5c 36 bf 2d 2b 3b bd 55 86 f6 3e 25 f5 ec be
       -0.71234256 -0.045695473 0.48149362 -0.4628078
0000f0 cf 0a 35 be 98 ad 59 bf 27 0f 90 be af 24 4a 3f
       -0.17679904 -0.8503051 -0.2813656 0.78962225

lstm_cells.0.W_ic.bias f4 [64]
000000 e3 f9 48 bf a2 e6 bf 3c 3c f5 d9 be c6 56 1f bf
       -0.78506297 0.023425404 -0.4256991 -0.6224178
000010 de 36 c8 bc 9f d2 cd be 5d 46 2c 3d 98 9e 0c bf
       -0.024440225 -0.40199754 0.04205929 -0.54929495
000020 70 e4 27 3f 99 61 c0 bc 1b f3 8d 3e cb 1e 22 bf
       0.6558294 -0.023484038 0.27724537 -0.63328236
000030 4c 94 9f 3e c9 ad 53 bf 84 29 5b bf 79 41 ae be
       0.3116783 -0.8268705 -0.8561022 -0.34034327
000040 31 b4 4c be 00 8e 1c 3f d3 23 4e 3f 30 18 1e 3e
       -0.19990613 0.61154175 0.80523413 0.15438914
000050 b9 d0 cc 3c a6 dd 35 3f 94 1e 36 bf 50 60 fb be
       0.02500187 0.71041334 -0.7114041 -0.49096918
000060 e4 02 39 bf 24 44 4e bf 55 d3 1e 3f 55 2f 14 3d
       -0.72270036 -0.80572724 0.6204122 0.03617795
000070 57 2f 44 bf 00 c8 a0 be c4 c5 16 3f 40 c5 86 be
       -0.76634735 -0.31402588 0.58895516 -0.26322365
000080 5e bf 4e bf d4 a1 b8 bc 98 b2 8f 3e bc b4 6f bf
       -0.80760753 -0.022538103 0.28065944 -0.93635154
000090 b0 6a 5e bf 20 88 9a 3d 49 3a 42 3f 12 47 96 3e
       -0.8688154 0.07545495 0.75870186 0.29351097
0000a0 ae 02 22 bf ff 0d 1f be 90 4e 54 bf 1d 2a 37 3f
       -0.6328534 -0.15532683 -0.82932377 0.71548635
0000b0 f3 46 f0 3e b6 46 83 be 3a 06 22 bd d6 df 1c be
       0.4692913 -0.25639886 -0.03955672 -0.15319762
0000c0 bf 9d 60 bf 09 a2 7a bf c4 d4 4a 3f 1c 59 6c bf
       -0.877407 -0.97903496 0.79230905 -0.9232347
0000d0 64 ec 17 bf ef 3b 86 3e f1 91 34 3e cd e4 e2 be
       -0.5934508 0.262176 0.17633797 -0.44315186
0000e0 d4 a6 39 bf d5 64 4c bb 27 42 70 3c 7e ab b6 be
       -0.72520185 -0.003118803 0.014664209 -0.35677713
0000f0 91 4d 52 bf 51 45 33 3f df fb 66 bd d3 a4 0b 3f
       -0.82149607 0.70027643 -0.056392547 0.54548377

lstm_cells.0.W_hc.weight f4 [64, 64]
000000 49 b1 e5 3d 8e 01 75 3d 6f a6 7b 3d ca 97 1e 3d
       0.11215455 0.059815936 0.06143802 0.038718976
000010 39 d4 85 bd 89 5b 61 3c d4 ad 1d 3d bf 94 57 bc
       -0.06534619 0.013754734 0.038495854 -0.013158022
000020 b5 5f 04 be 7c 4c de bd a6 37 46 bd da f9 da b9
       -0.12927134 -0.10854432 -0.048392914 -0.00041766354
000030 39 6b 9d 3d 36 1b 9e bc 26 f9 93 3d 8f 89 ba 3d
       0.07686467 -0.019300085 0.07225256 0.091082685
000040 83 46 40 3c 41 b8 4a bd c5 41 f3 bd 54 d3 bf 3c
       0.011735561 -0.049492124 -0.11877779 0.023416199
000050 69 89 c4 3d 62 94 b0 bc d8 08 de 3d be 37 cb 3d
       0.095965214 -0.02155513 0.108415306 0.09922741
000060 c3 df c5 3d ec f4 c7 bd 46 e3 cf 3d 2a 34 d2 3c
       0.0966182 -0.09763512 0.10150771 0.02565964
000070 9e 5b a5 bd a4 5a c7 3d 64 70 e0 3d eb 82 bb bd
       -0.08074115 0.09734085 0.10958937 -0.0915583
000080 3a 1e d8 bd 57 e7 b6 3d 0a 5f 12 bd 15 a4 a4 3c
       -0.1055264 0.08930843 -0.035735168 0.020097772
000090 38 ea ca bd 62 82 eb bd 4e eb ee bc 9d 99 61 bd
       -0.09907955 -0.11499478 -0.029164936 -0.055078138
0000a0 f0 a7 cb 3d ee b0 b1 bd 42 54 f0 bd 6d e8 5d bc
       0.09944141 -0.08676325 -0.11734821 -0.013544184
0000b0 0e 79 f1 bd ca 5d f6 3d b5 ff a7 3d 4a 4a f0 3d
       -0.117906675 0.120296076 0.08203069 0.117329195
0000c0 01 74 c5 3d 4a 9a a8 bd 7f d8 01 3e 1f a0 72 3d
       0.096412666 -0.08232553 0.12680243 0.059234735
0000d0 20 ff 70 3d 76 5a 22 3d a6 d4 83 bd 28 5c 39 3d
       0.058837056 0.03963705 -0.06437044 0.045253903
0000e0 b7 05 cd 3c 30 c8 f8 3d f5 81 40 bd 7e 23 e0 bc
       0.02502714 0.12147558 -0.046998937 -0.027360674
0000f0 7b c5 f3 bd 32 dc b1 3d bf c7 0f 3d c4 53 b9 bd
       -0.11902901 0.08684577 0.035102602 -0.0904918
000100 6f 1b 5c bd 7d 8a 29 bd ed 2b 32 bd 9a 2c 2a bd
       -0.0537371 -0.04139184 -0.043498922 -0.04154644
000110 6d f4 cb bd 9f c1 f7 bd 14 c4 a4 3c 12 d2 f1 bc
       -0.0995873 -0.12097477 0.020113029 -0.029519115
000120 8a 5f 97 bd 76 9c c4 3d 14 80 17 3d c8 f5 53 bd
       -0.073912695 0.09600155 0.03698738 -0.051748067
000130 cb 2e cc bc 9e d9 07 3d db a2 b9 bd 92 81 14 bd
       -0.024924656 0.03316652 -0.09064265 -0.03625638
000140 62 25 2c 3d e7 c4 de bd dc f9 db bd 59 a5 0e bd
       0.04202784 -0.108774 -0.10741016 -0.034825657
000150 e0 8b c5 bd 4a d4 8b bd e1 ab 5e 3d 17 20 dc bd
       -0.0964582 -0.068276 0.054363135 -0.10748308
000160 12 0c dc 3a a1 d7 3e bc 55 da c8 bd c8 7c 2a bc
       0.0016788265 -0.01164809 -0.098072685 -0.010405727
000170 36 f4 e6 bb ae 5d 15 3d 01 5a d8 3d f2 b9 92 3c
       -0.007048155 0.036466293 0.10564042 0.017910931
000180 d7 7f 8e bd 97 7d 92 bd f5 96 18 bd 29 d8 12 3d
       -0.06957977 -0.071528606 -0.03725334 0.035850678
000190 3c 51 43 3c ab 65 f6 bd 8a 50 96 bd 6a b5 b3 bd
       0.011921223 -0.120311104 -0.0733958 -0.08774836
0001a0 61 af d3 3c f4 63 95 3d e9 c1 96 3d c2 87 27 3d
       0.025840463 0.07294455 0.07361204 0.040900953
0001b0 2d 49 c1 bc fd ce fa 3d 07 45 68 3c 97 a8 a9 bb
       -0.023594463 0.12246511 0.014176614 -0.005177568
0001c0 bb 23 d7 bd 51 fe f4 3d d7 67 b1 3d c6 d6 32 3c
       -0.10504862 0.119625695 0.08662384 0.010915464
0001d0 47 61 1a 3d f5 c9 d5 bc 18 16 c5 bd f1 45 8f bd
       0.037690427 -0.026097277 -0.09623355 -0.06995762
0001e0 e4 cf 1d 3d af 47 b7 bc 2e 0f 33 3c 02 1d a1 3d
       0.038528338 -0.022373049 0.010928912 0.07866861
0001f0 e8 40 0e bc cd a6 4b 3d 2f 0a d0 3c e0 2c ed 3d
       -0.008682467 0.04971962 0.02539548 0.11580825
000200 8a bf af bd 9e 2b ed 3c b8 04 00 3d 24 74 5a 3d
       -0.08581455 0.028951462 0.0312545 0.053333417
000210 24 34 5f 3d e9 75 d9 bd 11 cf 76 bb a2 f6 3c bd
       0.054493085 -0.10618193 -0.0037660042 -0.046133645
000220 24 a2 aa 3c 47 35 5c 3d 2b 79 6c 3d 44 69 36 bd
       0.020829268 0.053761747 0.057732742 -0.044533983
000230 aa 93 c2 3c 94 8f e4 3c 6a 44 b0 bd 3a 22 b2 3d
       0.023752052 0.027900495 -0.08606799 0.086979344
000240 ab 33 d3 bd 1a 48 0f 3e a6 64 52 3d 51 42 8d bd
       -0.10312589 0.13992348 0.051365517 -0.068974145
000250 8e 23 9e 3d c3 62 da bd 23 0a e7 bd 65 de f7 3c
       0.07721625 -0.106633686 -0.1128123 0.030257413
000260 40 71 af 3d b2 f3 c6 bd 4e e3 00 bc 1d 72 89 3d
       0.085665226 -0.0971445 -0.007866694 0.067112185
000270 47 b0 92 3d 26 09 e3 bc f4 18 84 bd f4 bb de bd
       0.071625285 -0.027714323 -0.06450072 -0.10875693
000280 14 ff a0 3d b1 b6 da 3c 63 66 d0 bd 95 81 cc bd
       0.07861152 0.026698442 -0.10175779 -0.09985653
000290 cb cc d9 bc ac ee b7 bd a9 ce 97 3c 1c 46 aa bd
       -0.02658691 -0.0898107 0.01853116 -0.083141536
0002a0 38 20 f8 bd 9c 37 b6 3d 41 2f fd bd 10 82 d9 bd
       -0.1211552 0.088973254 -0.123625286 -0.106205106
0002b0 5c 30 5f bb 29 f8 cd bd 9d d5 8b 3d 0b 42 81 3c
       -0.0034055924 -0.100570984 0.06827853 0.015778562
0002c0 c7 9c d9 bb 61 57 c7 bd f1 7f 2c bd 92 05 a4 3d
       -0.006641004 -0.09733463 -0.042114202 0.08008875
0002d0 29 da 0a be ce 6a a9 bd ed 2e f0 3d c8 47 87 3c
       -0.13559784 -0.082723245 0.117277004 0.01651372
0002e0 71 b9 ad bd c2 68 21 bd 7d a3 2a bd d4 12 12 3d
       -0.08482636 -0.039406545 -0.04165982 0.035662487
0002f0 ab bb 00 be 19 f3 98 3d 03 fc 8c bd 2f fa 1a 3d
       -0.1257159 0.07468242 -0.06884005 0.03783625
000300 28 67 3a bd 4a 9f c9 3c 62 38 bc 3c 72 8d f9 bd
       -0.045508534 0.024612088 0.022976104 -0.12185182
000310 94 c5 88 bd 89 4d 7e 3d 99 b1 ca 3c a8 2e db 3d
       -0.0667831 0.062085662 0.024742888 0.10702258
000320 40 8f dd bd d3 48 c9 bd 22 1e 84 3d 8b 53 13 bd
       -0.108183384 -0.09828343 0.0645106 -0.035968345
000330 3d 4b f6 bc d2 f3 03 be ea 7d 62 3d 0d 52 95 3d
       -0.030065173 -0.12885979 0.055295862 0.072910406
000340 ca e1 8d bd a8 d3 e9 3d 71 92 cf bd 93 56 bf 3d
       -0.069278315 0.11417323 -0.10135353 0.093426846
000350 97 04 9b 3d ef 50 b0 3d 26 49 ea 3c b2 e2 ba bc
       0.07569235 0.08609187 0.028599333 -0.022813175
000360 c1 c0 44 3d ff 49 c3 bd 21 e7 9b 3d c3 c2 f1 3d
       0.048035387 -0.09535598 0.07612444 0.11804726
000370 ec 26 38 bc 0e c7 27 ba 2b c0 dd bd ae b4 f6 3d
       -0.011239748 -0.0006400206 -0.10827669 0.12046181
000380 29 f2 ba bc 72 b3 08 3d a1 05 99 bc c3 87 bd bc
       -0.02282055 0.033374257 -0.018679442 -0.023136025
000390 0f 3a f0 bd 7e c4 f6 bd 6c e2 76 bc 58 83 97 3c
       -0.11729824 -0.12049197 -0.015068632 0.018495247
0003a0 e6 21 3a bd e4 02 64 bd 5e 2e 26 bc a5 74 d9 bd
       -0.045442484 -0.05566682 -0.010142891 -0.10617951
0003b0 82 85 17 3d d2 6d 3b 3d fb 6d 05 bd 58 9f 98 bd
       0.036992557 0.04575903 -0.03257559 -0.074522674
0003c0 7c 87 16 bb 6e 84 ce bd a9 60 71 3d d9 31 d5 bd
       -0.0022968939 -0.10083853 0.058930073 -0.10409898
0003d0 0f 22 d2 bc fb ef 66 bc 8b 85 ce bd 48 5e e0 bd
       -0.025651006 -0.014095302 -0.10084065 -0.10955483
0003e0 2f fa 33 bd c6 64 26 3b c3 75 7e bd 45 b7 bf 3d
       -0.043939766 0.0025389655 -0.062124025 0.09361128
0003f0 1f 88 80 bc 7f 98 c3 bd 28 fd 44 3c ce db f9 bc
       -0.015689908 -0.09550571 0.012023248 -0.030500319

lstm_cells.0.W_hc.bias f4 [64]
000000 69 08 ab bc 3e c7 86 3d cd 7b 30 3d c4 fc ff 3d
       -0.020878034 0.06580971 0.043086816 0.12499383
000010 57 0c 17 bc b9 30 42 bd 09 12 6d 3d ef 65 f9 bd
       -0.009219251 -0.047409747 0.057878528 -0.121776454
000020 30 94 a6 bd 6d 70 95 bc 87 5f 0d be 4f fd 87 3d
       -0.08133733 -0.018242085 -0.13805972 0.06640112
000030 59 34 70 3d 0d ae 16 bd e1 bf b4 bd 9d f9 29 bc
       0.058643673 -0.03678708 -0.088256605 -0.010374454
000040 71 6b 01 bd d1 66 e0 3d 55 94 84 3c bb eb 19 3d
       -0.031596605 0.10957111 0.016184011 0.037578326
000050 95 df 9f 3d a3 97 c7 3d 7e af dd bd f4 b6 e0 3c
       0.07806317 0.09745719 -0.10824488 0.027430989
000060 2d 3e b0 bd 4d 62 ac 3c 1c 75 ba 3c d2 0a 0c 3b
       -0.08605609 0.021042967 0.02276092 0.0021368754
000070 a1 01 da bd 1b f5 bf 3d b2 e5 0d be c6 04 b6 3d
       -0.10644842 0.09372922 -0.13857153 0.08887629
000080 00 0c 3e 3c 73 7b c0 3d 87 8f bb 3d e4 1f 92 3d
       0.011599541 0.09398546 0.09158235 0.07134989
000090 d4 92 f5 3d a8 e2 e7 bd 63 f4 8c bd f5 a0 e7 bd
       0.11990896 -0.11322528 -0.068825506 -0.11309997
0000a0 ec f2 be 3d c7 24 ac 3d f5 49 ea 3c c4 40 a8 bb
       0.093236774 0.08405452 0.028599719 -0.005134674
0000b0 f9 6d d2 bc bd 9d 18 3d 72 7c 93 3d 6c cc 0a 3c
       -0.025687205 0.037259806 0.072014704 0.00847159
0000c0 ff 05 d3 bd 08 5b b3 bd 51 af 8d bd 62 96 56 3d
       -0.10303878 -0.08757597 -0.069182046 0.05238951
0000d0 c4 72 d2 bc eb ce 8c bd d1 0a cb 3c d6 12 a5 3d
       -0.02568949 -0.06875404 0.024785431 0.08060233
0000e0 b0 fb 7d bd 6a 03 08 3d 8f e8 b6 bd 28 bd d7 3c
       -0.062007606 0.03320638 -0.08931076 0.026335314
0000f0 23 65 d1 3d 5c 8e 35 3d a9 c1 06 3d e0 cc 70 bd
       0.102243684 0.044325218 0.032899532 -0.058789134

lstm_cells.0.W_in.weight f4 [64, 64]
000000 62 a2 f5 3d 0e 81 82 bd 5c aa 24 3d 28 da 97 3c
       0.11993863 -0.063722715 0.04020153 0.018536642
000010 b8 d3 ef bc 78 f7 ee bd 38 49 8d bc 7c e2 e3 bd
       -0.02927576 -0.11668295 -0.017246827 -0.11127183
000020 fe 91 9a bd 18 82 2f 3d b4 64 3c 3d 68 68 0f 3d
       -0.07547377 0.042848676 0.045994475 0.03501168
000030 16 f8 8f 3d d0 40 66 3c 4c 7e ba 3d 68 01 45 bd
       0.070297405 0.014053538 0.091061205 -0.048097044
000040 58 36 9f 3c d8 ac 9f bc bc 97 9b 3d da 81 9e 3d
       0.019435093 -0.019491598 0.075973004 0.07739611
000050 e4 20 27 bd 54 95 1e 3d b0 23 72 3c ec 81 71 3d
       -0.04080285 0.03871663 0.014779016 0.058961794
000060 98 6a 85 bc e0 e8 3a 3c e8 03 a9 3c 30 18 77 bd
       -0.01628618 0.011408061 0.020631745 -0.0603258
000070 b0 76 14 3d fe 80 a6 3d 10 02 bb 3d 50 9e 19 bd
       0.036246 0.08130072 0.09131253 -0.037504494
000080 f8 22 83 3c 8c da 16 3d 3a 63 86 bd d0 09 ba 3c
       0.016007885 0.036829516 -0.06561895 0.022709757
000090 90 02 7d bc cc 9c d2 bd 8e 79 c7 bd 64 fe 34 3d
       -0.0154425055 -0.10283813 -0.097399816 0.04418792
0000a0 08 4f a2 3c f0 5d a3 3d 6c ff 2c 3d d0 92 03 bc
       0.019813076 0.079769015 0.042235777 -0.008030608
0000b0 50 9b 2b bd 90 3a 56 3c 06 88 9a 3d d0 e3 f2 bc
       -0.041896164 0.013075486 0.07545476 -0.029649645
0000c0 e0 e0 11 3c 80 8c 07 bb 14 db 1a bd e0 ff aa 3c
       0.008903712 -0.002068311 -0.037806585 0.020873964
0000d0 20 17 9f 3b 0a c3 91 3d 3c f9 79 3d 48 12 8a bd
       0.0048550516 0.07117279 0.061028704 -0.06741768
0000e0 5a d4 c4 bd fe 77 d3 3d fa 18 ff 3d ba 77 86 bd
       -0.09610815 0.10325621 0.12455936 -0.06565805
0000f0 d2 5b 94 bd 7a 7e c3 3d f6 99 a9 3d 00 1f 49 ba
       -0.07244076 0.09545608 0.08281319 -0.0007672161
000100 10 36 44 bc c4 4a 77 bd 2c 63 4e 3d 8e 4b bf 3d
       -0.01197578 -0.060374036 0.050387546 0.09340583
000110 a8 36 ab bd 3a 82 e3 bd 1e 66 e3 3d fe b2 e7 3d
       -0.08360034 -0.11108823 0.11103462 0.11313437
000120 08 3d c8 3c 78 80 99 bc 60 3b 34 bc 5e 4c a5 bd
       0.024443164 -0.018738016 -0.011000484 -0.080712065
000130 aa 47 e5 bd e8 b7 1a bd 10 7d ae bc 84 21 2f bd
       -0.111953095 -0.037773043 -0.021299869 -0.042756572
000140 12 bf a8 3d 44 86 b2 bd 60 50 f5 bd 44 3a 2b 3d
       0.08239569 -0.087170154 -0.11978221 0.041803613
000150 00 58 bd 3b 80 2a 8d bd d4 62 5e 3d 14 fd 06 bd
       0.0057783127 -0.06892872 0.05429347 -0.032956198
000160 54 56 ce bd 24 2c 4f bd 4a 87 b6 3d a8 d4 a0 3c
       -0.100750595 -0.050579205 0.08912523 0.019632652
000170 f8 4d a3 bc 84 7b d3 3d 10 87 5c 3c e8 0a 9b 3c
       -0.01993464 0.10326293 0.013459936 0.018926099
000180 6c 8c c1 3d 32 70 f6 3d 90 45 5b bc ec fb 4f 3d
       0.094506115 0.12033118 -0.013383284 0.05077736
000190 68 02 8d 3d d4 b6 a1 3d 6c 4d ae 3d 84 4a 71 3d
       0.068852246 0.078962 0.08510861 0.058908954
0001a0 fc 3b 82 3d 32 b4 ad bd 20 31 5d 3d 74 71 bd bd
       0.06359097 -0.08481635 0.054001927 -0.09250155
0001b0 84 99 d6 3d 04 0c 0c bd 8a 44 cc bd cc 96 d3 3d
       0.104784995 -0.034191146 -0.0997401 0.103314966
0001c0 00 40 93 3d d6 59 8e bd 10 09 77 3c fc 7d 99 bd
       0.071899414 -0.069507286 0.015077844 -0.07494733
0001d0 50 f6 7a 3d 70 74 2b 3c e2 f8 97 bd e0 80 f3 bb
       0.06127006 0.010464773 -0.074205175 -0.0074311346
0001e0 42 cb cf 3d 7a 1b 98 3d 4a 61 ef 3d 9a e0 b3 bd
       0.1014619 0.07427116 0.11688478 -0.08783074
0001f0 a0 f1 cc bd b0 2f d8 bc 38 a2 93 3d 10 81 4b 3d
       -0.10007024 -0.026389927 0.07208675 0.04968363
000200 86 77 e6 bd d8 27 97 bd ee 3b bd 3d 8e a0 8b bd
       -0.11253266 -0.073806465 0.09239946 -0.06817733
000210 56 87 88 bd e0 3b 27 3c a4 5b 4a bd 92 e4 96 bd
       -0.06666438 0.010207146 -0.0494038 -0.07367815
000220 90 df 2b 3c fc d9 83 bd 80 e9 2d 3b 94 81 57 3d
       0.010490313 -0.064380616 0.0026536882 0.05261381
000230 ac 58 c0 bd 90 c6 73 bc c4 e9 3e 3d a0 9a 5d bc
       -0.09391913 -0.014878884 0.046609655 -0.013525635
000240 42 4a c5 3d 3e ea fe bd 0c 7d 0f bd ec 4c eb 3d
       0.09633304 -0.12447022 -0.035031363 0.11489281
000250 ea 4e 81 bd 18 f3 d8 bc 08 f0 01 bd f8 53 8b 3c
       -0.0631388 -0.026483104 -0.031723052 0.017007813
000260 60 f6 c5 3c a4 49 4a bd a0 98 5f 3c f6 7f 94 bd
       0.024165332 -0.049386635 0.0136472285 -0.07250969
000270 d0 00 53 bc 68 19 2b 3d 92 ce 98 bd f8 4e 22 3d
       -0.012878612 0.041772276 -0.07461275 0.03962609
000280 d4 3f 25 bd fc 15 d7 bd 7c 51 d5 3d 88 33 29 3d
       -0.040344074 -0.1050224 0.104159325 0.04130891
000290 20 92 4d bd 04 d8 ac 3d cc 56 8f bd 70 76 bc bc
       -0.050188184 0.08439639 -0.06998977 -0.023005694
0002a0 50 4b 82 3d e6 9f c1 bd 8c 55 f2 bd 28 df d8 bc
       0.06362021 -0.09454326 -0.11832723 -0.026473597
0002b0 68 3b 87 3c cc de 16 3d 30 a1 19 bd 16 5f b5 3d
       0.01650782 0.03683357 -0.037507236 0.08856027
0002c0 8c c9 b5 bd 38 f4 db bc 68 c0 8a bd e0 f3 47 bd
       -0.08876333 -0.026849851 -0.0677498 -0.04881656
0002d0 44 f4 ae bd 3c c9 0e bd f8 4c e9 bd a4 68 1b 3d
       -0.08542684 -0.03485988 -0.11391634 0.03794159
0002e0 da 0a ba bd 98 de 7b 3d 30 0e 6a 3c 1c ed bb 3d
       -0.09084101 0.06149158 0.014285609 0.091760844
0002f0 10 ad 54 3c da e2 db 3d 3a 26 f8 3d 08 57 62 bd
       0.012980714 0.10736628 0.12116666 -0.05525878
000300 00 d6 2c 3c ec b4 38 bd 10 68 22 3c 6c 09 eb 3d
       0.010549068 -0.045094416 0.009912506 0.114764065
000310 a8 11 dd bc d8 12 bf bc cc 90 0e 3d 04 77 26 3d
       -0.026985958 -0.023324415 0.034806058 0.040640846
000320 ea a1 a4 bd 92 22 aa bd 8c bf c3 bd b6 f9 ad bd
       -0.08038695 -0.08307375 -0.09558019 -0.08494894
000330 a0 2a 19 bc d0 cd e6 3c 60 5c b2 3d e4 c7 5c bd
       -0.0093485415 0.02817431 0.087090254 -0.053901568
000340 96 1c c3 3d 8a 4b c8 bd 00 7a 46 3b b8 96 4f 3d
       0.09526937 -0.09780033 0.003028512 0.050680846
000350 86 7a c3 bd 26 95 83 bd 4c f1 ef 3d 40 aa de 3d
       -0.09544854 -0.06424932 0.117159456 0.10872316
000360 30 66 e8 bd 7c 90 87 bd 48 57 a4 bc e4 98 31 3d
       -0.11347616 -0.06619355 -0.02006115 0.0433587
000370 a4 1b d4 3d de ff 9e 3d c0 cc 78 bd 9a 24 d3 bd
       0.103568345 0.077636465 -0.06074214 -0.103097156
000380 d8 7c 5d bd 84 3e 8b 3d 52 5f b6 bd 68 c9 8a bc
       -0.05407414 0.06799033 -0.089049 -0.016941741
000390 a0 20 bd bb c4 20 bc bd 40 14 dc bb e8 7d d0 3d
       -0.0057717115 -0.09185937 -0.006716281 0.10180265
0003a0 d8 71 85 3d 3c 1e 8a 3d 34 be 1b bd b0 d0 b7 3c
       0.065158546 0.06744048 -0.03802319 0.022438377
0003b0 4a 94 d3 3d 80 a6 97 3d d2 d3 ed bd c0 fe b2 3b
       0.10331018 0.07404804 -0.11612667 0.0054624975
0003c0 3c 86 1b 3d 9c e3 a3 bd 9c 1a 4b 3d e4 73 13 3d
       0.037969813 -0.080023974 0.049585924 0.035999194
0003d0 d0 33 79 3c 08 5d c4 bc d8 9f f9 bd 78 3b 95 bc
       0.015210107 -0.023970142 -0.12188691 -0.018216833
0003e0 d8 08 57 3d 94 2c c2 3d 28 67 5a bd e0 8b a5 3c
       0.05249867 0.09481159 -0.053321034 0.0202083
0003f0 78 39 3c bd 68 6a 53 bd b0 9b b3 3c 3a e2 a4 3d
       -0.045953244 -0.05161515 0.021924824 0.08050962

lstm_cells.0.W_in.bias f4 [64]
000000 a6 55 94 bd a0 bf b8 3b 5a a5 ca bd e6 d3 ec 3d
       -0.07242899 0.005638078 -0.098948196 0.11563854
000010 18 3b 85 bd fc 1d d8 bd c0 34 21 bb 40 54 77 3c
       -0.06505412 -0.10552594 -0.0024598092 0.01509577
000020 c0 bc 4f bd 28 2a be bd 54 9a 03 bd 80 37 cf bb
       -0.050717115 -0.092853844 -0.0321296 -0.006323755
000030 dc b9 88 3d ba 63 84 bd b8 c1 8f bc 1a 25 e2 bd
       0.06676075 -0.06464334 -0.017548427 -0.11042233
000040 3c 33 b9 3d 96 5b dc bd 66 44 a8 3d 50 00 a0 3c
       0.09042975 -0.10759656 0.08216171 0.019531399
000050 3c 72 a6 bd c8 b7 05 3d 48 03 ff bc f0 2f f7 3d
       -0.08127257 0.03264597 -0.031129494 0.1206969
000060 94 88 42 bd 20 a3 e4 bb 1c 41 ed bd d0 3f 42 bc
       -0.047493532 -0.006977454 -0.11584684 -0.011856034
000070 c0 71 67 3d 30 f9 7d bc 48 98 db 3c 20 69 2a 3c
       0.056504965 -0.015501305 0.026806012 0.01040104
000080 10 15 26 bd a4 60 c0 3d 0a 29 fc 3d 80 2b 5e bb
       -0.04054743 0.09393433 0.12312515 -0.003390044
000090 18 02 6f bd 30 ba af bd f0 e0 6c bd f8 b7 f8 3c
       -0.058351606 -0.08580434 -0.057831705 0.03036116
0000a0 c0 1d e7 3c 22 75 cf bd 18 88 43 bd 78 7b b8 3d
       0.028212428 -0.10129763 -0.04773721 0.09007925
0000b0 f0 46 e0 3c 00 e4 0f 3b b0 d1 6b 3d b0 12 8a 3c
       0.027377576 0.0021955967 0.05757302 0.016854614
0000c0 38 0b fb 3d 30 7e 5f bd a8 25 b3 bc 02 ba ce bd
       0.12257999 -0.0545637 -0.021868542 -0.10094072
0000d0 70 25 e1 bc fc f4 35 bd a0 b9 c8 3d ac 72 f7 bd
       -0.027483672 -0.04442309 0.0980103 -0.12082419
0000e0 dc 77 b0 3d 90 70 be 3c 32 97 91 bd 00 d0 f8 b9
       0.08616611 0.023247033 -0.07108916 -0.00047457218
0000f0 4c 38 53 3d 86 3f ff bd d8 b5 f3 bd 62 cd 94 3d
       0.05156736 -0.12463288 -0.11899918 0.07265736

W_h.weight f4 [64, 64]
000000 6a 25 3e 3d ea db ad 3d 7a a8 d6 3b 0e 51 9e 3c
       0.0464224 0.08489211 0.0065508457 0.01932576
000010 c1 6d 1f 3d e1 0b e4 3d c6 71 c9 bd a7 e2 06 be
       0.03892303 0.11135078 -0.09836154 -0.13172399
000020 52 0c b4 3d 15 1f a4 3d b1 00 dc bd 9d c0 88 bd
       0.087914124 0.08013741 -0.107423194 -0.06677363
000030 ed 0d 1d bd 2e 70 55 3b 96 cc 8c 3d dd 40 29 bd
       -0.03834336 0.0032568085 0.06874959 -0.041321624
000040 76 c7 b5 bb 4c 2c 9d 3d 6f 99 e2 bd c0 0d 63 bc
       -0.0055474592 0.076744646 -0.110644214 -0.013858259
000050 ef 33 33 bd d4 22 19 3d 88 46 40 bd a8 df cf bd
       -0.0437507 0.03738673 -0.046942264 -0.10150081
000060 9b 6e 9b bd 80 c1 ef 3d 94 04 65 3d cb da a5 bd
       -0.07589456 0.11706829 0.05591257 -0.08098372
000070 dc 6a e2 bd d1 b9 e8 3d 1c 2e c6 3d ab 02 ed 3d
       -0.11055538 0.11363567 0.096767634 0.115727745
000080 05 7e 5d bd a2 94 b8 3c a3 9d 04 bd 37 95 ed bd
       -0.05407526 0.022531811 -0.032376897 -0.11600726
000090 f7 00 a1 3d 49 9e 50 3d a5 24 ee bd 2d 7e 56 3b
       0.07861512 0.050932202 -0.11628083 0.0032729015
0000a0 a1 39 44 3d 9f 66 a4 bd 7d 90 d7 bd 0c 15 1a bd
       0.04790652 -0.08027386 -0.10525606 -0.037617728
0000b0 9b f7 d0 bd 30 d0 8d bc 3b e9 6a bd fb 0e bb bd
       -0.10203477 -0.017311186 -0.057351332 -0.09133717
0000c0 eb 24 f8 3a 33 6c f8 bd 46 63 d3 bc 8a fe b4 3d
       0.0018931901 -0.12130012 -0.025804173 0.08837612
0000d0 ac 54 8d 3c 5c 84 02 bd 8d c7 de bd 1c ce de 3d
       0.017252289 -0.03186451 -0.10877905 0.10879156
0000e0 fa 47 ee bd 5d 9c a3 bd 94 f6 55 bd 7e 4a f6 bc
       -0.11634822 -0.07988808 -0.05223711 -0.030064818
0000f0 c8 14 e9 3d 02 92 85 3d 25 e3 d7 3d 1c e3 d8 3d
       0.11380917 0.065219894 0.10541371 0.10590193
000100 b2 d9 d2 3d 2a e7 f1 3d 86 16 18 3d 39 ce ac 3d
       0.10295428 0.11811669 0.037130855 0.08437771
000110 03 71 38 bd 93 d5 4e 3c a5 d6 02 bb f3 97 09 be
       -0.04502965 0.012624162 -0.0019964364 -0.1343687
000120 8b 6d d2 3d fb 68 ee 3d 14 4a e8 bd 3c ac 16 bc
       0.102748 0.11641117 -0.11342254 -0.009196337
000130 4a ff 8c bd 10 e1 44 3a 5b 13 af ba 39 90 bc 3d
       -0.0688463 0.00075103436 -0.0013357209 0.09207196
000140 aa f0 f0 bc 1a 22 bb 3d 03 7b c4 bd 6e a9 2f 3c
       -0.029411633 0.09137364 -0.09593775 0.0107215475
000150 58 20 c2 3c 47 63 dc 3d 49 cd b7 3c 56 3a 8f 3d
       0.023697063 0.10761123 0.022436755 0.069935486
000160 fc 7d 9b 3d 78 c5 a2 bc 10 b5 0d bd 30 93 c4 3d
       0.07592389 -0.019869551 -0.034596503 0.09598386
000170 46 1a 26 3d b3 32 49 bc 16 6d c1 bd db f9 15 3d
       0.0405524 -0.012280154 -0.094446346 0.036615234
000180 86 af 78 3d 16 a4 ea 3d ea 39 fb bd 1b 75 76 bd
       0.060714267 0.11457078 -0.122669056 -0.060170274
000190 64 4b 64 3d 8d 53 c7 bd a0 ea 56 3d a6 28 b8 bd
       0.05573596 -0.09732733 0.05246985 -0.08992128
0001a0 07 6e 0d bd f6 7b b2 bd 4f 09 2a bc 07 77 39 bd
       -0.03452876 -0.0871505 -0.010378196 -0.04527953
0001b0 70 eb 18 bc 3d 04 a6 bc d6 2d 98 bd 03 f1 4e bd
       -0.009333476 -0.020265693 -0.074306175 -0.050522815
0001c0 ee 67 f3 bc 0c fd b8 3d 1e 16 18 bd 07 9d 49 bc
       -0.029712643 0.0903264 -0.037130468 -0.012305505
0001d0 59 1a 83 3d be 4c e2 3d 64 58 7a 3d 26 f7 8d 3c
       0.0640151 0.11049794 0.061119452 0.017329764
0001e0 98 0a 26 3d f8 0f 81 bd c3 70 94 bd 14 b3 a0 3d
       0.040537447 -0.06301874 -0.0724807 0.078466564
0001f0 5f e4 28 bb 5d 06 8e bc e0 11 cd 3d 01 3f b1 3d
       -0.0025770885 -0.017337019 0.10013175 0.08654595
000200 dd 15 0c bd f9 26 12 bd 01 ee 9a 3d f6 91 04 bd
       -0.034200538 -0.0356817 0.07564927 -0.03236576
000210 a0 16 4b bd 91 5b 0f 3d ac 73 af bd 2a de bb bc
       -0.049582124 0.034999434 -0.085669845 -0.022933085
000220 87 79 b2 3c cf 8e 13 bd 8a c6 d3 bd b9 ba 96 3b
       0.021786464 -0.036024865 -0.10340603 0.004599896
000230 b1 15 01 3e e7 3c 08 bd cf 95 c7 3d e6 33 f0 3d
       0.12605931 -0.033261206 0.097453706 0.11728649
000240 d2 4a 2d bd ed e5 31 bb 27 6b a6 bd 49 5a ac bd
       -0.042307682 -0.0027145103 -0.081259064 -0.08415658
000250 41 87 3b bd f6 83 0c 3d 1e a3 c2 3d b8 d0 d2 3d
       -0.045783285 0.034305535 0.095037684 0.10293716
000260 ad f0 72 bc c4 b3 a5 bd af 11 b0 3c 40 5b e4 bd
       -0.014827889 -0.08090928 0.021492807 -0.11150217
000270 9b 8e e4 bd cc 8b dd bc 8d 10 10 3c 7d 67 9f bc
       -0.11160012 -0.0270442 0.0087930085 -0.019458527
000280 66 13 5d bd a4 11 99 bd 43 1d d8 bd d7 ee e2 3d
       -0.053973578 -0.07474068 -0.10552456 0.11080711
000290 9f 62 45 3d 4f 76 3a bd ee 6c 82 bd b1 ce cc bd
       0.048189756 -0.045522984 -0.06368433 -0.10000361
0002a0 b9 19 e7 3d fc de 90 bd b1 b1 82 3d 65 00 a1 ba
       0.11284203 -0.07073781 0.06381548 -0.0012283443
0002b0 58 fd 0b 3d 90 f0 07 3d f6 c7 cc bc 37 b0 a3 bd
       0.034177154 0.033188403 -0.024997693 -0.07992595
0002c0 92 c8 41 3d f0 bb 4d bc c4 ef 79 bd 90 06 f8 3d
       0.04731042 -0.012557015 -0.061019674 0.12110627
0002d0 ff 04 74 3d b1 23 23 bc 54 a2 22 3d 9a 16 5b bc
       0.059575077 -0.00995724 0.03970559 -0.013372088
0002e0 a2 1c 60 3d 6a 6f 45 bd 04 01 82 bc 36 cd 2b 3d
       0.054714806 -0.048201956 -0.015869625 0.04194375
0002f0 13 9f c8 bd 53 ed d1 bc 96 dc 36 bd b0 79 4b bd
       -0.09795966 -0.02562586 -0.04464396 -0.049676597
000300 2f f9 7c 3c de 39 b0 3d 17 75 87 3d 42 4e c2 3d
       0.015440269 0.08604787 0.0661413 0.09487583
000310 67 9a 89 3d 23 ed 88 bd d7 98 09 bd f0 e2 0b bc
       0.06718903 -0.06685855 -0.033593025 -0.008537993
000320 75 05 f0 bd 17 0f 9e bd 64 50 50 3d d0 2f 38 3d
       -0.11719791 -0.07717722 0.050857916 0.044967473
000330 d0 40 93 3d 65 2f 62 bd 2b d9 3f 3d 50 55 18 3d
       0.071900964 -0.05522098 0.046837967 0.037190735
000340 3a e0 f2 bc 17 93 16 3c 77 9d 05 bd f9 5f 24 3d
       -0.029647935 0.009190342 -0.032620873 0.04013059
000350 87 7f 33 3d e4 fc 9d bb aa ff 76 bd 1a c1 e8 3d
       0.04382279 -0.0048214067 -0.060302414 0.11364956
000360 f1 19 00 3e 79 8d c7 bd ad b4 1c 3d c4 94 91 bd
       0.12509896 -0.09743781 0.038258243 -0.07108453
000370 73 ce 8c bd 87 09 bb 3d 5e d2 96 bc a0 43 0c bd
       -0.068753146 0.091326766 -0.018410858 -0.03424418
000380 68 55 00 bd 10 55 f4 bd 3f b6 90 bd d3 cb b1 3d
       -0.03133145 -0.11930287 -0.07066011 0.086814545
000390 c4 03 e4 bd 7a 53 99 bd 8f 75 01 3e 47 52 8d bc
       -0.11133531 -0.07486625 0.12642501 -0.017251147
0003a0 fd 92 49 3d 84 52 33 3d 84 28 9f 3d 05 2d 01 bc
       0.049212445 0.043779865 0.077713996 -0.007884269
0003b0 7d 6e cc 3a 97 39 e3 bd 19 79 48 3b 6e 69 bb 3d
       0.0015596893 -0.11094969 0.0030589758 0.091509685
0003c0 d7 4a 89 3d ab 50 aa bd d4 2c e0 3d b3 7a 45 bc
       0.06703728 -0.083161674 0.1094605 -0.01205318
0003d0 07 13 b2 3d 98 3a 8f 3c 06 9f ca 3b 11 d1 d2 bd
       0.086950354 0.017483994 0.006183508 -0.102937825
0003e0 25 a8 80 3d 4c f8 b4 bd 32 4c de 3d b5 c2 a4 bd
       0.06282071 -0.08836421 0.10854377 -0.0804495
0003f0 cc 88 01 3d b8 dd de 3d 9e 0c 99 3d 75 6c c1 3d
       0.0316246 0.10882133 0.0747311 0.09444515

W_h.bias f4 [64]
000000 0c fe 97 bd 30 07 03 3e 72 1e 88 3d 96 28 bf 3d
       -0.074215025 0.1279571 0.06646432 0.09333913
000010 26 60 c9 bc bc 1d 5b bd e1 38 45 3d b9 7e cb 3d
       -0.02458198 -0.053495154 0.048149947 0.0993628
000020 33 b8 78 3d 0d 11 f3 bd 58 97 02 3d 1a 61 d8 3d
       0.06072254 -0.118684866 0.031882614 0.10565396
000030 ed 31 10 3d 96 a7 c3 bd ab 45 76 3d 3d 9b ab bc
       0.035203863 -0.09553449 0.060125034 -0.020948047
000040 02 1a 53 bd 7c 8f 1c 3c 8c 88 47 3c 39 43 73 3d
       -0.051538475 0.009555694 0.012178551 0.05939028
000050 55 e1 e0 3d 5a 64 10 3d ad b0 88 bd 32 3c c3 bc
       0.10980479 0.035251953 -0.06674323 -0.023832414
000060 ff e0 69 bd 27 ab 84 bd dc 7f 8e bb 01 47 aa bd
       -0.05709934 -0.06477957 -0.004348738 -0.08314324
000070 99 f0 91 bd 90 d8 29 3d 16 e2 95 3d 62 c9 48 3d
       -0.071259685 0.041466296 0.07318513 0.04902018
000080 bd e6 10 bd c1 7b d4 3d 61 bf a4 bd 4b 86 0e 3d
       -0.0353763 0.10375167 -0.08044315 0.03479604
000090 ab 28 d2 3d 15 68 2e 3d de 12 32 3d 7c 95 70 3c
       0.10261663 0.04257973 0.043475024 0.014684077
0000a0 60 79 a3 bd 17 bb df 3d b9 30 77 bd e3 78 94 bd
       -0.07982135 0.109243564 -0.0603492 -0.0724962
0000b0 48 b8 f6 3d 27 7e 30 bd e2 21 d6 bd f5 48 42 3d
       0.120468676 -0.04308906 -0.104556814 0.04743286
0000c0 13 39 c4 bd 6e ed 72 bb 3a 31 91 3d 05 3c ef bd
       -0.095811985 -0.0037067789 0.07089467 -0.1168137
0000d0 e1 c3 3c bd d0 11 3d bc a9 28 27 3d ab db af bc
       -0.046085242 -0.011539891 0.04081026 -0.02146705
0000e0 c4 b0 da 3c ca 74 95 3d 03 23 d2 bd f3 f7 c6 3d
       0.026695617 0.07297666 -0.10260584 0.09715261
0000f0 ec 1e 68 bc 42 01 f6 3d 95 6d 91 3d df 6b ad bd
       -0.014167529 0.12011959 0.07100979 -0.084678404

W_g.weight f4 [64, 64]
000000 b4 0d c7 bd ce 7d f5 3d d8 16 97 bd bb b7 ea 3c
       -0.097194105 0.11986886 -0.07377404 0.028652063
000010 b4 93 10 bd a8 94 62 3d 1c 5e e2 3d 08 26 ba bd
       -0.03529711 0.05531755 0.11053106 -0.09089285
000020 2d 11 a0 bc cd fe f1 bc c8 e0 1b 3d 54 86 d9 bd
       -0.01953944 -0.029540444 0.038056165 -0.10621324
000030 ac 3c e3 3d 6a a6 cc 3d 9b 8f dc 3c 0b 45 dd 3c
       0.110955566 0.099926785 0.026923945 0.027010461
000040 1c e1 ad 3d 53 16 97 3c 4c 6c 1e 3c 0c bf 0e 3c
       0.08490202 0.018443262 0.009669375 0.008712541
000050 e0 d6 c2 bd 33 69 e9 3c b4 1a 6a bd d0 4a 20 bd
       -0.095136404 0.028492546 -0.057154372 -0.039133847
000060 a4 18 27 bd 4e a6 7c bb d0 48 06 3d 04 ee 2d bd
       -0.040794984 -0.0038551274 0.032784283 -0.042463318
000070 c4 c9 d0 3d ac ca a7 3d 04 b8 3d 3d ac 44 c7 bd
       0.10194734 0.081929535 0.04631807 -0.09729895
000080 ec 73 b4 bd 9a 4e 8a bd 4b 86 99 3c 58 02 c0 bd
       -0.08811173 -0.06753273 0.018740794 -0.09375447
000090 8a 95 cc 3d 42 da a4 3d b6 7f e1 bd 1a db a2 3d
       0.0998946 0.08049442 -0.11010687 0.079519466
0000a0 8d 2d c7 bc 5c b7 28 3c 95 13 b0 bc 54 9c d4 bd
       -0.024313712 0.0102976225 -0.021493712 -0.1038138
0000b0 18 97 e0 3b 40 1b f7 bd de 24 b9 3d 53 75 01 be
       0.0068539493 -0.120657444 0.09040235 -0.12642412
0000c0 26 bf 84 3d 42 16 66 3b 72 c2 f9 bd 18 d3 44 bd
       0.06481771 0.0035108482 -0.121952906 -0.048052877
0000d0 d4 12 f8 3d 5c 9a 12 bd 92 f3 90 ba c6 5f 1a bc
       0.12112966 -0.03579174 -0.0011058918 -0.009422248
0000e0 1a fb e6 bd a8 2f 2c 3d 54 a0 01 3d e8 70 19 3d
       -0.112783626 0.042037636 0.03164704 0.03746119
0000f0 08 2b 7c 3c 12 6d 79 3d fc 27 dc bd f4 84 43 3d
       0.015391119 0.060895033 -0.10749814 0.047734216
000100 77 6d c8 3c ea 8b c7 bd a1 03 cc bc a0 39 03 3c
       0.02446626 -0.09743483 -0.024904074 0.008009344
000110 0a 7b 58 bd 61 b7 a4 bc b6 8d 12 bd 16 af 74 3d
       -0.052851714 -0.020106973 -0.035779677 0.059737287
000120 3a 43 e5 3d cd 70 78 bd ba 7c 84 bd 17 07 ab bb
       0.11194463 -0.06065445 -0.06469102 -0.005219351
000130 a9 ea 0e 3d b3 75 31 3c 82 e3 9c 3d 56 4b 78 3d
       0.034891758 0.010831284 0.07660581 0.06061872
000140 d2 0f b5 3d 92 ba 52 3d b8 23 93 bd 73 85 43 bc
       0.08840908 0.05144746 -0.07184547 -0.011933672
000150 ae 71 da 3d 90 e6 ad bd 89 3f b7 bc 34 99 90 bd
       0.10666214 -0.08491242 -0.022369163 -0.07060471
000160 d2 5b 36 bd 09 f1 c6 bb 2a 9e 6e 3d 3e dc 58 bd
       -0.04452116 -0.006071214 0.058256306 -0.052944414
000170 22 c6 48 bd 21 9f 0b 3d 89 fe 68 bc 94 b8 8b bd
       -0.04901708 0.034087304 -0.014220842 -0.06822315
000180 21 f2 98 bc 48 1b 82 3d 1a 67 0d bd f8 b5 97 bd
       -0.018670144 0.0635286 -0.034522153 -0.07407755
000190 e2 33 41 3d 6c a9 ba 3d 79 12 86 bc 0a d3 6d 3d
       0.04716862 0.09114346 -0.01636623 0.05806259
0001a0 a2 fe f2 bd f6 85 67 bd 4e 96 11 bd 7a 63 87 bd
       -0.118649736 -0.05652424 -0.035543732 -0.066107705
0001b0 0a c0 9f 3d 6e 4d f6 bc b5 51 14 bb 0c c3 e8 3d
       0.078003004 -0.030066218 -0.002263171 0.11365327
0001c0 87 f5 a8 3c e4 b9 0f 3d ef b0 7a bd 16 db 3f bd
       0.020624889 0.03508939 -0.061203893 -0.046839796
0001d0 82 54 8e 3d e8 c6 cd bd d5 ec df bc 6e f3 ab 3d
       0.06949712 -0.10047704 -0.02733461 0.0839604
0001e0 68 a8 cb bd ca 64 a5 bd 5a e8 b8 bd 3f 5c e4 3c
       -0.0994423 -0.080758646 -0.090286925 0.027876018
0001f0 e6 ee 9a bd b2 9b 14 bd ce fa 9d bd 7a 7b 28 bd
       -0.075650975 -0.036281295 -0.07713853 -0.04113338
000200 d6 70 7c 3d 0f a3 bc bc 92 1e 4b 3d 59 f6 ef bb
       0.061631046 -0.023026971 0.0495897 -0.007323068
000210 b2 62 e6 bd 17 b9 08 3c 3e 3a 00 bd d0 b1 81 bd
       -0.112492934 0.00834491 -0.031305544 -0.06332743
000220 80 31 97 3d 14 fa a3 bd a7 cb b6 bc 66 0e 2f bd
       0.07382488 -0.08006683 -0.022313906 -0.04273834
000230 c6 dd 43 3d ca 07 05 bd da f4 29 3d 0f 13 bc bc
       0.04781892 -0.03247813 0.041493274 -0.022958307
000240 f0 b2 95 3d 02 0d ea bd ae 74 8c bd 76 a0 90 3d
       0.0730952 -0.11428262 -0.068581924 0.070618555
000250 56 b7 01 bd 72 aa 2f 3d 24 2e d7 bd 26 45 e0 bd
       -0.031668983 0.04288716 -0.105068475 -0.10950689
000260 36 07 a9 3d 1a fb 9b bd 24 1f bf bd 80 0a e5 3d
       0.082533285 -0.07616253 -0.093321115 0.11183643
000270 e9 fa a6 bb 26 0a 46 3d 92 6d ea 3d a8 b8 fc 3d
       -0.005095829 0.048349522 0.1144668 0.12339908
000280 0c d1 ee 3d ae 39 6d bd 04 f7 dc bd ce 92 45 bd
       0.11660966 -0.057916336 -0.10789302 -0.048235707
000290 ac 83 ed 3d 2e 0d 6c 3d 7c 18 c8 3d 32 8f 19 bd
       0.1159738 0.057629757 0.09770295 -0.037490077
0002a0 c6 1e 5c 3d a4 b8 e2 3d 16 1e ec bd 98 9a 7a bd
       0.053740285 0.11070374 -0.11529176 -0.06118259
0002b0 84 64 cd 3d 3c e9 bf bd 68 53 f2 3d 2f 9f e9 bc
       0.100289375 -0.09370658 0.11832315 -0.028518287
0002c0 04 a5 c4 bd 30 e8 bd 3d e0 97 d6 3d 44 e2 85 bd
       -0.09601787 0.09272802 0.104781866 -0.06537297
0002d0 d2 ad 2e bd 88 93 b3 3d 84 58 e2 bd 98 23 8b bd
       -0.042646237 0.08768374 -0.11052039 -0.06793898
0002e0 86 01 24 bd ba 0b 63 bd ea ab be 3d 8f 48 a6 bc
       -0.040040515 -0.055431105 0.09310134 -0.02029827
0002f0 d4 69 e1 bd e6 43 70 3d 58 50 c8 bd ed f9 55 3c
       -0.11006513 0.058658503 -0.09780949 0.013060075
000300 cf 19 8b bd 7d bb 56 bd fd f7 b1 3d bb b2 d8 3d
       -0.06792032 -0.052424897 0.08689878 0.10580965
000310 bd 9a c9 bd 1b cd 67 3d 55 a1 49 3c 3b 4b f1 3d
       -0.09843967 0.05659209 0.012306531 0.11781927
000320 07 bd 37 3d 64 b7 92 bc e9 a7 37 bd 33 ed 0a 3d
       0.044858005 -0.017909713 -0.044837866 0.033917617
000330 6f 85 a7 bd cf 86 28 3d 71 7d fe 3d 41 c2 79 bc
       -0.08179747 0.04114419 0.1242627 -0.015244068
000340 3d b2 a1 3d 9d 9f 81 bd 29 5f e6 3d 6f 0a c7 3d
       0.078953244 -0.06329272 0.11248619 0.09718787
000350 35 ba 4c bd 29 f9 13 bd 9f 14 42 3d dd 86 bb 3d
       -0.04998227 -0.03612629 0.047382947 0.091565825
000360 29 b0 62 bd 35 23 1f bd a3 d7 cb bd 3b 45 88 bd
       -0.05534378 -0.038851935 -0.09953239 -0.0665383
000370 e0 74 ca bb 7f bf 8f bd a5 03 b1 bd 9d 7f 05 3d
       -0.0061784834 -0.07018947 -0.08643273 0.032592405
000380 b1 1a 7c 3c 40 6b e5 3b eb 99 51 3d 55 33 1f 3c
       0.015387223 0.0070013106 0.05117218 0.009716828
000390 c1 4a 1c bd ad 00 21 bd 6d 3c 9d 3d 41 87 db bd
       -0.03815723 -0.039307285 0.07677541 -0.10719157
0003a0 ab f1 cb 3d 03 96 ad bd 7f 9d c1 3d 24 a1 80 3d
       0.09958204 -0.08475878 0.09453868 0.06280735
0003b0 ab 4b a3 3d 4b 46 7a bd dc 12 02 bc 6d 5d 73 bd
       0.07973417 -0.061102193 -0.007939067 -0.05941527
0003c0 8b 54 94 3d e1 b4 09 3a e5 9f 17 bd ed 89 e0 3d
       0.07242688 0.00052530883 -0.03701772 0.10963807
0003d0 b5 90 5a bd 5f 49 ac 3d d7 00 8b 3d b1 0f a4 bd
       -0.05336066 0.08412432 0.067872696 -0.080108054
0003e0 a9 5e 8f bd 93 3b 07 3d 31 dc 9d bd 1b 8e 9f bd
       -0.07000477 0.0330158 -0.07708014 -0.07790776
0003f0 84 dc ce 3c e3 74 e6 3d c5 91 6b bd c9 65 06 bd
       0.025251634 0.11252763 -0.057512064 -0.032811914

W_g.bias f4 [64]
000000 2d 46 19 bd da 63 a8 3d 83 7b a6 bb 5c b8 b3 bd
       -0.03742044 0.0822217 -0.0050806417 -0.08775398
000010 91 be 92 bd 13 92 c2 3d a9 34 2d 3d 26 9c 62 bd
       -0.07165254 0.09500518 0.04228655 -0.055324696
000020 e9 47 70 bd 2b 17 20 3d 10 ea 36 3d e8 5b cd 3d
       -0.05866233 0.039084595 0.044656813 0.10027295
000030 c9 39 74 3d 5d c4 6c bd 8f d5 15 3d f0 1f 06 3b
       0.05962542 -0.057804454 0.03658062 0.0020465814
000040 7f b0 bf bc b8 9f d2 bc 86 3b 9d bd 13 3d a0 3d
       -0.02339959 -0.025710925 -0.07677369 0.07824149
000050 9b 4f 58 3d 81 72 97 bd 9f a4 71 3d 0d b0 a9 bd
       0.052810293 -0.07394887 0.058994886 -0.08285532
000060 33 a2 d1 3b 83 76 66 bd 08 98 da bd 8b fe 6f bd
       0.0063975095 -0.056265365 -0.10673529 -0.05859236
000070 85 5b af bd 00 41 33 bd cc 3a 8a bb fe bb 09 bd
       -0.08562378 -0.04376316 -0.004218435 -0.03362655
000080 b1 ad 9f 3d c3 e5 2f 3d e4 79 dd 3c e7 5d a0 3d
       0.07796801 0.042943727 0.027035661 0.078304105
000090 45 4a a3 bc 4a 1f c8 bd 61 bd fd bd e2 23 91 bd
       -0.019932875 -0.09771593 -0.12389637 -0.07086922
0000a0 67 d6 9d 3c bd 65 f8 bd 9b 3c dc 3d fd d1 b0 3d
       0.019267274 -0.1212878 0.10753747 0.08633802
0000b0 b6 a3 b6 3d 8f 9a 58 bd ef 9a 53 bd a6 78 d1 bd
       0.08917944 -0.052881774 -0.051661428 -0.1022809
0000c0 27 10 00 3e e5 46 2c bd 0c cb 03 3d 8e 4a 04 bc
       0.12506162 -0.042059798 0.032176062 -0.008074416
0000d0 3b 9e b6 bd b7 1d f5 bd b7 9f b5 bd 89 3c 77 bc
       -0.08916899 -0.11968558 -0.08868354 -0.015090116
0000e0 bd 6b 9e 3d 10 c5 e7 bd e5 3e f2 3d 1e 9e 0c 3c
       0.07735393 -0.113168836 0.118284024 0.00858262
0000f0 d9 4e 0a 3d 52 f1 16 3c e9 68 d2 3c d9 fb 8c bd
       0.0337666 0.009212809 0.02568479 -0.06883974

W_x.weight f4 [64, 1]
000000 ac 12 2a bf df 32 7a 3f 8b 10 8d 3c a0 14 4f be
       -0.6643474 0.97733873 0.017219802 -0.20222712
000010 67 a3 c6 3e 97 ff 3b 3f 6c 09 71 3f 1d dc 6b 3e
       0.3879654 0.73436874 0.94155 0.23033185
000020 42 b0 77 bf 18 3a 74 be ca c8 d8 be 4b 2f 20 3f
       -0.96753323 -0.23850286 -0.4234069 0.62572163
000030 78 b1 c1 be ed 2e 56 be 93 f1 b7 3e 52 2e 81 3e
       -0.3783071 -0.20916338 0.35926494 0.25230652
000040 07 d5 82 be c5 75 a9 bd b7 21 63 be 30 d6 05 bf
       -0.25553152 -0.08274416 -0.2218083 -0.5227995
000050 23 55 be 3e e6 f5 b8 ba 12 fa a6 3e e0 78 14 3f
       0.3717433 -0.0014111369 0.32612664 0.5799694
000060 1a e5 39 bf 97 33 52 3e 8f 74 12 3f f4 65 74 bf
       -0.72615206 0.20527492 0.57209104 -0.9546807
000070 06 2b 9e be e8 5f 35 bf f7 4f b2 3e c7 20 4a bf
       -0.308922 -0.70849466 0.34826633 -0.78956264
000080 1b 41 c3 3d 07 8c 56 3f 55 a6 31 3f 4a 0a 6b 3f
       0.09533902 0.83807415 0.6939443 0.91812575
000090 8d 00 b7 3e 22 e9 2e 3f 41 3c 1a be 6f 43 3d bf
       0.35742608 0.6832448 -0.15062048 -0.7393102
0000a0 aa e4 5c 3f 2a 1f 66 3f 6b a4 f9 be e2 b9 70 3e
       0.86286414 0.898913 -0.48758253 0.23508409
0000b0 d1 4d 2b 3f 25 40 3a bf 9c ff 1c bf a9 1a 67 be
       0.66915613 -0.72754127 -0.6132753 -0.22568764
0000c0 85 5d 03 3f 8d 26 65 bf 89 d3 b6 3e 3e 9a f7 be
       0.51314574 -0.8951195 0.35708264 -0.48359865
0000d0 cb b7 1d bf 05 b9 6c 3f 82 89 42 3f e0 7b 17 3e
       -0.6160857 0.9246982 0.7599107 0.14793348
0000e0 7c 2e ad 3e 31 f4 79 bf ef 5b 04 bf 86 af 7e bd
       0.33824527 -0.9763823 -0.5170278 -0.06217911
0000f0 ac e7 61 3f 96 52 71 bf 96 b3 a1 bd 1c 32 7f 3f
       0.8824413 -0.9426664 -0.078955814 0.99685836

W_x.bias f4 [64]
000000 b7 17 14 3f 77 f5 33 bf 05 78 9d 3e 78 4a fc be
       0.57848686 -0.70296425 0.3075563 -0.49275565
000010 ef a6 7c bf 5a d4 94 3b b0 7e fc be 29 97 6a 3e
       -0.9869222 0.004541916 -0.49315405 0.22909226
000020 0a 81 ac 3e 32 bd 03 bf 58 8b 8f bc 89 d4 c1 3e
       0.336922 -0.51460564 -0.017522499 0.37857464
000030 f9 66 70 3f 9c a4 98 3d b7 58 32 bf a1 86 93 3e
       0.93907124 0.07453272 -0.6966662 0.2881365
000040 43 6f e8 3e 53 77 05 bf 22 2b f1 3d a5 ca 69 bf
       0.45397386 -0.521352 0.11775805 -0.91324836
000050 de 5f 51 bf f5 3b a9 3d 39 c3 06 bf d5 f5 a9 3d
       -0.81786907 0.08263389 -0.52641636 0.08298842
000060 49 56 52 3f 8e 26 f8 be cc b5 76 3f d7 cc 30 bf
       0.8216291 -0.48466915 0.9637115 -0.6906256
000070 c7 3a cc bc 0d 55 14 bf 41 3d 66 3f 7b 18 16 3f
       -0.024930371 -0.5794228 0.89937216 0.58631104
000080 66 80 35 bf df 7e 34 3e 17 80 80 3e 2c 76 88 bd
       -0.70899045 0.17626522 0.25097725 -0.066631645
000090 b3 8f b5 be bb 62 71 3f 74 9e 10 3f ac e1 7c be
       -0.35461196 0.94291276 0.5649178 -0.24695462
0000a0 31 0d 93 be e9 b5 66 3e d2 a4 d4 be 2c 01 d5 3e
       -0.28721002 0.2253033 -0.41531998 0.41602457
0000b0 ae 4a 0a bf 1c 0f 8e be 39 3a 6f bf d1 62 15 3f
       -0.540202 -0.27745903 -0.93448216 0.58353907
0000c0 08 d6 d7 3e ec a0 34 bf 3d 91 3a bf 2b 1d d8 3e
       0.4215548 -0.7055805 -0.72877866 0.42209753
0000d0 f3 fe 70 3f 21 95 25 3f 6b d4 85 3e bb e2 c4 3e
       0.9413902 0.6468068 0.26138625 0.38454232
0000e0 1a a5 0b be b6 fd 62 bf e6 5a b5 3e a9 ae a6 be
       -0.136372 -0.8866838 0.35420913 -0.3255513
0000f0 6e dd 4b bf d8 67 99 3d 5d 96 e9 3e 5f a2 f6 be
       -0.7963475 0.0749051 0.4562253 -0.48170754

W_1d.weight f4 [1, 64]
000000 79 33 ea 3c 4c 82 8e 3c d0 2b cf 3c 87 bb 20 bd
       0.028588997 0.017396115 0.025289446 -0.03924134
000010 31 bc 79 3d 1a 1d db 3c 48 19 9c 3c 70 1d 6b 3d
       0.06097049 0.026747275 0.019055024 0.05740112
000020 7b b1 d4 bd 7e 1e 91 3d 54 2a b6 bc 8c 48 2c 3d
       -0.10385414 0.07085894 -0.02223698 0.042061374
000030 a7 d3 bc bd d0 13 95 3b 39 14 c8 ba a1 f9 6a bd
       -0.09220057 0.004549481 -0.0015264816 -0.05736697
000040 5d 02 53 3d b4 42 be 3b 06 e1 1e bd 9c 1d a4 bc
       0.051515926 0.0058062915 -0.038788818 -0.02003365
000050 c3 5b 8a bd ed 9c a4 b8 6c d7 d4 bd 80 e6 e9 3d
       -0.067557834 -7.849359e-05 -0.10392651 0.114209175
000060 a2 2f 8c 3c 69 c5 a0 ba de fb 40 bd 0a f2 66 3d
       0.017112557 -0.0012265864 -0.0471152 0.05638317
000070 91 51 b8 bd 20 64 bb bd be b3 bf 3d 40 a4 77 bc
       -0.089999326 -0.09149957 0.09360455 -0.015114844
000080 d3 0f 35 bc 29 60 a7 3d c1 16 c9 3d 9e d0 8e 39
       -0.011051136 0.08172638 0.09818793 0.00027239783
000090 18 db 22 3c 87 fa 75 3d db 62 fc bc 8a 23 9d b9
       0.009939931 0.060053375 -0.030808857 -0.00029971852
0000a0 c1 12 a0 3d 0a 8d d8 bc ef 08 77 bd c2 31 a0 bc
       0.07816077 -0.02643444 -0.060311254 -0.019554976
0000b0 06 ed ff 3c f5 2a d2 bc 02 e1 72 bb 17 75 46 3d
       0.031240951 -0.02565525 -0.0037060385 0.04845151
0000c0 66 eb a2 3d ce 22 45 bd 59 4a 57 3d 49 f1 98 bd
       0.07955055 -0.048128895 0.052561138 -0.074678965
0000d0 05 d4 bb bb d9 64 3f 3c 70 29 b6 3b de 2d be bd
       -0.005732062 0.011681759 0.005559139 -0.09286092
0000e0 24 81 51 3d 69 23 04 bd fb 03 ef bc 00 d7 62 3d
       0.05114855 -0.032260332 -0.029176703 0.05538082
0000f0 66 19 df 3d 8b f9 df 3d 54 93 a9 3d a5 43 f0 3d
       0.10893516 0.109362684 0.08280054 0.11731652
