model_weight/best_LIBERIA_model.pth (torch, 73885 bytes, 14 tensors)

lstm_cells.0.b_c f4 [64]
00000000: 0c36 3d3c 0000 2f3d 98ab 81bc 77c5 003c
00000010: 816d 5fbb 2745 07bd bc8c 15b8 4cd7 e73b
00000020: cad0 fe3a ac59 743c a9f9 97bb 601a b13a
00000030: 1eb2 1b3c 3a7e 10bb e75c 883b de0d 003d
00000040: 58be 2bbc dc1a 813b 75a4 14bc 7c86 eebb
00000050: 1d47 773c 296a 5e3c 62de 343c 7d54 9cbb
00000060: 1090 26bc 5597 dabc 6008 bcbc a499 97bc
00000070: 0b5f a73c 2f46 ab3a c2d4 f3ba 396f d0bb
00000080: 0f14 83bc 5c47 93bc fbfe ca3b 5032 293c
00000090: 2811 03bc 49b1 433c b884 c83b 67e7 21bc
000000a0: 6ac1 f6bb 4d7c 263c 6b5c 8fbb b891 91bc
000000b0: d7e7 4f3b b5e6 b03c 6b9a 973c f375 ca3c
000000c0: 5f37 d8bc beeb 69bc 4847 cfbc 8284 433b
000000d0: c1c6 88bc 7bed e7bc d21a 20bb 64fe 1bbc
000000e0: 0222 383b 5309 403c a742 543c c08c 223c
000000f0: fae6 c73a b883 a0b9 b8d1 28bc 991c 2f3d
0.01154853 0.04272461 -0.015828893 0.007859579 -0.003409237 -0.033024933 -3.5655437e-05 0.007075226
0.0019440886 0.014913958 -0.004637916 0.0013511889 0.009502916 -0.0022047893 0.0041614654 0.031263225
-0.010482393 0.0039399695 -0.009072413 -0.0072792154 0.015092638 0.013575115 0.011039348 -0.004770814
-0.010166183 -0.026683489 -0.022953212 -0.018505879 0.020431062 0.0013067181 -0.0018602835 -0.006360915
-0.016000776 -0.017978363 0.006194947 0.010326937 -0.007999696 0.011944124 0.006119337 -0.009881831
-0.007530381 0.010161472 -0.0043750308 -0.01776968 0.003172388 0.021594385 0.01850625 0.024714446
-0.02639359 -0.014277397 -0.025302544 0.002983362 -0.016696336 -0.028311482 -0.0024430049 -0.009521101
0.0028096442 0.011720973 0.012955344 0.009921253 0.0015251331 -0.00030615716 -0.010303907 0.042751882

lstm_cells.0.W_ic.weight f4 [64, 1]
00000000: ca15 39bf c77c 7a3e f876 c43c c1bd 5abf
00000010: c28a ccbe ccee af3e 1625 e23e 00ef 69bf
00000020: 0491 553f 8e06 733e c16d 19be 157e 723f
00000030: c10c d8be 9afb 66bb 486f 19bf 0f24 0abf
00000040: f6ad 11bf 5da1 0b3f 6f48 69bf 732b cf3e
00000050: e0bd bcbe 3a44 43bf 50fc bf3d 45bf 0f3f
00000060: 7378 bbbd 3a07 6a3d 13ce 043f 0b96 73bf
00000070: 38fd 603f bf39 773f 97e5 713f cc75 ec3e
00000080: 7454 eabe 0344 2a3e 57e8 e03e 1d22 d73e
00000090: 944f 61bd 81d9 703f 41be f63e 68df 773d
000000a0: ab65 1ebf 4c04 903e 7b25 313e fb19 4abf
000000b0: 49de e23e b1c6 c5be 8f63 8bbe b575 1abf
000000c0: 7420 6ebf 8854 dbbe f6fe d5be e0bb 463f
000000d0: a4a1 1a3f 43bc fc3d cc49 68bf 9b0c 5fbd
000000e0: 86a8 bdbe ba22 4b3f 091b bdbe e5ce 54bf
000000f0: 53cb 31bf 2e2a 7bbf f782 0a3e 5a25 0c3f
-0.7229887 0.24461661 0.02398251 -0.8544579 -0.39949614 0.34361875 0.4416892 -0.9138031
0.834244 0.23732969 -0.14983274 0.94723636 -0.4219723 -0.003524518 -0.59935427 -0.5396127
-0.5690607 0.54543096 -0.9112615 0.40462837 -0.36863613 -0.7627598 0.09374297 0.5615123
-0.09153833 0.057135798 0.51876944 -0.9515082 0.8788638 0.9657249 0.9449095 0.46183622
-0.45767558 0.16627507 0.4392726 0.42018214 -0.055007532 0.94081885 0.48192027 0.06051579
-0.61873883 0.28128278 0.17299454 -0.78945893 0.44310215 -0.38628152 -0.27224395 -0.60335857
-0.9301827 -0.4283793 -0.41796082 0.77630424 0.60402894 0.123405956 -0.90737605 -0.05445538
-0.37042636 0.79349864 -0.3693469 -0.83128196 -0.69450873 -0.98111236 0.13526522 0.54744494

lstm_cells.0.W_ic.bias f4 [64]
00000000: ec7b c5be 035e 45bf 2fb1 713f 5928 bebe
00000010: 3385 9c3e 0793 2f3f 1657 d9be a40b 05bf
00000020: 59dc 733e 8384 b8be 7cfd 2cbe 7240 763d
00000030: 7842 bcbe 2ff5 b63e 812a 13bf 5829 67bf
00000040: b003 e63e 9cf9 193d 0c11 c93e 1591 683e
00000050: dc15 08bf 6af2 5ebf 1372 3dba 21c3 f93e
00000060: 2178 a53e 3cec 6f3f 326c 3f3f 952b 6b3f
00000070: ee60 37bf 0467 573f 4a91 023f c8c6 023f
00000080: c104 683e abd5 3f3f ec78 8a3e c98d bdbe
00000090: e681 4c3f dd0c 54bf ed9a ce3e 70dc 143f
000000a0: b861 223d 4917 51bd 1a1a edbe 868c 193f
000000b0: bc22 2b3d 5a06 90be f639 36bf 26eb 34bf
000000c0: 81e8 e13e a069 e33e 1359 a63e abdb 07bf
000000d0: 9731 0e3f 1b5a 453f 8f7c 9ebe a097 e63d
000000e0: 892a 08bf 9bdc d2be 1de5 16bf e80b 16bf
000000f0: 2703 9ebe 2dc4 963e 5968 b43e ae3c 39bf
-0.38571107 -0.77096575 0.94410986 -0.37140158 0.30570373 0.6858372 -0.42449254 -0.5197089
0.23814525 -0.36038598 -0.16893572 0.060120054 -0.36769462 0.35733935 -0.5748673 -0.9029746
0.44924688 0.03759156 0.39270818 0.22711594 -0.53158355 -0.87088645 -0.0007226776 0.48781684
0.32318214 0.9371984 0.7477447 0.91863376 -0.7163228 0.84141564 0.51002944 0.51084566
0.22658063 0.74935406 0.2704538 -0.37022236 0.7988571 -0.8283213 0.40352574 0.5814886
0.039643973 -0.051047597 -0.46308976 0.59980047 0.041781172 -0.28129846 -0.7118219 -0.7067131
0.441227 0.44416523 0.32489833 -0.5306956 0.5554442 0.77090615 -0.30954406 0.11259389
-0.53189903 -0.41183934 -0.5894335 -0.5861192 -0.3086178 0.29446545 0.3523586 -0.72358215

lstm_cells.0.W_hc.weight f4 [64, 64]
00000000: 0f7f 803d 84bd a03d d7ea b8bc e052 023c
00000010: 72f6 c33d aac5 f73c c16d bf3d a2b4 ad3d
00000020: a4ae ad3d a90a c0bd 84b1 f2bc 0724 fa3d
00000030: 8f43 00be c7ca e13d aa60 783c cebd 0fbe
00000040: 4fcf b2bd 459f a83d 58d0 6e3d 4973 92bc
00000050: 57a9 413d 7bad a3bb fc47 2abd b861 44bd
00000060: a2c9 f2bd 65dd d23d 6004 d03d 5727 a2bd
00000070: c896 00be 2fca 89bd 4965 f43d 3986 afbd
00000080: 8776 ed3b ecec 87bc 881c a6bd fb1d c13d
00000090: 0c6b d63d 5171 9b3c cf2e df3d 36c3 ee3d
000000a0: f73b 013e 4838 dd3d 6a17 60bd 82ba 083c
000000b0: 0ff3 17bc 3e8e 67bd 6620 293d ef97 1f3d
000000c0: 6242 31bd b312 fd3d 075a 3fbd efed 8e3c
000000d0: 7907 c4bd c879 873d 6595 2cbd 69ff 75bd
000000e0: 6152 9c3d 3867 cfbd b24d 03be 1ec1 98bd
000000f0: 96a4 883d 6ad7 ccbd e07a 5bbd 4a96 7b3d
00000100: 56b6 e1bc a8e4 a0bd 7442 1d3b 80e5 a7bd
00000110: 7005 76bd c783 87bd 6e61 1fbe a142 38bd
00000120: 0a4f 0fbe 3bd1 cebd 94ea d5bc 7d02 86bc
00000130: 3d96 80bd 10d2 1a3e 7ce1 dfbd 900e 75bd
00000140: 77b5 42bd 1c2e 2a3d 1c9f 183e 3c87 80bc
00000150: b15b b03d 0385 e53c fe84 0a3c 7478 fc3d
00000160: 70e6 39bd be0a cd3d 6691 dd3d e2d8 a5bd
00000170: 60fd 503d acb0 97bb dff5 ed3b 6ca6 9bbc
00000180: 5da2 ca3d e392 a0bd 9eaa 29bc cc19 a73d
00000190: 6d97 8fbc 3401 9f3d 65fe 4f3c 2e4d 943d
000001a0: 0ec9 053d c448 5c3d 631a a3bd e635 c7bd
000001b0: 05a6 0ebd 0e85 a63d 07f7 29bc 792d af3d
000001c0: 6c2d d43d a747 0f3d 41be 063e 8d53 c13c
000001d0: 34e1 30bc 35b3 483d 02cf 9fbd 5802 ae3d
000001e0: 3330 583d 55ff a8bd 8283 f4bd e52e 063e
000001f0: 3aeb a2bc 389e 143e 8d7e fd3d 639f 573d
00000200: 975c be3c c38b b03d 8e97 4f3d 5763 ecbd
00000210: 235c b2bc 5ecb 7ebb 64e0 173e 753d 273d
00000220: 666c afbc 2971 6c3a 19ce df3c d817 963c
00000230: 15bf 13be b721 a0bd db84 c03d ebf1 a1bd
00000240: e686 9d3d 4206 a0bd 832f c5bd a3f0 c4bd
00000250: ca70 cbbd f8c2 c5bd 82f7 d43d 216b 22bc
00000260: aa4f a03d 7ed6 a43d 7153 a5bd 9aa9 0fbd
00000270: 2501 00bd f818 2f3d f08b aabd 7d1f f93a
00000280: 9fd9 6ebc f3be b73d 77d7 ecbb 85b5 d2bd
00000290: 4200 98bd a1d0 713d 0606 69bd f72e 0e3c
000002a0: d9d7 e53c 0ab9 493d 05a1 a9bd 6571 bc3d
000002b0: e473 a3bd 1dfe bebb 8dbe 893c 64bc 933d
000002c0: 2342 fd3c 5a07 a4bd f02e f6bc ea42 b13d
000002d0: 528e dfbd 0920 01be e588 fb3c a6e8 f6bd
000002e0: 29b9 49bd 615f c13d 118e ccbd df54 003d
000002f0: 34fa e3bd b76a 64bb 1aa5 ec3d e0fb 92bd
00000300: 9317 673d 91f4 9bbd e38d 25bd 779c c8bc
00000310: af6b a0bd 5560 933c 528f fa3d a33e 873d
00000320: e48c 8fbd 3755 6c3c ea5d 5ebd b6f2 71bd
00000330: 85ef 58bd 02ea 2f3d 59ea 14be fa6e 85bb
00000340: 1c8a 313c 82d6 fa3b a0cc e9bd a46f c3bc
00000350: aad0 c33d bc48 d03c ca3e 6f3d 1e98 73bd
00000360: 7555 cbbd daaf f5bc a401 203e 2044 ae3d
00000370: ac28 2a3d b893 813b 743c 193b a875 af3d
00000380: 2a1d e73d f36f b5bd 2736 fb3d 278b fc3c
00000390: 10de 9ebd 6f04 273d d31a e03c 9167 aa3d
000003a0: 5859 c5bc 2a87 90bc 9ff3 c93d 5fff 0d3d
000003b0: 41f7 73bd 1ec8 c13d 5723 eabc 9370 3f3d
000003c0: 6614 463a c809 11bd 55cc b3bd 479c 363d
000003d0: e9a9 80bd b3c9 3abd 0bb7 243c f3fe c4bd
000003e0: bb74 c43d 8e3a 98bc 32b1 e43d 1247 afbd
000003f0: a49e 15be 4adf b9bd bc6a f63d 687c 293d
0.062742345 0.07848647 -0.022572918 0.007954329 0.0956849 0.03024562 0.09347106 0.084817186
0.08480576 -0.09377033 -0.029625662 0.12213903 -0.12525772 0.11025005 0.015159765 -0.14037248
-0.08730947 0.08233503 0.05830416 -0.017877238 0.047280636 -0.0049950457 -0.041572556 -0.047944754
-0.11854865 0.10296134 0.101570845 -0.0791766 -0.12557518 -0.067280166 0.11933381 -0.08570523
0.0072467956 -0.016592465 -0.08110911 0.094295464 0.10469636 0.018974932 0.108976 0.11658327
0.12620531 0.108017504 -0.05470983 0.008345248 -0.009274258 -0.056532137 0.041290663 0.038963255
-0.0432762 0.12357082 -0.046716716 0.01744744 -0.09571738 0.06615025 -0.04213466 -0.06005803
0.076329 -0.10127109 -0.12822607 -0.07458709 0.06672017 -0.100020245 -0.05358398 0.061422624
-0.027552765 -0.07856113 0.0023995908 -0.081980705 -0.06006378 -0.066169314 -0.1556451 -0.044985417
-0.13994995 -0.10098501 -0.026112832 -0.016358608 -0.06278656 0.15119195 -0.109316796 -0.05982834
-0.04753634 0.04154788 0.14904445 -0.015689485 0.08611239 0.028017526 0.008454559 0.12327662
-0.045385778 0.100118145 0.10818748 -0.08098008 0.051022887 -0.004629215 0.007261976 -0.019000255
0.098942496 -0.078405164 -0.01035562 0.08159217 -0.01752826 0.07763901 0.01269493 0.07241283
0.032662444 0.053780332 -0.07964017 -0.09727077 -0.034826297 0.08130847 -0.010373837 0.08553595
0.10360226 0.034980442 0.13158514 0.02359941 -0.01079588 0.04899903 -0.078031555 0.08496541
0.05278034 -0.08251826 -0.119391456 0.13103826 -0.019887555 0.1451348 0.12377653 0.052642237
0.02323751 0.086204074 0.050681643 -0.11542385 -0.02177245 -0.003887854 0.14831692 0.040830094
-0.021413993 0.0009019548 0.027319955 0.018321916 -0.14428361 -0.078189306 0.0940034 -0.0790747
0.076917455 -0.078136936 -0.09628203 -0.0961621 -0.09933622 -0.09656328 0.10398771 -0.009913237
0.07827695 0.08048724 -0.08072556 -0.035073854 -0.03125109 0.04274842 -0.08327472 0.0019006577
-0.014578252 0.089719675 -0.007227834 -0.10288528 -0.07421924 0.059036855 -0.05689051 0.0086781895
0.028057026 0.049248733 -0.08282665 0.09201316 -0.07981089 -0.0058286325 0.016814495 0.07213667
0.030915326 -0.08009215 -0.030051678 0.08655341 -0.10915817 -0.12609877 0.030704925 -0.12056093
-0.049248848 0.0944202 -0.099880345 0.03133094 -0.11131707 -0.0034853646 0.11554928 -0.071769476
0.056418967 -0.07615007 -0.040418517 -0.02448867 -0.07833039 0.01799027 0.122343674 0.06603744
-0.07009295 0.014424614 -0.054288782 -0.059069358 -0.0529628 0.042947777 -0.14542522 -0.0040720673
0.0108361505 0.007654966 -0.11415982 -0.023856945 0.09561284 0.025425307 0.05840949 -0.059471242
-0.09928409 -0.02999108 0.15625626 0.085090876 0.041542694 0.003954377 0.002338198 0.08567363
0.112848595 -0.08859243 0.12266188 0.030828072 -0.07757199 0.040775713 0.02735654 0.08320535
-0.024090454 -0.017642576 0.0986092 0.03466737 -0.05956197 0.094619974 -0.028581304 0.04673822
0.000755614 -0.03540972 -0.087792076 0.04458263 -0.06282408 -0.04560251 0.0100534065 -0.0961894
0.09592577 -0.018582609 0.1116661 -0.085584775 -0.14611298 -0.09075792 0.12032077 0.04137841

lstm_cells.0.W_hc.bias f4 [64]
00000000: ca83 ca3d 7f64 1a3e da66 b93d 4eb3 9fbd
00000010: 998a e3bd 3f29 9ebd 1102 90bd c051 dcbd
00000020: 0e16 943d f573 c4bd a846 2cbd 7f4e bb3d
00000030: 25be a63d 3ffc 003d 6dcd 1abd cb01 babd
00000040: a2a6 fbbd bcf7 a5ba 2bc4 cbbd 2666 08bd
00000050: 8c75 e8bc 1d23 a23d 1190 8c3c 235a cd3d
00000060: 358b e13c 70da 16bb a51d 9b3d af5f e8bd
00000070: d56c 053e 0ea8 043b 8ab7 093d d44e 353d
00000080: d680 923d dae1 fdbc 4f05 ccbd 78f4 3abc
00000090: 42d0 b5bd 6ff6 adbd ff09 1b3d d9da 843d
000000a0: 5574 e03c 8c6d c7bb cf56 b6bd 6431 7abd
000000b0: 189e 973d 6f73 1cbd 77f8 91bc 18bc bf3d
000000c0: c92a b93c 5534 c63d f6ca abbd 73f2 bbbd
000000d0: db20 ad3c 0ccc 14be a6cb 203d 4de4 72bb
000000e0: 3b6e 843d 8a09 c9bc e106 3bbd d17a bb3d
000000f0: dd87 f3bc 0a5b febd f39a 233d d985 163e
0.09888418 0.15077399 0.090528205 -0.077978715 -0.1111042 -0.07722711 -0.07031644 -0.1075778
0.07230769 -0.095924295 -0.04205957 0.09145831 0.08141736 0.03149056 -0.037793566 -0.09082373
-0.12287642 -0.0012662332 -0.099495254 -0.03330054 -0.028376363 0.079168536 0.01715854 0.10026958
0.0275322 -0.0023018382 0.075740136 -0.11346375 0.13029797 0.002024177 0.033622302 0.04426463
0.0715348 -0.030991483 -0.0996195 -0.011410825 -0.08877613 -0.08494269 0.03785133 0.064870544
0.027399221 -0.006086057 -0.08903276 -0.06108226 0.07403201 -0.038196024 -0.017818673 0.09362048
0.02260341 0.0967795 -0.08388321 -0.09177103 0.02113383 -0.14530963 0.039256714 -0.0037062347
0.06466337 -0.024540681 -0.045660857 0.09154285 -0.02972787 -0.12419708 0.039942693 0.14699496

lstm_cells.0.W_in.weight f4 [64, 64]
00000000: 9cde ec3d 809b a0bd 280f 6f3d 68f3 d83c
00000010: a050 2cbc 1ed2 f43d 802c 29bc 801c 4dbb
00000020: 4081 77bb ec67 3d3d 44b2 58bd 082d 873d
00000030: 9237 9dbd 268b f83d 7204 aa3d 2632 c23d
00000040: a453 f7bd 1c2b b9bd a8ae 94bd 0028 953d
00000050: f447 693d 3e6d e3bd e47f 52bd 4005 553c
00000060: d87f aebd 08c6 3f3d ccba f63d 0051 b93d
00000070: 4826 603d 00d3 8bbd 08cc c1bd 0ab4 ed3d
00000080: d070 1f3c f038 5f3c deda b73d 2ade f53d
00000090: c8f8 81bc d034 a73c c0bb 8fbc 88b2 f53c
000000a0: 0606 883d 78eb ce3d 2e88 94bd 0827 2fbd
000000b0: 3266 afbd 441e a7bd 80cf febc 807a b9bc
000000c0: 1649 c1bd 7aac 833d 2cd2 68bd 5458 39bd
000000d0: bc49 a53d 50b7 24bd b401 d73d 00be f23c
000000e0: 38be 603d 00b8 433d 0076 57bc 10fc ba3d
000000f0: 486a 933c b416 e03d 543d 063d b2fe ad3d
00000100: a218 e03d 2011 733c b8ed 9cbc fe58 e0bd
00000110: a07c 5d3d 226f 9e3d d8c6 493d 78a3 853c
00000120: 2cc4 3dbd e0f1 db3d ac5c cb3d 0e4c b23d
00000130: a614 e83d 80a2 eebb 586b cb3d 902d fcbd
00000140: e08c b13c 54a4 b3bd 2078 853b 600d 1bbc
00000150: 36d1 823d cca6 3b3d 08f9 2b3d d096 133c
00000160: 94b8 75bd e0d1 dd3b 520c 91bd 8e06 fd3d
00000170: 70b7 d33c e0ed 86bd c03d 033c 6875 9dbd
00000180: 80e9 743d a49a b5bd c450 c4bd a877 dcbd
00000190: 38e6 e13d 0084 333c 26f8 963d 4012 2dbc
000001a0: e890 45bd e62f 9f3d 8a92 a2bd d4b6 6cbd
000001b0: 70c6 c63d 0090 b9b9 3202 8c3d 4c9a c2bd
000001c0: 3c96 c7bd 404a 6abd 146a 123d dce2 3a3d
000001d0: a06f 363c 4057 863b 86e8 adbd e203 f9bd
000001e0: 8cc5 04bd ca82 cc3d 026b ccbd 961e cabd
000001f0: ae3e 8ebd 2cda e43d 584c 2c3d 2887 a0bd
00000200: 0e7f 89bd 4043 7a3b 0aba 82bd 983e 8b3d
00000210: cee1 94bd bca4 73bd 04ad 783d 0002 96bc
00000220: c881 b83c ce97 963d 400e 4fbd 7016 8d3c
00000230: 10b6 bf3d 9c28 d5bd 183e 013d 884e d9bd
00000240: 1e77 9ebd ac90 183d a469 0ebd 0809 e3bd
00000250: 1063 7dbd 7e0d cf3d e063 14bd bab4 90bd
00000260: 647b 353d 80da 97bb 7c2f aa3d 2834 433d
00000270: d29f d8bd cae3 a93d 9cc4 233d d009 1d3d
00000280: 5ad0 a53d 7046 f83d 6ce9 33bd 187c c6bd
00000290: 3697 dfbd b02d a13c b097 d83d 1843 d23d
000002a0: 80be cebc d86c 273d c2d4 e73d 1649 afbd
000002b0: 98c2 12bd f473 7ebd 70a2 a2bd 5071 253c
000002c0: ea59 853d 4ac4 d8bd 3007 f33c 805b ad3d
000002d0: b8a6 c5bd 2ad9 a3bd 3a33 fc3d 44b8 d5bd
000002e0: 1470 5c3d 7023 aa3d b84a 9bbd 2035 bb3d
000002f0: 3c06 28bd fee3 b6bd 149a 5d3d caab b0bd
00000300: aa8e ce3d b86e 323d c6ef 873d 98e9 9abc
00000310: fea7 ec3d 20de b63b bc97 6ebd 08df 91bd
00000320: 9e33 9a3d 6295 a3bd 02cc c1bd c0c4 f1bb
00000330: a0a8 a13c d4a7 063d 6418 413d 1092 8bbd
00000340: 1ea8 f93d 1e98 ca3d 209c c5bb da7b d53d
00000350: 788f bc3c d036 ebbd e082 f1bc 7088 8cbd
00000360: 50f6 bebc dc22 2d3d b089 d3bc 9a59 aebd
00000370: da4d a43d 8020 5dbd d042 3bbc 5cfc 50bd
00000380: 2468 7dbd a49a 6fbd eea4 f1bd 4282 c33d
00000390: 4c27 ecbd f0f3 d83c 1016 2abd 4ca5 033d
000003a0: a8b4 a23d f8ae a83d 46b0 f03d 546d 5abd
000003b0: 7413 5cbd 2833 eabc d00d e4bc 3025 f33c
000003c0: cab3 b53d f826 3a3d 4a31 b5bd 980e 8cbd
000003d0: 10fc 3a3c a0d3 bebc 5cd5 24bd 00a7 173d
000003e0: de60 fabd c8e5 24bd 74b8 183d 5c5e 0ebd
000003f0: c08c 92bd 1216 d13d 8a36 cdbd 7871 953d
0.11565897 -0.07842159 0.058364064 0.026483253 -0.010517269 0.11954139 -0.010325551 -0.0031297505
-0.0037766248 0.046241686 -0.052904382 0.06600386 -0.07676615 0.121359155 0.08301629 0.09482221
-0.120765 -0.090414256 -0.072598755 0.0728302 0.056953385 -0.11104821 -0.051391497 0.01300174
-0.08520478 0.046819717 0.120473474 0.09048653 0.054724008 -0.068273544 -0.09462744 0.11606605
0.009731486 0.013624415 0.089772925 0.12005265 -0.015865698 0.020410925 -0.01754558 0.029992357
0.06641774 0.10103506 -0.07252537 -0.042761832 -0.08564414 -0.081600696 -0.031104803 -0.02264142
-0.09437768 0.06429382 -0.05684106 -0.045250252 0.08070704 -0.040213883 0.10498372 0.029631615
0.054868907 0.047782898 -0.013150692 0.09130108 0.017995015 0.1094183 0.03277333 0.08495845
0.10942198 0.014835626 -0.019156322 -0.10954474 0.05407393 0.07736041 0.049261898 0.0163133
-0.046329662 0.10739493 0.09929785 0.087059125 0.113320634 -0.007282555 0.099325836 -0.12313378
0.02167362 -0.087715775 0.004073158 -0.009463638 0.0638756 0.045813367 0.04198554 0.0090081245
-0.05999048 0.006769404 -0.07082428 0.12354766 0.025844306 -0.0658834 0.008010328 -0.07688409
0.059792995 -0.08867386 -0.09585717 -0.1076501 0.11030239 0.010956764 0.07371549 -0.010563433
-0.048233896 0.07772808 -0.07938106 -0.057791546 0.09705818 -0.00035393238 0.06836356 -0.09502086
-0.09745452 -0.057199717 0.035745695 0.045626506 0.011135012 0.0040997565 -0.08491616 -0.12158944
-0.032414958 0.099858835 -0.099813476 -0.09869115 -0.06945549 0.111744255 0.042064995 -0.07838279
-0.06713687 0.0038187057 -0.063831404 0.06799048 -0.07269631 -0.059483275 0.060711876 -0.0183115
0.022522822 0.07353173 -0.0505507 0.017222613 0.093608975 -0.10408136 0.031553358 -0.10610682
-0.077375636 0.037247345 -0.034768716 -0.11085707 -0.06186205 0.10109995 -0.03622806 -0.07065721
0.044307128 -0.0046342015 0.08309838 0.047657162 -0.10577358 0.082954004 0.039982423 0.038339436
0.080963805 0.1212281 -0.04392378 -0.09691638 -0.10917513 0.019675106 0.10575807 0.10266703
-0.025237322 0.040875286 0.11319877 -0.08558862 -0.03583011 -0.0621223 -0.07941139 0.010097817
0.0651129 -0.10584314 0.029666513 0.08464718 -0.0965094 -0.08000405 0.12314458 -0.104355365
0.053817824 0.083075404 -0.07582611 0.09140992 -0.04102157 -0.08930205 0.05410202 -0.08626516
0.10085805 0.04356262 0.0663753 -0.018910214 0.115554795 0.0055806786 -0.058250174 -0.07122618
0.075293764 -0.07987477 -0.094627395 -0.0073781908 0.019733727 0.032874897 0.0471424 -0.068149686
0.12190269 0.09892295 -0.0060305744 0.104240134 0.02301763 -0.11485064 -0.029481351 -0.06861961
-0.02331081 0.042269573 -0.02582249 -0.08513184 0.080226615 -0.053986073 -0.011429504 -0.05102192
-0.061866894 -0.058497086 -0.11799036 0.09546329 -0.11530933 0.026483506 -0.041524947 0.03214006
0.07944614 0.08236498 0.117523715 -0.05332692 -0.05372949 -0.028588846 -0.027838618 0.029680818
0.08872183 0.04544732 -0.08847292 -0.06838721 0.011412635 -0.02329427 -0.040242538 0.037024498
-0.12225507 -0.0402582 0.037285283 -0.034757957 -0.07155752 0.10209288 -0.10020168 0.07297033

lstm_cells.0.W_in.bias f4 [64]
00000000: c052 19bb 10e4 c0bd e4c8 c6bd a854 3abd
00000010: f887 14bd 1a85 b2bd a08b c7bd c60b adbd
00000020: 30d3 6abc 04b3 a7bd 0a6a bd3d a206 c0bd
00000030: 22b7 c53d b833 913d 0063 de3d d617 ba3d
00000040: f8e3 f3bc 4061 2cbb e03d 563c be80 c23d
00000050: da92 a03d 743e c83d 34d7 443d 18bb 25bd
00000060: 7ab9 f5bd 2eb9 bcbd fc56 683d 3a1a b43d
00000070: c0ef 22bb 6e62 9ebd 0a8c bcbd 4062 513c
00000080: 5c8a 15bd 88f7 90bc 4e30 943d 80e1 aabc
00000090: 2cc0 333d 00f1 21ba 40e2 73bd ba25 ea3d
000000a0: 60b0 60bd 4027 4b3c 9e52 b33d 3cdb 76bd
000000b0: b4dd c6bd 6008 b6bb 4479 d23d 2aa7 bb3d
000000c0: 6eb7 a1bd f653 ccbd d6a8 f5bd 7033 b53d
000000d0: 7c22 c8bd a0fb 5e3d 2494 853d f489 a3bd
000000e0: a2f4 863d 4c86 303d ea5b b73d 745d 1ebd
000000f0: 308e 233c 0ab1 fabd ea08 913d 08ee ca3c
-0.002339527 -0.094184995 -0.097062856 -0.04549089 -0.036262482 -0.08716793 -0.09743428 -0.08449511
-0.014332578 -0.081884414 0.09248741 -0.09376265 0.096540704 0.07089943 0.108587265 0.090865776
-0.02977179 -0.0026303083 0.013076276 0.09497212 0.0784051 0.09777537 0.048056796 -0.04046163
-0.119982675 -0.09215008 0.05672358 0.08794065 -0.002486214 -0.07733618 -0.09206398 0.012779772
-0.036508903 -0.017696157 0.07235776 -0.02085948 0.04388444 -0.00061775744 -0.05954194 0.11432977
-0.054855704 0.012399495 0.08755992 -0.060267672 -0.09710255 -0.0055551976 0.10277036 0.091627434
-0.078963146 -0.09976952 -0.119950935 0.088477015 -0.097722024 0.054439187 0.06522396 -0.07985297
0.06589629 0.043096825 0.08953078 -0.038663343 0.009982631 -0.12240799 0.07081778 0.024771705

W_h.weight f4 [64, 64]
00000000: bb75 9dbd 20a2 fcbb f0ea 9abd c164 ea3d
00000010: faed e53d 59f6 883d d485 f23c e6a6 423d
00000020: 0b20 b23d c148 b83b cde4 a43c 011f 7b3c
00000030: 338c abbd 237d 90bd 03d8 623d ffc2 d2bd
00000040: d657 293d ccbd dbbd d4dd c53c bfee c43d
00000050: e729 803d f829 503d b877 c13d 1c1d e7bd
00000060: 43a5 773d 35fa 4dbd 1a0a f8bc a21b a53d
00000070: ff6c 373d 4f68 843d ed9a ff3c 0b7e d83d
00000080: 1585 f63d 4142 3b3d 71a0 21bd bcf9 90bc
00000090: 0b00 cbbc 1d6b 933d 19cb b43d a2e4 85bd
000000a0: 04db c23d 4eb6 6a3d 2004 113d eb09 91bc
000000b0: 1392 ea3d f48a df3d 6bc7 e0bd 7111 e73d
000000c0: 0a8a 833d 77a2 bebd 421c 9e3d 14f8 f43d
000000d0: 6476 adbd 3826 553d 3406 70bd e4bc c93c
000000e0: c081 e73c 2088 d13d 5c67 aebc c517 04bb
000000f0: 1462 a7bc 179b dc3d 3231 93bd 839a c53d
00000100: 9a0f 203c d690 493d 3b67 58bd eff1 7fbd
00000110: 133f d73d ce4e a0bd 58a3 92bd d82f 953d
00000120: fe80 e03c 0c2e 0fbd 7dd3 ecbd 3915 dc3c
00000130: f2fe 2a3d a4e6 e9bd 362c b3bb c10e 40bb
00000140: d32e 8fbd 71c6 ca3c dc12 e6bd 94b1 91bc
00000150: ffcf 4b3c eb8f c6bd 3b5c ee3d 1cc8 c63d
00000160: 274a 4dbd 7415 933c 2962 98bd 300f f5bd
00000170: 4d1e e7bd f207 ae3d 7b7a f83c 8b54 d93c
00000180: c93a 7c3b 5e8a ecbd a1b5 3b3d fc6f b3bd
00000190: c00b a63d 5e49 0e3d 7054 093e 433e 353d
000001a0: 4b09 893d d915 bebd 6622 aa3d 4798 293d
000001b0: 869c a33b b262 6abd f92b db3d cb92 bbbc
000001c0: 614f 1fbd 8f6c 3a3d 9347 4b3d 1fb3 ff3d
000001d0: 7efe dbbd 6379 f9bd 78b4 1cbd b629 acbd
000001e0: 8c88 c0bd 5ef1 ff3d 7f17 cb3d 967e ecbd
000001f0: 7daf 163c 3c4a fdbc 3473 96bd 4f11 9b3d
00000200: 7492 dcbd 0dcf 923d e4ad ad3d 32d8 c43d
00000210: 207c b93d fde7 9c3d dccb d7ba 9ed9 f73d
00000220: ed05 ebbd a3ad cc3d 17b8 c0bd 8a70 f2bd
00000230: 65e7 f3bd 199d de3c fecf cbbd d354 1fbd
00000240: a85f 0bbd 9d63 0bbc 810d 8b3d 5d77 5bbd
00000250: 9134 6d3c 9a18 39bd 78e2 47bc 71fd 8d3d
00000260: e91a 163c bd62 813d 4340 303c f9a7 f73d
00000270: ac01 d13d 3f65 9bbd e953 c6bb 6d8f 3ebc
00000280: 5598 e6bc 10ab dc3d edfc 7fbd 8e6b 863d
00000290: b12f 4d3d c57c b8bd 12a1 b73d 4e46 2cbd
000002a0: 3cb0 9b3c eab3 3a3d 7d4c 6cba ccef 853d
000002b0: 663c 9e3d be55 d33d 125c bd3d a66f dbbc
000002c0: 5f4a d43d 6019 f4bc 8cd2 ff3c 7394 e1bd
000002d0: bb50 b13d e0c4 e93c b690 633d 5f5c 85bc
000002e0: 5bbe 313c 0735 bb3d 9e2e e53d c1ab af3d
000002f0: b101 083d 6859 fa3d 638e dd3d cb2f cbbd
00000300: 5937 02bd bd9e 893d 1339 5fbd 9508 73bd
00000310: 9741 cabc c77b 9fbd 9d58 d5bd bc54 fa3d
00000320: 50c9 05bd 45b2 a2bd 9cd7 953d a45d 20bd
00000330: 3f50 c33c d613 1c3c bd4a 403d 04b9 cc3d
00000340: 3b2d a4bd be71 d73d 493f 01bc e667 aabd
00000350: 44e1 ac3d 5d52 b7bd 9264 0ebd c5dd feba
00000360: 1da5 f3bd b6d8 a6bd 54ea 9bbd 3b05 4dbd
00000370: b204 c6bd aa84 973c ccd0 87bd 7c11 22bd
00000380: 1c04 0cbc f7ed a23d 868e a03d c8e8 91bb
00000390: ee48 ae3d a90e 4fbc d5f9 d6bd 3cc7 9b3d
000003a0: 1357 7cbd 0578 fc3d 03a6 ff3d 976c 2ebd
000003b0: bc51 98bb 249c b1bd 93fc dfbd bef0 fbbc
000003c0: 3bf5 8ebc 20cd 4c3c 1159 b03c 15f4 45bd
000003d0: 9e85 a5bd e956 913d 484a d73d 7f8f e4bd
000003e0: cc43 dbbd 2c3f cc3d 5c5a 5cbd 8f3d e93c
000003f0: 7ea3 873d 795d 83bc 37a5 96bd 53f6 463a
-0.07688471 -0.0077097565 -0.07564342 0.114449985 0.11227031 0.06687612 0.02960483 0.047522448
0.08697518 0.0056239073 0.020128632 0.015327216 -0.0837635 -0.07055118 0.055381786 -0.10291099
0.041343533 -0.1072956 0.024153627 0.0961585 0.06257992 0.050821275 0.09446663 -0.11284849
0.06046034 -0.050287444 -0.030278254 0.08061911 0.04478168 0.06465208 0.031201804 0.10570916
0.12037102 0.04571748 -0.03945965 -0.017697208 -0.024780294 0.071981646 0.088278 -0.06537749
0.0951443 0.057302766 0.035404325 -0.017704925 0.11453643 0.10915175 -0.10975536 0.112826236
0.06422813 -0.093083315 0.077202335 0.1196138 -0.08469847 0.0520384 -0.058599666 0.024626203
0.028260112 0.10231042 -0.02128952 -0.002015577 -0.02043251 0.107717685 -0.07187118 0.096486114
0.009769345 0.049210392 -0.052832823 -0.062486585 0.10510077 -0.07827531 -0.071600616 0.07284516
0.027405258 -0.034956023 -0.11563776 0.026865589 0.04174704 -0.11420944 -0.005467917 -0.002930567
-0.06991353 0.024752827 -0.11234066 -0.017784871 0.012439727 -0.09695419 0.11638685 0.097061366
-0.050119545 0.017954566 -0.074405976 -0.119657874 -0.11285076 0.08497609 0.03033184 0.026529571
0.0038487187 -0.11549829 0.04582751 -0.08761594 0.0810771 0.034737937 0.13411117 0.04424883
0.066912256 -0.09281511 0.08307342 0.04140499 0.0049930243 -0.05722303 0.107017465 -0.022897145
-0.03889406 0.045513686 0.049628805 0.124853365 -0.107419 -0.12181356 -0.038258046 -0.08406393
-0.09401044 0.12497209 0.09916591 -0.11547582 0.009197113 -0.030919187 -0.07346192 0.07571661
-0.10770121 0.07168398 0.08480433 0.096115485 0.09056878 0.07661436 -0.0016463953 0.12102054
-0.1147574 0.09994056 -0.09410112 -0.118378714 -0.119093694 0.02717452 -0.09951781 -0.038899254
-0.03402677 -0.008507636 0.06789685 -0.05358063 0.014477865 -0.045189478 -0.01219999 0.06933106
0.009161689 0.06317661 0.010757509 0.12092585 0.10205397 -0.075876705 -0.0060524833 -0.011630875
-0.02814881 0.10774815 -0.06249707 0.06563483 0.05009431 -0.09008173 0.089662686 -0.042059235
0.019004934 0.045581736 -0.0009014083 0.06539878 0.07726364 0.103190884 0.09246077 -0.026786637
0.10365748 -0.029797256 0.031228326 -0.110146426 0.08657976 0.02853626 0.05555793 -0.016279398
0.010848607 0.091409735 0.11190532 0.08577681 0.033204738 0.12224084 0.10818174 -0.09921225
-0.031791065 0.0671973 -0.05449779 -0.059334356 -0.024689479 -0.077872805 -0.10417292 0.12223193
-0.03266269 -0.079441585 0.07316515 -0.039151803 0.023841975 0.009526214 0.046946276 0.099962264
-0.080164395 0.105197415 -0.0078886235 -0.08320598 0.084414035 -0.089512564 -0.03476388 -0.0019444755
-0.11896727 -0.08146803 -0.07613054 -0.050053816 -0.09668864 0.018495876 -0.06631622 -0.039567456
-0.008545902 0.079555444 0.07839684 -0.0044527985 0.08510004 -0.012637773 -0.104968704 0.0760636
-0.061606478 0.123275794 0.12482836 -0.042584028 -0.0046484154 -0.086723596 -0.109368466 -0.030754443
-0.01745092 0.0125000775 0.021526845 -0.048328478 -0.08082126 0.07096655 0.10512215 -0.11160182
-0.107062906 0.099729866 -0.05379711 0.028471736 0.066229805 -0.016035782 -0.07355731 0.0007589806

W_h.bias f4 [64]
00000000: 71a6 36bc 7d15 b03d bb70 813d d4d9 7a3a
00000010: ec83 a03d afbd aabc f961 f13d e056 19bd
00000020: a307 cbbc fa8f 87bc 6864 6dbd 649b 463c
00000030: c5fd 24bc 76f9 8abd b586 433d 54d1 50bd
00000040: 5f8f 663d ef9a a23d 2b55 bb3c 7ecb 513d
00000050: 837b f9bd 0332 1fbd 8145 d5bd cd66 eabd
00000060: d246 623d c3b7 00b8 eb69 243d a79b ba3c
00000070: 29e4 003d 287a ddbd 6b91 46bd 56c1 5ebd
00000080: d096 b8bd 7534 b23c adb8 cb3c 5d66 d0bd
00000090: 17ff 4bbc 6f59 e4bd a40e 7bbd f24a 423d
000000a0: 0bab dabc a294 303c 76af 9f3d 80cc c9bd
000000b0: 974f 9a3d 16a0 0d3d 3364 e8bd 00dd 93bd
000000c0: dffd eb3d 6111 8abc 48b3 b4bd ca50 dcbc
000000d0: 9ce6 26bd 13fa 47bd 2ea7 e23d 8d31 c8ba
000000e0: 33e8 56bd d162 6c3c bf6b 69bd e6e6 d13d
000000f0: a25e d4bd 10fd 5f3d 3c0c 52bd 5070 6b3c
-0.011148081 0.085978486 0.0632033 0.0009569202 0.07837662 -0.020842401 0.11786265 -0.037436366
-0.024783915 -0.016548146 -0.057957083 0.012122009 -0.010070269 -0.06785862 0.04773589 -0.05098088
0.056289073 0.079397075 0.02286776 0.051219456 -0.12181761 -0.038866054 -0.104136474 -0.11445389
0.05524332 -3.068872e-05 0.040140074 0.022779299 0.03146759 -0.10814315 -0.048478525 -0.0543836
-0.0901314 0.02175353 0.024868334 -0.10175774 -0.012450955 -0.111498706 -0.06129326 0.047434755
-0.026692888 0.010777624 0.077971384 -0.098534584 0.07534712 0.034576498 -0.113472365 -0.07219887
0.115230314 -0.01685399 -0.08823258 -0.026893992 -0.04074727 -0.048822474 0.11067043 -0.0015273556
-0.052467536 0.014427857 -0.05698752 0.102491185 -0.10369612 0.0546847 -0.0512812 0.014370039

W_g.weight f4 [64, 64]
00000000: 8e1c 32bd 6654 273d 6fdd a83d bf36 fabd
00000010: 9911 ff3d e736 f2bd d9c8 a6bd 8f83 ab3d
00000020: 1985 c73d 39bc bbbd b369 e6bd 4a42 19bd
00000030: 8be5 833d 4d0b aebd 1609 623d c3af d73d
00000040: ab3c c23d a6c3 76bd 4df8 e53d 6afc 313d
00000050: 5d19 b83d 73bf df3d 87ce b9bd 4257 26bd
00000060: b64a 253d 762e 1e3c 9678 84bd ab33 b63c
00000070: db1b b63d 25b1 963d 454f b33d fa92 4fbc
00000080: e255 fc3d 8352 a3bd 8ea2 8ebb 6ae9 61bd
00000090: 16c0 2e3c 217e f7bd 293f 403b ce40 47bd
000000a0: de1f 2bbd 0dfb 9d3d fb07 c83d f7c6 e63d
000000b0: 4de3 ab3d ae36 fc3d 0c04 c2bb be51 023d
000000c0: 53b9 e63d c595 8bbd 0a6b fcbb 1070 7e3c
000000d0: 93f1 ca3d d734 903d 069c 503d 829e 3c3d
000000e0: 228c 36bd 6a44 14bd 0266 71bd 571e d23d
000000f0: 5774 9abd 7326 d23c 4195 c03d 6a57 73bc
00000100: 23ec d0bc c287 3d3d fb53 e9bd 1a1e 5bbd
00000110: e331 f4bd 1081 b6ba d627 2f3d 72da 6a3d
00000120: 8c06 28bc c65a 4fbd 79a3 98bd f60a 793c
00000130: 7542 a73d 3b9e cd3d 7b64 e93d 6d14 d33d
00000140: 4c2a 41bc 7d97 ffba 3616 3ebd d74a a03d
00000150: 53a7 1d3c b7ff ddbd c69b 5f3d 09a1 f8bd
00000160: bd36 9b3d 45d5 9f3c de0d 61bd 8626 193d
00000170: 9b18 d1bd 550c 933c 75a8 7e3c 492f b2bd
00000180: 6668 37bd 0545 bd3c bd20 babd 6ca6 20bc
00000190: 61f1 9e3d f9ac f8bc 2f8e e03d e6f4 4bbd
000001a0: 6ea8 4c3d 7741 a6bd e3f0 f1bd 564a 403d
000001b0: eaae 6e3d d28b 0fbd bbf7 c1bc 8e94 53bd
000001c0: 94f2 753c 56cd 3dbd 15c8 f7bd 2ea5 67bc
000001d0: 5afc 6ebd eabb e039 4221 c83b 6952 e4bd
000001e0: 17ca 8cbd afb0 ab3d f5d4 c43c 366a 6fbd
000001f0: 6189 f9bd f57e f03c 92e9 4a3d 14e5 efbb
00000200: 8c6a 54bd c46d 29bd f6cf e5bd bf37 043d
00000210: c727 cbbc a229 a33d 3ce6 dfbd aaf8 81bd
00000220: fa5a debd 2f3b 8ebc 8fd8 b0bc ae07 cfbd
00000230: eee2 8e3d 1e47 9a3d e886 26bd 62e0 c03d
00000240: 48fe 3cbd 99ac e63c 2245 61bc 14d7 dc3d
00000250: 76af 903b a6eb a1bd b060 df3d 6c53 b6bd
00000260: 0e90 acbd 7234 1fbc 5cf5 f93d 7ca5 6fbd
00000270: 5204 e13d 196b c13c 5e69 f2bd 7ae7 833d
00000280: 09f8 e83c ec45 21bd 07e2 9cbc f9c9 a13c
00000290: a453 fb3d 9f09 fbbc ab11 c7bb 7cf1 d73d
000002a0: 7119 cf3c ec2f 9fbd 2a97 d13d 804e 583d
000002b0: 0875 91bd a0a0 55bd 1448 09bd b0ed 043d
000002c0: f285 80bd 6846 cb3d c2fe 1ebc 385e 853d
000002d0: a46f 8bbd 3ef5 84bc 17d5 823d 715e d23c
000002e0: 6855 65bd 7a9e a33d eb99 cbbb 56e6 bd3d
000002f0: de56 543c 840b 153d 366f d23a 5a21 d1bd
00000300: cb87 b0bd b706 3aba affe 8a3d a559 9fbd
00000310: ce55 e73c a349 abbd c648 48bc 1f61 ef3d
00000320: f46f 1abc c8d3 e1bb c91a a23d 8bd6 4d3d
00000330: 17a7 debd f1b7 83bd 35d8 68bb 699a e4bd
00000340: 6c78 843c 8a4b 0b3d 4f01 b9bd 4f27 703d
00000350: 3f9e 883d c19a bf3d f911 62bd 9a7f c2bb
00000360: d77a a8bd 33f4 503d 33f9 f13d 5dbe 7e3c
00000370: efb7 2d3d 32a0 0e3c 3b62 043d 698c 4cbd
00000380: 51a3 e2bd 4f9e 0c3d 22cd 82bc 8f38 0e3d
00000390: f157 35bb c581 2dbd be72 fc3c 46a0 f9bd
000003a0: 4bc9 543d 466c 9c3c f142 33bd c7fa a23d
000003b0: 9eb5 a63c e147 20bd af4c d03d f792 e5bd
000003c0: 1fc9 a93d 9568 36bd 17ff d9bd 3197 0fbd
000003d0: 19fc e13d 27fd 4f3d 62ff 813d 0f72 d73d
000003e0: 5942 3ebd ed09 f63d bb96 783d b76b ad3d
000003f0: 170f 1d3d 0db1 113b e1bc 5bbd 9f54 143d
-0.043484263 0.040851973 0.0824536 -0.12217473 0.12454528 -0.11826878 -0.081437774 0.08374702
0.09742183 -0.0916676 -0.11250629 -0.037416734 0.06440266 -0.08498249 0.055184446 0.10531571
0.09484228 -0.06024518 0.11229 0.04345361 0.08989213 0.10925188 -0.09072595 -0.04061056
0.040354453 0.009654632 -0.064683124 0.022241434 0.08892032 0.073580064 0.08755354 -0.012669319
0.12321068 -0.07974722 -0.004352874 -0.05515424 0.010665914 -0.12084604 0.0029334521 -0.048645787
-0.041778438 0.077139 0.09767147 0.11268418 0.083929636 0.12315117 -0.0059208926 0.031816237
0.112658165 -0.06815676 -0.0077031897 0.0155296475 0.09909358 0.070413284 0.050930046 0.046049602
-0.044567235 -0.036198057 -0.058935173 0.10259693 -0.07541721 0.0256531 0.09403468 -0.014852384
-0.025503224 0.046272047 -0.11392971 -0.053495504 -0.11923578 -0.0013923962 0.0427626 0.057337232
-0.010255467 -0.050623678 -0.07453055 0.015200367 0.081669725 0.10039946 0.11396118 0.1030663
-0.0117898695 -0.0019500103 -0.0464079 0.078267746 0.009622413 -0.10839789 0.054591917 -0.1214009
0.075788 0.019510875 -0.054944865 0.037390254 -0.10209771 0.017950216 0.015543093 -0.08700425
-0.044777296 0.0231042 -0.090882756 -0.009805303 0.07760883 -0.030355917 0.10964619 -0.0497941
0.049965315 -0.08117955 -0.118135236 0.046945892 0.05827228 -0.035045452 -0.023677697 -0.051655345
0.015011448 -0.0463384 -0.120987095 -0.014138503 -0.05834613 0.00042864616 0.0061074803 -0.11148531
-0.06874483 0.08383309 0.024027327 -0.0584509 -0.12184406 0.029357413 0.049539156 -0.0073210094
-0.051859424 -0.041364446 -0.11221306 0.032279726 -0.02479924 0.07966925 -0.109325856 -0.06346257
-0.10857196 -0.017362205 -0.021587638 -0.10108887 0.06976877 0.07533096 -0.040656 0.094177976
-0.04614094 0.028158473 -0.013749393 0.107832104 0.004415448 -0.079062745 0.109071136 -0.0890263
-0.08425914 -0.009717094 0.12205002 -0.058507428 0.10987152 0.023610638 -0.118365034 0.06440635
0.028438585 -0.039373323 -0.019150747 0.019749628 0.122718126 -0.030644236 -0.0060751042 0.10544106
0.025280686 -0.07772812 0.102339104 0.05280924 -0.071024 -0.052155137 -0.033516005 0.03245324
-0.06275548 0.09925538 -0.009704294 0.065121114 -0.06808403 -0.016230222 0.063883 0.025679799
-0.055989653 0.079892114 -0.006213417 0.09272449 0.012960164 0.036387935 0.0016054872 -0.102114394
-0.086196505 -0.00070963375 0.06786858 -0.0778077 0.028239157 -0.083636545 -0.012224382 0.11688446
-0.009426106 -0.0068917014 0.07915265 0.050253432 -0.108717136 -0.064315684 -0.003552926 -0.11162264
0.016170703 0.034007587 -0.09033453 0.058631238 0.06670808 0.09355689 -0.05519292 -0.0059356214
-0.08226555 0.051014137 0.11815109 0.015548316 0.04241174 0.008705186 0.032320242 -0.049938593
-0.110663064 0.034330662 -0.015966956 0.034721907 -0.0027670825 -0.042360086 0.030816432 -0.12188773
0.05194978 0.019094598 -0.043765012 0.07957988 0.020350274 -0.03913105 0.10170876 -0.11209672
0.08290314 -0.04453333 -0.10644358 -0.035056297 0.11034412 0.050778534 0.063475385 0.10519802
-0.046449993 0.12013612 0.060690623 0.084678106 0.03834447 0.0022230775 -0.053646926 0.036213513

W_g.bias f4 [64]
00000000: ddb5 1fbd 6b07 f6bd 5099 babd 1c5a c23d
00000010: 22e2 a0bc 54d0 42bd 9747 6dbc 5aec bb3d
00000020: 8fc6 603b 9d64 dd3d 9047 b53d bd5b bbbb
00000030: cd77 5bbd 9be8 45bd efaf 16bd a37f d7bd
00000040: 96c3 ac3c 8efc c9bb 725e cb3d fd6c d43d
00000050: b5c9 b43d 742c d3ba b35c dcbd 2df9 aabd
00000060: 15e2 81bc 27ee 5bbc 1297 b03d b792 6cbd
00000070: 7128 eb3c a645 32bc 5d90 883d c632 433d
00000080: 8c51 b6bd b6f7 f3bd e399 453d 55d6 83bd
00000090: f24a aabd d2b2 6abd 3697 ea3d 7b43 01be
000000a0: ddb3 bb3d ab13 d6bd 48b3 9ebd 696a 0b3d
000000b0: 3b02 d1bd 5842 b939 c4a3 333d a7ac 213c
000000c0: 4c90 033e dd38 86bd 017a 1dbd 61b8 fbbd
000000d0: 65da ae3d fc94 e6bd 51e9 cf3c e69b 2b3d
000000e0: a2a0 4d3c 10a6 cabd d3db bebc 6c49 adbd
000000f0: b2a8 e33d c8cd f13d 7901 e1bd f0ec 9abd
-0.038991798 -0.120131336 -0.09111273 0.09489843 -0.019639079 -0.04756196 -0.0144824 0.0917594
0.0034298038 0.10810206 0.0885154 -0.005717723 -0.053581048 -0.048317533 -0.036788877 -0.10522392
0.021089356 -0.00616414 0.099301234 0.1037235 0.08827535 -0.001611127 -0.107598685 -0.08348308
-0.015854875 -0.013423479 0.086225644 -0.057757106 0.028705807 -0.010880863 0.0666816 0.047655843
-0.089022726 -0.119124815 0.04824246 -0.06437365 -0.08315076 -0.057299443 0.114546224 -0.12623398
0.091651656 -0.1045297 -0.07749039 0.034037028 -0.102055036 0.0003533538 0.04385735 0.009867824
0.12848014 -0.065538146 -0.03844643 -0.12291027 0.08537749 -0.11258885 0.025379809 0.041896723
0.012550505 -0.09894955 -0.02329818 -0.0846127 0.111161605 0.11806828 -0.10986609 -0.075647235

W_x.weight f4 [64, 1]
00000000: 92d8 583f 5cbf 51bf 4570 273e 7b63 57be
00000010: 4050 543f c3bb d9bc 82b6 323f c6ad c13e
00000020: 421a ebbe 81b5 303f 609e 2b3f d174 d23e
00000030: f026 163e b0ab bd3e d5ed 123f 46ed 563e
00000040: 4c29 d7be 537b 753f 1ad3 7a3e b7a7 273f
00000050: 821b 9f3d 4856 9e3e 8a5d 983e d043 1bbf
00000060: ad95 7b3f f6ce e13e feea 5abf d327 68bf
00000070: 8b72 5abf ede5 2f3d fbb5 7ebe f02d 1ebf
00000080: 5cb1 5a3f a6b4 523f ce1e 663f fd9d 54bf
00000090: 3756 be3e ec86 663f 24b7 503e c9d9 c53e
000000a0: 7c38 3b3f e3c0 3e3f 6811 ca3e 6799 943e
000000b0: c086 8cbe c7f7 853e d593 003f 1fda 1c3f
000000c0: 22ab 5b3f 12d6 abbe e7e1 33bf f797 28bb
000000d0: 89ae 2abf 1b75 58bf c406 05bf 701c e4bd
000000e0: 0ead c8be 4f7e b63c b4b5 18bf 92e4 453f
000000f0: 12df 5b3d 7358 a0be 7115 113e 7ad0 153f
0.8470546 -0.81932616 0.16351421 -0.21034043 0.8293495 -0.02657879 0.69809735 0.3782789
-0.4591847 0.69026953 0.67038536 0.4110475 0.14663291 0.3704505 0.5739415 0.2098895
-0.42023695 0.958913 0.24494591 0.6549029 0.077689186 0.30925202 0.29758865 -0.6065035
0.9827526 0.4410321 -0.8551482 -0.90685767 -0.8533103 0.042943884 -0.24874108 -0.61788845
0.8542688 0.823069 0.89890754 -0.8305357 0.37175152 0.90049624 0.20382363 0.3864272
0.73133063 0.7451307 0.39466405 0.29023287 -0.27446556 0.26165602 0.50225574 0.61270326
0.85808 -0.3356176 -0.70266575 -0.0025725344 -0.6667257 -0.8455369 -0.5196345 -0.111382365
-0.3919453 0.022277026 -0.59652257 0.77301896 0.053679533 -0.3131748 0.14168335 0.58521235

W_x.bias f4 [64]
00000000: 96c1 b5bd a7e6 e23e bde9 e3be 9ab0 dcbe
00000010: 98cc 6bbf e852 653f 8cb9 ed3e 5ace de3d
00000020: 64c4 febd 93f2 37bf 844e 3e3e 6226 28bf
00000030: 36d9 58be 39e3 9dbe 297f a33e 9b57 32be
00000040: eb66 763e 3dfe efbe f76e 55bf 7ffc 6abf
00000050: 0c93 323f 423f 7e3f 3d97 833e 6d54 37bf
00000060: 8b2b cc3d 0b3f 97be ba91 813e 1bcc 01be
00000070: a197 f2be 18be fbbe c514 4dbf 7dbd 053f
00000080: 597c 8f3e 353c c13e f2a2 0f3e 587a 34be
00000090: f721 363f 1d3b 9c3e f4b3 f7bd c2cb 6a3f
000000a0: 706f 773f 244a cf3e d43a e3be a76a c5be
000000b0: 6f2d 4b3f 6315 ad3e 6db7 1e3f 96af 843e
000000c0: d845 38bf 8674 f9be 2aa2 79bf fccf 633f
000000d0: aacb d9be fbbf 2b3e 53aa 3c3e 8ce4 d23e
000000e0: dd7b 2d3f 17d0 363f 5bc0 48bf 20be 073d
000000f0: 664b e5bd a240 e1bd d4a4 ecbe 7a0a 623f
-0.08874814 0.443166 -0.44514266 -0.43103486 -0.9210906 0.8957963 0.46430624 0.10879202
-0.12439802 -0.71854514 0.18584639 -0.6568357 -0.2117661 -0.3083742 0.31932953 -0.17416231
0.24062698 -0.46873656 -0.83372444 -0.9179153 0.69755626 0.99315274 0.25701323 -0.716132
0.09969243 -0.29540285 0.25306493 -0.12675516 -0.4738131 -0.49168468 -0.80109817 0.5224226
0.28024557 0.37741247 0.14027002 -0.17624795 0.71145576 0.3051385 -0.1209487 0.9171716
0.96654415 0.40486252 -0.4438082 -0.38557932 0.793662 0.3380538 0.61998636 0.2591521
-0.71981573 -0.48721713 -0.9751307 0.88989234 -0.42538196 0.16772453 0.18424349 0.41189992
0.67767125 0.7141127 -0.7841851 0.0331403 -0.11196022 -0.10998656 -0.46219504 0.88297236

W_1d.weight f4 [1, 64]
00000000: f337 febb f9e9 cd3d 4c80 1cbd 2943 663c
00000010: 1956 92bd ac87 0e3d f7ea a1bc 2e7b 063c
00000020: b710 bebd f9e6 82bd 00cc 063d 848c 50bd
00000030: cd55 583a 5b55 91bd 2167 e33b d3b2 f13b
00000040: a7f3 15bc b17c fe3c 1eeb 143d 92fb 983b
00000050: 80dd babd be5f 4a3d 029d 3d3b ead7 9c3d
00000060: c5b6 c13c f7f7 48bd 65ec 96ba 155d 673c
00000070: 3fd3 9cbd cddd 983c 7309 0d3c 2b49 e1bd
00000080: de6d b63c ae0e 50bd 04d3 a53b b2ad 8bbd
00000090: c4f5 59bd 9690 9cbd acba 29bd c6c8 a03d
000000a0: 5eca b83d c1cb f43d 34ad f03b e707 cdbc
000000b0: ea79 063a 2942 9c3c 2786 b8b9 beff bc3c
000000c0: 4b8b 0ebd ab72 8cbb 2f01 c2bd c754 9e3d
000000d0: c9b7 a2bd a0bd 85bb 816a 7dbc 1fac 90ba
000000e0: 9e15 e5b9 95e6 933b f042 c6bb b7d4 b03b
000000f0: 6c0a 86bd 16d7 8cbd 391b b2bd 7513 973d
-0.0077581345 0.10054392 -0.03820829 0.014054098 -0.07145328 0.034797356 -0.01976536 0.008208079
-0.09280532 -0.06391711 0.032909393 -0.050915256 0.00082525314 -0.070963584 0.006939784 0.007376054
-0.0091523295 0.031065317 0.036357038 0.0046686614 -0.09124279 0.049407713 0.0028932695 0.0765837
0.023646722 -0.049064603 -0.0011514543 0.014121314 -0.076574795 0.01866045 0.00860821 -0.11000284
0.022269186 -0.05079525 0.0050605554 -0.06820239 -0.053212896 -0.07644765 -0.04143779 0.078507945
0.090229735 0.119529255 0.007344866 -0.025028182 0.0005129861 0.019074516 -0.00035195166 0.023071166
-0.03480081 -0.0042861304 -0.09472882 0.07731014 -0.079452105 -0.004081443 -0.015467287 -0.0011037624
-0.0004369439 0.0045135715 -0.00605046 0.0053964513 -0.065449566 -0.06876962 -0.086965986 0.07376758
