model_weight/best_MALAYSIA_model.pth (torch, 73906 bytes, 14 tensors)

lstm_cells.0.b_c f4 [64]
0.017651474 0.012747983 0.01110028 0.0070994734 0.0009853025 -0.0037350748 -0.015749913 -0.010559367
-0.0034880384 -0.00037364694 0.0028883263 0.0068125413 0.014585712 0.013986903 0.0049686725 -0.0014741303
-0.0015776248 0.0063573406 -0.008662036 0.012117146 0.006895071 -0.018420897 0.006622069 0.003251733
0.016623672 0.005320808 -0.013857074 -0.0047855587 0.021150155 0.007898623 0.0019932194 -0.008009647
-0.0029138299 0.0010676812 0.025606105 -0.0008727969 0.0028425017 0.0033839436 0.004915277 -0.02569982
-0.011624294 0.010693079 0.0012371531 -0.0016893714 0.0059238328 0.0027808766 -0.004250783 0.005576281
-0.0023476072 0.0078063114 -0.0034851704 -0.014839695 -0.005720661 -0.0026327807 0.005358238 -0.001732732
0.0057624583 -0.0054261116 0.0020555868 0.00096088205 0.019296428 -0.0049707578 0.008619132 -0.003580637
00000000: d399 903c ebdc 503c f3dd 353c b3a2 e83b
00000010: 4425 813a 28c8 74bb f605 81bc 3201 2dbc
00000020: 9397 64bb 0be6 c3b9 134a 3d3b bd3b df3b
00000030: e9f8 6e3c 5329 653c 3fd0 a23b 9b37 c1ba
00000040: 4ec8 ceba 3d51 d03b 36eb 0dbc fe86 463c
00000050: 0cf0 e13b 6ce7 96bc f1fd d83b 071b 553b
00000060: 5e2e 883c 2c5a ae3b c808 63bc 2dd0 9cbb
00000070: 1743 ad3c 3a69 013c aca0 023b e53a 03bc
00000080: f4f5 3ebb 70f1 8b3a e5c3 d13c 69cc 64ba
00000090: 4449 3a3b 27c5 5d3b 5510 a13b 6e88 d2bc
000000a0: d373 3ebc 0632 2f3c f827 a23a e66d ddba
000000b0: b61c c23b 5e3f 363b 274a 8bbb 3cb9 b63b
000000c0: 50da 19bb 16cc ff3b 7567 64bb 3122 73bc
000000d0: 6274 bbbb bb8a 2cbb 2894 af3b d71c e3ba
000000e0: 01d3 bc3b 86cd b1bb 06b7 063b b4e3 7b3a
000000f0: 8b13 9e3c bde1 a2bb 4337 0d3c 1fa9 6abb

lstm_cells.0.W_ic.weight f4 [64, 1]
0.59529006 0.924597 0.15034628 0.5487014 0.9119966 -0.5258985 -0.892592 0.22897151
-0.054895084 0.41043633 0.5820913 -0.9550418 0.01494583 0.5790395 0.81011707 0.607344
-0.6055089 -0.3592555 0.2375013 0.26085505 -0.23561513 -0.503755 -0.33907294 0.48955077
0.1727757 0.21962725 -0.70636356 0.40347472 0.01642452 0.57301635 0.7749471 -0.8920197
0.07271864 0.673458 0.6994481 -0.36833894 -0.34230092 -0.6663118 0.37407744 -0.823064
-0.8317663 0.42445424 -0.7650553 0.26710507 0.2883489 0.6582302 -0.44305643 0.16129644
-0.09010276 -0.16359346 -0.71355146 -0.37262204 -0.61966765 0.2563792 -0.036485422 -0.08730734
-0.8332018 -0.4097517 0.6591143 0.4845225 -0.25849953 -0.12299423 0.019767955 -0.31674862
00000000: ee64 183f 64b2 6c3f 60f4 193e b277 0c3f
00000010: 9c78 693f 49a1 06bf e980 64bf 8277 6a3e
00000020: abd9 60bd b624 d23e ef03 153f 9f7d 74bf
00000030: 5bdf 743c ef3b 143f d563 4f3f e57a 1b3f
00000040: a202 1bbf 56f0 b7be 8a33 733e cb8e 853e
00000050: 1845 71be 16f6 00bf f89a adbe 66a6 fa3e
00000060: 1dec 303e f7e5 603e 3ed4 34bf 3d94 ce3e
00000070: b78c 863c 33b1 123f ef62 463f 675b 64bf
00000080: 83ed 943d be67 2c3f 080f 333f ec96 bcbe
00000090: 1142 afbe 6993 2abf 1487 bf3e 53b4 52bf
000000a0: a3ee 54bf 1152 d93e aada 43bf ffc1 883e
000000b0: 78a2 933e c681 283f 4bd8 e2be e52a 253e
000000c0: cc87 b8bd 0b85 27be 4fab 36bf 51c8 bebe
000000d0: 8aa2 1ebf 2244 833e bd71 15bd 31ce b2bd
000000e0: b74c 55bf faca d1be b7bb 283f 5513 f83e
000000f0: 0d5a 84be 66e4 fbbd 68f0 a13c e02c a2be

lstm_cells.0.W_ic.bias f4 [64]
-0.25990787 -0.7466044 -0.76773125 -0.05222026 0.13556258 0.50529784 0.19009943 0.86012864
-0.116033345 0.64665115 -0.36554426 -0.92315704 -0.95362824 -0.17757273 0.22537644 0.65687084
-0.68246645 -0.98827523 0.46899357 -0.7096971 -0.9222079 0.73469585 -0.2885623 -0.39626855
-0.825184 -0.47152027 0.38437045 0.76584166 -0.72388005 -0.35323983 0.30802897 0.8617972
-0.054172587 0.38993445 -0.90582544 0.16264895 -0.84981555 -0.47043458 0.20078737 0.71484905
-0.058995474 0.34053987 -0.40541753 0.488577 -0.26306584 0.48709768 0.64211303 -0.42336956
0.42326555 -0.66503 0.081777334 0.80483055 0.3896018 0.5990935 -0.7708843 0.24950399
-0.89623123 0.3975055 -0.5855245 0.39934722 -0.9602593 0.4488277 -0.96660846 -0.2478076
00000000: a512 85be 7721 3fbf 098a 44bf e9e4 55bd
00000010: ebd0 0a3e 335b 013f 6da9 423e 6431 5c3f
00000020: e4a2 edbd ee8a 253f 9e28 bbbe 0554 6cbf
00000030: fb20 74bf a0d5 35be 15c9 663e b028 283f
00000040: 1fb6 2ebf 9bff 7cbf ed1f f03e b6ae 35bf
00000050: d115 6cbf 0715 3c3f 70be 93be b6e3 cabe
00000060: 423f 53bf 1b6b f1be 34cc c43e 330e 443f
00000070: 3450 39bf dadb b4be f9b5 9d3e be9e 5c3f
00000080: 13e4 5dbd 7da5 c73e 2de4 67bf 728d 263e
00000090: 838d 59bf cddc f0be 349b 4d3e 5900 373f
000000a0: 3da5 71bd 3e5b ae3e e392 cfbe c426 fa3e
000000b0: 91b0 86be de64 f93e 8561 243f e5c3 d8be
000000c0: 43b6 d83e 683f 2abf e07a a73d 6009 4e3f
000000d0: e379 c73e 315e 193f ac58 45bf f97d 7f3e
000000e0: 696f 65bf d785 cb3e efe4 15bf 3d77 cc3e
000000f0: 8ed3 75bf bfcc e53e a773 77bf 47c1 7dbe

lstm_cells.0.W_hc.weight f4 [64, 64]
-0.06625797 -0.010242903 0.028368771 -0.020964498 -0.11496461 -0.056213256 -0.016200243 0.1293518
-0.030393587 -0.003411506 0.051852573 -0.04664904 0.10740831 -0.042560942 0.13023926 -0.07367346
0.11578367 0.030669395 0.0796502 0.028211573 0.009950115 -0.060805164 -0.101748295 0.08651061
-0.057097975 0.019099677 -0.07539147 -0.0128760105 0.010184799 -0.13121824 0.02716992 0.04300205
-0.09891247 0.072706446 0.036226228 0.06090557 0.062657915 -0.07955834 -0.053817462 -0.025229221
-0.088527136 0.10429341 0.005131583 -0.07412388 0.023935417 -0.121651106 0.09429944 -0.08579073
-0.008422905 0.021793626 0.025094641 0.10229706 -0.055287424 0.013173416 -0.12585223 0.009439642
-0.0821759 -0.00619619 0.05703989 -0.08347629 -0.12791838 -0.023098307 -0.05270314 -0.004098495
-0.123285204 0.020782217 -0.018083831 0.07360019 0.043479953 0.10634521 -0.032978002 -0.033355776
0.12362202 0.06349663 0.09865702 -0.04982612 0.052311074 -0.1298197 0.110322505 -0.05561023
-0.020484915 0.030408487 -0.09142745 0.00082138175 -0.06228855 0.068022914 -0.10531709 0.024363767
0.0498155 0.0736739 0.054905728 -0.0731292 -0.03575936 -0.01984825 -0.14135773 -0.082930416
-0.034333408 -0.030024758 -0.051984187 0.0392699 -0.0573563 -0.079969056 -0.119081564 -0.06431493
-0.10467453 0.097536884 0.12969916 -0.08104994 0.017021954 0.007838464 -0.007446835 -0.06688623
0.035344824 -0.0064251856 -0.11138841 -0.094887495 0.05888888 0.09496816 -0.08377303 0.10936846
-0.035622567 -0.066236645 -0.03643694 -0.015174104 -0.058914594 -0.102650166 -0.047960453 0.010160025
-0.10479739 0.09737578 -0.042691384 0.034746878 -0.066784985 0.06676335 0.017508337 -0.013668695
0.04764451 0.091579266 0.04344643 0.07859693 -0.054978143 -0.03328696 -0.027685855 -0.015673798
-0.007581706 -0.11785628 -0.11401775 0.112921916 0.028559344 0.107776076 0.013485809 0.108918026
-0.10280919 -0.11750031 -0.04941509 -0.10437565 0.017475419 0.025546007 0.056970317 -0.060474202
0.055536397 0.11440196 -0.120791495 0.08920268 -0.011200394 0.08691676 -0.025818555 0.11948247
-0.08943824 -0.08124372 -0.07249176 0.11275431 0.09986422 -0.11533003 -0.04211971 -0.05547994
0.027516894 -0.08397169 -0.08980889 0.0036176401 0.022179129 -0.0778475 0.0061557717 0.12039935
0.0016172591 0.07080996 0.06663925 0.017054146 0.037594862 0.052559417 -0.12744747 -0.13284943
0.10888863 0.033031266 0.0788211 -0.012028814 -0.014196576 -0.016097564 -0.06703131 0.014958932
-0.113890156 0.00860005 0.07189936 -0.043839898 0.044422098 -0.09597443 0.11550889 -0.024194403
-0.022557264 0.09399546 0.09245753 -0.030541774 0.12216102 0.017925482 -0.07997441 -0.014856323
0.04672272 -0.048273697 0.058071695 -0.12092443 -0.007597968 0.07035969 0.08307071 -0.10482875
0.0071837343 -0.016534733 -0.08228136 0.07998379 -0.050829682 0.06085098 -0.06189062 -0.108509496
0.113305315 0.0025268544 0.07917276 -0.065763764 0.02918676 0.0554341 0.059167065 0.036304113
-0.028538035 0.027530428 0.034966093 -0.0045710835 0.086871676 -0.12225242 0.090305865 -0.08000731
-0.039006364 0.08238566 -0.10015924 0.09497983 -0.009728826 -0.057299502 0.029712168 0.09733424
00000000: 42b2 87bd d9d1 27bc a065 e83c bdbd abbc
00000010: 9172 ebbd df3f 66bd 5fb6 84bc cc74 043e
00000020: f9fb f8bc 9393 5fbb 5d63 543d 1013 3fbd
00000030: e3f8 db3d 6254 2ebd 715d 053e 1ce2 96bd
00000040: fd1f ed3d 623e fb3c a51f a33d f51b e73c
00000050: cf05 233c d60e 79bd 6961 d0bd 7a2c b13d
00000060: 91df 69bd ed76 9c3c d866 9abd e7f5 52bc
00000070: 25de 263c 135e 06be 7493 de3c eb22 303d
00000080: 9f92 cabd 1ee7 943d f461 143d 1e78 793d
00000090: cb52 803d 7cef a2bd b36f 5cbd 83ad cebc
000000a0: b74d b5bd c997 d53d d726 a83b 43ce 97bd
000000b0: 3514 c43c 3724 f9bd 1120 c13d 0db3 afbd
000000c0: 3900 0abc 8c88 b23c 4793 cd3c 1f81 d13d
000000d0: 1175 62bd 50d5 573c 68df 00be baa8 1a3c
000000e0: d74b a8bd 6909 cbbb a9a2 693d 9ef5 aabd
000000f0: 09fd 02be a938 bdbc 3fdf 57bd ab4c 86bb
00000100: f47c fcbd 783f aa3c 8b24 94bc b2bb 963d
00000110: 0918 323d 84cb d93d f113 07bd 11a0 08bd
00000120: 8b2d fd3d 850a 823d b10c ca3d 7916 4cbd
00000130: 2344 563d 75ef 04be c4f0 e13d 8dc7 63bd
00000140: fbcf a7bc 381b f93c 513e bbbd ff51 573a
00000150: 4722 7fbd 994f 8b3d 7db0 d7bd 8696 c73c
00000160: 560b 4c3d 57e2 963d d4e4 603d c3c4 95bd
00000170: 6878 12bd cc98 a2bc 15c0 10be 6cd7 a9bd
00000180: 30a1 0cbd 7bf6 f5bc 5fed 54bd 7ad9 203d
00000190: 71ee 6abd d1c6 a3bd 09e1 f3bd 8cb7 83bd
000001a0: 9a5f d6bd 6bc1 c73d dbcf 043e 83fd a5bd
000001b0: a071 8b3c e76c 003c 9404 f4bb a6fb 88bd
000001c0: bcc5 103d 5d8a d2bb 9b1f e4bd 6054 c2bd
000001d0: 7735 713d ab7e c23d 3291 abbd 92fc df3d
000001e0: f8e8 11bd 14a7 87bd e73e 15bd ce9c 78bc
000001f0: 6e50 71bd 403a d2bd 2e72 44bd 3c76 263c
00000200: 04a0 d6bd f46c c73d 29dd 2ebd be52 0e3d
00000210: 91c6 88bd 39bb 883d a56d 8f3c aaf2 5fbc
00000220: e426 433d e98d bb3d e2f4 313d 6df7 a03d
00000230: c330 61bd e857 08bd 72cd e2bc 5666 80bc
00000240: f66f f8bb a25e f1bd 2382 e9bd 9b43 e73d
00000250: 49f5 e93c b4b9 dc3d 95f3 5c3c 6a10 df3d
00000260: a08d d2bd 01a4 f0bd 7a67 4abd e7c2 d5bd
00000270: 9c28 8f3c dc45 d13c b559 693d ccb3 77bd
00000280: 227a 633d 934b ea3d 8861 f7bd e5af b63d
00000290: db81 37bc 6a01 b23d 6f81 d3bc 3ab3 f43d
000002a0: 652b b7bd 1c63 a6bd 8f76 94bd bbeb e63d
000002b0: 9d85 cc3d 2732 ecbd b885 2cbd ef3e 63bd
000002c0: 1c6b e13c 59f9 abbd b9ed b7bd ee15 6d3b
000002d0: 01b1 b53c 836e 9fbd 5bb6 c93b ef93 f63d
000002e0: 36fa d33a d004 913d 297a 883d 23b5 8b3c
000002f0: 12fd 193d 8b48 573d 9781 02be ae09 08be
00000300: 0101 df3d cb4b 073d f56c a13d 8114 45bc
00000310: c198 68bc 0adf 83bc b647 89bd 4f16 753c
00000320: 3e3f e9bd 39e7 0c3c f93f 933d 7791 33bd
00000330: f2f3 353d 3e8e c4bd ed8f ec3d 5733 c6bc
00000340: 03ca b8bc b180 c03d 605a bd3d be32 fabc
00000350: 8f2f fa3d 76d8 923c a0c9 a3bd ef67 73bc
00000360: 5360 3f3d a4ba 45bd 96dc 6d3d 3aa7 f7bd
00000370: 60f8 f8bb be18 903d fa20 aa3d 75b0 d6bd
00000380: 8865 eb3b d973 87bc 2183 a8bd 8bce a33d
00000390: c932 50bd e13e 793d 0581 7dbd 3a3a debd
000003a0: 9e0c e83d 9599 253b 5425 a23d 27af 86bd
000003b0: 1219 ef3c de0e 633d 2a59 723d 9fb3 143d
000003c0: 99c8 e9bc 7e87 e13c 9b38 0f3d 07c9 95bb
000003d0: c7e9 b13d 7a5f fabd 48f2 b83d dfda a3bd
000003e0: 23c5 1fbd d0b9 a83d 4a20 cdbd c984 c23d
000003f0: a765 1fbc e2b2 6abd ef66 f33c 2d57 c73d

lstm_cells.0.W_hc.bias f4 [64]
-0.06961017 0.12228951 0.036716998 0.12211425 -0.048370235 0.058206536 -0.11824719 -0.11367986
0.085956365 0.008019384 -0.094400056 0.027929848 0.05988515 -0.021111911 0.049712237 0.075733855
0.0069918707 0.019879144 0.09639656 -0.024650183 0.04199675 0.069643594 -0.035796832 0.009493211
0.0042169476 0.06984179 0.0694705 0.08891973 0.025219047 0.05334429 -0.03785845 0.06294848
0.07458515 0.0013230427 0.022585591 -0.062609725 -0.014050734 -0.10210239 0.018803747 0.09197365
-0.05280677 0.027914321 0.0058049196 -0.07749164 -0.10046828 0.09595689 0.08923208 -0.06522507
-0.124065064 -0.047416154 -0.061477315 -0.085014366 -0.035235986 0.01866758 -0.062513076 -0.011521983
-0.07046706 0.018231545 -0.014942081 0.07814583 -0.06211661 0.06030059 0.09381512 0.037677404
00000000: c78f 8ebd ec72 fa3d 9064 163d 0917 fa3d
00000010: de1f 46bd fa69 6e3d 952b f2bd fdd0 e8bd
00000020: e409 b03d bc63 033c d154 c1bd 23cd e43c
00000030: 224a 753d e3f2 acbc 0f9f 4b3d 5a1a 9b3d
00000040: 101c e53b 96d9 a23c 8f6b c53d 2eef c9bc
00000050: c904 2c3d 4da1 8e3d b39f 12bd 6a89 1b3c
00000060: 522e 8a3b 3609 8f3d 8d46 8e3d 8c1b b63d
00000070: 2d98 ce3c 8b7f 5a3d 7611 1bbd 22eb 803d
00000080: 19c0 983d f269 ad3a 6b05 b93c 8739 80bd
00000090: 0d35 66bc 0f1b d1bd 510a 9a3c ae5c bc3d
000000a0: e94b 58bd 93ac e43c 3237 be3b f0b3 9ebd
000000b0: 50c2 cdbd 0c85 c43d 4fbf b63d b994 85bd
000000c0: d315 febd 7137 42bd a3cf 7bbd 031c aebd
000000d0: 9c53 10bd c1ec 983c db06 80bd b3c6 3cbc
000000e0: 0951 90bd 525a 953c a1cf 74bc ec0a a03d
000000f0: fd6d 7ebd c0fd 763d 2422 c03d 9f53 1a3d

lstm_cells.0.W_in.weight f4 [64, 64]
-0.030488327 -0.09787747 0.05981256 -0.07179406 0.11085455 -0.1223416 -0.11658287 -0.022286505
-0.11587876 -0.098822445 -0.015469417 -0.093656704 0.12283939 -0.09310919 -0.09100112 0.05838862
-0.10186021 -0.05435793 0.080662504 -0.006074384 0.07879911 -0.09619355 -0.090846434 -0.029600978
0.11115247 -0.090430066 -0.056982026 -0.03845048 0.05776362 0.033346653 -0.0068861395 0.11849107
0.013657883 0.015535325 0.12435414 0.028201595 0.034031436 -0.093125924 -0.0253191 0.076693624
0.018394247 0.062318772 -0.11367573 0.054899022 -0.0354034 0.08661254 0.046369568 -0.09884207
-0.10307717 0.019124493 -0.062298328 -0.035617262 0.032341212 -0.120200366 0.012546197 0.11593065
0.012322396 0.050882354 0.09791204 -0.08212283 0.049260423 -0.045412883 0.0026949197 0.021852836
0.12215154 -0.10291578 -0.073731706 -0.011572108 0.096156925 0.09910928 -0.0928417 0.026513234
-0.06702979 0.0093135685 -0.0023329705 0.11946994 -0.10327949 0.10538004 0.04140365 -0.009604111
0.015119746 -0.008144826 0.056410775 0.014364615 -0.06516257 0.04226829 -0.023158744 0.027832806
0.10101254 -0.021915302 0.04534924 0.09854935 0.05670531 0.048535943 0.004770443 -0.08857779
0.117179096 0.08118275 -0.037459508 0.11788909 -0.054256707 -0.119217336 0.009884387 -0.03795305
0.056116 -0.105236754 -0.04556507 0.103556186 0.041794524 -0.04414755 0.08386037 -0.06936617
-0.109346285 -0.06049879 0.05086565 0.025664672 -0.019475564 -0.05253823 -0.06151949 0.09324199
-0.05636409 -0.061426178 -0.07035048 -0.014013454 -0.120518714 0.043782547 -0.088238135 0.09235211
0.10247283 0.041553438 -0.07892051 -0.0076251924 0.08467373 -0.11237113 -0.040286496 0.09401949
0.014060229 -0.01777172 -0.05866638 -0.094724 0.04219462 0.07832079 -0.0005528778 -0.03688726
-0.028950885 0.10328162 -0.11638579 0.023413971 0.07261926 0.003569886 -0.0548549 0.11631532
0.11943692 0.020555481 0.029844165 -0.07943587 -0.12167311 0.031015277 0.019354701 0.105037704
0.10816684 -0.11210413 0.074340895 -0.059233606 -0.0901494 0.006033629 0.000278309 -0.10226464
0.011936024 0.031213671 0.066953704 0.08453745 -0.07724419 0.053226933 0.107808545 -0.031229079
0.03680724 0.017519623 -0.09922323 0.081929415 0.0075425953 -0.09639387 -0.0723118 -0.03927435
0.030525297 0.03631863 0.027055606 0.07506822 -0.06135045 -0.113619134 0.045809075 0.07160851
-0.01956132 -0.11577448 -0.077346325 0.07599436 -0.114754096 0.002136767 0.08310795 -0.012299076
0.122295216 0.041448608 0.019497842 0.048593625 -0.099154204 -0.05074939 0.12324479 -0.036683336
0.11956279 -0.010448754 -0.102605864 -0.043959275 -0.08078976 -0.09574629 0.06285012 0.09238559
0.11802533 0.075261444 0.09427364 0.014678821 0.08816485 -0.030748114 -0.042301908 -0.11232354
-0.07332231 0.10848832 0.07526153 0.11335057 -0.022690967 0.009628296 -0.05436033 -0.11915937
-0.06683399 0.014065653 0.06993778 -0.07699719 0.056797743 0.1079811 -0.113598034 -0.042100444
-0.059274167 -0.039283007 0.036851108 0.07211357 -0.018623292 -0.080167115 0.107172266 0.0049366653
0.046657845 -0.018064693 -0.075855106 -0.09865931 -0.08177714 0.08638242 0.1200555 -0.017914101
00000000: a8c2 f9bc fc73 c8bd 04fe 743d c408 93bd
00000010: b607 e33d 3c8e fabd 00c3 eebd 3092 b6bc
00000020: d851 edbd 6c63 cabd 7073 7dbc 16cf bfbd
00000030: 3893 fb3d 08b0 bebd cc5e babd e828 6f3d
00000040: 169c d0bd 6ca6 5ebd 6232 a53d a00b c7bb
00000050: 6e61 a13d 2001 c5bd b20d babd c07d f2bc
00000060: e8a3 e33d 6633 b9bd fc65 69bd 407e 1dbd
00000070: 8c99 6c3d 8096 083d 20a5 e1bb 72ab f23d
00000080: 50c5 5f3c e087 7e3c 62ad fe3d 0807 e73c
00000090: 8c64 0b3d ceb8 bebd 006a cfbc 8c11 9d3d
000000a0: 88af 963c f841 7f3d d2ce e8bd ccdd 603d
000000b0: 2803 11bd ea61 b13d 04ee 3d3d b66d cabd
000000c0: 201a d3bd f8aa 9c3c 882c 7fbd 68e3 11bd
000000d0: 3878 043d 9c2b f6bd 908e 4d3c 0c6d ed3d
000000e0: e0e3 493c 046a 503d 1c86 c83d 0430 a8bd
000000f0: 4cc5 493d dc02 3abd 409d 303b b804 b33c
00000100: 962a fa3d 82c5 d2bd a600 97bd f098 3dbc
00000110: eced c43d cef9 ca3d ca23 bebd 4832 d93c
00000120: ea46 89bd f097 183c c0e4 18bb a8ac f43d
00000130: 3284 d3bd 7ed1 d73d e096 293d 905a 1dbc
00000140: d0b8 773c e071 05bc fc0e 673d 9059 6b3c
00000150: f473 85bd 8421 2d3d 68b7 bdbc a001 e43c
00000160: aadf ce3d b887 b3bc 20c0 393d 3ed4 c93d
00000170: d443 683d a0cd 463d 6051 9c3b 4668 b5bd
00000180: 98fb ef3d 2443 a63d 246f 19bd d66f f13d
00000190: 483c 5ebd 3828 f4bd 20f2 213c a874 1bbd
000001a0: e4d9 653d 5e86 d7bd 70a2 3abd 4415 d43d
000001b0: bc30 2b3d 10d4 34bd fcbe ab3d da0f 8ebd
000001c0: f2f0 dfbd 94cd 77bd 8058 503d b83e d23c
000001d0: 388b 9fbc 5432 57bd dcfb 7bbd a8f5 be3d
000001e0: 08de 66bd 049a 7bbd ea13 90bd b098 65bc
000001f0: 84d2 f6bd 5455 333d 32b6 b4bd 1a23 bd3d
00000200: 46dd d13d f033 2a3d 14a1 a1bd c0dc f9bb
00000210: 6c69 ad3d d622 e6bd 7403 25bd 4a8d c03d
00000220: e05c 663c 0096 91bc 284c 70bd a8fe c1bd
00000230: 44d4 2c3d a666 a03d 00ef 10ba 1817 17bd
00000240: 682a edbc 5085 d33d ac5b eebd a8ce bf3c
00000250: 68b9 943d c0f4 693b 88af 60bd ba36 ee3d
00000260: 589b f43d f863 a83c c07b f43c 46af a2bd
00000270: c02f f9bd c013 fe3c c08d 9e3c 021e d73d
00000280: 9486 dd3d da96 e5bd 0a40 983d f09e 72bd
00000290: 40a0 b8bd c0b5 c53b 00ea 9139 2070 d1bd
000002a0: 508f 433c d0b3 ff3c 061f 893d f821 ad3d
000002b0: 3432 9ebd 7c04 5a3d baca dc3d 20d4 ffbc
000002c0: 30c3 163d 5085 8f3c 8c35 cbbd 9cca a73d
000002d0: e027 f73b 266a c5bd 3618 94bd 24de 20bd
000002e0: 3010 fa3c d8c2 143d b8a3 dd3c 5ebd 993d
000002f0: 9c4a 7bbd 26b1 e8bd 4ca2 3b3d 7ca7 923d
00000300: 103f a0bc 2c1b edbd c067 9ebd eea2 9b3d
00000310: 3204 ebbd 0009 0c3b 8034 aa3d 1082 49bc
00000320: ea75 fa3d 04c6 293d f0b9 9f3c 1c0a 473d
00000330: 5c11 cbbd 98de 4fbd c467 fc3d 4441 16bd
00000340: 56dd f43d 4031 2bbc 0623 d2bd a40e 34bd
00000350: 1a75 a5bd a216 c4bd 90b7 803d a834 bd3d
00000360: 44b7 f13d ac22 9a3d 8a12 c13d 707f 703c
00000370: c68f b43d 78e3 fbbc c444 2dbd e209 e6bd
00000380: 022a 96bd 202f de3d b822 9a3d 5824 e83d
00000390: 68e2 b9bc 00c0 1d3c f0a8 5ebd d409 f4bd
000003a0: 42e0 88bd a073 663c 8a3b 8f3d b4b0 9dbd
000003b0: c0a4 683d 3225 dd3d 16a6 e8bd 8471 2cbd
000003c0: 78c9 72bd 38e7 20bd 30f1 163d 48b0 933d
000003d0: e08f 98bc a82e a4bd 227d db3d c0c3 a13b
000003e0: 4c1c 3f3d 68fc 93bc ec59 9bbd e40d cabd
000003f0: c67a a7bd 44e9 b03d a8df f53d 98c0 92bc

lstm_cells.0.W_in.bias f4 [64]
0.110980004 -0.109642655 0.07847564 0.08256486 0.10895714 -0.0023824424 -0.078453645 0.102111205
-0.038379997 0.02464658 0.04442826 -0.05253683 0.002669096 0.0032746494 0.030249909 0.06021601
-0.050117567 -0.048603997 -0.103951305 -0.11077063 -0.08521867 0.09900054 -0.088521674 0.020364001
0.10460806 -0.054332152 0.06953344 0.042851225 0.018492758 -0.06763747 -0.068590045 -0.041694254
-0.06674038 -0.12463142 0.08465773 -0.07405384 -0.11106016 -0.087919205 -0.009996086 -0.08618452
0.07007806 0.040170744 0.10867299 -0.04299766 0.0343678 -0.10666756 0.02566424 -0.045464426
-0.038989395 -0.017164081 -0.03486757 0.0589938 0.06579882 -0.025147617 0.038469255 -0.116736054
0.016543582 0.05022444 -0.06412214 0.037334636 -0.062372357 -0.07705869 -0.014387235 0.07240373
00000000: 7c49 e33d 548c e0bd d6b7 a03d c417 a93d
00000010: ec24 df3d c022 1cbb 4eac a0bd ae1f d13d
00000020: 5834 1dbd a0e7 c93c 68fa 353d dc30 57bd
00000030: 00ec 2e3b 809b 563b a8ce f73c 10a5 763d
00000040: 1448 4dbd fc14 47bd 6ce4 d4bd b6db e2bd
00000050: 2087 aebd ccc0 ca3d da4a b5bd 68d2 a63c
00000060: c03c d63d 648b 5ebd 8c67 8e3d c484 2f3d
00000070: 207e 973c 8485 8abd f078 8cbd 98c7 2abd
00000080: 2eaf 88bd c23e ffbd 0861 ad3d 8aa9 97bd
00000090: 8273 e3bd fc0e b4bd a0c6 23bc 8281 b0bd
000000a0: 1685 8f3d 148a 243d f28f de3d 501e 30bd
000000b0: 40c5 0c3d 8674 dabd d03d d23c e838 3abd
000000c0: 58b3 1fbd b09b 8cbc 4cd1 0ebd 7ca3 713d
000000d0: 88c1 863d 6002 cebc f091 1d3d 5013 efbd
000000e0: 6886 873c 24b8 4d3d 7852 83bd 34ec 183d
000000f0: 287a 7fbd f2d0 9dbd 70b8 6bbc 6848 943d

W_h.weight f4 [64, 64]
0.11364093 0.11165104 0.006726751 -0.064520344 0.089180686 0.07600619 0.03173234 -0.021243317
-0.0446427 -0.023234604 -0.05992622 0.10889036 0.029636968 0.018680219 -0.0059603183 0.072243966
0.09932641 -0.01171469 0.10387095 -0.06737223 -0.0733723 0.050970074 -0.09559211 -0.06394579
-0.07988089 -0.08603469 0.040438768 -0.09847893 -0.049316987 0.024032634 0.09894895 0.05198092
-0.07424292 0.0066605606 0.024189709 0.097305454 0.010647003 -0.039642494 -0.07310187 -0.031098723
-0.12033622 -0.06356855 -0.024753816 -0.033363633 0.058678657 -0.0026384618 -0.02889661 -0.11774239
-0.03140117 -0.04722031 -0.115206055 -0.12608375 0.09412207 0.02053536 0.011623506 -0.027088739
-0.09887894 -0.059977066 0.037600346 0.022222487 0.04162393 0.027465329 -0.09653252 -0.10095092
-0.019171186 -0.1089987 0.063412294 -0.08056937 -0.10509364 -0.0035642597 -0.0014833009 -0.055170957
-0.011408791 0.0703654 -0.10806458 -0.100243494 0.116762236 0.052216906 -0.092617214 0.092336364
-0.093663715 -0.01857759 0.10837942 0.007882984 0.01614941 -0.1125716 -0.056418333 0.012269045
0.06734702 -0.064899 -0.10026672 0.018507227 -0.07850161 -0.06297419 -0.08486959 0.021901434
0.03506116 -0.038130045 -0.08819474 -0.08432277 -0.09634665 -0.009550914 0.022486951 0.040970337
-0.08972816 0.06566199 -0.11457646 -0.059937842 0.095595874 0.007951511 -0.11360141 0.06755851
0.100248985 -0.008377547 0.09947628 -0.014109667 0.0978753 -0.11681795 0.09785238 -0.016144883
0.06917403 -0.036204137 0.017202875 -0.01882499 -0.096411854 -0.03778125 0.047453485 0.032804854
-0.09897742 0.0023402097 -0.030892069 -0.087873176 -0.10359887 -0.0065870564 -0.030476032 0.084284864
0.0612552 -0.034810316 -0.121005684 -0.06093431 -0.0013851095 -0.09587909 -0.04956244 -0.066835985
0.08729275 0.046515252 0.12612231 -0.004760684 -0.048448205 -0.00508037 0.006245591 -0.08127544
0.09308941 0.06470408 0.1030244 -0.088163 -0.040508248 0.015693316 0.06769464 0.0479655
-0.03789857 0.054110646 -0.020520272 0.11385188 0.07915941 0.026786491 0.07622789 -0.11260406
0.07188762 0.0778891 0.12704958 -0.055164043 -0.022014474 -0.11065286 -0.040353887 0.006932863
-0.07581938 -0.00937162 0.0034232542 0.1261891 -0.093144916 -0.022901535 0.042892206 -0.09833484
0.023022987 0.0075925062 0.005116608 0.05038435 -0.020145454 0.09392541 0.04391985 0.030145692
-0.0706674 0.11047594 -0.019520475 -0.086934365 -0.0078021665 0.023140987 -0.079681836 -0.061360035
-0.046939265 -0.02740799 -0.0069579226 0.071971886 -0.014191247 0.0035200792 -0.016056238 0.03207596
-0.090945624 0.07364046 0.035658855 -0.029025588 -0.09188414 0.07978871 0.013809952 -0.08838337
0.100571185 0.07163702 0.0005270737 -0.0817229 0.08405003 -0.026324753 0.06031036 0.01874889
0.018075205 0.03058064 -0.031678673 0.027562749 -0.09745448 0.080272935 0.0010135123 0.11160071
-0.009492717 -0.06183901 0.09239035 0.02013289 0.023193328 -0.08068729 0.10776655 0.09078522
-0.10727653 -0.118460126 0.08945546 0.0473008 -0.07349129 -0.07879516 0.0035967065 -0.03229793
-0.048078567 0.03528784 0.0075846175 -0.10742426 0.00811975 0.023678984 -0.12036906 -0.0035644204
00000000: 93bc e83d 4da9 e43d 146c dc3b 3e23 84bd
00000010: 5da4 b63d 22a9 9b3d c5f9 013d 7706 aebc
00000020: 44db 36bd 7f56 bebc 3275 75bd e901 df3d
00000030: 3ac9 f23c 4207 993c c64e c3bb a5f4 933d
00000040: a56b cb3d f9ee 3fbc 4bba d43d 74fa 89bd
00000050: 3744 96bd ffc5 503d ccc5 c3bd 03f6 82bd
00000060: 9898 a3bd f532 b0bd 1fa3 253d 52af c9bd
00000070: 9c00 4abd 16e0 c43c bfa5 ca3d f2e9 543d
00000080: ac0c 98bd d540 da3b 7f29 c63c 1548 c73d
00000090: c470 2e3c 2b60 22bd 6fb6 95bd c0c2 febc
000000a0: d672 f6bd 3a30 82bd 84c8 cabc 4ea8 08bd
000000b0: 0859 703d 0bea 2cbb 95b8 ecbc ec22 f1bd
000000c0: 839e 00bd 156a 41bd 27f1 ebbd 191c 01be
000000d0: 12c3 c03d c539 a83c 8570 3e3c 34e9 ddbc
000000e0: 0b81 cabd 83aa 75bd d202 1a3d ef0b b63c
000000f0: db7d 2a3d f8fe e03c d8b2 c5bd 5bbf cebd
00000100: e40c 9dbc b63a dfbd 4ede 813d 8e01 a5bd
00000110: 563b d7bd 5b96 69bb 526b c2ba f1fa 61bd
00000120: f0eb 3abc bc1b 903d f650 ddbd 764c cdbd
00000130: 0a21 ef3d 65e1 553d 18ae bdbd d91a bd3d
00000140: c3d2 bfbd 0830 98bc 08f6 dd3d a227 013c
00000150: c44b 843c f08b e6bd e916 67bd 1b04 493c
00000160: 3ced 893d c4e9 84bd a358 cdbd 789c 973c
00000170: 74c5 a0bd 9df8 80bd 1cd0 adbd a36a b33c
00000180: 4a9c 0f3d 402e 1cbd 729f b4bd 6bb1 acbd
00000190: 6451 c5bd 707b 1cbc 8e36 b83c 83d0 273d
000001a0: 66c3 b7bd cb79 863d 10a7 eabd 6281 75bd
000001b0: c5c7 c33d 0e47 023c dba7 e8bd 1e5c 8a3d
000001c0: 574f cd3d fb41 09bc 38ba cb3d 3c2c 67bc
000001d0: d872 c83d 403e efbd d466 c83d 4642 84bc
000001e0: 1dab 8d3d ca4a 14bd 0bed 8c3c de36 9abc
000001f0: 9473 c5bd 83c0 1abd 965e 423d 625e 063d
00000200: acb4 cabd 345e 193b 5d11 fdbc daf6 b3bd
00000210: a52b d4bd 3cd8 d7bb dfa8 f9bc 8b9d ac3d
00000220: bce6 7a3d 4395 0ebd d4d1 f7bd 4196 79bd
00000230: 908c b5ba 425c c4bd fc01 4bbd 4ee1 88bd
00000240: 8bc6 b23d c786 3e3d 3526 013e 83ff 9bbb
00000250: a071 46bd 3c79 a6bb d1a7 cc3b bd73 a6bd
00000260: a9a5 be3d 9383 843d 75fe d23d ce8e b4bd
00000270: faeb 25bd 458f 803c 7da3 8a3d 7977 443d
00000280: 883b 1bbd 20a3 5d3d 211a a8bc 2d2b e93d
00000290: 541e a23d 586f db3c 5e1d 9c3d f59c e6bd
000002a0: d139 933d 5284 9f3d 4919 023e b1f3 61bd
000002b0: b357 b4bc f79d e2bd 1e4a 25bd 122d e33b
000002c0: 3147 9bbd 6c8b 19bc ad58 603b b737 013e
000002d0: c3c2 bebd 009c bbbc bdaf 2f3d c763 c9bd
000002e0: b49a bc3c 8fca f83b 38a9 a73b d25f 4e3d
000002f0: 1408 a5bc f75b c03d 4de5 333d 19f4 f63c
00000300: 12ba 90bd 3641 e23d 67e9 9fbc a50a b2bd
00000310: 51a9 ffbb 2b92 bd3c 3b30 a3bd a954 7bbd
00000320: 6343 40bd b986 e0bc 49ff e3bb ff65 933d
00000330: 6782 68bc 21b1 663b 5f88 83bc 1562 033d
00000340: b341 babd cfd0 963d 050f 123d 12c7 edbc
00000350: c12d bcbd 4368 a33d 2343 623c 5702 b5bd
00000360: 44f8 cd3d 6eb6 923d 512b 0a3a 565e a7bd
00000370: 6c22 ac3d 02a7 d7bc ff07 773d 4697 993c
00000380: 7412 943c 4084 fa3c 7fc1 01bd 46cb e13c
00000390: 3796 c7bd 2366 a43d d4d7 843a ea8e e43d
000003a0: 5787 1bbc e74a 7dbd 2737 bd3d bbed a43c
000003b0: efff bd3c 613f a5bd b5b4 dc3d 9aed b93d
000003c0: ccb3 dbbd 399b f2bd 6d34 b73d 7cbe 413d
000003d0: 9a82 96bd 5b5f a1bd b9b6 6b3b d64a 04bd
000003e0: 08ee 44bd fb89 103d 6288 f83b 4001 dcbd
000003f0: b308 053c 6efa c13c 0e84 f6bd 0d99 69bb

W_h.bias f4 [64]
0.09944675 0.07319343 0.017821368 -0.09719932 0.13720138 0.048209447 -0.066697456 -0.058855303
-0.081521414 -0.008867557 -0.004304369 0.08850275 -0.054571804 0.078255124 -0.06084445 -0.0089321025
-0.09380278 0.10054516 -0.05775362 -0.07797138 0.12195882 0.12104262 0.056562528 0.018185817
-0.06507789 0.055266794 0.046898797 0.07703069 -0.06411871 -0.036503486 -0.052414745 -0.06704731
0.0129944375 0.015521957 -0.07521445 0.10039737 0.103245914 -0.048726853 -0.09885746 0.071824
0.014035524 -0.04439144 -0.06707536 0.10182617 -0.114167035 -0.07506702 -0.016886095 -0.020971855
0.02415399 0.007240887 -0.11107828 -0.060140815 0.011973001 0.00029456287 -0.020614645 -0.051746044
-0.03647695 -0.07244605 0.106255755 -0.08790543 -0.09726682 0.06514134 0.10523609 0.06535992
00000000: bdaa cb3d 70e6 953d 1efe 913c 7010 c7bd
00000010: 857e 0c3e 4577 453d ad98 88bd 4212 71bd
00000020: b3f4 a6bd 3b49 11bc aa0b 8dbb ee40 b53d
00000030: af86 5fbd 3944 a03d 0838 79bd f457 12bc
00000040: ac1b c0bd 9fea cd3d 0f8f 6cbd 75af 9fbd
00000050: 8cc5 f93d 31e5 f73d 1cae 673d 6cfa 943c
00000060: 8f47 85bd 6f5f 623d f418 403d 44c2 9d3d
00000070: ac50 83bd ae84 15bd d8b0 56bd 1a50 89bd
00000080: 9fe6 543c ce4f 7e3c 090a 9abd 239d cd3d
00000090: 9872 d33d cf95 47bd c875 cabd 7618 933d
000000a0: 41f5 653c ccd3 35bd ce5e 89bd 3d8a d03d
000000b0: 68d0 e9bd bdbc 99bd b554 8abc 2bcd abbc
000000c0: 97de c53c f644 ed3b 027d e3bd 3756 76bd
000000d0: 682a 443c 8f6f 9a39 0be0 a8bc a9f3 53bd
000000e0: db68 15bd 985e 94bd 9e9c d93d c307 b4bd
000000f0: d433 c7bd d368 853d 0586 d73d 6cdb 853d

W_g.weight f4 [64, 64]
0.06265468 -0.07139058 -0.088451274 0.061418764 0.0039969645 0.11303013 0.050978553 0.08184264
-0.020873317 -0.09218136 0.033412736 0.0031891798 0.08238796 -0.054930765 -0.11033773 -0.033309314
-0.05529045 0.103351496 0.11910484 0.034459572 -0.05639677 0.0047802744 0.036834892 -0.06585663
0.035039034 -0.07328377 0.09978839 0.10729591 -0.11188134 -0.08727405 0.036004018 0.108191855
0.082329355 0.11774609 -0.0838354 -0.017126719 0.017758554 -0.12067237 -0.07213841 0.04897621
0.03918479 0.0038721568 0.03592732 -0.0768285 0.06611291 0.020789063 0.03628322 -0.067866154
0.10511794 0.078386165 -0.04439995 -0.08425509 0.117101215 -0.07807829 0.068859614 0.10929655
-0.01690642 0.0015698841 -0.030734528 -0.0647346 0.0059886244 -0.120708816 -0.119927995 0.06307251
0.079288915 -0.1148683 -0.04172651 0.01910613 -0.0916848 0.0030873404 -0.06849821 0.032021645
-0.097654834 -0.0049301777 0.10755478 0.074597016 0.004465262 0.017012173 0.119662195 0.025831426
0.014164358 0.023367846 -0.03816135 -0.11808817 -0.019756904 0.06279594 -0.09898108 -0.07491237
-0.04602408 0.07162014 0.0027182088 0.10554309 0.017326081 0.09299061 0.004794037 -0.07259743
0.028820032 -0.059400585 0.039298553 -0.057052653 -0.0056695575 -0.048648607 0.0025004882 0.05499049
0.022724846 -0.10767315 0.04625537 -0.06595717 0.008245777 -0.12504418 -0.1085885 -0.0013776885
0.1218905 -0.06648314 0.10631406 0.08820668 -0.016596397 -0.029885406 -0.016582286 0.009531841
-0.10682882 -0.08074613 -0.0018082587 -0.05621023 -0.05563895 0.08186869 -0.037530687 0.029816115
0.0026041584 -0.07075137 0.026925307 -0.03421409 0.038652275 0.0766931 -0.12098773 -0.047752973
-0.08799094 -0.01506952 -0.04973219 0.054083753 -0.055703413 -0.055492382 0.022206541 -0.101020515
0.10423538 0.05211607 -0.03501561 0.1024435 0.11073457 0.02861434 -0.040513482 -0.07317895
0.028873293 -0.11139421 -0.0883048 -0.038340624 -0.05934466 0.05320679 0.09251861 -0.10963684
-0.012841618 -0.052081686 0.02022412 -0.04111914 0.1256893 0.070859835 0.018767219 0.022397812
0.11906622 -0.052246984 -0.12032351 0.019133877 -0.0016410775 0.08002673 0.0032129905 -0.07897952
-0.05336457 -0.0148285385 0.11205758 -0.059108403 -0.04017855 0.10351765 -0.05304074 -0.037599515
0.01953895 -0.0057049133 0.05522204 -0.10602005 0.10372202 -0.021895189 -0.036172565 0.026025277
-0.11378508 0.06838403 0.056275103 -0.0320112 0.023515562 0.07284222 -0.108507134 0.051833574
-0.020606449 0.06796806 0.05413029 -0.09653344 0.0041413964 0.08548839 0.1093267 0.07168039
-0.050782856 -0.010656512 -0.03300984 0.09157201 -0.12029388 -0.091858454 0.021336162 0.09515027
0.012685501 -0.057529148 -0.052724864 0.013848641 -0.10939408 -0.06965668 -0.032983612 -0.0031287223
-0.008379498 0.0884049 0.056786615 0.098510064 0.03621045 -0.06702184 -0.06958149 0.12225752
-0.011245794 0.057398457 -0.079843886 0.0530932 0.081931956 0.10206615 0.082703404 0.09108073
0.03503396 -0.08523796 -0.061958123 -0.099600784 -0.069298305 -0.113144495 0.060664926 -0.04382282
0.06725236 0.12764864 0.024800459 0.10582354 0.03388 0.03944223 0.1248024 0.05340599
00000000: 1951 803d 3935 92bd f125 b5bd 3e92 7b3d
00000010: f8f8 823b 577c e73d e3ce 503d 1d9d a73d
00000020: 85fe aabc 95c9 bcbd cbdb 083d 8f01 513b
00000030: 05bb a83d 15ff 60bd bff8 e1bd 596f 08bd
00000040: 3d78 62bd f3a9 d33d 3ded f33d 7b25 0d3d
00000050: 4d00 67bd d9a3 9c3b 2fe0 163d d7df 86bd
00000060: 1785 0f3d cd15 96bd db5d cc3d f5bd db3d
00000070: 0b22 e5bd bdbc b2bd f378 133d b193 dd3d
00000080: 4b9c a83d dd24 f13d e5b1 abbd 554d 8cbc
00000090: 637a 913c 1323 f7bd 4dbd 93bd 479b 483d
000000a0: 3b80 203d 03c4 7d3b 8728 133d 4358 9dbd
000000b0: 3566 873d d34d aa3c b79d 143d 69fd 8abd
000000c0: 1348 d73d ed88 a03d b9dc 35bd ef8d acbd
000000d0: c3d2 ef3d 83e7 9fbd 4506 8d3d dfd6 df3d
000000e0: 557f 8abc 92c4 cd3a fac6 fbbc 9393 84bd
000000f0: 393c c43b 2f36 f7bd cf9c f5bd 292c 813d
00000100: 3a62 a23d 1240 ebbd 6be9 2abd 7584 9c3c
00000110: 3ec5 bbbd fa54 4a3b ca48 8cbd 2129 033d
00000120: 42ff c7bd 548d a1bb ae45 dc3d 52c6 983d
00000130: 5551 923b 1d5d 8b3c 7411 f53d 6d9c d33c
00000140: a011 683c ed6d bf3c 134f 1cbd 36d8 f1bd
00000150: 3bd9 a1bc 289b 803d 98b6 cabd a86b 99bd
00000160: bf83 3cbd 94ad 923d fa23 323b fa26 d83d
00000170: 6def 8d3c dc71 be3d 4c17 9d3b f6ad 94bd
00000180: fd17 ec3c 074e 73bd 85f7 203d 0bb0 69bd
00000190: b2c7 b9bb c343 47bd 3bdf 233b b53d 613d
000001a0: 7529 ba3c be83 dcbd 4576 3d3d 8e14 87bd
000001b0: 4c19 073c 950b 00be a663 debd 8e93 b4ba
000001c0: baa1 f93d 5028 88bd 30bb d93d b4a5 b43d
000001d0: 2bf5 87bc 3dd2 f4bc 93d7 87bc 702b 1c3c
000001e0: 12c9 dabd 3a5e a5bd 1803 edba b33c 66bd
000001f0: abe5 63bd c6aa a73d c7b9 19bd ed40 f43c
00000200: 87aa 2a3b 18e6 90bd 7692 dc3c 1324 0cbd
00000210: d951 1e3d 4611 9d3d 6ac8 f7bd 9f98 43bd
00000220: 9834 b4bd 26e6 76bc fbb3 4bbd ed86 5d3d
00000230: 4329 64bd fb4b 63bd 7eea b53c d8e3 cebd
00000240: 5c79 d53d a977 553d 876c 0fbd e6cd d13d
00000250: cec8 e23d 9f68 ea3c 77f1 25bd d8de 95bd
00000260: af87 ec3c a622 e4bd 26d9 b4bd 0f0b 1dbd
00000270: 6313 73bd 5def 593d 667a bd3d 4889 e0bd
00000280: a665 52bc 9b53 55bd 0ead a53c 8b6c 28bd
00000290: b2b4 003e f61e 913d b6bd 993c 9e7b b73c
000002a0: fed8 f33d ef00 56bd 2c6c f6bd a6be 9c3c
000002b0: 6c19 d7ba 0ee5 a33d 0991 523b 04c0 a1bd
000002c0: cf94 5abd 66f3 72bc 727e e53d a71b 72bd
000002d0: 4392 24bd 1001 d43d 3f41 59bd f301 1abd
000002e0: 2610 a03c 48f0 babb 8130 623d 0a21 d9bd
000002f0: 366c d43d 8a5d b3bc af29 14bd f632 d53c
00000300: 2708 e9bd ed0c 8c3d b980 663d 2d1e 03bd
00000310: b5a3 c03c 4d2e 953d fd38 debd 714f 543d
00000320: dbce a8bc d732 8b3d b9b7 5d3d 53b3 c5bd
00000330: 8db4 873b 8914 af3d ade6 df3d 2bcd 923d
00000340: af01 50bd a798 2ebc 5335 07bd 1b8a bb3d
00000350: a35c f6bd 4920 bcbd 2dc9 ae3c 25de c23d
00000360: d9d6 4f3c afa3 6bbd 07f6 57bd 69e5 623c
00000370: 010a e0bd 29a8 8ebd d319 07bd 400b 4dbb
00000380: 294a 09bc a10d b53d 1599 683d a5bf c93d
00000390: 6951 143d bf42 89bd bd80 8ebd 2762 fa3d
000003a0: 4740 38bc a51a 6b3d 3185 a3bd 4178 593d
000003b0: f1cb a73d 0f08 d13d 6760 a93d 8988 ba3d
000003c0: c57f 0f3d 3d91 aebd cdc7 7dbd 7ffb cbbd
000003d0: 45ec 8dbd 4db8 e7bd c97b 783d 8f7f 33bd
000003e0: 9bbb 893d 53b6 023e 552a cb3c 03ba d83d
000003f0: c1c5 0a3d 2d8e 213d 6798 ff3d 3dc0 5a3d

W_g.bias f4 [64]
-0.097170584 0.088504165 -0.0724442 0.12651391 0.007824298 0.033397157 -0.036226023 0.0638598
0.052006304 0.04540063 0.10140756 -0.07066688 0.000115701885 0.12745441 -0.014172758 0.04497014
-0.026432022 0.05227144 0.017753622 -0.0048248586 0.027142432 -0.09018288 0.07536798 0.09903309
-0.09689175 0.11133635 -0.108494215 -0.011881896 -0.030568145 -0.0764787 0.091594405 0.12451267
-0.042567775 0.070287116 -0.07234704 0.10628373 0.1242684 0.0037698701 -0.11390029 -0.11694491
-0.06898021 0.08672479 0.055534516 0.0045630527 -0.014447382 0.016230872 0.010229549 -0.017290613
-0.095026396 0.032575727 0.028988987 0.0065606777 -0.019500876 -0.003962856 0.026583323 0.060352836
0.04450502 -0.011034148 -0.10714714 -0.05648457 -0.09596233 0.021349015 -0.007795328 -0.114073604
00000000: 5f01 c7bd ac41 b53d a05d 94bd dd8c 013e
00000010: 7c31 003c 75cb 083d bd61 14bd edc8 823d
00000020: 9004 553d 03f6 393d c4ae cf3d ccb9 90bd
00000030: faa4 f238 6983 023e db34 68bc 9c32 383d
00000040: f887 d8bc 941a 563d 0b70 913c d919 9ebb
00000050: ce59 de3c cdb1 b8bd 875a 9a3d dcd1 ca3d
00000060: 2f6f c6bd 5004 e43d 3732 debd 49ac 42bc
00000070: 0c6a fabc dda0 9cbd d995 bb3d 8000 ff3d
00000080: 8c5b 2ebd b1f2 8f3d af2a 94bd 49ab d93d
00000090: 6e80 fe3d ed0f 773b 8e44 e9bd d080 efbd
000000a0: 7f45 8dbd c49c b13d 2978 633d a985 953b
000000b0: b6b4 6cbc 9bf6 843c d799 273c 0ba5 8dbc
000000c0: 339d c2bd 206e 053d 507a ed3c f4fa d63b
000000d0: 4dc0 9fbc d8da 81bb 45c5 d93c 8934 773d
000000e0: e54a 363d 92c8 34bc f66f dbbd 5d5c 67bd
000000f0: e687 c4bd 21e4 ae3c f36f ffbb 6c9f e9bd

W_x.weight f4 [64, 1]
-0.5808644 0.20636809 0.6443821 0.8723847 -0.16296141 0.98258877 0.31301454 0.840098
0.8274023 -0.7648153 -0.26236734 0.013396805 -0.112099156 0.6433873 0.31516263 -0.38602605
-0.48759782 -0.9830583 0.83486557 0.49138045 0.33622846 0.005315979 0.91601473 0.06090306
-0.6056954 0.2623033 -0.009929946 -0.99365693 0.8560829 -0.14169423 0.2886292 -0.5104463
-0.4638178 -0.76748115 -0.64771384 -0.14395185 -0.9645483 0.07369958 0.3853797 -0.9024275
-0.110844284 -0.66123176 -0.37970427 0.379748 0.35893884 0.5153718 -0.45500946 0.9618841
-0.76227105 0.6351224 -0.8108641 -0.7115038 0.24524389 0.91014546 -0.22833514 0.44277242
-0.1439464 -0.09390664 0.44184375 -0.00796585 0.3067025 0.30160123 0.073672116 0.13534035
00000000: 88b3 14bf 2852 533e 3af6 243f 9b54 5f3f
00000010: 5bdf 26be f08a 7b3f 7143 a03e aa10 573f
00000020: a3d0 533f efca 43bf 0355 86be 467e 5b3c
00000030: 3e94 e5bd 08b5 243f ff5c a13e 35a5 c5be
00000040: 6ca6 f9be b5a9 7bbf c0b9 553f 3896 fb3e
00000050: 2326 ac3e aa31 ae3b f17f 6a3f 7d75 793d
00000060: db0e 1bbf 9e4c 863e 36b1 22bc 4d60 7ebf
00000070: 4028 5b3f 4b18 11be 35c7 933e 9cac 02bf
00000080: 8779 edbe a579 44bf 93d0 25bf 1d68 13be
00000090: a3ec 76bf ceef 963d 7d50 c53e 7d05 67bf
000000a0: 5402 e3bd 7c46 29bf 9968 c2be 546e c23e
000000b0: d5c6 b73e 68ef 033f 00f7 e8be 093e 763f
000000c0: 3224 43bf 6297 223f ca94 4fbf 1d25 36bf
000000d0: 3721 7b3e 4bff 683f b0d0 69be 11b3 e23e
000000e0: af66 13be 2052 c0bd 5839 e23e 3283 02bc
000000f0: 1c08 9d3e 7a6b 9a3e 68e1 963d a996 0a3e

W_x.bias f4 [64]
-0.098584734 -0.5249545 0.55200577 -0.9244043 -0.36499548 -0.15893571 -0.45227587 0.3161471
0.921418 -0.87761486 0.6409127 -0.008013515 -0.9196122 -0.55578774 0.0750549 0.0791758
-0.27233922 -0.562578 -0.8145695 -0.25600046 -0.47922638 -0.45265326 -0.14782313 -0.6218904
-0.8628388 0.7512191 0.15647827 -0.30779082 0.8522059 0.3659669 0.07167127 -0.95592
0.18126193 0.4310451 0.49254286 0.973167 -0.6336058 0.02470522 -0.0064615114 0.56957704
-0.39343432 0.09320904 -0.071940884 -0.6547489 0.674491 -0.4614061 0.9377958 -0.6491119
0.4927083 0.40363723 0.35543555 0.17272499 0.03962775 0.7098444 -0.5215189 0.36451623
0.060080845 -0.90377337 0.7374448 0.5726716 -0.33829165 0.1225741 0.4657592 0.9822548
00000000: cbe6 c9bd 6b63 06bf 4050 0d3f c3a5 6cbf
00000010: b0e0 babe 0bc0 22be b490 e7be 08de a13e
00000020: 0de2 6b3f 5eab 60bf db12 243f 1e4b 03bc
00000030: b56b 6bbf 1b48 0ebf 62b6 993d ec26 a23d
00000040: 0c70 8bbe 1d05 10bf a087 50bf 7e12 83be
00000050: 295d f5be 2bc2 e7be f25e 17be 3634 1fbf
00000060: 01e3 5cbf e54f 403f d73b 203e c296 9dbe
00000070: 2a2a 5a3f 0360 bb3e 63c8 923d 2cb7 74bf
00000080: ba9c 393e f1b1 dc3e 942e fc3e 7921 793f
00000090: fd33 22bf 9a62 ca3c 16bb d3bb cdcf 113f
000000a0: 3970 c9be 62e4 be3d be55 93bd a09d 27bf
000000b0: 71ab 2c3f 6c3d ecbe 6313 703f 332c 26bf
000000c0: 4344 fc3e 8aa9 ce3e a6fb b53e d2de 303e
000000d0: b550 223d 5db8 353f 4382 05bf dfa1 ba3e
000000e0: 5517 763d b15d 67bf 2fc9 3c3f 9b9a 123f
000000f0: 9034 adbe 2108 fb3d fd77 ee3e 0d75 7b3f

W_1d.weight f4 [1, 64]
0.110760204 0.08661429 -0.035055723 -0.08137448 -0.00019951626 0.08213918 0.009190868 -0.06744195
-0.028914338 -0.059287377 -0.09148137 -0.00033781162 -0.11589212 -0.055792823 0.040587462 -0.042854503
-0.038498808 -0.04083416 -0.03200256 -0.003637694 0.001057676 -0.10827756 -0.06362353 0.071764775
0.09363725 0.08058539 -0.0007008356 -0.07208351 -0.06409656 -0.0719788 -0.076514296 0.027206255
-0.08587767 0.041075874 -0.08339387 0.105213225 0.026643941 0.061114546 0.0014915888 -0.011297117
-0.059082363 -0.11210992 -0.07303344 -0.0036304907 -0.06410163 -0.017997988 -0.00042830114 0.06474319
-0.103881456 -0.0898538 -0.03812728 -0.1035277 -0.005078628 0.10966529 -0.044390164 -0.017728936
0.06413849 0.072784394 -0.09200581 -0.0039079264 -0.054205053 -0.04910636 -0.00034768236 -0.061089635
00000000: 3fd6 e23d d562 b13d 9796 0fbd aaa7 a6bd
00000010: 3d35 51b9 9638 a83d 4b95 163c 011f 8abd
00000020: c3dd ecbc 52d7 72bd 965a bbbd 4f1c b1b9
00000030: d958 edbd 0487 64bd 0a3f 263d 3488 2fbd
00000040: edb0 1dbd b841 27bd 1e15 03bd 6166 6ebb
00000050: b8a1 8a3a a0c0 ddbd 0e4d 82bd 69f9 923d
00000060: e3c4 bf3d f409 a53d 48b8 37ba 85a0 93bd
00000070: 0f45 83bd 9f69 93bd 87b3 9cbd a7df de3c
00000080: a2e0 afbd 2d3f 283d 68ca aabd 087a d73d
00000090: 6544 da3c 3f53 7a3d 6a81 c33a 8b17 39bc
000000a0: 5900 72bd e399 e5bd 8e92 95bd 87ed 6dbb
000000b0: b747 83bd 8470 93bc 9b8d e0b9 1498 843d
000000c0: cdbf d4bd 4505 b8bd 5a2b 1cbd 5506 d4bd
000000d0: 9f6a a6bb 3298 e03d 76d2 35bd 463c 91bc
000000e0: 0a5b 833d fc0f 953d 8b6d bcbd 100e 80bb
000000f0: 1e06 5ebd c023 49bd 2349 b6b9 2039 7abd
