model_weight/best_UK_model.pth (torch, 73780 bytes, 14 tensors)

lstm_cells.0.b_c f4 [64]
000000 1c f3 97 3c 1f 1a 60 3c ee 0b 16 bc f0 1a 5c bc
       0.01854854 0.013678103 -0.009158118 -0.013434157
000010 b3 ba a0 bc 44 91 0a bc 15 22 01 3c d0 dd ad bb
       -0.019620275 -0.008457486 0.007881661 -0.005305983
000020 b5 36 1c 3a 8e 7d f3 bb f0 46 be ba 99 54 e5 bc
       0.000595908 -0.007430739 -0.0014516991 -0.02799444
000030 e2 4c c9 bc 98 74 90 3c db 8c 2a bc 62 f1 88 bb
       -0.024572793 0.017633721 -0.010409559 -0.0041791657
000040 93 5c f6 bc f5 f2 70 bc bb 55 15 3c 32 58 41 3c
       -0.03007344 -0.014706363 0.009114678 0.011800813
000050 9f e4 14 3c a5 06 1d bc e6 c0 54 3c 75 c0 3e 3d
       0.009087711 -0.009584104 0.012985444 0.04657026
000060 19 7a 91 bc 7c 95 04 3c b2 7f fd bb 43 8c d1 bb
       -0.017758416 0.0080922805 -0.0077361697 -0.0063948943
000070 72 df ba bb ee dd d6 3b f8 c4 10 3b b3 7e 15 bc
       -0.0057029063 0.006557218 0.0022090059 -0.009124446
000080 49 44 31 bc b6 c0 83 3c 31 7b 29 bc d2 fa 0a 3c
       -0.010819503 0.016083103 -0.0103443125 0.008482652
000090 60 87 82 bc db 15 38 ba 0e ca 9a 39 ec 8d 90 3c
       -0.015933692 -0.00070222997 0.0002952371 0.017645799
0000a0 15 fc 0c bc 4a 35 07 3d b2 51 1c 3d fc 82 c3 3b
       -0.008605023 0.033009805 0.03816385 0.0059665423
0000b0 69 6f 32 3c e0 44 a6 bb c2 3e 30 bc fd 21 c8 bb
       0.01089082 -0.0050741285 -0.01075715 -0.0061075673
0000c0 8a e8 73 3c fe f7 3d 3c 08 a4 4f 3c fd c7 33 bd
       0.014886985 0.0115947705 0.012673385 -0.043891896
0000d0 d4 79 16 bd ca 15 1e bc d5 2e 81 3b 4a e8 47 bc
       -0.036737278 -0.00964875 0.0039423504 -0.012201378
0000e0 03 ca 84 3c cc b1 10 b9 2a 42 96 3c 0c 78 d0 bb
       0.016209608 -0.00013799145 0.018342096 -0.006361967
0000f0 28 76 08 3d cd 26 58 3c 07 97 0c bc b9 54 ad bb
       0.033315808 0.013192845 -0.00858093 -0.0052896407

lstm_cells.0.W_ic.weight f4 [64, 1]
000000 ce 22 47 3f e4 01 a9 3e 6e 27 28 bf 31 45 da be
       0.7778748 0.33009255 -0.65685165 -0.42630914
000010 a4 81 75 3f d0 f0 60 bf e7 a7 11 3f 0e 31 52 bf
       0.9590094 -0.8786745 0.56896824 -0.821061
000020 ed eb 0c bc b6 35 79 bf 60 93 0e 3f 45 91 6f be
       -0.008601171 -0.9734758 0.55693626 -0.2339526
000030 f4 13 fe be 6a 94 33 3e 19 c2 df be 44 31 11 3f
       -0.49624598 0.17537084 -0.43702772 0.567158
000040 fe 45 02 bf 17 ee b0 3e d3 70 31 3e 2e a4 79 3f
       -0.5088805 0.34556648 0.17328195 0.97516143
000050 aa f1 00 3f b5 8e 55 bf 8f 16 3d 3f 0b e4 27 3f
       0.5036875 -0.8342088 0.73862547 0.6558234
000060 02 3a 09 bf a4 d7 af 3d c8 a9 61 be ee bb 76 bf
       -0.5360414 0.08586052 -0.22037423 -0.9638051
000070 83 cb 61 bf bb 1c 4f 3f f5 e6 71 3f ea e0 cf 3c
       -0.8820116 0.80903214 0.9449304 0.025375802
000080 53 2c 74 bf fd cc 71 3e b2 72 51 bf b4 9b 6d be
       -0.95380133 0.23613353 -0.81815636 -0.23203927
000090 5a 78 30 be bc 3b 33 bf 3c 7e 67 3e 0c 07 54 3f
       -0.1723341 -0.7001302 0.22606748 0.8282325
0000a0 7f d0 6c bf de 4e 51 3e 16 03 2c 3f 87 0e 26 3e
       -0.9250564 0.20440242 0.6719221 0.16216479
0000b0 6a 48 19 3f 27 69 fc bd 27 5f ec be 32 df b2 3e
       0.5987612 -0.12324744 -0.46166345 0.3493591
0000c0 d1 c0 f7 3d 70 3c 7d be d4 b9 bb 3d 9b bc e2 be
       0.12097324 -0.24730086 0.09166303 -0.4428452
0000d0 6a 16 5d be 76 b6 06 be 02 96 9a be 68 63 72 bf
       -0.21590582 -0.13155541 -0.30192572 -0.9468293
0000e0 75 88 d4 bd 08 ef dc bd 61 8b 6d 3e 5b 3d 07 be
       -0.103775896 -0.10787779 0.231977 -0.13206999
0000f0 00 46 56 3f e9 85 14 3f a7 ae 33 3f 7b d5 2b be
       0.8370056 0.5801683 0.70188373 -0.16780655

lstm_cells.0.W_ic.bias f4 [64]
000000 a2 13 0a bf 27 e7 83 be 0d 63 21 3e 44 6e ec 3e
       -0.5393621 -0.25762293 0.15760441 0.46177876
000010 c8 4a 4b 3f 89 49 8c be 59 12 99 be 76 17 29 bf
       0.7941098 -0.27399853 -0.2989681 -0.66051424
000020 08 af 92 3e 4b b4 14 3d 32 97 e7 3e 4d 25 16 3f
       0.28649163 0.036304753 0.4523254 0.58650666
000030 0c 49 cb 3e d4 b8 2f bf 45 f3 40 3e 5c ed 16 3f
       0.39704168 -0.686414 0.188428 0.5895593
000040 87 af 01 3f 36 f7 41 3f e6 c5 96 3e 25 22 d5 be
       0.5065846 0.7576784 0.2944786 -0.41627613
000050 a6 ae 08 be 27 56 2e 3f 63 38 47 3e 35 18 4c bf
       -0.13347873 0.6810021 0.19455104 -0.79724437
000060 3e 26 57 3e a6 f2 62 bf db 9c 2c 3f 2a 04 7a be
       0.21010682 -0.886515 0.6742684 -0.24415651
000070 6a a4 80 3e 97 bd 16 be 04 80 a6 3e d6 b4 4a 3e
       0.25125438 -0.1472076 0.32519543 0.19795546
000080 17 54 1d be ee 96 84 3d f3 40 4a 3f 41 d2 2e bf
       -0.15364109 0.064741 0.79005355 -0.6828957
000090 0d 27 3c 3f 62 7c 32 bf 9b 1a 8b 3d fd 75 2a 3f
       0.73497087 -0.69721043 0.06792184 0.66586286
0000a0 6b b0 1d bf c1 5c 30 bf 36 99 d1 be ed 4a 0b 3f
       -0.6159732 -0.6889153 -0.40937203 0.544112
0000b0 75 bb 39 bf fb 3e ba 3e 26 14 66 3f 70 c7 c0 3e
       -0.7255166 0.36376175 0.89874494 0.3765216
0000c0 9b 51 0e bd 75 eb d5 be c3 76 63 bf 5c 67 6f 3f
       -0.034745794 -0.41781202 -0.8885309 0.9351709
0000d0 c2 d7 61 3f 12 ac c3 3e 03 be 07 bf 09 96 4a 3f
       0.88219845 0.38217217 -0.5302431 0.79135185
0000e0 a0 5b 4b bf 32 0b b8 3e ac dc e1 be 37 02 20 3f
       -0.79436684 0.3594604 -0.44113672 0.6250338
0000f0 d2 97 32 bf f0 0e 06 3e 3f a8 ee 3e ba 66 05 3f
       -0.6976291 0.13091636 0.46612737 0.52109873

lstm_cells.0.W_hc.weight f4 [64, 64]
000000 61 46 aa 3d 2d 1c 00 3d d2 69 19 bc 7b ce c1 3d
       0.08314205 0.03127687 -0.009363608 0.09463211
000010 cc e4 d7 3d 10 41 80 3d 2c 55 d2 bc 10 0b d5 3d
       0.105416864 0.0626241 -0.025675379 0.10402501
000020 60 57 b4 bd 8c b0 a4 bd 12 79 0e 3e 0e 03 bf bd
       -0.08805728 -0.08041486 0.13913372 -0.093267545
000030 d8 9b db bd 56 7c f1 ba 6f b4 ef bd a2 c4 f7 bd
       -0.10723084 -0.0018423896 -0.11704337 -0.120980516
000040 92 3e 81 bd 09 57 14 bd cd 2f b7 3d 03 8a 85 bd
       -0.063107625 -0.036215816 0.08944664 -0.06520464
000050 df 70 94 3d 37 9a df bc e6 de 85 3b 84 5f 06 bc
       0.07248091 -0.027295215 0.0040854095 -0.008201484
000060 ee 2f 66 bd 7c 6f a8 bd 61 17 99 3d b8 d9 aa 3c
       -0.056198053 -0.08224389 0.07475162 0.02085577
000070 a4 0d 87 bd a0 a3 b6 bd c9 7c f8 bc 12 ff 92 3d
       -0.065943986 -0.08917928 -0.03033294 0.07177557
000080 32 d9 b3 bd ee dd 20 bd 5e 5b c4 3d a6 f9 d7 3d
       -0.08781661 -0.03927415 0.095877394 0.105456635
000090 4a f5 81 3b 1e eb 6b bc 80 e2 06 3e 29 67 68 bd
       0.0039660083 -0.014399318 0.1317234 -0.056739006
0000a0 1f 18 5c 3d 22 fc 3b bd 6a 63 6a bd 87 b5 34 bd
       0.05373394 -0.04589475 -0.057223715 -0.04411843
0000b0 6a c8 e8 bd b9 7e c6 3d ce 81 b2 3d e4 d3 cb bd
       -0.11366351 0.09692139 0.087161645 -0.09952524
0000c0 fc f5 3f 3d df 55 86 bd 67 69 31 3c 0e 9f 94 3d
       0.04686545 -0.06559347 0.0108283525 0.072569
0000d0 1f 52 9b bd 6f 6a 92 3d f5 63 2f 3c e5 31 30 3c
       -0.07584023 0.07149207 0.010704984 0.010754083
0000e0 f1 38 a1 bc f9 18 2a bd 42 f7 a0 3d f3 b4 f2 3d
       -0.019680472 -0.041527722 0.07859661 0.118509196
0000f0 90 67 d0 bc 13 40 8b 3d 36 01 c2 bd 9a d0 14 3d
       -0.025440007 0.067993306 -0.09472887 0.03633175
000100 69 1f 87 bd 1b e8 12 be 07 50 bf bd 69 30 dc 3d
       -0.06597788 -0.14346354 -0.09341436 0.10751421
000110 d5 45 95 bd e7 69 d3 bd b9 54 f5 bd 46 b3 7b bd
       -0.0728871 -0.10322934 -0.1197905 -0.061450265
000120 e9 54 01 be bc 58 3a 3d 78 63 e5 3d 58 99 bd 3d
       -0.12630047 0.04549478 0.11200613 0.092577636
000130 f0 66 8d bb 0d cd 08 be 3b 69 9b 3d e2 50 01 be
       -0.0043152496 -0.1335947 0.075884305 -0.1262851
000140 b0 42 35 bb 80 65 9b 3d 36 22 15 3d 0f a4 b2 bd
       -0.0027658157 0.07587719 0.03640958 -0.08722698
000150 d0 42 a7 3d eb e6 d5 bd 77 2a 30 bd aa 0a 01 be
       0.0816704 -0.10444435 -0.043009248 -0.12601724
000160 24 34 42 bd e7 ef 5c bb bc 33 a6 bd 52 cd 6c 3d
       -0.047413006 -0.003371233 -0.08115336 0.057812996
000170 55 87 c7 3c cf 1a d8 bc 9d 7c e0 bd 83 53 b6 3d
       0.024356524 -0.02637997 -0.10961268 0.08902647
000180 21 08 8a 3d 76 17 f9 3d 52 6b c9 bd ee 74 88 bd
       0.06739832 0.12162678 -0.09834923 -0.066629276
000190 b1 01 ea 3d 1f 66 8b bd 38 95 93 bd fa ce 89 bd
       0.11426104 -0.068065874 -0.072061956 -0.06728931
0001a0 63 b1 7c 3d 07 19 e7 3d b4 2a 13 3d 9d f6 e1 bd
       0.061692607 0.112840705 0.035929397 -0.11033366
0001b0 78 2f d4 3d 96 75 ad bd 48 e7 b3 bd be a5 5e bd
       0.103606164 -0.08469693 -0.08784348 -0.054357283
0001c0 77 05 35 bc 3a a9 ec bd bc f8 86 bd 47 fb 0a 3e
       -0.011048666 -0.11555715 -0.06590411 0.13572417
0001d0 32 a5 f7 3c 82 eb b1 3d 94 6c 0f bc 89 9b 56 3c
       0.030230138 0.08687498 -0.008753914 0.013098606
0001e0 52 34 a9 3d d2 3c 5c bc f8 52 d4 bd 91 c8 97 3d
       0.082619324 -0.013442235 -0.103673875 0.07411302
0001f0 12 a4 be 3d f4 7b 5a bd 61 c5 a4 bd 14 4b d4 bd
       0.09308638 -0.053340867 -0.080454595 -0.103658825
000200 86 41 97 3c cb c8 cd bd a2 f9 96 bd 14 2d d9 bd
       0.018463861 -0.10048064 -0.073718324 -0.10604301
000210 1e 6e cc bc 63 8f be bd 98 c4 00 3d 5a 63 b4 bb
       -0.024954852 -0.093046926 0.031437486 -0.0055050077
000220 1e 19 f4 3c c0 32 06 bb f5 70 92 bc 7b 49 44 3d
       0.029797133 -0.0020477027 -0.017876128 0.04792164
000230 13 f7 b6 3c 6b db 3d 3b 21 82 b2 3d a7 6d dd bd
       0.022334611 0.0028969895 0.08716226 -0.1081193
000240 32 db a1 3c c8 6d 3c 3c 88 60 1e bc c0 30 41 3c
       0.01975784 0.011500783 -0.0096665695 0.011791408
000250 b7 55 93 bd f0 04 c5 bd 80 4e 79 bd 0c c0 55 bb
       -0.07194083 -0.096200824 -0.06086588 -0.003261569
000260 b3 bd bb bd 36 08 eb bc 92 7d 3f bd 90 e8 7d 3d
       -0.09167042 -0.028690439 -0.046750613 0.061989367
000270 6e 7d 20 bd ba 1a d5 bc 35 18 88 bd fe 46 42 bd
       -0.03918212 -0.02601372 -0.06645242 -0.047430985
000280 1d 75 72 3c 5c 6a 20 3d 4f 2b 44 bd 2b 79 ee 3c
       0.01479843 0.039163932 -0.047892865 0.029110512
000290 4f 92 59 3d 16 8a 96 bc 10 cc d9 3b 9f 09 d4 3d
       0.053118046 -0.018376391 0.0066466406 0.103533976
0002a0 f3 5c e8 3d 86 49 d2 3d ad e8 e2 bd ac b1 99 bc
       0.11345854 0.1026793 -0.11079536 -0.018761478
0002b0 e7 8f 29 3d 1b fa b0 3d 36 d2 bc bc 37 49 e8 3d
       0.041397 0.08641454 -0.023049455 0.113420896
0002c0 6f 6d c2 bc 09 d3 ab bd 38 87 84 3d 14 f5 90 bc
       -0.023733823 -0.08389861 0.064711034 -0.017694987
0002d0 23 4b cc 3b 85 08 1c bd 71 76 80 ba 2b 93 c0 3d
       0.006234543 -0.038094062 -0.0009800923 0.0940307
0002e0 ab 97 c6 bd 85 6e 32 bd 82 e9 d6 bd c9 8f a7 3d
       -0.09696897 -0.04356243 -0.10493757 0.08181722
0002f0 4e 8e d8 bd 1f d6 ae bd 05 9f bd 3d b9 e3 cf bc
       -0.105740175 -0.08536934 0.09258846 -0.025377141
000300 0c 8a 17 bd 5a df cc 3d 69 5a f0 3c f0 76 c5 bc
       -0.036996886 0.100035384 0.029339986 -0.024104565
000310 39 2c 17 3d 61 3a 0a 3d d0 d3 1b bc 54 41 7e bd
       0.03690741 0.03374708 -0.009510949 -0.06207402
000320 3c 76 d3 bd f0 48 2a 3c f0 05 32 3d a3 d0 12 bd
       -0.10325286 0.010393366 0.043462694 -0.035843503
000330 48 0f 94 bc a6 a4 c0 3a df 12 85 3b e8 bd 67 3d
       -0.018073693 0.0014697507 0.0040610875 0.056577593
000340 65 bd b2 3d a6 48 2e 3c 46 ba b9 3d 28 f0 bc bd
       0.087275304 0.010637438 0.09068732 -0.09225494
000350 b7 84 71 3d ae 25 c8 3d b6 5d 90 bb 59 81 fd 3d
       0.058964457 0.09772812 -0.0044057025 0.12378187
000360 ec bc 54 3c 57 40 d0 bd 7e 08 84 3d 50 56 35 bd
       0.012984496 -0.10168522 0.06446932 -0.044271767
000370 33 21 87 3d 94 0e 09 3e 50 1c d0 3d cd f4 10 bd
       0.06598129 0.13384467 0.1016165 -0.03538971
000380 0d b6 2c 3d 23 ed 24 3b eb c6 71 bd 93 26 f3 bd
       0.042165805 0.0025165759 -0.059027594 -0.11872592
000390 4d 28 ca 3d 15 04 b3 bb c8 a3 eb bd f5 e4 4e bd
       0.09870968 -0.005463133 -0.11505848 -0.05051132
0003a0 ce 33 a8 bd 4b 29 ca 3d ee 1b f7 bc 83 a4 c0 3d
       -0.08213006 0.09871157 -0.030164685 0.09406378
0003b0 15 ce cb 3d 39 77 e6 bd af 44 23 3b a0 7c be bb
       0.099514164 -0.11253209 0.0024912765 -0.0058131963
0003c0 32 74 e7 3c f3 c6 30 bc 38 e2 24 bd f4 b2 e6 bd
       0.028253648 -0.010789621 -0.0402548 -0.11264601
0003d0 98 79 68 bd d8 8a 19 3d d0 04 61 bd ef f3 07 be
       -0.056756586 0.037485927 -0.05493623 -0.13276647
0003e0 0f 4c 3d bc 8d 99 82 bd 6e f4 da 3d e3 35 98 3d
       -0.011553778 -0.06376944 0.106911525 0.07432153
0003f0 f3 35 8f bc 9c fb 88 3d ae 73 b2 bd a5 b3 12 bd
       -0.01748178 0.06688616 -0.087134704 -0.035815854

lstm_cells.0.W_hc.bias f4 [64]
000000 32 af 20 bd 50 76 07 3e f0 e3 65 bd b8 2d f9 bd
       -0.03922958 0.13228726 -0.05612558 -0.12166923
000010 05 52 ed bc 6e 2e 44 bd 43 ed 1c 3c 89 69 cb bd
       -0.028969774 -0.04789584 0.009578052 -0.099322386
000020 7b ad 94 bd 42 33 cd bd c1 8c f6 bb 79 b2 ea bd
       -0.07259651 -0.10019542 -0.0075241034 -0.11459822
000030 d7 33 f2 3c e1 e1 aa bd 4c bf fd bd 26 d9 b0 3d
       0.029565735 -0.08343864 -0.123900026 0.08635168
000040 21 23 a3 3d 16 e8 59 bd 07 9d fe 3d fb b1 c0 bd
       0.07965685 -0.05319985 0.12432294 -0.09408947
000050 36 4e cd bc 41 a6 cd 3d b3 b7 aa 3d a1 ca 04 3e
       -0.025061708 0.10041476 0.08335819 0.12967922
000060 49 88 7b bd ce fd 90 bd 15 38 6b 3d b7 82 38 3c
       -0.06140927 -0.070796594 0.05742653 0.011261634
000070 0b 2e 8d bd 94 e3 2b bd 65 12 8d bd a0 e6 1e bd
       -0.068935476 -0.041965082 -0.06888274 -0.03879416
000080 fb 06 36 bd a5 f3 dc bd c7 d2 1f 3d ae cc 25 bc
       -0.04444025 -0.10788659 0.039019372 -0.0101196
000090 6f 6d e5 bd d7 7d 04 bc 41 d4 a2 bd 1a e6 66 bd
       -0.112025134 -0.008086643 -0.079506405 -0.056371786
0000a0 81 bc 7a 3d b1 7e 55 bd 44 10 87 bd 08 c4 66 3d
       0.061214928 -0.052122775 -0.06594899 0.056339294
0000b0 8b e9 64 3d c9 aa 87 3d 36 d5 52 bc d3 1b 10 3d
       0.055886786 0.066243716 -0.012868216 0.035182785
0000c0 61 fc b0 3c e5 e9 28 3d db d5 51 3d b7 3e f8 3c
       0.021604719 0.041238684 0.05122934 0.030303342
0000d0 f4 ce 05 3d df f7 37 bd 04 5a 4a 3d ca 2d 03 be
       0.03266807 -0.044914123 0.04940225 -0.12810436
0000e0 ac 37 84 bd 9c fb f1 bd 10 5a b2 bc e5 b2 02 bd
       -0.06455931 -0.11815569 -0.02177146 -0.03190889
0000f0 87 d9 bd 3d 75 9c e2 bb b9 bb 83 3c 3f 37 a2 3d
       0.09270006 -0.006915624 0.016080724 0.079206936

lstm_cells.0.W_in.weight f4 [64, 64]
000000 90 bd e0 bd d8 e4 f0 3d c0 0a 5f bd 10 e8 79 3d
       -0.10973656 0.117623985 -0.05445361 0.061012328
000010 80 e0 b1 3c 24 9d a2 bd b0 9a 3b 3c 7c ef 2c bd
       0.021713495 -0.079401284 0.011450455 -0.042220578
000020 5e b6 96 3d 10 61 fa 3d c8 6b a9 3c 50 04 6f bc
       0.073590025 0.122255445 0.020681277 -0.0145884305
000030 30 42 3f 3c 4c 8d a2 bd 58 2a 05 bd 98 1a 36 bd
       0.011673495 -0.079371065 -0.032511085 -0.044458956
000040 1c 6f a2 bd a4 29 ca 3d 28 0b e3 bc b0 1f 04 3d
       -0.07931349 0.098712236 -0.02771528 0.032256782
000050 80 2b 96 ba 80 04 4e bc 9c d5 d8 bd 10 b4 f7 bc
       -0.0011457056 -0.012574315 -0.10587618 -0.030237228
000060 da ab dc bd c0 95 21 3c f8 6e cb bd 04 90 f6 bd
       -0.107749656 0.009862363 -0.09933275 -0.120391876
000070 0e ef cb bd 16 54 d3 bd e8 1a a9 bd a0 5d ab 3c
       -0.099577054 -0.103187725 -0.08257085 0.020918667
000080 22 e3 bf 3d 7c 27 e6 3d aa 1e bc 3d 40 d2 c9 bc
       0.09369494 0.11238 0.09185536 -0.024636388
000090 dc 51 2c bd 30 cf 20 3d 70 24 09 3d 60 0b 4d 3c
       -0.042070255 0.03926009 0.033482015 0.012514919
0000a0 f4 72 a2 3d c0 9e ca 3d 10 c4 f8 3d 80 68 29 3b
       0.07932082 0.098935604 0.12146771 0.002584964
0000b0 2a 97 91 bd 4c 37 eb 3d 00 0f ca 3b 24 a9 3d 3d
       -0.071089104 0.114851564 0.006166339 0.046303883
0000c0 f0 0c fb bc 0c 33 b2 3d 8c f0 e3 3d 00 47 8f ba
       -0.030645818 0.08701143 0.11129865 -0.0010931194
0000d0 94 29 ea 3d b8 2f 7c bd b4 2f b8 bd 04 69 8b 3d
       0.11433712 -0.061568946 -0.08993474 0.068071395
0000e0 3c 4f 34 3d 10 7a 1b bc 12 26 a1 bd 10 e4 be 3c
       0.044020876 -0.009489551 -0.078685895 0.023302108
0000f0 00 29 f1 3d 70 29 7d 3c 60 44 88 bb 8c 21 65 3d
       0.11775398 0.015451774 -0.0041585416 0.055940196
000100 a4 de 55 3d 78 d3 c3 bd 08 9b 78 bd 00 6f d6 3b
       0.05221428 -0.09561819 -0.060694724 0.006543994
000110 38 50 7e bd f4 7c 7d 3d 1e 50 a0 bd b4 7c ec 3d
       -0.06208822 0.061886743 -0.07827781 0.11547223
000120 3e f3 c2 bd 78 18 dd bc ca 87 c2 bd a0 6b 64 3d
       -0.09519051 -0.026989207 -0.09498556 0.0557667
000130 38 b8 83 bd c8 81 16 3d 28 de 1b 3d 40 6e 14 3d
       -0.06431621 0.036744863 0.03805366 0.036237955
000140 64 84 2a 3d e0 58 42 3c 40 03 7c bd 08 8f d0 bc
       0.041630164 0.01186201 -0.061526537 -0.025458828
000150 a0 00 d9 bb 5c 9e 1f bd 6a 8f a4 bd 34 d0 e6 bd
       -0.006622389 -0.038969383 -0.080351666 -0.1127018
000160 6a da db bd b4 6f 07 3d 0c a0 19 bd 34 d9 c5 bd
       -0.107350186 0.033065513 -0.03750615 -0.09660569
000170 68 9d bb bd c0 ed 96 bb 58 90 af bc 66 dd 9e bd
       -0.09160882 -0.0046059787 -0.021431133 -0.07757072
000180 c0 c0 8a 3d b0 95 33 3d fc b3 3e 3d 76 62 d6 bd
       0.067750454 0.043843925 0.046558365 -0.10467999
000190 ce c2 8d 3d 2c 52 7a bd 28 86 b9 bd ac 75 ef bd
       0.06921922 -0.06111352 -0.090587914 -0.11692366
0001a0 1c 4f 39 bd 32 ff f5 bd e0 74 00 bd 9a 3e a9 3d
       -0.04524146 -0.12011565 -0.03136146 0.082638934
0001b0 00 85 61 3c b0 d8 07 3d fa 77 ea 3d 9a a8 ac bd
       0.01376462 0.033165634 0.11448665 -0.08430596
0001c0 10 c9 40 3d 80 0a 4d bd ca fd aa 3d b8 d3 84 bd
       0.04706675 -0.05005884 0.08349188 -0.06485695
0001d0 f0 d3 b0 3d 4c b1 bf bd 4e ec f3 bd b0 94 4c bc
       0.08634174 -0.093599886 -0.11910306 -0.012486622
0001e0 b8 68 87 3d f0 53 b8 bc dc 70 fe 3d ec 48 a0 bd
       0.066117704 -0.022500962 0.1242387 -0.07826409
0001f0 16 ff 9d bd 30 aa c7 bc 3e e5 d8 bd 20 ae aa 3d
       -0.077146694 -0.024373144 -0.105905995 0.08333993
000200 cc aa b7 3d ac 7c 91 bd e0 6c f3 3b aa a7 92 bd
       0.08968124 -0.071038574 0.0074287504 -0.07160886
000210 00 9b 31 ba fc 30 ce 3d f2 3b bd 3d 24 8e 2a bd
       -0.0006775111 0.10067937 0.09239949 -0.041639462
000220 60 02 a1 bd 30 c2 bf 3c 54 9f 3a bd 04 85 4c 3d
       -0.07861781 0.023408026 -0.045562103 0.04993154
000230 de 3e bf 3d 88 13 26 bd 78 f6 e5 bc a6 5c e9 bd
       0.09338163 -0.04054597 -0.028071627 -0.113946244
000240 84 1f 49 3d 40 50 cf 3c 90 8c a3 bd 64 ce ad bd
       0.04910232 0.02530682 -0.079857945 -0.084866315
000250 d8 6e b7 bd 18 97 99 3c f8 59 ea 3d 7c d7 18 bd
       -0.08956689 0.018748805 0.114429414 -0.037314877
000260 92 37 a1 3d 52 72 f4 bd 0e 01 f3 bd 64 f5 c8 3d
       0.07871927 -0.11935867 -0.118654355 0.098124295
000270 86 b2 f5 3d 02 69 d0 bd f0 1c 9c 3d f4 dd 1c 3d
       0.11996941 -0.10176279 0.07622707 0.03829761
000280 68 ce 5f bd a0 74 4a 3d 5c 67 13 3d 0c 0e 5d bd
       -0.054640204 0.04942763 0.035987243 -0.053968474
000290 58 02 99 3c 9a 51 ae 3d c0 e0 ba 3b bc a7 66 3d
       0.018677875 0.08511658 0.005703062 0.056312308
0002a0 00 55 2e 3d 30 f3 2f bc c0 f5 78 bd 28 db a8 3c
       0.04256153 -0.010739133 -0.06078124 0.020612314
0002b0 2c ca f2 bd 0c 2f ad 3d 94 8f ae bd e8 78 d2 bc
       -0.118549675 0.08456239 -0.08523479 -0.025692418
0002c0 f0 4b ee bc ae 14 c9 bd dc ed 34 bd 48 65 d5 3d
       -0.029088944 -0.098183975 -0.044172153 0.104197085
0002d0 88 c3 38 3d b4 76 b2 bd 56 60 8b bd 6c 8c b1 3d
       0.045108348 -0.08714047 -0.06805484 0.086693615
0002e0 36 64 83 bd 20 e6 97 bb 50 52 29 bd bc e0 54 3d
       -0.06415598 -0.0046355873 -0.041338265 0.051972136
0002f0 28 ed a2 bd 88 7e 52 bd 00 ca 59 3b 20 eb a4 3d
       -0.0795539 -0.0513902 0.0033231974 0.08052659
000300 40 8b 65 3c 40 11 2d 3d d8 4f e2 bc c0 bb 8d 3c
       0.014010251 0.04225278 -0.027625963 0.01730144
000310 5c af ad 3d 0c be 72 bd 04 5f a3 3d 84 9a 22 3d
       0.08480713 -0.059263274 0.07977107 0.03969814
000320 5c e2 16 3d fa 5e c7 bd f8 82 90 3d c8 4c e4 bc
       0.036836967 -0.09734912 0.0705623 -0.027868643
000330 ec 61 cc bd d0 45 ab 3c 52 26 b8 3d d8 23 d1 bd
       -0.099796146 0.020907313 0.08991684 -0.10211915
000340 04 ec eb bd 96 31 c2 3d 4e d8 ba 3d a0 ce c4 3b
       -0.11519626 0.09482114 0.09123288 0.006006077
000350 20 e4 fd bc 3e 6c b6 bd 68 33 f3 3d 3e 64 ef bd
       -0.030992568 -0.08907364 0.11875039 -0.116890416
000360 84 58 a5 bd e0 5a c4 3d f4 a7 24 bd f4 53 c2 3d
       -0.08073524 0.095876455 -0.040199235 0.09488669
000370 f6 43 cf 3d 68 7e 63 bd 02 3c 99 3d 36 54 db bd
       0.101203844 -0.055540472 0.07482149 -0.10709421
000380 6c 05 d2 bd f8 c3 70 3d b0 e0 9d 3c 90 77 3f bc
       -0.102549404 0.05878064 0.019272178 -0.011686221
000390 d6 04 fa 3d d8 97 f8 3d fc 94 53 3d b0 37 4b bc
       0.12207954 0.12138337 0.051655754 -0.012403414
0003a0 b4 58 40 bd 1e 50 84 bd 1e 53 82 3d e0 9c de bd
       -0.046959594 -0.06460594 0.063635096 -0.10869765
0003b0 58 b5 a0 3c 68 5d 81 3d 60 2c c1 3c 20 2d 5a bd
       0.019617721 0.06316644 0.02358073 -0.05326569
0003c0 38 8b d5 bc c8 20 56 3d 62 b8 bf bd 50 0d 4e bc
       -0.026067361 0.052277356 -0.0936134 -0.012576416
0003d0 20 bb 2a 3d e0 4b 87 bc a0 8a 80 bb fc e9 1e 3d
       0.041682363 -0.016515672 -0.0039227754 0.038797364
0003e0 4c 11 a7 3d 74 53 97 3d e0 11 65 3d ba ad 94 3d
       0.08157596 0.07388964 0.05592525 0.07259698
0003f0 18 6e 97 3d 80 0b b5 3d e0 33 6c 3c de fe bd bd
       0.073940456 0.08840084 0.014416665 -0.09277128

lstm_cells.0.W_in.bias f4 [64]
000000 38 37 d8 3c ee 08 c9 3d a6 4e 91 3d 68 b5 cc bd
       0.026393518 0.09816156 0.07095079 -0.09995538
000010 40 b0 cd bb d0 29 85 3d b0 92 e9 3c 40 05 e6 bd
       -0.006277114 0.06502116 0.028512329 -0.1123147
000020 c8 c4 01 3d 78 03 b3 bc 38 ed 25 bd 00 9e 76 3a
       0.031681806 -0.02185224 -0.040509433 0.0009407699
000030 ba 28 f1 bd 58 00 d8 3c 00 60 a5 ba 1c dc 25 bd
       -0.11775346 0.026367351 -0.0012617111 -0.040493116
000040 bc e6 04 3d 24 4b 59 bd 18 ba d2 3d 02 88 bf bd
       0.032446608 -0.053050175 0.10289401 -0.09352113
000050 d8 78 85 3d 9a 3e c5 bd 08 79 c5 bc 16 d0 c8 bd
       0.0651719 -0.09631081 -0.024105564 -0.09805314
000060 1e 1c df 3d 70 93 bc 3d 0c a1 e8 bd 9e 6c e6 bd
       0.10894035 0.09207809 -0.11358842 -0.11251186
000070 6e 45 d7 bd 42 3d b6 bd f8 fa f5 3c 08 a1 15 3d
       -0.105112895 -0.08898403 0.030026898 0.036530524
000080 b8 2b cb bd 84 cf 00 3d 20 a5 4e bc 8c 5b 64 3d
       -0.09920448 0.031447902 -0.012612611 0.05575137
000090 64 1b ec bd 40 28 51 3d 40 3f 76 bc 90 3e e7 3d
       -0.11528662 0.051063776 -0.015029728 0.1129123
0000a0 28 42 02 bd b0 c9 77 3d 2c 3c 7a 3d 1c 1a a3 3d
       -0.031801373 0.06049508 0.06109254 0.07963964
0000b0 80 be cf bd 00 4d f4 3a 60 f2 1b 3d 10 e5 c5 bd
       -0.10143757 0.001863867 0.038072944 -0.09662831
0000c0 90 2a 11 3c 70 07 b9 3d a0 2c a3 3d de 79 c6 3d
       0.008860245 0.09034622 0.07967496 0.09691213
0000d0 e2 d6 b5 bd 42 06 ef bd 40 43 11 3b 38 8c b6 bc
       -0.08878876 -0.116711155 0.0022165328 -0.022283658
0000e0 52 8b c1 3d 58 58 f8 3d 86 5c bc 3d ae be 9c 3d
       0.09450401 0.12126225 0.09197335 0.07653557
0000f0 d8 80 f6 3d 7c 30 b1 bd c8 c3 20 3d b8 ac 38 bd
       0.12036294 -0.08651826 0.03924921 -0.045086592

W_h.weight f4 [64, 64]
000000 00 b4 c8 bd 39 29 04 3d 06 c5 3d 3d 15 b6 68 bd
       -0.09799957 0.032265875 0.046330474 -0.056814272
000010 61 f8 2b bd 44 cf 64 3c 23 15 d1 bd f1 f3 f0 bd
       -0.04198492 0.013965432 -0.1020911 -0.11765278
000020 bd e2 ff 3d f2 56 fe bd 78 00 37 3d 1b d8 b6 bd
       0.12494419 -0.12418927 0.04467818 -0.089279376
000030 12 64 5b 3c 98 01 41 3d 8d 3b a9 3d f8 34 cb 3d
       0.013390558 0.04712066 0.082633115 0.09922212
000040 b7 d4 84 bd 9f 96 da bc 86 05 b0 3d 00 35 aa 3c
       -0.06485885 -0.02668315 0.085948035 0.020777225
000050 f3 b5 cb 3d b6 fa 76 bd 15 80 0e 3d 39 c4 96 3d
       0.099468134 -0.06029769 0.034790117 0.07361645
000060 da 3c 1f bc ef 0e f8 bc 72 b5 e8 bd 8a a9 ec bd
       -0.009719098 -0.030280558 -0.11362733 -0.115557745
000070 3c 98 0e bd 84 d3 67 3d bc 19 9b 3b e5 d0 b0 3c
       -0.03481315 0.0565982 0.0047332924 0.021583984
000080 8e 60 4f 3d a1 77 e6 bb 05 8b aa bd 0d 82 de bd
       0.05062919 -0.007033304 -0.08327297 -0.10864649
000090 06 a2 9a 3c da 6b 93 3d 20 65 94 bd 44 52 8b bd
       0.018876087 0.071983054 -0.072458506 -0.068028
0000a0 7c 0c 8d bd 46 8c 8b 3d d4 75 5a 3d bf 3d 22 3d
       -0.06887147 0.068138644 0.053335026 0.039609667
0000b0 f6 ab 7e 3d 77 40 9a 3d 1d 55 1c 3d 91 87 59 3d
       0.062175713 0.07531827 0.038167108 0.0531078
0000c0 c8 b9 99 bd c5 46 b4 3c b4 05 f8 bd 2c e9 d9 bd
       -0.07506138 0.022006402 -0.12110463 -0.10640177
0000d0 5a 62 a5 bd 60 58 be 3b c9 31 31 bd 49 1b ae 3d
       -0.080754 0.005808875 -0.04326037 0.08501298
0000e0 9d e0 a8 3d 0c f1 8f 3d ff a7 c1 bb e0 b4 b1 bd
       0.082459666 0.07028398 -0.0059099193 -0.08677077
0000f0 6e b4 cf bd 5f 50 a2 bd 40 6b c2 bc 97 d5 26 bd
       -0.10141836 -0.07925486 -0.023732781 -0.04073104
000100 cc 12 ea 3c 7a 9e 83 bc c8 e0 97 bc 50 c3 d8 bd
       0.028573416 -0.016066778 -0.018539801 -0.10584128
000110 e1 d6 ae bd 99 4b b2 bd 8e 0b 86 bc a3 c7 88 bc
       -0.08537079 -0.08705825 -0.016362932 -0.016696757
000120 01 0f d2 bd c7 b3 5e bd d4 ce 06 bd 58 fe da bd
       -0.10256768 -0.054370668 -0.03291209 -0.106930435
000130 23 2a 19 bc c8 44 5b bd 07 81 97 bd d0 a0 cd 3d
       -0.009348425 -0.05353239 -0.07397657 0.10040438
000140 a5 87 47 3c 08 03 b7 bd c7 b3 e3 3d 1f aa d3 3d
       0.012178336 -0.08936125 0.11118274 0.103351824
000150 33 87 93 bd b6 a2 cb 3d ce 86 32 3d 55 a6 bb 3d
       -0.072035216 0.09943144 0.04358559 0.09162585
000160 86 fc 4c bd d2 f4 0b be 6e 3f 36 bc af 4b 8b bd
       -0.050045513 -0.1366761 -0.011123521 -0.06801545
000170 f5 42 b2 3d d0 03 a9 bd 85 6d 67 bc c9 34 7f 3c
       0.08704177 -0.0825268 -0.014125233 0.01557655
000180 9d ff 90 bd fa b7 ff bd a6 90 ad bd 16 5d 10 be
       -0.07080004 -0.124862626 -0.08474855 -0.1409801
000190 83 5a cb bd 8d a1 75 3b 5b ab 0d be 83 b4 e4 bd
       -0.09929373 0.0037480325 -0.13834898 -0.111672424
0001a0 49 b3 37 bd 51 16 04 3d 25 1c ba 3c 08 b4 f8 bc
       -0.044848714 0.032247845 0.022718498 -0.030359283
0001b0 22 1c e9 bc 0c 34 a0 3c e4 dc 78 3d 52 4d 58 3d
       -0.028455798 0.019556068 0.060757533 0.052808113
0001c0 da 93 b1 bd c4 ff c3 bd aa 6b e7 bc 6b 01 98 bd
       -0.086707786 -0.09570268 -0.02824958 -0.074221455
0001d0 cd 25 e8 3d f4 fc bb 3d 6c 01 0a 3d 10 37 f9 3d
       0.11335335 0.09179106 0.033692762 0.121687055
0001e0 bd 2b 81 3d cd e9 d2 bd 37 ec 54 bd ad 81 db bc
       0.063071705 -0.102985 -0.051983085 -0.026795233
0001f0 eb 91 f4 3c 45 04 49 bd 79 6a d6 3d 31 4c df 3d
       0.029854735 -0.049076337 0.10469527 0.10903204
000200 c4 4c c3 3d bc 7c 5e bd ef e4 a1 bd de 4c 42 bd
       0.09536126 -0.054318175 -0.07904994 -0.047436588
000210 58 25 4b bd 48 b1 5a 3d 8f d6 94 3d 48 c1 8b bc
       -0.04959616 0.053391725 0.07267486 -0.017059937
000220 c8 09 97 bd f1 d0 2b bd 51 af b4 3d b9 ba 46 bd
       -0.073749125 -0.04194731 0.088225015 -0.048517916
000230 90 0a a8 3c b5 aa 5d bd ec c9 2e 3d 91 68 ee bc
       0.02051285 -0.054117877 0.042673036 -0.029102596
000240 28 b5 81 3d d5 ed ac bd d4 2b 5f ba 47 e7 f2 3c
       0.06333381 -0.084438 -0.0008513306 0.029651297
000250 54 af f7 3d 3b 15 be 3d b1 da 22 bd a7 54 9b bd
       0.12093988 0.09281393 -0.03975934 -0.075845055
000260 ce 0f a2 3d cc ca 9f 3d 3e 36 39 bd ce 87 27 bc
       0.07913171 0.07802352 -0.045217745 -0.010225249
000270 5b aa 87 bd 43 a6 02 3c 14 75 ad 3d fa b6 ab 3d
       -0.066242896 0.00797421 0.084695965 0.083845094
000280 6d f2 c8 3c 1c 7f aa 3c 1f c0 1a bd e0 2f db bd
       0.02452966 0.020812564 -0.037780877 -0.10702491
000290 03 89 c2 ba 9d 42 43 bd 1f 12 03 3e a6 be a4 bd
       -0.0014841858 -0.04767095 0.12799881 -0.08044176
0002a0 3d f1 ba bd 7a 36 4b bc 93 29 a7 bd 77 cc 85 3d
       -0.09128044 -0.012403125 -0.081622265 0.06533139
0002b0 c0 2e 1f bc 64 76 8e bd ac 18 83 3c bc 94 4c 3d
       -0.009715736 -0.06956175 0.016002975 0.04994653
0002c0 fb d8 26 3d 39 eb f1 bd d1 1b 1e 3c 40 1a f2 bc
       0.040734272 -0.11812443 0.009650187 -0.029553533
0002d0 6c 23 1f bd bc 90 74 bd 5b c5 52 3c 04 db 01 be
       -0.03885214 -0.059708342 0.012864436 -0.12681204
0002e0 ef 26 f6 bd 14 bd 1d 3a c4 00 59 3d 41 6f e1 3d
       -0.12019145 0.00060172495 0.052979246 0.11007548
0002f0 57 8b da 3c 24 a2 ac 3d b8 f5 c4 3d 89 4a a6 bd
       0.02667777 0.08429363 0.0961718 -0.08119685
000300 8d 4b 63 3d 16 31 0c 3e d8 54 f3 3d 9d 45 8a 3d
       0.055491973 0.136906 0.11881417 0.06751559
000310 7e 09 0d 3c df fe 3c bd 3d 42 98 3d 71 f1 b8 bc
       0.00860822 -0.0461415 0.07434509 -0.022576066
000320 ee 45 2c bd f6 b2 83 3d d0 1d 73 bb 65 69 dc 3d
       -0.042058878 0.064306185 -0.0037096627 0.1076229
000330 ef ae 94 bc 2f 05 c4 3c 7a fd d2 bc 1f f4 bd bd
       -0.018149821 0.023928253 -0.025755633 -0.09275078
000340 fd fb f2 bb 0f 38 f6 bd de a7 93 bd 9d ea fa bd
       -0.0074152933 -0.12022411 -0.072097525 -0.1225178
000350 42 20 49 bd 1f 57 66 3c 76 d2 a5 bc 8b ef d2 bd
       -0.04910303 0.014058857 -0.020241957 -0.102995954
000360 69 f7 eb bd 33 e4 18 3d 0a 97 89 3d ee 1a 62 bd
       -0.11521799 0.037327003 0.067182615 -0.055201463
000370 e1 08 72 bc 1d 03 0c 3d 7f 20 34 bc a5 cd c0 3d
       -0.014772625 0.034182657 -0.010994076 0.094142236
000380 e5 bf a6 bd 6c 2c 84 bd d4 20 df bd 91 63 83 bd
       -0.0814207 -0.06453785 -0.10894933 -0.06415475
000390 30 7d bd bb 20 11 d4 bd 55 2a 0a 3c 29 6f e0 3d
       -0.005782746 -0.10354829 0.008432944 0.10958702
0003a0 9e 48 34 bd 85 e9 a3 3c 6a 8d 44 3d 80 0b eb 3c
       -0.044014566 0.020008812 0.047986425 0.028692007
0003b0 3a 2b fb 3d 06 b5 8f 3d d3 c3 b0 bd 56 c0 80 3c
       0.12264104 0.07016949 -0.086311005 0.015716713
0003c0 e7 8d 96 3d 28 0c a2 bd 76 91 17 bd 37 0a e1 3d
       0.073512845 -0.07912475 -0.037003957 0.109882765
0003d0 24 47 f8 bd 79 87 9d bd 6b 26 08 3c 5d 8c c9 3d
       -0.12122944 -0.07691855 0.008309941 0.09841225
0003e0 05 66 a0 bd 6b 8d b6 bd 84 41 ff bd fd 82 e5 3c
       -0.07831959 -0.08913692 -0.12463668 0.028016562
0003f0 ab 15 4e 3d e0 f7 31 3c 57 ff 06 3d 57 1a 2e bc
       0.050313633 0.010862321 0.032958355 -0.010626397

W_h.bias f4 [64]
000000 ab 72 f8 bc 2e 9e b6 bd 82 16 8d bd 1b 6f 8e 3d
       -0.030328115 -0.08916889 -0.06889059 0.069547854
000010 e8 df 5e 3d e9 7c d8 3d ed 01 0f bd 61 35 88 3d
       0.054412752 0.105707 -0.034913946 0.06650806
000020 60 15 c8 bd 6c e3 89 3d 76 4f 8b 3c 31 c3 b3 bd
       -0.09769702 0.067328304 0.017005663 -0.08777464
000030 0f bb 4c 3d 27 da fd bc a0 f1 fa bd 4d 25 74 bd
       0.04998308 -0.030987812 -0.122531176 -0.059605885
000040 09 b7 bc b9 41 e8 ba ba 95 43 f1 3d 20 82 cd bd
       -0.00035994526 -0.0014259891 0.117804684 -0.10034585
000050 c0 8c fe 3d b4 9e 4d 3d 61 ce cf 3d e8 33 d8 bd
       0.1242919 0.05020018 0.101467855 -0.10556775
000060 a8 28 cf 3c 62 b6 33 bc 43 f4 86 3d 8f 3c a5 bd
       0.025287941 -0.010968776 0.06589558 -0.08068191
000070 1f 60 4e bd 00 36 ce 3d 27 f5 73 bd 6d b2 ba bd
       -0.050384637 0.100688934 -0.059559967 -0.09116063
000080 6c 42 d3 3d 4e 4d df 3c f8 d7 2e 3d cb d7 b6 bd
       0.10315403 0.027258541 0.042686433 -0.08927878
000090 4a f6 01 3e c1 88 cb bd ba 02 20 bb 6e b7 6a 3d
       0.12691608 -0.09938193 -0.0024415688 0.05730384
0000a0 18 52 62 3d 45 6d 99 3c 6d b5 ad 3d c7 04 78 3d
       0.055254072 0.018728862 0.0848187 0.06055143
0000b0 ac 3f 80 bc f1 0f d9 bd 74 86 cf 3d ad 25 d9 3d
       -0.015655361 -0.10598744 0.10133067 0.10602889
0000c0 ba c0 91 bd c9 6e f5 bd b6 e2 d2 bd 64 95 77 bd
       -0.07116838 -0.11984021 -0.10297148 -0.060445204
0000d0 3c d3 ce 3d 33 59 f7 3d 49 2a c4 3c c1 68 14 bc
       0.100988835 0.1207756 0.023945944 -0.009058178
0000e0 bd 54 cb 3d c1 bd c2 3d 96 a1 ec bd 07 79 1f 3d
       0.09928272 0.09508849 -0.115542576 0.03893378
0000f0 d8 7f d7 3d 34 ae ab 3d bf 58 c3 bd da 39 fa bd
       0.10522431 0.08382836 -0.09538411 -0.122180656

W_g.weight f4 [64, 64]
000000 8c 38 dd bd d2 1f 90 3d f4 a6 38 bc f2 16 12 3d
       -0.10801801 0.07037319 -0.0112702735 0.035666414
000010 ac ca 03 bd ef ef d1 bb de 7a ad bd c6 e0 6a 3d
       -0.032175705 -0.006406776 -0.08470701 0.057343267
000020 c2 be 87 bd c4 5c bb 3d 72 ca de 3d 5a 7c 51 3d
       -0.06628181 0.09148553 0.10878457 0.05114398
000030 94 58 85 3d a6 c4 2e bd be 1f ee 3d 40 69 e0 bd
       0.065110356 -0.042668007 0.11627148 -0.10957575
000040 3e 7f 3c bd 53 d4 70 bb 26 4b c3 3d ee fe c9 3d
       -0.046019785 -0.003674765 0.09535818 0.09863077
000050 68 e5 ea 3d 54 5a df 3d 72 bf c9 3d 4a da b3 bd
       0.11469537 0.109059006 0.098509684 -0.0878187
000060 0e a7 ba bd a8 ce aa bd 2e 6f a3 bd c8 2e a1 bd
       -0.091138944 -0.08340198 -0.0798019 -0.07870251
000070 ca 45 b5 bd b7 74 f4 bc b3 c9 37 3d 0a f0 94 3d
       -0.08851202 -0.02984081 0.04487009 0.07272346
000080 dc d7 92 bd b1 2f 9f bb 5e 41 cc 3d b2 a0 be 3d
       -0.07170078 -0.00485798 0.09973405 0.09307994
000090 9e 2f f6 3a 18 37 0f 3d 18 a8 2b 3c a9 e9 9d 3d
       0.0018782502 0.03496465 0.010477088 0.07710583
0000a0 fb 8c 78 bc eb 91 20 3d df a7 36 3d 44 bf a9 3d
       -0.015170331 0.03920166 0.044593688 0.08288434
0000b0 ed 87 ad bb b2 57 74 3d a6 b3 d8 3d 0c 9c 7a bd
       -0.0052957446 0.059653945 0.1058114 -0.061183974
0000c0 7c 08 b9 bd 0e 28 14 bd 16 ca 3c bd 2a 78 e4 3d
       -0.090348214 -0.03617101 -0.04609116 0.11155732
0000d0 35 18 33 bc 89 9c 79 bd 72 d5 44 3d 0c a2 e2 3d
       -0.010931064 -0.0609403 0.04805512 0.11066064
0000e0 4e 7d 45 3d 82 f8 81 3d 7e 5b e4 3d fd 48 87 3d
       0.048215203 0.06346227 0.11150263 0.06605718
0000f0 8a 3a c7 3d 97 cd 10 3b fe 84 3f 3d 17 bb 38 3d
       0.09727962 0.0022095197 0.04675769 0.045100298
000100 c7 6e f9 bc 3c 0f b2 3d fe 77 e7 bd 20 5c f8 bc
       -0.03044833 0.08694312 -0.113021836 -0.030317366
000110 f9 20 ea bd 46 f3 aa bc 60 b6 91 bd aa 56 e0 bd
       -0.1143207 -0.020867955 -0.071148634 -0.1095403
000120 2e f5 e5 3d 6b 8e 10 bc aa 2e 76 3d d6 02 b0 bd
       0.11228405 -0.008823018 0.060103096 -0.08594291
000130 dd ac 04 3e 98 0c c3 bd 9c b4 9d bd 1e 79 2a bd
       0.12956567 -0.095238864 -0.07700464 -0.041619413
000140 35 84 2f 3c 80 2c 01 3e 4c e8 cf bd 86 f6 1e bd
       0.010712673 0.12614632 -0.10151729 -0.03880932
000150 cd f6 c6 3c 0e 69 3f 3d ae f7 82 bd 08 77 96 bd
       0.024287606 0.046731047 -0.063948974 -0.07346922
000160 46 8a ee 3d 36 14 82 bd 92 2c 52 3d 4a 9c 1e bd
       0.11647467 -0.06351511 0.051312037 -0.038723268
000170 84 62 a3 3d aa 65 9e bd 48 59 c6 3d 18 53 8c 3d
       0.07977775 -0.07734235 0.09684998 0.068517864
000180 1a 1c 66 bd 59 11 4b 3c c6 44 94 bd c8 13 e6 3d
       -0.056179143 0.012394273 -0.0723968 0.11234242
000190 c6 c7 4e bd d8 30 c5 bd 5e 40 96 bd 68 9c 09 3e
       -0.050483488 -0.09628457 -0.07336496 0.1343857
0001a0 d8 19 b5 bd fa d1 79 3d d2 2b 48 bd 1e cd 5f bd
       -0.0884282 0.060991265 -0.048869915 -0.054638974
0001b0 96 1d d6 bd c4 e0 a3 bb 1e 06 89 3d 6e f9 55 bc
       -0.10454862 -0.0050011594 0.0669062 -0.013059957
0001c0 2b 9a 16 bc b6 0d c4 bd e0 0c 89 bd 16 92 dc bd
       -0.00919203 -0.09572928 -0.06691909 -0.10770051
0001d0 da b8 af bd 48 24 cf bd b1 97 ba 3c ea 60 82 bd
       -0.085801795 -0.10114342 0.02277741 -0.06366141
0001e0 56 ef 5d 3d 28 1b bb bc da e8 6d bd 24 ca c8 bd
       0.054183327 -0.022840098 -0.058083393 -0.0980418
0001f0 0e 5e 4f 3d 66 4e ae 3d 0b b3 8e 3d 9a 28 df 3d
       0.050626807 0.08511047 0.069677435 0.10896416
000200 36 0b d5 3d 5b 71 ff bd 07 ac 6c bd fc 4e d5 bd
       0.10402529 -0.12472793 -0.057781246 -0.10415456
000210 ae 66 8c bb 0f f6 20 bd 0c 6e d0 bd 56 19 8c bd
       -0.0042847013 -0.03929716 -0.1017724 -0.0684077
000220 f1 f2 c3 3c 74 41 d2 3d 12 5a ac 3d 28 5f be 3d
       0.023919554 0.102663904 0.08415617 0.09295493
000230 e5 e0 78 3d 4a ea ee 3d d6 1a c6 3d 60 54 b3 bd
       0.06076135 0.11665781 0.09673087 -0.08756328
000240 76 7f 9a 3d ef 6b d9 bc 57 fd 60 3c dd e2 3b 3d
       0.075438425 -0.026540725 0.013732276 0.04587065
000250 c8 5e 91 3d 61 32 81 3d 57 23 5f bb 55 92 55 3d
       0.07098156 0.06308437 -0.0034048164 0.052141506
000260 9e ed f9 3d 7e e8 b0 bd 14 5e f3 bd 76 5d 8b bd
       0.12203525 -0.08638094 -0.11883178 -0.06804936
000270 8d fb 03 bd 49 8e 6d 3c 5c ee b5 3d 2f 53 a3 bc
       -0.03222232 0.014499255 0.08883354 -0.019937126
000280 ae 0a fc bc 64 49 84 3d 26 1a 9a 3d 20 c3 bb bd
       -0.030766811 0.06459311 0.07524519 -0.091680765
000290 20 49 e9 bd 59 8d a6 3c fd 90 24 3d fe 1c b4 3d
       -0.113909006 0.020331072 0.040177334 0.08794592
0002a0 50 90 cf bd 94 b6 93 bd 48 54 a1 3d b6 dc f3 bd
       -0.10134947 -0.072125584 0.078774035 -0.11907332
0002b0 60 e7 9c 3d a8 94 c1 bd 09 d9 31 bc 60 34 9f 3d
       0.07661319 -0.09452182 -0.010854968 0.077736616
0002c0 3c 94 80 bd a2 75 c5 3d 6c e3 eb 3d 79 76 37 3d
       -0.062782735 0.09641577 0.11517987 0.04479072
0002d0 53 33 6d bd 3e f1 ab 3d 81 e5 69 3d 6a 1a ef bd
       -0.057910275 0.08395623 0.057103638 -0.1167496
0002e0 ce 8b 8f bd e4 87 db 3d 52 d6 f6 bd 7e 94 98 3d
       -0.070090875 0.107192785 -0.12052597 0.07450198
0002f0 a9 af 51 bc ad a9 6a 3d b3 36 29 bd d2 08 b4 bd
       -0.012798228 0.05729072 -0.04131193 -0.08790745
000300 89 db a1 bd 87 79 db bd fe 1d 59 bc db 7c 9d bd
       -0.07903201 -0.10716539 -0.01325178 -0.0768983
000310 06 1d e5 bc 2b 9d 82 bc 03 cb 47 bd 9b 0b 02 bd
       -0.027967941 -0.015944084 -0.04877759 -0.03174935
000320 30 da fd 3c 64 ae f2 3b 61 32 cf 3d 6f 05 69 bd
       0.030987829 0.007406043 0.10117031 -0.056889948
000330 76 d8 c9 bc 5e 4f 0c bc ca d9 c6 3c ed 8c 56 3d
       -0.02463935 -0.0085638445 0.024273772 0.05238049
000340 eb 6c d0 bd 77 9b 71 bd e5 dc 81 3d e6 4a ae bc
       -0.101770245 -0.058986153 0.063409604 -0.021275949
000350 81 e6 ef 3a 1b cc 77 bd 89 0a dd bd c9 1a a1 3d
       0.0018302948 -0.060497385 -0.10793025 0.07866437
000360 b1 e3 e7 3d e0 6b 0c 3a bf 65 86 bb 71 ba 36 3d
       0.113227256 0.0005356651 -0.0041014845 0.044611398
000370 02 e8 c5 3c 89 40 35 3d a5 d3 91 3d 84 6e 70 3c
       0.024158482 0.044251 0.07120446 0.0146747865
000380 41 a9 a5 3d c2 0e 23 3c 1f e9 0b bd 7f 63 84 bd
       0.08088923 0.009952249 -0.03415787 -0.0646429
000390 9b bf a9 3d 2d 13 f2 bd f4 5c 53 3b b1 ae 73 3d
       0.08288499 -0.11820064 0.003225145 0.05949277
0003a0 27 6d 8a bd 21 17 fb bd 8e 5d 50 bc 82 f9 a3 3c
       -0.067591004 -0.12260271 -0.012717618 0.020016436
0003b0 7f 4b de bd f3 72 88 bd 06 bd cd bc 8f fc 5a bd
       -0.108542435 -0.0666255 -0.025114547 -0.053463515
0003c0 81 7f c6 3d 77 3a fb 3d 6c 82 82 bc e6 a8 e2 bc
       0.09692288 0.12267011 -0.01593133 -0.027668428
0003d0 8f bd fe 3d 2c 4f 7f bd 59 55 6b 3d 62 22 0d 3c
       0.12438499 -0.062331364 0.05745444 0.0086141545
0003e0 6d ec 51 3d d7 f0 ad 3d 87 30 38 bd 23 f4 8b bd
       0.051250864 0.08493202 -0.044968154 -0.06833675
0003f0 6f d3 37 bd 8f 47 85 3d d5 be b9 3d 3f ce c3 3d
       -0.044879373 0.06507789 0.090696014 0.09560823

W_g.bias f4 [64]
000000 d9 6c 87 3c 92 fc dc 3d d2 58 e7 3d bd 0c 9c 3d
       0.016531395 0.107903615 0.11296238 0.07619617
000010 38 a1 ca bb 30 08 16 bb 20 78 60 bd c2 2e e8 3c
       -0.0061837696 -0.0022893064 -0.05480206 0.028342608
000020 32 c6 11 3d bc ef f7 3a e0 61 d6 3d 97 25 a5 3c
       0.035589404 0.0018916051 0.10467887 0.020159526
000030 fc 0a c9 3d 23 9a db 3d e4 d6 1c bd 09 e0 a1 3c
       0.09816548 0.107227586 -0.038290873 0.019760149
000040 4e ba b6 3d a2 d1 fe 3c c2 eb bd bc ca d8 8a bd
       0.089222535 0.03110582 -0.023183707 -0.067796305
000050 02 cd 78 3d 50 a0 8e bd 1a a1 ff 3d 22 52 07 3d
       0.060742386 -0.06964171 0.124818996 0.033037312
000060 b1 fa eb 3d ee 1f e0 3d 34 91 24 bd c3 f4 c4 bb
       0.11522425 0.1094359 -0.04017754 -0.006010623
000070 d2 f4 71 3d f2 1d c0 3d d9 ee 49 3d bf 1f d2 3d
       0.05907137 0.093807116 0.04930005 0.10259961
000080 7c 2b f4 b9 8a 1e 94 bc c2 4e 86 3c dc 2a 18 bd
       -0.00046571705 -0.018080968 0.016394977 -0.03715025
000090 a1 6b 0e 3d 99 00 66 bc a9 f8 fb 3c 16 66 2d bd
       0.03477061 -0.014038228 0.030758219 -0.042333685
0000a0 cc 0f 75 bd 18 71 b7 3d f9 fc 62 3d 9f 7b 3e bd
       -0.05982952 0.08957118 0.055417035 -0.046504613
0000b0 a2 62 e5 3d f5 3d d1 3d 57 68 7c bc af d3 9e 3c
       0.11200453 0.102168955 -0.015405736 0.019388048
0000c0 fe 97 df bd 0f 44 bc 3d f4 55 c4 3d 7a b3 4d bd
       -0.10917662 0.09192669 0.09586707 -0.05021999
0000d0 34 ad 48 bd b3 2f f7 3d 52 c4 a7 bd 08 94 90 bd
       -0.048993304 0.12069645 -0.08191742 -0.07059485
0000e0 bd cb 04 3e 85 5c a4 bd ad 23 23 3c 3b 8f 33 3d
       0.12968345 -0.08025459 0.009957236 0.043837767
0000f0 c4 27 af 3d e9 c3 45 bc d2 8d 40 3d 24 75 9a bd
       0.085525066 -0.012070634 0.04701025 -0.07541874

W_x.weight f4 [64, 1]
000000 59 aa cc be 8e cc 6d bf 9e 1d 61 3f 6d 25 ef 3e
       -0.39973715 -0.9289025 0.8793582 0.4670824
000010 20 d9 a8 3d 30 da 24 3f e0 17 6a bf 05 94 95 3e
       0.08244538 0.6439543 -0.9144268 0.29214492
000020 fe 41 f5 3e 54 3e 5c 3e 3e 3e 22 bf 31 ad 2b bf
       0.4790191 0.21508151 -0.63376224 -0.67061144
000030 24 2e 88 3e c3 01 c6 bc 32 b6 b0 be e6 44 b6 be
       0.26597703 -0.024170762 -0.34514004 -0.3559944
000040 8b 91 28 bf ff 73 57 bf b1 e6 c0 be 30 86 c2 be
       -0.6584708 -0.8416137 -0.37676004 -0.37993002
000050 b5 72 3f 3f 81 14 ed bc 94 6b 2f 3e 4f cd 17 3e
       0.74784404 -0.028940441 0.17130882 0.14824413
000060 72 25 33 bf 91 36 a3 3d 35 6c 6a bf e2 e7 46 3e
       -0.6997901 0.07969392 -0.9157136 0.19424394
000070 a5 a6 13 bf dd 7c 24 bf ce 4f 81 be 22 fc 52 3f
       -0.57676154 -0.64253026 -0.252562 0.82415974
000080 f5 ac 72 bf d3 39 cb be 57 d2 1e bf 97 5b 48 3d
       -0.9479516 -0.39692554 -0.62039703 0.048915472
000090 0e 6b c5 3e 79 34 b7 bc b1 0a db 3e ea 00 9a 3e
       0.3855824 -0.022363888 0.42781594 0.30078822
0000a0 80 09 85 be 4e 1b f8 be 8e 4f 24 bf d7 f8 7b bf
       -0.2598381 -0.48458332 -0.6418389 -0.98426574
0000b0 cd 3f fe be e0 e1 18 bf 66 87 66 3f 00 ca be 3e
       -0.4965805 -0.5971966 0.9005035 0.3726349
0000c0 60 31 6c 3f da 67 b0 3e c2 b8 c5 3e 16 de 66 be
       0.9226284 0.34454232 0.38617522 -0.22545657
0000d0 6a 28 25 3f 99 91 66 3f 7e d2 5b be 9f 44 5d bf
       0.6451479 0.90065914 -0.21467015 -0.8643283
0000e0 18 4f 6e 3f 85 6a 82 bd ab 65 fe be 79 4c 87 3e
       0.9308944 -0.06367973 -0.49686942 0.26425532
0000f0 f7 30 0a 3f 42 5a f8 be c4 72 4e 3f ed e3 4a 3f
       0.53980964 -0.4850636 0.8064387 0.7925404

W_x.bias f4 [64]
000000 1e fe 62 bf d1 7d 79 be 6a e4 48 3f aa c4 36 3e
       -0.88669 -0.24364401 0.7847353 0.17848459
000010 c3 ed 1e 3f 7d 1b 08 bf c1 dd 99 3e 16 d4 71 bf
       0.62081546 -0.53166944 0.30051997 -0.9446424
000020 62 e1 87 be c9 12 65 3f a9 e2 2c bf 99 bc 4e bf
       -0.2653914 0.8948179 -0.67533356 -0.8075653
000030 98 69 87 be fb d2 88 be 8d 8d 08 3f 91 a7 23 3f
       -0.2644775 -0.26723465 0.5334099 0.6392756
000040 a2 b0 2a 3f b8 17 73 bf d5 b3 50 3f 55 0f 03 3f
       0.6667577 -0.94958067 0.815244 0.5119527
000050 d6 4b 73 3d 1f d7 af be 9f ae c6 bd a0 e3 67 3f
       0.059398495 -0.34343812 -0.09701275 0.90581703
000060 6c 96 26 3f 37 c8 bb 3e 37 96 dd be 37 ef 54 3f
       0.65073276 0.3667619 -0.43278667 0.8317751
000070 a2 2c fc 3e d2 3c 17 3f 0d fc 4c 3f 64 57 e0 3a
       0.49252802 0.5907718 0.800721 0.0017115888
000080 3e ce d3 3d 1a c2 80 be 78 ab 82 3b 29 9f c0 3e
       0.10342072 -0.25148088 0.003987726 0.3762143
000090 dd 94 53 be df c3 f7 be 56 ec 74 bd 16 00 03 bf
       -0.20662256 -0.48391625 -0.0597957 -0.51172006
0000a0 3e 8e 0c 3f 27 ac e7 be 61 29 2a bf 42 6a 89 3e
       0.54904544 -0.4524853 -0.6646939 0.2683888
0000b0 e1 1d 38 bf 28 54 5f bf 1a 73 dc be a2 c6 b4 3e
       -0.7192059 -0.8723779 -0.43056566 0.35307795
0000c0 1e 49 25 bf 1d 62 68 3f 92 f8 5c bf 20 44 db be
       -0.6456469 0.9077471 -0.8631679 -0.42825413
0000d0 88 60 34 3f 36 e1 53 bf 23 87 1b bf fc 5d d1 be
       0.70459795 -0.8276552 -0.6075308 -0.40892017
0000e0 8f 6e 56 bf a9 80 88 3d a6 fe 2d bf 34 72 56 3f
       -0.8376245 0.06665165 -0.6796669 0.8376801
0000f0 c0 a0 2f be 3c e1 74 bf 89 9f ca 3e bb bd 49 3e
       -0.17151165 -0.9565618 0.3957484 0.19701283

W_1d.weight f4 [1, 64]
000000 9c c7 46 bb e8 bd ad bb c2 b4 ce 3d d3 bd 4a 3c
       -0.0030331379 -0.0053021796 0.100930706 0.012374359
000010 59 5e 0d bd 79 e4 92 bd b1 d5 0f bc e5 c1 17 bd
       -0.034513805 -0.07172484 -0.008778975 -0.037050147
000020 82 c8 cd 3d 0c c5 af 3c de b1 8e bd 89 b3 cc bb
       0.100480095 0.021456264 -0.06967519 -0.006246988
000030 19 cc 7b bd cb d4 a5 bc b4 eb b3 bd 1e 24 85 3a
       -0.06147394 -0.02024307 -0.08785191 0.0010157858
000040 40 7b 17 3c 59 45 d9 bd ca c6 bd bb 18 d6 a8 3c
       0.009245694 -0.1060893 -0.00579152 0.0206099
000050 7e ea 08 bd 7d 19 d9 3d 13 6a 0a 3d 25 08 9f 3d
       -0.033426754 0.10600565 0.033792567 0.07765225
000060 f9 df a1 bb a8 3c 24 3d 6e d9 08 bc 44 3d 3b 3d
       -0.0049400297 0.04009691 -0.0083526205 0.045712724
000070 bf fe c5 bc 60 7e 9f 3c 01 bc 24 bd 46 8b 7d bd
       -0.024169324 0.01946944 -0.040218357 -0.0619004
000080 80 1e e4 bc 0a e7 ad 3c e8 c0 29 bb d9 ee 80 3d
       -0.027846575 0.021228332 -0.0025902335 0.062955566
000090 73 4e f1 3c b3 7a 99 bc 38 d5 85 bd 16 ac 82 3d
       0.029456353 -0.018735265 -0.06534809 0.06380479
0000a0 1c 28 b5 3d 5f 5d 65 3d 1b 60 1f bd 15 63 be 3d
       0.08845541 0.05599725 -0.038910013 0.09296242
0000b0 88 b8 61 bd 9e 59 7e bc d8 b8 3b 3b 2e 9e 5b bd
       -0.055107623 -0.015524296 0.002864411 -0.05361765
0000c0 a9 7b a9 3c c5 18 2f bc b3 9f de 3d 6b 33 f6 bb
       0.020688849 -0.010687058 0.10870304 -0.0075134537
0000d0 ba 86 1e 3c e8 06 f7 3d 30 e2 b0 ba ce ef 24 bc
       0.009675676 0.12061864 -0.0013495144 -0.0100669395
0000e0 e6 c3 e2 bb f0 df e6 bd ab b8 c7 bd 39 c1 e6 3c
       -0.0069203256 -0.112731814 -0.097520195 0.028168308
0000f0 32 7a 9f 3c 28 f9 b5 3d d9 b2 1b 3d 59 34 ad bd
       0.019467447 0.088854134 0.03801236 -0.0845725
