model_weight/best_SPAIN_model.pth (torch, 73843 bytes, 14 tensors)

lstm_cells.0.b_c f4 [64]
00000000: 95fc 9abc ffe9 343c 09cf fe3b b35a cb3b
00000010: 1976 5dbc 7a1e 99bb 7c9c b7ba 7975 b13c
00000020: 1352 c73b 55d9 0cbc 8b51 983c 40e0 143c
00000030: a881 01bc 522d 3fbb 2b1c 8b3b bc71 e03c
00000040: dccd 573c 4452 15bc 23db c83b 9d52 e03c
00000050: 5596 a5bc 3611 d2bc 2824 963b 9c53 7f3b
00000060: c09c f83a 9254 24bd 67c9 d53c 4111 84bc
00000070: 7d30 063c f399 5cbc c596 843c 3713 3fba
00000080: d193 193c 280f 073d 3822 bf3b 1449 65bb
00000090: 3027 863c dda5 5f3c 03c3 ec3b 11fd 13bc
000000a0: 0b93 903c 5ded b53b 19bb 0f3b f7eb 9e3c
000000b0: efae 573b c56e 993b b93b 5ebc ee09 01bb
000000c0: 797b 853c 858d f4bb f63a 5a39 4423 90bc
000000d0: 3952 863c 6edd 0fbc 07ca b0bb ff0d e23b
000000e0: f073 91bb ef1f d5bb 65bb 05bb bcf4 4e3c
000000f0: d7a9 843b 15f8 5a3b 5fa0 413c 20c0 04bc
-0.018919269 0.011042117 0.0077761454 0.0062058805 -0.013516926 -0.0046728225 -0.0014008428 0.02166246
0.006082782 -0.008596738 0.01859357 0.0090866685 -0.007904448 -0.00291713 0.0042453012 0.027397983
0.013171639 -0.009113852 0.0061296388 0.027383143 -0.020213285 -0.025642972 0.004581947 0.0038959747
0.0018967614 -0.040119715 0.026097013 -0.016121509 0.008190271 -0.013464439 0.016185174 -0.0007288935
0.009373621 0.03297344 0.0058329366 -0.0034986185 0.016376108 0.013650385 0.0072253956 -0.009032504
0.01764824 0.0055519775 0.0021931587 0.019399626 0.0032910665 0.004682394 -0.013564044 -0.0019689756
0.016294228 -0.0074631595 0.00020812065 -0.017594941 0.016396629 -0.00878082 -0.0053951773 0.006898641
-0.0044388697 -0.006504051 -0.0020405885 0.012631591 0.004048567 0.0033412029 0.011818021 -0.008102447

lstm_cells.0.W_ic.weight f4 [64, 1]
00000000: 39ef 4ebf 4565 bc3e 3678 acbe 7de2 44bf
00000010: 43bf 07bf 4959 80bf c548 a43e cce6 543f
00000020: d14c 5fbe 325a bebe 1430 ba3e b47f 433e
00000030: e131 e93e 493e 9f3e 31ee 0e3f bdf9 1b3e
00000040: e1c5 bcbe d0f8 80be ce15 cb3e b8d5 683f
00000050: 6e92 1bbf 88ee 31be b1fd 1b3f c35a 14bf
00000060: 7fb2 bc3d 429d 9dbe 98c5 2e3f 49ea 91be
00000070: 835c 48bf 10cc 32bf 65e3 f2be 259d f83e
00000080: 3779 de3e 7fd9 8abc e6d2 40bf bff9 c33e
00000090: e482 703f d7cb 26be 319e 8abe f71f fb3e
000000a0: fe73 59bf 13ea 643f c9e8 7abf 6a84 573e
000000b0: e2fd 00bf 6f6d 0a3e 4f6b 25bf cb13 66bf
000000c0: bd53 3c3f 5158 4abf 5698 843e 2ddb a23e
000000d0: 601c ff3e f2fb 69bf 3034 59bf 1d5d 823e
000000e0: 870f 313e df2d 07bf a9ec 103e fd26 753f
000000f0: b364 ac3e 3cee f63e 724d 033e 1a2f 803f
-0.80833775 0.36796013 -0.33685464 -0.76908094 -0.5302622 -1.0027248 0.3208677 0.8316467
-0.21806647 -0.3717819 0.36364806 0.19091684 0.45545867 0.31102207 0.558322 0.15231986
-0.3686972 -0.2518983 0.39665073 0.9095111 -0.6077031 -0.17376149 0.6093398 -0.5795099
0.09213733 -0.3078404 0.68270254 -0.28499058 -0.7826616 -0.69842625 -0.47439113 0.48557392
0.43451855 -0.016949413 -0.75321805 0.3827648 0.93949723 -0.16288696 -0.27073815 0.49047825
-0.84942615 0.8941967 -0.9801145 0.21046606 -0.50387394 0.13518308 -0.64616865 -0.8987395
0.73565274 -0.7904101 0.25897473 0.31807843 0.49826336 -0.91400063 -0.84845257 0.25461665
0.1729108 -0.5280437 0.14152779 0.95762616 0.33670577 0.48228633 0.12822512 1.0014374

lstm_cells.0.W_ic.bias f4 [64]
00000000: 5b2d 44bd 79e0 a9be a460 1ebf f8d1 03bf
00000010: bb08 80be df1e 703f 2a6b 62be 193f 3e3f
00000020: a472 1cbf 7e4c 843e 053c efbe 6e85 2e3e
00000030: d508 443f 948d 033f fb63 c1bc 3df1 39bf
00000040: a864 60bf 4618 5d3f 5e2c 15bf ac5f 22bf
00000050: 7e14 193e b36a 513f 9f07 b83e d0ef c5be
00000060: 5b74 1bbe 4543 743f 05ed a8be 7d46 123e
00000070: 84c2 03bf d44b 3a3f 6650 3dbf d578 553f
00000080: 946a f63e beb2 04bf bf2c e8be cffe 50bd
00000090: 033b 6abe a14e ecbe 8ca0 65be 7715 f33e
000000a0: 22c8 5ebf 0e38 e13e 5e7b 3bbf 18c9 77bf
000000b0: 89e8 f9bb 3aec f1be 7017 643f 286f 23be
000000c0: d59b 663e a549 b1bd 91e6 903e dc93 003f
000000d0: 8cd8 27bf af4d eb3e d3d6 29bf 46bf 4bbe
000000e0: b1c8 9c3e 9f79 0ebe f750 58bd 7a55 cdbe
000000f0: 1599 2abf c2a5 a2be 5def 6bbf 9194 b63e
-0.047894817 -0.33179072 -0.6186621 -0.5149226 -0.2500666 0.93797106 -0.22111192 0.7431503
-0.6111243 0.2583961 -0.4672548 0.17043087 0.76575977 0.51387906 -0.023607245 -0.72633725
-0.8765359 0.86365163 -0.58270824 -0.63427234 0.14949223 0.81803435 0.35943314 -0.38659525
-0.15181105 0.95415145 -0.32993332 0.14284702 -0.5146868 0.72771955 -0.73950803 0.833875
0.48128188 -0.5183524 -0.4534664 -0.051024254 -0.22874074 -0.4615374 -0.22424525 0.47477314
-0.8702413 0.4398808 -0.7323512 -0.9679122 -0.0076265973 -0.4725054 0.8909826 -0.15960371
0.22520383 -0.08656625 0.28300908 0.50225616 -0.655648 0.45957705 -0.6634342 -0.19897184
0.30621865 -0.13913582 -0.05281159 -0.40104276 -0.66639835 -0.31767088 -0.92162114 0.35660222

lstm_cells.0.W_hc.weight f4 [64, 64]
00000000: bc48 ca3d b40f 233d 5113 653d 5605 f5bc
00000010: 3845 923c 502c bbbd e7c6 ee34 83b1 94bb
00000020: 0fcc 88bd 1726 45bd 263f 90bd b5b9 b7bd
00000030: 1e2c 63bd 2507 f73d 314a 853d 5702 8f3c
00000040: 6301 183d ae9f 743a caec c93d a59a be3d
00000050: 934a 973d df08 bc3c eb81 353d 6b96 f7bd
00000060: bdd6 d4bd 047c 58bd e866 e13c 6dda 08be
00000070: c1a8 aebd 710d 1c3d c883 2f3d aeec 713c
00000080: d6c0 063d b2de d53c ea33 fd3d 9c42 c93d
00000090: 789a cf3d acb9 d8bd d0c1 373d e722 2ebd
000000a0: 1cd3 a33c c4f3 07be f01f 38bd d7bb 583c
000000b0: 6c46 e53d 9217 52bd b01a ccbb 8f1f c7bc
000000c0: c512 2c3c fcb7 abbd 9875 433c a693 c83d
000000d0: f691 2d3c 09dd 753d 30dd 883d 239e 0e3e
000000e0: 9099 ddbd b1fd 3a3d 1f9b e93d e3ee b1bd
000000f0: 6491 cb3c fe60 633d 5f74 afbd 2a0d a3bb
00000100: 73d3 b63c 6c6f dd3d 3900 b03a 0465 843b
00000110: 57b9 90bd a6fa a3bc 689d d0bd 8c8f 633d
00000120: fcd4 d3bd e24e 783d 5621 02bd 97eb e73d
00000130: dfa9 d83c df1a 82bd 51bd 5c3c bcd9 11bd
00000140: a6d8 323d cef9 d9bd 6a3e 85bd 1343 bc3d
00000150: 4962 8dbd c048 8c3d 6ef2 2dbd b6b2 e13d
00000160: a30d fbbd ef34 c23a d3e7 e93b 9005 2ebd
00000170: 691b bcbd 463d c9bd 106f fdbc 3d1a 0d3c
00000180: 6438 d4bd a44e 893d bdee 003d 5888 f13d
00000190: c5ff 62bd e5ad edbd f4ea e93d ed41 9c3c
000001a0: 6c50 15bc 14bc 7fbd 34f8 55bd a6fd 4dbd
000001b0: 5e09 353c 3a99 8e3d b644 b0bc f6de d0bd
000001c0: 8fb7 b13d df48 053e 9334 a23d d31e 23bd
000001d0: 481d c93d f56a 8a3d b341 5f3d 6e1c d5bd
000001e0: 72d2 193d 5bad aa3d 19f8 443d 1d0d 58bc
000001f0: 3cef 0cbe 95e3 bebd 974c 3bbd 055d e1bd
00000200: 9838 92bd 58f8 883d 94b0 d43d be42 80bd
00000210: d1ed 52bb fa10 afbd 796f 6fbd 4b6b a63d
00000220: 3509 ef3c 26e7 7d3d d7a0 ac3d ea4f cfbd
00000230: bbe1 643c 6b19 8fbc cd0c 72bb 3316 fb39
00000240: e97c 913c b4ae 88bd 8024 bbbd 6c9d 3cbb
00000250: 7df7 5dbd 5db6 2f3d 2279 203d 00d9 6d3d
00000260: 02bc 253d c499 86bc ae27 1bbd 1558 1b3c
00000270: 27c6 cb3d ceec 64bb f12a 883d fe68 7dbd
00000280: 07a5 e73d b6bf bb3d 4ea2 eebd cfb5 e8bd
00000290: 13e6 71bd 987d 82bd b007 69bc 5b47 213d
000002a0: e2d1 993c 71dc 513d db97 02be c649 c0bd
000002b0: 9e67 6d3d a0df bd3d 3418 073e 62f1 4abc
000002c0: fff5 ddbd b43d f3bb 4e18 84bc 55cd cdbd
000002d0: 0398 9a3b 1c17 a43d 5b29 dd3d c1bd a5bc
000002e0: 32fe 043e 89de fc3c 3219 4739 6958 00be
000002f0: 888e a33c 3ad6 793d 7fb1 6d3c 9cf2 053e
00000300: 776e c23b 142d b33d 8b7a 14bd e4af c43c
00000310: d1e0 9bbd 0f11 31bd 588d 15bd 712a 11bd
00000320: 249e b4bd 9831 5fbd 5e5f a5bc bab9 dd3d
00000330: b81a aabd af39 08bd 0510 dabd ee15 f2bd
00000340: e82b f93c 6479 22bd 2eff b9bd 3e24 fc3d
00000350: 5558 63bd d902 c53d f812 073d 7690 a5bd
00000360: 7c63 353d e531 573d 37e5 693d ea0c eabd
00000370: ddf5 073c bed5 35bd f62a a13d c70b a73d
00000380: e904 2bbb ba02 903d 4a00 bbbd f650 303c
00000390: df93 903d 7075 f63d eebb 893c fb82 343d
000003a0: a6dc b63d 313e 8e3c aa6b 6dbc 333b bdbc
000003b0: 410f 63bc d00b af3d ee6c 963c ccfa c4bd
000003c0: bdac a8bc 49f5 aabd 4f61 2f3d 280b ccbc
000003d0: ba74 4d3d 5b82 d03d 2f29 5bbb 3c59 313b
000003e0: fa46 533b 62d3 1cbd 622c 273d b84d 0c3c
000003f0: 0bb7 97bc 74c5 98bd 9dd8 c63d 9108 fc3b
0.09877154 0.039809898 0.055926625 -0.029909771 0.017855272 -0.09139311 4.4475675e-07 -0.0045377626
-0.06679546 -0.04813203 -0.070432946 -0.08970968 -0.055461995 0.120619096 0.065082915 0.01745717
0.037110697 0.00093316555 0.09859617 0.0930684 0.07387271 0.022953449 0.044313353 -0.12089237
-0.103925206 -0.052852646 0.02751489 -0.13364573 -0.08528281 0.038098756 0.042850286 0.0147659015
0.032898746 0.026107166 0.123634174 0.09827158 0.101368845 -0.10582289 0.04486257 -0.042513754
0.019998126 -0.13276583 -0.044952333 0.013228378 0.111950725 -0.05129201 -0.0062287673 -0.02430704
0.010502522 -0.083847016 0.011929892 0.09793787 0.010593882 0.06002525 0.06682813 0.13927512
-0.10820305 0.045652095 0.1140654 -0.08688142 0.024849601 0.05551242 -0.08567118 -0.0049759345
0.022317624 0.10812268 0.0013427801 0.0040403623 -0.07066601 -0.02001698 -0.10186273 0.05555682
-0.10343358 0.060622104 -0.031770073 0.11324232 0.026448188 -0.063527815 0.013472871 -0.03560804
0.043663643 -0.106433496 -0.06506045 0.09192481 -0.06903512 0.068498135 -0.042467527 0.110204145
-0.122584604 0.0014816801 0.0071382313 -0.042485774 -0.091849156 -0.0982614 -0.030936748 0.008612213
-0.10362318 0.06704453 0.03147768 0.11793584 -0.055419702 -0.116054334 0.11421767 0.019074405
-0.009113412 -0.062435225 -0.052238658 -0.050290726 0.011049597 0.069628194 -0.021517139 -0.101987764
0.08677589 0.1301608 0.07920184 -0.03982432 0.09820038 0.06758682 0.054506015 -0.10405813
0.037554212 0.08333846 0.048088167 -0.01318672 -0.13763136 -0.093207516 -0.04572734 -0.1100407
-0.07139701 0.06687993 0.10385242 -0.0626273 -0.0032185207 -0.0854816 -0.058455918 0.08125933
0.029179195 0.06198802 0.08429115 -0.10122664 0.013969834 -0.017468175 -0.00369339 0.0004789099
0.017759757 -0.06673947 -0.09137821 -0.0028780354 -0.0541911 0.042898525 0.03917802 0.058068275
0.0404625 -0.016430743 -0.03787964 0.00948145 0.09949904 -0.0034931186 0.066488154 -0.061867706
0.11310773 0.09167425 -0.11652051 -0.11362802 -0.059057306 -0.06371611 -0.014223024 0.03937469
0.018776838 0.05123562 -0.12753241 -0.09389071 0.057960145 0.09271169 0.13192827 -0.012386652
-0.10837936 -0.007423127 -0.01612487 -0.100489296 0.0047178282 0.0801222 0.107989036 -0.020232083
0.12987593 0.030867832 0.00018987505 -0.12533726 0.019965425 0.060995318 0.01450765 0.1308083
0.0059335786 0.08748832 -0.03624968 0.024009652 -0.0761124 -0.04322916 -0.03651175 -0.035440866
-0.088192254 -0.054490656 -0.020187076 0.1082644 -0.083058774 -0.033258136 -0.10647587 -0.11820589
0.030416444 -0.03966655 -0.09081875 0.123116 -0.055504162 0.09619684 0.032977074 -0.08084194
0.04428433 0.052537818 0.057103362 -0.114282444 0.0082983645 -0.044393294 0.07869522 0.08156543
-0.0026095456 0.0703177 -0.091309145 0.01076149 0.07059454 0.12034118 0.016813245 0.044070225
0.08928804 0.01736364 -0.014491001 -0.023099517 -0.013858617 0.08547175 0.018362489 -0.09618148
-0.02059018 -0.08347566 0.04281741 -0.024907663 0.050160147 0.10181113 -0.0033441295 0.0027061244
0.003223835 -0.038287528 0.04081381 0.0085634515 -0.018519899 -0.07459536 0.097092845 0.007691451

lstm_cells.0.W_hc.bias f4 [64]
00000000: 236b 85bc 3188 463d d1df f5bc bdc2 6abd
00000010: d2aa b6ba 0bc4 d0bd 878a 1bbb 41a5 60bd
00000020: 64c1 bfbd bcda b6bd c650 5dbc 90ac d9bd
00000030: 9e9d 423d 4a9f b5bd 6bbe 77bd afad 6e3d
00000040: f9a5 18bd 5111 ce3d 74b2 f33d 09a8 f03d
00000050: 1414 9f3d be94 a33c ec3c a3bd 910a 07bd
00000060: 0eaf 73bd 65f1 45bc 2f32 803d 395c d63c
00000070: 8bda c1bd d705 8d3d e264 f8bb 6a24 57bd
00000080: 5783 c4bd 1899 05bd 9836 883c 2a00 823d
00000090: 1f63 703d a4af c83c 8888 52bd d0a7 c0bc
000000a0: 1e5b d23c 1cd7 f33d f672 95bd 13c6 b9bd
000000b0: bf52 6a3d 7336 3a3d f283 2bbd 24ef c7bd
000000c0: acf2 cabd 595e f1bd 48d3 64ba c60d 803d
000000d0: 09e3 373d c2c9 69bc 8c9a b03d b3fe 023d
000000e0: 2152 af3c 031d fd3c 11aa f7bb a3a6 063e
000000f0: 9f86 3ebc 1e32 863d acec 88bd 3c86 dbbd
-0.016286438 0.048469726 -0.03001395 -0.057314623 -0.0013936406 -0.10193642 -0.0023733692 -0.0548451
-0.09363058 -0.08928439 -0.013508027 -0.10628617 0.047513597 -0.088682726 -0.06048433 0.058271106
-0.03726766 0.100618966 0.118992716 0.117508 0.077675015 0.019968387 -0.07970604 -0.03296906
-0.059493117 -0.012081479 0.06259572 0.026167022 -0.09465512 0.068858795 -0.0075803855 -0.05252496
-0.095953636 -0.032616705 0.016627595 0.063476875 0.05868828 0.024497814 -0.051399738 -0.02351752
0.025678214 0.11906263 -0.07297318 -0.09070983 0.05720782 0.045462083 -0.04187388 -0.09762409
-0.09909567 -0.117855735 -0.0008728993 0.06252627 0.044894252 -0.014269294 0.086232275 0.03198118
0.021401467 0.030897623 -0.0075581153 0.13149504 -0.011628776 0.06552528 -0.066857666 -0.107189626

lstm_cells.0.W_in.weight f4 [64, 64]
00000000: accb 883d 265e c13d 68a6 31bd a459 193d
00000010: 40e8 c13c 02f3 c63d 8002 d63b d00a 0e3d
00000020: 7c94 20bd 46bc cfbd 90af dd3d 7031 96bd
00000030: 00df b53c 6c15 48bd d22a cabd 10a7 ffbd
00000040: 00dc f9bb 8c71 533d 5ae0 963d a07c 32bc
00000050: b4e3 e03d 3859 98bc f417 273d 0845 e3bc
00000060: 460f b0bd 8842 36bd 5066 63bd 96a1 a43d
00000070: 5c02 f93d 8af8 8a3d d83e cd3c 6a20 ca3d
00000080: f0a7 313c c06e 86bd b204 ae3d 2824 083d
00000090: 98f6 903d 52b5 8ebd 0467 073d fccd f83d
000000a0: 80d5 20bb 10b9 303d 124e ebbd 902d 0e3c
000000b0: c0f8 bfbc 8098 29bb 200c 63bd f0f3 9c3d
000000c0: 34a2 34bd fa79 bebd 38fa d93c 42d0 e33d
000000d0: 0a86 923d 0e44 ee3d 08bf fcbc dc17 96bd
000000e0: b04c 8e3c 5c4e 63bd 5e7a d83d b886 1abd
000000f0: 3c8b bcbd 10ee 18bd caed 86bd e4f7 08bd
00000100: f88e b03d 08e7 10bd cc96 f2bd c0e3 6d3d
00000110: c089 26bc 527b 933d 3e72 ebbd 8492 873d
00000120: 6cf0 ffbd 189e cd3d beb5 a73d 0486 9cbd
00000130: 945a a8bd e653 cabd 4e9a a7bd 3051 a33d
00000140: 80d8 7abc a050 c3bd 84db 823d 7a8f c3bd
00000150: a847 703d 7008 f63d ee36 973d 1caf a6bd
00000160: 0004 8439 8474 a83d a00e 9a3c 40c7 8e3d
00000170: 007e 8dba c0b5 c53d 0e70 f3bd 2c3d da3d
00000180: 120c cebd d4d5 84bd 9a11 db3d 3ab9 9abd
00000190: 1015 26bd b41d 913d b09f f0bd 5092 23bc
000001a0: 4812 11bd 5098 1bbc 0281 f83d 6e5a c33d
000001b0: aa1c c5bd a47d 553d 5eb4 883d 70e1 cabd
000001c0: b497 553d 7030 143c 1039 803d c287 dabd
000001d0: 8ee8 f1bd c460 83bd e0d8 9c3c 3400 2e3d
000001e0: f49d cf3d 78e3 f43c d86d ddbc 88ff f23c
000001f0: 1458 093d 6048 533c 50d0 07bd 40e4 753d
00000200: b0f1 9a3c fa7a 993d 70f4 4dbd 34b6 84bd
00000210: 8826 f6bd f844 b6bc 76db 943d 306f 9d3c
00000220: 56d3 e3bd e440 263d e0d5 a63b 76b1 91bd
00000230: 6897 64bd 562d bcbd c073 813c f032 72bc
00000240: 7031 0dbc 3e4a b03d a885 8abc b6fc f8bd
00000250: 6017 03bc 6e9d fcbd 3e12 ea3d 083b bebc
00000260: dc16 acbd d898 e9bc d008 a8bc f0d1 fa3d
00000270: acc5 5e3d 1464 c13d 140c 743d 24e5 273d
00000280: 443d e83d c8c1 943d 568c d1bd 20d9 debc
00000290: dac3 9bbd f849 eabc 200e 823b f82d 59bd
000002a0: a4a5 a43d a071 7abc 148e 7cbd 08ef 40bd
000002b0: b034 dc3c 720e aabd 52b5 ab3d 04d4 5b3d
000002c0: e025 78bd 1025 37bc f86f bfbd 664d b7bd
000002d0: 5611 cb3d 007b 773c e402 71bd b0b4 bb3d
000002e0: 822a dcbd e814 d43c 2a86 d73d 0437 50bd
000002f0: 120e 9bbd f4ca f63d 9a5d d73d b072 263d
00000300: 7e10 ddbd 809a e53d 4e22 c0bd 98ff 853d
00000310: 16b5 8cbd 0847 b03c 8028 e8bb 40b2 a53b
00000320: fc7b da3d 68d5 3a3d f8bf b9bd 80e2 2bbc
00000330: 4667 86bd 0086 f5b9 2c56 80bd 74be 81bd
00000340: 0046 25bd 6808 b5bc 2ad2 dd3d c0c1 c8bb
00000350: e845 acbc 50d4 52bc 68c3 2fbd 763a 99bd
00000360: 98cc cdbd 4477 abbd c0b9 6d3c c0a9 ef3d
00000370: 9200 b53d 6861 783d 463a b4bd 508a f7bc
00000380: c00b 45bb c85d 963d 9484 8ebd c8cf abbc
00000390: 547b 243d e812 23bd 4610 e1bd 88b6 d53d
000003a0: 56ad e53d 6af1 ebbd 04e0 18bd c02d 153b
000003b0: 9a81 cebd 50fe ccbc 58c7 5ebd c023 73bb
000003c0: 7827 4b3d b447 ca3d 4051 e13d d4e7 b03d
000003d0: e484 873d 603a cc3c 9477 7abd c043 053c
000003e0: 8076 1e3b 962b f23d ee6a 81bd dc7c 5cbd
000003f0: 703c b6bc 5c78 72bd 02cd b43d 00ef 973c
0.06679472 0.094417855 -0.043371588 0.037439004 0.023670316 0.09714319 0.0065310597 0.03467828
-0.039204106 -0.10143332 0.108245015 -0.07333648 0.022201061 -0.048848554 -0.098714486 -0.124830365
-0.007625103 0.05162196 0.073670104 -0.010893971 0.10980931 -0.01859723 0.040794328 -0.027742878
-0.08596663 -0.044497043 -0.055517495 0.080386326 0.12158653 0.06785686 0.02505438 0.09869464
0.010843262 -0.06564093 0.08496989 0.033237606 0.07078284 -0.06968178 0.033057228 0.121486634
-0.0024541318 0.04314524 -0.114895 0.008677855 -0.023434043 -0.002587825 -0.055431485 0.07663715
-0.0441 -0.09300609 0.026608571 0.111237064 0.07154472 0.11634074 -0.03085281 -0.073287696
0.017370552 -0.05549465 0.10570215 -0.037726134 -0.09206244 -0.03733641 -0.065883234 -0.033439532
0.08621019 -0.03537658 -0.118451685 0.058078527 -0.010164678 0.07201256 -0.11496399 0.066197425
-0.12497029 0.100399196 0.081889614 -0.07642749 -0.082204014 -0.098792836 -0.08183728 0.0797447
-0.015310407 -0.095368624 0.063895255 -0.0954885 0.058662087 0.12013328 0.07383524 -0.08138868
0.00025179982 0.082253486 0.018805802 0.06971598 -0.0010794997 0.09653807 -0.11886607 0.10656199
-0.10060896 -0.06486097 0.106967166 -0.075548604 -0.04054743 0.070857435 -0.11749208 -0.009983614
-0.035417825 -0.009496763 0.12133981 0.095387325 -0.09624608 0.052121773 0.06675027 -0.0990628
0.05214663 0.0090447515 0.06260884 -0.10670425 -0.118119344 -0.06414941 0.019146383 0.042480662
0.10137549 0.029893622 -0.027029917 0.029662862 0.033531263 0.0128956735 -0.033157647 0.06003213
0.018914074 0.07494159 -0.050281942 -0.06480065 -0.12019068 -0.022249684 0.07268421 0.019218057
-0.111242935 0.04058923 0.005091414 -0.07113926 -0.055808455 -0.09188335 0.015802264 -0.014782652
-0.008617744 0.086079106 -0.016909435 -0.12157576 -0.0080011785 -0.12334715 0.11429261 -0.023221508
-0.084027976 -0.028515264 -0.020512015 0.12247074 0.054387733 0.094429165 0.05958183 0.04099001
0.113398105 0.07263523 -0.10231845 -0.027203143 -0.07605715 -0.028599724 0.003968969 -0.053022355
0.08039406 -0.015285879 -0.061658934 -0.047102958 0.026880592 -0.083035365 0.083841935 0.05366899
-0.060582995 -0.01117827 -0.09347528 -0.089503095 0.09915416 0.015105009 -0.058840647 0.09165323
-0.10750295 0.025888875 0.10523637 -0.050833717 -0.07571043 0.12050429 0.105159 0.04063672
-0.10794161 0.11211109 -0.09381543 0.06542891 -0.06870477 0.021518245 -0.007084906 0.0050566494
0.106681794 0.045613676 -0.09069818 -0.0104910135 -0.065626666 -0.0004682988 -0.06266436 -0.06335154
-0.04034996 -0.022098735 0.10831101 -0.0061266124 -0.021029428 -0.012868002 -0.042910963 -0.07481854
-0.10048789 -0.083723575 0.014509618 0.11702299 0.088379994 0.06063977 -0.08800177 -0.03021732
-0.0030066818 0.07342106 -0.06958881 -0.020973101 0.040156677 -0.039812952 -0.10989432 0.10435206
0.11214702 -0.115206555 -0.037323013 0.0022762865 -0.10083313 -0.02502361 -0.054389328 -0.0037100166
0.049598187 0.098769575 0.11001825 0.08637968 0.06617144 0.02493018 -0.061149195 0.008133829
0.0024179518 0.118247196 -0.06319223 -0.053830013 -0.022245616 -0.059196815 0.08828165 0.018546581

lstm_cells.0.W_in.bias f4 [64]
00000000: 3ab7 9c3d 9893 2e3d c0da 993b 207e ca3d
00000010: 082a c73c 381f b9bd 14fc 963d f0a9 983c
00000020: 48e6 4e3d 4efe ae3d 9c79 dd3d 1cce b93d
00000030: 94d1 abbd b285 a83d f641 e43d 401b cd3c
00000040: 349b 0ebd 686c d53c 9087 f4bd 1048 12bc
00000050: 2094 e5bc 2899 c6bd 0800 2a3d 8c21 5c3d
00000060: 68c1 f4bd 3cf3 703d a449 6abd 4620 963d
00000070: 8415 4fbd b404 62bd 4a29 b7bd 1038 353d
00000080: 7e95 e53d b8ec cd3c 6c46 a1bd d2d4 813d
00000090: 00db 3b3d a801 213d 5cf6 cabd 88ce 9ebd
000000a0: a47e e2bd 6c6c 013d 1624 89bd 2ca0 02bd
000000b0: 84c9 8dbd de93 ef3d 8059 623c 8c52 48bd
000000c0: c05b aebd fcb6 0b3d 4027 fcbd e0e7 49bc
000000d0: 8887 e03d 54fd 193d b0c9 4bbc 06a3 aabd
000000e0: 589e 23bd 8809 b3bc a08b dabd bc65 473d
000000f0: 2a74 97bd f8d7 e8bd 829b 823d e836 a7bd
0.07652135 0.042621225 0.0046952665 0.09887338 0.024312034 -0.09039158 0.07372299 0.01863572
0.050512582 0.085445985 0.10814211 0.09072515 -0.08389583 0.08228625 0.111453936 0.025037408
-0.034815982 0.026052669 -0.11939919 -0.008928314 -0.028024733 -0.09697181 0.041503936 0.05374293
-0.11950952 0.058825716 -0.057199135 0.073303744 -0.05055763 -0.055180266 -0.08943422 0.04424292
0.11210154 0.02513729 -0.0787476 0.063394204 0.04586315 0.03930822 -0.099102706 -0.077542365
-0.11059311 0.03159754 -0.06696336 -0.031891033 -0.06923202 0.11698125 0.013815284 -0.048906848
-0.08513594 0.034110054 -0.12312174 -0.01232335 0.109633505 0.03759511 -0.012438223 -0.083318755
-0.03994593 -0.02185513 -0.106711626 0.048681006 -0.073952034 -0.11369318 0.06377317 -0.081647694

W_h.weight f4 [64, 64]
00000000: 729e 363c 889f 0a3e 64fe 7fbc dae4 873d
00000010: c328 443d 9ede a53c ba79 4cbd 23fb 93bd
00000020: 3a54 07bd 2d13 553b 8b86 b43d e442 88bd
00000030: 0884 8dbd 3ac3 95bd d63f d8bc 3a2e 1b3d
00000040: 837a 93bd 13b0 85bd 9dbc 6fbc 2ac4 cbbd
00000050: 2c57 193d 5845 ed3d e72f f73d 4b36 e6bd
00000060: edd9 c33c b875 a43d 3b61 93bd 33b2 91bd
00000070: 884e d0bd a3b9 943b c264 c03d afe2 c73d
00000080: 47c8 20bd 2834 863d ba8d f43d 85e5 8a3d
00000090: 9d0e dbbd 0463 cd3d 1676 8cbd c926 7dbd
000000a0: 655b 20bd 0db9 073e eb4d 57bc 95d8 49bd
000000b0: 450e c0bd 97d6 86bd b900 0e3b ecd4 1fbd
000000c0: 2690 db3d b7ca 9dbc 7a0f c0bd 96ac ec3d
000000d0: 6c6f 92bd 3d7a 31bd 760f 06be 3199 8fbd
000000e0: 3232 b93d 86c7 0a3d f00c 4dbc 626c e13b
000000f0: 7bb5 703c 7d5b f33d d6ef 46bd 5876 9ebc
00000100: 32d3 8ebd 8dea 0ebc 40d1 ce3b 8e02 c83d
00000110: a320 d9bc 9d47 6d3d 0f92 0ebc de8b a7bc
00000120: 2f8e 50bb 0d57 ad3d 7bf5 d9bd 6591 4b3d
00000130: 9d63 10bd 58ca eebd 4af4 debd 4a9a 363c
00000140: 7278 89bd 44ed 443d a8b2 a03d 14a0 b6bd
00000150: 27c5 d23d 53f6 c8bd e246 e8bc 7579 94bd
00000160: 1f18 b83d cad4 5dbc ce7a b93d 2618 e73d
00000170: 6b25 803c 9459 29bd 6477 a5bd ae59 9dbd
00000180: b4ce 08bc 2751 64bd 8900 87bd ed86 4abd
00000190: 5d5e 5a3b b4f7 7b3d a62a 36bd bb27 88bb
000001a0: 605c 733b d4bd 5abc 1b3b bcbd 9a17 34bc
000001b0: 8b3e 323d 22bd 943d 7e58 51bc 2ffc ecbb
000001c0: cba3 6a3d 493b fc3d b484 f53d 99ed 85bd
000001d0: 00bb abbd c706 03bb 2d21 b23b 92d8 d93d
000001e0: 65f3 3abd 193a 893d 88dc fbbd 253f a13a
000001f0: 81c8 bfbd 3d40 90bd 468c 553d 1d6e fcbd
00000200: 253f ac3d 04ee 0abd 8bb3 92bd 6b51 79bd
00000210: 6f5f 36bc 2aa1 6abd 5b05 4e3d ef35 efbd
00000220: 3e55 073b ee9d 243d 2e7b eebd 96fa 973d
00000230: 0126 e6bd b646 663d 4317 c93d 6504 f8ba
00000240: 67f4 d5bc 237f 34bd 73fa 8ebc f9a5 e9bd
00000250: 4a25 b3bc 890d 2e3d 150e cd3d 5ee4 a43c
00000260: 7821 96bd 2cb8 9c3d 798b c2bd 70dc 3ebd
00000270: 267c 22bd 160f b0bd 3bab 89bd 5a99 3e3d
00000280: 7110 053d c0f2 643d aaa9 5cbb d95b ccbc
00000290: 35d7 59bc f520 09bd d283 97bd a37e 79bd
000002a0: 6fef 70bd 9a72 3cbd b5bc 973d 76ae 853c
000002b0: bb77 f93c a05d fd3d 4000 513d 1131 003d
000002c0: fe9b 2c3d cd33 90bd 5853 e33d b87f 803d
000002d0: 177d 41b9 2858 d83d 757b 48ba 52ec 92bd
000002e0: 2aef b33d 7cde 533d 16fd cb3d 78cb 5f3d
000002f0: 8dc7 d53d 2246 d9bd 2dd7 06bd 1c63 e33c
00000300: 8c1e 2f3d 79fb 8cbd a7fe b6bd b042 073e
00000310: 6876 bb3d 735a 9b3d bd4f e63d 8eda cb3d
00000320: 6b4e c63d 386b 7bbd f665 fabd ade5 b53d
00000330: 0fa4 b1bd 1e97 d43d 0ae4 b53b 47e7 6f3d
00000340: f072 ee3d 732a b1bd 9c4d b1bd a10c c2bd
00000350: e6c5 a2bd 0ab9 a53d b4c9 113d fc82 e6bd
00000360: 38a7 92bd 0152 063d c874 8a3d cc28 84bc
00000370: 62fe ce3b 2c19 84bc f8d4 a5bd 3451 05bd
00000380: 498b 2b3b 203a f0bc 963e 5d3d e313 9bbc
00000390: d9b3 3d3d fef1 db3d 2f3d dabd 5c11 37bd
000003a0: a432 10bd 3274 163d 1f68 29bc 04fb c73c
000003b0: 8425 053e 72d6 0b3d 12c1 72bd 72e6 1dbc
000003c0: bed2 cebc 7bc8 e43d d678 02bd 7c2d b5bd
000003d0: a7b8 74bc 31a9 373d f638 49bc b446 e7bd
000003e0: c9eb debd 3cab db3d f688 1dbc 5244 06bd
000003f0: 21bd a6bd de49 febd a117 683d 3fe4 9abd
0.011146175 0.13537419 -0.015624616 0.06635447 0.047890436 0.020247754 -0.049920775 -0.07225635
-0.03303931 0.003251265 0.088147245 -0.066533834 -0.069099486 -0.07312627 -0.026397627 0.037885882
-0.07201102 -0.06527724 -0.014632371 -0.09949525 0.03743665 0.11585492 0.120696835 -0.11240824
0.023907626 0.080302656 -0.071962796 -0.07114067 -0.10171229 0.004538731 0.09394218 0.09760033
-0.0392535 0.06552917 0.11941095 0.067820586 -0.10696147 0.10028651 -0.068584606 -0.061804567
-0.03914966 0.13254185 -0.013141136 -0.049278814 -0.09377722 -0.065838985 0.0021667911 -0.039021417
0.107208535 -0.019261701 -0.09377952 0.11556356 -0.07150158 -0.043329466 -0.13091835 -0.07011641
0.09042777 0.033881687 -0.012515292 0.0068793753 0.014691706 0.118826844 -0.04856857 -0.01934354
-0.06973876 -0.008722913 0.0063115656 0.09766112 -0.02650482 0.057929624 -0.008701815 -0.020452436
-0.003182303 0.08463869 -0.10642525 0.049699206 -0.03525125 -0.11659688 -0.10886438 0.011145184
-0.06712426 0.048077837 0.07846576 -0.08917251 0.1029151 -0.098126076 -0.028354112 -0.072497286
0.08988976 -0.013539502 0.09056626 0.11283903 0.015642842 -0.041345194 -0.080794126 -0.07683121
-0.008350063 -0.055741455 -0.06591899 -0.04944508 0.0033320405 0.061515525 -0.044474266 -0.004155127
0.0037133917 -0.013350923 -0.09190961 -0.010991955 0.043516677 0.07262637 -0.012777446 -0.007232211
0.05728511 0.12315995 0.11988202 -0.06539459 -0.08385277 -0.0019993053 0.005436084 0.10637011
-0.045642275 0.067005344 -0.122979224 0.0012302144 -0.09364415 -0.070435025 0.05213573 -0.1232569
0.08410481 -0.033918396 -0.07163151 -0.06086866 -0.011131152 -0.057282604 0.050298076 -0.11680209
0.0020650174 0.040189676 -0.116445884 0.07420842 -0.112377174 0.05621978 0.0981889 -0.0018922208
-0.026117517 -0.04406656 -0.017453408 -0.1140861 -0.021868367 0.042493377 0.100124516 0.020128425
-0.073306024 0.076523155 -0.094992585 -0.046596944 -0.03966918 -0.085966274 -0.06722113 0.046532966
0.032486383 0.055895567 -0.0033670464 -0.02494614 -0.013295938 -0.033478696 -0.073981896 -0.060911786
-0.05882209 -0.04600773 0.0740904 0.016318541 0.0304526 0.12371373 0.05102563 0.031296793
0.042140953 -0.0704113 0.11099881 0.062743604 -0.00018452514 0.105636895 -0.0007647791 -0.07173981
0.08785851 0.05172585 0.09960382 0.054637402 0.10438452 -0.1060908 -0.03292005 0.02775722
0.04275374 -0.06883902 -0.0893529 0.13209033 0.091534436 0.07585611 0.112456776 0.099537954
0.09682926 -0.06138155 -0.12226479 0.08881698 -0.0867387 0.10380386 0.005550866 0.058570173
0.11643016 -0.08650675 -0.08657381 -0.09475065 -0.079479024 0.08091934 0.03559275 -0.11255452
-0.07160801 0.03279305 0.067605555 -0.016132735 0.006316946 -0.016125284 -0.08097261 -0.032548144
0.002617555 -0.029324591 0.054014765 -0.018930381 0.046314094 0.10739516 -0.10656201 -0.04469429
-0.035204545 0.036731906 -0.010339766 0.024411686 0.13002592 0.034140058 -0.059266157 -0.009637462
-0.025246974 0.11171051 -0.03185352 -0.08846566 -0.014936603 0.044839088 -0.012281647 -0.112927824
-0.10884816 0.1072602 -0.009615174 -0.03278 -0.08141542 -0.12416433 0.05666316 -0.07563066

W_h.bias f4 [64]
00000000: 84d3 b0bb 3cd2 78bd d4ff e53d 4dee e3bc
00000010: 55c2 063d 7f67 d93d b874 f13d f116 593c
00000020: 5fc7 b1bd d6d6 e7ba 7373 aa3d 5990 57bd
00000030: 39ac febd a40e 783d a21c e03d 53b9 5dbd
00000040: eebf fa3c c790 8bbc 7b39 07bc 4766 38bd
00000050: f42d 93bd 0ee2 b63c bd17 cebd c945 8abd
00000060: 6d94 5f3d d4dd 013c d140 a43d 346f a1bd
00000070: fdf2 34bc 63b2 ca3d ebeb 82bd e500 113d
00000080: 3946 a23d 143d 853c d9de 193d 3473 b6bd
00000090: 9d0b 653c d7d8 c9bd ea31 973c 58c8 dfbc
000000a0: e7e0 ff3d 7111 343d 3397 fb3d 9098 00bd
000000b0: 7118 66bd b27a b0bd 1e7e 91bd 227b 45bd
000000c0: 7256 9c3d 399f 88bd c5a4 1238 54a4 d83d
000000d0: 979a c73d aa1a febc 83d5 91bb 87d2 0f3d
000000e0: c0f6 fabd 1c9f ecbd f36d 923a 024e e5bd
000000f0: 19c3 9f3d f030 07bd b18b 0bbd 38aa a03d
-0.0053963084 -0.06074737 0.11230436 -0.027823592 0.032900173 0.106154434 0.117898405 0.013250099
-0.08680605 -0.0017687927 0.083228014 -0.052627895 -0.124351926 0.060560837 0.10942961 -0.054131817
0.030609097 -0.017036809 -0.0082534505 -0.045019414 -0.07186499 0.022324588 -0.100631215 -0.06751592
0.05458491 0.007926423 0.08020175 -0.078825384 -0.011044261 0.09897306 -0.06392654 0.035401244
0.0792355 0.016264476 0.03756604 -0.08908692 0.01397982 -0.09855812 0.018456418 -0.027317211
0.124940686 0.043961946 0.12284698 -0.031395495 -0.056175653 -0.08617152 -0.07104133 -0.04821313
0.07633676 -0.06670994 3.4962566e-05 0.10578218 0.097462825 -0.031018574 -0.0044505014 0.035112884
-0.12254095 -0.11553785 0.0011171683 -0.111965194 0.07800884 -0.033005655 -0.034068767 0.07844967

W_g.weight f4 [64, 64]
00000000: 555a b03d 57dc 28bd 5777 af3d a513 903d
00000010: c6eb 85bc 8db7 3c3d 9fad 913d aca0 e33c
00000020: 8d90 99bd 4b8f 1dbd 0184 a1bd 070f c0bd
00000030: 69b8 6d3d 472a 94bd 8f5f cdbd ab90 34bd
00000040: 1cdb e93c 4d91 bfbd 3dfe e5bd 3172 a93d
00000050: b970 633d ac7f a53c c11f 213c dfaf 32bc
00000060: c38d 943d b12e c9bd 21e5 efbd 9b2e 783d
00000070: ad9d 6d3d 0768 e43d 7642 87bc 3f0c e6bb
00000080: d965 863d 57c1 953d 89bb a4ba f04b 7fbd
00000090: a518 ec3d 39a2 bf3d df7f c63d db6a fa3d
000000a0: ddab 8ebd cc42 f1bc 4960 eabd fbe9 ac3d
000000b0: 91af e73d af39 8fbd 8572 c0bd 9ba2 fa3d
000000c0: 834b bcbd 1987 bd3d 0167 093d a9e6 e9bd
000000d0: e73d 08bd c5b7 dabd 8ba9 13bd a5d3 d7bd
000000e0: 95f7 053d 770a 903a 813c 263b 77ea 8e3d
000000f0: 6449 d0bc 8fbc 1dbd 156b b9bd 1b2b 86bd
00000100: 1bd6 eb3d 401a 653d 6ce7 633d f461 41bd
00000110: bc2a 3a3d 6425 5cbd e416 283d 94ef 4ebd
00000120: ccba 1ebb 4772 9b3d 4240 ecbc 7089 1bbd
00000130: ff14 a3bb dcdd 47bd 9ee7 a13c 5ca1 773d
00000140: 229b b8ba 1e30 b43c 28c2 59bd 3f6b 86bd
00000150: 774c 993d d5dc 87bd 956a 3fbc 5799 8abd
00000160: 9961 e6bd fdab dd3d 7ffc 95bb 7f41 f33d
00000170: 7de1 e13d f94a a23d 8569 b8bd 466a 54bb
00000180: a395 f5bd bf78 86bd 5167 9ebd cd73 793c
00000190: e466 68bd 141f 52bd f85d 69bd cb0b b2bd
000001a0: fe99 d13c 4bd5 c9bd 077a a3bd 1f5c a4bd
000001b0: ff30 f6bd ab63 d53d a344 bb3d cb52 593c
000001c0: bf3f e5bd 509a 223d 9045 53bd e907 ad3d
000001d0: fbea e73d bc56 22bd 8d2f edbd 2b38 afbd
000001e0: 847a 11bd e346 953d e574 23bc 048d 25bd
000001f0: c6d7 b63c 2d65 acbd 370a ad3d d5ba 50bc
00000200: 5388 d63d 8858 1cbb 2606 d83c 71b4 363d
00000210: 0989 c2bd 5d76 c63d 69c2 893d 99c6 443d
00000220: b7ab ec3b ff5b 53bd 81f6 893d ee6b 9d3a
00000230: d9cd d23d 62e1 813c 75dc bf3d 973f cdbd
00000240: 491a 843d b519 1a3c 4a78 813c d30a 903d
00000250: 15c0 92bd ddfb 33bc 35e4 d8bb 6d2f a63d
00000260: 59aa b9bd 5507 c93d 84db 7fbd ee37 cf3c
00000270: 8982 3c3d 75c4 003d 7b14 653d e269 ab3c
00000280: 129d 81bd 2e6b 33bc af4c 5d3d 9d96 753d
00000290: e5a0 593d 3db5 a63d e170 953d e1f1 0d3d
000002a0: 20ef 413c bfbb 903d 6a17 873c 5b82 56bd
000002b0: 53c3 83bd 3378 fdbd dfa0 df3d b5f5 483d
000002c0: 317c 143d 59c0 0ebd 1f04 09be 749f de3a
000002d0: de19 773d 2131 92bd 6188 14bd 6134 e63d
000002e0: 7bcd b9bd 24bb 1eba ac02 b93c 4562 f7bd
000002f0: a2ac e83c fb88 e1bd 3173 8a3d edd4 e0bd
00000300: 838c 1dbd a557 5b3d 99ea a23c 8864 bf3d
00000310: 7a76 d73b f01a c03d 0d6e 633d 8919 2f3d
00000320: afbf 8ebc b127 ce3c 00e8 f0bd f40e 9dbd
00000330: d9e3 6c3d fa20 e83d aa8b 82bd c513 2b3d
00000340: 8162 c83c 4515 5f3d 9195 623d a306 74bd
00000350: c86c bfbb 9409 a83d d2e7 7bbd fde4 7fbd
00000360: 55fc 2c3d e039 89bd 9348 4fbd 06ef 9abd
00000370: dbf8 4a3b 5404 9c3b f63f ce3d c047 86bd
00000380: 8541 033d 79eb e33c 649f aabd 846e 50bc
00000390: fa85 ef3d ba33 7dbd 3658 cebd aa3f 93bd
000003a0: 00af 973d ad96 473d b5d5 9d3b 0c9e 303c
000003b0: fc87 1b3c 2c68 2e3c 9f7e 07bd b29a a53d
000003c0: b004 81ba 95f5 45bb 0024 cc3d 4c97 d3bd
000003d0: 1731 843b 359b 663d 0949 77bd b63d b8bd
000003e0: 598d 583d 191d 6abb 8e08 a13d 8268 0abc
000003f0: d2aa e63d 5f90 12bd 760a 9cbd d250 8ebd
0.086109795 -0.041225757 0.08567684 0.07034997 -0.016347777 0.046073485 0.07113194 0.027786575
-0.07498274 -0.038466733 -0.07886506 -0.09377866 0.058037195 -0.07234626 -0.10027992 -0.04408328
0.028546862 -0.09353886 -0.11230133 0.082737334 0.055527423 0.02020248 0.009834231 -0.010906189
0.072536014 -0.09823359 -0.11713625 0.06059132 0.0580117 0.11152654 -0.016511183 -0.007020503
0.06562395 0.07312267 -0.0012568097 -0.06232828 0.11528138 0.093571134 0.09692358 0.12227412
-0.06966374 -0.029450797 -0.11444146 0.08443066 0.113127835 -0.06993424 -0.09396843 0.12238046
-0.0919409 0.092542835 0.033545498 -0.11420948 -0.03326216 -0.106795825 -0.03605036 -0.10538415
0.032706816 0.0010989447 0.0025365653 0.06978314 -0.02542562 -0.0385099 -0.090536274 -0.065511905
0.11515447 0.055933237 0.055640623 -0.047212556 0.04545091 -0.053746596 0.041037455 -0.05052145
-0.0024220226 0.07590156 -0.028839234 -0.037972867 -0.004976868 -0.048795566 0.019763764 0.06045662
-0.0014084319 0.0219956 -0.053163677 -0.06563424 0.07485288 -0.06633917 -0.011683126 -0.067675285
-0.11249084 0.1082382 -0.004577219 0.11877727 0.110293366 0.07924456 -0.09004501 -0.0032411977
-0.119914316 -0.06565999 -0.0773455 0.015225363 -0.05673875 -0.05129917 -0.05697438 -0.086936556
0.025586125 -0.098551355 -0.07982259 -0.08025383 -0.12021064 0.10419401 0.09143951 0.013264368
-0.11193799 0.039697945 -0.05158001 0.08448774 0.11324116 -0.039633498 -0.11581335 -0.08555635
-0.03551723 0.07288911 -0.0099766 -0.040417686 0.022319686 -0.08417735 0.08449214 -0.012739857
0.104752205 -0.002385648 0.02637012 0.044605676 -0.09498794 0.09690545 0.06726534 0.04804096
0.0072226184 -0.051601406 0.0673647 0.0012010315 0.102931686 0.015854541 0.09368221 -0.100218944
0.06450326 0.009405543 0.015804429 0.070333146 -0.07165543 -0.010985342 -0.0066190013 0.081145145
-0.09065694 0.098158516 -0.062465206 0.025295224 0.046022926 0.031437356 0.055927735 0.020924512
-0.06328787 -0.010950847 0.05402821 0.05995809 0.053131957 0.08140037 0.072969206 0.0346545
0.011836797 0.0706706 0.016490657 -0.05237041 -0.064337395 -0.12376442 0.109193556 0.04906245
0.03625125 -0.034851406 -0.13380478 0.0016984777 0.060327403 -0.07138277 -0.036262874 0.11240459
-0.090723954 -0.0006055108 0.022584282 -0.1207929 0.02840263 -0.11012455 0.06760252 -0.10978112
-0.03846408 0.05355038 0.019887256 0.09345347 0.006575403 0.09380138 0.055524874 0.04274896
-0.017425386 0.02516541 -0.117630005 -0.07668868 0.05783448 0.11334415 -0.06374295 0.0417669
0.024461033 0.054463644 0.05531842 -0.05957664 -0.005841825 0.08204952 -0.061500378 -0.06247424
0.04223283 -0.06700492 -0.05060632 -0.07565121 0.0030971083 0.004761258 0.10070793 -0.06556654
0.032044906 0.027822243 -0.083311826 -0.0127216615 0.11695476 -0.06181691 -0.10075419 -0.07189877
0.074064255 0.04872768 0.0048167356 0.010779869 0.00949287 0.010644954 -0.03307974 0.080861464
-0.0009843316 -0.0030206193 0.09967804 -0.10331592 0.0040341723 0.05630036 -0.060372386 -0.089961454
0.052869175 -0.003572291 0.0786296 -0.008447768 0.1126305 -0.035782214 -0.07619183 -0.06949009

W_g.bias f4 [64]
00000000: 166e 933d 4105 c0bc 6e29 6dbc f8a7 d2bd
00000010: d993 4abd b72c 9ebd 5f34 b33b fe7a f4bd
00000020: 9501 f73d 6835 af3d 4085 84bc 017b 38bd
00000030: 55b5 d73d 8803 ee3d fef9 3dbd 693b c9bc
00000040: d3e0 bc3d 5d88 873d b6ce a9bd fb6d 9a3d
00000050: 4a1c b9bd 2e7c a53a 20c2 1a3d 1f63 83bc
00000060: e402 e6bd f5b6 d6bd bf6b 91bd 6ba4 543d
00000070: a5cc 90bd c747 dabd d3b4 70bd 1920 193d
00000080: 4140 cebd 406d b83d dc6d d83d c0a8 c73d
00000090: 4617 83bd 5ccc 013e e2e5 d9bc cde0 c2bd
000000a0: c210 383d 0573 073d b674 9f3c 5050 35bd
000000b0: 79e5 3fbd 6c4d f03d 54be da3d 9711 92bd
000000c0: 0e85 ffbd 5922 debd b907 df3d e5ad 423d
000000d0: 5a56 103c 0979 82bc 28af 9e3d 4146 a7bc
000000e0: 7fbe 94bc 0047 b83d 7919 93bd 4714 80bd
000000f0: f476 423d bdf6 2e3b cf8c d13d c281 aa3d
0.071987316 -0.023440005 -0.01447521 -0.10285944 -0.049457405 -0.077233724 0.0054688896 -0.119375214
0.120608486 0.08555108 -0.01617682 -0.04503918 0.10532633 0.11621767 -0.04638099 -0.024564462
0.09222569 0.06617806 -0.0829138 0.07540508 -0.09038599 0.0012625509 0.03778279 -0.016038476
-0.1123102 -0.10484115 -0.07100629 0.051914614 -0.07070283 -0.10658222 -0.058766197 0.037384126
-0.10070849 0.09005213 0.10567829 0.097489834 -0.064009234 0.12675613 -0.026598874 -0.095155336
0.044937856 0.033068676 0.019464832 -0.044266045 -0.0468497 0.11733517 0.106808335 -0.07132261
-0.1247655 -0.10846395 0.10890145 0.04752912 0.00880965 -0.015926855 0.07748252 -0.020419242
-0.018157242 0.08997917 -0.07182593 -0.062538676 0.047476724 0.002669736 0.10231935 0.083255306

W_x.weight f4 [64, 1]
00000000: ebf2 7b3f 6cc8 03bd 11e2 b73e e47b 503f
00000010: 24de 6c3f 8e2b 523e 23b9 953e f5f0 2a3b
00000020: 58d4 2dbe 119e 7abf 4030 763f a839 2cbf
00000030: 446b 66bf ceff 14be 2bb5 64bf 663c 603f
00000040: b4c6 733f 2e1e d3be afc5 1e3f f5ae 8cbe
00000050: f8cc 943c 133f 5abf da90 61bf 96c8 373f
00000060: a11d 7f3e 227d 8d3d caaa e8bd a46f 793f
00000070: f04c 603f 1b1b e1be 9a64 f83d f8e0 4bbf
00000080: 1c20 3e3f 207d 3cbf 8bc4 01bf 2c1e 0c3f
00000090: 6c09 76be 134a 7f3e 4aa3 423f 4426 c63e
000000a0: 03f2 ddbe 55db 2bbf 2a2b 47bd 8d5c 783f
000000b0: 95ab 493f 7fb1 733f 061f 0c3f 56d1 55bf
000000c0: d70a 8e3c 78b4 b3ba dbaf dcbe 9d7b 2cbd
000000d0: 6966 103f 33ad 2cbf 97ac 6fbe 4cc0 3e3f
000000e0: 2df0 f03c 3251 f1bd b200 043e 8a1e 62bf
000000f0: 75f7 a73e b445 4d3f 5bb3 223f 7912 433f
0.9841754 -0.03217356 0.35914662 0.8143904 0.9252646 0.20524427 0.2924281 0.0026083563
-0.16975534 -0.9789744 0.96167374 -0.67275476 -0.90007424 -0.14550707 -0.8933894 0.8759216
0.9522507 -0.41233963 0.6202039 -0.27477232 0.018164143 -0.85252494 -0.8811165 0.71790445
0.24913646 0.06908633 -0.113607004 0.97435975 0.876174 -0.43965992 0.12128563 -0.7964015
0.74267745 -0.73628426 -0.50690526 0.5473354 -0.24027032 0.24930601 0.7603041 0.3870107
-0.43348703 -0.6713155 -0.04862515 0.9701622 0.7877744 0.9519271 0.5473484 -0.83522546
0.017339153 -0.00137104 -0.43102917 -0.042110074 0.56406265 -0.6745178 -0.23405682 0.7451217
0.0294114 -0.11783065 0.1289089 -0.8832785 0.32805982 0.80184484 0.63554925 0.7620006

W_x.bias f4 [64]
00000000: e857 033f 1098 c2be 6895 c3be adaf 16be
00000010: 03a7 873e 3960 b7be ca86 213f 672f 39bf
00000020: b706 773e 4f10 4a3f 55cc 113f cf11 65bf
00000030: 5ce0 e5be 6d29 083f 7853 69bf 9301 5fbf
00000040: 9ed1 20be d20c 2a3d 55c4 823d beab 4b3f
00000050: 968c 6ebf df8c 333f 9c72 21be 183a d9be
00000060: 2893 64bf f2a0 34bf b1ab 85be 2974 9f3e
00000070: 3233 d9be 26cf d23c aaea 3ebf fe33 84be
00000080: ffdc 3ebf ccd1 5f3f 51c3 60be 2033 f4be
00000090: 8a0c 0f3f fc72 79bf 0549 9abe bae2 f33e
000000a0: 11c6 9d3e cf58 713f a1b7 f03d e17f 0dbf
000000b0: 0ed7 7a3f 3341 6d3f 501c 81be d748 36be
000000c0: d3c2 f03e 9a46 943c b1e9 083f 1ae1 473e
000000d0: 2199 49bf aaca b0bd e646 3e3f f4e5 76bf
000000e0: 1148 563e ad28 1abf e7b3 48bf 9b8e b73e
000000f0: 233f d4be 97c5 4ebf 71f3 ddbe f4f7 4b3f
0.5130601 -0.3800664 -0.38199925 -0.14715452 0.26494607 -0.358156 0.63096297 -0.72337955
0.24123655 0.78931135 0.5695241 -0.894803 -0.44897735 0.5318821 -0.9114299 -0.8711178
-0.15704963 0.041516133 0.063851036 0.7955893 -0.9318327 0.7013683 -0.15766376 -0.42427135
-0.8928704 -0.70558083 -0.26107553 0.3114331 -0.4242187 0.025733542 -0.7457682 -0.25820917
-0.74555963 0.874295 -0.21949507 -0.47695255 0.5587851 -0.9744108 -0.30133834 0.47633916
0.30815175 0.94276136 0.117537744 -0.5527325 0.979844 0.9267761 -0.25216913 -0.17801224
0.4702364 0.018100072 0.53481585 0.19519463 -0.7874928 -0.08632405 0.7432693 -0.9644463
0.20925929 -0.60218316 -0.7839951 0.35850987 -0.4145442 -0.8077025 -0.43349794 0.7967522

W_1d.weight f4 [1, 64]
00000000: 5fbb 9f3d 5baf 82bd cd42 653b 1385 24bd
00000010: d862 1c3d 1b4c 02bd 9c20 c33d 948b eaba
00000020: 3066 583d 5ae9 0cbd 784c 1bbc 12eb 7d3d
00000030: 97d3 6f3d 5032 73bd ca27 b7bc 9155 72bd
00000040: a23a 193c 9296 3ebd 7c97 033d 2b2b 0dbd
00000050: b4ec 85bd e8ad 923c 9bba afbd 1861 773a
00000060: 629a 94bd 9f83 d5bd 79dd bb3c db23 4ebd
00000070: c0d7 84bd 6ba4 c0bd 95da dc3d 84c1 0e3d
00000080: d43a 00bd 8a01 abbd 8ac5 353d b0b0 a03b
00000090: 0a3b 51bb 0411 d23c 9dc3 a73c 07d2 9f3d
000000a0: ca61 8abd 6df6 923d 04cc bdbd 8943 a13c
000000b0: 8c40 6bbc 2551 0abd 877d 5d3d d32d d5bb
000000c0: c03b 0d3d 9aa3 ad3d 90d0 50bd ea25 143d
000000d0: e003 de3d e115 593c 7930 fdbc 590b c83d
000000e0: 0985 95bd 8c11 26bd 43a7 2f3a 4b76 ba3d
000000f0: c2a3 eb3d faaa 493d c68f e03a 10f5 d8ba
0.0779941 -0.06381103 0.0034982443 -0.040165972 0.038180202 -0.03181086 0.09527704 -0.0017894381
0.05283183 -0.03440223 -0.009478681 0.06199176 0.058551397 -0.059374154 -0.02235784 -0.059163634
0.009352358 -0.046530314 0.03212689 -0.034464996 -0.06539288 0.01790519 -0.08580514 0.00094367703
-0.07256009 -0.10425495 0.022932755 -0.050327163 -0.064864635 -0.0940636 0.10783879 0.03485252
-0.031306103 -0.08349903 0.04437784 0.0049038753 -0.003192606 0.02564288 0.020479018 0.078037314
-0.06756933 0.07175908 -0.092674285 0.019685524 -0.014358651 -0.03376879 0.05407479 -0.006505707
0.03448081 0.0847847 -0.05098015 0.03616897 0.10840583 0.013249845 -0.030906903 0.097677894
-0.07300765 -0.040544078 0.0006700644 0.09104594 0.11505844 0.04923532 0.0017132692 -0.0016552527
