model_weight/best_FINLAND_model.pth (torch, 73885 bytes, 14 tensors)

lstm_cells.0.b_c f4 [64]
-0.040476747 0.018026428 -0.01400283 -0.004258689 0.0055223806 0.015898915 0.005533443 0.0048966245
-0.019404978 0.015040763 0.03129356 0.03272173 -0.026512895 0.012407656 -0.019143185 -0.00040527768
0.010132371 -0.010803551 0.015373446 0.0034166607 -0.012123825 -0.008422972 -0.006509877 -0.010323003
-0.01035672 0.025751071 0.022788936 -0.035664987 -0.01302252 0.0047078193 -0.0068417 0.008942487
0.0036555459 -0.0019805613 -0.008397303 -0.0037423256 0.025467498 -0.010947941 0.015984152 0.013997249
-0.0026280354 -0.002963833 -0.0034248 -0.0021470424 0.01880758 -0.0090780435 0.010872572 0.011490529
0.015212921 0.010213969 0.012115561 0.023333188 0.028720798 -0.014199853 0.009982762 -0.002284679
-0.0064061047 -0.008482891 0.001999325 -0.012321607 -0.02900941 -0.004705348 0.008140817 -0.008189354
00000000: f2ca 25bd 29ac 933c 206c 65bc 798c 8bbb
00000010: 16f5 b43b 713e 823c e251 b53b dd73 a03b
00000020: 30f7 9ebc 886d 763c ad2d 003d 3907 063d
00000030: 9231 d9bc 7b49 4b3c 2bd2 9cbc 737b d4b9
00000040: 3f02 263c 6101 31bc e8e0 7b3c 0eea 5f3b
00000050: 02a3 46bc 8100 0abc ce50 d5bb d021 29bc
00000060: 3baf 29bc e9f3 d23c ddaf ba3c 7315 12bd
00000070: 685c 55bc 0d44 9a3b 5730 e0bb 8283 123c
00000080: e291 6f3b 4ecc 01bb d794 09bc ce41 75bb
00000090: 37a1 d03c fe5e 33bc 32f1 823c b854 653c
000000a0: 1e3b 2cbb de3c 42bb 9c72 60bb 65b5 0cbb
000000b0: 5b12 9a3c 13bc 14bc df22 323c c642 3c3c
000000c0: 9e3f 793c 7e58 273c 5980 463c 3e25 bf3c
000000d0: e147 eb3c 80a6 68bc bd8e 233c 8eba 15bb
000000e0: 4dea d1bb d3fb 0abc 1b07 033b 91e0 49bc
000000f0: 24a5 edbc 522f 9abb 1061 053c a42c 06bc

lstm_cells.0.W_ic.weight f4 [64, 1]
-0.24540736 0.7262658 -0.5055402 0.33840227 0.021545766 0.021901919 0.4648439 0.35568166
0.07651127 0.6908671 0.8433955 0.44339377 -0.5928304 -0.44914404 -0.78258544 -0.64417785
-0.21488862 0.48762858 0.3879124 0.27320978 -0.9650776 -0.7615364 -0.58056897 0.15570626
0.06465413 0.7088078 0.73806596 -0.24161677 0.31537092 0.2819941 0.017133823 0.36440265
-0.15764034 -0.47707945 -0.19846572 0.048054606 0.47791275 -0.5597906 0.626634 0.098250896
-0.9485313 -0.0065097264 -0.2534964 0.10361522 0.32170844 -0.90534854 0.30828753 0.04323816
0.48603407 0.57463235 0.87408036 0.8870944 0.6825073 -0.56406826 0.7926883 -0.13237962
-0.61455745 -0.58247703 -0.5336586 -0.6086742 -0.49308407 -0.5241608 -0.15051392 0.6011016
00000000: 114c 7bbe 8eec 393f 156b 01bf 1043 ad3e
00000010: bf80 b03c a76b b33c 0500 ee3e e81b b63e
00000020: f1b1 9c3d abdc 303f c4e8 573f 8204 e33e
00000030: bcc3 17bf 35f6 e5be 8557 48bf d7e8 24bf
00000040: c30b 5cbe 74aa f93e 749c c63e 27e2 8b3e
00000050: 530f 77bf 0df4 42bf 2ba0 14bf 7671 1f3e
00000060: 6269 843d 6e74 353f e4f1 3c3f 636a 77be
00000070: 4c78 a13e 8861 903e 3b5c 8c3c fc92 ba3e
00000080: 786c 21be c243 f4be 993a 4bbe e8d4 443d
00000090: fbb0 f43e 704e 0fbf 166b 203f c437 c93d
000000a0: f3d2 72bf 8b4f d5bb 48ca 81be 3734 d43d
000000b0: f8b6 a43e ecc4 67bf ddd7 9d3e 7f1a 313d
000000c0: 75d9 f83e 1b1b 133f bbc3 5f3f 9e18 633f
000000d0: ccb8 2e3f c766 10bf 9fed 4a3f 868e 07be
000000e0: a353 1dbf 371d 15bf da9d 08bf 13d2 1bbf
000000f0: 8475 fcbe 672f 06bf 5220 1abe cbe1 193f

lstm_cells.0.W_ic.bias f4 [64]
0.8322379 -0.9569528 0.7581013 0.12134099 0.27319992 -0.6113005 0.60310316 0.4776363
0.9135892 -0.55040544 -0.39059952 -0.937005 0.94421566 -0.81654763 -0.06641758 -0.60831136
-0.7147927 0.8853361 -0.31964692 0.4278101 -0.68874013 -0.99029386 -0.3596494 0.7513571
0.034221012 -0.10177035 -0.37647998 0.902144 0.66372263 -0.310527 0.20907672 0.016669411
-0.36601338 -0.5276737 0.1508559 0.22251436 -0.18298467 0.7281328 -0.5784443 -0.8948942
-0.72379106 0.5679573 -0.39761096 0.66420543 -0.7149104 0.057783235 -0.08697901 -0.73626256
-0.50378627 -0.1011972 -0.36555785 0.07006102 -0.8462787 -0.10713493 0.373514 0.1333914
-0.5859145 -0.15000859 0.10053331 -0.30609494 -0.013801518 -0.96659327 -0.44096407 0.23553494
00000000: 8b0d 553f dcfa 74bf ed12 423f a081 f83d
00000010: dce0 8b3e 317e 1cbf f864 1a3f bf8c f43e
00000020: fbe0 693f 5fe7 0cbf a9fc c7be 8fdf 6fbf
00000030: 1eb8 713f 4409 51bf f105 88bd 4bba 1bbf
00000040: a8fc 36bf 63a5 623f c3a8 a3be ed09 db3e
00000050: 4651 30bf e683 7dbf f723 b8be f058 403f
00000060: 552b 0c3d f96c d0bd fcc1 c0be e9f2 663f
00000070: bae9 293f 65fd 9ebe 3518 563e 4a8e 883c
00000080: 1b66 bbbe a015 07bf f879 1a3e ceda 633e
00000090: 5560 3bbe e966 3a3f ed14 14bf c917 65bf
000000a0: 5f4a 39bf a665 113f aa93 cbbe 5e09 2a3f
000000b0: 5e04 37bf 1dae 6c3d 0d22 b2bd b47b 3cbf
000000c0: 23f8 00bf 7a40 cfbd 662a bbbe 277c 8f3d
000000d0: b9a5 58bf 8f69 dbbd 3a3d bf3e c197 083e
000000e0: 7efe 15bf da9b 19be 68e4 cd3d 7ab8 9cbe
000000f0: c31f 62bc a872 77bf 0bc6 e1be 1230 713e

lstm_cells.0.W_hc.weight f4 [64, 64]
0.055336576 0.060376994 -0.0702752 0.0042870822 -0.056883715 0.040497735 -0.06454572 -0.11155051
-0.051896546 0.04447902 -0.07995034 -0.009860792 0.049496412 0.017437782 0.09079155 -0.032092545
0.06986053 -0.08533049 0.09237944 0.043033868 0.021844707 -0.095641166 -0.06961883 0.072619155
0.008536556 0.092066005 0.024555609 -0.014036586 0.013919221 0.012898489 -0.061429102 -0.016410366
-0.010990912 0.0469238 0.07407487 -0.025827352 0.15263326 0.014275069 0.033308055 0.14820947
0.061011467 0.009042378 0.030932676 -0.029540446 0.09526721 -0.090725295 0.067444175 0.10608371
0.06829489 0.07951064 0.1440711 0.04568925 0.15134297 -0.11679574 0.03166303 -0.14061272
-0.14650114 0.08880245 0.09116321 0.10808904 -0.103258915 -0.012778669 -0.030220756 -0.03085997
-0.10191161 -0.044624284 -0.10058995 -0.11544958 0.058679223 0.09524601 0.11018492 -0.04017472
-0.059093673 -0.02319039 -0.006587061 -0.108589254 0.07115623 -0.113646366 -0.097831145 -0.08130795
-0.04686397 -0.09897116 -0.113961674 0.13403106 -0.073702134 -0.035607196 -0.064277425 -0.06716149
0.09450474 0.018944899 -0.13687824 0.12939863 -0.07806776 -0.054238558 -0.038693447 -0.009611838
-0.060333546 0.01584007 0.014035588 0.07645954 -0.03174979 0.059175525 -0.015350568 -0.07446071
-0.12014789 0.08648653 0.024867885 -0.06050806 -0.12632143 0.1261478 -0.055796128 0.042862196
0.091731094 -0.07482548 0.03218415 -0.08358915 0.036771186 -0.088846095 0.04950479 -0.027838787
-0.05546334 -0.03323999 -0.028732918 -0.03215016 -0.10066296 0.09795898 -0.018485205 0.08433484
0.11574662 0.08763717 0.11057835 0.0832102 0.051221617 -0.103742905 -0.12228472 0.076582104
0.061638106 0.039907545 0.05008789 -0.067561485 -0.030744456 0.050387885 0.046754546 -0.095921606
0.11272969 -0.042298142 0.08951977 -0.043724503 -0.049236506 -0.040971998 -0.106301226 -0.11365785
0.10771377 0.043868054 0.10895947 -0.11707558 -0.08549073 -0.0047024447 -0.10890424 0.106555015
-0.032299146 0.07528741 -0.06913188 -0.07705033 -0.0083895475 0.087545276 0.09680209 0.11901494
0.06380133 -0.016715871 0.05313247 0.037308227 -0.08133598 0.0031632155 -0.09146671 -0.046219088
-0.023316773 0.09139029 -0.002755079 0.061827324 -0.11640458 0.07906922 0.023374204 -0.021355458
-0.048883777 0.0814155 -0.0561751 -0.007079645 -0.014573211 0.009811132 0.13594465 0.07931005
-0.052100003 -0.022658128 0.05146356 0.11315769 0.012699262 -0.10955839 -0.08599771 0.09014859
-0.03818998 0.10694835 0.04153708 0.06526671 0.022119462 -0.08397759 0.06055426 -0.016002195
-0.09038246 0.012743717 -0.048798133 0.062180888 -0.11142863 0.07306513 0.041088242 -0.044943757
-0.060411554 0.12305595 -0.11154848 0.060573086 -0.1057006 0.076317236 -0.0986996 0.012886638
0.08567577 0.08376247 -0.067479074 -0.1006777 -0.04615645 -0.0101213725 -0.007792384 -0.035901546
0.10831061 0.034329824 0.065902315 -0.099695764 -0.01623793 0.0912973 -0.111573406 -0.04880464
0.0036181721 -0.029759457 0.077360004 0.12601699 -0.11282883 -0.06687346 -0.061547227 0.014575948
0.03162049 0.03685171 -0.069989845 -0.07450955 -0.052214276 0.06660362 0.059895985 0.07554028
00000000: 9ba8 623d de4d 773d 72ec 8fbd a77a 8c3b
00000010: e6fe 68bd f4e0 253d 8c30 84bd 9874 e4bd
00000020: 7991 54bd a22f 363d 01bd a3bd 298f 21bc
00000030: c0bc 4a3d aed9 8e3c ecf0 b93d 7973 03bd
00000040: 0a13 8f3d c0c1 aebd 6f31 bd3d 4844 303d
00000050: acf3 b23c 84df c3bd 5194 8ebd 5ab9 943d
00000060: e9dc 0b3c 1a8d bc3d d828 c93c b5f9 65bc
00000070: 720d 643c 2f54 533c 159d 7bbd 086f 86bc
00000080: 3a13 34bc 2c33 403d 91b4 973d e293 d3bc
00000090: e54b 1c3e fbe1 693c 076e 083d 39c4 173e
000000a0: 29e7 793d 7b26 143c 8666 fd3c cefe f1bc
000000b0: 741b c33d 2fce b9bd 2c20 8a3d 6b42 d93d
000000c0: 31de 8b3d 79d6 a23d 6087 133e a724 3b3d
000000d0: a7f9 1a3e 9b32 efbd 18b1 013d c8fc 0fbe
000000e0: 6504 16be 0fde b53d c7b3 ba3d c95d dd3d
000000f0: 6979 d3bd 9f5d 51bc 8591 f7bc 0cce fcbc
00000100: 09b7 d0bd f4c7 36bd 1b02 cebd d470 ecbd
00000110: a059 703d 5710 c33d a2a8 e13d 3f8e 24bd
00000120: 350c 72bd c6f9 bdbc 46d8 d7bb 0b64 debd
00000130: 5cba 913d 6dbf e8bd b25b c8bd c884 a6bd
00000140: 6ff4 3fbd 64b1 cabd bd64 e9bd 703f 093e
00000150: 25f1 96bd dad8 11bd e2a3 83bd f78b 89bd
00000160: b38b c13d 5532 9b3c cf29 0cbe 1381 043e
00000170: fde1 9fbd 4029 5ebd 057d 1ebd f87a 1dbc
00000180: 4f20 77bd 09c3 813c 86f5 653c d296 9c3d
00000190: 110c 02bd 0962 723d f380 7bbc db7e 98bd
000001a0: 1910 f6bd da1f b13d bcb7 cb3c 4dd7 77bd
000001b0: 685a 01be e42c 013e 7b8a 64bd 4590 2f3d
000001c0: 83dd bb3d 1a3e 99bd 87d3 033d ca30 abbd
000001d0: 629d 163d f1f4 b5bd 89c5 4a3d 2b0e e4bc
000001e0: 872d 63bd a826 08bd 4c61 ebbc e3af 03bd
000001f0: 6228 cebd b89e c83d 496e 97bc bfb7 ac3d
00000200: 900c ed3d 1e7b b33d e776 e23d 1c6a aa3d
00000210: c2cd 513d 2977 d4bd 6970 fabd 14d7 9c3d
00000220: 3d78 7c3d 1876 233d f628 4d3d ad5d 8abd
00000230: ccdb fbbc 8763 4e3d b281 3f3d 8c72 c4bd
00000240: d3de e63d d140 2dbd 2456 b73d 7718 33bd
00000250: 38ac 49bd 41d2 27bd 75b4 d9bd 72c5 e8bd
00000260: 0999 dc3d fdae 333d 2526 df3d 52c5 efbd
00000270: c415 afbd f716 9abb 3009 dfbd 8439 da3d
00000280: 1c4c 04bd 4930 9a3d 0495 8dbd 90cc 9dbd
00000290: 5074 09bc f04a b33d 2d40 c63d 1bbe f33d
000002a0: 46aa 823d b9ef 88bc 6fa1 593d 83d0 183d
000002b0: 7a93 a6bd f34d 4f3b e652 bbbd 3a50 3dbd
000002c0: d102 bfbc d52a bb3d 8e8e 34bb a63e 7d3d
000002d0: 8665 eebd 0bef a13d 427b bf3c a4f1 aebc
000002e0: 5b3a 48bd 2bbd a63d dd17 66bd 5efc e7bb
000002f0: 7ac4 6ebc dfbe 203c 1335 0b3e 4f6d a23d
00000300: d066 55bd 8a9d b9bc 74cb 523d 38bf e73d
00000310: 9110 503c 2660 e0bd 911f b0bd d39f b83d
00000320: 196d 1cbd bd07 db3d c922 2a3d 8eaa 853d
00000330: e033 b53c 71fc abbd be07 783d 0917 83bc
00000340: 701a b9bd 06cb 503c 8de0 47bd 63b1 7e3d
00000350: b234 e4bd 2ca3 953d 254c 283d f216 38bd
00000360: 1b72 77bd c204 fc3d 8873 e4bd 7c1b 783d
00000370: 8e79 d8bd 364c 9c3d 0423 cabd 7a22 533c
00000380: c776 af3d a88b ab3d 7832 8abd 1c30 cebd
00000390: 8c0e 3dbd 1dd4 25bc 4157 ffbb 800d 13bd
000003a0: f4d1 dd3d 6e9d 0c3d cbf7 863d 4b2d ccbd
000003b0: 6805 85bc 14fa ba3d 9980 e4bd 60e7 47bd
000003c0: db1e 6d3b 1bca f3bc ec6e 9e3d 990a 013e
000003d0: cd12 e7bd f4f4 88bd f218 7cbd f5cf 6e3c
000003e0: 7d84 013d d2f1 163d d656 8fbd 7798 98bd
000003f0: a3de 55bd 7b67 883d 7e55 753d ddb4 9a3d

lstm_cells.0.W_hc.bias f4 [64]
0.059753966 -0.038242497 0.10586344 0.0031510987 -0.05202014 0.037435967 -0.049794808 0.03425517
0.07240445 -0.100359514 -0.08910585 0.14661151 -0.13192241 -0.04792824 -0.058928717 0.08648704
0.02977449 -0.09054634 -0.0651489 -0.08389155 -0.0151849855 0.07954685 0.07769477 -0.077801734
0.05813499 0.09380107 0.11261551 -0.1309612 0.020569222 0.03770863 0.018237427 -0.0407833
-0.02666597 -0.064047776 -0.110322855 -0.06412928 0.074185096 0.006559371 -0.0955245 -0.10874585
0.014721366 0.107010424 0.02578931 -0.07693835 0.03474026 -0.12603286 0.068978764 0.009775933
-0.011030138 -0.016637215 -0.08681655 0.0022282354 -0.03820263 -0.11046613 0.032868627 0.07652512
0.11165967 0.05979699 -0.10440716 0.10430551 0.014024884 0.03990057 -0.04519509 -0.057432257
00000000: 93c0 743d 2aa4 1cbd eece d83d aa82 4e3b
00000010: 1213 55bd 7556 193d a4f5 4bbd 264f 0c3d
00000020: c948 943d 4a89 cdbd 217d b6bd 5421 163e
00000030: ab16 07be 6750 44bd 3d5f 71bd 1e20 b13d
00000040: a2e9 f33c 5c70 b9bd c96c 85bd 55cf abbd
00000050: 72ca 78bc 75e9 a23d 701e 9f3d 8456 9fbd
00000060: f51e 6e3d c61a c03d f6a2 e63d b11a 06be
00000070: c980 a83c 5d74 1a3d a866 953c 640c 27bd
00000080: 9872 dabc 7b2b 83bd f3f0 e1bd 3656 83bd
00000090: 5bee 973d feef d63b 59a2 c3bd 25b6 debd
000000a0: e231 713c 4828 db3d 1a44 d33c db91 9dbd
000000b0: ce4b 0e3d c20e 01be bd44 8d3d 3c2b 203c
000000c0: c0b7 34bc c54a 88bc e0cc b1bd 9607 123b
000000d0: 5c7a 1cbd 113c e2bd 41a1 063d 34b9 9c3d
000000e0: d3ad e43d b0ed 743d 6cd3 d5bd 219e d53d
000000f0: a1c8 653c c86e 233d 7d1e 39bd 163e 6bbd

lstm_cells.0.W_in.weight f4 [64, 64]
0.11767161 -0.0498247 -0.014643088 0.075885534 -0.102699205 0.028704122 0.051561773 0.074025735
0.09605709 0.013937801 0.09055096 0.07607335 0.016179755 0.028797254 -0.100264534 -0.03567633
0.022767827 0.05807829 0.09484397 0.09290004 0.023935392 0.007911265 -0.05039081 0.092157155
-0.10556106 -0.086081475 0.093099 0.07792492 -0.08261283 -0.03947507 0.07947335 0.012022525
0.03773573 -0.044007197 0.06729996 0.03911364 0.013163701 -0.037170425 -0.056557313 -0.08023493
0.07294883 -0.028493315 0.07126431 -0.09494099 -0.03608416 -0.041548133 -0.060602278 -0.005845666
-0.05796814 0.008620128 -0.057785004 0.042497605 0.06300102 -0.028865725 0.064608514 0.044354588
0.027080476 0.06948149 0.08077766 0.10538973 0.0056732893 0.058298215 -0.045456663 -0.061000317
-0.11554754 0.090884894 -0.074811876 -0.11240016 -0.04814145 -0.11529443 0.003293395 0.07608555
-0.09504546 -0.12485032 0.12461291 0.0312887 -0.07957718 0.018492162 -0.070078716 0.056714967
0.11536084 -0.03617704 0.0049387366 0.085122705 0.087565094 0.056365654 -0.039355353 -0.044960603
-0.08998518 0.122716516 0.078635484 -0.03624089 0.0070774555 0.029453024 0.033810973 -0.12034853
0.060096025 -0.09119719 -0.081031665 0.113171384 0.07220395 0.11724128 0.02073212 0.113257974
-0.05222571 -0.10049401 0.032285616 -0.073697835 0.081624374 0.030300498 0.11984566 0.04012084
0.0642529 0.009472102 0.124891385 0.116263375 -0.08948825 0.015476406 -0.123493835 -0.10876879
-0.07001932 0.07591811 -0.119198546 0.028362945 0.03422506 -0.11463526 0.024500012 0.069399804
-0.06505495 -0.057039753 0.033047035 0.028540716 -0.022618502 -0.003157705 0.105327725 0.10494675
0.075312614 0.055923983 -0.11909895 -0.051592246 0.12030874 0.06353721 -0.11341509 0.020976469
0.037022814 0.043416426 -0.014698744 -0.03921029 -0.07135892 -0.10134655 0.015713438 0.06936461
0.048128277 0.010601163 -0.027446032 0.098393545 -0.05617115 0.0037067533 0.04601054 -0.04853879
0.116153866 0.0033918172 0.07990742 0.03722909 0.043595523 -0.009681329 0.018078685 0.12382342
0.06048858 -0.12349081 0.12148112 -0.04808867 -0.07268141 -0.10527986 0.095997185 -0.10571188
0.007815391 -2.0444393e-05 0.03745836 -0.059354022 0.1229101 -0.1240039 -0.066431195 0.065578684
-0.026763558 0.04180689 -0.07069871 -0.08953945 -0.0665188 -0.06997359 -0.03616394 -0.10699943
-0.11226696 -0.10643092 -0.069510326 -0.057927385 0.014908925 -0.1232889 -0.061221987 0.057377547
0.08389741 -0.11767839 -0.062303856 -0.106678754 0.10133286 0.11874828 0.08788231 -0.06119944
0.10824871 0.06070356 0.029368594 0.038977936 -0.07473451 0.048315674 0.11513463 0.11001322
-0.041436955 -0.10058589 -0.1082719 0.034381896 0.049052283 0.11646941 0.05119449 -0.09310055
-0.08796802 -0.066795155 0.033335835 -0.089188024 -0.08647141 -0.06319179 -0.06489146 -0.04125479
0.031324863 -0.03779301 -0.06060633 0.09942688 -0.105940476 0.1157687 -0.044184983 0.10692234
-0.1174438 -0.08398099 0.12249242 0.0834901 0.10796511 -0.00049316883 -0.049373657 -0.10267882
-0.08788255 0.039452553 -0.09672743 -0.04974018 -0.09982765 -0.075029254 0.109826624 -0.02022089
00000000: d0fd f03d fc14 4cbd 90e9 6fbc e069 9b3d
00000010: f653 d2bd e824 eb3c 7032 533d ce9a 973d
00000020: 94b9 c43d 605b 643c c872 b93d 58cc 9b3d
00000030: 688b 843c 38e8 eb3c 7e57 cdbd 5821 12bd
00000040: 9883 ba3c 80e3 6d3d 8e3d c23d 6042 be3d
00000050: 2814 c43c 409e 013c 9866 4ebd e4bc bc3d
00000060: 6630 d8bd 7c4b b0bd b0aa be3d 1a97 9f3d
00000070: ea30 a9bd 9cb0 21bd ecc2 a23d 20fa 443c
00000080: c890 1a3d e440 34bd 90d4 893d a035 203d
00000090: 90ac 573c 0440 18bd a4a8 67bd 3652 a4bd
000000a0: 3266 953d d06a e9bc 06f3 913d 6c70 c2bd
000000b0: fccc 13bd 602e 2abd 183a 78bd 008d bfbb
000000c0: 0070 6dbd 703b 0d3c f8af 6cbd f811 2e3d
000000d0: ae06 813d d077 ecbc 7851 843d 28ad 353d
000000e0: e0d7 dd3c 504c 8e3d c26e a53d 92d6 d73d
000000f0: 00e7 b93b 1cca 6e3d c430 3abd 78db 79bd
00000100: 30a4 ecbd dc21 ba3d f836 99bd 0e32 e6bd
00000110: f82f 45bd 7c1f ecbd 00d6 573b bed2 9b3d
00000120: 32a7 c2bd 86b1 ffbd 0e35 ff3d 9428 003d
00000130: 5cf9 a2bd e07c 973c 6e85 8fbd f44d 683d
00000140: 4e42 ec3d 602e 14bd 20d5 a13b d054 ae3d
00000150: 5455 b33d acdf 663d 1433 21bd 9c28 38bd
00000160: 264a b8bd cc52 fb3d a40b a13d 5471 14bd
00000170: 00ea e73b 7847 f13c 607d 0a3d 4a79 f6bd
00000180: 4027 763d 98c5 babd eef3 a5bd 66c6 e73d
00000190: aadf 933d 321c f03d 68d6 a93c ccf3 e73d
000001a0: a0ea 55bd cecf cdbd ec3d 043d e4ee 96bd
000001b0: ae2a a73d c038 f83c a471 f53d c055 243d
000001c0: 0697 833d e030 1b3c 0ec7 ff3d 7e1b ee3d
000001d0: 9e45 b7bd c090 7d3c 56ea fcbd 2cc2 debd
000001e0: 4a66 8fbd f47a 9b3d 5e1e f4bd 6859 e83c
000001f0: 942f 0c3d e4c5 eabd 40b4 c83c 7c21 8e3d
00000200: 883b 85bd 84a2 69bd 545c 073d 38ce e93c
00000210: 704a b9bc 80f1 4ebb 10b6 d73d 52ee d63d
00000220: 803d 9a3d 8c10 653d 26ea f3bd 6452 53bd
00000230: 6e64 f63d cc1f 823d 2c46 e8bd d8d6 ab3c
00000240: 3ca5 173d 6cd5 313d 00d3 70bc f89a 20bd
00000250: a024 92bd c88e cfbd 78b9 803c 080f 8e3d
00000260: 2822 453d 80b0 2d3c 80d6 e0bc 8e82 c93d
00000270: b813 66bd 00ed 723b 8c75 3c3d 9cd0 46bd
00000280: 14e2 ed3d 4049 5e3b 80a6 a33d 887d 183d
00000290: 3891 323d 709e 1ebc c019 943c 2297 fd3d
000002a0: e0c2 773d c0e8 fcbd 18cb f83d a0f8 44bd
000002b0: fed9 94bd f89c d7bd 2c9a c43d 787f d8bd
000002c0: 200c 003c 0080 abb7 f06d 193d 341d 73bd
000002d0: 4ab8 fb3d c2f5 fdbd 140d 88bd 1e4e 863d
000002e0: 403f dbbc b43d 2b3d 7cca 90bd 7660 b7bd
000002f0: 023b 88bd 504e 8fbd a420 14bd 8422 dbbd
00000300: 38ec e5bd 74f8 d9bd 6e5b 8ebd 4445 6dbd
00000310: 9044 743c e47e fcbd e8c3 7abd b804 6b3d
00000320: 68d2 ab3d 5e01 f1bd 5432 7fbd 647a dabd
00000330: 9a87 cf3d 4c32 f33d a4fb b33d 44ac 7abd
00000340: 80b1 dd3d 4ca4 783d 6896 f03c 54a7 1f3d
00000350: 680e 99bd a8e6 453d b4cb eb3d 9c4e e13d
00000360: ccb9 29bd faff cdbd a8bd ddbd 08d4 0c3d
00000370: 0ceb 483d 8487 ee3d 50b1 513d 80ab bebd
00000380: 9428 b4bd e6cb 88bd 288b 083d 36a8 b6bd
00000390: ec17 b1bd b26a 81bd d0e5 84bd c8fa 28bd
000003a0: 804e 003d d8cc 1abd 583e 78bd 52a0 cb3d
000003b0: 52f7 d8bd 2418 ed3d 50fb 34bd 1afa da3d
000003c0: 6086 f0bd 3afe abbd 4edd fa3d dcfc aa3d
000003d0: d01c dd3d 0048 01ba 083c 4abd 4649 d2bd
000003e0: c4fb b3bd 0099 213d 0819 c6bd 5cbc 4bbd
000003f0: 7072 ccbd f0a8 99bd c8ec e03d 48a6 a5bc

lstm_cells.0.W_in.bias f4 [64]
0.04734452 0.011628225 -0.007425919 0.0046259016 0.036166772 0.058383584 -0.037997678 0.05091843
-0.026823 0.055607647 -0.05353014 -0.03910467 0.10183005 -0.09909497 0.080036744 -0.115244985
-0.024710104 -0.100962535 0.07915497 0.09210208 -0.09739907 -0.051688194 0.093364164 0.030616313
-0.051533908 -0.07729185 0.06348503 0.031629235 -0.046620995 0.07164621 0.10960999 -0.038250044
0.0104316175 -0.043013826 0.072252706 -0.03296636 0.08642873 0.055462465 -0.030886844 0.035656333
0.0028919876 -0.03789854 0.007849827 0.066705555 -0.0073207915 -0.022002697 0.05128984 -0.08128114
-0.051789448 0.024734408 0.0784861 0.01390712 0.0864308 -0.008134738 0.116497785 0.10652876
0.065392956 0.06651111 0.025483012 -0.067701265 0.06681128 -0.097706795 0.08721754 0.0659492
00000000: 54ec 413d 5084 3e3c 2055 f3bb e094 973b
00000010: 9c23 143d a023 6f3d 74a3 1bbd d88f 503d
00000020: e8bb dbbc d8c4 633d 6c42 5bbd 382c 20bd
00000030: 468c d03d 4ef2 cabd 4eea a33d 9005 ecbd
00000040: d86c cabc 72c5 cebd 001c a23d 04a0 bc3d
00000050: 2a79 c7bd 00b7 53bd b635 bf3d 10cf fa3c
00000060: 3815 53bd 304b 9ebd 7004 823d a88d 013d
00000070: a8f5 3ebd 40bb 923d 347b e03d 14ac 1cbd
00000080: 60e9 2a3c 442f 30bd 3af9 933d bc07 07bd
00000090: 8c01 b13d 9c2c 633d 6806 fdbc 600c 123d
000000a0: 8087 3d3b 803b 1bbd 909c 003c ec9c 883d
000000b0: 40e3 efbb 003f b4bc 4c15 523d ba76 a6bd
000000c0: 2c21 54bd d09f ca3c 52bd a03d b0da 633c
000000d0: a202 b13d 9047 05bc 6496 ee3d c02b da3d
000000e0: beec 853d fa36 883d c0c1 d03c f6a6 8abd
000000f0: 5ad4 883d 801a c8bd 1c9f b23d 6010 873d

W_h.weight f4 [64, 64]
-0.004609061 -0.021712262 -0.02587391 -0.057309423 -0.120207995 0.11589196 0.0028691099 -0.062308166
-0.103267714 -0.020831551 -0.0035165052 -0.105960906 -0.09781459 -0.077326104 -0.03334436 -0.0592143
-0.003384576 0.03550214 0.06888445 0.117014155 0.07333428 -0.1315836 0.02795687 0.09980133
-0.098575205 0.10374981 -0.052623466 0.007474053 0.013516747 -0.026535114 -0.071282305 0.09762244
-0.09785018 0.02996165 0.092852645 0.05618313 -0.106257774 0.005301026 -0.013685082 -0.021649633
0.025757963 -0.05199973 0.09348077 -0.057341266 0.050175894 0.07903046 0.11382147 0.036365695
-0.11371355 0.002084364 -0.03831209 -0.06446397 -0.0005823844 -0.02278901 -0.09455135 -0.112174466
-0.078893356 0.0079513695 -0.09814728 0.030140694 -0.06696026 0.026247988 0.013332201 -0.05709669
-0.11471774 -0.06862319 0.12016421 0.0024206005 -0.078899026 -0.11408308 -0.059250325 -0.011927612
0.04885477 -0.015668595 -0.023255449 0.03375578 -0.10443455 -0.017874131 -0.017302921 0.121217914
0.108304925 -0.11154186 -0.044273615 0.010852883 0.00028801357 0.002418983 -0.09598289 0.036566008
0.12623064 -0.06684735 -0.06765337 0.08367721 -0.10395015 -0.11933692 0.101642154 -0.11122859
-0.024406077 -0.10760421 -0.045974296 -0.07824167 0.102977015 -0.1252747 -0.101990595 -0.11037782
0.010765359 -0.0072692116 0.065480515 -0.0028821598 0.038153317 -0.011883768 -0.07771299 0.123737514
0.1043746 -0.020778676 0.0041712513 -0.040457092 -0.112876326 -0.09426025 0.11003113 0.11705531
0.043176766 -0.0765041 0.013249573 -0.054197915 -0.085905306 0.03258989 -0.091559485 -0.07006484
-0.042430475 0.107209645 -0.04022671 0.0440639 -0.0015575454 -0.09324697 0.118571125 -0.110736735
0.09657062 -0.016297493 0.09203181 -0.10108881 -0.076752126 -0.119267255 0.024089169 -0.10869954
-0.054562353 0.031495005 0.102810934 -0.006499258 0.05869365 0.08336198 0.029052876 0.07323543
0.005630651 0.105599925 -0.065247715 0.13274065 0.026901832 0.009107654 0.1248663 0.08439913
0.05252785 -0.016899709 -0.068060145 -0.05591878 0.0855011 0.052209 0.09271763 0.0843849
0.036193784 0.039588686 0.10109384 -0.011879617 0.06228195 0.13419937 -0.08167113 -0.14162804
-0.06018315 0.03389493 -0.077316344 -0.1287829 0.092439905 0.12327021 -0.023901755 0.019334666
0.032868754 -0.057038292 -0.122021705 -0.027348036 0.115894176 -0.00028330254 0.01677797 0.041986972
0.120883204 -0.1225508 0.022980856 -0.04121586 0.011284721 -0.0594094 0.019821398 -0.091937855
0.1228621 -0.01756377 0.042477373 0.10737648 0.031620417 0.02895975 0.09216343 -0.010070646
0.049193665 0.10492648 0.11747476 0.009352169 -0.081117235 -0.012889494 -0.1076925 0.10160609
0.012212943 0.024267558 0.07379048 -0.08751611 0.062481374 -0.09590923 0.066708416 0.022856183
0.06079454 0.038500227 0.004342518 -0.091054685 0.09916812 0.008248375 -0.011331661 0.035021264
0.04825813 0.057461973 -0.050413974 0.004124213 -0.104628466 0.097093575 0.007446067 -0.10220358
0.094931155 0.037804082 -0.101681285 0.023733364 -0.058917496 0.00054788555 -0.0113268085 0.018282758
-0.065785624 0.0106313 0.08180414 0.09384089 -0.018538918 0.049951777 -0.07596145 -0.093923986
00000000: 9b07 97bb eadd b1bc 86f5 d3bc 49bd 6abd
00000010: 9c2f f6bd c458 ed3d ad07 3c3b d936 7fbd
00000020: 067e d3bd eea6 aabc 2b75 66bb 0802 d9bd
00000030: 0453 c8bd 265d 9ebd 1894 08bd b28a 72bd
00000040: c3cf 5dbb b16a 113d 4a13 8d3d 1ea5 ef3d
00000050: 4830 963d dabd 06be ce05 e53c a464 cc3d
00000060: cce1 c9bd c87a d43d b48b 57bd e7e8 f43b
00000070: 5975 5d3c 2b60 d9bc 75fc 91bd 46ee c73d
00000080: ad65 c8bd 2272 f53c 8729 be3d 4820 663d
00000090: ad9d d9bd 3bb4 ad3b 6537 60bc 925a b1bc
000000a0: 5d02 d33c abfd 54bd d972 bf3d adde 6abd
000000b0: 3d85 4d3d b9da a13d 3b1b e93d 32f4 143d
000000c0: a6e2 e8bd d399 083b 23ed 1cbd b005 84bd
000000d0: 28ab 18ba 05b0 babc 23a4 c1bd babb e5bd
000000e0: d792 a1bd 7646 023c 7101 c9bd 9ee9 f63c
000000f0: 7622 89bd 0506 d73c 4e6f 5a3c 38de 69bd
00000100: 22f1 eabd 518a 8cbd a718 f63d f0a2 1e3b
00000110: d095 a1bd 64a4 e9bd 78b0 72bd 086c 43bc
00000120: f01b 483d 6d5b 80bc 3682 bebc 8043 0a3d
00000130: c8e1 d5bd c56c 92bc dbbe 8dbc 1941 f83d
00000140: f9ce dd3d 0f70 e4bd 4058 35bd 4ad0 313c
00000150: 8700 9739 cd87 1e3b ad92 c4bd 3dc6 153d
00000160: 9b42 013e 43e7 88bd da8d 8abd f55e ab3d
00000170: d1e3 d4bd ea66 f4bd c329 d03d d1cb e3bd
00000180: 41ef c7bc 995f dcbd 8b4f 3cbd 2b3d a0bd
00000190: 9de5 d23d 0348 00be 72e0 d0bd c40d e2bd
000001a0: 3061 303c 9132 eebb a61a 863d 9ee2 3cbb
000001b0: a746 1c3d 23b4 42bc fd27 9fbd 186a fd3d
000001c0: 5ac2 d53d 0b38 aabc feae 883b 56b6 25bd
000001d0: b42b e7bd 850b c1bd 0058 e13d b2ba ef3d
000001e0: 1fda 303d 2eae 9cbd bd14 593c a2fe 5dbd
000001f0: 1fef afbd fa7c 053d 8a83 bbbd 287e 8fbd
00000200: 94cb 2dbd bb90 db3d c3c4 24bd 597c 343d
00000210: 8d26 ccba 44f8 bebd 6bd5 f23d f1c9 e2bd
00000220: d1c6 c53d 5282 85bc 2c7b bc3d a607 cfbd
00000230: 3830 9dbd 6442 f4bd a656 c53c dd9d debd
00000240: c67c 5fbd e800 013d 8a8e d23d baf7 d4bb
00000250: c168 703d b0b9 aa3d 4c00 ee3c 75fc 953d
00000260: 5381 b83b c644 d83d 98a0 85bd 2aed 073e
00000270: 3b61 dc3c 4538 153c e7b9 ff3d 73d9 ac3d
00000280: 7127 573d 4271 8abc 1e63 8bbd 170b 65bd
00000290: 331b af3d 1bd9 553d bee2 bd3d fed1 ac3d
000002a0: ef3f 143d bf27 223d 4a0a cf3d baa2 42bc
000002b0: 5c1b 7f3d 8f6b 093e 3243 a7bd f106 11be
000002c0: 9b82 76bd 69d5 0a3d 0858 9ebd aadf 03be
000002d0: 2251 bd3d 1875 fc3d 9dcd c3bc bc63 9e3c
000002e0: 63a1 063d fca0 69bd 84e6 f9bd fd08 e0bc
000002f0: ed59 ed3d 3988 94b9 f471 893c 88fa 2b3d
00000300: 9d91 f73d eafb fabd 5942 bc3c f6d1 28bd
00000310: 8de3 383c 4557 73bd 7c60 a23c ea49 bcbd
00000320: 209f fb3d e5e1 8fbc c1fc 2d3d 33e8 db3d
00000330: 6984 013d ff3c ed3c 2ec0 bc3d 5aff 24bc
00000340: 4c7f 493d b2e3 d63d 9b96 f03d d739 193c
00000350: cb20 a6bd 752e 53bc e38d dcbd db16 d03d
00000360: cc18 483c c2cc c63c 771f 973d a53b b3bd
00000370: 78ec 7f3d 0f6c c4bd 6c9e 883d e43c bb3c
00000380: b203 793d 6ab2 1d3d ae4b 8e3b e17a babd
00000390: a818 cb3d 3124 073c 6ea8 39bc 7572 0f3d
000003a0: 51aa 453d 3f5d 6b3d e27e 4ebd 6824 873b
000003b0: 7347 d6bd ffd8 c63d 23fe f33b 1c50 d1bd
000003c0: 446b c23d 74d8 1a3d 473e d0bd 796c c23c
000003d0: 7953 71bd fa9f 0f3a 1494 39bc b9c5 953c
000003e0: 9dba 86bd e72e 2e3c ee88 a73d a72f c03d
000003f0: eede 97bc 3c9a 4c3d ad91 9bbd 385b c0bd

W_h.bias f4 [64]
-0.071403906 -0.06627962 -0.03348095 -0.05596889 -0.0040466096 0.05915754 -0.048880287 0.03864976
-0.010474218 0.11630325 0.020736441 0.017511565 -0.055727813 -0.10930877 -0.09800423 0.091262214
-0.06751824 0.12006075 0.0049919384 -0.11894445 -0.04559331 0.10587634 0.005444524 0.035553116
-0.059010174 0.022238087 0.060658514 -0.0198563 -0.0656944 -0.11934975 -0.10416528 -0.04166542
0.090728 0.11260666 -0.062004276 0.058910493 -0.11682234 0.086320825 -0.100837775 -0.01780274
0.0041350406 0.10379666 0.022217484 0.07622509 0.09473699 -0.035422828 0.10592788 -0.06387738
-0.014617768 0.09225725 0.08701083 0.015325922 -0.081551716 0.08400786 0.098796666 0.0388367
-0.09076695 -0.047101237 0.060424145 -0.10451532 -0.079826295 0.020168968 0.11424501 0.05509962
00000000: 363c 92bd 9cbd 87bd 5223 09bd a33f 65bd
00000010: 6c99 84bb 2d4f 723d b236 48bd 364f 1e3d
00000020: 0e9c 2bbc 6630 ee3d 78df a93c 6a74 8f3c
00000030: d942 64bd 47dd dfbd 71b6 c8bd afe7 ba3d
00000040: 0147 8abd 69e2 f53d 6a93 a33b 2699 f3bd
00000050: 0dc0 3abd b2d5 d83d fa67 b23b 25a0 113d
00000060: a7b4 71bd a62c b63c 1075 783d aea9 a2bc
00000070: c98a 86bd a46d f4bd 9b54 d5bd 5ca9 2abd
00000080: 9acf b93d 529e e63d 32f8 7dbd 214c 713d
00000090: 8d40 efbd f9c8 b03d 0984 cebd 0dd7 91bc
000000a0: 3c7f 873b 5893 d43d 7101 b63c e61b 9c3d
000000b0: 7805 c23d 8717 11bd b7f0 d83d 25d2 82bd
000000c0: 5d7f 6fbc 5ef1 bc3d bc32 b23d 9319 7b3c
000000d0: 9604 a7bd 500c ac3d e855 ca3d 3b13 1f3d
000000e0: 06e4 b9bd 3aed 40bd 4f7f 773d 210c d6bd
000000f0: f87b a3bd 6439 a53c 4af9 e93d 24b0 613d

W_g.weight f4 [64, 64]
0.08392438 -0.02638202 0.042688675 0.01660877 -0.06747633 0.09900701 -0.076221004 -0.0073300186
0.054616265 0.0014957003 -0.07578993 -0.045711003 -0.04038305 -0.098148525 -0.030140435 0.094781294
0.105616316 0.05986672 -0.11013612 -0.105932936 -0.030995388 0.085277066 -0.017090727 -0.124869436
-0.101465836 0.010849518 -0.0682573 -0.08628671 0.06630084 0.065242216 -0.12160087 0.11182605
0.10628104 -0.07378805 -0.03990867 -0.061106287 -0.07775237 -0.065328866 -0.11642654 0.1201977
0.09278472 0.033402033 0.08965388 0.048062213 -0.054966204 0.03711816 -0.04120148 -0.080520645
-0.007730144 -0.0028191975 -0.08269195 -0.0939239 0.07860945 0.08361511 0.045111798 0.065184
-0.11915232 -0.029268792 0.068613514 0.022620717 -0.043544613 0.033867218 -0.11123729 0.117192596
-0.047238387 0.062054142 -0.03179644 -0.051976286 0.03042058 -0.039067306 -0.012313026 0.003738259
-0.01094495 -0.018712169 -0.027653074 0.09424138 -0.03464406 0.078640625 -0.0543062 -0.07963911
-0.055523552 -0.060055323 0.015423131 -0.11223729 -0.01161209 -0.09343451 0.05716706 0.08427897
0.017749796 -0.046932615 -0.051491417 0.029755378 0.109137565 -0.018798819 -0.009181204 0.108330056
-0.07141003 0.037133537 -0.0025296318 0.11301589 0.0901932 0.122524515 -0.00862019 0.079389706
-0.112351716 0.021029392 0.11544512 0.10360603 0.07662974 0.03308002 -0.1081873 -0.11491723
-0.11901255 0.110594854 0.0059574605 -0.05280126 0.12278579 0.09101859 -0.037549727 -0.09508102
0.0007969196 -0.035887353 0.084132984 -0.089965045 -0.06876229 -0.055065133 0.029029677 -0.00135022
-0.07851434 -0.0016111344 -0.029875144 -0.026312977 -0.038754433 0.14332168 0.081103995 -0.0074774334
0.0010731564 -0.08842884 -0.023383327 -0.04573921 -0.10448937 0.13276477 0.107090935 -0.062655106
-0.088497624 -0.09441322 -0.082445785 0.04775051 0.027503569 -0.100438446 0.07290601 0.118785456
-0.07020624 -0.0034574992 -0.08214271 0.07422855 0.07448398 -0.02469495 -0.072469175 0.11478716
0.13862614 0.049846984 0.016018631 0.07033475 0.13676836 0.03192868 0.12828995 0.10192737
-0.044921815 -0.060515948 -0.03355822 -0.058755577 -0.064589724 -0.02976416 -0.09130666 -0.096883744
-0.028147975 -0.012815021 0.056811944 -0.09808335 -0.07079424 0.13372146 0.07975132 0.0742222
0.065718666 0.09926869 0.018978579 -0.054266527 -0.072807774 0.14119093 0.1328981 0.048919253
0.10691938 -0.0020122537 0.09042363 0.0569845 -0.012450251 -0.1134315 -0.040065307 0.075507715
-0.06862064 -0.03639859 -0.08897996 -0.08981694 -0.09998715 0.101098076 0.06857619 0.02624221
-0.12374826 -0.06871192 -0.0489004 -0.050691176 0.009675561 -0.0923094 0.07991128 -0.073825374
0.11960608 0.052175533 0.121598266 -0.061024804 0.11628626 0.11936438 -0.02201846 -0.039832134
0.08973484 -0.044533405 0.040648054 0.10545874 -0.10331792 0.09945612 -0.09908351 0.11142871
0.034020644 0.07298671 -0.015800122 -0.072421744 -0.08683948 -0.0878672 -0.008594493 -0.07956374
-0.01519242 -0.123737246 0.12262298 0.09605874 -0.05591071 -0.0333785 0.0033448623 -0.120107695
-0.0040189233 0.036678474 -0.079298005 0.08135021 -0.018217344 0.078446016 0.065144986 0.0833711
00000000: 8ce0 ab3d 1b1f d8bc 52da 2e3d 1d0f 883c
00000010: 0831 8abd 30c4 ca3d c219 9cbd a730 f0bb
00000020: 4eb5 5f3d 600b c43a c037 9bbd 763b 3bbd
00000030: b268 25bd 1802 c9bd 13e9 f6bc b21c c23d
00000040: 5e4d d83d ce36 753d 0c8f e1bd 5ef3 d8bd
00000050: 0aea fdbc bea5 ae3d da01 8cbc 8cbb ffbd
00000060: 52cd cfbd 2dc2 313c 7cca 8bbd 16b7 b0bd
00000070: bcc8 873d b69d 853d e009 f9bd 0e05 e53d
00000080: e0a9 d93d 301e 97bd 4677 23bd 964a 7abd
00000090: a23c 9fbd 24cb 85bd 0a71 eebd 362a f63d
000000a0: ea05 be3d 92d0 083d 749c b73d e2dc 443d
000000b0: 3e24 61bd 3609 183d e2c2 28bd 02e8 a4bd
000000c0: 264d fdbb 49c2 38bb 665a a9bd 2c5b c0bd
000000d0: fefd a03d 663e ab3d 26c7 383d 307f 853d
000000e0: 2206 f4bd 1bc5 efbc 3e85 8c3d 154f b93c
000000f0: d65b 32bd 5ab8 0a3d 60d0 e3bd ac02 f03d
00000100: 0a7d 41bd 7c2c 7e3d fc3c 02bd 16e5 54bd
00000110: 9534 f93c 0a05 20bd 93bc 49bc 94fd 743b
00000120: 7352 33bc 434a 99bc b388 e2bc a001 c13d
00000130: eee6 0dbd 560e a13d 2e70 5ebd d419 a3bd
00000140: aa6c 63bd 92fc 75bd 4db1 7c3c aadc e5bd
00000150: a340 3ebc 985a bfbd 0228 6a3d 749a ac3d
00000160: 0568 913c 6a3c 40bd aae8 52bd 8dc1 f33c
00000170: 8483 df3d fbff 99bc c36c 16bc 26dc dd3d
00000180: 6c3f 92bd 5619 183d 2ec8 25bb e074 e73d
00000190: 36b7 b83d 22ee fa3d b33b 0dbc 1297 a23d
000001a0: a818 e6bd d545 ac3c 7e6e ec3d 662f d43d
000001b0: 0ef0 9c3d ea7e 073d 4e91 ddbd ba59 ebbd
000001c0: dabc f3bd 8e7f e23d cd36 c33b 2246 58bd
000001d0: 1e77 fb3d f467 ba3d becd 19bd d6b9 c2bd
000001e0: 5ee8 503a 9efe 12bd ea4d ac3d 983f b8bd
000001f0: 3ed3 8cbd fa8b 61bd a5cf ed3c ddf9 b0ba
00000200: 20cc a0bd b32c d3ba b8bc f4bc 508e d7bc
00000210: f8bc 1ebd ebc2 123e da19 a63d 4205 f5bb
00000220: 27a9 8c3a 2e1a b5bd 648e bfbc 0a59 3bbd
00000230: 86fe d5bd 7df3 073e 7e52 db3d 5251 80bd
00000240: 3e3e b5bd b85b c1bd 56d9 a8bd 0a96 433d
00000250: 2a4f e13c acb2 cdbd bf4f 953d ca45 f33d
00000260: 4ac8 8fbd 3697 62bb 703a a8bd 2305 983d
00000270: 0f8b 983d 104d cabc b86a 94bd 8815 eb3d
00000280: 03f4 0d3e 5a2c 4c3d 8139 833c aa0b 903d
00000290: 010d 0c3e a6c7 023d 715e 033e 4cbf d03d
000002a0: f0ff 37bd 92df 77bd 5874 09bd b0a9 70bd
000002b0: 9e47 84bd f8d3 f3bc fcfe babd fc6a c6bd
000002c0: 9596 e6bc 18f6 51bc a4b3 683d ecdf c8bd
000002d0: 92fc 90bd 47ee 083e a954 a33d cf01 983d
000002e0: 8297 863d 624d cb3d f778 9b3c 9446 5ebd
000002f0: 3e1c 95bd 5b94 103e 7116 083e 8e5f 483d
00000300: 8cf8 da3d 04e0 03bb 0630 b93d 9468 693d
00000310: 23fc 4bbc c64e e8bd 851b 24bd caa3 9a3d
00000320: fa88 8cbd b016 15bd 203b b6bd f2f1 b7bd
00000330: 10c6 ccbd 820c cf3d ac71 8c3d e7f9 d63c
00000340: ba6f fdbd d6b8 8cbd c94b 48bd 8da1 4fbd
00000350: 3f86 1e3c b60c bdbd 86a8 a33d c231 97bd
00000360: 08f4 f43d 03b6 553d 8308 f93d 25f5 79bd
00000370: 7e27 ee3d 5075 f43d 0f60 b4bc 0527 23bd
00000380: e6c6 b73d a968 36bd 937e 263d c0fa d73d
00000390: 5898 d3bd a6af cb3d 4cec cabd bc34 e43d
000003a0: 3b59 0b3d 0e7a 953d 426f 81bc da51 94bd
000003b0: e6d8 b1bd b8f3 b3bd ebcf 0cbc 50f2 a2bd
000003c0: a1e9 78bc f469 fdbd c221 fb3d 72ba c43d
000003d0: a102 65bd e5b7 08bd 7a35 5b3b 06fb f5bd
000003e0: 2cb1 83bb 2b3c 163d fe66 a2bd f09a a63d
000003f0: 8a3c 95bc 4ea8 a03d bc6a 853d 78be aa3d

W_g.bias f4 [64]
-0.08323076 -0.08924492 0.09852636 -0.07117626 0.028862981 0.07608589 0.10448606 0.08050954
0.05915168 -0.068597704 -0.02623545 -0.06360946 0.022243662 0.11974511 -0.017857486 -0.06563071
0.1104118 0.063646995 -0.049437 0.06053874 -0.025892958 -0.10361564 0.045323547 0.08703884
-0.010889794 0.021383416 0.0043214993 0.06271057 0.10018379 0.07354693 0.102180846 0.006870131
0.025097257 -0.02439499 -0.0865805 0.08229659 -0.06939564 -0.13027786 0.040262256 -0.01096536
-0.0779759 0.12568554 -0.035695583 -0.029992893 0.056752153 0.101489455 -0.079700984 -0.0074835857
-0.08491845 -0.061508205 0.012440581 -0.02287337 0.040884417 0.066624 -0.06335828 0.08532882
-0.012633993 -0.040966265 -0.028676825 0.12016759 -0.0067263274 0.07159043 -0.09257622 0.059923217
00000000: e474 aabd 0ac6 b6bd 30c8 c93d dcc4 91bd
00000010: 0f72 ec3c ebd2 9b3d cafc d53d 30e2 a43d
00000020: 0849 723d f47c 8cbd baeb d6bc ad45 82bd
00000030: 5738 b63c ed3c f53d dd49 92bc 6569 86bd
00000040: 951f e23d 5b59 823d 747e 4abd 78f7 773d
00000050: 781d d4bc 7034 d4bd 2fa5 393d 6b41 b23d
00000060: 1b6b 32bc 462c af3c 5d9b 8d3b 666e 803d
00000070: 292d cd3d c69f 963d 3144 d13d d61e e13b
00000080: c398 cd3c 01d8 c7bc 1e51 b1bd 1d8b a83d
00000090: 4d1f 8ebd 8f67 05be 09ea 243d 0ea8 33bc
000000a0: d4b1 9fbd b6b3 003e 8835 12bd a8b3 f5bc
000000b0: f274 683d b4d9 cf3d 453a a3bd de38 f5bb
000000c0: b9e9 adbd 07f0 7bbd 94d3 4b3c ef60 bbbc
000000d0: 6b76 273d 2a72 883d fcc1 81bd e0c0 ae3d
000000e0: cffe 4ebc 3ecc 27bd a9eb eabc 6d1a f63d
000000f0: 8668 dcbb 019e 923d 9a98 bdbd 0c72 753d

W_x.weight f4 [64, 1]
-0.26485306 -0.6270224 -0.073937215 0.5892741 0.41114926 0.24884178 -0.456692 -0.63899946
-0.9032741 -0.69563156 0.2264678 0.9027238 -0.40815175 0.3145667 -0.96137375 -0.1738431
-0.6541662 0.3917247 0.5461578 -0.5879994 0.24720646 -0.012548407 0.80827326 -0.6227448
-0.6975415 -0.053494036 0.72249854 0.8595948 -0.043093268 0.5754682 -0.24646707 -0.47735497
-0.11420395 0.511128 0.6656248 0.5999902 -0.34329668 0.019182697 -0.23835464 0.7800663
-0.24692984 0.94512933 0.181409 -0.76840746 -0.23812567 0.7113061 -0.015709719 -0.9182133
-0.27639526 0.40170497 0.8954683 -0.396854 0.15991154 0.28809008 0.93173784 -0.79670876
-0.27491385 0.874877 0.84041196 0.19715409 -0.8104964 0.16590285 -0.24647027 0.81371754
00000000: d29a 87be 8a84 20bf 656c 97bd abda 163f
00000010: 2882 d23e 61d0 7e3e 89d3 e9be 7895 23bf
00000020: f93c 67bf e914 32bf 2de7 673e e818 673f
00000030: 44f9 d0be e30e a13e 971c 76bf ed03 32be
00000040: 7077 27bf 2490 c83e ffd0 0b3f 2187 16bf
00000050: b123 7d3e d597 4dbc ffea 4e3f 346c 1fbf
00000060: 1492 32bf 901c 5bbd aaf5 383f 680e 5c3f
00000070: 9182 30bd e251 133f dd61 7cbe df67 f4be
00000080: c3e3 e9bd 49d9 023f 6366 2a3f f598 193f
00000090: 95c4 afbe 0825 9d3c 3d13 74be 6db2 473f
000000a0: 2ddb 7cbe fff3 713f 48c3 393e 5ab6 44bf
000000b0: 37d7 73be 2818 363f abb1 80bc 0710 6bbf
000000c0: ae83 8dbe 46ac cd3e 693d 653f 7330 cbbe
000000d0: dabf 233e 8b80 933e 5f86 6e3f 1bf5 4bbf
000000e0: 82c1 8cbe f0f7 5f3f 3d25 573f c3e2 493e
000000f0: b17c 4fbf 70e2 293e b462 7cbe cb4f 503f

W_x.bias f4 [64]
0.9822933 -0.811231 -0.7395296 0.111010864 0.3678781 0.77653265 0.20963962 -0.8674767
0.75245506 0.4398792 0.41460034 0.49561507 0.28247085 0.5997696 0.8461179 -0.14880146
-0.093791775 -0.14716001 0.36480138 0.44502896 -0.8422968 0.9765546 0.38657746 0.09064361
0.9376549 -0.5085064 0.078663684 -0.33318734 0.06646738 -0.61116064 0.20073871 -0.9378371
-0.33577916 -0.7574096 -0.6915172 -0.6078869 0.7793264 0.16000055 -0.17869817 -0.033803385
-0.62126946 0.065274656 0.041679516 0.38433653 -0.22906767 -0.89138114 -0.1570167 0.056540117
0.07683625 0.98240024 -0.8253483 0.51477414 -0.9477592 0.7023281 0.7566667 -0.8741469
0.652991 -0.09443179 0.7732713 -0.7935137 -0.10579306 -0.73929214 -0.5794065 0.11123878
00000000: 9377 7b3f d6ac 4fbf d051 3dbf aa59 e33d
00000010: 855a bc3e d8ca 463f c5ab 563e f412 5ebf
00000020: e5a0 403f d937 e13e 7f46 d43e 42c1 fd3e
00000030: 05a0 903e 808a 193f 2f9b 583f 695f 18be
00000040: e715 c0bd 1db1 16be 3fc7 ba3e d6da e33e
00000050: c3a0 57bf 7bff 793f 7bed c53e 5ba3 b93d
00000060: 270a 703f 7a2d 02bf 6d1a a13d 8897 aabe
00000070: 0d20 883d 0675 1cbf 738e 4d3e 1816 70bf
00000080: 3feb abbe 98e5 41bf 4507 31bf 7a9e 1bbf
00000090: ef81 473f 2fd7 233e a7fc 36be 6b75 0abd
000000a0: 840b 1fbf b8ae 853d 24b8 2a3d c2c7 c43e
000000b0: b790 6abe 8e31 64bf fcc8 20be 9c96 673d
000000c0: 535c 9d3d 957e 7b3f 074a 53bf 3dc8 033f
000000d0: 59a0 72bf c6cb 333f e9b4 413f 17c8 5fbf
000000e0: 6b2a 273f 7465 c1bd 1cf5 453f b723 4bbf
000000f0: 08aa d8bd 4042 3dbf fc53 14bf 28d1 e33d

W_1d.weight f4 [1, 64]
0.06344262 0.046134323 7.278292e-05 0.0007026491 0.03003325 -0.04246173 0.06933112 -0.021954319
-0.10519127 -0.08167267 -2.2683638e-05 0.07830857 0.06291904 0.00083784666 0.04885833 -0.09473191
-0.05278354 -0.018968612 0.00064875925 -0.042037506 -0.013825403 -0.0031093298 0.09563738 0.047546733
0.06947481 -0.050174847 0.079088256 0.10108868 -0.044020575 0.07356942 0.10124204 -0.03686379
0.018135728 0.060319107 0.047990154 -0.0027339782 0.008394759 -0.00040023823 0.0720326 -0.08722307
-0.00081551773 -0.021998825 0.00027087278 -0.11858503 -0.026586534 -0.004059028 0.027129775 -0.0075657307
-0.08726617 -0.07821855 0.0023142672 -0.012457204 0.00037559244 0.07292497 0.058451984 0.040508114
-0.011131393 -0.00063439383 -0.016488077 0.001231071 -0.028056942 -0.09449279 -0.0022546854 -0.039312758
00000000: 34ee 813d 58f7 3c3d 08a3 9838 fc31 383a
00000010: 4a08 f63c 5aec 2dbd 79fd 8d3d 8bd9 b3bc
00000020: 856e d7bd 0044 a7bd be48 beb7 3e60 a03d
00000030: b3db 803d f0a2 5b3a ac1f 483d ce02 c2bd
00000040: 8e33 58bd 1064 9bbc 7f11 2a3a 852f 2cbd
00000050: f183 62bc e6c5 4bbb 88dd c33d 5dc0 423d
00000060: cf48 8e3d 2484 4dbd 06f9 a13d 9507 cf3d
00000070: eb4e 34bd 90ab 963d fd57 cf3d 7cfe 16bd
00000080: 6191 943c 2b11 773d 5391 443d 8b2c 33bb
00000090: 2c8a 093c 11d7 d1b9 d485 933d 02a2 b2bd
000000a0: 78c8 55ba e136 b4bc ee03 8e39 b5dc f2bd
000000b0: 01cc d9bc 9801 85bb 433f de3c f3e9 f7bb
000000c0: 9bb8 b2bd 0c31 a0bd f6aa 173b 4d19 4cbc
000000d0: 2aeb c439 b059 953d 596b 6f3d d6eb 253d
000000e0: 7260 36bc 734d 26ba 0112 87bc e35b a13a
000000f0: acd7 e5bc 7085 c1bd 58c3 13bb 6a06 21bd
