model_weight/best_INDIA_model.pth (torch, 73843 bytes, 14 tensors)

lstm_cells.0.b_c f4 [64]
0.009782072 0.009796374 -0.013989691 -0.006913634 0.0010124514 -0.0105135115 0.023555432 0.012081157
-0.0032411916 0.029402757 0.011463668 0.019004239 0.03544858 -0.02082397 -0.031018322 0.030671526
0.03558965 0.0025633255 -0.017463304 0.0013932277 -0.013550406 -0.051713385 -0.013129678 0.038787857
0.0037746262 -0.019955605 -0.032641128 0.008516828 0.013094696 -0.026750682 0.005165455 -0.016266866
0.0022953905 0.022917122 -0.026766006 -0.0017675972 -0.010700683 -0.009491458 0.045538794 0.014969656
-0.0040291557 -0.009835357 -0.034801576 0.022171041 0.012818622 -0.012346882 -0.037186008 0.031100336
-0.0013172404 -0.034800034 -0.015294977 -0.012249601 -0.037896257 -0.009929393 -0.00058877544 -0.0067407927
-0.03255706 0.012248902 0.004801488 -0.0044938577 0.016727872 0.01918724 -0.009792421 -0.013159827
00000000: fc44 203c f880 203c 0435 65bc c48b e2bb
00000010: 3bb4 843a dd40 2cbc 52f7 c03c 0cf0 453c
00000020: 2c6a 54bb 0dde f03c 1cd2 3b3c c7ae 9b3c
00000030: 8832 113d 0897 aabc 231a febc da42 fb3c
00000040: 74c6 113d 77fd 273b 340f 8fbc f79c b63a
00000050: 8602 5ebc 6ad1 53bd dc1d 57bc 04e0 1e3d
00000060: b85f 773b f079 a3bc b4b2 05bd 2a8a 0b3c
00000070: 238b 563c 3f24 dbbc fa42 a93b 1742 85bc
00000080: 436e 163b b0bc bb3c 6244 dbbc b8ae e7ba
00000090: eb51 2fbc 0f82 1bbc e386 3a3d 4a43 753c
000000a0: 0207 84bb 7a24 21bc 198c 0ebd 0ba0 b53c
000000b0: 3305 523c 944a 4abc 5b50 18bd 22c6 fe3c
000000c0: 41a7 acba 7b8a 0ebd c997 7abc 8db2 48bc
000000d0: 1b39 1bbd e5ae 22bc 0d58 1aba dee1 dcbb
000000e0: 8d5a 05bd 9eaf 483c cd55 9d3b 3641 93bb
000000f0: e408 893c 8f2e 9d3c 6470 20bc 519c 57bc

lstm_cells.0.W_ic.weight f4 [64, 1]
-0.8895346 0.28800812 0.66011196 -0.45398813 -0.93390733 0.782814 0.7020446 -0.9251931
0.7851047 -0.14355673 -0.43679878 -0.22723328 0.76154727 0.20075914 -0.35462105 0.18422562
0.87926584 -0.75088227 -0.72184104 -0.9668171 -0.9044605 -0.10026275 -0.15664719 0.70106536
-0.896675 0.751885 0.2228248 0.99683803 -0.8006341 -0.83118564 -0.71424323 -0.59004366
-0.35976386 0.8898914 -0.81292415 -0.6149419 0.12164426 0.45509008 0.19346087 -0.921589
-0.20122895 0.40957466 0.4037905 -0.36691576 -0.046814963 0.8172484 -0.85989535 0.5746072
-0.3766812 -0.43411592 -0.98206806 0.1412377 -0.17083073 -0.09844472 0.9178495 -0.49463886
-0.37237316 0.37605372 -0.07399675 -0.13439608 0.026791308 0.7308297 0.0889029 0.22569531
00000000: 8ab8 63bf cd75 933e 19fd 283f 2271 e8be
00000010: 8d14 6fbf 8066 483f 32b9 333f 74d9 6cbf
00000020: 9ffc 483f 8900 13be 17a4 dfbe d7af 68be
00000030: c3f4 423f ce93 4d3e e490 b5be a4a5 3c3e
00000040: 9117 613f d239 40bf 93ca 38bf 5381 77bf
00000050: b98a 67bf 8f56 cdbd 1f68 20be 0579 333f
00000060: 7e8c 65bf 897b 403f 2f2c 643e c730 7f3f
00000070: 5bf6 4cbf 95c8 54bf a5d8 36bf 1a0d 17bf
00000080: f832 b8be eccf 633f cc1b 50bf d56c 1dbf
00000090: a020 f93d 9101 e93e 9b1a 463e 42ed 6bbf
000000a0: f60e 4ebe c5b3 d13e a1bd ce3e 62dc bbbe
000000b0: 0cc1 3fbd 3137 513f 1a22 5cbf 7519 133f
000000c0: 5cdc c0be 7144 debe d068 7bbf 9ea0 103e
000000d0: 40ee 2ebe 639d c9bd 2ff8 6a3f 4e41 fdbe
000000e0: b2a7 bebe 1d8a c03e 9c8b 97bd 209f 09be
000000f0: 7279 db3c a817 3b3f b912 b63d ac1c 673e

lstm_cells.0.W_ic.bias f4 [64]
-0.49231288 0.47787595 0.8044273 0.33547533 -0.41518033 0.9706093 -0.79018474 -0.7648066
0.6512059 -0.45209116 -0.65527034 -0.94481826 -0.08669662 0.3594855 0.6178611 -0.3502931
-0.08912824 0.05011555 0.9396818 -0.2822095 0.111621484 0.65446603 0.06160559 -0.960518
-0.7224094 0.97619927 0.8957882 0.4292494 -0.61720604 0.4692184 -0.1605698 0.71795785
-0.1414383 -0.6912269 0.74330395 0.10378522 0.8661101 -0.015821623 -0.86296123 -0.5071278
0.17114182 0.32688776 0.5592766 -0.42919827 -0.43952504 0.47706515 0.7437227 -0.8886781
-0.17017175 0.6966148 -0.10452304 0.16512686 0.7894352 0.2650837 0.86204344 -0.11765811
0.6527712 -0.87161154 0.033384237 -0.07868056 -0.5451962 -0.671453 0.23931721 0.9483894
00000000: 6f10 fcbe 28ac f43e f3ee 4d3f 6cc3 ab3e
00000010: 8492 d4be da79 783f 8c49 4abf 5eca 43bf
00000020: 6eb5 263f 7e78 e7be ccbf 27bf 9cdf 71bf
00000030: ff8d b1bd 7c0e b83e 252c 1e3f 9e59 b3be
00000040: de88 b6bd f745 4d3d fd8e 703f c37d 90be
00000050: ce99 e43d 168b 273f 2556 7c3d 82e4 75bf
00000060: d3ef 38bf 32e8 793f 6052 653f 94c6 db3e
00000070: 3701 1ebf 653d f03e 696c 24be 16cc 373f
00000080: 34d5 10be 3ff4 30bf 2b49 3e3f 588d d43d
00000090: 64b9 5d3f 599c 81bc 07eb 5cbf 21d3 01bf
000000a0: cd3f 2f3e d55d a73e c02c 0f3f e0bf dbbe
000000b0: 6d09 e1be e241 f43e 9c64 3e3f 6880 63bf
000000c0: 8141 2ebe 5955 323f 2d10 d6bd 0417 293e
000000d0: 6d18 4a3f 0db9 873e e1ae 5c3f bcf6 f0bd
000000e0: 031c 273f ef21 5fbf e9bd 083d 4623 a1bd
000000f0: fa91 0bbf 58e4 2bbf 920f 753e a6c9 723f

lstm_cells.0.W_hc.weight f4 [64, 64]
0.041723497 0.012040305 -0.011740924 0.03342742 0.0073101795 0.12296856 -0.054444153 -0.09890902
0.050302666 -0.069666676 0.038679 -0.027064819 -0.016332021 0.07870178 -0.0051512485 -0.11189948
0.07576891 0.05723437 0.13599099 -0.08716686 -0.107150234 -0.045836322 0.0773015 0.054295804
0.05124095 -0.058690287 0.03433551 0.055829767 0.12600537 -0.10699481 0.09930931 -0.016638247
0.1067969 0.10224259 0.03979363 0.008698109 -0.10701574 0.112474546 0.08305254 0.060034424
0.0012125666 -0.108210176 -0.072941974 -0.10569264 -0.04102303 -0.014597057 0.058383156 0.021634843
-0.044745445 -0.018582381 -0.003486758 -0.087979175 -0.06832785 0.021201178 -0.0032687238 -0.022844408
-0.03491157 -0.05514512 0.10090864 0.09767843 0.022419648 -0.014277059 -0.13119677 0.108160175
-0.0027733475 -0.03100513 -0.0946608 0.062007274 0.08713741 0.022694992 -0.11545487 0.08092483
-0.072774045 0.027032398 0.04599153 -0.013670028 -0.10259426 -0.071724415 -0.040171217 0.10016137
0.064641215 0.011218803 -0.064289145 -0.006193353 -0.007867457 -0.055881448 0.023408396 -0.07389745
0.09106791 0.0014599755 -0.11042408 0.010732207 0.060847376 -0.014595523 0.030375445 -0.10885503
0.05311518 -0.104048826 -0.05541324 0.030369878 -0.08498608 0.12268448 0.094649315 -0.055056997
-0.07510797 0.100970306 -0.014231014 -0.1220043 0.0109899705 -0.09444538 -0.08112454 -0.08473287
0.024431102 0.100462325 -0.10235313 -0.014408549 -0.12165326 0.095937096 0.041863415 -0.06647662
-0.084921055 0.083885305 0.021863898 -0.07809149 -0.046107132 0.074540496 -0.026412932 -0.019029722
0.07025525 0.037534848 0.026985992 -0.038844306 0.1233171 0.026425138 -0.0099095395 0.049707655
0.07676822 0.05819187 0.07490299 0.01492901 0.025184928 -0.083962545 -0.04656587 -0.041673668
-0.045143053 -0.023431249 -0.068054125 0.087922014 0.017588546 0.058524497 0.07315263 -0.037930105
0.0071981465 0.08457298 0.06758876 0.02323969 -0.061244644 -0.10533886 0.028040994 -0.011328903
-0.09300082 0.106281705 0.024956498 -0.0038525227 0.005805294 -0.12782776 0.051035192 0.13222933
-0.08617086 -0.018858576 -0.1439754 0.025995098 -0.10604202 0.074572794 -0.028788464 0.092061445
0.05020623 -0.05266541 -0.034151033 -0.062382713 0.09699622 -0.10159587 -0.07235033 -0.07127255
-0.08808856 0.1315797 0.08291162 -0.054020856 0.140516 0.1084175 0.06629974 0.0146383
-0.009680823 0.039325617 0.021470107 -0.0514469 -0.001369761 -0.010561112 0.045506038 0.09809234
-0.10649531 -0.09079226 0.06732809 0.087662935 -0.070446044 0.022364637 0.050896898 -0.070243105
0.09979995 -0.045953006 -0.004042063 -0.043835483 0.063964464 -0.044390623 0.112178385 -0.01889454
-0.084020846 -0.032022517 0.06810068 0.11848211 0.06620624 0.087271005 -0.08133999 0.07730306
-0.11317949 -0.07254517 0.11605292 -0.07979116 -0.0032030947 0.124390915 -0.10975696 0.019648207
-0.022727065 0.02343639 0.12659933 0.026388075 0.092204645 -0.050192945 -0.09352189 0.09915516
-0.061259612 0.045541752 0.089208856 -0.01202179 -0.0704504 0.077655025 -0.06138098 -0.048879415
0.086087495 -0.024660606 -0.075108565 0.11637957 -0.1106366 -0.08140581 0.11693756 -0.04857401
00000000: 42e6 2a3d b344 453c 015d 40bc 31eb 083d
00000010: 3b8a ef3b f1d6 fb3d d500 5fbd d090 cabd
00000020: 2b0a 4e3d 67ad 8ebd df6d 1e3d 0ab7 ddbc
00000030: bbca 85bc 662e a13d cecb a8bb 8e2b e5bd
00000040: bb2c 9b3d 966e 6a3d 3941 0b3e 8a84 b2bd
00000050: 9571 dbbd debe 3bbd 4050 9e3d 4765 5e3d
00000060: 08e2 513d 3a65 70bd 64a3 0c3d c1ad 643d
00000070: 8d07 013e 1820 dbbd ae62 cb3d ef4c 88bc
00000080: 55b8 da3d 9064 d13d a5fe 223d 8382 0e3c
00000090: 112b dbbd 0e59 e63d 7317 aa3d a8e6 753d
000000a0: fcee 9e3a 4c9d ddbd 9a62 95bd 6275 d8bd
000000b0: c407 28bd 7f28 6fbc 2d23 6f3d 8e3b b13c
000000c0: 0047 37bd 143a 98bc 1882 64bb 6d2e b4bd
000000d0: 79ef 8bbd 18ae ad3c 1638 56bb 3224 bbbc
000000e0: 6fff 0ebd d9df 61bd 30a9 ce3d a10b c83d
000000f0: 69a9 b73c 53ea 69bc 7258 06be 1583 dd3d
00000100: 0dc1 35bb 78fe fdbc 86dd c1bd 57fb 7d3d
00000110: 1975 b23d d9ea b93c 9a73 ecbd ebbb a53d
00000120: 8f0a 95bd 0c73 dd3c 9d61 3c3d 41f8 5fbc
00000130: f01c d2bd 40e4 92bd 938a 24bd 6821 cd3d
00000140: 9d62 843d 12cf 373c 07aa 83bd 9cf1 cabb
00000150: 82e6 00bc f2e3 64bd f7c2 bf3c 8c57 97bd
00000160: d081 ba3d a65c bf3a 0526 e2bd 24d6 2f3c
00000170: 193b 793d 0f22 6fbc edd5 f83c 63ef debd
00000180: 4e8f 593d 8d17 d5bd fef8 62bd 40ca f83c
00000190: 2f0d aebd 0042 fb3d 80d7 c13d 7283 61bd
000001a0: 35d2 99bd 85c9 ce3d 3329 69bc 64dd f9bd
000001b0: 470f 343c 946c c1bd 9f24 a6bd 6d88 adbd
000001c0: bc23 c83c 31bf cd3d 859e d1bd d611 6cbc
000001d0: 5825 f9bd ab7a c43d f978 2b3d e524 88bd
000001e0: 17eb adbd 0fcc ab3d eb1b b33c 6eee 9fbd
000001f0: d5da 3cbd b0a8 983d ef5f d8bc 38e4 9bbc
00000200: fce1 8f3d 24be 193d ba11 dd3c 351b 1fbd
00000210: ad8d fc3d 8879 d83c 9f5b 22bc 419a 4b3d
00000220: a838 9d3d 995a 6e3d bd66 993d ce98 743c
00000230: 9f50 ce3c 8ef4 abbd dbbb 3ebd 02b2 2abd
00000240: ece7 38bd e4f2 bfbc f65f 8bbd 7510 b43d
00000250: db15 903c 62b7 6f3d 0cd1 953d 995c 1bbd
00000260: 6ede eb3b 9934 ad3d fa6b 8a3d 2a61 be3c
00000270: aadb 7abd e6bb d7bd 3ab6 e53c dd9c 39bc
00000280: 3777 bebd 39aa d93d 9271 cc3c 9b7a 7cbb
00000290: 563a be3b 48e5 02be 470a 513d 2067 073e
000002a0: 597a b0bd 4d7d 9abc 4a6e 13be acf3 d43c
000002b0: 8f2c d9bd 9fb9 983d c9d5 ebbc b68a bc3d
000002c0: 0ca5 4d3d afb7 57bd f4e1 0bbd 0485 7fbd
000002d0: f4a5 c63d 7f11 d0bd 692c 94bd 58f7 91bd
000002e0: c667 b4bd d4bc 063e 91cd a93d f944 5dbd
000002f0: 6de3 0f3e ff09 de3d 28c8 873d 7bd5 6f3c
00000300: 519c 1ebc e613 213d 14e2 af3c fcb9 52bd
00000310: 8d89 b3ba 8408 2dbc 8a64 3a3d a3e4 c83d
00000320: 371a dabd 4bf1 b9bd 4fe3 893d a088 b33d
00000330: 0446 90bd 0b36 b73c 4479 503d 9edb 8fbd
00000340: eb63 cc3d 3839 3cbd 4873 84bb d68c 33bd
00000350: cdff 823d f1d2 35bd c8bd e53d b9c8 9abc
00000360: 1f13 acbd 0b2a 03bd 5f78 8b3d c0a6 f23d
00000370: 2397 873d 24bb b23d 9595 a6bd 1151 9e3d
00000380: a6ca e7bd 9092 94bd 27ad ed3d 8c69 a3bd
00000390: 03eb 51bb aac0 fe3d 42c8 e0bd 47f5 a03c
000003a0: 1c2e babc acfd bf3c 41a3 013e ce2b d83c
000003b0: cad5 bc3d 1e97 4dbd 6888 bfbd dc11 cb3d
000003c0: 5ceb 7abd fd89 3a3d 22b3 b63d 0bf7 44bc
000003d0: 4d48 90bd 9909 9f3d 9f6a 7bbd c835 48bd
000003e0: a44e b03d 0a05 cabc 85d2 99bd 6958 ee3d
000003f0: 7195 e2bd 17b8 a6bd f67c ef3d 8bf5 46bd

lstm_cells.0.W_hc.bias f4 [64]
-0.05698021 -0.11350275 -0.0477132 0.109634325 0.044144046 0.029397413 0.13154228 0.094100505
-0.039089583 0.022293271 -0.11251224 0.06997078 -0.043997955 0.028342983 -0.017868249 0.06564537
-0.044698864 0.0051449444 -0.11267507 0.11560312 0.0070576738 -0.07706639 0.10932265 0.123083085
0.061075587 -0.055737007 0.06175049 0.12456236 0.10334794 -0.096135676 -0.04337529 -0.061047178
-0.056411646 0.03380425 0.04112353 -0.0597351 -0.00044192473 -0.09524532 0.0058765453 0.05653728
-0.030346002 -0.010159189 0.010304563 0.06487827 0.058370136 0.069831714 -0.085435346 0.031557556
-0.09788454 -0.030362383 0.06503928 -0.0001274292 -0.10191964 -0.081590496 -0.102528736 0.02372142
0.01826561 -0.070524655 -0.05688638 -0.08924438 0.0878146 0.07677007 0.017457113 -0.01344499
00000000: 1564 69bd 2174 e8bd eb6e 43bd f687 e03d
00000010: 63d0 343d d8d2 f03c 05b3 063e c4b7 c03d
00000020: 661c 20bd 61a0 b63c d16c e6bd d74c 8f3d
00000030: 3337 34bd 8b2f e83c 6f60 92bc 1471 863d
00000040: 2816 37bd ec96 a83b 30c2 e6bd 54c1 ec3d
00000050: 0f44 e73b fcd4 9dbd 8ee4 df3d fc12 fc3d
00000060: 652a 7a3d 7d4c 64bd 15ee 7c3d 8d1a ff3d
00000070: 16a8 d33d c8e2 c4bd 4aaa 31bd 9b0c 7abd
00000080: e60f 67bd 5376 0a3d 2671 283d cbac 74bd
00000090: 22b2 e7b9 fa0f c3bd 0990 c03b a393 673d
000000a0: 2e98 f8bc ba72 26bc 78d4 283c e6de 843d
000000b0: 8615 6f3d ee03 8f3d baf8 aebd 7f42 013d
000000c0: b177 c8bd 88ba f8bc 5033 853d 849e 05b9
000000d0: 3fbb d0bd eb18 a7bd 96fa d1bd 6c53 c23c
000000e0: c3a1 953c 3b6f 90bd b101 69bd c2c5 b6bd
000000f0: 24d8 b33d a039 9d3d 3802 8f3c 6048 5cbc

lstm_cells.0.W_in.weight f4 [64, 64]
-0.024239823 0.0129106045 -0.022883043 -0.02242738 0.069473594 -0.094007105 0.042880848 0.11490142
-0.01155591 0.031484082 0.0769099 -0.0005005747 0.00513801 -0.11487633 0.07672438 0.08569141
0.034698635 -0.04516387 0.05252111 0.021741524 0.06488308 -0.11273965 -0.0812137 0.049531877
-0.118012294 -0.019666627 -0.056087285 -0.09453668 -0.05920045 0.067506775 -0.12321146 -0.09645061
-0.07908116 -0.031863585 0.016134635 -0.077872574 0.023130104 -0.022590563 -0.06820284 -0.103931755
0.10792057 -0.061361372 0.04526785 -0.057871804 0.015595421 0.0507496 -0.06763233 0.124311194
0.005876586 -0.040209323 -0.04623176 -0.036150277 0.11316219 -0.014952213 -0.012898549 -0.12232031
0.097483546 -0.019580513 0.06117484 0.09793022 0.007987708 0.071036816 -0.099765256 -0.078504905
0.10921873 -0.061189592 -0.02863887 -0.097405955 0.11411147 -0.07824062 0.043030933 -0.0019392967
-0.11636855 -0.05138284 -0.120998666 0.11065836 0.0011799037 0.121164754 0.018660918 -0.102752715
0.10720527 -0.11190827 0.011275768 -0.07751772 -0.057935536 -0.01702039 0.05581993 0.10725021
-0.09572846 0.11968723 0.090434805 0.07971743 -0.09119631 -0.09832525 -0.037874863 0.07237153
-0.048011005 0.09078507 0.026233062 -0.026813522 -0.0035131872 -0.12143661 0.060770154 -0.0022041798
-0.04463257 0.034971982 0.0781063 -0.058866724 -0.038604334 0.013490677 -0.027947962 -0.08764835
-0.09942034 0.048369184 -0.07253665 0.10811503 -0.00978975 -0.050366372 0.085773125 0.123239204
-0.06556927 -0.09747529 0.035454556 -0.116025686 -0.031479836 -0.11393036 0.101965666 0.12203042
0.084432736 -0.06281471 0.07780145 0.08035275 -0.11675097 0.06877032 0.11370695 0.118390456
0.109320685 0.015964806 -0.09886949 0.009148568 0.119445294 0.07324681 0.09800245 -0.009115636
-0.07306495 0.098048344 -0.009910941 0.05905366 0.060650587 -0.10767156 0.043955132 -0.05128318
-0.011492595 0.11283845 0.009267628 -0.105534926 0.1099526 -0.086748764 0.101769984 0.10311495
-0.11286016 -0.04119891 -0.039930508 -0.08444655 0.055107728 -0.06424031 0.07374297 0.017208084
0.029032946 -0.122522965 -0.005851671 0.005128935 -0.06932764 0.0011962652 0.056985214 0.09087129
-0.08073917 -0.119410545 -0.052698776 -0.03592278 0.055417627 -0.09730169 -0.018573865 -0.09797549
-0.038945347 -0.041073754 0.09112446 0.010222226 0.12433614 -0.07309954 -0.11191666 -0.041251674
0.014228001 -0.006828919 0.066637084 0.120938614 0.073403224 -0.060694873 -0.07286559 0.0155368745
-0.026439384 -0.087163165 -0.088942334 0.068561494 0.008120418 0.0076242387 0.029373944 -0.08247198
0.010704085 -0.11838809 -0.093328014 -0.03036721 0.027906567 -0.07092789 -0.007963762 0.036366045
0.01567319 -0.009292737 -0.07027683 -0.12354244 -0.003101796 -0.06265299 0.11150721 0.0010871142
-0.005228162 0.11849846 0.077581584 0.10557851 -0.06985287 0.11656016 -0.013259932 -0.020755947
-0.09692235 0.014383137 -0.09287916 0.06350662 -0.079086915 0.05339089 -0.02773735 -0.02066657
-0.11479996 0.07666771 0.08749023 0.0075136423 -0.021509737 0.11212276 -0.08631435 0.038991272
-0.11047396 -0.018576413 0.11925462 0.004574895 -0.041428357 0.11190073 -0.0054263175 0.026326597
00000000: 9892 c6bc 0087 533c 3875 bbbc a0b9 b7bc
00000010: 2c48 8e3d cc86 c0bd d4a3 2f3d 7051 eb3d
00000020: 0055 3dbc 74f5 003d f082 9d3d 0039 03ba
00000030: c05c a83b 4844 ebbd ac21 9d3d fa7e af3d
00000040: 2820 0e3d c0fd 38bd 6020 573d 481b b23c
00000050: 6ce1 843d 0ce4 e6bd 5e53 a6bd f0e1 4a3d
00000060: 6eb0 f1bd e81b a1bc c8bb 65bd 729c c1bd
00000070: 2c7c 72bd fe40 8a3d 4a56 fcbd e687 c5bd
00000080: 4ef5 a1bd 6483 02bd c82c 843c a87b 9fbd
00000090: 587b bd3c d80f b9bc eead 8bbd 2cda d4bd
000000a0: 7605 dd3d 1056 7bbd c86a 393d fc0a 6dbd
000000b0: f083 7f3c d0de 4f3d d282 8abd de96 fe3d
000000c0: 6090 c03b 88b2 24bd 845d 3dbd 5012 14bd
000000d0: 94c1 e73d 20fa 74bc 7054 53bc 1283 fabd
000000e0: 74a5 c73d 5067 a0bc 7892 7a3d a48f c83d
000000f0: e0de 023c c07b 913d ba51 ccbd 2ec7 a0bd
00000100: 12ae df3d f0a1 7abd 109c eabc c67c c7bd
00000110: 46b3 e93d 9e3c a0bd 3441 303d 0030 feba
00000120: a252 eebd d076 52bd 26ce f7bd daa0 e23d
00000130: 00a7 9a3a 3a25 f83d c8de 983c 0470 d2bd
00000140: 708e db3d 2a30 e5bd 00be 383c 9cc1 9ebd
00000150: d04d 6dbd 586e 8bbc 70a3 643d 00a6 db3d
00000160: 480d c4bd 941e f53d e235 b93d e442 a33d
00000170: 22c5 babd c05e c9bd ac22 1bbd 8637 943d
00000180: 30a7 44bd 86ed b93d b8e6 d63c 08a8 dbbc
00000190: 803d 66bb c2b3 f8bd 20ea 783d 0074 10bb
000001a0: a4d0 36bd c83e 0f3d 32f6 9f3d 3c1e 71bd
000001b0: 941f 1ebd 0008 5d3c 20f3 e4bc fa80 b3bd
000001c0: e49c cbbd c41e 463d 188e 94bd 6a6b dd3d
000001d0: 3065 20bc f84c 4ebd d2a9 af3d d664 fc3d
000001e0: 2e49 86bd 20a1 c7bd cc38 113d e09e edbd
000001f0: 00f1 00bd 5254 e9bd 60d3 d03d 16eb f93d
00000200: 12eb ac3d 00a5 80bd 5e56 9f3d fc8f a43d
00000210: 221b efbd 74d7 8c3d 30df e83d b276 f23d
00000220: 86e3 df3d a0c8 823c 167c cabd e0e3 153c
00000230: bc9f f43d 6c02 963d 82b5 c83d c059 15bc
00000240: 14a3 95bd 92cd c83d 8061 22bc 40e2 713d
00000250: c06c 783d e882 dcbd 4c0a 343d 500e 52bd
00000260: 704b 3cbc d817 e73d 40d7 173c b222 d8bd
00000270: d42e e13d 56a9 b1bd c86c d03d ee2d d33d
00000280: 3a23 e7bd 30c0 28bd 2c8e 23bd 50f2 acbd
00000290: a4b8 613d 6c90 83bd 8e06 973d f8f7 8c3c
000002a0: 80d6 ed3c 52ed fabd 60bf bfbb a010 a83b
000002b0: a6fb 8dbd 00cc 9c3a 5469 693d ba1a ba3d
000002c0: 945a a5bd 848d f4bd acda 57bd c423 13bd
000002d0: 98fd 623d 1c46 c7bd 3828 98bc 60a7 c8bd
000002e0: 2885 1fbd f43c 28bd 769f ba3d 207b 273c
000002f0: f2a3 fe3d 36b5 95bd 9034 e5bd 84f7 28bd
00000300: 901c 693c 20c5 dfbb 0679 883d aaae f73d
00000310: 6e54 963d 309b 78bd 8e3a 95bd 608e 7e3c
00000320: 6897 d8bc 9a82 b2bd 6627 b6bd f869 8c3d
00000330: 800b 053c c0d4 f93b a0a1 f03c 12e7 a8bd
00000340: 3060 2f3c 7475 f2bd c222 bfbd a8c4 f8bc
00000350: 509c e43c a442 91bd 707a 02bc 90f4 143d
00000360: 1065 803c 9040 18bc 4ced 8fbd d203 fdbd
00000370: 8047 4bbb 3650 80bd e45d e43d 807d 8e3a
00000380: 0051 abbb 52af f23d 18e3 9e3d 8c39 d83d
00000390: 060f 8fbd 18b7 ee3d 3040 59bc 6008 aabc
000003a0: 3a7f c6bd 40a7 6b3c 6e37 bebd c20f 823d
000003b0: 52f8 a1bd 68b0 5a3d 7039 e3bc f04c a9bc
000003c0: 3e1c ebbd f603 9d3d 142e b33d 0035 f63b
000003d0: 3035 b0bc 9ea0 e53d 94c5 b0bd 50b5 1f3d
000003e0: 2c40 e2bd 902d 98bc c43b f43d 00e9 953b
000003f0: c8b0 29bd 362c e53d 40cf b1bb e0aa d73c

lstm_cells.0.W_in.bias f4 [64]
-0.12168223 0.0839695 -0.0009844303 0.11300251 0.09523356 0.10637836 0.011668831 0.10048753
0.039930552 -0.0037885308 -0.046406552 -0.030563504 0.09126656 0.04574059 -0.031339645 0.122012764
-0.09721157 0.0070777386 -0.06924288 0.06912741 -0.010188475 0.106848985 -0.0037703514 0.08151227
0.054435477 0.123182625 -0.052916825 -0.03362584 -0.047507152 -0.11081055 -0.10860181 0.022682533
-0.02229163 -0.043878406 -0.070470646 0.041602924 0.07723127 0.018538356 0.11719553 0.07153927
0.04933229 -0.04825893 0.035824597 -0.106038496 -0.052792385 0.11603369 -0.06632449 0.047007635
-0.0008222312 0.088673964 -0.07441941 0.019176394 0.0065388978 0.07378493 -0.004821658 -0.084227115
0.101776004 0.011794776 0.08152373 0.12405047 0.035594 -0.07059705 -0.11865124 0.08991681
00000000: 8834 f9bd 34f8 ab3d 0008 81ba dc6d e73d
00000010: d009 c33d e6dc d93d a02e 3f3c 68cc cd3d
00000020: 388e 233d 0049 78bb cc14 3ebd 5060 fabc
00000030: f6e9 ba3d 7c5a 3b3d 005e 00bd d4e1 f93d
00000040: dc16 c7bd 60ec e73b 36cf 8dbd ac92 8d3d
00000050: 90ed 26bc a4d3 da3d 0018 77bb e8ef a63d
00000060: bcf7 5e3d 2c47 fc3d 50bf 58bd 40bb 09bd
00000070: dc96 42bd a4f0 e2bd a06a debd b8d0 b93c
00000080: f09c b6bc d8b9 33bd ea52 90bd d467 2a3d
00000090: 6e2b 9e3d c0dd 973c 3604 f03d 2e83 923d
000000a0: a810 4a3d 28ab 45bd d0bc 123d b62a d9bd
000000b0: d43c 58bd 12a3 ed3d 22d5 87bd 148b 403d
000000c0: 008b 57ba b29a b53d 3469 98bd d017 9d3c
000000d0: 4044 d63b 8e1c 973d 00ff 9dbb 447f acbd
000000e0: f06f d03d e03e 413c eaf5 a63d 2c0e fe3d
000000f0: 04cb 113d 3095 90bd 6cff f2bd 4e26 b83d

W_h.weight f4 [64, 64]
0.024636561 0.075999945 0.005189727 0.061261125 -0.0370763 -0.009528266 0.09981756 0.14759766
-0.08751155 -0.051977027 -0.057486337 -0.006681228 0.07642232 0.008532451 -0.11794626 0.049300607
-0.14174604 0.029883435 -0.0724533 0.12795693 -0.039692007 -0.08458933 0.021337157 0.054210067
-0.067715734 0.082795314 -0.053938944 0.014621668 0.15399818 0.0051633604 0.14713413 -0.08936303
-0.06894099 -0.00022348967 0.08201739 -0.02035743 0.106873535 0.032004062 0.039877653 -0.021816753
-0.08990715 -0.003445707 -0.005758282 0.06809902 -0.08075686 -0.13497275 0.1048069 -0.01140423
-0.007487144 -0.105215035 0.1267696 -0.0004685025 0.008918217 0.071601704 -0.06778094 0.08634089
0.09453504 -0.051494274 0.06789447 -0.03870413 -0.06409956 0.013916308 -0.113390334 0.084871575
-0.07459342 -0.002210289 0.021952197 -0.012031832 0.023164138 0.10878175 0.024131145 0.04386977
0.13663574 0.10812207 0.047655534 -0.11152845 0.11299765 -0.07907578 -0.079046495 -0.079774894
0.12794812 0.06758078 -0.04364917 -0.062383614 -0.0811585 -0.05898431 -0.015439796 0.06293271
-0.028169755 0.09054677 0.0968075 0.09983314 -0.13864784 -0.024349444 0.079390466 0.026540712
0.06619169 -0.0157779 0.09353166 0.10604924 -0.038456067 0.022799216 0.0035793257 0.09460995
-0.08367959 0.1181412 -0.07002279 0.11186917 -0.010485939 0.1189516 -0.0036441172 -0.038717162
0.056444827 -0.062499437 0.01859345 0.02268374 -0.01029308 -0.07507511 0.08363532 -0.08888223
0.032860745 0.07880445 -0.1064586 -0.025273783 0.11377427 -0.031904873 0.07555824 -0.10710851
-0.021465167 -0.1120031 -0.021125372 0.06848618 0.11552257 0.07104068 0.04546986 -0.05180709
0.09299896 0.124712095 0.06659433 -0.06053742 -0.0876812 0.008602038 0.105429225 0.02448311
0.10224184 0.031706434 0.08254864 0.13694185 0.0022567962 0.07708777 0.005574333 0.06714799
-0.08222625 0.07314478 -0.054462284 -0.1121152 -0.085459776 0.04218129 0.05415467 0.023145804
-0.10248906 -0.08138828 0.10913781 -0.0499783 -0.021416342 -0.11842902 -0.031038797 0.08487581
-0.019945193 -0.05975358 0.093421824 0.08771921 0.06458227 -0.13150293 0.09643798 0.09751375
0.108237624 -0.059730902 0.02909281 0.12934133 -0.062793 0.11737524 -0.042953104 0.030633876
-0.06495105 0.08155419 -0.03674827 -0.12759048 -0.04430982 0.09110469 0.03157471 -0.091399945
0.13457407 -0.107600376 -0.08270143 -0.07871702 0.049138993 0.0046339734 -0.09857787 -0.07899228
0.06213255 0.105946794 0.037771992 -0.021270325 -0.0605894 -0.0785316 -0.0068682805 0.102077246
-0.020006916 0.13482085 -0.08941461 -0.06327698 -0.007838817 0.07874329 -0.0448693 0.08796885
0.107567325 -0.019886287 0.08686501 -0.036035746 0.08524438 0.0030752588 -0.006101171 0.04208282
0.11554126 0.052054033 -0.09861706 0.10827071 0.106424905 0.086682744 0.035893597 0.102820605
-0.00539729 0.07593705 -0.058860883 0.092001855 -0.11035296 0.047896773 -0.04261333 0.03022103
-0.0048282496 -0.07276087 0.053477284 0.10194524 0.027530301 -0.025382392 -0.09915336 -0.043481845
0.017303374 0.0018737498 0.12315338 -0.08115195 0.07035982 0.07273915 -0.017876534 0.10012903
00000000: 9dd2 c93c dca5 9b3d 960e aa3b f2ec 7a3d
00000010: 51dd 17bd 721c 1cbc 266d cc3d d723 173e
00000020: 4139 b3bd dde5 54bd cb76 6bbd 34ee dabb
00000030: 4e83 9c3d b1cb 0b3c cf8d f1bd 6fef 493d
00000040: e025 11be 1bce f43c 6562 94bd 2407 033e
00000050: 1694 22bd 2c3d adbd 43cb ae3c 600b 5e3d
00000060: 8cae 8abd 9790 a93d 15ef 5cbd b88f 6f3c
00000070: b3b1 1d3e 6831 a93b 54aa 163e f703 b7bd
00000080: ef30 8dbd 8d58 6ab9 bcf8 a73d a0c4 a6bc
00000090: 83e0 da3d b116 033d c056 233d 0cb9 b2bc
000000a0: 3d21 b8bd 5fd1 61bb f8af bcbb 8077 8b3d
000000b0: da63 a5bd 4c36 0abe 00a5 d63d cfd8 3abc
000000c0: b756 f5bb fb7a d7bd e4cf 013e 57a1 f5b9
000000d0: b71d 123c eaa3 923d bcd0 8abd 7ed3 b03d
000000e0: 969b c13d a9eb 52bd 420c 8b3d 3988 1ebd
000000f0: a146 83bd 3a01 643c 3139 e8bd 26d1 ad3d
00000100: 6fc4 98bd 7fda 10bb 18d5 b33c 2921 45bc
00000110: b8c2 bd3c f7c8 de3d aeae c53c cab0 333d
00000120: 3dea 0b3e 1b6f dd3d 7332 433d 0769 e4bd
00000130: 506b e73d 7cf2 a1bd 21e3 a1bd 0561 a3bd
00000140: d504 033e cb67 8a3d 79c9 32bd f685 7fbd
00000150: 6d36 a6bd 8899 71bd 33f7 7cbc dde2 803d
00000160: 42c4 e6bc 9670 b93d 0343 c63d 5175 cc3d
00000170: b3f9 0dbe 7c78 c7bc 7897 a23d e86b d93c
00000180: 828f 873d a840 81bc 878d bf3d 5830 d93d
00000190: 1c84 1dbd 6cc5 ba3c 1f93 6a3b ddc2 c13d
000001a0: 3460 abbd 03f4 f13d 1c68 8fbd aa1b e53d
000001b0: 37cd 2bbc e59c f33d 24d2 6ebb e395 1ebd
000001c0: b132 673d 69ff 7fbd 4a51 983c 40d3 b93c
000001d0: 4ea4 28bc fbc0 99bd ff48 ab3d e307 b6bd
000001e0: fd98 063d 3a64 a13d f706 dabd f70a cfbc
000001f0: 7c02 e93d afae 02bd 47be 9a3d b55b dbbd
00000200: b8d7 afbc e261 e5bd 1e0f adbc 7b42 8c3d
00000210: 1997 ec3d c77d 913d 9b3e 3a3d ac33 54bd
00000220: 3d76 be3d 0e69 ff3d 9c62 883d 16f6 77bd
00000230: 3392 b3bd 90ef 0c3c 47eb d73d ce90 c83c
00000240: 2b64 d13d 9bde 013d 430f a93d 7c3a 0c3e
00000250: c2e6 133b 31e0 9d3d e5a8 b63b e384 893d
00000260: 3c66 a8bd eecc 953d d813 5fbd a79c e5bd
00000270: 8905 afbd 4ac6 2c3d 4ad1 5d3d 459c bd3c
00000280: c9e5 d1bd e6ae a6bd a583 df3d 0cb6 4cbd
00000290: 5371 afbc ea8a f2bd 1345 febc 5ed3 ad3d
000002a0: 1a64 a3bc 2bc0 74bd f153 bf3d 21a6 b33d
000002b0: b643 843d b4a8 06be 4781 c53d 4ab5 c73d
000002c0: b0ab dd3d 64a8 74bd 0b54 ee3c 0e72 043e
000002d0: 9e99 80bd 6e62 f03d 98ef 2fbd e5f3 fa3c
000002e0: 0e05 85bd e205 a73d 5b85 16bd 14a7 02be
000002f0: 377e 35bd 1995 ba3d 7c54 013d e52f bbbd
00000300: c9cd 093e 965d dcbd 5e5f a9bd 6436 a1bd
00000310: f845 493d 96d8 973b 32e3 c9bd b4c6 a1bd
00000320: b37e 7e3d a2fa d83d ceb6 1a3d 1b3f aebc
00000330: 972c 78bd 2dd5 a0bd 500f e1bb e00d d13d
00000340: 8be5 a3bc 7a0e 0a3e 021f b7bd 5c97 81bd
00000350: 626e 00bc 2944 a13d dfc8 37bd 0329 b43d
00000360: 424c dc3d 91e8 a2bc 48e6 b13d 389a 13bd
00000370: 9b94 ae3d 488a 493b 55ec c7bb 095f 2c3d
00000380: e5a0 ec3d 9c36 553d bef7 c9bd 09bd dd3d
00000390: 4df5 d93d b986 b13d 2a05 133d 9c93 d23d
000003a0: c0db b0bb e284 9b3d 1c18 71bd 786b bc3d
000003b0: bc00 e2bd 682f 443d 518b 2ebd 1892 f73c
000003c0: 4b36 9ebb a703 95bd ff0a 5b3d aac8 d03d
000003d0: 3a87 e13c bcee cfbc eb10 cbbd 051a 32bd
000003e0: cebf 8d3c 9c98 f53a d737 fc3d fe32 a6bd
000003f0: cf18 903d 43f8 943d cf71 92bc 7310 cd3d

W_h.bias f4 [64]
-0.030324405 0.11396109 -0.0337983 -0.055458013 -0.013865499 0.021948883 0.10814854 0.13158984
0.058754083 0.11066815 -0.125932 -0.08930206 -0.06700868 0.07347714 -0.054964367 -0.015477408
-0.042636562 0.11318519 0.018380824 -0.012422234 -0.06875614 -0.045504693 -0.113824286 -0.0014193854
-0.00124766 0.04612227 -0.106376804 -0.060987025 0.12434657 -0.08246895 0.114932045 0.068191715
-0.11962184 0.11878746 0.08274571 0.12543716 0.11726585 -0.08283852 -0.058733497 -0.08174294
0.010776888 -0.12999794 -0.0687774 -0.049332734 -0.09822772 -0.0040574283 -0.072809935 -0.12994023
-0.036317486 0.122398235 0.0035241612 0.0150034195 0.029160531 0.027098048 0.041542612 -0.018219784
0.09622911 0.01619543 0.09114199 0.039353296 -0.115409985 0.006066129 0.079565726 0.09944723
00000000: e36a f8bc 6f64 e93d 1670 0abd f127 63bd
00000010: 1e2c 63bc 25ce b33c fb7c dd3d 7dbf 063e
00000020: 1fa8 703d fca5 e23d 51f4 00be 00e4 b6bd
00000030: d93b 89bd 2f7b 963d 5122 61bd f494 7dbc
00000040: ada3 2ebd a3cd e73d 6293 963c a086 4bbc
00000050: 05d0 8cbd 2163 3abd b51c e9bd ac0a baba
00000060: 8688 a3ba b5ea 3c3d 15dc d9bd 88cd 79bd
00000070: 6aa9 fe3d 7be5 a8bd 7e61 eb3d 19a8 8b3d
00000080: 4cfc f4bd d746 f33d 9576 a93d 9972 003e
00000090: 1429 f03d 3ea7 a9bd 8992 70bd d868 a7bd
000000a0: 8b91 303c 2e1e 05be 2adb 8cbd 1f11 4abd
000000b0: 9d2b c9bd 2df4 84bb 601d 95bd 0d0f 05be
000000c0: a5c1 14bd edab fa3d 9df5 663b e7d0 753c
000000d0: 11e2 ee3c bafc dd3c 9628 2a3d a841 95bc
000000e0: c513 c53d 47ac 843c a7a8 ba3d ec30 213d
000000f0: 125c ecbd 61c6 c63b 5bf3 a23d fdaa cb3d

W_g.weight f4 [64, 64]
0.058793057 -0.12983467 0.02182671 -0.13226537 0.08419004 0.07739632 -0.11739434 0.029403586
-0.053548776 0.028996993 -0.036052395 -0.12539268 -0.061420195 -0.05681389 0.03915585 -0.069389485
-0.12970439 0.07321866 -0.069161974 -0.029122746 -0.06943647 0.027874133 -0.0027145839 -0.06058328
-0.007106719 0.024014339 0.001960443 -0.13365187 -0.016839202 0.0055000964 -0.0092252465 -0.13031743
0.0014539995 -0.10490191 0.09224737 -0.012051808 -0.002759511 -0.043636195 0.036550604 0.05278424
0.10462144 -0.0906809 0.0340038 -0.08179271 -0.12397263 0.0050291275 0.0698037 0.077507526
0.06588684 -0.09548417 0.028133694 -0.024882946 -0.13104461 0.063948676 0.026192077 -0.05304099
-0.054375 -0.10240926 -0.0022152003 0.082370386 0.087317124 -0.06010864 0.08729106 0.11036825
0.02436695 0.10656562 0.050758097 -0.06531089 -0.018354157 0.11543699 0.053471837 0.056741092
0.012670196 -0.0024749888 -0.06765539 -0.03225851 -0.01300558 -0.0057170866 -0.036590483 -0.010399976
-0.08336239 0.051195446 0.12028142 0.08221235 -0.023205468 0.06435715 0.016489094 0.06326667
0.061230827 -0.075695 -0.102431096 -0.018529976 0.10154832 0.11416959 -0.036551904 -0.061611917
-0.029363224 -0.10617926 0.0056003733 0.06483684 -0.00981968 -0.040098127 -0.0013148607 -0.11418199
-0.046492036 -0.09276163 -0.1175751 0.047173027 -0.047412645 -0.008580604 -0.104729675 -0.05731983
0.0383257 0.016925478 -0.058204558 0.054883856 0.08642278 -0.07370911 -0.014748906 0.10006609
0.03444759 -0.080286615 -0.07804648 0.0551232 0.088947155 -0.10953406 0.015542496 0.069592156
-0.024330828 -0.055472422 0.074606344 -0.11826992 0.029126015 0.06205431 -0.0030578934 0.00068443303
0.0180729 -0.10713017 -0.09950809 -0.038992066 -0.07389611 0.07683189 0.04624703 0.053554665
0.08264263 0.087121055 0.061011937 0.1030301 0.041044574 0.008593359 0.09406558 0.10415053
0.017985653 -0.09876709 0.0004538383 0.09541711 -0.01784702 -0.065626666 -0.023489062 0.017102834
-0.04730243 0.12441095 -0.103310645 -0.06083114 -0.0979664 -0.07884824 0.034893062 -0.002784425
-0.10137497 0.0067208526 -0.08466765 -0.089274496 0.06484641 0.023462426 0.06957984 0.05342656
-0.031071713 0.048338216 -0.09207773 0.058757585 -0.008758308 0.061496414 0.08692047 0.052486014
-0.08018705 0.080725625 0.045876335 0.07397935 -0.11080986 -0.111868724 0.022430655 -0.120108664
0.070252374 0.046656173 0.10818033 0.046961453 -0.124084726 0.10034244 -0.12135936 0.028831115
-0.017201595 0.083976015 0.018176848 -0.056822363 -0.027263945 -0.055599827 0.111677974 0.10327296
0.028626243 0.047479015 0.10498828 0.03692056 -0.10018867 -0.05806193 0.022788981 0.10364306
-0.04528031 -0.0072703226 0.08478668 0.010055904 0.07655886 -0.0600389 -0.11584112 0.108884245
0.11118142 -0.029205462 -0.056988392 0.08901703 0.09771091 0.10776207 0.11943434 -0.03532007
0.007217049 0.060000684 -0.10135652 -0.02148736 -0.09559138 0.032337707 0.05460776 -0.12210043
0.10942975 0.11782546 -0.038851414 0.09298247 0.099734485 -0.049361724 0.027077267 -0.012724931
-0.10568559 0.108885795 -0.024444526 -0.08768131 -0.12712444 -0.07495482 -0.02834051 -0.06784871
00000000: fdd0 703d 61f3 04be eecd b23c 9370 07be
00000010: d46b ac3d f681 9e3d 726c f0bd cadf f03c
00000020: f655 5bbd 1a8b ed3c adab 13bd f066 00be
00000030: be93 7bbd aeb5 68bd e261 203d 131c 8ebd
00000040: 3ad1 04be aaf3 953d cba4 8dbd d392 eebc
00000050: b534 8ebd 4b58 e43c 29e7 31bb 2c26 78bd
00000060: 7bdf e8bb b8b9 c43c c77a 003b 09dc 08be
00000070: 5ef2 89bc 273a b43b 7d25 17bc ef71 05be
00000080: 2194 be3a d0d6 d6bd 30ec bc3d f274 45bc
00000090: e9d8 34bb debb 32bd 16b6 153d 4a34 583d
000000a0: c443 d63d e8b6 b9bd 9247 0b3d f082 a7bd
000000b0: 5de5 fdbd 61cb a43b 3ef5 8e3d 44bc 9e3d
000000c0: aeef 863d 348d c3bd a278 e63c 52d7 cbbc
000000d0: 8f30 06be 86f7 823d c490 d63c 8241 59bd
000000e0: 52b8 5ebd f2bb d1bd e52c 11bb ceb1 a83d
000000f0: 52d3 b23d 7a34 76bd a8c5 b23d c008 e23d
00000100: 339d c73c 133f da3d b9e7 4f3d b7c1 85bd
00000110: 755b 96bc 3b6a ec3d 4905 5b3d 5969 683d
00000120: a796 4f3c 6c33 22bb e98e 8abd 8021 04bd
00000130: 5b15 55bc 6656 bbbb e7df 15bd a964 2abc
00000140: e7b9 aabd 51b2 513d 1b56 f63d f35e a83d
00000150: 6519 bebc aecd 833d 2314 873c f591 813d
00000160: 2dcd 7a3d fb05 9bbd 65c7 d1bd 2dcc 97bc
00000170: 91f8 cf3d bfd1 e93d 73b7 15bd c75c 7cbd
00000180: 258b f0bc 8374 d9bd 5683 b73b 2dc9 843d
00000190: b9e2 20bc ef3d 24bd 6757 acba 3fd8 e9bd
000001a0: 6f6e 3ebd cff9 bdbd 37cb f0bd 8138 413d
000001b0: c333 42bd a995 0cbc 837c d6bd 33c8 6abd
000001c0: 69fb 1c3d 4da7 8a3c e767 6ebd e5cd 603d
000001d0: 6dfe b03d cdf4 96bd 65a5 71bc 73ef cc3d
000001e0: eb18 0d3d 4f6d a4bd d5d6 9fbd ddc8 613d
000001f0: ed29 b63d 6553 e0bd f4a5 7e3c 5586 8e3d
00000200: 7251 c7bc 0d37 63bd 36cb 983d 8037 f2bd
00000210: ae99 ee3c a92c 7e3d f066 48bb 866b 333a
00000220: 9e0d 943c 1067 dbbd e6ca cbbd 25b6 1fbd
00000230: d856 97bd 0a5a 9d3d 876d 3d3d 235c 5b3d
00000240: 8a40 a93d 866c b23d a7e7 793d 7201 d33d
00000250: 5b1e 283d 29cb 0c3c 74a5 c03d e04c d53d
00000260: a656 933c 6646 cabd 25f1 ed39 0c6a c33d
00000270: ea33 92bc 4667 86bd 226c c0bc 3e1b 8c3c
00000280: 31c0 41bd 2bcb fe3d 8894 d3bd 132a 79bd
00000290: 9ca2 c8bd 307b a1bd 07ec 0e3d e67a 36bb
000002a0: ae9d cfbd 993a dc3b 3c66 adbd 8cd5 b6bd
000002b0: 32ce 843d 4634 c03c e07f 8e3d cfd5 5a3d
000002c0: 1b8a febc 4bfe 453d 4093 bcbd cbab 703d
000002d0: 027f 0fbc aae3 7b3d 5c03 b23d 93fb 563d
000002e0: 1c39 a4bd 7a53 a53d d3e8 3b3d 7c82 973d
000002f0: 48f0 e2bd 6e1b e5bd 7ec0 b73c 88fb f5bd
00000300: 7ae0 8f3d 8b1a 3f3d a68d dd3d a75a 403d
00000310: 2220 febd 5680 cd3d 428b f8bd 3b2f ec3c
00000320: 5cea 8cbc 9efb ab3d 9de7 943c 91be 68bd
00000330: a358 dfbc a5bc 63bd 6cb7 e43d c680 d33d
00000340: 9581 ea3c 5b79 423d 1804 d73d 033a 173d
00000350: b82f cdbd 59d2 6dbd f5af ba3c d042 d43d
00000360: d977 39bd e33b eebb a4a4 ad3d 85c1 243c
00000370: e4ca 9c3d 59eb 75bd 1c3e edbd b4fe de3d
00000380: 16b3 e33d 4b40 efbc a96c 69bd 904e b63d
00000390: a81c c83d 5cb2 dc3d fe99 f43d c7ab 10bd
000003a0: ff7c ec3b 47c3 753d 0294 cfbd 4306 b0bc
000003b0: 6ac5 c3bd 8b74 043d 63ac 5f3d ca0f fabd
000003c0: b41c e03d 7a4e f13d a922 1fbd 986d be3d
000003d0: 9841 cc3d 852f 4abd 25d1 dd3c 3b7c 50bc
000003e0: b071 d8bd 84ff de3d e33f c8bc 4292 b3bd
000003f0: e92c 02be ea81 99bd 5b2a e8bc 44f4 8abd

W_g.bias f4 [64]
0.090952694 -0.034021597 0.103572994 0.048325207 -0.12676117 0.07084981 0.01735869 -0.102160595
0.092534706 0.034671698 -0.08145684 -0.0480594 0.026415257 -0.09843115 -0.011797543 0.045119498
0.11768466 0.112133406 0.092830166 0.003713918 0.046393678 0.013209029 0.04729038 0.059590124
-0.10940333 0.12114494 -0.09921672 0.07662921 0.0047964384 0.03275267 -0.004698835 0.10855316
0.025952104 0.08806095 0.10857659 -0.06541037 -0.09677602 -0.092431754 -0.06581991 -0.082149655
0.024252633 -0.10567563 0.05184699 -0.12732238 0.09083911 -0.014558066 -0.05455129 -0.060023323
0.040908884 -0.07567691 -0.124734655 0.031209998 -0.10906817 0.11160503 0.06382318 -0.10946066
-0.1098829 0.109129034 0.055036515 0.051867977 -0.02188715 -0.08553906 0.023558348 0.10384569
00000000: 6845 ba3d 3b5a 0bbd 141e d43d a7f0 453d
00000010: aecd 01be b519 913d d033 8e3c 9339 d1bd
00000020: d682 bd3d e903 0e3d d8d2 a6bd efd9 44bd
00000030: cf64 d83c 4596 c9bd 7b4a 41bc 39cf 383d
00000040: a804 f13d 33a6 e53d be1d be3d 3465 733b
00000050: 4c07 3e3d af6a 583c 8fb3 413d c614 743d
00000060: da0e e0bd d71a f83d 2332 cbbd c6ef 9c3d
00000070: 712b 9d3b aa27 063d aff8 99bb 1f51 de3d
00000080: 8299 d43c 4d59 b43d 675d de3d dff5 85bd
00000090: 8232 c6bd dc4c bdbd 97cc 86bd 143e a8bd
000000a0: 75ad c63c 776c d8bd 825d 543d cc60 02be
000000b0: db09 ba3d f484 6ebc 2c71 5fbd 04db 75bd
000000c0: 1390 273d 7ffc 9abd e274 ffbd 1cac ff3c
000000d0: 225f dfbd 2e91 e43d bab5 823d e92c e0bd
000000e0: 490a e1bd 0b7f df3d f86d 613d 8473 543d
000000f0: ae4c b3bc 1a2f afbd 70fd c03c 0dad d43d

W_x.weight f4 [64, 1]
0.18393226 0.5640209 0.60409296 -0.09726164 0.8896836 -0.1256078 -0.4472156 -0.43868303
-0.6975929 0.009723092 -0.043244682 -0.028401386 -0.3548417 -0.1386624 -0.5316391 -0.85019726
0.4225681 -0.3571569 -0.54931885 0.5094229 -0.62760127 0.9615371 0.9056373 0.17897525
0.71698624 0.36677286 0.18107535 -0.33457357 -0.51484805 0.7311285 -0.45268008 0.41622233
-0.0707159 0.868922 0.9524749 -0.38342205 -0.18380126 -0.7982699 -0.7276378 0.5489473
0.7902936 -0.79187757 -0.056887448 -0.9349434 0.6448366 -0.7590039 0.71788776 0.5796108
-0.92895657 -0.52907455 0.9443918 0.7482995 -0.7930032 -0.5710561 -0.8485948 0.9579526
-0.0016375217 -0.42959931 -0.9910479 0.87493706 -0.95864487 -0.09298365 0.64360744 0.05575341
00000000: bd58 3c3e ac63 103f d6a5 1a3f 1c31 c7bd
00000010: 4ec2 633f 559f 00be 71f9 e4be 109b e0be
00000020: 7395 32bf 9b4d 1f3c 5621 31bd 06aa e8bc
00000030: d0ad b5be 84fd 0dbe 8019 08bf 87a6 59bf
00000040: d95a d83e 45dd b6be 29a0 0cbf 8a69 023f
00000050: 7aaa 20bf 4c27 763f d9d7 673f 4a45 373e
00000060: 698c 373f a7c9 bb3e d16b 393e 3a4d abbe
00000070: 15cd 03bf 3d2b 3b3f afc5 e7be 181b d53e
00000080: 7fd3 90bd ac71 5e3f 65d5 733f e54f c4be
00000090: 6636 3cbe 6b5b 4cbf 7946 3abf cf87 0c3f
000000a0: ae50 4a3f 7db8 4abf d002 69bd 7358 6fbf
000000b0: 0314 253f 144e 42bf 7ec7 373f 6061 143f
000000c0: 19d0 6dbf 6e71 07bf a9c3 713f 8e90 3f3f
000000d0: 4202 4bbf bc30 12bf 823d 59bf 623c 753f
000000e0: 1ca2 d6ba 71f4 dbbe 51b5 7dbf e0fb 5f3f
000000f0: c069 75bf 366e bebd 75c3 243f b05d 643d

W_x.bias f4 [64]
0.673121 -0.050880443 0.31488585 0.58814013 0.6063958 0.49668697 0.5788415 0.11642208
0.7236108 0.253766 0.08263317 0.72220004 -0.8710163 -0.9852046 0.41390526 0.6216929
-0.8111299 -0.65969557 0.3743081 0.6737911 -0.5197955 -0.09588107 0.05514578 0.47206363
-0.85885334 -0.9193915 0.76061326 -0.114027515 -0.49702582 0.27843893 0.040676292 0.47220954
0.14812095 0.18241493 -0.926601 -0.4576377 -0.7952978 -0.31352592 0.41281042 -0.15277751
-0.08733864 0.844968 -0.39209923 0.111890495 0.111013345 -0.04491107 -0.87453556 0.66411173
-0.7424431 0.08111971 0.981552 -0.36643794 0.95226264 -0.66673845 0.04833027 0.6369913
0.4264845 -0.90699965 0.26927435 -0.46154323 0.14470145 0.3245741 0.76484644 -0.61861813
00000000: a851 2c3f 0368 50bd b838 a13e 5a90 163f
00000010: c13c 1b3f c14d fe3e f52e 143f b36e ee3d
00000020: 8f3e 393f 9eed 813e 943b a93d 1ae2 383f
00000030: edfa 5ebf 5e36 7cbf 64eb d33e 4427 1f3f
00000040: 36a6 4fbf cfe1 28bf 50a5 bf3e 937d 2c3f
00000050: 5111 05bf 4b5d c4bd 8be0 613d 53b2 f13e
00000060: d0dd 5bbf 3e5d 6bbf 8db7 423f 4287 e9bd
00000070: 2b7a febe 8c8f 8e3e 2f9c 263d 73c5 f13e
00000080: 05ad 173e fbca 3a3e b935 6dbf 7d4f eabe
00000090: a398 4bbf 7886 a0be e35b d33e b571 1cbe
000000a0: 9ade b2bd d34f 583f 3bc1 c8be d826 e53d
000000b0: f75a e33d acf4 37bd 90e1 5fbf 3a03 2a3f
000000c0: c010 3ebf 1722 a63d fe46 7b3f c19d bbbe
000000d0: 7cc7 733f 5faf 2abf f6f5 453d dd11 233f
000000e0: 2d5c da3e 2131 68bf 54de 893e 654f ecbe
000000f0: 9e2c 143e 942e a63e facc 433f c25d 1ebf

W_1d.weight f4 [1, 64]
-0.0014000664 0.058382794 0.005580083 -0.087849416 -0.0040561473 -0.045851592 -0.008440879 -0.0015181969
-0.06412949 -0.032713354 -0.0015865304 0.025074696 0.021807231 0.037545446 -0.05295603 -0.08823358
0.08076865 0.001143264 -0.06148574 0.014580949 0.004257844 0.048813075 -0.027662462 0.02275416
-0.044406254 -0.017385777 0.030215483 0.0013459375 0.024424713 -0.013848384 0.016728718 0.043933716
0.03720889 0.043815937 0.004802898 -0.00060901017 0.053653654 -0.0071560238 -0.0020381804 0.007555257
0.0140768 0.031361658 0.061128832 0.05530121 0.008561759 0.012616267 -0.0075003514 0.02142197
-0.0990767 -0.08395418 0.045341518 0.016067851 0.0031216932 -0.01668528 -0.00865033 0.0035044495
0.05300807 -0.0077894023 -0.029838253 -0.028863063 -0.009209266 -0.0055513154 0.00459222 0.0034029416
00000000: 6f82 b7ba cc22 6f3d 21d9 b63b 65ea b3bd
00000010: 6ee9 84bb e1ce 3bbd 9d4b 0abc 3cfe c6ba
00000020: 5256 83bd 70fe 05bd 20f3 cfba 7369 cd3c
00000030: 14a5 b23c 41c9 193d 6ce8 58bd cfb3 b4bd
00000040: 096a a53d 93d9 953a 79d8 7bbd efe4 6e3c
00000050: 6285 8b3b 38f0 473d 639c e2bc ef66 ba3c
00000060: 55e3 35bd 9e6c 8ebc 7686 f73c 2b6a b03a
00000070: 5616 c83c 55e4 62bc aa0a 893c d7f3 333d
00000080: 5968 183d 5778 333d a161 9d3b fba5 1fba
00000090: efc3 5b3d 147d eabb fe92 05bb 1792 f73b
000000a0: 61a2 663c 1575 003d 3a62 7a3d 8683 623d
000000b0: 9f46 0c3c 76b4 4e3c 82c5 f5bb 217d af3c
000000c0: bae8 cabd 2bf0 abbd 07b8 393d baa0 833c
000000d0: 5295 4c3b 91af 88bc 1dba 0dbc e8aa 653b
000000e0: fd1e 593d 3e3e ffbb 5a6f f4bc 3b72 ecbc
000000f0: 76e2 16bc cfe7 b5bb 557a 963b e303 5f3b
