model_weight/best_RUSSIA_model.pth (torch, 73864 bytes, 14 tensors)

lstm_cells.0.b_c f4 [64]
000000 d3 4f cf ba 3a 02 11 bb ec a6 ba 3b 60 89 fb bc
       -0.0015816636 -0.0022126571 0.005696168 -0.030705154
000010 15 1e 0e bd 08 dd 3b bc cd ef a0 3c 83 69 c8 3b
       -0.034696657 -0.011466272 0.019645596 0.0061160936
000020 58 f7 18 3d 2a 87 c6 bb 53 2b e3 3b ee 46 5c bc
       0.03734526 -0.0060585933 0.006932655 -0.013444645
000030 e9 80 1b bc 77 ca 9e 3c d8 49 e6 bc 4f 48 1d bc
       -0.009491184 0.019383652 -0.028111383 -0.009599759
000040 d6 47 77 bc 3a a2 b2 bc 38 61 ed 3b e7 ca ee 3c
       -0.015092811 -0.021805871 0.0072442554 0.029149486
000050 6f 12 42 3d fa 95 94 3c ff 60 6b 3c 44 e8 4d 3b
       0.04738086 0.01813792 0.014366387 0.0031418959
000060 f3 b3 5e 3b 41 3d ad 3b 27 c7 62 3c 7b 8b fa 3b
       0.003398177 0.005286843 0.013841427 0.007646022
000070 81 09 0a 3d b3 5f 57 bb 44 a6 80 bb 1d 3f 4b bc
       0.03370047 -0.0032863438 -0.0039260704 -0.012405184
000080 88 14 9f bc 50 d5 b1 3c 21 91 2b bc b0 31 32 3b
       -0.01941897 0.02170816 -0.010471613 0.002719026
000090 bc 04 60 bc 84 c5 16 3b 02 57 96 3c f2 6d 8b bc
       -0.013673004 0.0023005912 0.018352035 -0.0170202
0000a0 72 26 33 3d f8 00 a7 3b 68 91 38 3c 82 83 19 3d
       0.043737836 0.005096551 0.011265136 0.03747893
0000b0 cc cc a6 bc cd 5e fd bc cd 2e 50 3c c5 79 13 bd
       -0.020361327 -0.030928994 0.012706471 -0.0360048
0000c0 f7 d0 f4 bb 07 7e f9 3b 60 24 40 3a 02 d8 61 bc
       -0.0074711996 0.0076139006 0.0007329639 -0.01378441
0000d0 a8 7c 92 3c c9 88 be bb c1 4f 88 3c 6f 68 18 3b
       0.017881706 -0.005814646 0.016639592 0.0023255607
0000e0 c5 b6 14 3c d4 a7 19 bc 49 36 d3 3c db f5 56 bc
       0.009076779 -0.009378392 0.025782721 -0.01312014
0000f0 10 3a 96 bc f7 da 5c bb 6f 69 eb bb 79 fd 4c 3c
       -0.018338233 -0.003369985 -0.0071841995 0.012511604

lstm_cells.0.W_ic.weight f4 [64, 1]
000000 a7 7e d2 be eb 3d ac 3d a9 6c c7 be b6 4f 73 bf
       -0.41112253 0.084102474 -0.3895009 -0.95043504
000010 7c fc 91 be 3d a1 10 3f f0 a2 68 3e ae dc 68 3f
       -0.28512943 0.5649603 0.22718406 0.9096173
000020 e7 9a 10 bf a8 23 1a 3f 38 f7 e3 3e 52 41 2d 3e
       -0.5648636 0.6021066 0.4452455 0.16919449
000030 6b 34 01 be 63 9e 5c 3f 18 f8 86 3e 9c c1 26 bf
       -0.12617652 0.8617918 0.26361156 -0.65139174
000040 46 8b 98 3e dd 10 58 bf 4f 9b 29 bf db 4e 85 3e
       0.29793757 -0.8440073 -0.6625261 0.26036724
000050 1b 52 00 3f f6 74 bc 3e c1 19 7d 3f 5e 8a ba be
       0.50125283 0.36807984 0.9886742 -0.3643369
000060 c5 ef 77 bf ec 0e 38 3d aa 0d 72 3f ad c8 f3 be
       -0.96850234 0.044936106 0.945521 -0.4761404
000070 87 21 57 3f f5 3c 77 3e e5 60 2e 3f 88 94 25 bf
       0.84035534 0.24144347 0.681166 -0.64679766
000080 c3 81 eb bd dc b9 27 bf 1b d1 01 3e be 04 0f bf
       -0.114993595 -0.65517974 0.12677424 -0.5586661
000090 c3 2e fd be fd d1 60 bf fb 95 bd be 79 03 63 bf
       -0.4944974 -0.87820417 -0.3702849 -0.88677174
0000a0 1e 1b eb 3e 2c 1c a8 be 1d 5c 2b 3f 91 19 49 3f
       0.45919126 -0.32833993 0.6693743 0.78554636
0000b0 52 e7 fb be a8 ec 60 bf 3c 21 91 3e cd 50 5d bf
       -0.4919992 -0.8786111 0.28345668 -0.8645142
0000c0 60 21 cb 3e e5 b3 20 bf ac 83 8b be 40 74 fb bc
       0.396739 -0.627745 -0.27248895 -0.03069508
0000d0 a6 c7 e8 3e 23 d5 26 3f e1 3c 7d 3f 4f 13 38 be
       0.4546482 0.6516897 0.9892102 -0.17976116
0000e0 90 a6 b9 3d 6a 96 5b 3e f5 53 90 3e 3a 87 f7 3e
       0.090649724 0.21444097 0.28189054 0.48345357
0000f0 b4 5e ef be 85 40 44 3f 0d ec 61 3f f3 58 36 3f
       -0.4675194 0.7666095 0.8825081 0.71229476

lstm_cells.0.W_ic.bias f4 [64]
000000 48 33 c0 3c 2a 6b 28 be 36 dc 32 bf 20 5c 1c 3f
       0.023461953 -0.1644713 -0.69867265 0.6107807
000010 6b 5a 31 3f f2 3d 3b 3f 60 36 83 be 45 e3 5c 3f
       0.6927859 0.73141396 -0.25627422 0.86284286
000020 f2 72 74 bf 1d 0c 4e 3e 42 de 5e 3f 57 0d 16 3f
       -0.9548789 0.20121808 0.8705789 0.58614105
000030 fc b4 45 3f 46 ec bf be 82 33 d7 3e c0 e0 17 3f
       0.77229285 -0.3748495 0.42031485 0.59327316
000040 0d 0c 3f 3f 7f a4 69 3f 01 3c 1a bf 6f 7b c6 be
       0.74627763 0.91266626 -0.6024781 -0.38766047
000050 3f 11 61 bf 0d bf b1 be 53 4e e4 bc fb f1 70 bf
       -0.8791694 -0.34716073 -0.02786938 -0.9411923
000060 30 ad 70 bf 52 30 42 bd 57 f0 e6 be c7 f3 3b bf
       -0.94014263 -0.047409363 -0.4510524 -0.7341885
000070 20 c6 49 bf 40 e2 16 3f 56 d8 16 3f b0 42 87 3e
       -0.7881794 0.5893898 0.5892385 0.26418066
000080 dc 78 36 bd ba de 63 bf a3 09 72 3f 9e 66 67 bf
       -0.044548854 -0.8901173 0.94545954 -0.90390956
000090 c5 ba bc be 1a ea fe be d6 41 43 bf ce 6b 4f 3f
       -0.36861244 -0.4978798 -0.7627233 0.8102387
0000a0 db ab 13 bf 1e 46 02 bf 91 34 85 be 99 bc dd be
       -0.57684106 -0.5088824 -0.26016667 -0.4330795
0000b0 b2 9f 0b be 3e a8 ed be ab 93 7b bf 0a 11 d4 3e
       -0.13635138 -0.4641742 -0.982722 0.4141925
0000c0 8e 42 a5 3e 96 cb 1c bf a0 4a 01 3e b8 bc 75 3f
       0.3227734 -0.6124815 0.12626123 0.95991087
0000d0 01 3f d2 be eb 4f 0b 3e 02 e4 4e bf d5 aa fb be
       -0.41063693 0.13604705 -0.8081666 -0.49153772
0000e0 24 10 8c be 72 09 22 3f b6 ce 37 bf ff bd 64 3f
       -0.27356064 0.6329566 -0.7179979 0.8935241
0000f0 94 00 4d 3f 6f 64 0c 3f 1c d5 9d 3e 2d e2 f7 bd
       0.8007901 0.5484075 0.30826652 -0.121036865

lstm_cells.0.W_hc.weight f4 [64, 64]
000000 9d 35 04 be 1e e5 fa 3d 65 7d 8d 3d 31 8e d4 3d
       -0.12911077 0.12250732 0.06908683 0.10378683
000010 ae d6 cf bd 59 03 51 bd 76 ab 3e 3d 4d 2c da 3d
       -0.10148369 -0.051028583 0.046550237 0.10652981
000020 2f fc 67 bd ae 5c 9c bc d5 76 97 bd e4 11 cd 3c
       -0.056636985 -0.019087162 -0.07395712 0.025032945
000030 89 2d 6d 3c 47 1d 29 3d 09 c7 e5 3d e9 10 f2 bd
       0.014476188 0.041287687 0.112196036 -0.118196316
000040 65 6b 3a 3d 6a 71 bb bd 82 cf 17 3c 18 28 5d 3d
       0.045512576 -0.091524914 0.009265782 0.053993315
000050 9b d7 12 bd 65 69 94 bd df ba 8e 3d 96 9f d7 3d
       -0.03585015 -0.07246665 0.069692366 0.105284855
000060 32 07 82 b9 4d 64 dc bd 2f 8b ce bd 88 1a ad 3d
       -0.00024800893 -0.10761318 -0.10085141 0.08452326
000070 8b b1 33 3d 57 53 f7 bd 0c 49 85 bd 0a 85 d4 bc
       0.04387049 -0.12076443 -0.06508073 -0.025942344
000080 90 1a bc 3d ea c4 e7 bd e8 be 0d bd 52 a5 16 3c
       0.09184754 -0.11316855 -0.03460589 0.009194689
000090 85 fb d9 3d b2 c2 d0 3d 8d ec 3e 3c 65 a7 dc 3d
       0.10643677 0.10193385 0.011653078 0.107741155
0000a0 77 62 05 bd 8a 7c 81 3d 57 f6 d9 3d b2 77 bf bc
       -0.032564607 0.06322582 0.10642689 -0.023372505
0000b0 4b 33 04 3c d9 4a 88 3d 6d 83 cd 3d 7e 25 f8 bd
       0.00806887 0.06654901 0.10034833 -0.12116526
0000c0 5d 22 07 be e4 80 78 bd f8 21 49 bc 72 9e da bd
       -0.13196702 -0.060669795 -0.012276165 -0.10674752
0000d0 0e d1 fa bd de bc 2d 3d 07 67 db bd 5e f3 54 bd
       -0.12246905 0.042416446 -0.1071301 -0.051989906
0000e0 0e 67 b7 bd 66 58 b0 bd 0e c5 87 bd c0 19 06 be
       -0.08955203 -0.08610611 -0.06629382 -0.1309576
0000f0 16 fd d9 3d 34 e7 db 3b 88 63 ea 3d 88 d8 c5 bd
       0.106439754 0.006710911 0.11444765 -0.09660441
000100 c3 60 4e 3d 84 c5 95 3c ee ff 25 3d 3f af 0b 3d
       0.050385248 0.01828266 0.040527277 0.034102675
000110 e5 a5 fd 3b dd fa 05 bd 82 8c 3b bd c2 9a 82 bb
       0.0077407234 -0.032709945 -0.045788296 -0.0039857337
000120 94 64 43 3d 14 3d 4c 3d 00 54 01 3c c6 d8 68 3d
       0.04770334 0.049862936 0.007893562 0.056847356
000130 b7 e1 66 bc 02 0a db 3d b4 be a0 3d 58 f6 a3 3d
       -0.014091901 0.10695268 0.07848874 0.08005971
000140 1b 61 bf 3d af e8 ad 3d d4 77 cc bc 13 fb 3c bd
       0.09344693 0.084916465 -0.024959482 -0.04613788
000150 40 07 05 3e e2 b5 2b 3d ed 01 20 bd 6e c1 ee bd
       0.12991047 0.041921504 -0.039064337 -0.116579875
000160 11 e8 74 bd c1 a2 c4 3d fa ec da 3d e2 ad 09 be
       -0.05979163 0.09601355 0.10689731 -0.13445237
000170 3e d4 c8 bb 91 87 72 3d 05 58 85 3d ae fd c4 3d
       -0.006128817 0.059211317 0.06510929 0.09618698
000180 bc 47 3e bd ff fe 52 bc a4 14 61 3d 4d 09 4f 3d
       -0.04645513 -0.012878179 0.054951325 0.05054598
000190 23 42 a1 3c a5 ef 34 3d 9f cc f7 bc 63 77 b8 bc
       0.019684857 0.044173855 -0.030248938 -0.022517866
0001a0 3b 35 a7 ba 88 3c 9a bb a8 cf 09 bd 26 c5 8f 3d
       -0.0012756953 -0.004706923 -0.033645302 0.07020025
0001b0 b7 cb 51 bc 4e 7e f1 bd 68 9d d2 3c 34 5c 21 3d
       -0.012804917 -0.11791669 0.025709823 0.039394572
0001c0 2b 28 e5 3c d7 13 e2 3c 0c a9 a4 bd 22 0c 83 bd
       0.027973255 0.027597351 -0.08040056 -0.063987985
0001d0 ba 68 cc bd c4 2d 5e bd 73 0b 8f bd 94 19 de bd
       -0.099809125 -0.054242864 -0.06984606 -0.108447224
0001e0 7a 82 98 bd c6 20 19 bd e9 c1 51 bc 8e 32 09 3e
       -0.074467614 -0.03738477 -0.012802579 0.13398191
0001f0 ea bd 03 be 87 d4 ba bc 21 54 b7 3d 62 b3 fa bb
       -0.12865415 -0.022806419 0.08951593 -0.0076507786
000200 58 07 8e 3d 3d 87 da 3d f7 bf 85 bd 9f ee ef 3c
       0.069349945 0.10670326 -0.06530755 0.029288588
000210 79 77 21 3c ef d4 bb 3d 43 72 0c 3d 8d b7 ef 3d
       0.009855145 0.09171473 0.034288656 0.117049314
000220 84 46 e6 bd 82 54 b4 3d b5 36 45 bd 95 cc 51 bc
       -0.112439185 0.08805181 -0.048147876 -0.012805124
000230 8c f9 bd bd 3a 24 77 bd c5 34 bc bd 91 92 8f bd
       -0.09276113 -0.060337283 -0.091897525 -0.07010377
000240 16 ba e7 3d 13 1e 8b bd 92 55 17 3d 6a ac dc 3d
       0.1131479 -0.067928456 0.03694684 0.10775073
000250 73 c0 61 bd 78 57 3c 3d ed ce bd bd 17 4c dd bd
       -0.055115175 0.045981854 -0.092679836 -0.108055286
000260 a6 95 09 3d 36 6e 66 bd 63 7c da 3d b3 ee 86 3d
       0.03358998 -0.05625745 0.10668256 0.06588497
000270 d3 24 bc 3c 4c 94 15 3e 00 d0 15 bd be 84 e0 3c
       0.022966778 0.14607352 -0.036575317 0.027407046
000280 8b 91 57 bd 6d 7a c5 3d b3 37 1f bd 74 67 ae 3d
       -0.052629035 0.096424915 -0.03887148 0.08515826
000290 2d 07 16 bd b8 84 22 3d 99 1c c4 bd b6 57 a6 3d
       -0.036627937 0.03967735 -0.09575767 0.08122198
0002a0 9d d2 26 bc 55 ca 8c 3d 80 bb 1a bd ee ab 3e bd
       -0.01018205 0.06874529 -0.03777647 -0.046550684
0002b0 ce 52 a6 bd a4 dc 25 3d b9 95 00 be a4 be b0 3c
       -0.081212625 0.040493622 -0.12557115 0.02157528
0002c0 91 b8 b6 3d 29 79 c3 3d a9 b3 c5 3d b7 30 27 3d
       0.08921922 0.09544594 0.09653408 0.040817942
0002d0 cf f2 ef bd 98 e6 fd 3d 77 d3 8f bd 1a 99 c7 bd
       -0.11716234 0.12397498 -0.070227556 -0.09745999
0002e0 ce ac aa bd 0a a1 d9 bd 58 43 da bd 4e 76 fa 3d
       -0.08333741 -0.10626419 -0.10657376 0.12229596
0002f0 93 1d b6 3c 07 cb c9 3d 6d 2e 17 3d b0 1f a7 bd
       0.022230899 0.098531775 0.03690951 -0.08160341
000300 8c 80 29 3d 7f 24 6b 3d 7c ab a4 3d 5a 01 17 bc
       0.041382357 0.057407852 0.080405205 -0.009216631
000310 c5 e5 6f bc b2 d7 91 3d c9 9d f7 3d a1 3f d5 bc
       -0.014642184 0.07121219 0.12090642 -0.026031317
000320 38 68 0a bd 0c 21 12 3d ec fd ca bc 67 6f 88 bd
       -0.033790797 0.035676047 -0.024779283 -0.06661873
000330 e8 38 bb bc 58 85 bb 3c 0a 9d 8d 3d 10 f8 6e bd
       -0.022854283 0.022890732 0.069147184 -0.05834204
000340 b2 78 bf 3d 7c 44 77 3d f2 5b 08 be bd 94 4b bd
       0.09349193 0.060368046 -0.13316324 -0.049702395
000350 32 d1 b9 3d 8b 0e 85 3d 46 e6 78 bd b2 64 5d 3b
       0.09073104 0.064969145 -0.06076648 0.0033781943
000360 d4 4e 00 bd 8f 20 c4 bd 5a d6 c5 3d 03 ef 0b 3e
       -0.031325176 -0.095765226 0.09660025 0.13665394
000370 0f 60 50 bc 91 04 da bd 28 0e 98 3d c9 2a a1 3d
       -0.012718215 -0.10645402 0.07424575 0.07869489
000380 01 39 69 3c f4 d9 8e 3c 95 e9 b5 3d 78 18 c6 3d
       0.014234782 0.017437913 0.08882443 0.09672636
000390 23 08 b0 bd dd d5 37 bb e0 35 ad bd ff 3a 0c bd
       -0.08595302 -0.0028051056 -0.084575415 -0.03423595
0003a0 a3 09 47 bd 47 bd 06 3e de bb 17 bd cc 58 09 3e
       -0.048593175 0.13158141 -0.0370444 0.1341278
0003b0 96 92 cc ba 4c 81 87 bd a6 73 da 3c b8 10 bb bd
       -0.0015607651 -0.06616458 0.026666474 -0.09134048
0003c0 17 86 18 3d 20 44 7d 3d f7 f9 9a bd ad 81 5d bd
       0.037237253 0.061832547 -0.07567208 -0.054078747
0003d0 ea b3 16 3d b2 c5 9d bd 7e e0 83 bc 53 71 b4 bc
       0.036792673 -0.07703723 -0.016098257 -0.022026693
0003e0 fc b6 89 3d 65 f0 ac 3d 55 15 9e bd a1 20 ce bb
       0.067243546 0.08444289 -0.077189125 -0.0062905108
0003f0 5e 10 ed bc 4d 90 62 bc 6e d3 38 3d b1 2f 93 bd
       -0.028938469 -0.013828349 0.04512351 -0.07186831

lstm_cells.0.W_hc.bias f4 [64]
000000 18 9e d7 bc c6 46 86 3d f8 a5 bd bd 28 5e 05 be
       -0.026320502 0.06556468 -0.09260172 -0.13024199
000010 26 ea 5f bd a4 79 61 bd 11 ba 57 bc d3 2b 20 3d
       -0.05466666 -0.055047646 -0.01316692 0.039104294
000020 13 44 f2 3c 32 58 78 3d e3 24 13 bd b9 99 e2 3c
       0.029573476 0.060630985 -0.03592385 0.027661191
000030 42 c8 9c 3d d4 c7 d2 3d b2 6e ab bc c8 8a 25 3d
       0.07655384 0.102920204 -0.020926807 0.040415555
000040 2a 68 dd bc 24 66 ad 3c 75 b1 2e 3d 48 f7 7d 3d
       -0.027027208 0.021166869 0.042649705 0.062003404
000050 a2 20 93 3c a9 44 b8 bd 4e dc c1 bd 06 ba b3 3d
       0.017959896 -0.08997471 -0.09465848 0.087757155
000060 fb 97 f2 bd e7 ca ad bd 5b 97 09 3e b0 55 51 bc
       -0.11845394 -0.08485966 0.13436644 -0.012776777
000070 95 7b ed 3d 70 8f 10 bd 38 79 9c bc c7 5d cc bd
       0.11595837 -0.035293043 -0.01910077 -0.09978824
000080 33 ad b4 bd 19 ac 3f 3d 5c 2c 91 3d 58 28 6b bd
       -0.08822098 0.046794984 0.07088539 -0.05741152
000090 c6 7d 28 bd 48 d2 c8 bd 0f 00 9d 3d 7b 93 a1 3c
       -0.041135572 -0.09805733 0.07666027 0.019723644
0000a0 54 a9 9c 3d b0 a6 8c bd 3f 83 c3 3d 7b af 99 3b
       0.07649484 -0.068677306 0.095465176 0.0046901084
0000b0 d3 0d 3c bd b0 de ba bd 62 dd 16 3d 59 c1 29 3d
       -0.04591162 -0.091245055 0.03683222 0.041444156
0000c0 8f 8c 89 3d 97 cc be bd c7 e9 df 3d 9e 99 aa 3d
       0.067162625 -0.09316366 0.10933261 0.083300814
0000d0 80 b9 f0 3d 5c bd 5a bd a5 1e e5 3c d0 3c b4 3d
       0.11754131 -0.053403243 0.027968714 0.088006616
0000e0 92 f0 6b bc 62 78 cd bc 40 1f a6 3c 0f d8 7c 3c
       -0.014400618 -0.025081817 0.020278573 0.015432372
0000f0 b9 55 58 3b e5 03 28 3c b1 4b dd bc 59 16 5e bc
       0.003301008 0.010254835 -0.027013632 -0.013555133

lstm_cells.0.W_in.weight f4 [64, 64]
000000 b4 b6 08 3d 32 20 f6 3d 74 16 67 3d b8 94 36 bd
       0.033377364 0.120178595 0.056417897 -0.044575423
000010 c6 40 cf bd c0 9c 54 3c c0 0d 2f bb a2 29 c3 3d
       -0.101197764 0.012976825 -0.0026711076 0.09529425
000020 54 a3 a8 bd 6c a3 1b bd ec a4 03 3d 68 85 cd 3c
       -0.08234277 -0.037997648 0.032139704 0.025088027
000030 08 22 86 3d 78 c5 5c 3d cc aa be 3d 2e 4d f1 3d
       0.0654946 0.05389926 0.09309921 0.11782299
000040 74 02 a3 3d 40 aa ae 3c c4 c3 d4 bd 2c 20 e8 bd
       0.07959452 0.021321416 -0.10388902 -0.11334261
000050 e6 87 bd bd e8 a6 34 3d 30 a1 39 3c ae 2a c4 3d
       -0.09254436 0.044104487 0.011329934 0.09578453
000060 f8 8d f5 bc 02 f9 da bd 98 dd ab bc e4 3d 00 3d
       -0.029974923 -0.10692026 -0.020979688 0.031309023
000070 20 92 cc bb 70 01 58 3d 7a 37 f0 bd c8 57 87 3c
       -0.0062430054 0.052735746 -0.11729331 0.01652135
000080 90 93 8b 3c ca 11 89 3d 94 c2 dc bd ec fa ef 3d
       0.017038137 0.06692846 -0.107793 0.117177814
000090 20 61 9f bc 84 0d 06 bd 0c 91 c8 3d e8 30 31 bd
       -0.019455492 -0.032727733 0.097932905 -0.04325953
0000a0 84 e0 ca bd 60 29 6f bc e0 ff b0 3d 66 ec a8 3d
       -0.09906104 -0.014597267 0.08642554 0.082482144
0000b0 32 06 cf 3d 70 0f 4a 3d 72 41 b9 3d 1c 27 84 3d
       0.101086035 0.04933113 0.09045686 0.06452772
0000c0 68 70 9b bd d0 46 92 bc f2 7f c5 3d e6 b8 84 bd
       -0.07589799 -0.017856032 0.09643544 -0.06480579
0000d0 6a cd f0 bd 54 a6 72 3d 78 ba f1 bc f2 7a e7 bd
       -0.117579296 0.059240654 -0.02950786 -0.11302747
0000e0 20 58 f2 bc 8c 5c c3 3d b0 e2 89 3d f0 ba 27 bd
       -0.029583037 0.09539136 0.0673269 -0.040949762
0000f0 80 27 ab 3d c0 b5 26 3c d8 32 04 3d f8 d6 98 bc
       0.083571434 0.0101751685 0.03227505 -0.018657193
000100 f8 8b 95 bc 40 ea 52 3c 42 0f bd bd aa 61 c6 3d
       -0.018255219 0.012873232 -0.09231426 0.09686597
000110 90 0f b2 3d d6 1f a0 3d d8 7d 91 3d ac ff 96 bd
       0.086943746 0.07818572 0.07104081 -0.07372984
000120 70 ee 2b bd f4 11 7d bd e0 df 0f 3c e0 ef fe bb
       -0.04197544 -0.0617847 0.008781403 -0.00778006
000130 4a f0 c4 bd 8c fe 57 bd 44 f8 f1 3d 88 44 88 3d
       -0.09616144 -0.05273299 0.11814931 0.06653696
000140 3c 70 18 bd b0 de 95 bc 14 9e 3e bd 8c 83 e1 bd
       -0.03721641 -0.018294662 -0.046537474 -0.11011419
000150 1c b8 62 3d 64 42 f4 3d 10 22 20 3c 86 ca e2 bd
       0.05535136 0.119267255 0.009773746 -0.110737845
000160 64 20 3c bd 64 af 74 3d f0 7e 6b bd 2e d5 dd bd
       -0.045929328 0.059737578 -0.057494104 -0.108316764
000170 16 57 f4 3d 40 04 2c 3c d2 60 82 bd 00 8f b0 3a
       0.11930673 0.01049906 -0.06366123 0.0013470352
000180 44 ae 5a 3d 7e 8f e4 bd 76 f4 b9 3d 88 91 76 bd
       0.05338885 -0.111601815 0.0907983 -0.060197383
000190 ae 03 ab 3d b4 58 34 3d 64 ff 33 3d d2 51 a8 3d
       0.08350311 0.044029906 0.04394473 0.08218731
0001a0 be 20 f0 bd a0 b0 4b bd d0 0a 96 bc 98 be b5 bc
       -0.11724995 -0.04972899 -0.018315703 -0.022185609
0001b0 90 d2 2c 3d b0 18 63 3c d4 cc 9a 3d f4 95 74 bd
       0.042192996 0.013860866 0.07558599 -0.05971332
0001c0 e8 fa ca bc 98 f4 53 3d 18 84 d7 3d a2 d3 81 3d
       -0.024777845 0.051746935 0.10523242 0.06339194
0001d0 b0 aa fc bc f8 ef d9 bc 00 05 66 3c 88 42 6b bd
       -0.030843109 -0.026603684 0.014039278 -0.057436496
0001e0 28 f4 54 bd 8e 77 a0 3d 50 0e 34 bd 8e 01 a9 bd
       -0.051990658 0.07835303 -0.043958962 -0.0825225
0001f0 92 40 a1 bd be 90 98 3d 10 79 99 3d fe 1a c6 bd
       -0.07873644 0.074494824 0.07493794 -0.09673117
000200 ce 5a d7 3d 70 97 57 3d 18 95 26 bd 00 f6 8b bc
       0.105153665 0.052634656 -0.04066953 -0.017085075
000210 80 f1 36 bb ce 8b 84 bd b2 98 cc bd 90 cb a5 bd
       -0.0027914941 -0.06471978 -0.09990062 -0.08095467
000220 94 a3 e0 bd 9e b3 aa bd 54 20 11 bd c8 9b a5 3d
       -0.109687 -0.083350405 -0.03543122 0.080863535
000230 60 c2 73 bd f6 44 e6 3d 80 c6 c0 3d c8 72 1d 3d
       -0.059511542 0.11243622 0.09412861 0.038439542
000240 70 a0 c6 3c f4 fd 0e 3d 90 7d 0d 3c 34 f1 ba bd
       0.024246424 0.034910157 0.008635893 -0.09128037
000250 c8 b3 5f 3d a8 d2 f0 bd 08 69 16 3d 00 d7 e9 3d
       0.054614812 -0.117589295 0.03672126 0.11417961
000260 e8 84 94 3d e0 37 82 bd 58 db a6 bc 3c 7d 93 bd
       0.07251912 -0.063583136 -0.020368263 -0.07201621
000270 80 88 67 bb e0 c1 35 3c 64 f3 77 bd 80 e3 07 bb
       -0.0035329163 0.011093587 -0.06053485 -0.0020734966
000280 50 ad 8c bd e8 d4 cd bd 0c c2 4c 3d 8c 66 79 3d
       -0.06868994 -0.10050374 0.049989745 0.060888812
000290 ce 09 a2 3d 00 08 09 3c 82 8d cb 3d 82 61 81 3d
       0.07912026 0.008363724 0.099391 0.06317426
0002a0 00 d6 f2 bb 00 fa f3 3d b8 9a 11 bd 7a fb 82 3d
       -0.0074107647 0.11912918 -0.035547942 0.063956216
0002b0 a8 f9 28 3d a8 5c ca 3d 74 23 4d bd 86 5e d3 bd
       0.041253716 0.09880954 -0.05008264 -0.10320763
0002c0 0a e6 e3 bd 3e 55 fe 3d 2c 38 b6 bd 9a 68 a9 3d
       -0.11127861 0.124186024 -0.08897433 0.08271904
0002d0 36 91 ea 3d b0 8d 1e bd 60 72 72 3d 58 27 8e 3c
       0.11453478 -0.038709342 0.059191108 0.017352745
0002e0 e0 38 af bb 00 3b 91 3b 7a 4d cf 3d 08 ed c4 bc
       -0.005347356 0.004432082 0.10122199 -0.024038807
0002f0 34 20 b8 bd c0 27 c1 3d e8 15 f0 3c 40 64 df 3c
       -0.08990517 0.0943141 0.02930732 0.027269483
000300 9a 12 b5 bd a4 7e a6 3d e0 ee 72 bd 00 80 08 b8
       -0.088414386 0.081296235 -0.05930984 -3.2544136e-05
000310 98 0b fb 3c 20 6c eb bb 8c 3a d5 bd 48 af e8 3c
       0.030645177 -0.0071845204 -0.104115576 0.028403893
000320 78 26 c1 3d 40 b0 fa bd e8 a1 e7 3d cc 44 9f bd
       0.094311655 -0.12240648 0.11310178 -0.07776794
000330 e0 97 e9 bc 08 12 90 3c 6a ed b7 bd 3e bb ac bd
       -0.028514802 0.017586723 -0.0898083 -0.08434151
000340 74 d9 fe bd 2c b4 f6 3d 80 45 8a 3d 14 e5 93 bd
       -0.1244382 0.12046084 0.06751537 -0.072214276
000350 dc b4 12 3d 00 30 b0 38 cc 9b 43 3d 06 1c b9 bd
       0.035817012 8.401275e-05 0.047756 -0.09038548
000360 ec 17 6f bd 08 17 10 bd 66 40 d3 bd e8 b6 81 3c
       -0.058372423 -0.035178214 -0.103150174 0.015834287
000370 e0 05 b5 3c b8 f5 16 bd f2 b4 e2 bd ec 97 25 3d
       0.022097528 -0.03685543 -0.11069669 0.040428087
000380 4e 8a d0 bd 28 65 b5 3d be c3 e6 bd 64 66 e1 3d
       -0.101826295 0.08857185 -0.112678036 0.110058576
000390 f0 15 1f 3d 3c 36 e5 bd 74 74 9b bd 64 45 57 bd
       0.03883928 -0.11191985 -0.07590571 -0.05255641
0003a0 80 1d 06 3b 00 6e 01 bb 12 d0 de bd d8 01 e4 3c
       0.002046436 -0.0019749403 -0.1087953 0.02783291
0003b0 b0 6e 6b 3c 60 b7 70 3d de b6 d9 bd fc 18 6c 3d
       0.014369652 0.05876863 -0.10630582 0.057641014
0003c0 bc 01 ac bd 94 14 88 bd 28 e2 ad 3d 38 85 dd 3c
       -0.08398768 -0.0664455 0.084904015 0.027041063
0003d0 60 23 3e bd c8 a2 9c bd 20 8e d5 3b 18 c5 f9 3c
       -0.046420455 -0.076482356 0.0065171868 0.03048949
0003e0 d8 8d 4d 3d a6 d8 bd 3d fc 4c 85 bd 88 8e 70 bd
       0.0501841 0.09269838 -0.06508824 -0.05872968
0003f0 80 84 fd 3a 88 08 a2 bc 88 4b e3 3d d8 90 c9 3c
       0.0019341856 -0.019779459 0.11098391 0.0246052

lstm_cells.0.W_in.bias f4 [64]
000000 34 c7 2f 3d 78 26 a4 bd a8 0b bf bd 40 76 03 bc
       0.042914584 -0.0801515 -0.09328395 -0.0080237985
000010 84 a3 51 3d 4e ff 85 bd 20 04 23 bd 84 8f b5 bd
       0.05118133 -0.06542836 -0.039798856 -0.08865264
000020 30 bf 52 3d 78 e1 fe 3d f8 5c 83 3d 76 f5 df 3d
       0.05145186 0.124453485 0.06414217 0.1093549
000030 48 25 e6 3d c0 94 43 bb 38 87 04 3d 1c 9c 17 3d
       0.112375796 -0.00298433 0.032355517 0.037014112
000040 6c ff b2 bd 60 95 98 3b 86 96 d6 bd b0 f5 41 bd
       -0.08740124 0.0046564788 -0.10477929 -0.047353446
000050 e2 d5 f3 3d a0 37 e4 3b d0 73 68 bd c8 67 8c 3d
       0.11906029 0.006964639 -0.056751072 0.06855732
000060 5c f3 a9 bd d8 0d b6 bc 7a 5d a6 bd 56 6c bd 3d
       -0.0829837 -0.022223398 -0.08123298 0.09249179
000070 a0 5b b7 3c a4 e4 ee bd 80 3a f1 3c 38 84 12 3d
       0.022382557 -0.116647035 0.02944684 0.035770625
000080 40 2b cc bc bc da 78 bd 40 1e ce bc c8 98 ff 3c
       -0.024922967 -0.060755476 -0.025160909 0.031200781
000090 14 7d e4 3d 70 f1 d1 3c 82 8d b3 3d 58 fe 8a 3d
       0.11156669 0.025627822 0.08767225 0.067867935
0000a0 e6 66 81 3d 68 14 96 3d e0 56 55 bc 36 d4 d3 bd
       0.063184544 0.07328111 -0.013021201 -0.103432104
0000b0 98 23 75 bd dc e6 60 bd 90 91 f7 bc e8 b0 43 bd
       -0.059848398 -0.054907665 -0.030220777 -0.047776133
0000c0 32 65 b7 bd d0 27 95 3c 88 9c ec 3c c0 cb 22 bc
       -0.08954848 0.01820746 0.028883234 -0.009936273
0000d0 e6 f8 99 bd 96 2d d9 bd 40 69 a8 bc c2 0f 8b bd
       -0.07518177 -0.10604398 -0.020558 -0.06790115
0000e0 94 97 87 3d 58 9d f6 bc cc bd 42 bd c2 43 b2 3d
       0.06620708 -0.030104324 -0.047544286 0.0870433
0000f0 94 fa ec 3d 54 d4 c2 3d 70 9b 81 3c f0 09 ab 3d
       0.115712315 0.095131546 0.015821189 0.08351505

W_h.weight f4 [64, 64]
000000 d9 16 9d bd 34 38 39 bc 34 30 70 3d 7f 0f b0 bb
       -0.076703735 -0.011304904 0.05863972 -0.005372941
000010 13 f5 d2 bc df 67 6e 3c 70 c9 c9 bd 40 b9 d8 bd
       -0.025751626 0.014551132 -0.09852874 -0.10582209
000020 d3 f7 e2 3d 4d 95 bd 3d be 90 18 bd bb ed 37 3d
       0.11082425 0.092569925 -0.037247412 0.04490445
000030 0d 55 98 bd e0 24 f7 bd 49 ff d8 bd 41 5b df bd
       -0.07438097 -0.1206758 -0.10595567 -0.10906077
000040 ef e4 81 3c 9b c8 45 bd 0b 71 f6 bd 56 86 b5 3d
       0.015856234 -0.048287015 -0.1203328 0.08863513
000050 d0 d8 b6 bd 41 89 95 bc a7 e3 a4 3c 19 a6 cf 3d
       -0.089280725 -0.018253924 0.020128084 0.101391025
000060 ae 4c 9c bd 3f 15 1a bc 92 cc b7 3c 3d 75 de bc
       -0.07631813 -0.0094044795 0.022436414 -0.027155513
000070 be 3f 95 3d 96 dc 38 3c 33 d6 41 bd 26 0a 4d bc
       0.072875485 0.011283061 -0.047323417 -0.012514627
000080 9a fe d4 bd c8 1d f6 bd cc bd 66 3c b3 67 91 bc
       -0.10400124 -0.12017399 0.014083337 -0.017749643
000090 ed 17 1d bd 34 21 c5 bc 27 06 86 bc fe 19 77 3d
       -0.038352896 -0.024063684 -0.016360356 0.060327522
0000a0 2e 50 81 bd e3 c5 5e bc 31 d7 8d 3c 83 65 62 bd
       -0.06314121 -0.013596985 0.017314525 -0.05527259
0000b0 65 13 16 3d d5 33 4b 3d 8d c1 be 3c 37 d3 df 3d
       0.03663959 0.049609978 0.023285652 0.10928958
0000c0 be ec 29 3d c9 8c 84 3d 79 7d 98 3d 9b 52 99 3d
       0.04148554 0.06472165 0.07445807 0.07486459
0000d0 2e eb 87 3c 4d 4e d1 bd a0 e7 07 bc e6 f2 f0 bd
       0.016591635 -0.10220013 -0.00829497 -0.11765079
0000e0 2f fe b6 3d 32 f0 5f bd a4 de e1 3d de bf 0c 3d
       0.089352004 -0.054672427 0.110287935 0.034362666
0000f0 58 1e a8 3d 7f 81 24 bc 3c 69 5a bd de 39 d0 3c
       0.082089126 -0.01004064 -0.053323016 0.025418218
000100 92 1b 24 bc 65 12 7c 3d a6 9e ea bc 7d f5 05 3c
       -0.010016339 0.06154098 -0.028640103 0.008176205
000110 c4 30 b1 3b 49 5f 90 bc 47 9b 24 bd 1f 5e c1 3d
       0.0054074246 -0.01762356 -0.040187147 0.0944178
000120 9a 61 cf 3d e7 f2 72 3d a2 0b fd 3d c1 34 b1 3c
       0.10126038 0.05931368 0.123557344 0.0216316
000130 30 f7 96 bd cb 25 a2 bd 66 2f e0 bd d2 30 be 3d
       -0.07371366 -0.07917365 -0.109465405 0.092866555
000140 89 76 be 3d fc ea 0f 3d 5e 08 d5 bd e4 51 0c bd
       0.092999525 0.035136208 -0.104019865 -0.034257784
000150 e3 6b c5 3d dc 0b a5 ba fe 49 64 bd 7a 0f 50 3d
       0.096397184 -0.0012592035 -0.055734627 0.05079601
000160 0c 25 dc bb 2a 04 a6 bd 29 40 81 bd e0 70 cd bd
       -0.0067182835 -0.08106263 -0.06311066 -0.10031295
000170 76 c8 bd bd af 4c 6b 3d 8d 27 b4 bd dd 88 f5 bd
       -0.092667505 0.057446178 -0.08796606 -0.11988995
000180 60 0b 96 bb 42 3a 99 bd 9a b9 4a 3d 0a 57 d4 bd
       -0.0045789927 -0.07481815 0.04949341 -0.10368164
000190 e9 98 80 3d 37 f0 83 3d 66 81 30 bd a5 84 23 bd
       0.06279165 0.06442302 -0.043092154 -0.03992142
0001a0 08 b2 9f 3d e6 c4 b0 bd 3e 23 00 3d 9b b6 25 3d
       0.07797629 -0.086313054 0.03128361 0.04045735
0001b0 25 09 4d bd 0b d2 fc bd 88 9a e7 3d 94 52 b0 bd
       -0.05005755 -0.1234475 0.11308771 -0.086095005
0001c0 11 78 98 3d 11 b1 f6 3c d6 22 ea bd 9b dd a3 3d
       0.07444776 0.030113729 -0.11432426 0.08001252
0001d0 5c 3d 1c 3d a8 05 d6 bc 59 b6 70 3d 6e 78 d3 bd
       0.038144454 -0.026125744 0.05876765 -0.103257045
0001e0 9f db e6 3d 37 eb f2 bd 68 56 83 3d b9 aa 32 3d
       0.11272358 -0.1186127 0.06412965 0.043619845
0001f0 38 c5 df bd 51 cd 01 3e c2 44 f6 bb be b6 b0 bd
       -0.10926288 0.12675978 -0.007515521 -0.08628605
000200 cc ff 95 3d af 38 c6 bd 22 3c 8a bd 6b 8c 4e 3c
       0.0732418 -0.0967878 -0.06749751 0.01260672
000210 c9 e4 81 bd c4 fa 3d bc 65 7e 77 3d 0e 85 0b bd
       -0.063424654 -0.011595432 0.060423274 -0.034062438
000220 72 af 91 bc 6b 46 89 bd 97 45 96 3d 3f fa 93 3d
       -0.017783854 -0.06702884 0.07337492 0.07225465
000230 7d 85 97 bc ed 07 3d 3d b4 b1 7d bc d3 86 f5 bd
       -0.01849627 0.046150137 -0.015484262 -0.11988606
000240 b3 ab 98 bd 11 39 c4 3d 54 75 bb 3d b6 12 0d 3d
       -0.07454624 0.09581197 0.09153238 0.034441672
000250 ea 85 5a 3d d3 ac e3 3c d7 0b 3f bd 2d e5 d2 bd
       0.053350367 0.02779237 -0.04664215 -0.10297618
000260 7e 8a 92 3d d0 48 a8 3d 39 b7 88 3c 64 8b bb 3d
       0.071553215 0.08217013 0.01668893 0.09157446
000270 db a9 b7 3d fa ef 10 3b ad 7d cb 3d eb e3 ef 3d
       0.08967944 0.0022115693 0.0993608 0.11713394
000280 39 19 3e bd 23 99 c5 3d d7 a5 e0 bc 68 0b 49 3d
       -0.046410773 0.09648349 -0.027422829 0.049083143
000290 17 0f cc bd c0 0f 9b 3c d3 ef 77 3d 24 50 de bd
       -0.09963816 0.018928409 0.06053145 -0.10855129
0002a0 fb 2b e7 bd 13 50 e4 3d f0 2c ef bd b4 39 e0 3d
       -0.112876855 0.111480854 -0.11678493 0.10948506
0002b0 36 59 33 3d a4 1d 91 bd 8d 80 9b bd 32 5b 3c 3d
       0.04378625 -0.070857316 -0.075928785 0.045985408
0002c0 74 89 88 bc 3d 85 0f 3d 10 04 88 3d d7 98 51 3d
       -0.016667105 0.035039175 0.066414 0.05117115
0002d0 8f ac aa 3d 81 32 58 3d b9 e5 ba 3d 11 48 cf 3d
       0.08333694 0.05278254 0.09125847 0.101211675
0002e0 34 fd 8f bd 46 cf f3 3d d7 66 fe bc fe 79 b0 3d
       -0.070307165 0.11904769 -0.031054897 0.08617018
0002f0 a6 7a 99 bd 60 25 a0 bd 30 b1 a5 3d fd de 93 3d
       -0.074940965 -0.07819629 0.080904365 0.07220266
000300 08 c7 83 bd d7 a2 7a bd 06 b7 cf 3d df 32 37 3c
       -0.064344466 -0.061190452 0.10142331 0.011181562
000310 4c f9 74 bb ba a4 55 bd 68 b0 98 bd 90 a8 a5 bc
       -0.0037380038 -0.05215905 -0.07455522 -0.020221978
000320 25 75 8b bd b9 d6 a1 bd 51 9d 64 3d b2 24 7c 3d
       -0.06809453 -0.07902283 0.05581409 0.061558433
000330 3c ad 02 bd a6 a5 9b bd 4c 6c ae bb d9 0e 0d 3d
       -0.03190349 -0.07599954 -0.0053229686 0.034437988
000340 82 89 3b 3d e3 0d 93 3d 2d 2b e9 3c 43 4d 1a bd
       0.045785435 0.07180383 0.02846297 -0.03767134
000350 02 aa 39 3d 49 25 d4 3d 1f a8 2d 3d 34 1f c7 bd
       0.045328148 0.10358674 0.04239666 -0.097227484
000360 ea a8 99 bd 19 c8 9c 3d c7 93 58 bd ac 57 2e bd
       -0.07502921 0.07655353 -0.052875306 -0.04256408
000370 14 81 ed bd 0b ff 07 3e 9f 67 85 3d 3e 29 e4 bd
       -0.11596885 0.13280885 0.06513905 -0.11140679
000380 b1 3a a2 3d b9 e7 cc bd 4b d5 5e bc 23 96 bc 3d
       0.07921351 -0.10005135 -0.013600658 0.09208324
000390 62 46 b2 3d 67 35 78 3d 9e 4b c9 3d 13 ad b4 bd
       0.08704831 0.060597803 0.09828876 -0.08822074
0003a0 b5 0d a9 3d 26 67 41 bd 98 19 37 3d 80 b9 32 3d
       0.082545675 -0.04721751 0.044702142 0.043633938
0003b0 28 2b d2 3d 66 2f 8c 3d ba b0 e8 bb 8d 46 e8 3d
       0.10262138 0.06844978 -0.0071011456 0.113415815
0003c0 94 ab 9e bd 96 61 1a bc 6c ae c5 bd 24 d1 81 3b
       -0.0774757 -0.00942268 -0.09652409 0.003961699
0003d0 31 50 fc 3d 7a a5 8b bc 63 9c f2 3d 69 20 8b bd
       0.12319983 -0.017046679 0.11846235 -0.06793291
0003e0 6b 5a f7 bd 59 75 4f 3c 36 d4 d5 bd f9 85 9c 3d
       -0.12077793 0.012662255 -0.10440867 0.07642741
0003f0 ef d2 74 3c 9b 09 f2 3d 83 be 10 3e 9c 45 db 3d
       0.014942869 0.11818238 0.14135174 0.10706636

W_h.bias f4 [64]
000000 68 cb 85 bc 40 41 03 3d 5b b1 f8 3d 5f dd 88 bc
       -0.016332343 0.03204465 0.12143203 -0.01670712
000010 bd f6 32 3c 06 17 30 3d 84 3e b4 3c 29 4a 2a 3d
       0.010923085 0.042990707 0.022002466 0.04157463
000020 8d c6 3d bc bf 9e 6b 3d f2 42 fb bd 9c fe 0f bc
       -0.011582983 0.05752444 -0.12268628 -0.008788731
000030 b8 53 df bd 4c 81 7e bd bc 91 6b bc 86 00 95 3d
       -0.1090464 -0.062135026 -0.0143780075 0.072754905
000040 8f a6 aa bd 82 fc f8 3d 40 64 bf bd 2a fa c4 39
       -0.0833255 0.12157537 -0.09345293 0.0003757042
000050 15 93 06 bd 1d 84 7c bd f4 6e 8f 3d 8d b7 8b 3d
       -0.032855112 -0.06164943 0.070035845 0.06822119
000060 55 c8 3b ba 1b 63 92 bd 1e ed a0 3d 8f b9 dd bd
       -0.00071633357 -0.07147809 0.078577265 -0.10826408
000070 b4 ce ff 3d 6a b8 55 bd 9f a8 ad bd 70 c6 c5 bd
       0.12490597 -0.052177824 -0.084794275 -0.096569896
000080 b3 61 1b bc 7e 8b 5c bc bf 79 4f 3d c5 09 51 bd
       -0.0094837425 -0.013460992 0.050653215 -0.051034708
000090 d2 68 c8 bd 64 f3 df 3d d3 09 7d bd 2c 9a 06 3c
       -0.09785618 0.10935095 -0.061776947 0.008215468
0000a0 37 c7 29 3d bf 50 95 3d 37 b9 80 3d e9 d0 9e 3d
       0.04144975 0.07290792 0.06285327 0.0775469
0000b0 6d 48 de bd a1 ed 84 bd b1 23 d9 bd 4b 94 a4 3d
       -0.10853658 -0.064906366 -0.10602511 0.08036097
0000c0 e5 bc 81 bd ed df 84 bc 18 b7 d1 bb 6d 17 04 3d
       -0.06334857 -0.016220057 -0.0064000003 0.032248903
0000d0 de 25 ed bd 6b 1c e7 3d 52 f4 29 bb 00 ed 41 3c
       -0.11579488 0.11284717 -0.002593298 0.01183629
0000e0 00 6d 22 bd 96 9e 65 bd 5e 08 71 3d e3 a5 8c 3d
       -0.03965473 -0.056059442 0.05884587 0.06867578
0000f0 cd 9f 24 bd d4 82 f4 bd fd 5d f0 bd 64 f4 3c 3d
       -0.04019146 -0.11939016 -0.11736677 0.046131507

W_g.weight f4 [64, 64]
000000 97 d7 c7 3d 21 bd e5 bd cd be 81 bd f1 23 3b 3b
       0.097579174 -0.11217714 -0.063352205 0.0028555358
000010 25 26 51 bd a7 81 59 3b 91 66 d6 3d df 7e 46 3d
       -0.051061768 0.003318885 0.10468782 0.048460837
000020 67 c2 dd bd 87 0d 42 3d ea 92 83 bd 4d 2a 55 bb
       -0.10828095 0.047376182 -0.06424506 -0.0032526434
000030 03 81 f1 3d dd a1 cb bc c7 22 56 3d cc 20 00 3c
       0.11792185 -0.024857456 0.05227926 0.007820319
000040 85 b9 eb bc e3 22 ba 3d c1 f9 92 bd 89 f8 cc 3d
       -0.028774986 0.09088685 -0.07176543 0.10008342
000050 35 5a 90 bd 7d 5b 8c 3d 3f 25 c6 bd e3 01 84 3c
       -0.070484556 0.068533875 -0.09675073 0.01611418
000060 0b 6a 4c 3d e9 12 a5 bd 95 bc 43 bc fb 46 dd 3d
       0.049905818 -0.080602475 -0.011946817 0.10804554
000070 4f e0 57 3d bf 21 9f 3d 5d 8c db bc ca 61 ff 3c
       0.05270415 0.077701084 -0.026800329 0.03117456
000080 41 72 e3 3d ab 1d 83 bd e7 c4 58 3d fd f3 4f 3c
       0.111057766 -0.06402143 0.052922156 0.012692449
000090 9c 84 c3 3b 5e 98 81 3d 5f de 17 3d 81 84 f6 3d
       0.005966736 0.0632789 0.037077304 0.12036992
0000a0 01 91 c9 bd d9 a4 67 3c fd 99 98 3d bf db b4 bd
       -0.098421104 0.014138424 0.07451246 -0.08830976
0000b0 cf 99 ea bd 35 a2 7d 3d 9d 5e cb bc c7 dc b8 3d
       -0.11455118 0.06192227 -0.024825389 0.09026485
0000c0 0d 88 c3 bd d9 df 9e 3d 4d e4 bd bd 95 9f e9 bc
       -0.09547434 0.07757539 -0.092720605 -0.028518477
0000d0 e1 b1 73 bd b9 d8 d0 bd b5 ea c8 bc d9 7d bf bd
       -0.05949581 -0.101975866 -0.02452598 -0.093501754
0000e0 83 cd 87 3c 93 c4 cf 3c 10 21 71 3d 9b 42 a2 3d
       0.016577488 0.025362289 0.05886942 0.0792286
0000f0 0b 80 5b 3d e3 06 33 3d 45 ad be 3d 99 22 fa 3d
       0.05358891 0.04370774 0.09310392 0.1221363
000100 1e 18 95 bb d6 8c 56 bd 8c f1 8b 3d 8a a9 97 bd
       -0.004549994 -0.052380405 0.06833181 -0.07405384
000110 b6 8c 2f 3d aa 21 d2 bd 2c 0f cb 3d a4 84 87 bd
       0.0428588 -0.10260327 0.09915003 -0.06617096
000120 cc 2c d1 bd e6 4a 08 bd 78 69 b6 bd 83 1e cf 3c
       -0.102136225 -0.033274554 -0.08906835 0.025283104
000130 1d b0 b9 bc a6 a6 ee bd 6a 5d 9a 3d 46 59 de bd
       -0.022666985 -0.116528794 0.075373486 -0.10856871
000140 e6 0d 00 be 96 0a 58 3d f1 38 fa bd 96 36 5c bd
       -0.12505302 0.05274447 -0.12217892 -0.053762995
000150 a6 5f 9c bd 53 a1 02 bd db ed e9 3c fa 7b f7 3d
       -0.07635431 -0.031892132 0.028555801 0.120841935
000160 dd e0 c7 bc 28 1d a7 3d 8a 56 86 bd 36 f3 c7 3d
       -0.024399215 0.08159858 -0.06559475 0.09763186
000170 87 aa 05 3d d0 93 ac 3d 12 33 af 3d ec 2e d6 3d
       0.03263333 0.084266305 0.08554663 0.104581684
000180 4a 39 e0 bd 6c fb c8 bd 45 a4 ec bc 95 a0 8f bc
       -0.10948427 -0.0981358 -0.028886924 -0.017532626
000190 d4 50 7c bc 95 44 ca bc 63 d4 e9 3c a8 7f e3 bd
       -0.01540013 -0.024690906 0.028543657 -0.11108333
0001a0 fa 61 21 bd 62 86 08 3d 76 03 4b bd 10 30 d6 bd
       -0.03940008 0.033331282 -0.049563847 -0.10458386
0001b0 4e bb a1 3d 76 7f d2 bd 90 19 aa bd be 28 bf bd
       0.07897054 -0.102782175 -0.08305657 -0.09333943
0001c0 3e 5f 0e bd 96 63 1d 3d f3 f0 0a bc d6 7f aa 3d
       -0.0347588 0.03842505 -0.008480298 0.08325164
0001d0 33 90 b9 3c 52 39 eb bd 13 89 c1 3c ab 08 26 3c
       0.022651767 -0.11485542 0.023624932 0.010133903
0001e0 24 1d f0 3d a0 9b bc bd 4a 67 de 3d f4 ee e4 bd
       0.11724308 -0.092093706 0.108595446 -0.11178389
0001f0 64 a0 88 bd d5 9c e6 bc 3e e7 18 bd ce 1b 49 3d
       -0.06671217 -0.028150955 -0.037329905 0.049098782
000200 56 e5 b8 3d f6 f9 bd bd 2a a5 dd 3d c3 ac 5b bd
       0.09028117 -0.09276192 0.10822518 -0.053631555
000210 44 13 f9 3b d9 23 54 3d 8b 8f 17 bd b4 20 aa 3c
       0.0076011736 0.051792 -0.037002128 0.020767547
000220 b9 95 03 bd 83 a0 23 bd 74 7a c9 bd ba 9a 76 bb
       -0.03212521 -0.039947998 -0.09837809 -0.0037628845
000230 6d 5d 2a 3d 7b ae 1d bd 92 e8 98 bc ba d3 ea 3d
       0.041593004 -0.038496476 -0.018665586 0.11466165
000240 df 84 66 bd 1e 36 b4 3d 66 30 d4 3d 5a cc 80 3d
       -0.05627906 0.087993845 0.10360794 0.06288977
000250 ec 3d f5 bd 52 c2 89 bc 5e 1a 95 bd 06 32 2c bb
       -0.11974701 -0.016816292 -0.0728042 -0.0026274933
000260 58 71 d5 bd 4f c5 33 bd cb 9e 32 bd 01 59 4e 3d
       -0.10422009 -0.04388934 -0.043608468 0.05037785
000270 9f dd 02 bd 66 09 cd 3d 4c cc bf bc aa 92 9b bd
       -0.031949636 0.10011558 -0.023412846 -0.07596333
000280 a5 c8 83 bc 2c ba a5 3d 78 c0 a3 bd e4 02 94 3c
       -0.016086886 0.0809215 -0.07995695 0.018067785
000290 29 2d 4a 3d 2f 4c 5a bd 07 7a 32 bd 2c 89 bd 3d
       0.049359474 -0.05329531 -0.043573406 0.09254679
0002a0 80 05 c9 bd cb d1 83 3c 80 b0 90 bd a4 d8 0d bc
       -0.09815502 0.016091248 -0.07064915 -0.008657608
0002b0 8f 6d 80 3d 22 38 eb 3d dc b7 c9 3d d3 c0 7f 3d
       0.06270897 0.11485316 0.098495215 0.06243975
0002c0 84 63 b0 bc 70 f0 94 3d 0f 3e 2b bd 0d 5c 1f 3d
       -0.021531828 0.07272422 -0.04180723 0.038906146
0002d0 8f c3 44 bd f5 ef 04 bc 1a f7 9f 3d 9e a6 f6 3d
       -0.04803806 -0.008113851 0.07810803 0.120434985
0002e0 a4 2b be bc ec 1b d5 bd f0 8e c0 3d b0 c0 d0 bd
       -0.023214169 -0.10405716 0.09402263 -0.10193002
0002f0 a0 23 d5 bd ca d1 d0 3d 64 3a b1 3d ce f4 8e 3d
       -0.104071856 0.10196264 0.08653715 0.069802865
000300 3b 7b 1a 3d 9a 57 f5 3d b2 e7 bc 3d 13 17 74 3d
       0.037715178 0.11979599 0.0922388 0.059592318
000310 80 f9 81 3d 25 8d 56 bd 6e 83 de bd 25 3b 30 bd
       0.063464165 -0.0523807 -0.10864912 -0.043025155
000320 0c 16 f3 bd 91 83 07 bb ad e5 6d bd c0 27 c9 3d
       -0.118694395 -0.0020677785 -0.058080364 0.09822035
000330 24 e2 ab 3d b6 f5 92 3d 21 0e 37 bd 3e 6e c7 bd
       0.08392742 0.07175772 -0.04469121 -0.09737824
000340 e1 9a 84 3d a1 1a 11 bd e6 56 cf 3d 29 8a 57 bd
       0.06474853 -0.035425786 0.101239964 -0.052621994
000350 dd 44 13 bd 03 ff 26 3d a2 01 9f bd d7 48 27 3d
       -0.035954345 0.040770542 -0.07763983 0.04084095
000360 8d f1 00 3d 62 50 ca bd b2 51 be 3c db d3 4f 3d
       0.03148036 -0.09878613 0.023232315 0.05073915
000370 5e 84 fa bc 16 c8 91 bc 16 a0 b9 3d dc bd 9b bd
       -0.030580696 -0.017795604 0.09063737 -0.07604572
000380 e3 4b 61 3d f4 f4 92 bd 5c 90 00 3e c3 3f 2a 3d
       0.05500401 -0.07175627 0.12555069 0.041564714
000390 c5 c3 4f bd 8a d1 f6 3d 85 7b 32 bd dd 8d df 3b
       -0.05072381 0.12051685 -0.04357483 0.0068223313
0003a0 d0 dc b2 3d b0 35 c6 3d 5f e5 6d 3d b0 1d b6 bd
       0.08733523 0.09678209 0.058080073 -0.08892381
0003b0 9c 19 85 bd 90 7b ec bd 1f ef de bc 7f 6c 59 3d
       -0.06499025 -0.11547005 -0.027213631 0.053081986
0003c0 96 c0 c1 3d 91 3e 2c bd 4d dc 5d bd 1e 7b a3 bc
       0.09460561 -0.042051855 -0.054165173 -0.019956168
0003d0 72 f1 e6 bd 3b cf 81 3d ca 7a 88 bd ae ed 79 bc
       -0.11276521 0.06338354 -0.06664045 -0.015254421
0003e0 2a 97 f3 3c 1f ae 86 3d 48 3f 95 bd 9e 68 ab bc
       0.029735167 0.0657618 -0.072874606 -0.020923909
0003f0 a3 a0 36 3d e6 5c 42 3c ef 35 5f 3d 30 83 87 3a
       0.04458679 0.011862969 0.054494794 0.001033878

W_g.bias f4 [64]
000000 1d ac 52 3d 02 19 cf bd f2 9a 9e 3c bc 76 e8 3d
       0.05143367 -0.10112192 0.019360993 0.11350772
000010 b7 ae f1 bd ce fc 15 3d e9 a9 19 3c cb f6 6d bd
       -0.11800902 0.036618046 0.009378889 -0.05809669
000020 ee 89 d1 3d 6f de 83 3c 30 15 c4 bd 9a fe 7d bd
       0.10231386 0.016097276 -0.09574354 -0.062010385
000030 a5 80 2d bd 07 fb 1c 3d 31 52 b8 bd 87 58 6b 3c
       -0.042359013 0.038325336 -0.09000052 0.014364368
000040 79 e9 c3 bd 48 d9 cd bd c5 75 56 bc 8a d7 10 3d
       -0.09566016 -0.10051209 -0.013089602 0.035361804
000050 da 09 c9 bd 4b 4f b9 3d 90 4b d7 3d e5 c1 ff 3d
       -0.09816332 0.09048327 0.10512459 0.12488154
000060 1c 85 21 bd cb be 73 3c 4b fc 5e 3d b5 3b f1 bb
       -0.039433584 0.014877032 0.054439824 -0.007361854
000070 f2 8f 50 3d d6 68 30 3c 5d 46 90 bd 58 7d ec 3d
       0.050918527 0.010767182 -0.07044671 0.11547345
000080 ef ba 3d bd fa 63 b1 3d e0 fe ef 3d bd f9 1d bd
       -0.046320852 0.08661647 0.117185354 -0.038568247
000090 a6 f5 04 be 44 97 30 bd 41 94 8b 3d 5a b7 82 bd
       -0.12984332 -0.04311301 0.068153866 -0.06382628
0000a0 ed 6d d9 3d 21 7a a2 3d 8d b2 11 bd e7 eb 61 bd
       0.1061667 0.079334505 -0.03557067 -0.055156615
0000b0 17 37 b6 bd a1 41 9a 3d a5 2f 3c bd 7b 94 a4 bd
       -0.08897226 0.07532049 -0.045943875 -0.08036133
0000c0 55 0f 2b 3d 83 1b ac 3d ae 86 c0 bc a4 6d 91 3d
       0.04176267 0.08403685 -0.02350172 0.071009904
0000d0 7c 03 9c 3d 6c 4d 49 bd c2 fa 3c bd 39 9c 41 bd
       0.07617852 -0.0491461 -0.04613758 -0.047268126
0000e0 0b ea b1 3d 42 36 0e 3d e8 12 42 3c 0e 2b 6a 3d
       0.08687218 0.034719713 0.011845328 0.057169966
0000f0 3c a6 85 3d 98 af c3 bb 2f 4c 83 3d 58 fb 50 bd
       0.06525847 -0.00597186 0.06411015 -0.05102095

W_x.weight f4 [64, 1]
000000 07 a8 29 bf 2f 9c 78 bf 4e 33 63 bf 88 0a 30 3f
       -0.66272014 -0.9711332 -0.8875016 0.6876607
000010 76 df 3e 3f e6 ff 39 3f 1a db 68 3f 70 f5 2f bf
       0.74559724 0.72656095 0.9095932 -0.6873388
000020 b2 64 82 3c 3f b1 97 3e d6 e4 9f 3e 56 9d 64 bf
       0.015917156 0.29627416 0.31229275 -0.89302576
000030 29 7f c9 3e 7e 58 31 bf 50 f2 8b 3c 50 71 25 3f
       0.39354828 -0.69275653 0.017083317 0.64626026
000040 45 23 6c bf c3 2b 63 3e 05 84 5e 3f fd 05 65 bf
       -0.9224132 0.22184663 0.86920196 -0.8946226
000050 2a db 2e 3f 4c e4 30 bf d1 fd 48 be 43 26 56 3f
       0.6830317 -0.69098353 -0.19628073 0.8365213
000060 fa 39 b7 bc 43 b9 52 be fa ff 76 bf 6a 56 6e 3f
       -0.022366513 -0.20578484 -0.9648434 0.9310061
000070 d4 c3 69 3d 7a 8c 63 bf 09 95 79 bd 1a d6 7a bf
       0.057071522 -0.88886225 -0.060933147 -0.97982943
000080 a6 53 4c bf 1b 11 42 3f 72 f6 5b bf e8 4d f3 3e
       -0.7981514 0.7580735 -0.8592292 0.47520375
000090 69 1c 36 bf f0 58 7a 3f 49 52 d8 3e c9 0b 47 bf
       -0.711371 0.9779196 0.4225028 -0.7775236
0000a0 43 ce 60 bf c1 ee 41 3f a5 ae e9 3e c8 b0 6c 3e
       -0.8781473 0.75754935 0.45641056 0.23114312
0000b0 ea a4 47 be 21 e8 db 3e 7d 73 6e bf 1a 02 6c 3f
       -0.19496503 0.42950538 -0.9314497 0.92190707
0000c0 39 c2 55 3f fb 49 60 3f c1 73 78 3e b8 54 79 be
       0.83499485 0.87612885 0.24262907 -0.24348724
0000d0 39 46 5f bf f7 bd 67 3f 7a 03 ea bd 67 24 ac 3e
       -0.87216526 0.9052424 -0.11426444 0.33621523
0000e0 5d a3 0c bf 69 77 18 bf c1 8a a0 3e b2 f3 85 3e
       -0.5493677 -0.59557205 0.3135586 0.26162487
0000f0 ed bf 12 3f 3b 94 cf be e8 b4 61 bf 00 4f 1c 3f
       0.57324106 -0.40542778 -0.88166666 0.61058044

W_x.bias f4 [64]
000000 0f 85 70 bf d3 13 7c bf ae 62 e9 3e 0c a5 50 bf
       -0.9395303 -0.9846775 0.455831 -0.8150184
000010 3a a8 62 3f 0f 49 6f bf e1 41 c7 be b1 19 cc 3e
       0.88537943 -0.93470854 -0.3891745 0.3986335
000020 66 b2 d8 3e eb 8c da be e3 40 a6 3e bc 9c 32 bf
       0.42323607 -0.42685637 0.3247138 -0.6977041
000030 2c 97 71 bf 0a b6 2f 3f 27 0d a9 3e d9 1d 09 3f
       -0.94371295 0.68637145 0.33017847 0.5356117
000040 4e 03 b8 3e 7b 8d a4 be c1 ee 09 bf 54 2f b9 3e
       0.3594002 -0.3213919 -0.53879935 0.3616892
000050 40 16 7a bf 75 da f2 be 21 25 46 be 2a 4f 4a bf
       -0.976902 -0.47432294 -0.19350101 -0.79027045
000060 d9 bb 3d 3e d9 fe 7c 3d b8 7b e6 3e 02 df 08 be
       0.1852869 0.06176648 0.45016265 -0.1336632
000070 7a 9f 1c bf 04 dc 12 3e cc da 6c 3e ad 68 44 bf
       -0.6118084 0.14341742 0.2313034 -0.7672222
000080 e4 15 5c bf ff ad 58 bf 5e 63 bb bd cf e0 34 bf
       -0.859709 -0.84640497 -0.09149812 -0.7065553
000090 e1 74 df 3e 97 2e 3e bf 8c 11 0b 3f 02 8b 34 be
       0.4364386 -0.7428984 0.5432365 -0.17631152
0000a0 27 56 20 3f 9c 04 49 3f f8 62 f3 3d d0 de 76 3f
       0.6263146 0.7852266 0.11884111 0.96433735
0000b0 16 9f 24 bf a8 01 07 bd 62 e6 91 3e 80 7a 8e 3c
       -0.64305246 -0.032960564 0.2849608 0.017392397
0000c0 f7 7e 09 bf ae a0 92 be bf 68 8d 3e 83 7d 05 3e
       -0.5370936 -0.28638214 0.27618977 0.1303616
0000d0 b3 8c c6 3e 86 64 29 bf 7b aa 2f bf eb f4 5b 3d
       0.3877922 -0.6616901 -0.6861951 0.05370037
0000e0 c1 f6 14 bf 4b 26 90 be 54 4e 25 3f 32 95 6f 3f
       -0.58189017 -0.28154215 0.64572644 0.9358703
0000f0 6f 11 d6 3e 96 a1 5d 3f 96 76 fd be c1 cb fa be
       0.41810176 0.86574686 -0.49504536 -0.48983577

W_1d.weight f4 [1, 64]
000000 40 52 9d bc 14 54 75 3d 6c 25 ab bd 92 86 f0 3c
       -0.019204259 0.059894636 -0.08356747 0.029361043
000010 02 b3 78 3b c9 ee e1 3c d2 23 7f bd e7 f2 00 3d
       0.0037948494 0.027579682 -0.06229002 0.03148165
000020 de 47 8e bd 12 d0 75 3d ab 37 fa bc 92 f8 03 3b
       -0.06947301 0.060012884 -0.030544123 0.0020137173
000030 a9 51 85 bd d9 49 a1 bd 9a 4c a1 3d ed 70 a2 3d
       -0.06509716 -0.078754134 0.07875939 0.07931695
000040 2b 57 87 3b 8d 06 f8 bb ed 47 0c bd 84 8f 1f bd
       0.0041302643 -0.0075691403 -0.03424828 -0.038955227
000050 10 78 55 bc 05 cb 6f bb 16 1b c3 bd 57 5e d5 3c
       -0.013029113 -0.0036589515 -0.095266506 0.026045961
000060 58 8d 60 bd 4b a4 e6 bd ba 4b 07 3d d9 3b 8e 3d
       -0.054822296 -0.11261805 0.033031203 0.06945009
000070 6f b0 66 39 d6 6d cf 3c de 6c d7 bd 4e 1f 89 bd
       0.00022000236 0.025320929 -0.10518812 -0.06695424
000080 a0 f4 cf bd 81 db 83 bd c0 a0 c0 bd ae c6 33 3d
       -0.101540804 -0.064383514 -0.09405661 0.043890648
000090 5a 20 bb 3c 1c c5 04 bc da 7f 9f bc dd 75 c5 bd
       0.022842575 -0.008103635 -0.019470144 -0.09641621
0000a0 54 54 ac 3d 98 af a7 bd 61 40 8d bd 3d 70 5c bd
       0.08414522 -0.08187789 -0.06897045 -0.053817976
0000b0 0d 25 0c 3b e5 0b b3 3d 8c e2 87 3d 48 66 8f 3c
       0.0021384389 0.08742503 0.06635007 0.017504826
0000c0 67 5e 7d bd 14 96 4e 3d 56 31 09 bd c4 a8 b4 3a
       -0.061857607 0.050436094 -0.033494316 0.0013783206
0000d0 6d e9 37 bd 40 33 c6 3d 80 43 cc bc bf 21 9b bc
       -0.044900347 0.09677744 -0.02493453 -0.01893699
0000e0 0e 29 ea bb 34 c5 d8 3b 7e 95 44 bd d6 8d f1 38
       -0.0071460074 0.0066153053 -0.04799413 0.000115181945
0000f0 da 96 41 bd 8a 2f bd 3c 74 c9 57 bd ae d5 8f bd
       -0.047263004 0.023093957 -0.052682355 -0.07023178
