model_weight/best_ARGENTINA_model.pth (torch, 73927 bytes, 14 tensors)

lstm_cells.0.b_c f4 [64]
000000 7b 9b 51 bc 76 ef 8a bc 0b 97 d0 3c c5 d1 76 3b
       -0.012793417 -0.016959887 0.025462648 0.0037661653
000010 fd 51 36 bd 7c 68 28 bc 28 bb a4 bb 33 7d b2 bc
       -0.044511784 -0.010278817 -0.0050271936 -0.021788215
000020 49 a4 21 bc 27 d8 a3 bc 00 da a2 bc 14 b1 36 3c
       -0.009865829 -0.02000053 -0.019879341 0.011150617
000030 cc b3 31 bd 8c 7e 2b 3c c8 1c 0f bc 6f e9 d3 3b
       -0.04338436 0.010467183 -0.008734889 0.0064670364
000040 59 1b 41 b9 77 b4 49 3b 17 19 be 3c ce 4d 82 bc
       -0.00018416102 0.0030777731 0.023205323 -0.01590624
000050 d1 2b 3c 3b bd a7 c8 bc ca 81 c4 bc 8e e9 6f bc
       0.002871264 -0.024494046 -0.02398767 -0.014643086
000060 f2 fb 3b 3b db 19 a5 3a 07 6f 3a bd f8 07 47 bc
       0.0028684107 0.0012596207 -0.04551604 -0.012147896
000070 f8 39 b8 bc 6d 7a 54 3a 94 40 51 3c 45 08 93 bc
       -0.02248858 0.0008105401 0.012771744 -0.01794828
000080 9e b5 01 bc bf fb 90 bc 12 2b 63 39 ec 3a 05 3c
       -0.007916836 -0.017698167 0.00021664452 0.008131724
000090 87 c8 15 3c 41 6a c4 3c 8a 14 1a 3c b5 dd 70 bc
       0.009142048 0.023976447 0.009404311 -0.014701297
0000a0 1b e7 08 bc 2b 18 3a 3c 2f 0c 17 3c 6c fd 13 3c
       -0.008355881 0.011358301 0.009219213 0.009032588
0000b0 ea 17 6d 3a a4 de 9b bc 5f 23 1a bd eb 64 97 bc
       0.0009044396 -0.019027062 -0.03763139 -0.018480739
0000c0 42 9c 93 bc 4e d7 9b bb d2 d3 e0 bc da b6 09 3d
       -0.018018845 -0.004755891 -0.027444754 0.033621646
0000d0 b5 fe 2e 3c 6f 43 98 bc 25 c9 b8 bb ca 9b 8c 3c
       0.010680844 -0.018586842 -0.0056392127 0.01716413
0000e0 ec 53 b7 bc fd 6c 0f bd 6a b2 b1 3c bd 88 8e bc
       -0.022378884 -0.03501605 0.02169152 -0.017399186
0000f0 e2 f3 a3 3c 47 d5 0c bd 05 47 86 3a 35 e5 e0 3c
       0.020013753 -0.034383085 0.0010244554 0.027453044

lstm_cells.0.W_ic.weight f4 [64, 1]
000000 03 b0 c1 be b0 d4 41 bf 49 bb 4f 3f f5 d4 bc 3e
       -0.378296 -0.7571516 0.8114515 0.36881223
000010 32 e5 f9 be 5b dd 2a bf 97 21 77 bf 8d 97 4f bf
       -0.48807675 -0.6674401 -0.9653563 -0.81090623
000020 6e 44 8a 3d e1 42 26 bf c7 92 0a 3f 46 1a 92 be
       0.06751333 -0.649458 0.54130214 -0.2853567
000030 58 d8 b8 3d ea 0d 15 bd 05 ce 18 bc ed ee 35 be
       0.09025639 -0.036390223 -0.009326463 -0.17766924
000040 41 66 35 be a9 46 2d bf a9 95 c0 3e 97 09 58 bf
       -0.17714788 -0.67685944 0.37614182 -0.8438963
000050 14 e6 c1 be 5e 8d 73 3f 47 40 14 bf 67 36 3d bd
       -0.37870848 0.95137584 -0.5791058 -0.04619446
000060 71 d5 57 3f 82 ad 34 3f 96 c9 69 be 02 df 1a bf
       0.8431006 0.7057725 -0.22830805 -0.6049653
000070 e7 ef 22 bf 52 9a e6 3d d7 e2 71 bf 69 93 28 bf
       -0.6364731 0.11259903 -0.94486755 -0.6584993
000080 68 fe 02 bf 6b ce b1 bd 12 ad 20 3f a1 27 76 bf
       -0.51169443 -0.08681949 0.62764084 -0.9615422
000090 71 53 62 bf f7 d3 4f be 68 6b 06 bf 86 e7 8f be
       -0.8840857 -0.20295702 -0.5250764 -0.28106326
0000a0 35 59 42 bf 2e 3e 22 3f 4e a6 9b be df ba 6f 3e
       -0.7591737 0.6337613 -0.30400318 0.2341113
0000b0 61 d4 22 be 5b 2b 54 bf 93 16 97 bd 56 7c 76 bd
       -0.15901329 -0.82878655 -0.073773526 -0.06017717
0000c0 10 c6 ba bb 8c 51 8e be b7 30 5c bf 67 c9 af be
       -0.0056998804 -0.2779659 -0.8601183 -0.34333345
0000d0 69 72 4a 3f 58 01 45 bf 19 75 95 bd 35 63 22 3f
       0.79080826 -0.76955175 -0.07297725 0.6343263
0000e0 5d 08 18 bf de 84 4d be 41 61 24 3f a9 e1 11 3f
       -0.5938776 -0.20070216 0.642109 0.56984955
0000f0 b5 de 64 3f 17 b4 fb be a2 96 a0 3e ef e6 2e 3f
       0.89402324 -0.49160835 0.31364924 0.68321127

lstm_cells.0.W_ic.bias f4 [64]
000000 b9 c1 1c 3f 17 2e 6c 3f e3 24 98 be 46 3c 13 3f
       0.612331 0.9225783 -0.29715642 0.57513845
000010 ce 61 58 3f f4 29 df 3e 76 67 94 bd cc bb 66 3e
       0.8452424 0.43586695 -0.07246296 0.22532576
000020 38 f2 83 3e 0b 2e d5 3e 96 46 0d 3f f5 2f d7 be
       0.25770736 0.4163669 0.5518583 -0.42028776
000030 73 27 0a 3f 21 3c 51 be cf 76 05 3f 15 21 3a bf
       0.53966445 -0.20433094 0.5213441 -0.7270673
000040 9c ff 0e 3f 7b 62 04 bf 89 d7 f4 be 67 36 57 be
       0.5585878 -0.5171277 -0.4782069 -0.21016847
000050 28 88 0a bf 8b ba 0e 3f 6c c3 29 3e 3b de 13 3f
       -0.5411401 0.5575339 0.16578454 0.5776097
000060 e9 79 b5 3e 7d 24 86 3e 1e 09 4d 3f dd bc d9 bb
       0.35444573 0.26199713 0.80092037 -0.0066448287
000070 cb 3b 03 3f a8 bb a0 be a7 d0 62 bf d0 55 e4 3e
       0.5126311 -0.3139317 -0.8859963 0.4459672
000080 c6 e1 fb bc 5e 18 7c 3e a7 37 1e 3f 7a b5 4c bf
       -0.030747306 0.2461867 0.6180367 -0.7996441
000090 57 c1 32 bf 9f 2c 6e bf eb 59 fd be ad 42 41 3f
       -0.69826263 -0.93036836 -0.49482664 0.75492364
0000a0 73 66 93 be 24 13 05 3d 2d 99 71 bf f6 d7 d5 be
       -0.287891 0.032488957 -0.9437435 -0.41766328
0000b0 2e e0 c6 3e a6 e4 c7 be 60 cb 50 3f 97 06 c0 3c
       0.3884291 -0.39041632 0.81560326 0.023440642
0000c0 79 2d 41 3c 75 60 70 3e d8 68 9d 3e ba 91 67 bf
       0.011790627 0.23474295 0.30744052 -0.90456736
0000d0 76 e1 75 3e 0f 92 14 3e 6d f0 9b 3e aa 6b 49 be
       0.24011788 0.14508842 0.30456868 -0.19669977
0000e0 a4 cf b0 3e a6 8d 3f 3f 60 b0 49 3c e4 31 75 3f
       0.34533417 0.74825513 0.0123101175 0.9577925
0000f0 8a 74 c9 bd 4f 5e a1 3e 55 9e e3 3e 9f 8d 0a bf
       -0.09836681 0.31517264 0.44456735 -0.54122347

lstm_cells.0.W_hc.weight f4 [64, 64]
000000 1b 67 64 3d 95 44 2e bd 80 f2 82 3d 60 66 09 bd
       0.05576239 -0.042545874 0.063939095 -0.033544898
000010 74 95 b8 3d 77 77 b7 bc e7 1b c2 3d c3 98 ed 3d
       0.09012881 -0.022395832 0.09477978 0.116014026
000020 f2 3f a1 bd 37 26 92 3d 97 f1 ad 3d 10 68 01 3e
       -0.07873525 0.07136195 0.08493345 0.12637353
000030 07 5f ca 3d 57 b7 f0 bd b7 61 d9 bd cf 62 00 bd
       0.09881406 -0.11753719 -0.10614341 -0.03134423
000040 84 2d b2 bd 15 d0 5c bd fe c7 0b 3d 35 3e 21 bd
       -0.08700088 -0.05390938 0.034126274 -0.039365966
000050 f1 e5 c2 3d cb c6 57 3b dc 97 54 bd 6a 41 a4 bc
       0.09516514 0.0032924886 -0.051902637 -0.020050723
000060 84 eb 85 bd 7e 8e 91 bd 11 05 6c bd cd d6 bc b9
       -0.06539062 -0.07107256 -0.05762202 -0.00036018193
000070 49 04 f2 3d eb 46 65 3d fa 42 61 bd 64 68 4c bd
       0.118172236 0.055975836 -0.054995514 -0.049904242
000080 0e 18 6e 3d b1 bb 1c 3c dc 9f 26 bd 4f 2c 18 bd
       0.05812841 0.0095662335 -0.040679798 -0.03715163
000090 1a a1 01 3d 04 94 be bd ea d9 98 bb 69 79 07 3d
       0.03164778 -0.093055755 -0.0046646493 0.03307477
0000a0 e3 20 fb 3c 7f 7a 0a be ca 46 fc 3b 2c f4 c0 bc
       0.03065533 -0.13523291 0.0076988684 -0.02355393
0000b0 57 c4 c4 3d c6 df eb bd b9 bd cf 3d 7b 3a d8 3d
       0.09607761 -0.11517291 0.101436086 0.10558029
0000c0 7e 63 48 3d a8 b7 de bd a7 44 66 bd db 2c 01 bd
       0.04892301 -0.108748734 -0.056217816 -0.031536918
0000d0 58 87 cc bc b0 a3 d7 3d cc cd b2 bb 22 ea 9d 3d
       -0.02496688 0.10529268 -0.005456662 0.07710673
0000e0 db e9 9e 3d 4e 2a c3 3d 32 1e 63 bd c4 47 8e bd
       0.07759448 0.09529553 -0.05544872 -0.06947282
0000f0 29 e0 9e 3d cd 29 ac 3d a9 7f 1b 3d a6 58 75 bd
       0.07757599 0.0840641 0.037963543 -0.059898995
000100 38 ef bc 3b ee 3d d3 ba d6 4a 54 bd c1 5b b4 bd
       0.005765822 -0.0016116479 -0.05182918 -0.08806563
000110 cd 3e 9a 3c b4 a7 84 bd 5e 3a 05 be 76 b8 0b 3c
       0.018828774 -0.06477299 -0.13010547 0.008527866
000120 5b 25 3e bd 71 b7 f1 3c eb 1f cd bc 2d 18 44 3d
       -0.046422344 0.029506417 -0.025039634 0.04787462
000130 60 63 fd 3c 83 56 46 3d 37 67 b8 3d 88 97 90 3d
       0.030931175 0.048422348 0.09004062 0.07060152
000140 5d 2e 07 bd 7e 6b bc 3d 31 3c 54 bd a4 fc 64 3d
       -0.0330032 0.0920019 -0.051815215 0.055905
000150 74 8b 08 be 5e 7e 83 bd 4a 3a c0 3d d6 ba a6 3d
       -0.13334447 -0.06420587 0.09386118 0.08141105
000160 2b de 10 bd fd bf ba bc 3e ca 1f 3d 61 42 21 3d
       -0.035368126 -0.022796625 0.039011233 0.039369944
000170 72 55 0d 3d 5a e8 82 3d f2 5e 03 bd b5 9c 69 bb
       0.034505315 0.06391974 -0.03207297 -0.0035646383
000180 fd fa 9f 3c 4b 9e d1 3c 61 8c 31 3c 1b e9 cd 3d
       0.01952886 0.025588175 0.010836692 0.10054227
000190 3d 0f 0d bd 1e 60 ce bc a8 91 a5 bc 61 4a 95 bc
       -0.03443836 -0.025192317 -0.020211056 -0.018223943
0001a0 32 bb 1c 3d c3 d6 ba 3d f5 a3 89 bc 73 bf 75 bd
       0.03826446 0.09122994 -0.016801814 -0.059997033
0001b0 c5 a1 d7 bd 90 28 87 3d d1 c9 a5 3d ef fb a3 bd
       -0.10528902 0.065995336 0.08095134 -0.08007037
0001c0 96 32 f4 3c 8f 23 be 3d 61 37 8f 3d 60 fd 94 bd
       0.029809278 0.09284126 0.069929846 -0.0727489
0001d0 66 e7 de bd c2 1a 38 3c 26 2d 50 3d 7c e8 0f bc
       -0.108839795 0.011236848 0.050824307 -0.008783456
0001e0 4b 86 46 bd 4b e6 81 bd dd 9e 16 bc 81 93 6a bd
       -0.048467916 -0.06342753 -0.009193149 -0.057269577
0001f0 5e 6b 86 3d e6 24 db bd 80 17 58 bd 39 01 e6 3d
       0.065634474 -0.10700397 -0.052756786 0.11230702
000200 d7 67 af 39 62 55 f8 3d 0c 49 40 3c d5 83 fb bc
       0.00033455968 0.121256605 0.011736166 -0.03070251
000210 f4 b7 68 3d 90 40 10 bd 2d fa d7 3d 7b a9 8a bd
       0.056816056 -0.03521782 0.10545764 -0.06770607
000220 43 59 85 3d f8 b0 81 3d 53 fe c8 3d eb 5d cc 3d
       0.06511166 0.06332582 0.098141335 0.09978851
000230 51 9b 4d 3c fa e0 87 3d 03 e7 fb 3d c9 cb ab bd
       0.012549237 0.06634708 0.12299921 -0.08388478
000240 b5 5e f3 3d 59 47 4a bd 25 ef 8f bc f9 1e a1 bd
       0.11883298 -0.04938445 -0.017570088 -0.07867236
000250 20 55 ef 3d a5 b7 bb bd 7c 7e 60 bd fc c9 68 3c
       0.11686158 -0.09165887 -0.054808125 0.014208313
000260 68 7d ab 3d db 4a 18 3d e9 67 72 3d 79 cc d2 bd
       0.08373529 0.037180763 0.059181128 -0.10292906
000270 c4 c0 1f 3b 72 e2 f7 bd d1 77 ed 3d be 96 ac 3d
       0.0024376372 -0.12103738 0.11595119 0.08427189
000280 ac dd be bd a2 ee a5 bd 26 e5 a9 bd e0 ac e0 3d
       -0.09319624 -0.08102156 -0.0829566 0.10970473
000290 d9 64 8f 3d c5 0b 31 3d f6 1f 73 3c 47 8a a7 3d
       0.07001657 0.043224115 0.014839163 0.08180671
0002a0 07 fa fe 3d b2 c7 58 3c bd d5 94 3d b2 7e 83 3d
       0.12450033 0.013231205 0.0726733 0.064206496
0002b0 0d ef b6 3d 3a 22 17 3c e3 24 b3 bd 9b 82 f5 3c
       0.08932314 0.009224469 -0.0874727 0.029969504
0002c0 dc 59 53 bd 4f 4e 30 bc 0d d3 f6 3c 62 c5 19 bd
       -0.05159937 -0.010760858 0.030129934 -0.037541755
0002d0 70 09 ab bd ab f2 05 3e d8 19 ec 3d bc fd 97 bd
       -0.083514094 0.13080852 0.11528367 -0.07421443
0002e0 3e b7 f4 3c 65 d6 d9 bd 96 49 d7 bd 42 2e ab bd
       0.029872533 -0.10636596 -0.10512082 -0.08358432
0002f0 a0 0d 56 bd a5 b5 12 3e ff 0d cc 3d c3 bb 0e bd
       -0.052259088 0.14327104 0.09963607 -0.034847032
000300 51 6f 20 bd 56 95 f3 bd 26 bd e7 3d 7e ce cc 3d
       -0.03916866 -0.11893718 0.11315374 0.10000323
000310 48 19 e2 bd bd ba 2b bd 1a 6f 70 bb 96 d2 3a bd
       -0.11039978 -0.041926134 -0.0036687315 -0.045610987
000320 f1 da dc 3d 3d a3 f9 3d 66 e6 66 bd 75 8b 47 3d
       0.10783947 0.12189338 -0.05637207 0.04871698
000330 be be 52 3c 51 d1 b1 3c ea a4 3a bd 7c 02 9b 3d
       0.012862859 0.021706255 -0.04556743 0.07568833
000340 2b 84 e0 bd 8d 8a 98 bd ce 89 93 bd 21 ae ee 3d
       -0.10962709 -0.074483015 -0.072040185 0.11654306
000350 8e 6f 74 bd 4f 4a 12 bd 49 82 64 3d 3d 95 e8 3d
       -0.0596767 -0.035715397 0.055788312 0.1135659
000360 7e f4 7b 3d 26 5c 4a bd e5 72 8d 3d db 62 f1 bd
       0.061512463 -0.049404286 0.0690668 -0.11786433
000370 8c 18 48 bd db d1 8b 3d d2 bc 57 bd 3d f4 e5 bb
       -0.048851535 0.06827136 -0.052670307 -0.007017641
000380 dd a3 81 bd 17 da 33 3c 2a 2b 80 3d 0b c2 1f bc
       -0.063300826 0.01097729 0.06258233 -0.009750853
000390 10 f4 83 bd 46 9f 86 3d b5 61 92 bc bd 55 7d bd
       -0.064430356 0.06573348 -0.017868856 -0.061849345
0003a0 25 8c 99 3d aa 06 25 bd 9a 0d 06 3d 7f f4 a2 3d
       0.074974336 -0.04028956 0.032727815 0.0795679
0003b0 9e 65 4c 3c 57 aa 8f bd 4b 7a 10 bd 0d 43 01 bd
       0.012475399 -0.070149116 -0.035272878 -0.031558085
0003c0 13 1d b8 bd ca e3 49 3d e9 93 6a bd 3e 8c c8 3d
       -0.089899205 0.049289502 -0.057269964 0.09792374
0003d0 3e fa 8e bd 88 85 84 bd 95 4e 15 bc 93 0a a1 bd
       -0.06981324 -0.064707816 -0.009112974 -0.07863345
0003e0 23 38 c9 bd 37 08 01 3d 43 84 9a 3d 83 a0 62 3d
       -0.0982516 0.031501975 0.07544758 0.055328857
0003f0 c2 cf 88 bd 6f eb 3d bd 9a a2 07 3d 58 78 dd bc
       -0.06680252 -0.046367105 0.033114053 -0.027034923

lstm_cells.0.W_hc.bias f4 [64]
000000 e9 8c a7 bd 6a be 1d 3b fe 5f 81 3d bd 53 f0 3d
       -0.08181173 0.0024069794 0.06317137 0.11734722
000010 e5 22 19 3b 16 e6 e4 ba 48 24 05 be 0d 91 95 3d
       0.0023366746 -0.001746359 -0.13002121 0.07303057
000020 49 26 c2 3c 29 6c 00 be 68 02 ae bc a2 0d d5 bd
       0.023699896 -0.1254126 -0.021241382 -0.10402991
000030 66 dd 80 3d 39 5f b7 bd 1a 44 82 bd 28 f5 d1 3c
       0.062922284 -0.08953709 -0.063606456 0.025629595
000040 66 51 b5 bc 76 72 fc bc 24 e9 cb 3a 15 42 b0 bd
       -0.02213354 -0.030816298 0.0015557152 -0.08606354
000050 42 d6 ab 3c 4b f9 57 bd bd 35 91 bd 37 e9 ba bc
       0.02097619 -0.05272798 -0.07090328 -0.022816284
000060 10 23 d9 bd 34 b1 a8 3d ee d8 79 3d 58 e8 f6 3c
       -0.10602391 0.08236924 0.060997896 0.030140087
000070 ee 7f 64 bd 55 a7 ed 3d 23 ff 63 3d 63 56 83 3d
       -0.055786066 0.11604182 0.05566324 0.06412961
000080 1a df 8c 3d bf fb d6 3d 49 da 98 3d 13 5b d8 3d
       0.06878491 0.104972355 0.074635096 0.10564246
000090 58 7f 6a bc d2 07 05 3c f3 b7 a9 bd 8b 59 c6 3d
       -0.014312588 0.00811954 -0.08287039 0.09685048
0000a0 62 cb 38 3d d2 0d 13 3d d0 f7 07 3e df cf db 3d
       0.045115836 0.035901852 0.13278127 0.10733008
0000b0 31 43 a3 3d cc 67 83 bd b5 10 22 be 99 07 55 3d
       0.079718 -0.06416282 -0.15826686 0.0520092
0000c0 f2 92 9f 3d 38 a5 3f 3d 3c 9f 10 be 99 96 b5 3c
       0.077916995 0.046788424 -0.14123243 0.022166537
0000d0 a8 30 28 3d 0c 08 d4 3b f5 64 af bd 69 38 af bc
       0.041062027 0.006470686 -0.08564178 -0.021389203
0000e0 ff 2f cf 3d 7d 45 a7 3d aa 48 02 3d 9b 9a c8 bd
       0.101165764 0.08167551 0.03180758 -0.09795114
0000f0 a0 d8 9f bd 81 b0 ec bd 2d 07 8c bd 25 ab 9f 3d
       -0.0780499 -0.11557103 -0.06837306 0.07796315

lstm_cells.0.W_in.weight f4 [64, 64]
000000 90 43 be 3d d0 ca 84 3d dc 7f 20 3d c8 04 f6 bc
       0.0929023 0.06483996 0.039184436 -0.030031577
000010 00 61 88 3a c0 91 bc 3c 98 f7 ee bc 28 d6 24 bd
       0.0010404885 0.023018718 -0.029170796 -0.040243298
000020 10 b3 c2 3c a0 7d 5c 3d 80 ed 2c 3d 10 16 3f bd
       0.023767024 0.053830743 0.042218685 -0.0466519
000030 40 7a 66 bc 74 69 0c 3d 14 3b 22 bd a8 41 34 bd
       -0.014067233 0.034280255 -0.039607123 -0.044007927
000040 66 22 9f 3d 50 b4 4e bd d0 6f 4c 3d 0e 45 d3 bd
       0.07770233 -0.05046493 0.04991132 -0.103159055
000050 b8 75 2d 3d 88 c4 78 bd 50 25 ed bc aa b1 d9 bd
       0.042348593 -0.0607343 -0.028948456 -0.1062959
000060 32 17 f0 3d 6e a2 87 bd ba c7 8c bd 30 83 67 3c
       0.11723174 -0.06622778 -0.06874032 0.014130399
000070 50 c9 5e bc 10 bc a5 3c be 00 ec bd 14 c4 4d 3d
       -0.013597801 0.020231277 -0.11523579 0.050235823
000080 94 e7 17 3d e8 b0 e4 3c 04 e9 d0 3d ca 4f d7 bd
       0.037086084 0.027916387 0.10200694 -0.105132654
000090 00 fd b4 3b 4c 45 c8 bd 98 bb b4 bc 10 6e 16 3c
       0.005523324 -0.09778842 -0.022062108 0.009181514
0000a0 f4 82 15 3d 38 b5 44 bd 16 38 9d 3d 60 2d 29 bd
       0.03650184 -0.048024386 0.07676713 -0.04130304
0000b0 4e 83 c8 bd 80 5b 7b bb ec 2b 04 3d a0 05 d7 3b
       -0.097906694 -0.0038354099 0.03226845 0.00656195
0000c0 64 c4 ee 3d 7c b6 b1 3d 80 ea f1 bc e0 46 e7 bb
       0.11658552 0.08677384 -0.029530764 -0.0070580095
0000d0 48 23 b2 bd d6 43 aa bd 04 fc dc 3d 7e 34 ca bd
       -0.086981356 -0.0831372 0.10790256 -0.09873293
0000e0 68 ea 87 3c 08 d0 08 3d fc dc 95 3d 00 8d 19 ba
       0.016591266 0.03340152 0.0731754 -0.00058574975
0000f0 18 b5 d6 bd 2a db e6 bd 0c a7 50 3d 24 f6 2a 3d
       -0.1048376 -0.11272271 0.05094056 0.041738644
000100 94 c3 bb 3d 26 52 e1 3d ac c9 46 bd cc 17 df bd
       0.09168163 0.11001997 -0.048532173 -0.10893211
000110 b4 e9 36 bd d0 3a f1 3d 70 7a 61 3c 40 ae 0c 3c
       -0.04465647 0.11778796 0.0137621015 0.008586466
000120 b0 5b 60 3d 50 95 4b bc f0 53 d1 bd 60 8a 7f bc
       0.05477494 -0.012425736 -0.10221088 -0.015596956
000130 40 80 6c bc 1e 6e ec bd b0 8e b6 3c dc 63 34 3d
       -0.014434874 -0.11544441 0.022284836 0.044040546
000140 4c 70 5a 3d e0 21 eb bd 34 e3 aa bd a2 4b db bd
       0.05332975 -0.114810705 -0.08344117 -0.10707785
000150 90 14 2a 3d e2 83 f6 bd d0 9d 7a bd 3c 68 fb bd
       0.041523516 -0.120368734 -0.061185658 -0.122757405
000160 00 46 e0 3c 4c 19 ff bd 1c a0 3f 3d 3e f6 f3 3d
       0.027377129 -0.12455997 0.04678355 0.11912201
000170 2a 73 b0 bd be a9 ae bd aa ad e1 3d 00 33 f9 3a
       -0.08615716 -0.085284695 0.11019452 0.0019012392
000180 08 08 59 bd 80 f6 19 3d 90 d9 55 bc 68 f1 82 bd
       -0.052986175 0.037588596 -0.013052359 -0.06393701
000190 58 ef 48 3d d4 cd ee bd 24 0f e6 3d 7c bc 31 bd
       0.04905638 -0.11660352 0.112333566 -0.043392643
0001a0 e0 d3 9b 3b 98 2b dc 3d 30 43 f7 3d cc 41 29 bd
       0.004755482 0.10750502 0.12073362 -0.041322514
0001b0 fe 6f da bd 60 fd 5e bc a0 9b ff bc d8 f3 6e bd
       -0.10665892 -0.013610214 -0.031202137 -0.058338016
0001c0 0c e1 b5 3d da 03 c5 bd 66 19 85 bd 2c 8d de 3d
       0.08880815 -0.09619875 -0.06498985 0.1086677
0001d0 c8 72 55 3d 40 9d e6 bb d8 75 86 3d 94 d3 07 bd
       0.052111417 -0.0070377886 0.06565446 -0.03316076
0001e0 f2 07 8f 3d 60 43 4a bc 28 35 9a bc 12 50 db 3d
       0.06983937 -0.012345165 -0.018824175 0.107086316
0001f0 60 7a 49 bc 8e 16 c2 3d 30 ed b9 bd c0 c0 95 3b
       -0.012297243 0.09476958 -0.09078443 0.0045700967
000200 7c eb 58 bd b0 d1 73 bd 22 1a c3 bd ca 31 95 bd
       -0.05295895 -0.059526145 -0.09526469 -0.07284887
000210 da 33 88 bd aa 89 c5 bd 18 0f 98 3d 46 7e cb bd
       -0.06650515 -0.09645398 0.07424754 -0.09936194
000220 76 13 a5 bd 10 bf 66 3d 18 c0 13 bd 72 20 f9 bd
       -0.080603525 0.056334555 -0.036071867 -0.121643916
000230 e0 40 de 3c e4 21 08 3d 08 f7 f6 3c b4 69 f2 3d
       0.027130544 0.033235446 0.03014709 0.118365675
000240 92 6d 90 3d c0 a3 ab 3b 0c b4 27 3d 6e 00 99 3d
       0.07052149 0.0052380264 0.04094319 0.07470785
000250 2c 59 8d bd 38 2d e3 3c 30 c7 d6 3c 52 cf b7 bd
       -0.06901774 0.027731523 0.026218027 -0.0897509
000260 e0 a9 8f bd ca a4 aa 3d 88 94 a0 bc 00 f4 7d b9
       -0.07014823 0.08332212 -0.019602075 -0.00024218857
000270 8c 4e 9a bd 46 7a b6 bd 1c a1 4b 3d ee ae 9d 3d
       -0.07534513 -0.089100406 0.049714193 0.07699381
000280 e4 31 97 3d cc 4e 52 bd 80 34 57 bd 14 92 7d 3d
       0.07382563 -0.051344678 -0.052540302 0.06190689
000290 96 97 b6 3d a0 f5 00 3d 76 22 89 bd 78 c0 c2 bd
       0.089156315 0.031484246 -0.06696026 -0.09509367
0002a0 18 82 46 3d dc 8e 5a bd 96 12 a1 bd 56 f0 fc 3d
       0.04846391 -0.053358898 -0.07864873 0.12350528
0002b0 ca bb 87 3d 26 33 91 3d e0 c8 00 3c f8 34 78 bd
       0.06627615 0.07089834 0.007860392 -0.06059739
0002c0 f2 52 e3 3d e4 fb a7 3d 58 90 5c bd bc f8 18 3d
       0.11099805 0.08202341 -0.053848594 0.037346587
0002d0 82 bd a1 3d 30 3d c0 3d d8 dd 8e bc de ce cf 3d
       0.07897474 0.093866706 -0.017439768 0.10146879
0002e0 a4 fa 02 bd ae 98 cc 3d 04 75 c1 3d 80 f5 b2 bc
       -0.03197731 0.09990059 0.09446147 -0.02184558
0002f0 a8 da c6 bd 58 ae c3 bc 48 02 e1 bc d4 5c ac 3d
       -0.09709674 -0.023886845 -0.027466908 0.08416143
000300 ac c1 d5 3d ea c3 9b 3d 2c 3a 61 bd 90 2f 22 bd
       0.104373306 0.07605727 -0.054987118 -0.03959614
000310 c0 d3 b1 bb 14 48 01 bd 32 0e ea 3d 0a 11 a9 bd
       -0.005426854 -0.03156288 0.11428489 -0.08255203
000320 8c 9e 13 3d 20 5d 9c 3d 9c 6e e1 3d e0 4b 8a 3d
       0.036039874 0.0763495 0.11007425 0.06752753
000330 7c 65 60 3d ba 14 e2 bd 00 f2 bf b9 7c 3d df bd
       0.054784283 -0.110391095 -0.00036610663 -0.10900399
000340 54 a9 67 3d c0 8b d6 3d 60 d2 7b 3c 68 2f c6 3d
       0.05655797 0.10475874 0.0153699815 0.09677011
000350 08 a3 be bd 80 35 de bd 1c 0c 07 3d d2 9c e6 bd
       -0.093084395 -0.10850048 0.032970533 -0.1126038
000360 68 21 65 3d 60 63 e5 3c b4 45 43 bd 54 d9 4a bd
       0.05594006 0.028001487 -0.047673896 -0.049523667
000370 50 8d b1 3c a8 17 b5 bc 40 1b d4 3b a4 8e ae bd
       0.021673828 -0.022106007 0.006472975 -0.085233
000380 b0 8e 42 bc 38 2d c9 bc 5c 18 7d bd 98 8c a8 bc
       -0.01187484 -0.024557695 -0.06179081 -0.020574853
000390 18 58 42 3d 7c b8 8d 3d 94 7d 26 bd a8 0d ae 3c
       0.047447294 0.06919953 -0.040647104 0.021246746
0003a0 dc 9c 0c bd ac 88 51 bd 80 97 03 3c 04 09 d0 bd
       -0.03432928 -0.05115573 0.008031726 -0.101579696
0003b0 fc ef 20 bd 14 60 09 3d b4 c7 ff 3d 9c 9c 2c 3d
       -0.039291367 0.033538893 0.12489262 0.04214154
0003c0 40 99 86 3c f8 f3 50 bd 04 1c 7e 3d 50 5e e2 bc
       0.016430497 -0.051013917 0.062038437 -0.027632862
0003d0 88 ad b8 3d 14 57 3d 3d b8 30 2e bd 50 74 ba 3d
       0.090174735 0.046225622 -0.04252693 0.09104216
0003e0 68 b9 21 3d b8 da ed 3d 00 a8 9b 3c 00 ea 85 bc
       0.039483458 0.11613983 0.019001007 -0.016346931
0003f0 00 7a 01 3a 9e 9f d5 3d e6 1f a2 bd 02 db c4 3d
       0.0004939139 0.10430835 -0.079162404 0.09612085

lstm_cells.0.W_in.bias f4 [64]
000000 70 35 a6 3c 50 3b 8a bd ac 8b 82 bd a0 1f ed bc
       0.020289153 -0.06749594 -0.063742965 -0.028945744
000010 74 a6 9d 3d 0c 31 91 bd 0c 51 a3 3d d0 1a e1 bc
       0.07697764 -0.07089433 0.07974443 -0.027478606
000020 c0 e0 72 3b 26 cb a2 bd 20 65 da bd ec e6 4e 3d
       0.003706023 -0.07948904 -0.10663819 0.050513193
000030 a0 4b 48 bd e8 3a 21 3d c8 4c 0c bd e6 57 ea 3d
       -0.048900247 0.039362818 -0.03425291 0.114425465
000040 a0 08 db 3b 0a ee b2 bd 54 f7 4b bd da 93 e4 bd
       0.006684378 -0.087368086 -0.049796417 -0.11161013
000050 2c f5 a2 bd 78 1f 78 bd b6 b0 fe 3d d8 87 58 3d
       -0.07956919 -0.060576886 0.12436049 0.052863926
000060 b0 39 0a 3c e8 85 75 bd d0 d1 ed 3c 10 89 80 3c
       0.008436605 -0.059942156 0.02903071 0.015690356
000070 80 64 ed ba 7c d4 9f 3d aa f7 91 bd a8 66 a7 bd
       -0.0018111616 0.078042 -0.07127316 -0.08173877
000080 a8 0b 0d bd a6 f4 bb 3d 10 5b b0 bc e4 a1 14 bd
       -0.034434944 0.09177522 -0.021527797 -0.036287203
000090 90 b9 f3 bd 2c e9 83 bd d0 d5 55 bd e8 0c bd bd
       -0.119006276 -0.064409584 -0.05220586 -0.09230977
0000a0 b6 38 ba bd 10 50 2c 3d 12 51 92 bd ce 31 c3 3d
       -0.09092848 0.04206854 -0.07144369 0.09530984
0000b0 e8 ca 85 bd 82 f8 fa 3d e4 70 29 bd 88 06 85 3d
       -0.06532842 0.1225443 -0.041367427 0.06495386
0000c0 76 8f ce 3d 1a 6d f1 3d bc 5d 5b bd c0 db 44 3c
       0.10085957 0.117883876 -0.05355619 0.012015283
0000d0 74 5a f1 bd c8 b1 40 3d 78 1a 88 3d d0 a7 a7 3d
       -0.11784831 0.047044545 0.066456735 0.081863046
0000e0 48 06 f8 3c d0 cd f1 bd 7c 35 75 bd fc 2f 53 bd
       0.030276433 -0.11806834 -0.05986546 -0.051559433
0000f0 cc b1 26 3d 06 2a bb bd 50 c6 c9 bc d0 5d 27 3d
       0.040696904 -0.09138875 -0.024630696 0.04086095

W_h.weight f4 [64, 64]
000000 d6 10 b3 3c 4c 46 e5 3d 2a 3d 69 3d 3d 3f 99 bc
       0.021858614 0.11195049 0.056943096 -0.018706912
000010 44 de d1 bd 68 73 30 bd e7 ee 4c bb 98 ec 0e 3d
       -0.10247472 -0.04307881 -0.0031270327 0.034893602
000020 72 72 2f 3d f9 2c a2 3d db 78 b1 3d 57 ff b3 3d
       0.042833753 0.07918734 0.086656295 0.087889366
000030 67 81 fa 3d e3 9a e8 3d e2 a9 e2 3d 69 10 20 3d
       0.12231713 0.11357667 0.11067559 0.03907815
000040 33 62 02 bd 8c 3c 05 3e db 53 a5 bc cb 36 b5 3d
       -0.03183193 0.13011378 -0.020181587 0.088483416
000050 45 5a dd bd e6 88 ca bd 28 a3 2c 3d f3 2d f9 bd
       -0.10808233 -0.098893926 0.042147785 -0.12166967
000060 f0 ca c4 3c 0d b7 84 3c e3 55 9f 3d 7d 3a 95 bd
       0.02402255 0.016200567 0.077800535 -0.072865464
000070 a8 0f 81 3d 35 a8 e7 3d 43 63 08 bd a3 56 41 3c
       0.06301814 0.1131138 -0.03329779 0.011800441
000080 a9 37 53 3d 6d c2 ab 3d b6 da 77 bd e9 86 09 3b
       0.051566754 0.08386693 -0.060511313 0.0020984954
000090 14 c5 02 bd 51 08 87 3c 56 4a b8 bd b3 8c b5 3d
       -0.03192623 0.016483458 -0.089985535 0.08864727
0000a0 08 fc c6 3d 05 14 ae 3d 7e f0 36 bd d5 c0 82 bd
       0.0971604 0.08499912 -0.044662945 -0.06384436
0000b0 3a 18 70 bc 72 8a 6f 3c 92 8c a7 bd db 29 f3 3d
       -0.014654214 0.01462041 -0.081811085 0.11873218
0000c0 b9 d8 be 3b d6 8f 1a 3d 34 5e a5 3d f5 f3 d5 3d
       0.005824175 0.03773483 0.080746084 0.10446922
0000d0 87 12 3f bb e6 d8 bc 3d ff d6 d5 bd 18 de 0d bd
       -0.002915533 0.092210576 -0.10441398 -0.034635633
0000e0 5f a6 54 bd 84 e5 87 bd 7d 35 c2 bc 71 04 0b be
       -0.051916476 -0.066355735 -0.023707146 -0.13575913
0000f0 83 e5 aa bd 62 c5 eb 3d 32 b1 b9 bd 6c 5c 75 3d
       -0.08344557 0.11512257 -0.090670004 0.059902593
000100 fe 76 79 bd b5 d7 b0 bd f0 61 8c 3b b4 40 af bd
       -0.060904495 -0.08634893 0.004284136 -0.08557263
000110 c1 48 fa 3d 80 91 c4 3d 36 e2 3f bc e7 ab 17 bd
       0.12220908 0.095980644 -0.011711648 -0.037029173
000120 08 df ed bd d2 b9 ff bc 0b 46 cd 3d 23 05 71 3b
       -0.116148055 -0.031216536 0.10023125 0.0036776743
000130 92 c3 65 3d 3b 43 c8 3d 8c 4e 1f 3c 85 c5 b2 3d
       0.056094714 0.09778448 0.009723317 0.0872908
000140 7a e1 06 3d df 99 88 bd 56 d4 f2 3d 1a f4 91 bd
       0.032929875 -0.066699736 0.11856906 -0.07126637
000150 bf 43 d7 3d d3 e9 09 3d a3 5c bc bb 1c 5c d7 bd
       0.105109684 0.033670258 -0.005748348 -0.10515615
000160 3d a1 b6 3d 40 75 73 3c 0b 4d 21 3d d4 79 23 3c
       0.089174725 0.014859498 0.039380115 0.009977777
000170 84 b4 d1 3c ab d1 17 3d 8a e6 b3 3c 0f 35 b3 3d
       0.025598772 0.03706519 0.021960516 0.087503545
000180 bf 03 87 3d 2c 63 a4 3c 34 d4 fe bc 70 75 86 bd
       0.065925114 0.02006682 -0.031107046 -0.06565368
000190 23 08 ed 3d 64 bf 15 bd 56 57 a5 3d a1 33 90 3c
       0.115738176 -0.036559477 0.08073299 0.017602744
0001a0 82 89 db 3c 98 d8 62 bd 7a 7e de bd 8d 61 cd 3d
       0.026798967 -0.05538234 -0.10863967 0.10028372
0001b0 36 84 21 bd a7 ac f2 bc 6f e3 e0 bb 42 c2 cc 3c
       -0.039432727 -0.029623343 -0.0068630497 0.024994973
0001c0 b0 75 46 bd ef 19 e9 3d 58 0c 5e 3d 78 54 c1 bb
       -0.04845208 0.113818996 0.05421099 -0.005899962
0001d0 28 37 fe 3c 96 ab 05 3e 5c 3f 92 bd c5 22 95 bd
       0.03103216 0.13053736 -0.07140991 -0.072820224
0001e0 7d 98 e1 3c 85 f0 18 3d 9c c5 e8 bc 59 f6 ca bc
       0.027538532 0.037338752 -0.02841454 -0.02477567
0001f0 dc 0d 97 3d b7 e8 64 3c 95 60 a4 bd 2e a9 a1 bb
       0.0737569 0.013971499 -0.08026234 -0.004933498
000200 57 80 d9 bd d9 a9 30 bd a5 ed df bd 7d e3 9c bc
       -0.10620182 -0.04313073 -0.10933999 -0.019151444
000210 eb d7 bf 3c 89 12 e9 bc 58 2b b3 bd 6d 2f 82 3b
       0.023418387 -0.028451221 -0.087485015 0.0039729387
000220 a2 a2 95 bd b1 5c 3a bd 02 82 be bd 72 59 c7 bd
       -0.0730641 -0.045498554 -0.09302141 -0.09733857
000230 0c 88 f3 bc cf c3 95 3c 42 37 cb bd 5e 62 ee bd
       -0.029727958 0.018281845 -0.09922649 -0.11639856
000240 64 a6 da bd 31 36 5b 3d 40 b9 cd bd bb 2b 49 bd
       -0.10676268 0.053518478 -0.10045099 -0.04911397
000250 12 ca a9 3d aa af be 3d e0 a6 27 bd ae 13 0a 3e
       0.08290495 0.09310849 -0.04093063 0.1348407
000260 8d d7 27 bb bf 29 af 3d 63 58 17 bc 12 61 43 3c
       -0.0025610656 0.08552884 -0.009237382 0.011924999
000270 f3 97 a1 bb bf e6 ae bd 9d 0e 8c 3d 98 12 00 be
       -0.004931444 -0.08540105 0.06838725 -0.12507093
000280 38 91 26 3d 0f 15 ad bc e1 cc 46 bd f2 6e 1e be
       0.040665835 -0.021128206 -0.04853523 -0.1547201
000290 42 e0 a9 3d 58 a7 72 3b 55 cd ca bc 5f e5 a1 bd
       0.08294727 0.0037026014 -0.024756113 -0.07905077
0002a0 33 78 92 3c 77 f1 e5 bd 80 a6 4b 3d 47 1f 70 bd
       0.017879581 -0.112276964 0.049719334 -0.05862358
0002b0 51 c8 10 3d 3d 65 2d bc 2e c3 07 3e 55 89 01 3e
       0.035347287 -0.010583219 0.13258049 0.12650044
0002c0 b0 36 e7 3d 50 f2 bb bd da 0e a7 ba 18 3f 11 3d
       0.11289728 -0.09177077 -0.0012745515 0.03546056
0002d0 7d 4d 11 3e 43 83 e4 bd 4f c7 2d bd 2f b2 28 3d
       0.14189716 -0.11157849 -0.042426404 0.041185554
0002e0 87 eb b8 3d f7 e3 b4 3c 2f 72 d6 bd b9 ce 8b bd
       0.09029298 0.022081358 -0.104709975 -0.068265386
0002f0 78 a3 ce bd 60 86 42 bc 48 5c 08 3e 4b 8f 10 bd
       -0.10089773 -0.011872858 0.13316453 -0.035292905
000300 1e 3d d1 3d c8 5f 24 bd 14 ce 9b 3d 65 b6 aa bb
       0.10216735 -0.040130407 0.07607666 -0.0052097314
000310 6e f0 6e bc 8f 17 c3 bd 7f 45 62 3d c7 eb 7e bc
       -0.01458369 -0.09525978 0.055242058 -0.015559143
000320 b8 45 38 bd a7 89 a3 bd fb 40 49 bd 70 b8 74 bd
       -0.044988364 -0.079852395 -0.049134236 -0.059746206
000330 d4 b0 8e bc 1a 26 08 3d 0e 08 d2 bc 04 cd a4 b9
       -0.017418303 0.03323946 -0.025638606 -0.00031433266
000340 cd 64 c2 3d cd 08 10 3e 66 d5 73 3d 2e 32 92 bd
       0.094918825 0.14065857 0.059529684 -0.07138477
000350 e0 2e cc 3d a4 28 79 bd 49 c2 e2 bd 61 01 b8 bd
       0.09969878 -0.060829774 -0.11072213 -0.08984638
000360 07 3f e8 3c ff 6f 01 be 9a ce de bd 9b d7 c5 3d
       0.028350366 -0.1264038 -0.1087925 0.09660264
000370 a3 d2 83 bd f5 d8 3d bd 66 82 28 3e c0 82 0a 3e
       -0.0643666 -0.046349484 0.16455993 0.1352644
000380 16 f8 07 bd 00 e8 ce bc d6 a8 e9 bd 86 67 06 3e
       -0.033195578 -0.02525711 -0.11409156 0.13125429
000390 76 97 b7 3d 54 d7 b3 3c 70 8b 15 3e 6b 86 2f 3d
       0.08964436 0.021953262 0.14603972 0.0428528
0003a0 4b aa e1 bc 99 75 b5 3d 1c 22 83 3c 13 e8 f4 bc
       -0.027547022 0.088603206 0.016007476 -0.029895818
0003b0 dd 66 ed 3d b9 e0 8b bc 11 97 0a bd 7c dc 83 bd
       0.11591885 -0.01707493 -0.033835474 -0.064385384
0003c0 5c 2e a2 3d b0 b5 91 bd 70 5a 9c 3d 03 a7 9d 3d
       0.079189986 -0.07114732 0.07634437 0.076978706
0003d0 ee 31 30 3d fc 1b 9c 3d ac c5 09 bd 53 d9 ce 3d
       0.043016367 0.07622525 -0.03363578 0.10100045
0003e0 3b c8 e1 bd 66 61 08 bc 37 a7 f9 bd f7 51 59 bd
       -0.11024519 -0.008324003 -0.12190097 -0.053056683
0003f0 fc 41 a3 bd 4c 25 0f bd 53 65 ad bc 7c 37 c3 bd
       -0.0797157 -0.03494768 -0.02116648 -0.09532067

W_h.bias f4 [64]
000000 a0 d4 b8 bd 22 48 ef bd b0 3e b2 bc 2c 1d d7 3b
       -0.0902493 -0.1168368 -0.021758407 0.006564757
000010 5a 09 fc 3b b3 97 16 3d ea ad fa bd 47 8f 24 bd
       0.0076915445 0.036765765 -0.12240203 -0.040175702
000020 dd 83 d3 3c 06 c4 fe 3c 96 8c bf 3c 42 ec 7f 3d
       0.025819713 0.03109933 0.023382466 0.062481172
000030 02 1a a4 3d 7a 3c 90 3b 3c a6 1d 3c ca 33 d0 bd
       0.08012773 0.0044017406 0.009622153 -0.10166128
000040 f6 9f 96 3b 95 6e f0 bd 2d ed e8 3d 67 26 64 bd
       0.0045967055 -0.11739842 0.11373363 -0.055700686
000050 8d 7b f3 bd 93 35 af bd ab 90 85 bd 01 59 90 3b
       -0.118888 -0.0855514 -0.06521734 0.0044051413
000060 28 9a 27 bd e3 c7 80 3d 53 20 8c ba 32 5f b1 bd
       -0.0409185 0.06288125 -0.0010690786 -0.08660735
000070 37 58 13 3d 81 bb 8c 3d 5d 8c eb 3d 22 ee 5f bd
       0.0359728 0.06871701 0.115013815 -0.05467046
000080 a6 aa 1e 3a ea 7c db bd d0 f2 d9 3d 02 5e 5a bd
       0.000605265 -0.10717185 0.10642016 -0.05331231
000090 27 ca 25 3d 11 34 fc 3d 7a 17 87 bd 6f 26 83 3d
       0.04047599 0.123146184 -0.06596275 0.06403815
0000a0 a1 19 72 bc f1 05 e7 37 08 0e e8 3d 79 9f 1f bd
       -0.014776618 2.7540113e-05 0.11330801 -0.038970444
0000b0 eb 7b f9 3b c9 1a a2 bc 8b 08 94 bd d2 80 e4 3c
       0.007613649 -0.019788163 -0.07228192 0.027893458
0000c0 48 73 b3 bd 95 00 d9 3d 78 50 95 bd ae 9f fe bd
       -0.087622225 0.10595814 -0.07290739 -0.124328
0000d0 58 10 08 3d dd 55 59 3d 80 dd b1 bd 80 56 a3 3d
       0.03321871 0.0530604 -0.08684826 0.07975483
0000e0 a0 96 78 bd 52 97 59 3d f8 b8 5e bd 8a 09 5f bd
       -0.060690522 0.053122826 -0.05437562 -0.054452457
0000f0 0d 09 5f 3d 37 26 22 bd a4 4e b7 bd f6 90 dc 3d
       0.05445199 -0.039587226 -0.089505464 0.107698366

W_g.weight f4 [64, 64]
000000 48 f5 a4 bd 13 06 7c 3d fc 35 e2 3d 97 d8 b2 bb
       -0.08054596 0.06152923 0.11045453 -0.0054579484
000010 94 d5 06 bd 8e fd dd 3d 2d e3 a2 bc d8 1e 7d bd
       -0.032918528 0.10839377 -0.019883716 -0.061796993
000020 88 ed dc 3d eb 31 c6 3b 94 8c 73 bd ac 59 6e bd
       0.10787493 0.006048431 -0.059460238 -0.058190987
000030 e0 6e f1 bd fa f2 92 3d 54 76 06 bd 50 0d c2 bd
       -0.11788726 0.0717525 -0.03282769 -0.094751954
000040 2e 73 d2 3d 64 32 47 3d a5 25 e1 bc dc 90 35 bd
       0.10275875 0.04863204 -0.02748377 -0.0443276
000050 30 2d 9e bd a0 5a 9e bd 48 27 96 3d fc c4 6d bd
       -0.077234626 -0.07732129 0.07331711 -0.058049187
000060 18 29 78 bd 12 b3 8c 3d e6 1d 01 ba 52 45 a4 bd
       -0.060586065 0.068700925 -0.00049254147 -0.08021034
000070 dd 55 f4 3d 7c da bb bd d8 6a 0e 3d bd 64 b9 bc
       0.119304396 -0.09172532 0.034769863 -0.022631044
000080 57 fe 8b 3b 4a 95 d9 bd de fa a2 3d fe 6b f4 3d
       0.004272263 -0.10624178 0.07958005 0.119346604
000090 13 3b a5 3c 8c a4 88 3d 7c fb dc bd 65 ce e5 bc
       0.02016977 0.0667201 -0.10790154 -0.028052518
0000a0 ec 6a 5c 3d 28 d0 74 bd 68 a4 ea 3d 64 70 be bd
       0.053812906 -0.059768826 0.11457139 -0.092987806
0000b0 fb 17 81 bc f8 83 ff bd 82 17 b6 bd d4 4f b9 bd
       -0.015758505 -0.12476343 -0.088912025 -0.09048429
0000c0 bd 0c d1 bc 1e 0d 81 bd 64 8e 84 3d 6c d4 05 bd
       -0.02551877 -0.0630133 0.06472471 -0.032673284
0000d0 85 84 85 bd 62 2a 65 3d ab 42 a3 3c 9a 4c 0a bc
       -0.06519417 0.055948623 0.01992925 -0.008441115
0000e0 d9 a7 20 bd 21 83 73 3c cb 68 01 bc 14 4f 21 3d
       -0.039222572 0.014862807 -0.00789852 0.039382055
0000f0 ea 8c 9d bd 60 90 38 bd 5f 3b 60 3d c0 34 df bd
       -0.07692893 -0.04505956 0.05474412 -0.10898733
000100 26 d2 f7 bb 5a 41 8d bc 56 e1 e1 bb e5 08 67 3d
       -0.0075628934 -0.017243076 -0.006893317 0.056404967
000110 62 42 dc 3d 13 e1 28 3d 24 be 96 bc aa 88 20 bc
       0.10754849 0.041230273 -0.018401213 -0.009798208
000120 57 19 13 bd 05 18 d1 3c 01 04 29 bd a6 fb e8 bd
       -0.035912838 0.025524149 -0.041263584 -0.11376123
000130 47 87 25 3d 15 39 23 bd ba b4 86 3d 04 cb ba bd
       0.040412214 -0.03984936 0.065774396 -0.091207534
000140 b3 6e 52 3d 9d 2b eb bc c7 e6 48 3d e2 1f b9 3d
       0.051375102 -0.02870732 0.04904821 0.09039284
000150 b3 a4 1a 3d b5 9c 12 bd 1d 67 16 bd f6 91 b4 bd
       0.037754726 -0.03579398 -0.03671943 -0.08816902
000160 52 bc c6 bd 3b 47 62 3d 9e 5e 01 bd 16 a6 a1 bd
       -0.09703888 0.055243712 -0.031584375 -0.078930065
000170 a0 78 95 3d c2 53 8d bc 56 95 ef bd c6 ad 03 be
       0.07298398 -0.017251853 -0.116984054 -0.12859258
000180 5a 57 d0 3d 68 f8 2a bc 30 6e ec 3d f3 15 83 3c
       0.10172911 -0.010435201 0.11544454 0.016001677
000190 21 b9 5d bd ca 93 a5 3d 36 3f f4 bd 3e 87 9f bd
       -0.05413163 0.08084829 -0.11926119 -0.07789467
0001a0 42 1b 9f bd 44 f9 e5 bd fa 9e 9c 3d 5a fb de 3b
       -0.07768871 -0.11229184 0.0764751 0.006804866
0001b0 a1 34 46 bd 6e bf eb 3d 06 4a f0 3d 0d 57 2c bd
       -0.048390035 0.11511122 0.11732869 -0.042075206
0001c0 1b 59 bb 3c 75 90 0a bd aa 18 87 3d fd 76 30 bd
       0.022869637 -0.03382917 0.06596501 -0.043082226
0001d0 22 9d c7 3d f1 15 ea 39 d4 77 9c 3d 27 16 49 3d
       0.097467676 0.00044648306 0.07640043 0.04909339
0001e0 2e 0b f0 3d f8 16 9b 3d ee cd b6 bd 1b 3b 3d 3d
       0.11720882 0.0757274 -0.08925997 0.046198945
0001f0 bf ef 71 3d cd dc ca bc ea ca 00 3c d6 81 b9 3d
       0.05906653 -0.02476349 0.0078608785 0.09057967
000200 ea 6b 82 bd c1 20 b8 bd 52 c0 7c bc a1 fa d3 bd
       -0.06368239 -0.08990622 -0.015426712 -0.10350538
000210 c8 04 a5 bc b0 4c 45 3d cb 4f c5 3d 58 46 84 3d
       -0.020143881 0.048168838 0.0963436 0.064587295
000220 c5 e5 02 3e 4c d3 0c 3b c0 b2 a1 3c 86 01 8d bc
       0.12782963 0.0021488247 0.019738555 -0.01721264
000230 a2 c1 e4 bd 4a f3 0a 3e d5 cd 54 bc 65 72 b4 bd
       -0.11169745 0.1356937 -0.012988527 -0.088108815
000240 9a 67 c6 3c d9 ec 8b bd 71 f4 d8 bd f0 62 07 3e
       0.024219323 -0.068322845 -0.105934985 0.13221335
000250 15 ac 2b 3c fe 22 73 bd 5f 92 90 bd 40 47 5f 3d
       0.010478039 -0.059359543 -0.07059168 0.05451131
000260 98 92 3a 3c ab 3d c2 bd b9 c1 a4 3d e5 80 e2 3d
       0.01138749 -0.094844185 0.08044762 0.11059741
000270 99 cd b0 bd f1 74 ca bd e4 57 a0 3d 70 96 21 bd
       -0.08632965 -0.09885586 0.07829264 -0.03945011
000280 d7 61 08 3d cd 13 fb 3d db 68 85 bd 1d ab b2 bd
       0.033296432 0.12259636 -0.0651414 -0.087240435
000290 fd e0 dd 3d 01 a3 e6 3d 21 97 99 3d 9c 4f 08 bd
       0.10833929 0.11261559 0.07499529 -0.033279046
0002a0 07 ef ff 3d f6 d5 28 3d 9d 4e b6 bd 6f 5b b3 3d
       0.12496763 0.041219674 -0.08901713 0.08757674
0002b0 43 07 fd 3d 3f f7 d1 3d 47 69 c2 bd 45 f0 e1 3d
       0.12354901 0.102522366 -0.09492736 0.11032156
0002c0 bc 58 40 3d 07 54 8f 3d a7 8a 07 3d 6a 43 c1 bc
       0.046959624 0.06998449 0.033091214 -0.023591716
0002d0 ef 14 c1 3d e9 ad d1 bd 13 ab af 3c 8f b7 87 3a
       0.09427821 -0.10238249 0.02144388 0.0010354387
0002e0 fa 97 f9 bc 0e 32 eb 3c 2c ed 1f 3d 87 b8 a1 bd
       -0.030467976 0.028710391 0.039044544 -0.07896524
0002f0 4f 83 6c bd 95 0f 06 3e 16 ec 89 3c c2 58 86 3d
       -0.057742413 0.13091882 0.016836207 0.06559898
000300 0e ea ee bd 09 2a 6c bd a7 63 bd bc fc e4 ef bd
       -0.11665736 -0.057657275 -0.023118807 -0.11713597
000310 e1 52 0d 3d ac 21 85 bd 93 07 64 bd 1e 8b bf 3d
       0.034502868 -0.06500563 -0.055671286 0.093527064
000320 62 76 c9 bc 51 54 17 bd b1 12 03 be 95 04 4e 3b
       -0.024592582 -0.036945645 -0.12800099 0.0031435837
000330 be 3c a2 bd 30 a5 09 be 20 f7 06 be cc 03 cc 3d
       -0.07921742 -0.1344192 -0.13180208 0.09961662
000340 97 8d e4 3c 14 5e a9 bd b3 9a 26 3d 8a 6a f8 bd
       0.027899547 -0.08269897 0.040674876 -0.12129696
000350 df 41 91 3d d3 b4 74 3d be a9 d1 bd 3b 07 0f bd
       0.07092642 0.05974276 -0.10237454 -0.034919005
000360 0c 3f f0 bd b2 f1 ba 3d 2e dd aa 3d 33 46 67 bd
       -0.11730775 0.09128131 0.08342968 -0.05646343
000370 cc 14 d9 bb 11 cb 50 3d 87 d3 94 3d 60 32 d4 bd
       -0.0066247936 0.05097491 0.07266908 -0.10361171
000380 b7 f6 38 3d 37 11 fc 3c b5 79 5c bc fb 7e 60 bd
       0.04515716 0.030769927 -0.013456752 -0.054808598
000390 4c 5d fd bb a2 24 de 3b 12 a6 09 be f8 4f dc 3d
       -0.007732069 0.0067792693 -0.13442257 0.1075744
0003a0 16 28 a4 bd 7e bb ae bd 02 e9 07 be a2 49 d2 3d
       -0.08015458 -0.08531855 -0.13272479 0.102679506
0003b0 bc 66 e1 3d 61 a4 0a 3d 5f 06 1f 3d 0b 24 1c 3d
       0.11005923 0.03384817 0.038824435 0.03812031
0003c0 23 aa 05 bd 8e 52 cd 3d b2 e6 7f 3d 27 c5 54 bd
       -0.03263296 0.10025512 0.062475868 -0.05194583
0003d0 54 23 b2 3d 17 d7 68 3d 88 b9 a4 3d 57 8a 4a 3a
       0.086981446 0.05684575 0.080432 0.0007726303
0003e0 3a b4 c4 bd 68 a3 de 3d 13 42 48 bc 27 a8 34 3c
       -0.09604688 0.10871011 -0.012222785 0.011026419
0003f0 c4 2d af 3b 12 2b f1 bd f2 60 fd bd fa 34 b9 3d
       0.005346032 -0.11775793 -0.123720065 0.090433076

W_g.bias f4 [64]
000000 7a 94 cf bb 1c 0e b8 3d 4f 65 0d 3c cd 42 d7 bd
       -0.0063348385 0.08987066 0.008630111 -0.10510788
000010 4c 1a 3e 3b 0e 98 04 bb 96 fb 39 bd 96 1f eb bd
       0.0029007373 -0.0020232233 -0.045405947 -0.11480634
000020 00 1b 17 bc 49 c8 83 bd f6 eb 9b 3d 6f 68 ab bd
       -0.009222746 -0.06434686 0.07613365 -0.083695285
000030 5e 84 e8 3d 1c 19 15 3d c6 a5 8d 3d 4e a2 6b 3d
       0.11353372 0.0364009 0.069163844 0.057527833
000040 2d 49 1d 3c 23 45 f2 bd f8 a7 3c 3c 3e a3 85 bd
       0.009599966 -0.11829593 0.011514656 -0.065252766
000050 fb fc a3 bd a7 eb 59 bb a7 50 50 3d fe 3e 9b 3d
       -0.080072366 -0.0033252032 0.050858166 0.07580374
000060 58 e2 0b bd 74 c4 0a bd 33 fa b9 bc 60 4e 84 3a
       -0.034151405 -0.03387876 -0.022702312 0.0010094158
000070 e4 7c d2 bb f3 e9 8a 3d 1f 93 84 3d ef 4a 9c bd
       -0.0064235795 0.067829035 0.064733736 -0.0763148
000080 9f af 97 3d 02 c0 43 bd e8 15 61 3c 68 6f b5 bb
       0.07406544 -0.047790535 0.013738133 -0.0055369623
000090 1b 55 42 3d 73 a9 8c 3d bf d2 a9 3d 33 f8 c3 3d
       0.047444444 0.068682574 0.0829215 0.095688246
0000a0 7f 6c b8 3c 73 82 da bd 8d be 99 3c 20 bf 86 ba
       0.022512672 -0.106694125 0.01876762 -0.0010280348
0000b0 6f ec e9 3d d4 82 a8 bd f9 7e 9f 3d 5e 3b ba bd
       0.11422049 -0.082280785 0.0778789 -0.09093355
0000c0 79 e4 ee bc 41 97 e4 bd d6 c4 01 3e 15 a1 5d 3d
       -0.029161679 -0.11161662 0.12672743 0.054108698
0000d0 fc 89 e9 3d 92 bb cb bd 10 22 9b bd 23 d8 48 bd
       0.114032716 -0.099478856 -0.07574856 -0.04903425
0000e0 de 01 bd bd 46 62 d0 3d 6a 72 a5 bc a0 c1 94 bc
       -0.09228872 0.10174994 -0.020196158 -0.018158734
0000f0 23 87 45 bd cc b7 ed 3d 75 a0 19 bd d2 5d 1a bd
       -0.04822458 0.11607322 -0.03750654 -0.03768713

W_x.weight f4 [64, 1]
000000 15 61 9a 3e 49 f5 3f bf 79 44 dd be bc 0f bc be
       0.30152193 -0.7498365 -0.43216303 -0.36730754
000010 e2 75 09 3f 3b fc da be 75 41 5d bf 32 2a 43 bf
       0.536955 -0.42770562 -0.86428005 -0.7623626
000020 eb b6 5a bf 16 b4 75 be 87 26 ca 3e 70 d0 75 bf
       -0.8543536 -0.23994479 0.3948252 -0.96021175
000030 cc b0 62 3f 77 7b f9 be cf 27 95 3e 23 78 ad bb
       0.8855102 -0.4872701 0.29131934 -0.0052938624
000040 42 22 12 3f c2 5d c1 3e f7 13 96 be 75 27 3c 3f
       0.57083523 0.37766844 -0.29312107 0.73497707
000050 0e 5b 15 3f 48 c5 53 3f 53 ff c8 3e 73 94 3b bf
       0.58342063 0.827229 0.39257297 -0.7327339
000060 3f 0a 7c bf 2a 6e df be 17 ac d0 bd 23 4b 12 3f
       -0.98453134 -0.43638736 -0.101890735 0.571459
000070 9c fc 39 bf ac ae 17 3f e6 6c 54 bf c6 a6 56 3f
       -0.72651076 0.59250903 -0.82978666 0.83848226
000080 44 9e 32 bf c5 49 69 bf 25 ed 42 bf 3f 20 fe 3e
       -0.69772744 -0.9112819 -0.76143104 0.49633977
000090 f0 a9 76 3f b3 60 80 3f ae 3e c5 be 64 66 4f be
       0.96353054 1.002951 -0.38524383 -0.20253903
0000a0 7b e5 1d 3f 11 a5 a5 be 8b 48 ca 3e 14 8f 4c bf
       0.61678284 -0.32352498 0.3950847 -0.7990582
0000b0 28 ef 46 3f bc 3b 36 bf 2d 40 82 be a7 7e 45 3f
       0.77708673 -0.711849 -0.25439587 0.7714638
0000c0 90 b4 f3 be 8d aa f5 3e 40 e8 2e 3d d5 30 c1 be
       -0.47598696 0.47981682 0.04270196 -0.37732568
0000d0 ab 8b 99 3e a5 8f a6 3e 9d aa f9 3e e7 33 79 bf
       0.2998937 0.32531467 0.4876298 -0.9734482
0000e0 2d 8e 25 bf 45 f4 f8 be ed 3e 6a 3f 25 ca c6 3e
       -0.6467007 -0.48623863 0.9150227 0.388261
0000f0 bb 75 2e bf 8a 82 15 bf 43 11 dd bc 77 d7 0e be
       -0.6814839 -0.5840231 -0.02698577 -0.13949381

W_x.bias f4 [64]
000000 2a a1 46 3f fb 8f 1c be 89 b5 10 bf 33 69 72 3f
       0.77589667 -0.15289299 -0.56527 0.9469177
000010 64 80 cf 3e 54 2b 44 bf 95 c4 7d 3f 93 e4 25 3f
       0.40527642 -0.76628613 0.99128085 0.648019
000020 c7 42 6c bf 20 8a 39 be 40 3b 3a bf 33 d0 15 bf
       -0.92289394 -0.18119097 -0.7274666 -0.5852081
000030 9d f7 10 3e 99 c0 53 3f 0d 45 25 3f a5 b3 3c 3f
       0.14156957 0.82715756 0.6455849 0.73711616
000040 3a 34 5b 3f 37 4b 44 3f fb f0 dd be 35 91 11 be
       0.85626566 0.7667727 -0.43347916 -0.14215548
000050 14 25 42 bf 5c 3d 24 bf 3f ee dd 3d a7 67 44 bf
       -0.75837827 -0.64156127 0.108364575 -0.7672066
000060 c7 98 ed be 44 79 7f bf 2e 58 68 3f 57 72 1d bf
       -0.46405622 -0.9979441 0.9075955 -0.61502594
000070 d9 ff 02 3f 44 51 3b bf 08 51 4a bf 7b fc 74 bf
       0.5117164 -0.73170877 -0.79029894 -0.95697755
000080 ec db 67 3f 92 df f0 3e fc fa 93 bd cc e3 05 3f
       0.9056995 0.4704557 -0.07225606 0.52300715
000090 db 0c fa bc 8c ed 92 be fc 19 33 3e d2 9a 06 3d
       -0.030523708 -0.2869686 0.17490381 0.032862492
0000a0 58 2c a0 bd 52 03 98 3e eb de a2 3e c5 af a1 3e
       -0.07820958 0.29690033 0.31810698 0.31579414
0000b0 83 bc ab be 1c 3f 8d 3d 22 8e 72 3f 3e 8d 1d 3f
       -0.3354226 0.06896803 0.9474813 0.61543643
0000c0 41 72 2f bf 86 46 78 3f c7 dc 11 bf 94 cf 0b 3f
       -0.6853371 0.9698261 -0.56977504 0.54613614
0000d0 26 f9 f3 3e d9 3b 7c be dc 65 1e be 19 50 22 bf
       0.47651023 -0.24632205 -0.15468544 -0.6340347
0000e0 57 a5 57 3f 77 23 d4 3e 7c 5c 33 bf d0 bf 87 be
       0.84236664 0.41433308 -0.70062995 -0.2651353
0000f0 a4 35 62 bf 19 37 5e 3f c5 21 14 3d 24 4a e8 3d
       -0.883631 0.8680282 0.036165018 0.11342266

W_1d.weight f4 [1, 64]
000000 8c ef ce ba e4 6b 1e bd db 84 2d bb 51 05 f1 3b
       -0.0015787943 -0.03867711 -0.0026476893 0.00735537
000010 83 92 54 3c 45 7f c3 bb d3 c6 88 3d fb d5 3d bc
       0.012974384 -0.0059660994 0.06678548 -0.011586661
000020 3b 9d 09 bc 79 31 9d bd d4 5e b6 3d 17 fd 53 bd
       -0.008399303 -0.07675452 0.08904806 -0.051755037
000030 32 ac 93 3d 4d 54 83 b9 be 09 d0 3c 8d 7e 96 ba
       0.07210578 -0.00025049076 0.02539527 -0.0011481807
000040 3b 77 cf 3b f7 d8 c1 3c 7d 85 34 3d cf 88 9c bc
       0.006331352 0.023663027 0.044072617 -0.019108204
000050 f2 ae 6e 3d a7 09 1f bd 92 79 63 bd e4 d6 41 bc
       0.05827231 -0.038827565 -0.05553586 -0.011831019
000060 c3 0c fb 3a 42 ab 26 bd cb 53 e1 bd 6a 9f 78 bc
       0.0019153584 -0.040690668 -0.1100231 -0.015174726
000070 01 95 70 bd 8b ab 6c 3b 48 88 79 bd 75 05 95 bd
       -0.05873585 0.003611299 -0.060920984 -0.072764315
000080 83 0c 97 3d d2 38 ff bb b4 02 9c ba 02 3f 8e bb
       0.07375433 -0.007788756 -0.0011902661 -0.004341007
000090 77 ab ba bb 2e 0a 9e 3d 67 9d 7c 3d 3a c6 4b bd
       -0.0056967097 0.07716785 0.061673548 -0.04974959
0000a0 9b 2e 56 3d 27 f5 43 bc da 01 10 bc df 86 0b bd
       0.05229054 -0.011960304 -0.008789504 -0.03406417
0000b0 64 15 0f bd 85 a6 e7 bd 35 ef 35 bc c9 3e 09 3b
       -0.03493251 -0.11311058 -0.011104395 0.0020941964
0000c0 48 ec 38 bc 03 0c 0e bb 3f 82 92 3a 9a c3 0a bb
       -0.011286803 -0.002167464 0.0011177732 -0.0021173717
0000d0 66 b6 ac 3b f5 b3 6a 3b 1f bd 39 3c 47 0b a1 bd
       0.005270767 0.003581283 0.011336594 -0.07863479
0000e0 d5 87 ba bc de e7 ca bd 56 a4 9d bd 12 48 5f 3d
       -0.022769848 -0.099075064 -0.0769736 0.05451209
0000f0 b9 b3 68 bd cc db 81 3d 42 98 eb 3c 21 a1 44 bd
       -0.056812022 0.06340751 0.028759126 -0.048005227
