model_weight/best_BANGLADESH_model.pth (torch, 73948 bytes, 14 tensors)

lstm_cells.0.b_c f4 [64]
-0.0048025493 0.009768436 0.015990509 -0.029449861 0.025368763 0.006207129 0.021895763 -0.008496423
0.013164049 0.010688918 -0.005859298 -0.00010237541 -0.0040420047 0.030441487 0.00013272492 0.0063187038
-0.026560212 -0.0016902228 -0.019992804 0.029478256 -0.03495458 0.008254523 -0.009368065 -0.019398337
0.035853934 0.029906556 -0.011957017 0.01398432 -0.008340965 0.018023217 -0.015790744 0.010635159
0.011001447 -0.007814581 -0.011116021 0.015304929 0.017795777 0.00028991106 0.00044841698 -0.0050297882
0.020835774 0.020730697 -0.00077281665 -0.0036127954 -0.012287193 0.023670647 -0.0031339906 0.012441038
0.0053021926 -0.0007885717 -0.0076670144 -0.01554366 -0.007864372 -0.010993835 0.032032184 0.024200737
0.015934058 0.00017371829 -0.03302168 -0.012140158 0.011877777 0.002099153 -0.013934249 -0.003688687
00000000: b45e 9dbb ca0b 203c 87fe 823c d640 f1bc
00000010: 27d2 cf3c 2c65 cb3b be5e b33c 9534 0bbc
00000020: 06ae 573c 9220 2f3c 5bff bfbb 61b2 d6b8
00000030: cb72 84bb 6d60 f93c 132c 0b39 210d cf3b
00000040: cd94 d9bc 778a ddba f3c7 a3bc 627c f13c
00000050: 892c 0fbd fb3d 073c 837c 19bc 43e9 9ebc
00000060: 93db 123d 98fe f43c 5de7 43bc 7d1e 653c
00000070: 8ba8 08bc 6da5 933c 975b 81bc 173f 2e3c
00000080: 6a3f 343c ba08 00bc f91f 36bc 86c1 7a3c
00000090: 73c8 913c 34ff 9739 8219 eb39 ecd0 a4bb
000000a0: c9af aa3c 6cd3 a93c d996 4aba a6c4 6cbb
000000b0: 3950 49bc f2e8 c13c a363 4dbb 7fd5 4b3c
000000c0: 04be ad3b 27b8 4eba 943b fbbb d6aa 7ebc
000000d0: 91d9 00bc 7c1f 34bc 2e34 033d a040 c63c
000000e0: 2488 823c 2628 3639 be41 07bd 83e7 46bc
000000f0: 029b 423c f191 093b 7a4c 64bc e6bd 71bb

lstm_cells.0.W_ic.weight f4 [64, 1]
0.33752263 -0.40293482 0.5606757 0.44598368 -0.5914054 -0.6308237 0.70781475 0.0456461
-0.75802726 0.77168906 0.38982266 -0.9219979 0.39044973 0.89030343 0.5943595 0.56836945
0.0006057052 -1.0093697 0.51370645 -0.4057987 -0.9499747 -0.5260272 -0.82920563 -0.69590837
-0.2441059 0.4130361 -0.6336343 -0.3559755 0.48254207 -0.64675933 0.115715444 0.88126266
0.6849153 -0.07174419 -0.8004374 0.52408135 0.44321245 -0.24808407 -0.2399536 -0.42868543
0.82044387 -0.007683632 -1.0057693 0.6120305 -0.4723747 -0.50479096 0.22994839 -0.9577947
-0.64167416 -0.7972842 -0.80708075 0.73956805 -0.622885 -0.649024 0.47533002 -0.31264454
0.8144748 0.9893692 -0.18232293 0.32536018 -0.10616543 -0.11666526 -0.81802666 0.48921284
00000000: c4cf ac3e 794d cebe 7188 0f3f f957 e43e
00000010: 5866 17bf a97d 21bf 5933 353f 68f7 3a3d
00000020: 130e 42bf 6a8d 453f d696 c73e 0e08 6cbf
00000030: 07e9 c73e edea 633f f227 183f a980 113f
00000040: 30c8 1e3a 0733 81bf 4482 033f d9c4 cfbe
00000050: 8b31 73bf b8a9 06bf d246 54bf 0d27 32bf
00000060: e6f6 79be 7879 d33e dc35 22bf 6c42 b6be
00000070: c10f f73e 0592 25bf 38fc ec3d 6e9a 613f
00000080: 9c56 2f3f 9eee 92bd 77e9 4cbf 322a 063f
00000090: beec e23e c009 7ebe 66b6 75be a87c dbbe
000000a0: 9c08 523f fac6 fbbb 0cbd 80bf 08ae 1c3f
000000b0: 19db f1be fb39 01bf 9777 6b3e 0932 75bf
000000c0: c244 24bf d11a 4cbf d89c 4ebf 5554 3d3f
000000d0: 6475 1fbf 7026 26bf 755e f33e f212 a0be
000000e0: 6c81 503f 4d47 7d3f ddb2 3abe 9c95 a63e
000000f0: 436d d9bd 32ee eebd 326a 51bf 1b7a fa3e

lstm_cells.0.W_ic.bias f4 [64]
0.56068933 -0.79127014 -0.4530082 0.9370609 -0.5977237 -0.8610787 -0.6451191 0.4125854
-0.7370805 -0.9400829 0.930705 -0.76774234 0.4954377 -0.75104696 0.34100887 0.8263384
0.81685543 -0.047993843 0.78579175 -0.840773 0.9600814 -0.45322835 0.20833835 -0.1883511
-0.95609885 -0.38575834 0.6030678 -0.8332526 0.7123681 -0.5879806 -0.11964818 0.24162346
0.15832596 0.11688001 0.019865021 -0.056279175 -0.08378002 -0.14252877 0.22978488 0.6128892
0.17163487 -0.48659965 -0.2956107 -0.08493288 0.4998416 -0.72315854 0.06555895 -0.94388705
-0.4414383 -0.3244221 -0.11533499 0.98401415 0.40158436 0.063560046 0.1226201 -0.83949244
-0.059880104 0.18060626 0.8998196 0.5079591 -0.72889453 0.40042987 0.48006678 0.031704117
00000000: 5689 0f3f ae90 4abf b1f0 e7be 39e3 6f3f
00000010: 6c04 19bf a76f 5cbf 8626 25bf 653e d33e
00000020: 4fb1 3cbf 46a9 70bf af42 6e3f c38a 44bf
00000030: 03aa fd3e 9d44 40bf b798 ae3e ea8a 533f
00000040: 701d 513f 3195 44bd a629 493f e63c 57bf
00000050: e5c7 753f 8c0d e8be a656 553e 1cdf 40be
00000060: e5c2 74bf 1e82 c5be a762 1a3f 0b50 55bf
00000070: c15d 363f e685 16bf 1b0a f5bd 246c 773e
00000080: 3320 223e c95e ef3d f8bb a23c fe84 66bd
00000090: dc94 abbd 10f3 11be ba4c 6b3e 4ee6 1c3f
000000a0: 0dc1 2f3e 9723 f9be 495a 97be 4af1 adbd
000000b0: 3deb ff3e eb20 39bf c543 863d 95a2 71bf
000000c0: 3304 e2be a71a a6be c034 ecbd 5ae8 7b3f
000000d0: 779c cd3e c52b 823d 3f20 fb3d fae8 56bf
000000e0: d744 75bd d9f0 383e 945a 663f 9c09 023f
000000f0: d598 3abf 2505 cd3e 50cb f53e 2ddc 013d

lstm_cells.0.W_hc.weight f4 [64, 64]
-0.09906628 -0.08597522 0.10275986 0.090616286 0.033791646 0.10564472 0.10915027 -0.045527704
-0.08613556 -0.110401794 0.051253892 -0.0049073775 0.07992097 0.07129094 -0.07633837 0.043345593
0.059033487 -0.07176215 -0.03943881 -0.10584502 -0.017850336 0.051706675 0.11750481 0.023984931
0.028671004 0.033162054 -0.11986525 0.018642465 0.00108706 0.12083235 0.06572049 -0.09487945
0.104381524 -0.06518741 0.06473751 0.075327195 -0.057224073 -0.097103335 0.105450444 0.08426711
0.121433176 0.09690765 0.12128337 0.032264426 0.0029858786 0.044111412 -0.06983545 -0.04905599
0.05976998 -0.122715 0.0961624 -0.117193535 0.03715316 0.057384465 -0.050690364 0.09972541
0.127052 0.1064859 -0.012961301 0.07127801 -0.04925619 0.083953194 -0.082803205 0.043091945
0.040301576 0.10251385 -0.044174176 -0.107413076 0.036418986 -0.06033224 -0.07869236 0.029920831
-0.05980555 0.045666557 0.13161851 0.05124431 0.054370783 0.058093593 -0.092284165 -0.10169453
0.037135676 0.113067515 0.11942893 0.08325531 -0.0012942693 0.1256821 -0.053810693 -0.011174018
-0.09060957 -0.02145634 0.07670863 -0.02040802 0.0935031 -0.0035555053 0.08672751 -0.014862098
0.04748353 -0.020559823 -0.09748278 -0.054022018 -0.10464447 0.019972647 0.08023585 0.09396123
0.03311249 0.055854786 -0.021294564 0.030993987 -0.016573437 -0.06382755 0.1339688 0.07974577
-0.116740964 -0.11204402 0.036521196 -0.0013310866 -0.012648373 -0.03185994 0.10194622 0.03299704
-0.052066214 0.06878578 0.03667782 0.010570859 -0.04762416 0.10645455 0.07705148 0.007905734
0.10890407 -0.008179043 -0.067859985 -0.108481735 -0.06397513 0.009089834 -0.014937064 0.048835184
-0.033065844 -0.13911499 0.1068715 -0.044626657 -0.055188224 -0.08771609 0.018124007 0.1070401
-0.055338502 -0.06312004 0.029398926 0.026864603 -0.014577287 0.0033286023 0.09478969 0.07667561
0.10048315 -0.07528138 0.050451912 -0.07777095 -0.003118075 -0.11798155 -0.011217103 0.08070581
0.0238015 0.069949195 -0.09596747 -0.0030492898 -0.010299733 0.022141038 -0.025719287 0.0929597
-0.063159935 -0.10360053 0.028948857 -0.121065 -0.0694703 0.004172658 0.09098337 0.089896396
-0.06357152 -0.03711687 -0.08526422 -0.064694 -0.019763177 0.08534543 -0.0016399508 0.06583065
0.07165093 -0.038939647 0.034745343 0.025596704 -0.04310174 0.12542516 0.050132923 0.05012797
-0.11553119 -0.07992344 -0.07265199 -0.032127388 -0.07036732 0.14880726 0.03137325 0.049902227
-0.09181308 -0.0349809 0.08959389 -0.063588426 -0.13555709 0.03676125 0.103328116 -0.01700069
0.07024704 -0.05877084 -0.06756808 0.088509984 0.056341834 -0.010132154 0.07578506 0.10102815
-0.055278443 0.027892811 0.092367135 0.03957508 0.058010425 0.1268464 0.042116527 0.10261491
-0.03949783 0.038639646 -0.053298425 0.07978797 -0.0004972428 -0.05651524 -0.0408923 0.09580036
-0.0022244218 0.14265428 0.010173924 0.103329256 0.10483217 0.019431422 0.03553438 -0.053982593
0.079491094 0.09983507 -0.055434596 -0.1496149 -0.022143228 0.05177095 -0.06995422 0.029618824
-0.021631345 0.13517916 -0.08960285 -0.087483615 0.02139227 -0.12590426 -0.08178098 0.08937291
00000000: 43e3 cabd c713 b0bd c373 d23d 0895 b93d
00000010: 1c69 0a3d 425c d83d 2d8a df3d 427b 3abd
00000020: d767 b0bd 561a e2bd 9aef 513d 11ce a0bb
00000030: 9bad a33d fc00 923d 4b57 9cbd 268b 313d
00000040: 19cd 713d 09f8 92bd 978a 21bd 46c5 d8bd
00000050: de3a 92bc 61ca 533d 5da6 f03d 0c7c c43c
00000060: 74df ea3c efd4 073d ea7b f5bd 15b8 983c
00000070: ae7b 8e3a f376 f73d 7798 863d 2850 c2bd
00000080: fbc5 d53d fa80 85bd 1a95 843d 2545 9a3d
00000090: ca63 6abd 1dde c6bd 67f6 d73d 3c94 ac3d
000000a0: f5b1 f83d 8577 c63d 6a63 f83d b427 043d
000000b0: bbae 433b 2bae 343d e305 8fbd efee 48bd
000000c0: 5ed1 743d 0052 fbbd cbf0 c43d 2a03 f0bd
000000d0: e92d 183d f90b 6b3d b3a0 4fbd d63c cc3d
000000e0: eb19 023e 4815 da3d a35b 54bc 35fa 913d
000000f0: dcc0 49bd a7ef ab3d ba94 a9bd 2e81 303d
00000100: 4413 253d c8f2 d13d fbef 34bd 63fb dbbd
00000110: 132c 153d f01e 77bd 7629 a1bd 881c f53c
00000120: aaf6 74bd db0c 3b3d 01c7 063e 8ee5 513d
00000130: e6b3 5e3d 8cf3 6d3d 7bff bcbd 3945 d0bd
00000140: 941b 183d f18f e73d 2897 f43d c381 aa3d
00000150: 79a4 a9ba cfb2 003e 9a68 5cbd 3a13 37bc
00000160: 8391 b9bd 35c5 afbc 6a19 9d3d b82e a7bc
00000170: 8e7e bf3d 7b03 69bb 319e b13d 2880 73bc
00000180: 177e 423d 136d a8bc 0da5 c7bd 3146 5dbd
00000190: d74f d6bd ad9d a33c b152 a43d bf6e c03d
000001a0: f6a0 073d fdc7 643d f071 aebc 1ae7 fd3c
000001b0: 04c5 87bc 05b8 82bd 1e2f 093e c051 a33d
000001c0: e315 efbd 5677 e5bd 4097 153d db77 aeba
000001d0: 1f3b 4fbc 927f 02bd 2ec9 d03d e727 073d
000001e0: 6243 55bd 8fdf 8c3d 7b3b 163d 6531 2d3c
000001f0: 8d11 43bd d804 da3d 2bcd 9d3d 0d87 013c
00000200: 1909 df3d 6501 06bc 2dfa 8abd ac2b debd
00000210: 6505 83bd 87ed 143c 96ba 74bc 6707 483d
00000220: 0d70 07bd 2974 0ebe 72df da3d 71ca 36bd
00000230: 0c0d 62bd 7ea4 b3bd cc78 943c d737 db3d
00000240: a0aa 62bd 1445 81bd 04d6 f03c 2813 dc3c
00000250: 93d5 6ebc ae24 5a3b 1921 c23d 1a08 9d3d
00000260: 1cca cd3d 202d 9abd aaa6 4e3d 6046 9fbd
00000270: 9e58 4cbb 50a0 f1bd f1c7 37bc 1649 a53d
00000280: 5dfb c23c 8641 8f3d 988a c4bd 98d6 47bb
00000290: 36c0 28bc 1f61 b53c 41b1 d2bc a861 be3d
000002a0: ff59 81bd 842c d4bd 2726 ed3c edf0 f7bd
000002b0: 7246 8ebd cbba 883b 7d55 ba3d 9a1b b83d
000002c0: c931 82bd dc07 18bd 029f aebd 4a7e 84bd
000002d0: 63e6 a1bc 96c9 ae3d 9ef3 d6ba 38d2 863d
000002e0: b9bd 923d 2e7f 1fbd 2251 0e3d 2eb0 d13c
000002f0: 738b 30bd 746f 003e 2e58 4d3d fc52 4d3d
00000300: 9e9b ecbd e7ae a3bd 91ca 94bd 0298 03bd
00000310: be1c 90bd ee60 183e 3d81 003d 4766 4c3d
00000320: 7f08 bcbd 2248 0fbd 007d b73d a63a 82bd
00000330: 7acf 0abe f792 163d b19d d33d 0845 8bbc
00000340: aedd 8f3d b1b9 70bd 2261 8abd b944 b53d
00000350: b2c6 663d 5601 26bc 3335 9b3d d9e7 ce3d
00000360: a66b 62bd 777f e43c fb2a bd3d 7b19 223d
00000370: 579c 6d3d 06e4 013e 6182 2c3d c427 d23d
00000380: 7ac8 21bd 9b44 1e3d 734f 5abd e067 a33d
00000390: 6659 02ba 867c 67bd af7e 27bd fb32 c43d
000003a0: 9bc7 11bb f713 123e 88b0 263c 4a9e d33d
000003b0: 40b2 d63d a52e 9f3c 7f8c 113d da1c 5dbd
000003c0: 3acc a23d 5476 cc3d 630f 63bd a634 19be
000003d0: b765 b5bc c70d 543d 2844 8fbd 2da3 f23c
000003e0: 3834 b1bc 686c 0a3e b381 b7bd 9c2a b3bd
000003f0: d83e af3c 0ced 00be c97c a7bd 2509 b73d

lstm_cells.0.W_hc.bias f4 [64]
0.07033916 0.029874198 0.056122106 -0.1465321 0.111989066 0.07982598 -0.0013314034 0.055867035
0.059739616 0.10370996 -0.09568861 0.025805185 -0.07383452 0.07556634 -0.083788596 -0.09046909
0.078857735 -0.01800447 0.004978116 0.0023758968 -0.019407531 0.08039803 -0.009873303 0.009979053
0.099269204 -0.030449046 -0.1281119 0.05393853 0.0571073 -0.0679381 0.09782829 0.121843874
0.043875538 0.02207418 0.07764436 -0.07777912 -0.10221365 0.04705032 -0.09219365 0.08505462
-0.003660255 -0.07330283 0.03512889 -0.06846091 -0.05725429 0.05512967 -0.09626395 -0.04793059
-0.03871101 -0.060182415 0.042690437 -0.002510251 0.083707154 0.008016431 0.11631971 -0.08349506
0.015321113 -0.050101846 0.081330515 0.037567206 0.07160888 0.042659868 0.04502067 0.02550487
00000000: fa0d 903d bcba f43c 4be0 653d 830c 16be
00000010: 865a e53d ce7b a33d 7c82 aeba d5d4 643d
00000020: 87b1 743d e365 d43d 64f8 c3bd 6565 d33c
00000030: 8e36 97bd 86c2 9a3d 5b99 abbd dc47 b9bd
00000040: 2a80 a13d 1c7e 93bc 771f a33b efb4 1b3b
00000050: 8bfc 9ebc b9a7 a43d a2c3 21bc 2f7f 233c
00000060: a74d cb3d 4770 f9bc c42f 03be a6ee 5c3d
00000070: 58e9 693d 2123 8bbd 335a c83d 4889 f93d
00000080: d6b6 333d e9d4 b43c 0204 9f3d a94a 9fbd
00000090: 6455 d1bd d6b7 403d 06d0 bcbd 1e31 ae3d
000000a0: e4e0 6fbb cb1f 96bd 50e3 0f3d 3c35 8cbd
000000b0: 7983 6abd a6cf 613d 0926 c5bd de52 44bd
000000c0: 708f 1ebd d681 76bd 2bdc 2e3d 0683 24bb
000000d0: a86e ab3d 5957 033c 0739 ee3d 75ff aabd
000000e0: 6805 7b3c 9837 4dbd 9d90 a63d 12e0 193d
000000f0: ada7 923d 1dbc 2e3d 9867 383d 97ef d03c

lstm_cells.0.W_in.weight f4 [64, 64]
0.09838787 0.016345784 0.010247618 0.0947932 0.032127813 -0.081005245 0.056897014 0.10924055
-0.021452084 -0.040719196 0.0323945 -0.12049471 -0.07375482 -0.12459859 0.06798491 0.058900982
-0.06659642 0.124107555 0.1076764 -0.12491819 0.10436073 -0.04802093 -0.12119578 -0.07647869
-0.034626275 0.041330934 -0.069607735 -0.0029615462 -0.018834233 0.071411386 -0.06509529 -0.10941355
-0.088550106 -0.061212465 -0.103640586 0.07074714 0.023328215 -0.12312162 0.123048514 0.005665377
-0.0027147382 -0.052058697 -0.046242803 -0.07848413 -0.09952329 0.04376529 0.07166083 0.08444965
0.1239672 0.0017705113 0.07541275 0.096187025 0.058648095 -0.010736898 -0.0074252784 -0.033247262
0.10946721 0.017365053 -0.12212652 0.03848736 -0.037299976 -0.006027952 -0.08049892 0.06871909
0.11516783 0.030133933 -0.01794213 0.09616202 0.060432315 0.011226669 0.003451705 -0.03763789
0.048796237 0.01975356 -0.028437212 -0.11562009 -0.08844443 -0.060300738 0.071015775 0.10514234
-0.031628177 -0.04436326 -0.00047177076 -0.0077392757 0.03544028 -0.082451776 0.090106934 0.009194568
-0.09175126 0.123937875 -0.08933422 -0.031899735 0.00050626695 0.12260857 -0.005773872 -0.04782319
-0.10224867 -0.015726224 0.091361225 0.05430311 -0.015814468 -0.11304255 -0.11020516 -0.10317497
0.11986816 -0.03334634 0.053535387 0.024046183 0.023775786 0.10727799 -0.0730301 -0.10986939
-0.12172912 -0.037822127 0.035789475 -0.0076887906 -0.04081601 0.08839904 -0.120574504 0.019204319
-0.0023217648 0.008199811 -0.0014558733 0.06361584 -0.031517237 -0.06043069 -0.11492045 -0.11327501
-0.11328226 -0.09604354 0.09024249 0.08367135 -0.056299344 0.095984355 -0.10112046 0.050232112
-0.09939934 0.0632768 0.08943707 0.022065073 0.00917691 0.045903757 0.095973164 -0.04383546
0.03632553 -0.048741013 0.0658761 -0.06212327 -0.08992855 -0.07245776 -0.053220376 0.013783887
0.0370664 0.09867954 0.0666302 -0.07248223 0.12044962 -0.059660584 0.080761716 0.09600529
-0.070487484 0.04635717 0.09130886 0.09629363 -0.050439417 0.06939931 0.016155899 -0.047468632
-0.030378371 -0.0721741 0.017451912 -0.050793603 -0.08113134 0.05770071 0.074117005 0.07549928
-0.11141963 0.060670763 -0.07011923 0.0803708 0.06060478 -0.103370056 -0.10658632 0.08751468
0.094268575 0.106113076 0.10024871 0.041888535 -0.011723548 0.096812785 -0.069395825 -0.05852422
-0.034131944 -0.00043988228 0.044931844 0.026830703 0.037704423 0.11873484 0.077631876 -0.10007879
0.045858547 -0.100833595 0.03452277 -0.093516275 -0.08729687 -0.12461881 -0.09430061 -0.063709766
-0.009048253 -0.10911499 0.099429876 -0.10044472 -0.037990198 0.044058844 0.028109744 0.059683114
0.01287365 0.028510332 -0.018383771 -0.027836233 -0.0795389 -0.027758703 -0.037332118 -0.053662255
0.045899093 -0.06686239 -0.09279531 -0.086924076 -0.014822498 0.07915774 0.03205271 0.08331962
-0.031686008 0.014056444 0.08698833 0.019580811 -0.098676845 -0.019798383 0.0831019 0.029623032
0.09314065 0.0076794624 0.0034535527 -0.117680445 0.041160375 -0.08546044 -0.03565581 -0.0018937588
0.03353566 -0.024449363 -0.03662534 0.032529905 0.014724642 0.027697325 -0.030374944 0.029183447
00000000: 947f c93d 98e7 853c a0e5 273c f022 c23d
00000010: 7498 033d 14e6 a5bd d80c 693d 82b9 df3d
00000020: 48bc afbc 2cc9 26bd 18b0 043d eec5 f6bd
00000030: c40c 97bd 8c2d ffbd ac3b 8b3d 2842 713d
00000040: b463 88bd 1a2c fe3d 7285 dc3d 1cd5 ffbd
00000050: 14bb d53d 98b1 44bd 7e35 f8bd dca0 9cbd
00000060: 48d4 0dbd a04a 293d 808e 8ebd 8016 42bb
00000070: 404a 9abc 2240 923d ae50 85bd 3614 e0bd
00000080: c259 b5bd ecb9 7abd 8441 d4bd e0e3 903d
00000090: d01a bf3c 3027 fcbd dc00 fc3d a0a4 b93b
000000a0: c0e9 31bb 803b 55bd 1869 3dbd 4abc a0bd
000000b0: ded2 cbbd 3c43 333d eac2 923d f0f3 ac3d
000000c0: 84e2 fd3d 8010 e83a 0072 9a3d b4fd c43d
000000d0: fc38 703d d0e9 2fbc c04f f3bb 482e 08bd
000000e0: 5830 e03d 2841 8e3c 781d fabd eca4 1d3d
000000f0: dcc7 18bd 2086 c5bb 9edc a4bd 98bc 8c3d
00000100: 1cdd eb3d 70db f63c 60fb 92bc 98f0 c43d
00000110: e087 773d 10f0 373c 0036 623b 302a 1abd
00000120: 90de 473d 38d2 a13c 28f5 e8bc 3aca ecbd
00000130: 5a22 b5bd e8fd 76bd b870 913d de54 d73d
00000140: 8c8c 01bd 40b6 35bd 0058 f7b9 c099 fdbb
00000150: d429 113d 7adc a8bd fc89 b83d d0a4 163c
00000160: 16e8 bbbd 24d3 fd3d dcf4 b6bd 4ca9 02bd
00000170: 00b7 043a 341a fb3d c032 bdbb 40e2 43bd
00000180: c067 d1bd 48d4 80bc 981b bb3d f06c 5e3d
00000190: 588d 81bc da82 e7bd 3eb3 e1bd 664d d3bd
000001a0: 707d f53d 2c96 08bd ec47 5b3d 80fc c43c
000001b0: 70c5 c23c 90b4 db3d ce90 95bd 3403 e1bd
000001c0: 1e4d f9bd 60eb 1abd fc97 123d 40f2 fbbb
000001d0: b02e 27bd 8e0a b53d c4ef f6bd 6052 9d3c
000001e0: c028 18bb 8058 063c 00d3 beba 0649 823d
000001f0: 3818 01bd 2c86 77bd 6a5b ebbd bafc e7bd
00000200: 8800 e8bd 7ab2 c4bd 0ed1 b83d e25b ab3d
00000210: 249a 66bd 7293 c43d 3e18 cfbd 30c0 4d3d
00000220: e291 cbbd 4497 813d c82a b73d d0c1 b43c
00000230: c05a 163c 9405 3c3d 948d c43d d08c 33bd
00000240: 14ca 143d a8a4 47bd 0cea 863d f874 7ebd
00000250: 762c b8bd bc64 94bd 9cfd 59bd d0d5 613c
00000260: f0d2 173d 8018 ca3d 6a75 883d 9071 94bd
00000270: 4aae f63d a85e 74bd 6666 a53d 6c9e c43d
00000280: be5b 90bd 04e1 3d3d 2400 bb3d 9835 c53d
00000290: 9099 4ebd 3a21 8e3d 6059 843c 786e 42bd
000002a0: 10dc f8bc 04d0 93bd 50f7 8e3c f40c 50bd
000002b0: 3028 a6bd 9457 6c3d a8ca 973d 5e9f 9a3d
000002c0: fa2f e4bd e881 783d ac9a 8fbd 7299 a43d
000002d0: b83c 783d aeb3 d3bd ee49 dabd e63a b33d
000002e0: e20f c13d d051 d93d 324f cd3d 5093 2b3d
000002f0: 2014 40bc c845 c63d 661f 8ebd 18b7 6fbd
00000300: f0cd 0bbd 00a0 e6b9 740a 383d 10cc db3c
00000310: f46f 1a3d 402b f33d 76fd 9e3d 1cf6 ccbd
00000320: 2cd6 3b3d d881 cebd c067 0d3d 7685 bfbd
00000330: b4c8 b2bd 2638 ffbd ae20 c1bd 447a 82bd
00000340: 203f 14bc ae77 dfbd e4a1 cb3d f6b5 cdbd
00000350: 9c9b 1bbd 0c77 343d 6846 e63c 4876 743d
00000360: 00ec 523c 808e e93c 9099 96bc d008 e4bc
00000370: 4ae5 a2bd 3866 e3bc 90e9 18bd f4cc 5bbd
00000380: b000 3c3d 26ef 88bd 780b bebd 4005 b2bd
00000390: 10da 72bc 741d a23d b449 033d 7aa3 aa3d
000003a0: 30c9 01bd 004d 663c f026 b23d f067 a03c
000003b0: 1617 cabd 3830 a2bc 5431 aa3d 00ac f23c
000003c0: 86c0 be3d 00a4 fb3b 0055 623b 7202 f1bd
000003d0: c897 283d e205 afbd d40b 12bd 0038 f8ba
000003e0: b05c 093d 084a c8bc 7404 16bd 143e 053d
000003f0: a03f 713c 80e5 e23c e0d4 f8bc 2012 ef3c

lstm_cells.0.W_in.bias f4 [64]
-0.026637971 -0.0013116151 0.0681324 0.049208194 0.021802053 0.0127364695 0.11735682 -0.031579047
0.056977645 0.06987885 -0.06489903 -0.0314209 -0.021246195 0.08606 -0.10526322 -0.047528297
-0.10013044 -0.026083916 -0.027201533 -0.07298322 -0.081908 -0.03147517 0.0009187311 -0.028586
0.11564925 -0.07285234 0.08482134 -0.013527691 0.04035808 -0.078101665 0.08961822 -0.005589351
0.0025334358 -0.033345178 0.11287835 -0.11286141 -0.036188886 -0.08723505 0.0822047 0.036201894
-0.05450912 -0.053293318 0.014816612 -0.009459153 0.095492095 0.032170936 -0.02848214 -0.11984432
-0.08760536 -0.04185389 0.07259029 -0.039371103 0.040166885 0.086624295 -0.0509502 0.11967839
-0.10826078 -0.019765645 -0.1016707 0.0043271035 -0.08152515 -0.09840354 0.06122519 0.0109232515
00000000: e037 dabc 80ea abba 0089 8b3d 888e 493d
00000010: 389a b23c a0ac 503c c658 f03d 0859 01bd
00000020: 6461 693d a41c 8f3d c8e9 84bd 34b3 00bd
00000030: 800c aebc 3a40 b03d 3e94 d7bd 08ad 42bd
00000040: 3011 cdbd f0ad d5bc c0d5 debc 3a78 95bd
00000050: 62bf a7bd 1cec 00bd 00d7 703a 302d eabc
00000060: 84d9 ec3d 9c33 95bd d0b6 ad3d 40a3 5dbc
00000070: 844e 253d c4f3 9fbd c289 b73d e026 b7bb
00000080: 0008 263b f494 08bd c42c e73d e223 e7bd
00000090: cc3a 14bd 4aa8 b2bd f05a a83d 7048 143d
000000a0: f444 5fbd 184a 5abd 60c1 723c 90fa 1abc
000000b0: 5c91 c33d acc5 033d 6053 e9bc f070 f5bd
000000c0: 706a b3bd fc6e 2bbd 38aa 943d 9843 21bd
000000d0: 0886 243d 1468 b13d 28b1 50bd f219 f53d
000000e0: d4b7 ddbd 90eb a1bc ba38 d0bd 60ca 8d3b
000000f0: a8f6 a6bd cc87 c9bd 44c7 7a3d 70f7 323c

W_h.weight f4 [64, 64]
-0.03937991 0.06054419 -0.016748838 -0.08185586 -0.08223014 -0.10144812 -0.017687645 0.041078124
0.0077588996 -0.07345744 -0.10674737 0.041016586 0.080879666 -0.119510286 -0.11999481 0.037402593
0.060079772 0.099721804 0.039150037 -0.10528879 0.037727322 -0.033380162 -0.09460469 0.13335422
-0.024023928 0.006477216 -0.06480438 -0.08814904 0.043702036 0.06680668 0.00036194568 0.055566836
-0.06154949 -0.07293582 -0.034798935 0.070766784 -0.10799267 0.04152749 0.02807885 -0.026454533
-0.07030939 -0.051149577 -0.0039217104 -0.12322843 -0.07045788 0.10071566 0.052537676 -0.05787434
0.11440143 0.13324681 0.017155742 -0.022854451 0.040336207 0.13341048 -0.10444593 -0.019945882
0.042537574 -0.021984953 -0.014628639 -0.035092767 0.087740384 0.07717032 0.07051608 0.07330182
0.1310798 -0.06136461 0.006265471 -0.1021411 0.06872126 -0.09674922 -0.10510898 -0.033555433
-0.09130462 -0.005353661 -0.05760067 0.073323116 -0.033044264 0.0692267 0.065825984 -0.094604574
0.0004761818 0.033128947 0.075365774 0.11308124 -0.067740716 0.071137324 -0.07767693 -0.10047379
0.009139621 0.10467033 0.029423341 0.08712767 -0.1173342 0.03457037 -0.062121473 -0.1083773
-0.069559984 -0.050991677 0.002419465 0.056442574 0.0069690626 -0.035985842 -0.027847776 -0.08166026
-0.09423632 -0.1186059 -0.005936297 0.081791796 -0.029666126 0.018407477 0.112592585 -0.071105875
0.006992413 0.011440041 -0.0792599 -0.023850879 -0.005866187 -0.12486677 0.07414101 0.063268125
0.09280956 0.008432018 -0.113798454 0.02993835 -0.01143948 -0.09589105 0.053193007 -0.086151585
-0.10281898 -0.02432381 0.11769947 -0.09764091 0.0869731 0.090001985 -0.032135896 -0.07780749
0.0801526 0.04685985 0.13278475 -0.12539245 -0.0013966117 -0.1139994 0.08369814 0.08356191
0.09780163 -0.12086954 -0.10418649 0.07931862 -0.09530078 0.040556516 0.005998046 0.0654837
-0.12323075 -0.1030289 0.0013922782 0.055925988 0.091595486 -0.103788204 0.021381902 0.12189408
-0.11098686 -0.069977514 0.107496955 0.09611727 -0.09337124 0.054532122 0.05444848 -0.08044182
-0.07587623 -0.013930535 -0.06917913 0.083741926 -0.12514031 0.06604188 -0.12719251 -0.023807999
0.05293499 -0.11265648 0.0959661 0.122235164 0.037192687 0.042224534 0.12270616 0.0013685009
-0.03976745 0.048752345 -0.09418564 0.02339423 -0.11573817 -0.11640131 -0.0768266 0.12805033
-0.044932626 -0.10901339 -0.048192322 -0.084837645 0.077953115 -0.07803976 -0.1222509 -0.104591675
-0.054487508 0.05425953 -0.09642356 0.056941222 -0.014362214 0.010063756 -0.06408519 0.0074243215
0.0040046894 0.10747261 -0.02070324 0.094905175 0.025833718 -0.0803701 0.12607838 -0.112826355
0.10260671 0.09595352 0.05096441 0.018877085 -0.11543097 -0.062624335 0.020979483 0.0476068
-0.057789598 -0.11364086 0.05590704 -0.03858887 0.11515408 0.12247442 -0.06423056 -0.006349052
-0.007813467 -0.088544466 -0.08281156 0.04148579 0.07372431 -0.040135965 0.12062658 0.012343304
-0.085833095 -0.025806561 0.08889644 0.045157 0.054747734 -0.028048117 0.0025852039 0.094535254
-0.05770427 0.10055369 -0.04053926 0.05543606 0.02183166 0.027350126 -0.110093415 -0.10485426
00000000: d44c 21bd 2ffd 773d dc34 89bc 0ca4 a7bd
00000010: 4768 a8bd 08c4 cfbd aee5 90bc 8941 283d
00000020: 5e3e fe3b db70 96bd 5d9e dabd 0201 283d
00000030: 3da4 a53d cfc1 f4bd d7bf f5bd 7633 193d
00000040: 3516 763d f23a cc3d ca5b 203d a6a1 d7bd
00000050: f787 1a3d a3b9 08bd 1bc0 c1bd 028e 083e
00000060: d4cd c4bc d33e d43b 29b8 84bd 7c87 b4bd
00000070: e800 333d f1d1 883d 87c3 bd39 0d9a 633d
00000080: 511b 7cbd 605f 95bd 5489 0ebd 2dee 903d
00000090: 432b ddbd bb18 2a3d 9e05 e63c 2db7 d8bc
000000a0: 5ffe 8fbd 3882 51bd b181 80bb 305f fcbd
000000b0: 394c 90bd 0344 ce3d bf31 573d a50d 6dbd
000000c0: 4c4b ea3d da71 083e 338a 8c3c 4239 bbbc
000000d0: 9437 253d c29c 083e bfe7 d5bd 8c65 a3bc
000000e0: e13b 2e3d ca19 b4bc f6ac 6fbc 6fbd 0fbd
000000f0: 3bb1 b33d 790b 9e3d bc6a 903d 441f 963d
00000100: c839 063e 7559 7bbd 954e cd3b 5a2f d1bd
00000110: bbbd 8c3d 7424 c6bd 6043 d7bd 6c71 09bd
00000120: ebfd babd c36d afbb aeee 6bbd 6e2a 963d
00000130: 6c59 07bd bac6 8d3d c6cf 863d 0bc0 c1bd
00000140: 0aa8 f939 38b2 073d 5f59 9a3d 2397 e73d
00000150: a5bb 8abd 72b0 913d 1515 9fbd 34c5 cdbd
00000160: 59be 153c 665d d63d 3809 f13c fe6f b23d
00000170: ea4c f0bd a999 0d3d 1673 7ebd ebf4 ddbd
00000180: 7775 8ebd a6dc 50bd e38f 1e3b 5430 673d
00000190: bc5c e43b e465 13bd 0521 e4bc 7f3d a7bd
000001a0: f9fe c0bd a6e7 f2bd 4585 c2bb 7582 a73d
000001b0: 6006 f3bc 47cb 963c f196 e63d f59f 91bd
000001c0: 9d20 e53b 026f 3b3c 0453 a2bd eb62 c3bc
000001d0: 2539 c0bb 26ba ffbd 3ed7 973d b892 813d
000001e0: f012 be3d 7226 0a3c 2a0f e9bd 4541 f53c
000001f0: a86c 3bbc 8762 c4bd e9e0 593d 3e70 b0bd
00000200: c292 d2bd ba42 c7bc 6b0c f13d f5f7 c7bd
00000210: f41e b23d f652 b83d eea0 03bd 8959 9fbd
00000220: 0c27 a43d 1df0 3f3d baf8 073e e166 00be
00000230: 830e b7ba 8478 e9bd ee69 ab3d 8222 ab3d
00000240: 394c c83d 738a f7bd ba5f d5bd cd71 a23d
00000250: 0e2d c3bd 971e 263d 428b c43b 511c 863d
00000260: 6760 fcbd d100 d3bd 1b7d b63a a612 653d
00000270: 6a96 bb3d e98e d4bd 1929 af3c 9aa3 f93d
00000280: 144d e3bd 5f50 8fbd 5d27 dc3d 22d9 c43d
00000290: 6c39 bfbd 135d 5f3d 5f05 5f3d aebe a4bd
000002a0: ff64 9bbd e63c 64bc caad 8dbd e380 ab3d
000002b0: c824 00be f740 873d c13e 02be fe08 c3bc
000002c0: 5cd2 583d 71b8 e6bd e089 c43d 6e56 fa3d
000002d0: 5c57 183d a2f3 2c3d 5e4d fb3d 455f b33a
000002e0: 32e3 22bd 8ab0 473d 67e4 c0bd 42a5 bf3c
000002f0: 2208 edbd cf63 eebd 4457 9dbd a01f 033e
00000300: 460b 38bd 6a42 dfbd 5065 45bd 5cbf adbd
00000310: e2a5 9f3d 4fd3 9fbd ae5e fabd 2934 d6bd
00000320: 4b2e 5fbd 3e3f 5e3d b779 c5bd 333b 693d
00000330: 7e4f 6bbc 74e2 243c 193f 83bd b947 f33b
00000340: c539 833b 9a1a dc3d d799 a9bc a55d c23d
00000350: 3ca1 d33c 1499 a4bd b11a 013e 8111 e7bd
00000360: 7723 d23d 4783 c43d 0fc0 503d 1ea4 9a3c
00000370: 1367 ecbd 3041 80bd 2add ab3c 59ff 423d
00000380: c9b4 6cbd 8abc e8bd c8fe 643d 5d0f 1ebd
00000390: e7d5 eb3d ded3 fa3d 508b 83bd b50b d0bb
000003a0: 0e04 00bc cd56 b5bd 1b99 a9bd 01ed 293d
000003b0: c5fc 963d 9c65 24bd 120b f73d 923b 4a3c
000003c0: 43c9 afbd 4868 d3bc 560f b63d 8cf6 383d
000003d0: 293f 603d 2ac5 e5bc 866c 293b b39b c13d
000003e0: 505b 6cbd 18ef cd3d 7f0c 26bd ec10 633d
000003f0: 4fd8 b23c 5f0d e03c a878 e1bd d5bd d6bd

W_h.bias f4 [64]
-0.054891087 -0.032229923 -0.08412298 0.12611283 0.013570281 0.011737848 -0.0937577 -0.012289861
-0.12705526 0.017347801 0.007334566 -0.09407396 0.09007317 -0.080957524 0.039480627 0.12691265
0.0730194 -0.062270526 -0.075992644 0.100308105 -0.017244624 -0.055722117 -0.016140249 0.02732562
-0.017502585 -0.08596214 -0.013413418 -0.0122858 0.027543748 -0.118515484 -0.043439645 0.07605242
0.10859466 0.013389046 0.009691767 0.12180335 5.2824457e-06 0.02608048 -0.10248047 0.07429954
-0.09290828 0.124909274 -0.095519565 -0.08610302 -0.111316025 -0.07634554 -0.025570463 -0.112867706
-0.10548144 0.10038004 -0.051264595 0.11298768 0.020864744 -0.014141818 0.0060534636 0.007907359
-0.013942323 -0.021907907 0.03228931 -0.027779052 -0.07986162 0.078076296 0.048727315 0.014178196
00000000: 7ad5 60bd 8603 04bd ab48 acbd b923 013e
00000010: e255 5e3c 1a50 403c 0904 c0bd 6a5b 49bc
00000020: c61a 02be fa1c 8e3c cd56 f03b d9a9 c0bd
00000030: 4878 b83d 0fcd a5bd 70b6 213d 64f5 013e
00000040: 328b 953d 610f 7fbd 08a2 9bbd 566e cd3d
00000050: 9944 8dbc e03c 64bd 8e38 84bc fbd9 df3c
00000060: 9561 8fbc eb0c b0bd f4c3 5bbc 614a 49bc
00000070: 6da3 e13c 3fb8 f2bd c5ed 31bd 5fc1 9b3d
00000080: e166 de3d bb5d 5b3c 38ca 1e3c 0974 f93d
00000090: dd3f b136 bba6 d53c 48e1 d1bd 5b2a 983d
000000a0: b246 bebd 6fd0 ff3d c39f c3bd c856 b0bd
000000b0: a8f9 e3bd 0d5b 9cbd 2679 d1bc 2f27 e7bd
000000c0: a706 d8bd 0d94 cd3d d3fa 51bd 1666 e73d
000000d0: 8aec aa3c 15b3 67bc 225c c63b de8d 013c
000000e0: 576e 64bc 3678 b3bc cc41 043d e590 e3bc
000000f0: 7d8e a3bd 77e6 9f3d 4b96 473d aa4b 683c

W_g.weight f4 [64, 64]
0.019774882 0.058418345 -0.08323043 -0.0026339116 -0.006833792 -0.006653651 0.005709307 0.092049725
-0.011187656 -0.027420567 -0.030394198 -0.08745078 -0.081475504 0.103897594 0.008306596 0.114783086
-0.0092826765 -0.07134826 0.01988384 -0.013681723 -0.030831622 -0.04102454 -0.04851896 -0.057936776
0.06530415 0.07704421 0.08053928 -0.098219894 -0.08001856 0.034536954 0.058425095 -0.09651514
0.11715806 0.078579046 -0.10978796 0.110470645 0.074021526 0.118969284 0.06938856 -0.04200806
0.119132124 -0.09270043 0.093354546 0.11186313 -0.0859435 -0.048220936 0.09675496 0.11077999
-0.07396022 -0.110888086 0.009980338 -0.020088883 -0.043077145 0.101780675 -0.07897756 -0.10862581
0.008653035 0.044004615 -0.09960354 0.004457967 -0.059839506 0.062979884 0.042121243 0.076368906
0.01232557 0.0035328087 0.044165935 0.09612715 0.10147573 0.08100954 0.098959 -0.050770912
0.056235995 0.0641489 0.068845145 0.106536716 0.0065153507 0.099584386 -0.08976826 -0.026781911
0.077396765 -0.05330989 -0.089111894 0.115377516 -0.06376748 0.020071404 -0.003930326 0.09045327
-0.09758866 0.025162421 -0.052975867 -0.03768565 -0.035791446 0.09134057 -0.08548401 -0.1121701
-0.0484338 -0.051002894 -0.0053033778 -0.025706105 -0.04485481 -0.06273416 0.009880692 0.09823847
0.070272796 -0.03205665 -0.08664848 -0.006332599 0.098907754 0.016296698 0.1212666 -0.05141795
-0.08507615 0.017537557 -0.010302804 0.09227535 0.03892638 -0.03166357 -0.11520575 -0.009617173
-0.0683925 0.011701032 0.093578905 0.055911895 0.0499085 0.035606235 0.015035521 0.01721485
-0.01577282 -0.009908147 -0.040062632 0.053398583 -0.044896197 0.11527999 0.03746595 0.012647234
-0.115679234 -0.086381435 0.053443242 -0.08748649 -0.05153763 -0.060299277 -0.06477827 -0.041767877
-0.12052907 -0.11619747 0.10380748 -0.065652385 -0.061819244 -0.05948784 -0.07705702 0.08700372
0.032165 -0.02901259 0.06701055 0.12329706 -0.026202608 -0.036552932 -0.09075129 0.08311601
0.089137465 -0.11317794 -0.076279774 0.031329054 0.058802236 -0.01309786 -0.10983844 -0.11591987
-0.001304614 -0.021488208 -0.007471063 0.086512715 0.062226508 0.05645213 0.08640297 0.0024741278
0.06991191 0.047868166 -0.042844754 0.094350666 0.11301729 -0.06351133 0.083991975 0.016350962
0.04193786 -0.121848345 0.12006466 -0.012704171 0.039021734 -0.08972575 -0.090642735 -0.033934247
-0.1064412 0.066218 0.084620684 0.0817879 -0.1168672 -0.011286277 -0.046977453 0.09268138
-0.06194503 0.054504536 0.023193862 -0.0054924106 -0.016768834 -0.028646918 -0.048919104 0.055524565
-0.044542663 -0.019280989 -0.010524813 -0.08165747 0.12302612 -0.09046386 0.07941154 0.04268775
0.10332289 -0.08226547 0.0053393943 0.049597703 -0.012383688 0.10803254 0.075592905 -0.106516734
0.120049015 0.013958525 -0.118055254 -0.00027138833 0.016260559 0.08672482 -0.068168506 -0.10470025
-0.016630908 0.035151474 0.016746467 -0.058279417 -0.10323626 0.033028305 -0.016757434 -0.042304777
0.018573772 0.10412194 0.039868288 0.028206896 -0.029781558 -0.0783076 -0.020936105 -0.08963561
-0.00779841 -0.033752225 0.044847883 -0.12237629 -0.10285629 -0.10520975 0.0025995884 0.068169996
00000000: effe a13c 1348 6f3d b774 aabd b49d 2cbb
00000010: 01ee dfbb df06 dabb 2315 bb3b 9184 bc3d
00000020: 6e4c 37bc 19a1 e0bc 41fd f8bc 6519 b3bd
00000030: a1dc a6bd 43c8 d43d 6418 083c 6513 eb3d
00000040: 5e16 18bc 091f 92bd 6fe3 a23c 4e29 60bc
00000050: 9992 fcbc 5909 28bd d1bb 46bd 1d4f 6dbd
00000060: 2fbe 853d 5bc9 9d3d c7f1 a43d 8327 c9bd
00000070: c5e0 a3bd 9f76 0d3d 274f 6f3d bba9 c5bd
00000080: 91f0 ef3d 0dee a03d 83d8 e0bd 6f3e e23d
00000090: 9998 973d 2ba6 f33d 971b 8e3d a510 2cbd
000000a0: 8bfb f33d b9d9 bdbd ab30 bf3d 7f18 e53d
000000b0: 2503 b0bd 5183 45bd 7727 c63d 9fe0 e23d
000000c0: 7578 97bd 4b19 e3bd 9284 233c 7191 a4bc
000000d0: a971 30bd 6372 d03d fdbe a1bd 3577 debd
000000e0: 76c5 0d3c 2f3e 343d f1fc cbbd 2314 923b
000000f0: 451a 75bd 99fb 803d 5387 2c3d 4d67 9c3d
00000100: 30f1 493c b286 673b 57e7 343d 50de c43d
00000110: 82d2 cf3d 54e8 a53d 04ab ca3d 29f5 4fbd
00000120: b757 663d 8060 833d affe 8c3d ec2f da3d
00000130: b97e d53b e6f2 cb3d 6cd8 b7bd bd65 dbbc
00000140: 3282 9e3d 795b 5abd 4c80 b6bd 0c4b ec3d
00000150: 8698 82bd c96c a43c f7c9 80bb 903f b93d
00000160: 90dc c7bd 6c21 ce3c 39fd 58bd 455c 1abd
00000170: 0d9a 12bd c410 bb3d 3e12 afbd 70b9 e5bd
00000180: 8562 46bd 69e8 50bd f5c7 adbb 9c95 d2bc
00000190: adb9 37bd c47a 80bd a0e2 213c 4031 c93d
000001a0: 2feb 8f3d d54d 03bd c274 b1bd b181 cfbb
000001b0: 2690 ca3d a780 853c a05a f83d a19b 52bd
000001c0: 683c aebd ecaa 8f3c 18cd 28bc dcfa bc3d
000001d0: 4571 1f3d a9b1 01bd fef0 ebbd 5991 1dbc
000001e0: 5e11 8cbd afb5 3f3c 4ca6 bf3d df03 653d
000001f0: db6c 4c3d d8d7 113d 8c57 763c 2806 8d3c
00000200: 0036 81bc c855 22bc b718 24bd 79b8 5a3d
00000210: 13e5 37bd ea17 ec3d e575 193d 5836 4f3c
00000220: 3ce9 ecbd c0e8 b0bd 4de7 5a3d 1e2c b3bd
00000230: 1f19 53bd 60fc 76bd 78aa 84bd cb14 2bbd
00000240: f2d7 f6bd f0f8 edbd 0499 d43d c274 86bd
00000250: 2d36 7dbd 85a9 73bd 12d0 9dbd 022f b23d
00000260: 72bf 033d d0ab edbc d43c 893d 2b83 fc3d
00000270: daa6 d6bc 87b8 15bd d0db b9bd ba38 aa3d
00000280: b48d b63d d6c9 e7bd 9238 9cbd e552 003d
00000290: 9dda 703d 6898 56bc faf2 e0bd 6667 edbd
000002a0: 95ff aaba 0a08 b0bc d2cf f4bb 942d b13d
000002b0: 39e1 7e3d 593a 673d 0af4 b03d fa24 223b
000002c0: fa2d 8f3d 6911 443d fb7d 2fbd ec3a c13d
000002d0: 9c75 e73d 3a12 82bd fc03 ac3d 74f2 853c
000002e0: 09c7 2b3d a08b f9bd 76e4 f53d 2825 50bc
000002f0: 41d5 1f3d 22c2 b7bd e6a2 b9bd a3fe 0abd
00000300: d8fd d9bd 4e9d 873d 9c4d ad3d 6a80 a73d
00000310: 1258 efbd 14ea 38bc 6e6b 40bd bccf bd3d
00000320: 12ba 7dbd 2640 5f3d 0e01 be3c aef9 b3bb
00000330: cb5e 89bc f1ac eabc 665f 48bd ba6d 633d
00000340: 5e72 36bd 2af3 9dbc 4470 2cbc 083c a7bd
00000350: 1ef5 fb3d 1e45 b9bd 84a2 a23d 5ad9 2e3d
00000360: f49a d33d cc7a a8bd 16f6 ae3b f626 4b3d
00000370: f4e4 4abc 2a40 dd3d 74d0 9a3d 7225 dabd
00000380: 42dc f53d 4cb2 643c f4c6 f1bd 2049 8eb9
00000390: dd34 853c c89c b13d ee9b 8bbd 166d d6bd
000003a0: 8b3d 88bc fefa 0f3d e32f 893c 66b6 6ebd
000003b0: 886d d3bd b048 073d e346 89bc c647 2dbd
000003c0: 0628 983c e23d d53d ee4c 233d 2612 e73c
000003d0: 74f8 f3bc bc5f a0bd 3282 abbc e092 b7bd
000003e0: ce89 ffbb c63f 0abd 6ab2 373d 6ca0 fabd
000003f0: 52a6 d2bd 3678 d7bd db5d 2a3b b69c 8b3d

W_g.bias f4 [64]
0.07564619 -0.06109885 -0.042167336 0.068618 -0.016254898 0.036369517 -0.025853192 0.11795493
0.043853395 -0.023833137 0.07576338 -0.016312748 -0.016055223 -0.0728341 -0.02425344 -0.043480903
0.11187701 0.0768899 -0.020221401 0.11682935 0.06297773 0.08962858 0.11503885 -0.060637794
0.017216446 -0.004199848 0.00513189 0.024850529 -0.06967315 0.062470976 -0.10745036 0.08067214
0.025725298 -0.009301935 0.08229039 0.040253896 -0.07766925 -0.110538304 -0.02302014 -0.07914031
-0.089128524 -0.08037547 0.09302821 -0.08833568 -0.09770922 0.050630413 0.06502909 -0.04432904
0.08681343 -0.09808039 -0.112466276 -0.10112244 0.04655848 -0.07214483 0.10874927 0.038798563
-0.020443914 -0.043656517 -0.0064514247 -0.082119286 -0.046920378 -0.050496195 0.08924493 -0.076341055
00000000: 64ec 9a3d ca42 7abd a8b7 2cbd 9887 8c3d
00000010: fe28 85bc 34f8 143d 13ca d3bc 5b92 f13d
00000020: 9e9f 333d b63d c3bc d529 9b3d 50a2 85bc
00000030: 3e86 83bc 0b2a 95bd 26af c6bc 0819 32bd
00000040: c61f e53d 7478 9d3d 5aa7 a5bc 3a44 ef3d
00000050: 78fa 803d 308f b73d 7d99 eb3d 565f 78bd
00000060: 8109 8d3c e19e 89bb 6a29 a83b 5693 cb3c
00000070: ccb0 8ebd 91e1 7f3d ef0e dcbd 6f37 a53d
00000080: dcbd d23c 2567 18bc dd87 a83d 45e1 243d
00000090: 0e11 9fbd e861 e2bd bc94 bcbc 5114 a2bd
000000a0: 0489 b6bd e59b a4bd 9385 be3d 56e9 b4bd
000000b0: c61b c8bd d661 4f3d f92d 853d 5e92 35bd
000000c0: 3dcb b13d 5fde c8bd b854 e6bd 4819 cfbd
000000d0: 1bb4 3e3d abc0 93bd f0b7 de3d 3eeb 1e3d
000000e0: ff79 a7bc 2dd1 32bd 7966 d3bb 282e a8bd
000000f0: 952f 40bd 19d5 4ebd 0cc6 b63d b358 9cbd

W_x.weight f4 [64, 1]
-1.0132711 -0.83629197 -0.8864789 -0.45770958 0.19787794 -0.6341767 0.34692228 -0.20844147
-0.4244013 -0.79439235 -0.8116681 -0.6491198 0.8474731 -0.24605088 0.9430723 0.9583931
0.862523 0.15751074 -0.87554 -0.7066794 0.74999636 -0.21799326 0.35463122 0.1517816
-0.97759795 0.80082816 0.36402303 -0.87192255 0.009535537 -0.12283726 -0.9177144 -0.29862872
-0.5266933 -0.76725227 0.6600223 0.00959156 0.9550205 0.14216352 0.374831 0.69886076
-0.9630095 0.20263141 -0.78919566 -0.6086598 0.5024717 -0.60159403 0.4962991 -0.59324384
-0.30056342 0.25187227 0.55090326 0.68285906 -0.60251653 0.27089775 -0.25169995 0.007894066
0.84037834 0.9226859 -0.039900616 0.10499342 0.37655127 -0.2542913 0.44018638 0.3289265
00000000: deb2 81bf 3b17 56bf 48f0 62bf e958 eabe
00000010: 84a0 4a3e 6759 22bf cc9f b13e ae71 55be
00000020: 214b d9be 4c5d 4bbf 7bc9 4fbf b72c 26bf
00000030: fff3 583f c3f4 7bbe 306d 713f 4059 753f
00000040: 4fce 5c3f 7f4a 213e 6423 60bf f1e8 34bf
00000050: c3ff 3f3f a039 5fbe 3992 b53e a36c 1b3e
00000060: dc43 7abf 1303 4d3f 3a61 ba3e 5136 5fbf
00000070: f13a 1c3c 1a92 fbbd 55ef 6abf dde5 98be
00000080: 5fd5 06bf a56a 44bf 39f7 283f eb25 1d3c
00000090: 397c 743f 5093 113e d9e9 bf3e 8ae8 323f
000000a0: ca87 76bf 9c7e 4f3e ba08 4abf 21d1 1bbf
000000b0: fca1 003f 1102 1abf ea1a fe3e d4de 17bf
000000c0: 73e3 99be 67f5 803e ff07 0d3f dacf 2e3f
000000d0: 863e 1abf 1cb3 8a3e d1de 80be 1d56 013c
000000e0: 0923 573f 2535 6c3f d46e 23bd ca06 d73d
000000f0: 54cb c03e 7832 82be 1c60 e13e 0e69 a83e

W_x.bias f4 [64]
-0.45031586 -0.5134425 -0.2085606 -0.4597633 -0.4566898 0.589346 -0.6398597 0.39263242
0.4203936 -0.78544074 -0.9528381 0.6165267 -0.047719106 -0.8433392 0.75428236 -0.9531095
0.444218 -0.6560812 -0.747956 -0.5438074 0.63232464 -0.83669233 -0.834813 -0.8085382
-0.91317195 0.24535485 -0.24406205 -0.8006666 -0.34793118 0.7163975 -0.9504693 0.55210966
0.76785994 -0.3789989 0.6413529 -0.60581386 0.8405662 -0.9711962 0.68711483 -0.3221321
0.9196432 -0.9766184 -0.4593925 0.84319896 0.3159387 -0.5381439 -0.21069029 0.9856349
-0.2785362 -0.23588744 0.98056245 -0.6268394 0.03716558 0.1322999 0.8882487 0.52759165
0.601156 0.008021771 0.5177952 0.11158873 -0.73277396 -0.55932635 -0.34930655 0.357955
00000000: cd8f e6be f870 03bf e990 55be 1866 ebbe
00000010: 3fd3 e9be 61df 163f d8cd 23bf 1e07 c93e
00000020: d43d d73e a512 49bf 33ed 73bf b2d4 1d3f
00000030: 1c75 43bd 14e5 57bf a618 413f fcfe 73bf
00000040: 8b70 e33e f0f4 27bf 0b7a 3fbf f636 0bbf
00000050: 07e0 213f 7831 56bf 4eb6 55bf 5cfc 4ebf
00000060: a3c5 69bf 4d3e 7b3e 67eb 79be 7cf8 4cbf
00000070: 0924 b2be d465 373f f551 73bf 0f57 0d3f
00000080: 7892 443f 250c c2be b42f 243f 9e16 1bbf
00000090: 592f 573f 50a0 78bf c2e6 2f3f 80ee a4be
000000a0: bd6d 6b3f aa03 7abf 7e35 ebbe e3db 573f
000000b0: b8c2 a13e ccc3 09bf 32bf 57be 9252 7c3f
000000c0: 4c9c 8ebe 7a8c 71be 2406 7b3f 8c78 20bf
000000d0: ef3a 183d a079 073e 4464 633f 3f10 073f
000000e0: 5ce5 193f bf6d 033c 3a8e 043f a288 e43d
000000f0: 1397 3bbf 0330 0fbf 4fd8 b2be e145 b73e

W_1d.weight f4 [1, 64]
-0.11377846 -0.004188519 0.071057394 -0.08123937 -0.012092996 0.103239544 0.09506908 -0.040888138
-0.012896365 0.0687154 0.026982287 -0.06854157 -0.004783256 -0.018723289 -0.022424955 -0.09527391
-0.02315425 -0.056881994 0.05499826 0.032727234 -0.06773786 -0.07104544 -0.0134019265 -0.091651976
-0.07429406 -0.046273958 0.025468873 -0.12101471 -0.009311885 -0.00620902 0.015795667 0.0012053513
-0.0033694678 -0.0031996279 -0.05711313 -0.05662049 0.065257184 0.10834671 -0.028482862 0.052411996
-0.075767316 0.006613393 0.058535602 0.08169862 -0.079137094 0.06384438 0.04375552 0.06337693
-0.029334927 0.0637638 0.030314978 0.037180174 -0.09302069 -0.026296662 -0.10979137 -0.018610101
-0.06509084 0.0776149 -0.021610979 0.0056218226 0.068845496 0.06703292 0.0030276198 0.040259015
00000000: ae04 e9bd d83f 89bb 8a86 913d d460 a6bd
00000010: b421 46bc 416f d33d 94b3 c23d 527a 27bd
00000020: 464b 53bc a9ba 8c3d f509 dd3c 865f 8cbd
00000030: dcbc 9cbb 9561 99bc 8ab4 b7bc f81e c3bd
00000040: fbad bdbc 18fd 68bd db45 613d fe0c 063d
00000050: 26ba 8abd 4680 91bd c193 5bbc 08b4 bbbd
00000060: 7c27 98bd c389 3dbd 19a4 d03c 8fd6 f7bd
00000070: e090 18bc 0975 cbbb ea65 813c e1fc 9d3a
00000080: 4ad2 5cbb d9b0 51bb 75ef 69bd e3ea 67bd
00000090: 8fa5 853d e1e4 dd3d e454 e9bc f6ad 563d
000000a0: e52b 9bbd 29b5 d83b 07c3 6f3d 9b51 a73d
000000b0: a112 a2bd d8c0 823d fd38 333d c4cb 813d
000000c0: cd4f f0bc 9896 823d 1e57 f83c 3d4a 183d
000000d0: a281 bebd 196c d7bc 4cda e0bd 3674 98bc
000000e0: 594e 85bd 90f4 9e3d 8209 b1bc 4437 b83b
000000f0: defe 8c3d 8e48 893d 086b 463b a3e6 243d
