model_weight/best_AUSTRALIA_model.pth (torch, 73927 bytes, 14 tensors)

lstm_cells.0.b_c f4 [64]
0	0xbd444d5a	-0.04792533
1	0x3a80f6f0	0.0009839218
2	0x3da7d6a0	0.08195233
3	0xbcb01902	-0.0214963
4	0x3d83b3c6	0.064307734
5	0xbcfc9696	-0.030833524
6	0x3b4c47c9	0.0031170717
7	0x3d3d2fb1	0.04618806
8	0x3c86d845	0.016460547
9	0xbd9a6c0b	-0.07540139
10	0xbd0bc695	-0.03412493
11	0xbd1c95ad	-0.03822868
12	0x3dc8e9e8	0.09810239
13	0x3bea5b9a	0.007152033
14	0x3c861bf3	0.01637075
15	0xbd80039e	-0.0625069
16	0xbd0a8eae	-0.033827476
17	0x3d01afee	0.03166192
18	0x3bdefe96	0.0068052514
19	0x3ce0e14a	0.027451176
20	0x3cef4bf5	0.029211024
21	0x3cfa67c1	0.030567052
22	0xbcd909c1	-0.026493909
23	0xb94c7c18	-0.00019501185
24	0xbc835607	-0.016032232
25	0x3d66f802	0.056388862
26	0xbb3b640c	-0.0028593568
27	0xbd1fce11	-0.03901488
28	0x3cdc4d34	0.026892282
29	0x3d7a64fd	0.061131466
30	0x3d999673	0.07499399
31	0x3daa679d	0.08320544
32	0x3c942389	0.01808335
33	0xbc90f6b4	-0.017695762
34	0xbd39aef9	-0.045332883
35	0xbcb74dec	-0.022376023
36	0xbcddaf14	-0.027061023
37	0xbd4e9fbc	-0.050445303
38	0x3c7420e3	0.014900419
39	0xbd6a15c0	-0.05714965
40	0x3d907041	0.07052661
41	0x3d90a248	0.07062203
42	0x37de6f20	2.6516209e-05
43	0x3d3eee35	0.04661389
44	0xbd22e516	-0.039769255
45	0x3cb3cbb8	0.021947727
46	0xbd24f8e2	-0.040276416
47	0xbbb27249	-0.0054457528
48	0xbcf2c9f0	-0.029637307
49	0xbd23108e	-0.03981071
50	0x3c45e8d9	0.012079441
51	0x3cee0965	0.029057214
52	0x3c668b7c	0.014071342
53	0xbcc6cada	-0.024266649
54	0x3bd968df	0.006634816
55	0xbd996d82	-0.0749159
56	0x3c926427	0.017870022
57	0x3c537fcc	0.012908887
58	0xbd21bece	-0.039488606
59	0xbd4a2317	-0.04934987
60	0x3c9770b6	0.018486362
61	0x3bce1cc9	0.0062900526
62	0x3c27d15b	0.010242785
63	0x3cf19efd	0.029494757

lstm_cells.0.W_ic.weight f4 [64, 1]
0	0xbd8a138b	-0.06742009
1	0xbf2f5800	-0.6849365
2	0x3e886963	0.26642904
3	0x3d950fae	0.07278381
4	0x3f720459	0.94537884
5	0xbf26bab1	-0.6512862
6	0xbf226093	-0.6342861
7	0x3f6986a5	0.91221076
8	0xbf0620c0	-0.5239372
9	0xbe153bf6	-0.14573655
10	0xbea095ec	-0.3136438
11	0xbf431bcb	-0.76214284
12	0x3f4a3e65	0.79001456
13	0xbf00ce6b	-0.5031497
14	0x3f019f61	0.5063382
15	0xbc584441	-0.013199867
16	0xbf751c23	-0.9574606
17	0x3e38fa6f	0.18064283
18	0x3ea7415d	0.32667056
19	0x3f5f788c	0.87293315
20	0xbf2654bf	-0.6497306
21	0x3edf57f3	0.43621787
22	0x3e80630e	0.25075573
23	0x3ee903bf	0.4551067
24	0xbe85eef9	-0.26158884
25	0x3f62e33d	0.8862799
26	0x3f258cf5	0.6466821
27	0x3e7bda99	0.24595107
28	0x3f463683	0.7742693
29	0x3f15c011	0.58496195
30	0x3f1fce0d	0.62423784
31	0x3f22aba8	0.63543177
32	0x3f4d494e	0.8018998
33	0xbf652cf2	-0.89521706
34	0xbeda02a7	-0.4258015
35	0xbeac35a9	-0.3363469
36	0xbf0655a8	-0.5247445
37	0xbf4cb34a	-0.79961073
38	0xbe968e15	-0.29405275
39	0xbd6c15b1	-0.057637874
40	0x3ef40b87	0.47665045
41	0x3f594006	0.84863317
42	0xbf66b41b	-0.9011857
43	0x3ef36d36	0.4754426
44	0xbf4b2c6a	-0.79364645
45	0x3deb4062	0.114868894
46	0xbebefbf0	-0.37301588
47	0xbd307601	-0.043081287
48	0xbf5ede99	-0.8705841
49	0x3f17f3e8	0.59356546
50	0x3f708f50	0.9396868
51	0x3e00c906	0.12576684
52	0xbe736d1d	-0.23772092
53	0xbea0f4a2	-0.3143664
54	0x3f359f6f	0.709464
55	0xbf46243a	-0.7739903
56	0x3e1db11e	0.15399596
57	0x3e7d6c33	0.24748306
58	0xbf713bc5	-0.94231826
59	0xbf573b50	-0.8407488
60	0x3f2b12f7	0.66825813
61	0x3d9f5381	0.07779599
62	0xbead28a8	-0.3382008
63	0x3f204243	0.6260111

lstm_cells.0.W_ic.bias f4 [64]
0	0x3f03e0c0	0.51514816
1	0xbf4860ba	-0.78272593
2	0xbf2a9476	-0.66632783
3	0x3d845b71	0.064627536
4	0xbef0b85e	-0.4701566
5	0x3e8792f5	0.26479307
6	0xbf35e203	-0.7104799
7	0x3e63dc99	0.2225212
8	0xbf2c9338	-0.6741214
9	0x3f5d69f4	0.86489797
10	0x3ea8c87f	0.32965466
11	0x3ea45af0	0.3210063
12	0xbf51e8ba	-0.8199574
13	0xbf67c60f	-0.9053659
14	0x3e6c980d	0.23104878
15	0x3eac0263	0.3359557
16	0xbe893ea7	-0.26805612
17	0xbeaeba73	-0.34126624
18	0x3ea459ae	0.3209967
19	0x3f37b7b3	0.7176468
20	0xbf6bcd4a	-0.9211012
21	0xbee2ae8b	-0.4427379
22	0x3ebf6d29	0.3738797
23	0x3ea46261	0.32106307
24	0x3cf7458e	0.030184533
25	0x3d89b744	0.06724408
26	0x3f06dd40	0.5268135
27	0x3f2f4097	0.6845793
28	0xbf3c299c	-0.7350099
29	0xbf56c287	-0.83890575
30	0xbea3aac6	-0.31966227
31	0xbf3623b7	-0.71148247
32	0x3f58238c	0.8442924
33	0xbdc27b4e	-0.09496175
34	0x3d689e7d	0.05679177
35	0x3d833ac8	0.06407696
36	0x3f026c20	0.50946236
37	0x3f4117b0	0.7542677
38	0xbf0cec40	-0.5504799
39	0x3f44ab97	0.76824325
40	0xbf21ac87	-0.6315388
41	0xbf48bbd3	-0.78411597
42	0xbf7e24c8	-0.99274874
43	0xbe0c1c31	-0.13682629
44	0x3d6accf8	0.05732438
45	0xbe5b8150	-0.21436048
46	0xbe06a9d1	-0.13150717
47	0x3e95d164	0.29261315
48	0x3f05ce06	0.5226749
49	0x3f736970	0.9508276
50	0x3f141272	0.57840645
51	0xbd98230a	-0.07428558
52	0xbf233b7d	-0.63762647
53	0x3e080cfd	0.13286205
54	0x3f42419e	0.75881374
55	0x3f3cddde	0.7377604
56	0xbdb82359	-0.08991117
57	0x3d5a50c4	0.05329968
58	0x3f1155c9	0.5677152
59	0xbd1dda39	-0.03853819
60	0x3f1a7dcd	0.60348207
61	0x3e561f32	0.20910338
62	0xbf283224	-0.6570151
63	0x3e994f5e	0.29943365

lstm_cells.0.W_hc.weight f4 [64, 64]
0	0xbc3bc186	-0.011459714
1	0xbd9c0f60	-0.0762012
2	0x3dae6de2	0.08517052
3	0xbd884fc7	-0.06655841
4	0xbbfb5a12	-0.0076706493
5	0x3d1291f1	0.03578371
6	0xbcdae12f	-0.026718704
7	0xbd2cabc2	-0.04215599
8	0x3df84745	0.121229686
9	0x3db0e2ba	0.08636995
10	0x3cad32bc	0.021142356
11	0xbe0e69c9	-0.13907541
12	0x3d9dc44c	0.07703456
13	0x3b9d3962	0.0047981003
14	0x3d9ac982	0.07557966
15	0xbd35797b	-0.044305306
16	0xbe04fe7f	-0.12987708
17	0xbd087a00	-0.033319473
18	0x3d483cd3	0.04888613
19	0xbd10f1c9	-0.035386834
20	0x3d1fca96	0.03901156
21	0x3d1dff41	0.038573507
22	0xbd3b5a2f	-0.045740303
23	0xbda83215	-0.082126774
24	0xbd5d519c	-0.054032907
25	0xbd99580c	-0.07487497
26	0xbcc34c3a	-0.023840059
27	0x3dccc308	0.09998137
28	0xbd8271af	-0.0636934
29	0x3ca9877d	0.020694489
30	0x3d8b4df9	0.068019815
31	0x3d4e6a6a	0.050394453
32	0xbdab2452	-0.08356537
33	0xbc9cc529	-0.019136982
34	0xbdc0d5e8	-0.094157994
35	0x3db45338	0.08804935
36	0x3d92c283	0.071660064
37	0xbe014100	-0.12622452
38	0x3d8649b1	0.06557024
39	0x3d4318ea	0.04763118
40	0x3dca5b62	0.09880711
41	0xbd843df5	-0.0645713
42	0x3cb6f75d	0.022334749
43	0x3d32bf9e	0.04363977
44	0x3ccfdd4a	0.025374074
45	0x3dfebc8b	0.124383055
46	0x3d6fa685	0.058508415
47	0xbe0a553c	-0.13509077
48	0xbdef7a82	-0.116932884
49	0x3d3afe99	0.04565296
50	0xbbf3b21b	-0.0074370033
51	0x3caecaef	0.021337
52	0x3ddf5d4b	0.10906466
53	0x3dd115c1	0.10209227
54	0x3dadad18	0.08480281
55	0xbc17657a	-0.0092405025
56	0x3df56e31	0.11983908
57	0xbdf326e6	-0.11872654
58	0xbe1a6daf	-0.15080903
59	0xbe1f290d	-0.15543003
60	0x3e01b261	0.12665702
61	0xbdf5a938	-0.119951665
62	0xbdae9727	-0.08524924
63	0xbde39c49	-0.111137934
64	0xbdf582b8	-0.11987823
65	0x3e2476a1	0.16060878
66	0xbda03bc2	-0.07823898
67	0x3d533927	0.051568177
68	0x3d43dcbe	0.047817938
69	0x3b106662	0.002203368
70	0x3d0e6edc	0.034773692
71	0x3d41bd23	0.047299515
72	0x3d5ae01a	0.053436376
73	0xbd84ca19	-0.064838596
74	0x3afb758d	0.0019184813
75	0xbd39fe19	-0.045408342
76	0xbda19e21	-0.07891489
77	0x3d8bedb0	0.06832445
78	0xbe2bcfc0	-0.16778469
79	0x3df25f23	0.11834552
80	0xbd70c485	-0.058781166
81	0xbdd1f023	-0.102508806
82	0x3deb5de2	0.11492516
83	0x3d29489b	0.041329008
84	0x3dda311b	0.106538974
85	0x3d574373	0.05255456
86	0x3ccc2891	0.024921687
87	0x3c4ff048	0.012691565
88	0x3dd06c4a	0.101769045
89	0xbd7d977f	-0.061912056
90	0xbddda350	-0.10822165
91	0x3c48f9d0	0.012266591
92	0xbdc92a3f	-0.09822511
93	0xbd29203a	-0.0412905
94	0xbcdb4b26	-0.026769232
95	0x3da32deb	0.079677425
96	0xbdb7e366	-0.0897892
97	0x3d5941a8	0.05304113
98	0xbdc33e05	-0.09533314
99	0x3dc3a7fe	0.09553526
100	0xbd58bc4e	-0.052913956
101	0xbc9b10a0	-0.018928826
102	0xbd54fedb	-0.05200086
103	0xbdb1f1b2	-0.08688678
104	0xbdce8bfd	-0.100852944
105	0x3a5cd1c6	0.00084235927
106	0x3c1ecb7a	0.009692067
107	0xbcd4ce69	-0.02597733
108	0x3daae00a	0.08343513
109	0xbd84eb98	-0.064902484
110	0x3e05b600	0.13057709
111	0x3c63faa4	0.013914738
112	0x3ce34938	0.027744874
113	0x3d85ac6a	0.06527026
114	0xbdbed83e	-0.09318589
115	0xbd115c16	-0.03548821
116	0x3de81596	0.11332242
117	0xbd3e53a2	-0.046466477
118	0xbd4b82f5	-0.049685437
119	0x3da37e59	0.07983083
120	0x3dd91aaa	0.10600789
121	0x3dd12367	0.102118306
122	0xbde036cb	-0.10947951
123	0xbd8978f4	-0.06712523
124	0xbcd233e6	-0.025659513
125	0xbd82c0af	-0.06384408
126	0x3d933ba0	0.07189107
127	0x3d6f57c3	0.058433305
128	0xbd9dea50	-0.07710707
129	0x3d3fd0cf	0.046829995
130	0xbc9634cd	-0.018335724
131	0x3db3f2dd	0.08786557
132	0x3bd713c0	0.0065636337
133	0x3e27e46b	0.16395728
134	0x3dc37f5d	0.09545777
135	0xbc93734c	-0.017999314
136	0xbce67a7c	-0.028134577
137	0xbd2c88ce	-0.042122655
138	0xbdd267e6	-0.10273723
139	0xbd71b68b	-0.059011977
140	0xbd742df3	-0.059614133
141	0xbdad8ae8	-0.0847376
142	0xbe0c50c7	-0.13702689
143	0xbd3a78c4	-0.045525327
144	0x3db8702c	0.0900577
145	0x3dca5bea	0.098808125
146	0x3e04adc0	0.12956905
147	0x3ce43b0d	0.027860189
148	0xbdbaa9fd	-0.09114454
149	0xbdb518a9	-0.08842594
150	0xbdbcf2b9	-0.09225983
151	0x3dd4c3a4	0.10388878
152	0xbd4f51a3	-0.050614964
153	0xbdfa178c	-0.122115225
154	0x3e066e11	0.13127925
155	0xbd239679	-0.039938424
156	0xbe2b7fd7	-0.16747986
157	0x3d1c52e8	0.038165003
158	0xbdf947b5	-0.1217188
159	0x3d86a7bd	0.06574962
160	0xbe12f33f	-0.14350604
161	0x3e2984fc	0.16554636
162	0x3d0dc48c	0.03461127
163	0x3d27f2e5	0.041003127
164	0x3ce05218	0.027382895
165	0xbd1ae2ba	-0.03781388
166	0xbdeef487	-0.11667734
167	0x3d1f82fd	0.03894328
168	0xbcac825e	-0.021058258
169	0x3a7425f3	0.0009313516
170	0x3b574129	0.0032845235
171	0xbe0a3fe5	-0.13500936
172	0x3d8d565a	0.06901236
173	0xbc8147f0	-0.015781373
174	0x3d2618f5	0.040551145
175	0xbd98702a	-0.074432686
176	0x3cc8ed7e	0.024527308
177	0xbd81b35c	-0.06333038
178	0xbd232c8f	-0.039837416
179	0xbe05df5a	-0.13073483
180	0x3dcad640	0.09904146
181	0xbc1ba098	-0.009498738
182	0xbd5ba842	-0.05362726
183	0xbc915318	-0.017739818
184	0xbe0b7f97	-0.1362289
185	0xbd8d0495	-0.068856396
186	0x3dec3e35	0.115353025
187	0x3d41b6d4	0.0472935
188	0xbd9f16cb	-0.07768019
189	0x3cd6ff73	0.026244855
190	0xbdc8736f	-0.09787642
191	0x3c3ac684	0.011399869
192	0xbce0b418	-0.027429625
193	0x3e069da7	0.13146077
194	0xbc8c1962	-0.017101947
195	0x3d129f60	0.035796523
196	0x3d9c219b	0.07623597
197	0x3dae475e	0.08509706
198	0x3db5ef97	0.08883589
199	0x3cdbdab8	0.026837692
200	0xbd060c7b	-0.032726746
201	0x3c47f261	0.012203784
202	0xbcb39cc8	-0.021925345
203	0xbdff5c06	-0.12468724
204	0x3dc85a50	0.09782851
205	0xbdf282a7	-0.11841326
206	0x3d9db01a	0.07699604
207	0x3d903b12	0.07042517
208	0xbd5d2e43	-0.053999197
209	0x3d8b3a67	0.06798249
210	0x3de2e942	0.11079647
211	0x3e0a3d4d	0.13499947
212	0xba413aaa	-0.00073711073
213	0xbd478b44	-0.0487168
214	0x3d859b0e	0.06523715
215	0xbddd62f6	-0.10809891
216	0xbb73cbc1	-0.0037200304
217	0x3caedd9b	0.021345904
218	0xbdfda3d7	-0.123847656
219	0x3d735261	0.059404735
220	0xbd346e9b	-0.044050794
221	0x3c901f14	0.017592944
222	0x3db880cc	0.09008941
223	0x3d5cf5c0	0.053945303
224	0x3d93cebe	0.07217167
225	0xbb83a207	-0.004017118
226	0xbc152794	-0.009103674
227	0xbda7da7e	-0.08195971
228	0x3dd0672c	0.101759285
229	0xbd457595	-0.048207838
230	0xbd1dbafc	-0.0385084
231	0x3d1fc90e	0.0390101
232	0x3dbafb92	0.091300145
233	0xbc92fbe3	-0.017942375
234	0x3dcde813	0.1005403
235	0xbc1ba2f4	-0.0094993
236	0x3da553f4	0.080726534
237	0x3ce2f9af	0.027706949
238	0x3db47db7	0.08813041
239	0x3c8bd662	0.01707
240	0xbc8a4861	-0.016880216
241	0x3d9820da	0.07428141
242	0xbd89b8c2	-0.06724693
243	0x3d1243e3	0.035709273
244	0xbdcc9e85	-0.09991173
245	0xbd95f506	-0.07322125
246	0xbc5027a1	-0.012704761
247	0xbcfd67c3	-0.030933267
248	0xbdbb4926	-0.09144811
249	0x3d19420f	0.037416514
250	0x3d8b41b9	0.06799645
251	0xbe020ba4	-0.12699753
252	0xbdd5df80	-0.1044302
253	0xbd90be1a	-0.07067509
254	0x3dcad899	0.09904594
255	0xbddf8e96	-0.10915868

lstm_cells.0.W_hc.bias f4 [64]
0	0xbdec7d0e	-0.1154729
1	0xbd439f00	-0.047759056
2	0x3df5cbec	0.12001786
3	0x3d133a48	0.035944253
4	0xbd44586f	-0.0479359
5	0xbd353655	-0.04424127
6	0xbd91a016	-0.07110612
7	0x3dcfbe23	0.101436876
8	0xbd09e9dd	-0.033670295
9	0xbbc64e53	-0.0060518174
10	0x3d6c49f7	0.057687726
11	0xbdb6c3a8	-0.08924037
12	0x3e3e8ceb	0.18608443
13	0x3d18c6df	0.037299033
14	0x3d4dc4f2	0.05023665
15	0x3c44e679	0.01201784
16	0x3b24aa38	0.0025125872
17	0xbd170fef	-0.03688043
18	0x3e0084be	0.12550637
19	0xbdbbb1a3	-0.09164741
20	0x3be96eb2	0.0071237916
21	0xbd82cb0b	-0.063863836
22	0x3dbb684a	0.09150751
23	0x3d387905	0.04503729
24	0x3daf6a42	0.08565189
25	0x3c162bf2	0.009165751
26	0x3de464b6	0.111520216
27	0xbde12d12	-0.109949246
28	0xbd824bca	-0.06362112
29	0x3df23ae0	0.11827636
30	0x3ce736fb	0.028224459
31	0x3e0f5833	0.13998489
32	0x3c333694	0.010938305
33	0x3c21001c	0.009826686
34	0xbd3d0c4f	-0.046154317
35	0xbd030545	-0.031987447
36	0x3d0dbde1	0.03460491
37	0xbe23eb5d	-0.16007753
38	0xbde12dee	-0.109950885
39	0xbdd2f8d1	-0.10301364
40	0xbce40c1f	-0.027837811
41	0x3dd4831a	0.10376568
42	0xbd180acf	-0.037119683
43	0xbd847872	-0.064682856
44	0x3c20b973	0.00980984
45	0xbc3317f2	-0.010931002
46	0xbd22f0ca	-0.039780416
47	0x3c01f90e	0.007932914
48	0xbc562542	-0.013070406
49	0xbd78f08a	-0.06077627
50	0xbd5dacab	-0.054119747
51	0x3d87d93c	0.06633231
52	0x3b943c5f	0.0045237984
53	0xbe0dafb0	-0.1383655
54	0x3d505358	0.050860733
55	0xbe27a8a2	-0.16372922
56	0xbd9e2ec5	-0.07723764
57	0xbdb9ea25	-0.09077863
58	0xbd286173	-0.04110856
59	0xbcb6ee20	-0.022330344
60	0x3d20141a	0.03908167
61	0xbdb623db	-0.08893558
62	0x3cdf9643	0.02729333
63	0xbd093c35	-0.033504684

lstm_cells.0.W_in.weight f4 [64, 64]
0	0x3ce0cba8	0.02744086
1	0xbd6eb714	-0.058280066
2	0xbd4aa968	-0.049477965
3	0xbd52006c	-0.051269934
4	0x3d81a254	0.0632979
5	0xbce6be70	-0.02816698
6	0x3da94ea6	0.08266954
7	0xbd186eec	-0.03721516
8	0x3bcf57e0	0.006327614
9	0xbd7d8c30	-0.06190127
10	0xbcdffba8	-0.027341679
11	0xbd9f8dfa	-0.07790752
12	0xbdd82582	-0.10554029
13	0x3ddffe4e	0.10937177
14	0x3d7d95b0	0.06191033
15	0x3da5caee	0.080953464
16	0xbd36f320	-0.044665456
17	0x3dfef004	0.12448123
18	0x3d99ab8e	0.075034246
19	0xbd245818	-0.040123075
20	0xbdf97394	-0.12180248
21	0xbd8fcdf0	-0.07021701
22	0xbcb7abf8	-0.022420868
23	0x3d9fe022	0.07806422
24	0xbd95e11c	-0.07318327
25	0xbd7c48f8	-0.061593026
26	0xbdbce2be	-0.09222935
27	0x3dbd03aa	0.092292145
28	0xbc192070	-0.009346113
29	0xbd05b890	-0.032646716
30	0xbc8c2a50	-0.01711002
31	0xbdf64718	-0.12025279
32	0xbde4cd64	-0.11171988
33	0xbda0fd44	-0.078608066
34	0xbd5dfd6c	-0.05419676
35	0x3dddea3e	0.10835694
36	0x3aafc880	0.0013411194
37	0x3d905b40	0.070486546
38	0xbdc38238	-0.09546322
39	0xbdcdb628	-0.10044509
40	0x3d1ed720	0.038779378
41	0x3df39bc0	0.11894941
42	0xbd6de434	-0.05807896
43	0xbdd0d3c4	-0.10196641
44	0xbce380c0	-0.027771354
45	0x3de61ea8	0.11236316
46	0xbd37be40	-0.04485917
47	0x3d90e68a	0.07075222
48	0xbdcf326a	-0.101170376
49	0xbdda8b7a	-0.10671134
50	0xbce54cb0	-0.027990669
51	0x3d9397c2	0.0720668
52	0xbd8ff36c	-0.07028851
53	0x3cb5d7d0	0.022197634
54	0x3ba31b60	0.0049776286
55	0x3dc11866	0.09428482
56	0x3d4ad6f4	0.0495214
57	0xbcd29378	-0.025705084
58	0xbddd4650	-0.10804427
59	0xbdcdb372	-0.10043992
60	0xbd156d6c	-0.036481306
61	0x3c516530	0.012780473
62	0xbd7baf58	-0.061446518
63	0xbd556b54	-0.05210431
64	0x3dd76154	0.10516611
65	0x3b2b9e40	0.0026186854
66	0x3d8871de	0.066623434
67	0x3d7d15e0	0.06178844
68	0x3d96a24c	0.073551744
69	0x3decf178	0.11569494
70	0xbd02c058	-0.031921715
71	0x3d442570	0.047887266
72	0x3c122580	0.0089200735
73	0xbd7fd248	-0.0624564
74	0x3df1aa1e	0.118000254
75	0x3d5dc364	0.054141417
76	0x3d04c0ac	0.03241031
77	0xbc7001e0	-0.014648885
78	0x3d9f1a9a	0.07768746
79	0x3de36e3e	0.111050114
80	0xba3c4c00	-0.0007182956
81	0x3d801346	0.06253676
82	0x3d263564	0.04057826
83	0x3d7d50f0	0.061844766
84	0x3dcf81d4	0.101321846
85	0xbdba7260	-0.091038465
86	0xbc9e7b20	-0.01934582
87	0x3d13119c	0.035905465
88	0xbcc63f78	-0.024200186
89	0x3df9964a	0.121868685
90	0xbc2ab650	-0.010419443
91	0x3990a200	0.0002758652
92	0xbd5c3dc8	-0.053769857
93	0x3df4dcda	0.119561866
94	0xbd968c06	-0.07350926
95	0x3dbf21f6	0.093326494
96	0x3d5c2520	0.053746343
97	0xbd6e050c	-0.05811028
98	0xbdec63bc	-0.1154246
99	0x3de7797a	0.11302467
100	0xbcf40618	-0.029788062
101	0xbde2c0f2	-0.11071958
102	0x3ddba900	0.107255936
103	0x3def7616	0.11692445
104	0xbda7de3a	-0.08196683
105	0x3dfcc634	0.12342492
106	0x3dad94c6	0.08475642
107	0xbda72d60	-0.081629515
108	0xbdd47b1e	-0.10375045
109	0x3d9c9e14	0.076473385
110	0x3dfe2c88	0.124108374
111	0x3dae6d30	0.085169196
112	0x3dceb838	0.10093731
113	0xbde5b34e	-0.1121584
114	0x3d028008	0.03186038
115	0xbd9c4372	-0.07630052
116	0xbc85db98	-0.016340062
117	0xbdab4c40	-0.08364153
118	0xbbb53360	-0.005529806
119	0x3d865a7c	0.06560227
120	0x3d3d3da8	0.046201378
121	0xbdfcd122	-0.123445764
122	0x3c0c7980	0.00857389
123	0x3dc13ddc	0.09435627
124	0x3cdbe020	0.02684027
125	0xbddf1404	-0.108924896
126	0xbdb6b41c	-0.08921072
127	0x3d8048d4	0.06263891
128	0xbca64280	-0.020295382
129	0xbda781ec	-0.081790775
130	0xbc5ccd70	-0.0134767145
131	0x3a0daf00	0.00054048
132	0xbd8cdcbe	-0.06878041
133	0xbdade140	-0.08490229
134	0x3d5eb44c	0.054371163
135	0xbcaf83e8	-0.021425202
136	0xbd8d55b8	-0.06901115
137	0x3c246080	0.010032773
138	0xbda398ec	-0.07988152
139	0xbd622ee8	-0.055220515
140	0xbd9ddbfe	-0.07707976
141	0xbdfafc1c	-0.12255117
142	0xbc37e3e0	-0.011223763
143	0xbcbb66a0	-0.022876084
144	0xbc773cc0	-0.0150901675
145	0x3d585448	0.052814752
146	0x3df95022	0.12173487
147	0xbd9055a0	-0.07047582
148	0x3dc63f90	0.09680092
149	0xbdcf0cb6	-0.10109846
150	0x3dfdafec	0.1238707
151	0xbd7f29c8	-0.062295705
152	0x3d8c446c	0.06848988
153	0xbc383fe0	-0.011245698
154	0xbcb6db48	-0.022321358
155	0x3d577f60	0.05261171
156	0x3d11a3fc	0.03555678
157	0x3d698cf0	0.057019174
158	0xbdfb7b1a	-0.12279339
159	0x3dbc7092	0.092011586
160	0x3df9aed0	0.12191546
161	0xbd4d638c	-0.050143763
162	0xbd70c2f0	-0.058779657
163	0xbd983f1e	-0.07433914
164	0xbd8e3e32	-0.069454566
165	0xbdb6caa0	-0.089253664
166	0x3de33b36	0.11095278
167	0xbdd01810	-0.101608396
168	0x3d0d90a0	0.034561753
169	0x3d31d634	0.04341717
170	0x3db0f8e8	0.08641225
171	0xbdfa0720	-0.1220839
172	0xbd7f2a28	-0.062296063
173	0xbcb56fb0	-0.022147983
174	0xbdf3ad40	-0.11898279
175	0xbdd6e2f0	-0.10492504
176	0xbd5cdde0	-0.053922534
177	0xbd717934	-0.05895348
178	0x3d5d5310	0.054034293
179	0xbd0ea578	-0.034825772
180	0xbc585a50	-0.013205126
181	0xbdf4e1cc	-0.1195713
182	0x3d391a54	0.045191124
183	0x3b190c80	0.0023353398
184	0x3dfcfe06	0.123531386
185	0xbd5a2494	-0.05325754
186	0xbda70196	-0.08154599
187	0xbcfa77e0	-0.030574739
188	0xbd69a198	-0.057038873
189	0xbc0f5660	-0.008748621
190	0xbd8388e0	-0.06422591
191	0x3dcedfae	0.10101257
192	0x3cda4208	0.026642814
193	0xbd8bab42	-0.06819774
194	0x3c2375b0	0.009976789
195	0xbd4c6a8c	-0.0499063
196	0x3de63aea	0.11241706
197	0xbd7af8f0	-0.06127256
198	0xbdef0296	-0.11670415
199	0x3d50abb8	0.050945014
200	0x3dee80a4	0.1164563
201	0x3dab8ec8	0.08376843
202	0xbdee0936	-0.116228506
203	0x3df5ca04	0.12001422
204	0xbca14f10	-0.01969102
205	0x3de4d7bc	0.111739606
206	0xbdfc85c8	-0.12330204
207	0x3b1d8ec0	0.0024041384
208	0x3daeaf22	0.08529498
209	0xbcbe63c8	-0.023240939
210	0xbd734860	-0.059395194
211	0x3cfd3d70	0.030913085
212	0xbd255348	-0.040362626
213	0xbdbd8ef2	-0.0925578
214	0xbd0d0340	-0.034426928
215	0x3d372944	0.04471709
216	0xbde4e4b4	-0.11176434
217	0xbd5af4bc	-0.053456053
218	0x3df082e0	0.117437124
219	0xbc9f3190	-0.019432813
220	0xbdfb3840	-0.12266588
221	0x3d99e09c	0.07513544
222	0xbd5e0fa4	-0.054214135
223	0x3d92e46c	0.07172474
224	0xbdc6429a	-0.09680672
225	0x3dc9dedc	0.0985696
226	0x3d59dd70	0.053189695
227	0x3de1e2d8	0.11029595
228	0x3d361a98	0.044458956
229	0xbcf40d78	-0.029791579
230	0x3d83f162	0.064425245
231	0x3d886ea4	0.06661728
232	0x3dc5067c	0.096203774
233	0xbde30132	-0.11084212
234	0x3df6b196	0.120455906
235	0xbd5fecac	-0.054669067
236	0xbcf515c8	-0.029917613
237	0x3d6800e0	0.05664146
238	0xbde51a4a	-0.11186655
239	0x3b8d56a0	0.004313305
240	0x3d468f00	0.04847622
241	0x3c179960	0.009252876
242	0xbdd689f6	-0.10475533
243	0xbd44ec1c	-0.048076734
244	0xbd297370	-0.041369855
245	0xbdd713b8	-0.10501808
246	0x3d8c997c	0.06865212
247	0xbdb87dc2	-0.090083614
248	0xbd7ab8bc	-0.061211333
249	0x3d325720	0.04354012
250	0xbd53d158	-0.051713318
251	0x3da1a1bc	0.078921765
252	0x3c2bcf20	0.010486394
253	0xbde99906	-0.1140614
254	0xbd2f13bc	-0.04274343
255	0x3dc011fe	0.09378432

lstm_cells.0.W_in.bias f4 [64]
0	0x3d863294	0.06552616
1	0x3d09f0f0	0.03367704
2	0xbaf94e00	-0.0019020438
3	0xbcd56bd0	-0.026052386
4	0xbcee3720	-0.02907902
5	0xbde4f528	-0.11179572
6	0x3db777ac	0.089583725
7	0xbd3cb76c	-0.046073362
8	0x3d9aac3e	0.07552384
9	0x3c5519a0	0.013006598
10	0x3c8f20f0	0.01747176
11	0xbd5cdf38	-0.053923815
12	0x3d14f6d4	0.036368206
13	0x3d941fd2	0.07232632
14	0xbde8e85c	-0.11372444
15	0xbd0a1b0c	-0.0337172
16	0x3d811c20	0.063041925
17	0x3df0f4d4	0.11765447
18	0xbccbfd80	-0.024901152
19	0xbd2b5d88	-0.041837245
20	0xbcdbeae0	-0.026845396
21	0xbd194fb4	-0.037429526
22	0x3c8cae68	0.017173007
23	0x3dfadd8e	0.122492895
24	0xbd40c780	-0.047065258
25	0x3dfbcbf0	0.12294757
26	0x3d9d3f5e	0.07678102
27	0xbc6c4550	-0.014420822
28	0xbc15b830	-0.009138152
29	0x3dadbd96	0.08483426
30	0x3d1031ac	0.03520362
31	0x3d407300	0.046984673
32	0x3cbcc240	0.023041844
33	0x3dddf002	0.108367935
34	0xbd43e664	-0.04782714
35	0xbdbddf40	-0.09271097
36	0x3d85fd5e	0.065424666
37	0x3c3d5c30	0.011557624
38	0xbd7718c8	-0.060326368
39	0xbc5f4700	-0.013627768
40	0xbb0d5240	-0.0021563917
41	0x3db3f55c	0.08787033
42	0x3ddf70ac	0.10910162
43	0x3d2829a4	0.041055337
44	0x3dd7d446	0.10538535
45	0xbd5aaa3c	-0.053385004
46	0x3d92afd2	0.07162441
47	0x3dcde5f2	0.10053624
48	0xbdcd4eca	-0.100247934
49	0xbd4341a4	-0.04767002
50	0x3d017118	0.031601995
51	0x3baabbc0	0.00521037
52	0xbcbbc7e0	-0.022922456
53	0xbcf1c4a8	-0.029512718
54	0x3d504a5c	0.050852165
55	0xbdea81b4	-0.1145052
56	0xbdb7c258	-0.08972615
57	0x3d31fe54	0.043455437
58	0x3d5cc948	0.053902894
59	0xbd99ce38	-0.07510036
60	0x3be46880	0.006970465
61	0x3de3ed80	0.11129284
62	0x3dab5d98	0.08367461
63	0x3cdcd928	0.026959017

W_h.weight f4 [64, 64]
0	0x3d315d65	0.04330196
1	0xbde49ad3	-0.11162343
2	0xbd653687	-0.055960204
3	0xbdf626e5	-0.12019137
4	0xbc9b3345	-0.018945346
5	0x3d9c0d51	0.076197274
6	0xbde675c0	-0.11252928
7	0x3c63ffec	0.013915997
8	0x3dc737eb	0.097274624
9	0xbd4ac869	-0.049507532
10	0x3cc75d90	0.024336606
11	0xbd99a14e	-0.075014696
12	0x3d415dfa	0.047208764
13	0xbd3ac694	-0.045599535
14	0x3c6ad2bd	0.0143324705
15	0xbd9b49fc	-0.07582471
16	0xbb000728	-0.0019535515
17	0x3d1bdda4	0.03805317
18	0x3ce064e2	0.027391855
19	0x3cd13f01	0.025542738
20	0x3cd73c77	0.02627395
21	0x3d9b92ca	0.07596357
22	0xbc7e45d4	-0.015519578
23	0x3d8b518a	0.06802662
24	0xbcd25c2c	-0.025678717
25	0x3d698cde	0.057019107
26	0xbc8bcbe4	-0.017064996
27	0x3bb81d71	0.005618744
28	0x3cdd1bf5	0.02699087
29	0xbcba7924	-0.022762842
30	0x3dd1c1e5	0.102420606
31	0x3dedd7b8	0.11613411
32	0xbca9c10a	-0.020721931
33	0xbdd907cc	-0.1059719
34	0xbdd612c1	-0.10452796
35	0x3da56c51	0.080773
36	0xbde99113	-0.11404624
37	0xbe0e94cb	-0.13923948
38	0x3dd89fdd	0.105773665
39	0xbd170750	-0.036872208
40	0x3d3ababd	0.045588244
41	0xbda29e0c	-0.07940301
42	0x3c3a1200	0.011356831
43	0xbd91f8ac	-0.071275085
44	0xbd44eb11	-0.04807574
45	0x3d164721	0.036688928
46	0xbd85338d	-0.06503973
47	0x3dcbce4e	0.09951459
48	0x3cd345cb	0.025790116
49	0xbd6443ed	-0.05572884
50	0x3dca1bd7	0.09868591
51	0x3ca4f6a9	0.020137148
52	0xbde21d8d	-0.110407926
53	0xbdd4110a	-0.103548124
54	0x3ddd3bac	0.10802397
55	0xbcd772c2	-0.026299838
56	0x3d0df0b0	0.034653366
57	0x3bc3ee90	0.0059793666
58	0x3dbf1173	0.093295
59	0x3d4eac6b	0.0504574
60	0x3dc5e540	0.096628666
61	0xbd5b2c0a	-0.053508796
62	0x3da851d8	0.082187355
63	0xbc6cc6b3	-0.01445167
64	0x3c5f1ed9	0.0136181945
65	0xbd9f9631	-0.077923186
66	0xbd841945	-0.06450132
67	0xbcdeae0b	-0.0271826
68	0xbd825015	-0.06362931
69	0x3daca755	0.084303536
70	0x3d8c0a1e	0.06837867
71	0x3d248839	0.040168975
72	0x3d8eebae	0.06978546
73	0x3d1e87f7	0.038703885
74	0xbb16798e	-0.0022960636
75	0xbd5ee7bc	-0.054420218
76	0xbd5a28ca	-0.053261556
77	0xbd390e19	-0.04517946
78	0xbdfbd15d	-0.12295792
79	0x3aeec3c0	0.0018216297
80	0xbcb123db	-0.021623543
81	0x3d7a6887	0.06113484
82	0xbcd77a2e	-0.026303377
83	0xbdb2cd60	-0.087305784
84	0x3cf845c6	0.030306708
85	0x3ccc1b1a	0.024915267
86	0xbbd04ceb	-0.0063568256
87	0xbdf091dc	-0.117465705
88	0x3dc43851	0.09581054
89	0xbda5a48f	-0.08088028
90	0x3d8e8d9d	0.06960604
91	0xbda94f5d	-0.082670905
92	0xbe04a3e3	-0.12953143
93	0x3d69b1c0	0.05705428
94	0x3d86a33b	0.065741025
95	0xbdbf9c03	-0.09355929
96	0xbcd06484	-0.025438555
97	0x3dec2811	0.115310796
98	0x3d30d9f0	0.04317659
99	0x3db3893b	0.08766409
100	0xbd9792b3	-0.074010275
101	0x3db7edb4	0.08980885
102	0x3e04ca55	0.12967809
103	0xbda227e2	-0.07917763
104	0x3dab2807	0.08357244
105	0xbe074506	-0.13209924
106	0xbcfffe3d	-0.03124916
107	0xbda9e7a9	-0.08296139
108	0x3da8babb	0.08238741
109	0x3cae24f5	0.021257857
110	0x3d805326	0.06265859
111	0x3cb5dfd0	0.022201449
112	0x3d82ab63	0.06380346
113	0x3cb7e3cb	0.022447487
114	0x3c2a0dc1	0.010379256
115	0xbdda3c7c	-0.10656068
116	0xbd06a0f9	-0.03286836
117	0xbd6821ef	-0.056672987
118	0xbd28f366	-0.041247748
119	0x3d1c9d4d	0.03823595
120	0xbd8cbba5	-0.06871728
121	0x3daa0110	0.08300984
122	0x3cfd6c66	0.030935477
123	0xbd9239df	-0.07139944
124	0xbdc0c3a4	-0.094123155
125	0x3ca3d7ae	0.020000305
126	0x3d9f4e31	0.07778586
127	0xbda1b639	-0.07896084
128	0xbdc7ed57	-0.09762066
129	0x3d7ad1ed	0.061235357
130	0xbc4a390c	-0.012342703
131	0xbbcbe0c3	-0.006221862
132	0xbdebf3ac	-0.11521086
133	0xbcb84a0a	-0.022496242
134	0xbd9694e9	-0.07352621
135	0xbd083566	-0.03325405
136	0x3d7a14aa	0.061054863
137	0x3de26487	0.1105433
138	0xbdcda51e	-0.10041259
139	0xbd89fcef	-0.067376964
140	0xbd8872fb	-0.06662556
141	0xbcaf346b	-0.0213873
142	0x3cb6d978	0.022320494
143	0x3d731482	0.05934573
144	0xbd46d07c	-0.04853867
145	0x3dd79a01	0.10527421
146	0xbdf33fef	-0.11877429
147	0x3db963b1	0.09052218
148	0x3d0b36ef	0.033987936
149	0xbda96a0d	-0.08272181
150	0x3daaf2e1	0.08347107
151	0xbdb1a7d3	-0.08674588
152	0xbdd77adb	-0.1052148
153	0x3db67339	0.08908696
154	0x3cf65d3f	0.03007376
155	0xbdfc7ccc	-0.123284906
156	0x3d572cb5	0.05253287
157	0x3c011110	0.007877603
158	0x3d705957	0.05867895
159	0xbbf973f8	-0.0076127015
160	0x3ddd327a	0.10800643
161	0xbe009fb1	-0.12560917
162	0x3dd50941	0.10402156
163	0x3d864977	0.06556981
164	0x3d396c91	0.045269553
165	0xbdbea4e9	-0.09308798
166	0x3d11750e	0.035512023
167	0x3df07f15	0.11742989
168	0xbd653073	-0.055954408
169	0xbc09c129	-0.008407869
170	0xbd5e4f9a	-0.054275133
171	0x3c92c2e5	0.017915199
172	0xbd572e8e	-0.052534632
173	0x3dac8284	0.084233314
174	0xbd41e447	-0.047336843
175	0xbda13f35	-0.07873384
176	0xbdf3d7b2	-0.11906375
177	0xbc360753	-0.011110145
178	0xbd45607d	-0.04818772
179	0x3c7afa9d	0.01531854
180	0x3de799d3	0.113086365
181	0xbdd39e1c	-0.10332891
182	0xbd603a45	-0.05474307
183	0x3d0c996b	0.034326
184	0xbd1b849b	-0.03796826
185	0x3dadf42e	0.08493839
186	0xbbb238d0	-0.0054389015
187	0x3df8c9e4	0.121478826
188	0xbd276d4f	-0.04087573
189	0xbd859eec	-0.065244526
190	0x3c363631	0.011121319
191	0x3c394009	0.011306771
192	0x3c7cdf21	0.015434057
193	0xbd4c03a4	-0.04980816
194	0x3c99515f	0.018715559
195	0xbc42bd55	-0.011885961
196	0x3deb014e	0.11474858
197	0x3dd4e293	0.10394778
198	0xbda71e5b	-0.08160087
199	0x3cacc600	0.021090508
200	0x3de84f37	0.11343234
201	0xbd192b9b	-0.0373951
202	0x3d910aa4	0.07082108
203	0xbd51a3c2	-0.051181562
204	0x3e0103cc	0.12599105
205	0xbd8bacad	-0.06820045
206	0xbdeef75c	-0.11668274
207	0xbca916b2	-0.020640705
208	0x3dc13968	0.094347775
209	0x3d7d8607	0.061895397
210	0x3d7ead74	0.062177137
211	0x3d955abe	0.07292698
212	0xbd70c952	-0.058785744
213	0x3dbb8202	0.091556564
214	0xbdc91421	-0.098182924
215	0xbccb0337	-0.024781806
216	0x3dd98fcb	0.106231295
217	0x3db0a902	0.08625986
218	0x3c30e07c	0.010795709
219	0x3db7edff	0.08980941
220	0x3ddbcbae	0.10732208
221	0x3d447e8b	0.047972243
222	0xbccc8fcf	-0.024970917
223	0x3ddb8bd7	0.10720032
224	0x3cf21705	0.029551992
225	0xbca7447d	-0.0204184
226	0x3ca9e9af	0.020741312
227	0x3dc2f6a1	0.09519697
228	0x3ded5abc	0.11589572
229	0xbdf2fd3a	-0.118647054
230	0x3de9f7b5	0.114241995
231	0x3db9f311	0.09079564
232	0xbda801eb	-0.08203491
233	0x3d800451	0.06250823
234	0x3d7e6496	0.062107645
235	0x3d88f469	0.066872425
236	0xbda7c149	-0.08191163
237	0x3d8ae8f8	0.067827165
238	0xbda0730c	-0.078344434
239	0x3dea6007	0.11444097
240	0xbdbacc59	-0.091210075
241	0xbddd9146	-0.10818724
242	0xbe1451b9	-0.144843
243	0x3d8a8352	0.067633286
244	0xbde6b6b7	-0.11265319
245	0xbca2ff57	-0.019897146
246	0xbd0d6843	-0.03452326
247	0x3dac8fbc	0.08425853
248	0xbd2cb7ac	-0.04216735
249	0xbd44a84e	-0.04801207
250	0xbde14fa7	-0.110015206
251	0x3d6abaa0	0.057306886
252	0xbddd3ca0	-0.10802579
253	0xbe02687e	-0.12735173
254	0xbd5dd9dd	-0.05416285
255	0x3d8b849b	0.06812402

W_h.bias f4 [64]
0	0xbca956b9	-0.020671235
1	0x3e01083a	0.12600794
2	0xbd6ae217	-0.057344522
3	0xbc6e9345	-0.014561479
4	0xbd9ebf13	-0.07751288
5	0xbdeec8db	-0.11659404
6	0x3d341957	0.04396948
7	0xbdc4c5fe	-0.096080765
8	0x3dedbbfa	0.11608119
9	0xbd0557be	-0.03255438
10	0x3dbd1304	0.092321426
11	0x3de3742e	0.11106144
12	0x3dcaa043	0.09893849
13	0xbdd66ecc	-0.104703516
14	0xbde93178	-0.113863885
15	0x3e04d60a	0.12972274
16	0x3a9b6ea2	0.0011858533
17	0x3dbec1a2	0.09314276
18	0x3daa75b1	0.08323229
19	0x3df8d3e0	0.12149787
20	0xbdc9f9bf	-0.098620884
21	0x3d2cd967	0.04219952
22	0x3d941c98	0.07232016
23	0x3e009f0f	0.12560676
24	0xbd33d46b	-0.04390375
25	0x3dd4e85b	0.10395881
26	0xbc9a9791	-0.0188711
27	0xbb9fcc75	-0.004876668
28	0x3e020999	0.12698974
29	0x3c8a7c26	0.016904902
30	0xbd79c532	-0.060979076
31	0xbdd89479	-0.10575194
32	0xbdcc7348	-0.09982926
33	0x3da62763	0.08112981
34	0x3dbaed0c	0.09127244
35	0x3d3d59f7	0.046228375
36	0x3de26b6d	0.11055646
37	0x3da2883a	0.079361394
38	0x3da5ae08	0.080898345
39	0xbdedafde	-0.1160581
40	0xbdd4072d	-0.10352931
41	0x3cdd96d2	0.027049456
42	0xbd95459c	-0.072886676
43	0x3d6a75f8	0.05724141
44	0x3d2924c1	0.041294817
45	0x3d924d30	0.071436286
46	0x3db2e7cc	0.08735618
47	0xbda73fa0	-0.081664324
48	0xbd653b29	-0.055964623
49	0xbdaeaeb2	-0.08529414
50	0x3dc4500c	0.0958558
51	0xbd7071e6	-0.058702372
52	0xbdac65fd	-0.0841789
53	0xbdcb9c66	-0.0994194
54	0xbdf022fa	-0.11725421
55	0x3dfe89f7	0.124286585
56	0x3de8f9d1	0.11375774
57	0x3c8e0ecc	0.01734104
58	0x3db39365	0.08768348
59	0xbe0844b6	-0.13307461
60	0x3c9c67cb	0.019092461
61	0xbdd0aad6	-0.10188834
62	0x3d84e575	0.06489078
63	0x3dc54ae3	0.09633424

W_g.weight f4 [64, 64]
0	0x3de46549	0.11152131
1	0xbb80df2e	-0.003932855
2	0xbdd13245	-0.10214666
3	0xbc8fab87	-0.017537845
4	0xbd8e1a9f	-0.06938671
5	0xbdca5533	-0.09879532
6	0xbe011a04	-0.1260758
7	0x3ddf320d	0.10898218
8	0x3d25936e	0.040423803
9	0x3b0fe454	0.0021956163
10	0xbd8ebbcb	-0.069694124
11	0xbde51b51	-0.11186851
12	0x3d8eeab7	0.06978362
13	0xbd1ec4ea	-0.03876201
14	0xbd87556a	-0.06608088
15	0xbdc932eb	-0.09824165
16	0xbded9983	-0.11601546
17	0xbd98f4e7	-0.074685864
18	0xbd96c0c5	-0.073609866
19	0xbddab82d	-0.1067966
20	0xbd748272	-0.059694715
21	0xbda0bb79	-0.078482576
22	0x3ce8fa87	0.028439773
23	0x3cbaac85	0.022787342
24	0xbdaf2b1d	-0.08553145
25	0xbe005c07	-0.12535106
26	0xbdf73709	-0.12071044
27	0x3ddd35fb	0.108013116
28	0xbdbe7bb1	-0.09300936
29	0xbd19461e	-0.037420385
30	0x3d1b5e9a	0.037932016
31	0x3da906e5	0.08253268
32	0x399f9364	0.00030436658
33	0x3c9dd60b	0.019267103
34	0xbe0000b8	-0.12500274
35	0xbd4ac57a	-0.049504735
36	0x3d8d568f	0.06901275
37	0xbd1897b4	-0.03725405
38	0xbdbd64b5	-0.09247724
39	0xbd46a39a	-0.048495866
40	0xbc872eb7	-0.016501768
41	0x3dc30075	0.095215715
42	0x3db3ee9d	0.08785746
43	0xbcf7d1c5	-0.030251393
44	0x3bd2b8e6	0.006430733
45	0x3d46a2f6	0.048495255
46	0x3d5766da	0.05258832
47	0xbd837efa	-0.06420703
48	0xbe02a9d5	-0.12760098
49	0xbc3b62e7	-0.011437154
50	0x3d5c1da4	0.053739205
51	0xbe05fc95	-0.13084634
52	0x3d97c1f9	0.07410044
53	0x3d490fda	0.049087383
54	0x3cbd300f	0.023094205
55	0x3d579cd0	0.052639782
56	0xbd0438a4	-0.03228058
57	0xbde5c107	-0.11218458
58	0x3dcef5d7	0.10105484
59	0xbde650c1	-0.11245871
60	0x3dd4555d	0.10367844
61	0x3db3995f	0.087694876
62	0x3d3b1f52	0.045684166
63	0x3d7ceee0	0.061751246
64	0x3c4ea0d7	0.012611589
65	0x3d788687	0.06067517
66	0xbcf48c3d	-0.029852027
67	0x3dc1655f	0.09443163
68	0xbdcf135f	-0.101111166
69	0x3daa9bf3	0.08330526
70	0x3d9bac53	0.076012276
71	0x3d8d62c5	0.069036044
72	0xbd90bac9	-0.070668764
73	0x3d95e7f5	0.07319633
74	0x3cbc9209	0.023018854
75	0x3cfe1ec6	0.031020533
76	0xbdf40dd9	-0.11916704
77	0xbd974f1f	-0.07388138
78	0xbd2424b9	-0.040074084
79	0xbda3b951	-0.07994331
80	0x3c0d683f	0.008630811
81	0x3d3f64af	0.04672688
82	0x3d87e837	0.06636088
83	0xbd50e0ad	-0.050995518
84	0x3c3edd47	0.011649436
85	0x3dbc4b6d	0.09194074
86	0xbca390ef	-0.01996657
87	0x3d691317	0.05690297
88	0xbc9a569f	-0.018840132
89	0x3dbbd1af	0.09170853
90	0x3cdddd91	0.02708319
91	0xbdf916cf	-0.121625535
92	0xbdda6775	-0.10664264
93	0x3d0174ed	0.03160565
94	0x3dd8bf27	0.105833344
95	0x3d1cf237	0.03831693
96	0xbcc77437	-0.024347408
97	0x3db1b29b	0.086766444
98	0xbd8416f5	-0.06449691
99	0xbcd6a777	-0.0262029
100	0xbd4c7129	-0.049912605
101	0x3dcadb5d	0.099051215
102	0x3d6e708f	0.058212813
103	0xbd27e549	-0.040990148
104	0x3ce57d71	0.028013917
105	0x3d353f2f	0.04424971
106	0xbdde645f	-0.10858988
107	0x3de1649d	0.110055186
108	0xbb1088ea	-0.0022054263
109	0x3d542133	0.051789474
110	0xbda0c5ff	-0.07850265
111	0xbd1fb2bd	-0.038988817
112	0x3adeb58b	0.001699136
113	0x3da6c1a3	0.08142402
114	0xbdb1b199	-0.08676452
115	0xbdf1fccf	-0.118157975
116	0x3ce6e891	0.028187068
117	0xbd9a6aa5	-0.07539872
118	0xbd03ebed	-0.03220742
119	0xbc225cf9	-0.009909862
120	0xbdddad7f	-0.108241074
121	0x3d7de147	0.06198242
122	0xbdf4f017	-0.11959856
123	0x3dea9f9b	0.114562236
124	0x3d4debe3	0.050273787
125	0x3db63b61	0.088980444
126	0x3d5c5d93	0.053800177
127	0x3d30a547	0.04312637
128	0xbbb90051	-0.0056457897
129	0x3d30dbd5	0.0431784
130	0x3cc8441a	0.024446536
131	0xbdc8df65	-0.09808234
132	0xbda8ac77	-0.0823602
133	0xbdfda2a5	-0.123845376
134	0x3d07e621	0.033178452
135	0x3da588c3	0.08082726
136	0x3dcee1b7	0.101016454
137	0xbdd3eb6b	-0.10347637
138	0xbd05fb33	-0.032710265
139	0x3d6de7cd	0.05808239
140	0xbd64c177	-0.055848565
141	0x3d9eecdd	0.07760022
142	0x3dde0ff3	0.10842886
143	0xbd4ba2b3	-0.04971571
144	0xbd3e9ddf	-0.046537276
145	0xbca286c6	-0.019839656
146	0xbd713217	-0.05888566
147	0xbd8eb795	-0.06968609
148	0x3d86b9ad	0.065783836
149	0x3d7733c5	0.060352106
150	0x3b70a650	0.0036720224
151	0x3d475799	0.048667524
152	0x3d9a0319	0.07520122
153	0x3db098d5	0.086229004
154	0x3c86ece2	0.016470376
155	0x3cdbec8a	0.026846189
156	0x3d2cde39	0.042204116
157	0xbc4f506e	-0.012653453
158	0x38ab6227	8.172198e-05
159	0x3dda32df	0.10654234
160	0x3dbe7ef7	0.0930156
161	0xbdb057b7	-0.0861048
162	0x3d0760d1	0.033051316
163	0x3c1cae82	0.00956309
164	0x3debcf9d	0.115142085
165	0x3de3b85f	0.1111915
166	0x3d8f9c05	0.0701218
167	0xbd60efb7	-0.05491611
168	0xbdb6ee47	-0.089321665
169	0xbcdbf24e	-0.026848938
170	0x3dd053ab	0.101722084
171	0x3daaefbd	0.08346508
172	0xbdd9b1bb	-0.106296025
173	0x3dea3eeb	0.11437782
174	0xbdf362af	-0.11884057
175	0xbdc32fe5	-0.095306195
176	0x3d890dd1	0.066920884
177	0xbcf0a30e	-0.029374626
178	0xbda96c0d	-0.08272562
179	0xbde17399	-0.11008377
180	0x3ca47d9a	0.020079423
181	0xbcbc83b6	-0.023012023
182	0xbc7baa25	-0.01536039
183	0x3d8a1605	0.06742481
184	0x3d31930d	0.04335313
185	0xbcbb395e	-0.022854503
186	0x3d6c9a11	0.057764117
187	0xbd18fa73	-0.037348222
188	0xbcf0a3e6	-0.029375028
189	0x3d9dd313	0.07706275
190	0xbdfd97bf	-0.12382459
191	0xbde082f9	-0.10962481
192	0xbdb34c87	-0.08754831
193	0x3d9c071d	0.07618544
194	0x3d489c5d	0.048977245
195	0x3c7e87d2	0.015535312
196	0xbdcf4f0f	-0.10122501
197	0x3c03f8be	0.00805491
198	0xbc8b6af1	-0.017018767
199	0xbd023ea0	-0.031798005
200	0xbe06a367	-0.1314827
201	0x3d9d0045	0.07666067
202	0xbdfe9703	-0.12431147
203	0x3d9e59ed	0.07731996
204	0xbc03d1b2	-0.008045601
205	0x3de5945b	0.11209937
206	0xb97e662c	-0.0002426139
207	0xbde2d7b9	-0.11076302
208	0xbc952052	-0.018203888
209	0x3db1b199	0.08676452
210	0xbddd19b1	-0.10795916
211	0xbd38aa6f	-0.045084413
212	0xbdfaf0d5	-0.12252966
213	0xbbb8cc1b	-0.0056395656
214	0xbd6e5e1f	-0.05819523
215	0x3cea4bd6	0.028600615
216	0x3cc1225d	0.023575956
217	0xbcd6577d	-0.026164765
218	0x3d3357f1	0.04378504
219	0x3ded0857	0.11573856
220	0x3de555e1	0.11198021
221	0x3d651f73	0.055938195
222	0xbdb461dd	-0.088077284
223	0x3d836c09	0.064170904
224	0x3d86e127	0.06585913
225	0x3db1b879	0.086777635
226	0x3c28cd30	0.010302827
227	0xbdc88f05	-0.09792904
228	0x3d7c0d3e	0.061536066
229	0xbce24b05	-0.027623663
230	0xbc965bce	-0.018354323
231	0x38cb2553	9.6867465e-05
232	0xbe050170	-0.1298883
233	0xbdd97129	-0.10617287
234	0xbde03caf	-0.109490745
235	0xbdef067d	-0.116711594
236	0x3de56c47	0.11202293
237	0xbcc6c2f5	-0.024262885
238	0x3d86016d	0.06543241
239	0x3c61c4db	0.013779844
240	0xbd6657d7	-0.056236114
241	0x3d9fe0d9	0.07806558
242	0x3dafe1dd	0.08588002
243	0x3d5ec997	0.05439147
244	0xbc495044	-0.012287203
245	0x3d91df69	0.0712269
246	0xbd629c43	-0.055324804
247	0xbda5f665	-0.08103637
248	0x3dece917	0.11567896
249	0xbd6eeda3	-0.058332097
250	0xbd92787b	-0.07151886
251	0x3d9401e7	0.07226925
252	0xbbc1d3ff	-0.0059151645
253	0xbdbf2991	-0.093341
254	0xbddd6d39	-0.10811848
255	0x3db093db	0.08621951

W_g.bias f4 [64]
0	0xbd882e13	-0.06649413
1	0x3d101290	0.035173953
2	0x3dfb4875	0.122696795
3	0x3bb8b399	0.005636644
4	0xbc9acffb	-0.018898001
5	0x3ce7426e	0.028229918
6	0xbdc089ff	-0.09401321
7	0xbc9ff7d3	-0.019527351
8	0x3bdfa9ce	0.006825662
9	0xbd817736	-0.06321566
10	0x3d12698e	0.035745196
11	0x3d7d9108	0.06190589
12	0xbca06a1f	-0.019581852
13	0xbd695d16	-0.05697354
14	0xbd0b0dac	-0.033948585
15	0x3d795f13	0.060881685
16	0x3da8c009	0.08239753
17	0x3dee7962	0.11644246
18	0x3d2b2a09	0.041788135
19	0xbd42be95	-0.047545034
20	0xbdfe139f	-0.12406086
21	0xbdbd08e0	-0.092302084
22	0xbd84052a	-0.064462975
23	0xbd77a3f1	-0.06045908
24	0x3c8f1b0b	0.01746895
25	0x3bf0d5d0	0.007349707
26	0xbdcab6d2	-0.098981515
27	0x3ca17308	0.019708171
28	0xbddc696f	-0.10762297
29	0xbdc56a77	-0.09639447
30	0xbd2a01ee	-0.041505747
31	0xbdd83beb	-0.105583034
32	0x3d064e7d	0.032789696
33	0xbd7dc9d6	-0.061960064
34	0xbc420a2a	-0.011843244
35	0xbdd1d5a9	-0.102458306
36	0xbd83f64f	-0.06443464
37	0x3dadedf2	0.0849265
38	0x3ddf4796	0.10902326
39	0xbb164d17	-0.0022934133
40	0x3dc019f5	0.09379951
41	0xbc279af0	-0.010229811
42	0x3de2827a	0.11060043
43	0xbd4a9d0c	-0.049466178
44	0xbd4cc159	-0.04998908
45	0xbddee66c	-0.10883793
46	0x3de2b9d0	0.11070597
47	0xbda87b5e	-0.082266554
48	0xbd84e8a4	-0.06489685
49	0x3d01d1c4	0.03169419
50	0x3dde6e04	0.108608276
51	0x3ddc4325	0.10754994
52	0x3da2fa17	0.07957857
53	0x3dcbfdde	0.09960531
54	0xbdb6aecc	-0.089200586
55	0xbd484225	-0.048891205
56	0xbc698adb	-0.014254297
57	0xbe04478d	-0.1291792
58	0xbdaa3177	-0.08310216
59	0x3da2676f	0.07929885
60	0x3dadcb8a	0.084860876
61	0x3d81e696	0.06342809
62	0xbd823e55	-0.06359545
63	0x3d04cf94	0.032424524

W_x.weight f4 [64, 1]
0	0xbf62809a	-0.8847748
1	0xbf326d7d	-0.69698316
2	0xbec84ce4	-0.39121163
3	0xbeac9281	-0.33705524
4	0xbf49cb6a	-0.7882601
5	0x3f1c9f8c	0.6118095
6	0xbe1c53a1	-0.15266277
7	0x3f05a2a5	0.522013
8	0xbe6fe4a5	-0.23427065
9	0x3eeb3a5e	0.45942968
10	0xbf67fa8f	-0.906167
11	0xbf7d2d22	-0.9889699
12	0x3f768933	0.963031
13	0xbf325e25	-0.69674903
14	0x3ef326bc	0.4749049
15	0xbea44b31	-0.32088616
16	0xbea4fe8f	-0.32225463
17	0xbf1268c1	-0.5719109
18	0x3f511739	0.8167606
19	0x3ed424a7	0.41434214
20	0x3dc004e3	0.09375932
21	0xbf077012	-0.5290538
22	0x3ede787d	0.434513
23	0x3e6411ef	0.22272466
24	0xbf7cf0f1	-0.9880515
25	0x3f0b686f	0.5445623
26	0x3ee1c3d5	0.4409472
27	0x3f23756c	0.63851047
28	0x3f2a8a0c	0.6661689
29	0xbe679adf	-0.22617672
30	0xbe8e184e	-0.27752918
31	0x3e5e771c	0.21725124
32	0x3ed88660	0.4229002
33	0xbe09fa37	-0.13474356
34	0xbf39a76b	-0.72521085
35	0xbe956e7d	-0.29185858
36	0x3f6d58fe	0.92713916
37	0xbf40a2a6	-0.7524818
38	0x3f76ff25	0.9648307
39	0x3eb5123f	0.35365483
40	0x3f42a617	0.76034683
41	0x3e324ca6	0.17412052
42	0x3f3d212e	0.73878753
43	0xbf0525c7	-0.5201077
44	0x3f03ec20	0.51532173
45	0x3f1aa534	0.6040833
46	0x3f6bfd3a	0.9218327
47	0x3ed8e493	0.42361888
48	0xbe865fb4	-0.2624489
49	0x3ee8d2f5	0.45473447
50	0xbe01271e	-0.12612578
51	0xbe580c4f	-0.21098445
52	0xbe85caf5	-0.26131406
53	0x3e5ad462	0.2137008
54	0x3f43ead3	0.7653019
55	0x3f6bb141	0.92067343
56	0xbf7dd294	-0.9914944
57	0xbf33b581	-0.7019883
58	0xbf069d42	-0.52583706
59	0xbd5b2cbf	-0.05350947
60	0x3ed023e6	0.40652388
61	0xbe82034b	-0.25393137
62	0x3efeb324	0.49746048
63	0x3cf9f2db	0.03051131

W_x.bias f4 [64]
0	0x3f2f2de4	0.684294
1	0xbdf26641	-0.1183591
2	0xbeca5fa0	-0.3952608
3	0x3f1787a2	0.59191334
4	0xbf340f55	-0.70335895
5	0xbec96197	-0.39332268
6	0xbf03574b	-0.51305073
7	0x3ecc76da	0.39934427
8	0xbf7987a0	-0.9747257
9	0x3f423787	0.7586598
10	0x3f72e991	0.94887644
11	0x3f0d6a28	0.55240107
12	0x3f29e9a5	0.6637214
13	0xbf6d2a56	-0.92642725
14	0xbecc5f5a	-0.39916497
15	0xbf69475c	-0.9112451
16	0xbedd7e1f	-0.43260285
17	0xbf472c1f	-0.778017
18	0xbf3ea59d	-0.74471456
19	0xbea5088b	-0.3223308
20	0x3f057668	0.521338
21	0xbf18b602	-0.5965272
22	0x3e5741b2	0.21021155
23	0x3ec9d2a7	0.39418527
24	0x3f352589	0.707604
25	0x3f08342c	0.5320461
26	0xbe229ea6	-0.15880832
27	0xbecd21b7	-0.40064785
28	0x3eac72db	0.33681378
29	0x3ea09566	0.31363982
30	0xbf36c91c	-0.7140062
31	0xbf02a20e	-0.51028526
32	0x3f34c37b	0.7061078
33	0x3e5dc134	0.21655732
34	0xbf3916c1	-0.72300345
35	0x3d816be1	0.063194044
36	0x3edc659a	0.43046266
37	0xbf303625	-0.6883262
38	0x3efe4581	0.49662402
39	0xbf1a0500	-0.6016388
40	0x3e973bd7	0.29537842
41	0xbf2485f2	-0.64266884
42	0xbf375159	-0.716085
43	0xbeea96bf	-0.45818135
44	0xbf016238	-0.50540495
45	0x3ef00b9e	0.46883863
46	0xbf649ef2	-0.8930503
47	0x3f45a26b	0.77200955
48	0xbeefdc51	-0.46847776
49	0xbf3ad158	-0.72975683
50	0xbf7359b3	-0.95058745
51	0xbec8789b	-0.39154515
52	0xbf17a9b9	-0.5924335
53	0x3d46a0de	0.04849326
54	0x3dbf161e	0.093303904
55	0x3eaf515a	0.34241754
56	0xbed26b79	-0.4109762
57	0xbee4ccc8	-0.44687486
58	0xbe802555	-0.25028482
59	0x3d4e3125	0.050339837
60	0xbe0e4b75	-0.13895972
61	0x3f33a4bb	0.70173234
62	0x3edfe31a	0.43727952
63	0xbecd6329	-0.40114716

W_1d.weight f4 [1, 64]
0	0xbb4b7d36	-0.0031049973
1	0xbde360e1	-0.111024626
2	0xb817d387	-3.6198206e-05
3	0x36d068b2	6.211071e-06
4	0xbb4bb72c	-0.003108452
5	0x393bc470	0.00017906888
6	0xbc3369c1	-0.010950507
7	0x3bb19e0e	0.005420453
8	0x3982542f	0.00024858254
9	0x398c2ccb	0.00026736254
10	0xb9fd22d7	-0.00048281878
11	0xbd61d3de	-0.055133693
12	0x394537c0	0.00018808153
13	0xb8d31d12	-0.00010066679
14	0x3af307cb	0.0018541751
15	0xbc37744b	-0.01119716
16	0xb898c32e	-7.28428e-05
17	0xbb485c99	-0.003057277
18	0x3da45d3b	0.08025595
19	0x3a3503cf	0.00069051696
20	0xb727ff87	-1.001347e-05
21	0xb8f71439	-0.000117816446
22	0x38eff7ab	0.0001144254
23	0x38684e1d	5.538586e-05
24	0xbd96b301	-0.07358361
25	0x3a58ba48	0.0008267504
26	0xb85ee4e9	-5.3142114e-05
27	0x3d3b854c	0.04578142
28	0x3b15daf9	0.0022866114
29	0xbcc88362	-0.02447671
30	0x3bcd2a40	0.00626114
31	0x3d25fdbb	0.04052518
32	0x38859e71	6.371446e-05
33	0xb808d92d	-3.2627187e-05
34	0xbb33d08b	-0.0027437534
35	0x3a47ed15	0.00076265755
36	0x3aa1642e	0.0012313181
37	0xbb443f79	-0.002994506
38	0x3b18a0a8	0.0023289118
39	0xbc83da5b	-0.016095331
40	0x3a845efa	0.0010099106
41	0x376c7b3a	1.4095387e-05
42	0xbdaa00d1	-0.08300937
43	0x3b9c1408	0.00476313
44	0x3a00358b	0.0004890791
45	0x3aa46e37	0.0012545054
46	0xbc340779	-0.01098811
47	0x38a928b5	8.06613e-05
48	0xb97c46e6	-0.00024059004
49	0x3dcb6f72	0.09933366
50	0xb9b10e64	-0.00033770793
51	0xb9c9bb4d	-0.00038477257
52	0xb840d27f	-4.5972407e-05
53	0x3922db6d	0.00015531266
54	0x3a18fbfd	0.0005835889
55	0x3cbf1144	0.023323663
56	0xbd2044cd	-0.039128114
57	0xba5e717d	-0.0008485539
58	0xbb3153ee	-0.0027058083
59	0xbb68066c	-0.0035404218
60	0x3c7c1d3d	0.01538783
61	0xbd045a33	-0.032312583
62	0x39a2012d	0.00030899924
63	0x37e97d4d	2.7834112e-05
