model_weight/best_NETHERLANDS_model.pth (torch, 74033 bytes, 14 tensors)

lstm_cells.0.b_c f4 [64]
00000000: caa5 9c3c 8475 a1bc 27c0 8ebc 40c4 1d3c
00000010: 0493 e03b 37ff 5e3b 7a8d 323c bf98 e83b
00000020: eab7 aabc fec2 c03b 77e9 89bb 8173 9ebc
00000030: 892a 4b3b cdcf 58bd ca0e 623c 3d77 0fbc
00000040: 1810 473c ff56 c0bb f00c a5ba 8c46 15bd
00000050: a7da 75bd 5d98 0a3d fcb9 7b3c 7795 ebbc
00000060: aa42 2c3c 1f3a 57ba 1ce0 f1bc ce58 0dbb
00000070: e2ec 0b3c 708c 85bb f405 9dbb 51f9 603c
00000080: 5ceb 8ebc 4960 8dbc e752 c93c c255 82bb
00000090: e5ef 85bc 87b7 12bc 2c80 a23a 2ab9 12bc
000000a0: 6bc7 38bd 3c17 f7bc cb77 b2bc 43c7 80bc
000000b0: f593 2d3c 6fd0 fa3b 9a1e 9ebc 0cce e83b
000000c0: a234 93bb 310a e2bb 9572 a0bc 7f90 9b3a
000000d0: fed3 473d fc22 28bc c9fb 6d3c 0865 cdbb
000000e0: 9708 443d 938c e53b ba7c 4b3b c73d a73a
000000f0: 96f5 9bbc 345f 80bc f9ff c6ba 5290 f0bb
0.019122023 -0.019709356 -0.01742561 0.009629309 0.006853463 0.0034026632 0.010897988 0.007098287
-0.02083965 0.00588262 -0.0042087394 -0.019342186 0.0031000695 -0.05293255 0.013797471 -0.008756456
0.012149833 -0.0058697457 -0.0012592357 -0.036444232 -0.060022976 0.03383671 0.015364166 -0.028757794
0.010513941 -0.000821026 -0.029525809 -0.0021567824 0.008540364 -0.0040755793 -0.0047919694 0.013731317
-0.017446212 -0.017257826 0.024575664 -0.0039775083 -0.016349742 -0.008954889 0.0012397817 -0.008955279
-0.045112055 -0.030162446 -0.021785637 -0.015720015 0.010594358 0.0076542418 -0.019301701 0.007104641
-0.0044923583 -0.0068981876 -0.019585887 0.0011868625 0.048786156 -0.010262247 0.014525362 -0.0062681474
0.047859754 0.007005283 0.0031049685 0.00127595 -0.019038003 -0.015670396 -0.0015182487 -0.007341423

lstm_cells.0.W_ic.weight f4 [64, 1]
00000000: a38f 0f3e bff8 333f c325 583e ae96 163e
00000010: 0888 c9bd 2267 9bbe 3746 9a3e 8dc2 c03e
00000020: 167a 8fbe e442 013f 973d a8be 21f7 2e3f
00000030: aa4f 0fbf 3620 32bf 3092 183e ed0c 2dbf
00000040: b735 093f 72ce 66bf 17f4 713f 0c0b b8be
00000050: defe 6dbf 158d 043f 8406 51bf 4836 25bf
00000060: 9f5d 633f e3f3 7bbf 0680 5abf 8b83 343d
00000070: 046c 3cbf 10e6 9abd 97a5 ce3e a39a 8cbe
00000080: 0170 5bbf b7d5 7b3e a515 583f c238 81be
00000090: 83d6 d23d caf1 5bbf 5ba5 323f 30e7 7d3f
000000a0: 39e0 74bf 592f e8be a00a e5be 71a4 d6bd
000000b0: 743b 1abe 44ab d3be a64c 743e 5cfe 33bf
000000c0: fd6b 3bbe 93f2 34bf 6615 a9be b3af b6be
000000d0: 92d9 013e 1df8 1fbe 8a26 483f 81af c83e
000000e0: b231 913d 733c 513f 15cb a33e 51d4 b7bc
000000f0: ce8c 3ebf fc06 4dbf 0e33 233f 88cf aa3e
0.14019637 0.7030143 0.21108155 0.14705917 -0.09840399 -0.30352122 0.30131695 0.3764843
-0.28022832 0.5049269 -0.3285949 0.6834584 -0.5598093 -0.695804 0.14899516 -0.6759785
0.5359759 -0.9015876 0.94513077 -0.35945928 -0.9296702 0.51777774 -0.8165057 -0.6453595
0.8881473 -0.98419017 -0.853516 0.04407076 -0.7360232 -0.07563412 0.4036071 -0.27461728
-0.8571778 0.24593244 0.84408027 -0.25238615 0.10294821 -0.85915816 0.6978356 0.9918089
-0.95654637 -0.45348623 -0.4473467 -0.104805835 -0.15061742 -0.41341603 0.23857364 -0.70309997
-0.18302913 -0.7068264 -0.33024138 -0.35680923 0.12680653 -0.15621991 0.78183806 0.391964
0.07089557 0.81732863 0.31990877 -0.022440108 -0.744336 -0.8008878 0.6374978 0.3336146

lstm_cells.0.W_ic.bias f4 [64]
00000000: 7c7c 9ebe aa5f 6c3f 115f 403f 96e5 66bf
00000010: 17d9 63bf d4cd 21bf 2e7c 80be 27e3 10bf
00000020: 3573 b73d bc24 4abf f5f7 4d3f 8f55 2a3f
00000030: 859c 32bf 6d26 6a3f c6a0 dabe 872a bcbe
00000040: e468 693d a47a 26bf 08c4 3b3f 349e 6b3e
00000050: 08bd 623f 3e35 41bf 4f09 35bf 8c41 193d
00000060: e5c7 2b3e ff2e 14bf baa0 663f fdd7 acbd
00000070: 789c 94be ac3b 83bd 2148 8f3e 2b83 09bf
00000080: e664 1e3e 3127 273f a3cd 8e3e b32f f3be
00000090: 7685 ec3e f73e fabd 09ee 183f 2de5 5c3f
000000a0: 29c2 0d3f 88dd 0a3f 295d 083f f59f d93c
000000b0: 1d74 ffbe 818b 13bf f6ee 143f 3c99 2ebf
000000c0: 811f 07be f46e 11be 7042 573f f0b6 28bf
000000d0: ff2e c1be 6a91 89bd 5919 35bf 4a4a e53e
000000e0: 138d 21bf 519a 873e 3c49 f6bd 62d6 44be
000000f0: 09ea 4f3e 6a42 18be 7d42 433f 561a e63d
-0.3095435 0.9233347 0.7514506 -0.9019407 -0.8900313 -0.63204694 -0.25094742 -0.56596607
0.08957521 -0.789623 0.8045648 0.665368 -0.6977008 0.91464883 -0.42700785 -0.36751196
0.056984797 -0.65030885 0.73345995 0.23009568 0.8856969 -0.75471866 -0.7071733 0.037416026
0.16775472 -0.5788421 0.90089 -0.08439634 -0.29025626 -0.06407866 0.27984717 -0.5371577
0.15468177 0.65294176 0.27891263 -0.4749733 0.46195573 -0.12219041 0.5973821 0.86287194
0.5537439 0.5424428 0.5326715 0.026565531 -0.49893275 -0.5763474 0.58177125 -0.6820257
-0.13195612 -0.14202482 0.8408575 -0.6590414 -0.37731168 -0.06717189 -0.707418 0.4478324
-0.6310589 0.26484922 -0.12025687 -0.19222406 0.20304121 -0.14869085 0.7627333 0.11235492

lstm_cells.0.W_hc.weight f4 [64, 64]
00000000: b0e0 13bd 6fd6 973d ad68 443d a9b9 c3bd
00000010: d32f 21bd f1d0 f6bd 7c4c a53d aab4 323d
00000020: 554c 6b3d 8557 bc3d 09f7 163c c76b 843c
00000030: 1a95 05be 961b 7ebd 0788 bb3d 9bd1 c6bd
00000040: 0ba0 483b 1bca 923d a2a0 123e 929b 403d
00000050: 00f1 68bd c365 6fbc c82a 443c 9d29 e03d
00000060: 978e f5bd 2fbd 83bd d8d9 d23d b1c6 c6bd
00000070: 625e e73d 1277 e63d 2bfc d03a a56a e4bd
00000080: bbe6 f73d 7760 913c 5a69 df3d 184b 75bd
00000090: 61be f63d 6eca 5e3c fad9 303c cf2e 02bb
000000a0: 0dcb 7abd 7a6a 96bc 9cdf a33c 2e35 abbd
000000b0: 419e 393d e6b4 ce3c f00d cfbc 316c c3bd
000000c0: a4d2 06be 3361 f03d ce99 38bd d4e5 573d
000000d0: 1f0f 833c 707a acbb 4abd cd3d 099e d5bc
000000e0: a6aa 29bd df06 013e 0f6f ccbd 73f3 a5b9
000000f0: 26b9 c23d 6d2c 943d abea fe3d 3235 14bc
00000100: 15bb e93d d65f 3bbc 0afa ad3d f1d4 db3d
00000110: fdaa e1bc 14b0 003e f357 c23d 62a9 bf3d
00000120: 9083 02bd 8e64 f13d 4574 443d 3ec1 bebd
00000130: 573e 94bc 863d 0bbe 7c39 8dbd 06ef 5abd
00000140: 0bc3 91bd 742e 99bd 2dbb bf3c 55c6 c9bc
00000150: 1e62 85bd 7eca 973c 75f5 d23d 0c74 4d3d
00000160: 47e8 98bd a115 c43d 46ad f13c 31b7 443d
00000170: a676 dbbd 3562 34bb bb2d d23d e4f9 e93c
00000180: c13f 853d c0f3 02be 060b 32bc 9721 323c
00000190: 2e33 193c fea2 87bd b4ef 71ba 0fa0 7c3d
000001a0: 101d cd3d 720a e8bd d950 a53d dc44 00be
000001b0: 2e00 e3bd 2216 0bbb 8e0b 9a3d 5149 b43d
000001c0: 6ade c5bc d02a fabd 99fa 9cbd 3d4b a4bd
000001d0: cd6a b7bd 6113 d03d 5dc3 06bd 387f 693d
000001e0: 0144 ed3c f972 6d3d ede7 4bbd 123b aabd
000001f0: 1a90 f2bd 06d0 063d 441d 533d 9c0c d6bd
00000200: 5c51 5bbd 9784 e1bb 84d3 90bd f611 8d3d
00000210: c020 c3bd 81df c8bd 6b45 0ebd 383d a43d
00000220: 10c7 6ebd c645 0f3e 4c55 afbd 77b7 523d
00000230: 7d6d b83c f4eb d9bc d157 e3bc 859e 993a
00000240: a7cf cabd b4a4 d63d c0ed 02be ab22 ad3c
00000250: b13f 91bd 5dfb fa3d 38f0 eb3b 3466 c8bd
00000260: ee48 1cbd 383b 203d b945 93bd 45b6 abbd
00000270: 1bf9 a8bd f597 cfbb 838b c13d ecb4 e5bd
00000280: df69 0abe 0b4b 873d 0ae2 94bd 2e48 51bc
00000290: 4bc8 e13d fccd 8f3d a196 813c 4fb3 a6bb
000002a0: 0484 8cbc 108a a03d f309 c1bd 0788 3bbc
000002b0: 65be 35bc 7dd7 3fbd bbf3 e83d 1ca5 ea3d
000002c0: 3bc4 0bbe 44aa a2bd e325 cc3d 9be6 b83d
000002d0: 5dcc bfba 5627 febd 1e7c 073d c633 c6bd
000002e0: 3da9 993d cc6a 0a3d 0e01 4a3b f991 cd3d
000002f0: c253 97bc f18a 9dbd 56a4 83bd 9fd5 00be
00000300: e72b 6c3d 2027 a6bd 5ddf 94bd 0dcb 87bd
00000310: da6b d0bd 7b9e e8bd 4bfe 6bbd ef39 a93d
00000320: b612 a8bd c442 79bd d205 d0bd 055d 0ebc
00000330: f2cd ddbd 89c0 8ebd c037 c63d a379 2b3d
00000340: 1292 843d aabe b23c ff42 a9bd cec5 d93c
00000350: 955a b13d 499e ce3d 8880 36bd c9c7 843d
00000360: 223d 973d 6523 b2bd dca3 233d f6c1 023e
00000370: 36cd 50bb c5bf cebd 148d 8bbd 1dc6 09bd
00000380: fd6c ee3d ec7e 56bd e4c0 c4bd 28ac 0f3d
00000390: 6a7b 3cbd a9ca 83bc f57a c93d 78ea 073c
000003a0: f95e ed3d f36d 883d 882a b4bd a4bd e63c
000003b0: 6457 60bc 3452 38bd 6b41 1e3b c6e8 2f3d
000003c0: c093 0f3d 45e2 91b9 e2c0 dd3d 4b57 b4bd
000003d0: d207 20bd 6a16 d03d e47b a63d 78ea 033e
000003e0: 376b 123d ac1c b33d f660 9ebd 5544 703d
000003f0: 33a5 3cbd 3afe d2bc 9586 bdba 8d9d 14bc
-0.03610295 0.07413947 0.04795139 -0.09556896 -0.03935225 -0.12051571 0.08071229 0.043629326
0.057445843 0.091963805 0.009214171 0.016164673 -0.13045159 -0.062038027 0.091568045 -0.09707948
0.0030612971 0.07167455 0.14319089 0.047023363 -0.05687046 -0.014611664 0.0119730905 0.10945437
-0.119900875 -0.06432568 0.10295457 -0.09705866 0.11297299 0.112531796 0.0015944293 -0.11153153
0.12104555 0.017746193 0.10908766 -0.059886068 0.12048031 0.013598068 0.010794157 -0.0019864326
-0.0612288 -0.018361319 0.020004086 -0.083597526 0.04531694 0.025232743 -0.0252752 -0.0954212
-0.1316629 0.11737289 -0.045068555 0.052709416 0.015998421 -0.005263619 0.1004587 -0.026076334
-0.04142251 0.12600277 -0.0998212 -0.00031652636 0.095079705 0.07235036 0.12447103 -0.009045886
0.11412636 -0.011436423 0.08494957 0.10733975 -0.027547354 0.12567168 0.09489431 0.09358479
-0.03186375 0.117867574 0.047962446 -0.09314202 -0.018096132 -0.13597688 -0.0689573 -0.053450607
-0.071172796 -0.07479563 0.023404682 -0.024630705 -0.06512855 0.018529173 0.103007235 0.0501595
-0.074661784 0.09574438 0.029501569 0.048026267 -0.1071599 -0.0027524356 0.10262629 0.02856154
0.06506301 -0.12788296 -0.010866886 0.010872266 0.009350581 -0.06622885 -0.0009229139 0.06167608
0.10015309 -0.11330117 0.08072061 -0.12526268 -0.11084019 -0.002122291 0.07521735 0.088030465
-0.024153907 -0.12215197 -0.07664985 -0.08022163 -0.089559175 0.10159946 -0.032901157 0.05700609
0.02896309 0.057970975 -0.04978173 -0.08312048 -0.118438914 0.03291323 0.05154158 -0.10451624
-0.053544387 -0.006882261 -0.070715934 0.068881914 -0.09527731 -0.09808255 -0.03473417 0.08019489
-0.05829531 0.1399146 -0.08561191 0.051444497 0.022513146 -0.026601769 -0.027751835 0.0011720216
-0.09902888 0.104806334 -0.12786007 0.021134695 -0.07092226 0.12254975 0.007200267 -0.09785119
-0.03815549 0.039118975 -0.07191033 -0.083843745 -0.08250638 -0.0063352534 0.09450438 -0.11216149
-0.13516949 0.0660611 -0.07269676 -0.012773557 0.11024531 0.0702171 0.015818896 -0.005087293
-0.017152794 0.07838833 -0.09425726 -0.011446006 -0.011092757 -0.046836365 0.11374613 0.11457273
-0.13649075 -0.07942632 0.09968164 0.090283595 -0.0014633049 -0.124098465 0.03307735 -0.09677844
0.07502983 0.033793256 0.0030823383 0.10037608 -0.018472556 -0.076925166 -0.06427829 -0.1258149
0.057659056 -0.08112931 -0.07269166 -0.06630526 -0.10176821 -0.11358353 -0.05761556 0.08263003
-0.08206694 -0.06085469 -0.1015736 -0.00868917 -0.108302966 -0.06970317 0.09678602 0.04186405
0.06473173 0.021819431 -0.082647316 0.026583578 0.08659855 0.10088784 -0.04455617 0.064834185
0.07384707 -0.08698157 0.03995119 0.12769303 -0.0031860597 -0.10095171 -0.06814018 -0.0336362
0.116418816 -0.052367136 -0.096071035 0.03507629 -0.046016134 -0.016087847 0.09837905 0.008295648
0.1159038 0.06661596 -0.08797175 0.0281666 -0.013692711 -0.04500027 0.002414788 0.0429466
0.035053015 -0.0002782514 0.10827805 -0.08805712 -0.039069958 0.10160525 0.08129099 0.12882411
0.03574678 0.08745703 -0.077333376 0.058658917 -0.046055984 -0.02575599 -0.0014459664 -0.009070766

lstm_cells.0.W_hc.bias f4 [64]
00000000: 91ab 763d 3452 b6bd 6cea 6d3d 40c5 913c
00000010: aa39 e9bc a198 aa3d ec61 d5bc 7a2b b4bd
00000020: 55ea b73d afda 5a3d 34b2 e33c 33f4 bc3d
00000030: 159a cebd e89b a13b d51c ec3d 9cb8 523b
00000040: 8454 b43d 6069 d03c e525 403c 765c 6e3d
00000050: 5909 10be f311 4dbd f36b dcbc 8604 6abd
00000060: ca1d 043d 71e5 143d eb63 b2bd 1bcb dcbc
00000070: c080 6fbb 1f87 273d 5057 e3bd 48c1 3e3c
00000080: c0c2 09be 5f29 e4bd b277 463d d348 853d
00000090: cfb7 8b3d d281 41bd 9be8 c73d 8847 8c3c
000000a0: f4a8 b0bd 77a3 fb3c 4672 a03d 0c94 933a
000000b0: 1527 d53d f3fd a23d 1a66 9b3d cc9f 4e3d
000000c0: ba98 c83c 31c3 d8bd d313 813d 1a3e 953d
000000d0: 7c48 933d dc74 b23c 3656 313d f83b abbd
000000e0: 792d 9dbd 1b5f c9bd d6d9 983d 0316 833d
000000f0: 0518 75bd f6bc 873c 1d13 bdbc eb4e 303d
0.060222212 -0.08902398 0.05808489 0.017794251 -0.02846988 0.08329893 -0.02604767 -0.08797355
0.08980242 0.05343121 0.027794935 0.09226265 -0.100879826 0.0049319156 0.11528937 0.0032153493
0.088051826 0.025440872 0.011727785 0.058193646 -0.14066066 -0.050065946 -0.026906943 -0.05713322
0.03225497 0.036351625 -0.08710464 -0.026952317 -0.0036545247 0.040900346 -0.11100638 0.0116427615
-0.13453197 -0.111407034 0.048453994 0.06508031 0.06822168 -0.047242947 0.09761163 0.017123953
-0.08625975 0.030717595 0.07834296 0.0011259331 0.10407845 0.07958593 0.07587834 0.050445363
0.024486888 -0.10584105 0.06302609 0.072872356 0.0719156 0.021784239 0.043295108 -0.083610475
-0.07674689 -0.09832593 0.07463424 0.06400683 -0.05983736 0.016569596 -0.023080403 0.043044012

lstm_cells.0.W_in.weight f4 [64, 64]
00000000: 58da c3bc 38fd 8d3c 7eab b73d 28e4 583d
00000010: 7476 493d 6451 50bd 382e 2bbd a8e2 33bd
00000020: 044c dabd 70ca 3a3d 6652 89bd 38f7 98bd
00000030: 744b 023d 3406 113d 0075 a6bd 706a 9bbc
00000040: b685 fc3d e66d f7bd 54ee f63d 6c62 a6bd
00000050: 68c5 11bd ecb2 a2bd b838 eebd 5056 b43c
00000060: 3cab f6bd e8ef 043d 6477 cdbd 189b 823d
00000070: 524a a7bd b065 f0bd 6869 d6bc d87c a23c
00000080: f4c5 f83d a859 c7bd 8a63 973d 980e a6bc
00000090: bcc8 983d 2eef cebd 5c92 d0bd d078 b23c
000000a0: 966c aa3d 2aff d8bd f80e f03d e8c1 a73c
000000b0: 4aa3 cb3d 8868 dfbc 945b 243d 328f eebd
000000c0: 34ca 29bd c07c d9bd e43c 03bd 20ad 14bd
000000d0: 9010 aebc b026 673d 60fe 663d f03b 5cbd
000000e0: 1694 f7bd f492 463d 1011 dfbc b8ee 9dbc
000000f0: a25e ccbd 64b4 903d 6c34 87bd 6a80 b43d
00000100: be26 b83d cca0 233d 40f3 5a3b 40be 17bc
00000110: 16e3 cfbd 86a7 b63d d6a2 81bd c0ae 6a3d
00000120: 0e42 cabd a0f6 3b3d cee8 b6bd f86d 153d
00000130: 12b2 ac3d 2095 11bc 406c 53bc 708c d93d
00000140: b0ef 61bc d074 c4bc 9270 ea3d 8829 9ebc
00000150: dc35 a33d b840 9a3d ccb6 32bd 00dd f2bc
00000160: f807 9dbc c0d6 50bb 00ab 9bba dc94 d1bd
00000170: 0474 56bd c0f8 febb 1cbc f4bd 7e38 f93d
00000180: f4af 0fbd c0bc 1abd 80a7 a83b 7407 843d
00000190: dcaf 94bd 4066 423b 10d6 f6bd acff 853d
000001a0: 16b0 a4bd f0e7 8b3c 42a5 f73d 7c1f bd3d
000001b0: d867 49bd bc8d 753d a810 d6bd 340b fbbd
000001c0: f643 943d d8fa 07bd 64d2 cdbd 803f cd3a
000001d0: 4094 fabc 64b6 6a3d ec6a fdbd 901f 173d
000001e0: c0ae bf3c 5414 82bd 10ee d53d 009d 53bd
000001f0: c08c 55bb 9084 d13d 2011 7bbc 24af 0b3d
00000200: 328b 85bd 806e 1fbd 3c3e 1cbd ec3f 80bd
00000210: 04b6 54bd 0066 e5bd f088 0fbd e061 d53d
00000220: daf5 fc3d c647 d23d 8047 f9bc d04b 47bd
00000230: 7c19 7bbd f0d8 333d ecf1 27bd b079 89bd
00000240: 4018 de3b b4be adbd b4dc 7c3d 7ecc b4bd
00000250: c096 be3c 20a7 893d b4d8 cd3d 3cf1 b0bd
00000260: f4d5 503d 1a70 acbd 50aa 3cbc 3039 ffbd
00000270: 00b9 633c 40ed 26bb e6ac e9bd ca96 c0bd
00000280: 324a a33d 6201 9c3d 828b 88bd 86b8 8c3d
00000290: 7c64 3bbd 0c9f 3d3d f852 f53c 58be e03c
000002a0: 8647 d63d 90ef 733c a01f 5f3c 0063 a4bd
000002b0: c446 bcbd da1a b53d 8c70 79bd a294 d83d
000002c0: 9c8a fa3d 4c5d 14bd a03a 6fbc f413 a3bd
000002d0: 9044 bdbd d8e8 e0bc 80e2 a83b 5054 5cbd
000002e0: 2256 b8bd 4ef3 e93d 0871 a83c 4423 863d
000002f0: 6034 5bbd 4ecb bd3d cc3c 7cbd f418 b13d
00000300: 1c6d 3d3d 10f3 02bd ccda c63d 94f0 713d
00000310: 003c 87b9 f69e e43d 188a 94bd ca99 adbd
00000320: a0d5 cc3c 28f6 ae3c a0b6 203c ac8f 44bd
00000330: 602c b53b 0272 a7bd b876 97bc 4c7c e2bd
00000340: 5c07 d6bd c6fc abbd c0fa d6bc c0a8 5ebc
00000350: 3070 cebc 6c07 81bd 728a b23d 5833 993d
00000360: c4ba a23d b619 98bd 26f2 bfbd 54b8 303d
00000370: b62f 893d 0649 84bd 9c83 a73d e0b3 853d
00000380: 3e8d d0bd fe46 ef3d 5e83 f53d 6e16 84bd
00000390: f218 d03d fac9 e4bd 2281 823d e0fb 16bc
000003a0: e0d8 86bb 2c24 0a3d 7008 ffbc 48a4 97bd
000003b0: 48ff d53c e8b6 23bd a890 f13d 3cea 853d
000003c0: 9657 e3bd 64df f13d d051 fa3d 1062 bdbd
000003d0: 7c19 be3d c0d2 843d 84e8 f6bd 1c52 543d
000003e0: 4c0d 0f3d 041c 913d 5a30 ecbd 1c1d 433d
000003f0: e064 f4bb b8b2 83bc 707f 45bc d2e2 c53d
-0.023907825 0.017332658 0.089682564 0.05295196 0.04918523 -0.05085887 -0.041792125 -0.043917328
-0.1065903 0.045603216 -0.067051694 -0.07469028 0.03181024 0.035406306 -0.08127785 -0.018971652
0.12330191 -0.12081508 0.12057176 -0.08124241 -0.035588652 -0.07944283 -0.11631912 0.022013813
-0.12044379 0.032455355 -0.100325376 0.06377238 -0.08168472 -0.11738145 -0.026173308 0.01983492
0.121471316 -0.097338974 0.073920324 -0.02027063 0.07460162 -0.10104214 -0.10184166 0.021786124
0.083214924 -0.10595544 0.11721605 0.020478204 0.09943254 -0.027271524 0.0401264 -0.11648406
-0.0414526 -0.10619497 -0.03204049 -0.036297917 -0.021248132 0.05643338 0.056394935 -0.0537681
-0.12088792 0.04847999 -0.027229816 -0.019278869 -0.09978987 0.07065657 -0.066017956 0.088135555
0.089917645 0.03994827 0.0033409148 -0.009261668 -0.10150735 0.08918671 -0.063298866 0.05729556
-0.0987588 0.045889497 -0.08931123 0.036481827 0.08432402 -0.008885652 -0.012904227 0.106224895
-0.013790056 -0.023981482 0.11447252 -0.019306913 0.07969257 0.07531875 -0.04363136 -0.029646397
-0.019168839 -0.0031866282 -0.0011876523 -0.10233471 -0.052356735 -0.007781118 -0.119499415 0.12168978
-0.03507991 -0.037777662 0.0051469207 0.06446734 -0.07260105 0.0029662997 -0.12052548 0.06542906
-0.08041398 0.01707837 0.12092067 0.09234521 -0.0491713 0.05994962 -0.10452396 -0.12257996
0.07239525 -0.033198208 -0.100498945 0.0015659183 -0.03058827 0.057302848 -0.12373909 0.036895335
0.023398757 -0.063515335 0.104457974 -0.0516634 -0.0032585114 0.102303624 -0.015323907 0.034102574
-0.0652069 -0.03892374 -0.03814529 -0.06262192 -0.051931396 -0.112010956 -0.035042703 0.10419059
0.1235158 0.10267596 -0.030429602 -0.048656285 -0.0613036 0.04390806 -0.0410022 -0.06712663
0.006777793 -0.08483639 0.061733916 -0.08828066 0.023265243 0.0672133 0.100510985 -0.08639762
0.05098529 -0.08419819 -0.011515215 -0.124620795 0.013899088 -0.0025471002 -0.11409931 -0.09403761
0.07973136 0.07617451 -0.06667234 0.068711326 -0.045750126 0.046294257 0.02994679 0.027434513
0.10462861 0.014888659 0.01361838 -0.08026695 -0.09193185 0.08843012 -0.06089835 0.105752245
0.12233469 -0.036221787 -0.01460138 -0.0796279 -0.09241593 -0.027454779 0.005153954 -0.053791344
-0.090008035 0.1142336 0.02056171 0.06549695 -0.053516746 0.09267293 -0.061581418 0.086473376
0.046246633 -0.031970084 0.09709701 0.059067324 -0.0002579391 0.11163132 -0.07252902 -0.084765986
0.025004208 0.02135761 0.009809166 -0.04798858 0.0055289716 -0.08176042 -0.018489227 -0.11058864
-0.104506224 -0.08397822 -0.026242614 -0.013590038 -0.02519998 -0.06300244 0.087178126 0.07480496
0.07945779 -0.07426779 -0.09372358 0.04314454 0.06698553 -0.064592406 0.08179399 0.06528449
-0.1018319 0.116834626 0.11987947 -0.064495906 0.10161008 -0.111713365 0.063722864 -0.009215325
-0.004115209 0.033725902 -0.031131953 -0.07404381 0.026122704 -0.039969355 0.11795169 0.06538817
-0.1110069 0.118101865 0.12222636 -0.092472196 0.092822045 0.0648551 -0.120560676 0.051836118
0.03492479 0.07085422 -0.1153266 0.047635183 -0.0074583143 -0.01607643 -0.012054309 0.09662403

lstm_cells.0.W_in.bias f4 [64]
00000000: e8a1 bebd a2fd f2bd 0882 e63c 4229 ebbd
00000010: c83f e7bd 8427 ffbd 9eb6 d2bd 448c 533d
00000020: 247a 74bd dcdd 9bbd d8de e73d 8218 9cbd
00000030: 5ae5 ea3d a4a7 343d 10fe 223c 801f 3f3d
00000040: f80f 973d f474 f73d c09c 56bb 8cd2 47bd
00000050: 84a6 4fbd 7066 ce3c 9812 90bc 807e 24bb
00000060: b420 6b3d 48b9 f73c 3ac4 e63d 988e a0bc
00000070: 62cf acbd 842a 2f3d 1665 f3bd fc32 19bd
00000080: c08e ec3b 3803 e23d a62e bcbd 7068 f23c
00000090: 7641 c33d f8f6 ab3c 46ab d3bd a475 f6bd
000000a0: 22d8 913d e665 bfbd 1464 353d 0879 f33c
000000b0: 7c11 233d d0be 48bc 00a2 a8bb 3469 adbd
000000c0: d0a5 ae3d 6834 75bd 9067 853c 0024 e839
000000d0: f0e0 2ebd 8ced 4a3d 627e b53d 00d0 eeb8
000000e0: 9e6c be3d 80aa eebc ccbc 0b3d bcfd e3bd
000000f0: 2cc7 66bd a41a 6e3d f83a 80bc e8ea da3d
-0.09308225 -0.11864783 0.028138176 -0.11482479 -0.11291462 -0.12458709 -0.10288738 0.05164744
-0.059686795 -0.07610676 0.11321801 -0.07621862 0.114695266 0.044105187 0.0099482685 0.0466609
0.07376093 0.12082854 -0.003274724 -0.048784778 -0.05069591 0.02519533 -0.017586991 -0.0025099814
0.057404235 0.030239716 0.11267896 -0.019599244 -0.08437993 0.042765155 -0.11884515 -0.037402138
0.0072191656 0.1103577 -0.09188585 0.029590815 0.0953397 0.020991787 -0.10335402 -0.12034157
0.07121302 -0.093456075 0.044284895 0.029720798 0.039811596 -0.0122525245 -0.005146265 -0.084673315
0.0852772 -0.05986443 0.016284734 0.0004427731 -0.042694986 0.04954295 0.08861996 -0.000113874674
0.09298061 -0.029134035 0.034115598 -0.1113238 -0.05634229 0.058130875 -0.015653118 0.10689336

W_h.weight f4 [64, 64]
00000000: 39ef 3bbd 1481 84bd d4ef 50bd eb72 9fbd
00000010: c159 7c3d e0ab 9c3d 7ba7 b0bd de0f 9abd
00000020: 798b 3d3d 8011 51bd ff67 30bd af74 c83d
00000030: 01d9 90bc 06e9 973d 81de a0bc 2c51 bf3d
00000040: 0644 0bbd ad95 523d eb47 12bd d4aa 09be
00000050: 1551 8fbd c523 933b a7f8 2dbd 2cb9 d7bd
00000060: 9657 2a3d d52e d3bd 3977 07bd 3fa9 4e3d
00000070: 4ab7 d43d 272a 91bc 015c 08bd 0535 0bbe
00000080: eba1 80bd abcc d9bb 5500 d43d 2f72 bdbd
00000090: 41a5 34bd a2c0 593c a459 463d 619c 69bd
000000a0: 5a8e babd 9f84 61bd 0fe0 1f3d 75b1 ef3d
000000b0: 4180 93bd e00c 2d3d 0d2f 593d 1799 bdbd
000000c0: a3c4 94bd 0028 cc3d 74a1 f3bd 9d28 6f3d
000000d0: f07a bcbc 6a79 7bbc 6c40 e93c dee6 7cbd
000000e0: 2527 dfbd 84b3 efbd 3e54 05bd a86d 373d
000000f0: 385e 153d 5a6d 9ebd 7473 a8bd 60d6 2bbd
00000100: a529 d03d 43bc e4bd 57db 97bd 1140 88bc
00000110: d637 8d3d d232 0ebc 873f abbd ce5a 703d
00000120: 42d3 923d ee86 ac3d 7318 a3bd e585 e8bd
00000130: a83d 98bb 6888 73bd 4e66 9a3d 4ed2 78bd
00000140: 87c8 2b3b 3646 b13d 480f 45bd f6fe ce3c
00000150: d703 d9bd 2b1c 453d 771a 7dbb 1b14 0b3d
00000160: 4eb6 603d 5096 4e3d 3a86 063d 8934 bd3d
00000170: fed3 58bd 5d1b a1bc 6d46 41bd 265a b03d
00000180: f58a f33d 1339 bcbd 7510 88bc cdf1 313d
00000190: 7859 063d 2d13 bf3c 517c 513d abff b2bd
000001a0: 5672 c8bc 8726 1fbd 0f47 dbbd 9d1d 543d
000001b0: dec1 e1bd f456 6abd c912 d83c d46c d0bc
000001c0: f504 ea3d ac8f a8bd cd13 8dbd 13ac c1bd
000001d0: 1ba4 b73d cdfb bbbd 800a 6b3d 9cec 883d
000001e0: d0da d63c 0f64 553d 83bb 643d 9743 663d
000001f0: 54ec af3d c28b 60bd 28f6 f0bc 8b86 dbbc
00000200: 5574 f7bd 4137 9d3d 3155 903d 1eb0 b9bd
00000210: 8ea5 aaba efce 013d 3147 873d 29b8 193b
00000220: 50c4 5f3c 71c4 bbbd a605 2b3d b8f0 5f3d
00000230: ca08 91bd b30d c13d 1d6b 01bd e739 f73d
00000240: 3c8b c93b 1e66 a63d f712 efbd f58c 133d
00000250: e35e de3d 4707 a53d f1db cc3d fa13 65bd
00000260: 017b fdbd bade 063d a5d0 d437 d5ce 7a3d
00000270: 86c7 ab3d c4cc babc 8a61 aabd 1da9 033e
00000280: 0638 f93d 6719 933d 62da 06be 9484 aebd
00000290: eab4 9bbc 3adf b93d eeef e7bd 4f21 da3d
000002a0: 6857 fe3d 9eb2 d23d 62df cd3d db1b 78bd
000002b0: c3c1 5d3d 92f6 8ebd 4596 333d 60de 843a
000002c0: 6561 2a3d 1163 873d 07a6 afbd 2e7b ba3c
000002d0: d9ed a9bd b2f0 8bbd 0b0e 8a3d 10e3 c53c
000002e0: 7d9c 05bc 5661 cf3d 8430 bd3b 3442 d13c
000002f0: adc3 c43d 20ee e23b 8595 37bd 71f4 cc3d
00000300: a8ef 5e3d 339c 3fbd 470a c73b a9c4 86bd
00000310: 1916 823d b6a6 dabd 7ae6 e9bd 31ee aebd
00000320: 8ab4 853d 9d59 013b 3d94 133c 12d8 bdbc
00000330: 9f35 0c3e c401 f9bc 4e80 a63d ac6f 9f3d
00000340: 3b13 a33b aeb4 0a3e 51d7 8a3d a829 e03d
00000350: 6dcc f83c 5998 bebb 5314 d1bd 1234 afbd
00000360: 833e d2bd b3e5 ff3d c9cf 5abd bf15 a33c
00000370: 0534 eabd ee85 1ebd cba5 01bc 5f1b 8fbd
00000380: ec16 aa3d 073d 14bd 9a53 3fbd 60c5 cdbd
00000390: 83f0 01be 56a7 223d b4be bdbc cade 8b3c
000003a0: 128c 1dbd 6c5c 30bd 277d dc3d b32d 2d3d
000003b0: 4618 f0bc 15a3 a03d dfd8 073d 91ab a8bc
000003c0: 4227 42bd 001e 93bd 68cc 463d e65f 9dbd
000003d0: a8a1 513d 90a8 a83d 1b0e f4bd bc2a 813b
000003e0: a89d edbb 74d5 ab3c c638 8d3d 7598 d63d
000003f0: 857b 43bb cf41 a63d 50db fcbd 1df6 01bc
-0.045882437 -0.06469932 -0.051009968 -0.07785591 0.061609033 0.0764997 -0.08625694 -0.07522558
0.04627559 -0.05104208 -0.04306793 0.09787881 -0.0176816 0.074174926 -0.019637348 0.09341654
-0.03400042 0.051412273 -0.035713118 -0.13444072 -0.06997887 0.004490348 -0.04247346 -0.105333656
0.041587435 -0.10311667 -0.033072684 0.050454374 0.10386522 -0.017720295 -0.033290867 -0.13594444
-0.062808834 -0.006646713 0.10351626 -0.092502944 -0.04410291 0.013290556 0.04842533 -0.0570339
-0.09109183 -0.055058118 0.03903204 0.11703769 -0.07202197 0.042248607 0.053023387 -0.09257715
-0.07264068 0.09968567 -0.11896029 0.05838834 -0.02300784 -0.015348772 0.028473102 -0.06174361
-0.10896138 -0.11704162 -0.032551043 0.04478231 0.036466807 -0.07735701 -0.08225146 -0.04195249
0.10164193 -0.111687206 -0.07414883 -0.016632112 0.068954155 -0.008679109 -0.08361726 0.058680348
0.071692005 0.08424173 -0.07963648 -0.11353663 -0.004646022 -0.05945626 0.07539044 -0.060747437
0.0026212053 0.0865597 -0.048110276 0.02526806 -0.105964355 0.048122566 -0.003862051 0.03395472
0.05486136 0.050436318 0.032842852 0.09238536 -0.052936547 -0.019666368 -0.047186304 0.086109444
0.11891738 -0.091905735 -0.01660941 0.04344349 0.032800168 0.023324573 0.051143948 -0.08740171
-0.024468582 -0.038855102 -0.10706913 0.051786054 -0.11023305 -0.05721183 0.026376145 -0.025442518
0.11426727 -0.08230528 -0.06888542 -0.09456649 0.089668475 -0.091788866 0.05738306 0.06685755
0.026227385 0.052097376 0.055842888 0.056216802 0.08589998 -0.054820783 -0.029414251 -0.026797554
-0.120827354 0.076765545 0.07047499 -0.09066795 -0.001301931 0.031691488 0.066053756 0.0023455715
0.013657644 -0.091683276 0.041753434 0.054672927 -0.070817545 0.09426441 -0.03159629 0.12071591
0.0061506312 0.08124946 -0.11673539 0.0360231 0.10857942 0.08058029 0.10002888 -0.055927254
-0.12376977 0.032927252 2.5369527e-05 0.061232407 0.083876655 -0.022802718 -0.08319385 0.1285748
0.12168889 0.071825795 -0.13169244 -0.08521381 -0.019007165 0.0907578 -0.1132506 0.10650884
0.12419015 0.10287975 0.100523725 -0.06057344 0.054139864 -0.06980623 0.04384448 0.0010137074
0.04159679 0.06610692 -0.08576589 0.022763815 -0.08297319 -0.06833018 0.0674096 0.024156123
-0.0081549855 0.10125987 0.005773606 0.025544263 0.09607635 0.0069253594 -0.044820327 0.10007561
0.054427773 -0.046779823 0.006074223 -0.06580479 0.06351871 -0.10676329 -0.11420913 -0.08541525
0.06528576 0.0019737252 0.009007511 -0.02317432 0.1369233 -0.03039635 0.08129941 0.077849716
0.0049766577 0.13545486 0.067793496 0.10945445 0.030370915 -0.005816501 -0.10208955 -0.085548535
-0.102658294 0.124949835 -0.053420816 0.01990783 -0.11435703 -0.038701944 -0.007913063 -0.069876425
0.08305153 -0.036191013 -0.046710588 -0.10047412 -0.12689404 0.039710365 -0.023162223 0.017074008
-0.03846366 -0.04305689 0.107660584 0.04227991 -0.02930845 0.078436054 0.03316581 -0.020589622
-0.04740072 -0.071834564 0.04853478 -0.07684307 0.051179558 0.08235276 -0.11916753 0.003941862
-0.00725146 0.020975806 0.06895594 0.104782976 -0.0029828262 0.08118021 -0.12346518 -0.007932213

W_h.bias f4 [64]
00000000: d30e f7bd 63f0 f03d a303 acbd 8806 d9ba
00000010: 3d89 d2bd 5a14 d0bd 9ffd b03c d25a 743c
00000020: 26b1 68bd f2ed a43d c7d4 573d 6205 f5bd
00000030: c4c9 3abd 06b5 37bd 0cb2 d6bd 1fef 453c
00000040: 61d1 13bd 4cd7 c7bd f8fd 20bd 6ccd d2bc
00000050: aac0 1bbd ffda 3f3d 9e29 9bbd 72cd 223d
00000060: 5578 cc3d 3e0e 2fbd 9707 de3d 8861 4b3d
00000070: e9a8 533d e596 d93b 4043 c9bc f3a7 07bc
00000080: 086d a93d db05 84bd bb52 dfbd 00ef d1bd
00000090: b3f8 4ebd dc2c a7bd ae73 84bd a098 f8bd
000000a0: c27a 46bd f864 fbbc 6ce2 853d 2755 c23d
000000b0: 0405 8fbd 2724 b13d 7969 be3d 15d8 243c
000000c0: a41c cabd 165d 93bd 10b2 363d 0cbf 953c
000000d0: ecb7 71bd c504 663c 1831 c63d 9f25 b6bd
000000e0: 5f09 e83d 092f c43d 0036 e13d 4aeb 1cbd
000000f0: 0ba2 39bd 91e4 73bd 0e69 8c3c ed85 f93c
-0.12063374 0.117646 -0.08399131 -0.0016557733 -0.102800824 -0.10160132 0.021605311 0.014914231
-0.056809567 0.08053197 0.052693155 -0.11963917 -0.045602575 -0.04485037 -0.104831785 0.012080937
-0.03608835 -0.097578615 -0.039304703 -0.025732718 -0.038025536 0.04683971 -0.07576297 0.03974671
0.09983889 -0.04273819 0.108412914 0.04965356 0.051674757 0.0066403025 -0.0245682 -0.008279788
0.08272749 -0.06446429 -0.109044515 -0.10250664 -0.050530147 -0.08162853 -0.06467377 -0.12138486
-0.048456915 -0.030687794 0.06537327 0.09488898 -0.069833785 0.08649474 0.09297461 0.010061284
-0.09868744 -0.07195489 0.044603407 0.018279575 -0.059013292 0.014039223 0.09677333 -0.088938944
0.113299124 0.09579284 0.10996628 -0.038310327 -0.04532055 -0.05954415 0.017139938 0.030459369

W_g.weight f4 [64, 64]
00000000: 1385 96bd aad6 333d f9f5 e13d 4abe 3bbd
00000010: 5126 c03d 8c89 0bbc 85de f43d 63d7 bebd
00000020: 6617 67bd 96ae 753d ba74 0d3d f7cb 7e3d
00000030: 239a be3c 63b4 c93d 8568 f9bd 293d 8a3d
00000040: 814d d0bd c986 9bbd b011 143c d9b3 d2bd
00000050: 629f 04be dde4 c9bd 54cf 84bb 8aae 413d
00000060: f91a bb3d f5de ffbc 0192 bcbd bf29 91bc
00000070: 7ab1 fe3a 352c 93bd a709 9e3d 80a0 10bd
00000080: be02 463d 7508 02be 8c2b 6b3d 0d79 9fbc
00000090: 63ac cc3c 3742 3cbb 3795 d73d 836d 983d
000000a0: 7adf 2ebd 25d9 c73d 5597 e73d f17c a7bd
000000b0: 4d9e d2bc bd39 c2bd 37fc 0d3b 7951 c63d
000000c0: e118 ea3d f195 b13d 0c73 333c 7f23 923d
000000d0: daf2 563d 8963 a7bd 3511 a93d 4f5f d0bd
000000e0: cfe0 d43c 82e6 243d 23e1 f1bd d5f0 bf3d
000000f0: 45a2 9bbc 3753 a03d 9714 a0bd f159 e63d
00000100: 2a40 983d cac2 68bd cc17 b6bd 52e0 26bd
00000110: e775 023c 4677 383d 22a0 cbbd 6c11 963d
00000120: 14cb e53d b80c fb3b 3c14 e4bd 7c42 da3d
00000130: 9c14 de3d 2e3c 30bd e8a3 d0bd 7f8b 0a3d
00000140: aa15 1fbd 88e0 94bd 1a93 c7bd 9a43 1c3d
00000150: 4ef3 3b3d 7e99 2cbd a926 ff3d c258 633d
00000160: 2c4b a7bd 500d dbbd 8a6b 873d 744e 873d
00000170: 4464 d33d 3eac 783d b46f b1bd ee1e d13c
00000180: 26e8 81bd 68f2 8a3d 8998 80bd 3c32 c2bd
00000190: 8a4b 86bc 408c f83d c463 f7bd 3625 f1bd
000001a0: 103c f83d d2ce 8ebc 36d8 5c3d d603 2cbc
000001b0: cecf 1a3d ceec 203d 3e42 fc3d 1c1d adbd
000001c0: 9c60 e13d fa65 273d 80d0 b0bd 14b0 013e
000001d0: 8897 9abd 249a e0bd 58e8 e73d 3604 773d
000001e0: 3ec6 24bb f8f1 cfbd f4d5 9f3b 3e21 94bd
000001f0: 3af2 b3bd b48c c3bd e6de 193d 5095 d3bd
00000200: c186 04bc 8be9 173d bd43 c53d eb30 dcbd
00000210: c5d0 28bd 0538 a7bd 3bff a1bd 630e ab3d
00000220: 75dc ccbd 9fe7 89bd 1dfe 59bd aff1 8ebd
00000230: abea 273d 41a4 c0bd 112a 52bd 1b54 d3bd
00000240: 9f4b b2bd 79ad e03d 9308 cfbc 3dda bd3d
00000250: 8d8a f23d 29f0 b03d dae6 ffbc 49dd 4cb9
00000260: 86f6 cfbb 2592 863c b0d0 b83b 5b2a 763c
00000270: 41c7 12bc 4550 a23c b7c7 b73d 6586 5ebd
00000280: 51c1 f33d 8307 14bd 655e 90bd 07ad d7bd
00000290: ab96 ea3d 73ac fcbd 0990 76bd 132c aabd
000002a0: 5f97 833d da00 7c3c 493b 64bd ddf0 b73d
000002b0: 19fe af3d d9c3 d43d 1539 71bd 4513 65bd
000002c0: 1f03 adbd 8586 de3d 8bca fc3c b52c f13d
000002d0: f742 363d 9590 6f3d f1ce 9b3d 4f54 2e3d
000002e0: b5a5 bb3c 2de4 d03d 0b30 c93d fdc0 da3c
000002f0: ffec 623c 5d5a d93d e996 79bd bd18 9cbd
00000300: 76c3 bc3c eafb cfbd 926d e3bd ad14 7dbd
00000310: 6c96 a13d 27f6 363c e4b7 e7bd 0e79 d33d
00000320: 6604 d93d 4192 63bd 2418 84bd 6151 56bd
00000330: 2698 bdbd a657 85bd f24f c6bc 9ab4 d4bd
00000340: 4ea9 bd3d 3a45 a7bd 9919 27bd 44ad ee3d
00000350: 43d3 463d 5405 c7bd 52bb c63d b6e1 f8bd
00000360: 3e49 ea3d 5a3f ecbc 0975 6ebc b2c7 9abc
00000370: 1304 273d c99e 31bd 4e39 f0bd 62c7 963d
00000380: ae89 e6bd 5729 703d 20e5 f63d 34e1 f93d
00000390: 1195 6ebd 3421 bc3d 77d7 353c 76de e5b8
000003a0: 222c b8bc 466d afbd f68e b8bd 80d1 b5bd
000003b0: da7e aabc 8bcc b43b f05b f83c 7ae0 e33d
000003c0: 1a3c f0bd a2f2 d33d 272c 363c ce06 873d
000003d0: 82b0 a2bc ad21 56bd b239 babc 01ef 2fbd
000003e0: a093 fcbd 82ad 9e3d 9aea dcbd 7a4d 893d
000003f0: 5a73 bd3d 7e5c b8bd 0a32 8abd 8d32 aa3b
-0.07349601 0.04390589 0.11033244 -0.04583577 0.09382308 -0.00851668 0.11956505 -0.093184255
-0.0564188 0.05998095 0.034535147 0.062206235 0.023266857 0.09848859 -0.12178139 0.067499466
-0.10171033 -0.075940676 0.00903742 -0.102882095 -0.12951425 -0.09858105 -0.0040530358 0.047285594
0.09136004 -0.031234244 -0.092075355 -0.017720101 0.0019431554 -0.07186166 0.07716685 -0.035309315
0.04834246 -0.12698539 0.057414576 -0.019466901 0.024984544 -0.002872599 0.10526507 0.07442763
-0.042693593 0.09758214 0.11308161 -0.081781276 -0.02571025 -0.09483669 0.0021665224 0.096835084
0.114305265 0.08671177 0.010952722 0.071356766 0.052477695 -0.08173282 0.08255235 -0.10174429
0.025986103 0.040258892 -0.118105195 0.09372107 -0.018998275 0.07828372 -0.07816427 0.11247624
0.07434113 -0.05682639 -0.08891258 -0.040741272 0.00796268 0.045035623 -0.09942652 0.07327542
0.11220375 0.0076614283 -0.11136672 0.10657212 0.10843775 -0.04302614 -0.10187513 0.03382444
-0.03883902 -0.072693884 -0.09744854 0.038150407 0.04588633 -0.04213857 0.12458546 0.055504568
-0.08168635 -0.106958985 0.06612308 0.066067606 0.103218585 0.060711138 -0.08663884 0.025527444
-0.06343107 0.067845166 -0.06279094 -0.09482238 -0.016393442 0.121361256 -0.12079576 -0.117746755
0.12120831 -0.017432604 0.053917132 -0.010498961 0.037795834 0.039288335 0.12317322 -0.08452818
0.11004755 0.040868737 -0.08633518 0.12664825 -0.075484335 -0.109669 0.11323613 0.06030675
-0.0025142576 -0.10153574 0.0048778 -0.07232903 -0.087864354 -0.09548321 0.03756609 -0.103312135
-0.008088768 0.03708796 0.09632061 -0.10751518 -0.041214723 -0.08164982 -0.079100095 0.083523534
-0.10002986 -0.06733631 -0.053220857 -0.06979691 0.04099528 -0.09406329 -0.05130965 -0.10318776
-0.0870583 0.10970587 -0.025272643 0.09270141 0.11842833 0.08639557 -0.031238008 -0.00019537391
-0.0063465266 0.016427109 0.005640112 0.015024747 -0.008958639 0.019813666 0.089736395 -0.054327387
0.119021066 -0.036139976 -0.07049254 -0.10531049 0.11454519 -0.123375796 -0.060195956 -0.08309188
0.06425356 0.015381062 -0.0557206 0.08981488 0.08593387 0.103889175 -0.05889233 -0.05592658
-0.08447861 0.10865501 0.030858299 0.11776105 0.044497456 0.058487494 0.0760783 0.04256087
0.022906164 0.10199771 0.098236166 0.026703352 0.01385045 0.106129386 -0.060934935 -0.07621906
0.023042422 -0.10155471 -0.11104883 -0.061787296 0.07890019 0.011167086 -0.11314371 0.10325824
0.10596542 -0.0555594 -0.06449917 -0.052323703 -0.09257536 -0.06510858 -0.024208043 -0.103860095
0.09260808 -0.08167501 -0.040795896 0.116541415 0.04854132 -0.09717813 0.09703697 -0.12152426
0.11439751 -0.028838802 -0.014554271 -0.01889405 0.04077537 -0.04336432 -0.1172968 0.07362248
-0.11256729 0.058633175 0.12055421 0.12201157 -0.05824763 0.091860205 0.011098734 -0.000109610075
-0.022481982 -0.08565764 -0.09011643 -0.088778496 -0.02081244 0.0055175475 0.030317277 0.111268
-0.117302135 0.10349013 0.011118925 0.06593095 -0.019859556 -0.05227821 -0.02273259 -0.04295254
-0.12332845 0.07747938 -0.10786934 0.067042306 0.09250517 -0.090020165 -0.067478254 0.0051940144

W_g.bias f4 [64]
00000000: b3a1 823c 0bd4 c53d 3724 0f3d 867c 8dbd
00000010: 1150 c4bd b7f5 d8bc dd7a 52bb d202 e8bd
00000020: b408 a4ba 8f2b 4fbd 5f3c ed3d 00ae d2bd
00000030: 5c4c ffbd 88af c5bc f245 f33d f689 743d
00000040: e771 91bc 9b9c 64bd 3d03 a2bd 1184 5fbc
00000050: ad3c 31bc 7652 3f3c 48a7 6b3b 12fb 5ebd
00000060: c3ad 3cbd 9f34 eebd 79d5 d53d 2075 633d
00000070: 551f 283d c5f1 d33b aa11 db3d a596 823d
00000080: 8e10 1b3d 6576 b5bd 09e6 1ebd d645 93bd
00000090: 56e3 ddbd 7daa c8bc ddab 96bd 8680 8ebd
000000a0: 71eb d6bd e1a4 b5bd 2c2d 83bd 95fd b5bc
000000b0: e244 fb3b 73d1 d03d d3aa 683d d56f 323c
000000c0: 84a8 b3bd 5275 d73d 134d f0bd ec32 f5bc
000000d0: 4235 a03d 48cd 4c3d 2882 ae3c 0fde db3c
000000e0: 53e7 f5bd e90d 1f3d 19f0 5d3d 6d92 8d3d
000000f0: 35bc 013e f2ef 953c 50b1 f23d 47be debd
0.015946245 0.096595846 0.034946647 -0.069085166 -0.09585584 -0.026484353 -0.003211669 -0.11328663
-0.0012514801 -0.05057865 0.115837805 -0.10287094 -0.12465736 -0.024131551 0.118785754 0.059701882
-0.017754508 -0.055813413 -0.07910774 -0.013642327 -0.010817689 0.011677375 0.0035957862 -0.054438658
-0.04606415 -0.116311304 0.10441107 0.05553162 0.041045506 0.00646803 0.106967285 0.063763894
0.037857585 -0.088604726 -0.038793597 -0.071910545 -0.108343765 -0.024495358 -0.07356999 -0.06958108
-0.10494126 -0.08869339 -0.064051 -0.022215644 0.0076681236 0.10196199 0.056803536 0.010890921
-0.08772376 0.10520424 -0.11733451 -0.029931508 0.07822658 0.05000046 0.021302298 0.026839284
-0.12007012 0.038831625 0.054184053 0.06912694 0.12669452 0.018302891 0.11850226 -0.10876136

W_x.weight f4 [64, 1]
00000000: 9b36 31bf e16a 183f 5d35 413f 0fc7 743e
00000010: e2d3 423f d518 11bf 9e79 4fbf e939 3b3f
00000020: 1b45 6fbf f864 be3e f050 993e fead 263d
00000030: 97c2 ecbe 4d67 82be 07cc 133f 040f 17bf
00000040: 8377 df3e 42c8 853e b313 7abf ccfd 3fbf
00000050: a861 cebe f801 1fbf 7f88 183f 4976 903e
00000060: 2067 49bf b0e2 1ebf 0629 b03d 9294 493f
00000070: 37f4 6f3f 40a6 a13c 509d 633e ec1f 473f
00000080: 99f4 543e 2270 17be f24d aebe a083 6a3f
00000090: c99d f13e 4d9b f3be c8c2 6fbe 7933 173f
000000a0: 4546 36bf 58e7 403f 8d25 743f b32b c0be
000000b0: ce99 303e ad28 0cbf 4fee 6b3f b563 47bf
000000c0: b82c e63e 8c95 d1be 538a 443f 30a6 663f
000000d0: 64e1 5d3e 547a 403c f256 0b3f c079 49bc
000000e0: 7b79 173f 2756 42bf 6d11 db3e d135 f9bd
000000f0: 35b3 15bf 2c10 dc3e 43d3 f1be a7bc 1cbf
-0.69223946 0.59538084 0.7547205 0.2390406 0.7610456 -0.56678516 -0.8104495 0.7313524
-0.9346482 0.37186408 0.29944563 0.040693276 -0.4624221 -0.25469437 0.57733196 -0.5900729
0.43645868 0.26129347 -0.9768631 -0.7499664 -0.4030888 -0.6211238 0.59583277 0.28215244
-0.7867298 -0.6206465 0.086015746 0.78742325 0.9373202 0.019732594 0.22227979 0.77783084
0.20796432 -0.14788869 -0.34043843 0.91607094 0.47190693 -0.47579423 -0.23414147 0.59062916
-0.7120097 0.75353 0.953698 -0.3753334 0.17246172 -0.54749566 0.92160505 -0.77886516
0.44955993 -0.40934408 0.76773566 0.9009733 0.21668011 0.011747915 0.54429543 -0.012297094
0.5916974 -0.7591271 0.42786732 -0.12168468 -0.58476573 0.42981088 -0.47231492 -0.6122536

W_x.bias f4 [64]
00000000: 5615 b5be ea0c 023f 3da8 3b3f 51a0 5e3f
00000010: 877c 723f 4b20 073f 1c58 63bf 6d82 7cbf
00000020: a906 503f 1a55 693f 9b96 1fbf 7b2d 2bbf
00000030: 694e 24bf 4f8c 8b3e 22ec 043f 067e bfbe
00000040: 55fa 73bf 1e85 f83e 490c ac3e 5436 28bf
00000050: 9fd9 593e f15d a5bd cc9f 4a3f c2a3 673f
00000060: ab20 ed3d 3556 05bf d535 0dbf 0d71 91be
00000070: 6acb e3be 2887 f43e 1ee1 15bf 05c8 6bbf
00000080: 8545 18be ac50 3cbf e486 debe 04ae 54bf
00000090: 3667 2dbf e546 eabb d0db 393e de8f 2cbf
000000a0: f89d 31bf 44cc 873e a81a 58bf 14ae 193f
000000b0: bf39 98be e14c f03d 2db7 e03e 98c4 103f
000000c0: 468e 49bf 3282 40bf a439 753f 98f1 4e3f
000000d0: a03a 4ebf 5f4a ff3e 9a16 74bf c300 3a3e
000000e0: 71e1 afbe 438e 93be b354 04be 7273 bfbe
000000f0: 6eae 2b3f 8554 f63d 6f2d ba3e c6d5 9ebe
-0.3536784 0.50800955 0.73303586 0.86963373 0.94721264 0.5278365 -0.8880632 -0.98636514
0.8126016 0.9114548 -0.6233918 -0.6686627 -0.64182144 0.27255484 0.5192281 -0.37400836
-0.9530385 0.4853906 0.33603123 -0.657079 0.21274422 -0.080745585 0.7915008 0.9048425
0.115784965 -0.52084666 -0.55160266 -0.28406563 -0.4449113 0.47759366 -0.58546627 -0.9210208
-0.1487027 -0.73560596 -0.43462288 -0.83078027 -0.6773561 -0.0071495646 0.18150258 -0.67407024
-0.69381666 0.2652303 -0.84415674 0.6003125 -0.29731557 0.117334135 0.43889752 0.5654998
-0.7873272 -0.7519866 0.9579108 0.8083739 -0.80558205 0.49861428 -0.9534699 0.18164353
-0.34351686 -0.28819475 -0.12922935 -0.37392765 0.67063034 0.120278396 0.36362788 -0.3102247

W_1d.weight f4 [1, 64]
00000000: 91c0 be3b 4957 10bd 73ff 97bc e0d0 1bbd
00000010: 75af aabd 0097 40bd 104c a1bd 82dc 8d3c
00000020: ca17 f4bd c0fb 0bbc d067 823d 068a 0f3a
00000030: 9643 e2bd 7506 03bb a629 65bd debe 59bc
00000040: 5c95 933d 2229 9737 d18a babd 310e 9a3d
00000050: ae64 b5bd c22a 67bd 576d 65bd fe18 92bd
00000060: dcd2 22bd 2658 95bd 5159 c53d fe85 83bd
00000070: cb27 85bc 1681 bdbb a57e fab9 bc64 89bd
00000080: 3230 023a b2d8 41bd 20b5 ab3c d097 7a3d
00000090: e677 01bd 02eb d7ba c034 d23d 3e18 d0bb
000000a0: 2741 66bb 43d3 c33d d8b7 673d ed6a c439
000000b0: b193 823d 4c7b 6cbd 8f6e bc3b 45da 5dbb
000000c0: b876 93bd 3a36 273d 37a6 413d 3a82 c83b
000000d0: a889 e13b c45e 0bbd 37e0 193c 4e0b c03d
000000e0: 7ebf a3bd 0554 e9bb 1bf3 883d a3b3 a6bc
000000f0: 9c9f a2bd 4254 2e3d 239a b13d 6e2f 03bd
0.0058212955 -0.03523949 -0.018554425 -0.038040996 -0.08334247 -0.047019005 -0.07875836 0.01731706
-0.119186 -0.008543909 0.06367457 0.0005475584 -0.11048047 -0.0019992862 -0.055947922 -0.013290135
0.072062224 1.8019757e-05 -0.091085084 0.07522238 -0.08857094 -0.05643726 -0.056012478 -0.07133673
-0.039751872 -0.072922036 0.096361764 -0.06422041 -0.016254326 -0.0057832105 -0.00047778073 -0.06708667
0.0004966288 -0.047325797 0.02096039 0.061179936 -0.031608485 -0.0016473236 0.102639675 -0.006350546
-0.0035134049 0.09561779 0.05657181 0.000374637 0.06375826 -0.057734773 0.0057504843 -0.0033852023
-0.07200378 0.0408232 0.047277655 0.00611904 0.006882865 -0.034025922 0.009391836 0.09377156
-0.079955086 -0.0071206116 0.06686994 -0.02034933 -0.07940599 0.042560823 0.08671977 -0.032027654
