model_weight/best_GERMANY_model.pth (torch, 73885 bytes, 14 tensors)

lstm_cells.0.b_c f4 [64]
0	0xbc9f55fc	-0.01945018
1	0xbbc97d77	-0.00614899
2	0xbcc90ac9	-0.024541276
3	0x3c396299	0.011315011
4	0xbc537a10	-0.01290752
5	0xbc4c9adb	-0.012488092
6	0xbc628b2e	-0.013827128
7	0xbb66d237	-0.0035220513
8	0xbd156d81	-0.036481384
9	0xbc86276c	-0.01637622
10	0xbc927dc7	-0.017882241
11	0xbc7b906b	-0.015354256
12	0x39d09bfb	0.00039789066
13	0xbb5e8d01	-0.0033958557
14	0xbbb89986	-0.005633536
15	0xbb3b6ef4	-0.0028600069
16	0xbc0d5631	-0.008626507
17	0xbc491092	-0.012272017
18	0xbcda1c75	-0.026624897
19	0xbc36a350	-0.011147335
20	0x3cba3fcd	0.0227355
21	0xbcc614fb	-0.024179926
22	0xbb9ddf16	-0.0048178537
23	0xbcca42cd	-0.024690056
24	0x3bac6605	0.005261185
25	0xbcbbf6f5	-0.022944907
26	0xbc31b854	-0.01084717
27	0x3b71c283	0.003688962
28	0xbc3bb18a	-0.011455903
29	0x3ce92082	0.028457884
30	0x3b70dfa1	0.0036754387
31	0x3ca51b25	0.020154545
32	0xbcab309a	-0.020897198
33	0xbc20df13	-0.00981881
34	0xbb7b86cf	-0.0038379913
35	0x3b0955ea	0.002095575
36	0x3b92c814	0.0044794176
37	0x3c1061a9	0.0088123465
38	0xbc7f269c	-0.01557317
39	0xbc1758e5	-0.009237503
40	0x3c3cac64	0.0115157105
41	0x3c134acb	0.00899
42	0x3bb16616	0.005413781
43	0xbc07579b	-0.008260633
44	0xbd0392c7	-0.0321224
45	0x3bd54177	0.006508048
46	0x3c8a8e1f	0.016913472
47	0xbbf0adce	-0.007344938
48	0xbbdcf242	-0.0067427466
49	0xbb1e8626	-0.0024188845
50	0xbc49de44	-0.012321059
51	0xbcbf63ca	-0.023363013
52	0x3aa7a8b9	0.0012791372
53	0xbc992be2	-0.018697683
54	0x3c0c5bf7	0.008566848
55	0x3bd95c44	0.0066333134
56	0x3ba24650	0.0049522296
57	0xbd1ac7da	-0.03778825
58	0x3c397857	0.011320195
59	0x3c0e17cb	0.008672665
60	0x3c9e3406	0.019311916
61	0x3b8aa4dd	0.004231079
62	0xbb8ac932	-0.00423541
63	0xbccba2bc	-0.024857871

lstm_cells.0.W_ic.weight f4 [64, 1]
0	0xbdf88ba3	-0.121360086
1	0xbecf2c37	-0.4046342
2	0xbf1c0770	-0.6094885
3	0x3f032875	0.5123361
4	0x3e5991a6	0.21246967
5	0xbd1202ca	-0.03564719
6	0xbf02868c	-0.5098655
7	0xbe0ff57a	-0.14058486
8	0xbf29fa23	-0.66397303
9	0xbf162f94	-0.5866635
10	0xbf5725ae	-0.8404187
11	0xbee44a64	-0.44588006
12	0x3f27d815	0.6556409
13	0x3f48d5de	0.78451335
14	0xbf7acc84	-0.97968316
15	0xbc371cbd	-0.011176285
16	0x3f3e290d	0.7428139
17	0xbf325e03	-0.696747
18	0x3ef5729e	0.47939008
19	0xbca41f3c	-0.020034425
20	0x3ee8f751	0.45501187
21	0xbbf9f032	-0.0076275105
22	0xbf529ad6	-0.8226751
23	0xbf314343	-0.6924326
24	0x3f362f26	0.7116569
25	0xbf56e0c7	-0.83936733
26	0xbf44c001	-0.76855475
27	0x3efb0fea	0.4903558
28	0xbf705772	-0.9388343
29	0x3d18777b	0.03722332
30	0xbf651fec	-0.89501834
31	0xbcdeff48	-0.027221337
32	0xbf00d8fd	-0.503311
33	0x3f75fe20	0.9609089
34	0xbf759a30	-0.95938396
35	0xbf2a1e0c	-0.664521
36	0x3ed3e9af	0.41389224
37	0x3f43039b	0.76177377
38	0xbeb88b36	-0.3604371
39	0xbec9891f	-0.39362428
40	0x3f2ea348	0.682179
41	0x3f0e0b86	0.55486333
42	0xbe9c7f64	-0.3056594
43	0xbf29f989	-0.66396385
44	0xbf5d8ecf	-0.86546034
45	0xbe1fa758	-0.1559118
46	0x3e88b2e7	0.26698992
47	0xbf1df326	-0.6169914
48	0x3ed0bcfa	0.40769178
49	0xba66e52e	-0.0008807954
50	0x3eafccb2	0.34335858
51	0xbf03b54b	-0.51448506
52	0xbf4456fc	-0.7669523
53	0x3ef61e51	0.48070005
54	0x3ecfad9d	0.40562144
55	0x3e4a307d	0.1974506
56	0x3e16a6b8	0.14712036
57	0xbf60eaa3	-0.8785803
58	0x3e52b1cb	0.20575635
59	0x3f4d9f1b	0.803209
60	0x3ee23be2	0.44186312
61	0x3df0794a	0.11741884
62	0x3f4a8045	0.79101974
63	0xbf52f35c	-0.82402587

lstm_cells.0.W_ic.bias f4 [64]
0	0x3e95acde	0.2923345
1	0xbf308fc1	-0.6896935
2	0x3e01e5b5	0.12685283
3	0xbee042a4	-0.43800843
4	0x3f23b1b2	0.63943017
5	0x3f2ddef3	0.6791832
6	0x3f689300	0.90849304
7	0x3f43fcc2	0.7655755
8	0xbf107ce0	-0.56440544
9	0xbd40c9e1	-0.047067527
10	0x3f64d88a	0.8939291
11	0xbeb21dae	-0.3478827
12	0x3e4cdbfb	0.20005791
13	0x3e8f3a64	0.27974236
14	0x3d2f26e4	0.0427617
15	0x3e8573d7	0.2606494
16	0x3f285b79	0.65764576
17	0xbeb5b163	-0.35486898
18	0x3e4bb202	0.19892123
19	0x3e58b5b4	0.21163064
20	0xbe8b55d2	-0.27213913
21	0x3f26cc62	0.65155613
22	0x3d21dc02	0.039516456
23	0x3ef4185e	0.4767484
24	0x3e156bed	0.14591952
25	0xbd3581fd	-0.04431342
26	0xbeade45a	-0.3396328
27	0xbef87b02	-0.48531348
28	0xbe30ce6a	-0.1726624
29	0xbeb9565a	-0.36198694
30	0xbf6e3a0b	-0.93057317
31	0xbde421c1	-0.111392505
32	0x3f585dca	0.8451811
33	0x3f446d74	0.7672951
34	0xbed3d5a5	-0.41373935
35	0xbf6dff44	-0.9296763
36	0x3e0f07da	0.13967839
37	0xbf3f364c	-0.74692225
38	0x3f13dffb	0.5776364
39	0x3e052146	0.13000974
40	0x3ea81491	0.3282819
41	0xbe51d442	-0.20491126
42	0xbeb74dc9	-0.35801533
43	0xbc0d5899	-0.00862708
44	0x3f10a88f	0.565072
45	0xbea6b8ac	-0.32562768
46	0xbee1bf8a	-0.44091445
47	0x3f3eb448	0.7449384
48	0x3ea77a4e	0.327105
49	0x3e99e4f4	0.3005749
50	0x3f680421	0.906313
51	0xbcef2f94	-0.029197492
52	0xbf46d31d	-0.77665883
53	0x3f5a5fb8	0.85302305
54	0xbf097616	-0.5369581
55	0x3ea3d9f3	0.3200222
56	0xbef31677	-0.47478077
57	0x3f08606b	0.5327212
58	0xbf66774d	-0.9002579
59	0xbf33536b	-0.7004916
60	0xbea6193e	-0.32441133
61	0x3f3844c2	0.71979916
62	0x3ebe5051	0.37170652
63	0x3f0dd09c	0.5539644

lstm_cells.0.W_hc.weight f4 [64, 64]
0	0xbd316502	-0.04330922
1	0x3d5c6827	0.053810265
2	0xbd35ab5e	-0.04435288
3	0xbdc0e3f4	-0.094184786
4	0xbd94032d	-0.07227168
5	0xbdf5cc30	-0.12001836
6	0xbc41dd14	-0.011832494
7	0x3d210437	0.03931066
8	0x3cfa714b	0.0305716
9	0x3dabb722	0.08384539
10	0x3d858ff8	0.065216005
11	0xbd7448c1	-0.059639696
12	0xbddbb5a6	-0.10728006
13	0x3d66d754	0.056357697
14	0xbd159f54	-0.0365289
15	0x3d94a105	0.072572745
16	0x3df8df95	0.1215202
17	0xbdbb4ddf	-0.09145712
18	0xbdc54479	-0.09632201
19	0x3dc68c18	0.096946895
20	0xbdc544c7	-0.09632259
21	0x3cfa320b	0.03054144
22	0xbd8a0a39	-0.06740231
23	0xbcb20872	-0.021732543
24	0x3d9efbf7	0.07762902
25	0x3d164297	0.0366846
26	0xbd9e7f01	-0.07739068
27	0xbb21bc3e	-0.0024678851
28	0xbca33495	-0.019922534
29	0x3cb52bf8	0.022115692
30	0xbde57018	-0.11203021
31	0x3da45cf0	0.08025539
32	0x3d0a49f7	0.033761945
33	0xbcb73b09	-0.022367017
34	0x3cd25e84	0.025679834
35	0x3d6c6f07	0.05772307
36	0xbd3fda4f	-0.046839055
37	0x3d81f09e	0.06344722
38	0x3d1a0556	0.037602745
39	0xbdab346e	-0.083596095
40	0xbd890465	-0.06690291
41	0x3da97726	0.08274679
42	0xbda0456d	-0.07825742
43	0xbddcd385	-0.10782532
44	0xbc14ce81	-0.0090824375
45	0xbd28fe74	-0.04125829
46	0xbdab9393	-0.08377757
47	0xbd919c44	-0.071098834
48	0xbd2ccc2c	-0.0421869
49	0xbdbb5a37	-0.091480665
50	0x3c5d91c7	0.013523526
51	0xbded8c77	-0.11599057
52	0x3dd2ec23	0.10298946
53	0x3dae8bab	0.08522733
54	0xbc983980	-0.018582106
55	0xbdabccab	-0.08388647
56	0x3d9bd186	0.07608323
57	0x3d13b1b6	0.03605815
58	0xbcda246b	-0.026628694
59	0x3df7ab08	0.120931685
60	0xbc9a0044	-0.018798955
61	0xbd57172f	-0.052512344
62	0xbbf2e24a	-0.0074122297
63	0x3d4744b4	0.048649505
64	0xbdc00647	-0.09376197
65	0xbccff01f	-0.025383053
66	0xbdc3affe	-0.09555052
67	0x3ca16f27	0.019706322
68	0xbdaaa27d	-0.083317734
69	0xbd413796	-0.04717215
70	0x3d9e9036	0.0774235
71	0x3dcc859c	0.099864215
72	0xbdc70f9c	-0.09719774
73	0xbd1248ee	-0.035714082
74	0x3db20aa1	0.086934336
75	0x3d864c3f	0.065575115
76	0xbc53f71b	-0.0129373325
77	0x3d948c9a	0.0725338
78	0xbc5d6a43	-0.013514104
79	0x3c840856	0.016117256
80	0x3de0a56f	0.10969054
81	0xbca9bb61	-0.020719232
82	0x3c525577	0.012837759
83	0x3d000bdb	0.031261306
84	0x3d3822d2	0.044955082
85	0xbd1f4558	-0.03888449
86	0xbda3f6cf	-0.080060594
87	0x3d938eba	0.07204957
88	0x3dd384cd	0.10328064
89	0x3da86e28	0.08224136
90	0xbd8bd717	-0.068281345
91	0x3dc7dbdc	0.09758732
92	0xbd5b8b86	-0.053599857
93	0x3d34c345	0.044131536
94	0xbd5e3ac6	-0.05425527
95	0x3caed321	0.021340908
96	0x3d824d19	0.063623615
97	0x3cf88711	0.030337842
98	0x3cff9014	0.031196631
99	0xbdb55b59	-0.08855314
100	0x3dbd47e9	0.092422314
101	0x3dc0ab4f	0.094076745
102	0x3dd2c7c9	0.10292012
103	0x3cb727fd	0.022357935
104	0xbd3abada	-0.04558835
105	0x3ca7e403	0.020494467
106	0x3debdc9d	0.11516688
107	0x3ccbf740	0.024898171
108	0x3d9bdc40	0.07610369
109	0xbddafd94	-0.106928974
110	0xbdce2777	-0.10066121
111	0xbd0675d1	-0.032827202
112	0x3d973ca4	0.07384613
113	0x3d381197	0.04493865
114	0x3d3a8f2c	0.045546696
115	0x3de25e55	0.11053149
116	0xbdac45f6	-0.084117815
117	0x3ded8fd4	0.11599699
118	0xbc1003ee	-0.008789999
119	0x3d8ec4a5	0.06971101
120	0x3dfb4503	0.12269022
121	0xbdaf5516	-0.08561151
122	0xbd32eb92	-0.04368169
123	0xbd80d844	-0.062912494
124	0x3d8fb5de	0.0701711
125	0xbcba0908	-0.022709385
126	0x3dcee352	0.10101952
127	0x3db8fd5c	0.090326995
128	0xbdc64c9e	-0.09682582
129	0x3de44798	0.11146468
130	0x3d95b9b5	0.073108114
131	0xbdd20576	-0.10254948
132	0xbe0dacf2	-0.13835505
133	0x3cab8550	0.020937592
134	0x3bb6bbcc	0.0055765864
135	0x3dca6cd9	0.09884042
136	0xbdf0b976	-0.11754124
137	0x3d3b5666	0.045736693
138	0x3dc1cdda	0.09463091
139	0x3c94e28f	0.018174438
140	0xbc89c07b	-0.016815415
141	0x3de451e1	0.1114843
142	0x3c0274ae	0.007962389
143	0xbcf544f5	-0.029940108
144	0x3da8f6db	0.08250209
145	0xbd3ad00d	-0.04560857
146	0xbba2fe0d	-0.004974133
147	0xbd7e5414	-0.062091902
148	0xbd07c42a	-0.03314606
149	0xbd8e0370	-0.069342494
150	0x3c85b62f	0.016322223
151	0xbe0b9617	-0.13631473
152	0x3db685d5	0.08912245
153	0xbcf31415	-0.029672662
154	0x3ded9531	0.11600722
155	0x3da4a8ce	0.080400094
156	0x3dd7c728	0.10536033
157	0xbd290796	-0.041267
158	0xbd4561b2	-0.048188873
159	0x3c4a90d1	0.0123636285
160	0xbd476d46	-0.048688196
161	0xbcc7f89d	-0.02441054
162	0x3dc78fee	0.09744249
163	0x3d882ea7	0.06649523
164	0x3da84e35	0.08218042
165	0xbc9142b3	-0.017732
166	0x3d7761e3	0.060396086
167	0xbdfd0a56	-0.12355487
168	0x3dbb3c36	0.09142344
169	0xbcb93f24	-0.022613116
170	0xbd6e1d8d	-0.05813365
171	0xbdd98f0f	-0.106229894
172	0xbd950f4e	-0.0727831
173	0xbc77c451	-0.015122489
174	0x3df2d1e3	0.11856439
175	0x3db66ab9	0.089070745
176	0x3d8f2d38	0.06991047
177	0x3d1c7a03	0.038202297
178	0xbdc8f64e	-0.09812604
179	0xbd8f4e06	-0.06997304
180	0x3dde12e1	0.108434446
181	0xbc8e904a	-0.017402787
182	0x3e03dbf6	0.12876877
183	0x3c9669d3	0.018361008
184	0x3d866950	0.065630555
185	0xbda3c6ba	-0.079968885
186	0xbd64b67e	-0.0558381
187	0x3e0b9a88	0.13633168
188	0x3c52901c	0.012851741
189	0xbd4530ed	-0.048142362
190	0xbd285ca7	-0.041103985
191	0x3d1f7a35	0.038934905
192	0x3e03fc25	0.12889154
193	0x3b97ed31	0.0046364297
194	0x3dd3addd	0.10335896
195	0xbda9d05a	-0.08291693
196	0x3dae9615	0.085247196
197	0x3c0cf26f	0.008602723
198	0xbd8df742	-0.06931926
199	0x3d1a5e1a	0.0376874
200	0xbddfb13d	-0.109224774
201	0x3dd47902	0.10374643
202	0xbdb127be	-0.08650158
203	0x3dd85787	0.105635695
204	0x3cd794ce	0.026316073
205	0x3c31a818	0.010843299
206	0x3d6c3aee	0.057673387
207	0x3df3890e	0.118913755
208	0xbd269491	-0.040669028
209	0xbdb39463	-0.08768537
210	0x3d849e14	0.064754635
211	0xbc45ff6b	-0.012084822
212	0x3c02f8b0	0.007993862
213	0x3db5c62f	0.08875691
214	0x3dd83b91	0.105582364
215	0x3db5e6e9	0.08881933
216	0xbd9bf6c7	-0.076154284
217	0xbcfea6f3	-0.031085467
218	0x3d1285fa	0.0357723
219	0x3c046fa3	0.008083257
220	0x3de968cf	0.11396944
221	0x3dc648b6	0.09681837
222	0x3d965c38	0.07341808
223	0xbd457cb5	-0.048214633
224	0x3cf41f44	0.029800065
225	0x3c97952f	0.018503753
226	0x3dc77215	0.09738556
227	0x3d425e23	0.047453057
228	0x3dc3d1f2	0.09561528
229	0x3cc7885e	0.024357017
230	0x3e009df4	0.12560254
231	0x3d954427	0.0728839
232	0xbd96f813	-0.07371535
233	0x3dd20627	0.1025508
234	0x3d37ad74	0.044843152
235	0xbd2b77e4	-0.041862383
236	0xbdd22b95	-0.10262219
237	0x3d3d5fbc	0.046233878
238	0xbd717250	-0.058946908
239	0xbdeeb58b	-0.1165572
240	0x3cc27f9b	0.023742488
241	0xbc362fb4	-0.011119772
242	0x3d0fd841	0.035118345
243	0xbd652262	-0.055940993
244	0x3db4d7bd	0.08830211
245	0x3d0498b5	0.032372195
246	0xbdb8b6fe	-0.09019278
247	0x3d882a24	0.06648663
248	0x3d9ed381	0.07755185
249	0x3d16122e	0.03663843
250	0xbdbf6e6a	-0.09347232
251	0x3be3c379	0.0069507924
252	0xbd382519	-0.044957254
253	0x3df69c47	0.12041526
254	0xbdfb9ad0	-0.122853875
255	0x3d4bc1cd	0.04974537

lstm_cells.0.W_hc.bias f4 [64]
0	0xbda418c5	-0.08012537
1	0x3d4bf11f	0.049790498
2	0x3d0418f6	0.032250367
3	0xbd63fd03	-0.055661213
4	0xbd918b52	-0.07106651
5	0x3dd6572a	0.10465844
6	0x3dbc3b2f	0.09190976
7	0x3d4311bf	0.047624346
8	0x3d4533b1	0.048145
9	0xbe0875df	-0.13326214
10	0x3dd1d7ae	0.10246216
11	0x3cc599eb	0.024121245
12	0xbdd81759	-0.10551328
13	0x3ddc812e	0.107668266
14	0xbc0df93c	-0.008665379
15	0xbddd8149	-0.10815675
16	0xbbec1206	-0.007204297
17	0xbcda1880	-0.02662301
18	0x3da91c6d	0.08257375
19	0xbd686841	-0.05674005
20	0xbd5c5143	-0.053788435
21	0x3b26a0f6	0.002542553
22	0xbbd28935	-0.0064250478
23	0x3d292503	0.041295063
24	0x3b580afd	0.0032965534
25	0xbd26bf3b	-0.040709715
26	0x3d050ae8	0.032481104
27	0x3be5957a	0.0070063444
28	0xbd17a0c0	-0.037018538
29	0xbc3d0998	-0.011537932
30	0x3d769473	0.060200166
31	0xbd0f61be	-0.035005324
32	0x3d4224f8	0.047398537
33	0xbdc19922	-0.09453036
34	0xbc81a5ba	-0.015826095
35	0xbdeb2732	-0.11482085
36	0x3d2675e6	0.04063978
37	0xbc93aa53	-0.018025553
38	0xbddbe812	-0.10737623
39	0x3d5ea062	0.05435217
40	0x3cb5226b	0.022111138
41	0x3dcbb48a	0.099465445
42	0xbc8c9e09	-0.0171652
43	0xbd8e86ae	-0.06959282
44	0xbdaa05dd	-0.083018996
45	0xbd96ef0d	-0.07369814
46	0x3e110858	0.14163339
47	0x3cc833c2	0.024438743
48	0x3d82f342	0.06394054
49	0x3cd918ee	0.026501145
50	0x3cac810c	0.021057628
51	0xbe0f02fa	-0.13965979
52	0xbd00f63a	-0.03148482
53	0x3dccc533	0.0999855
54	0x3cf7bc01	0.030241014
55	0x3d72a7d3	0.05924208
56	0x3dedbad6	0.11607902
57	0x3d881237	0.06644099
58	0x3dc9e09c	0.09857294
59	0x3dd3c77e	0.103407845
60	0xbd8e228b	-0.06940182
61	0xbd2d6c78	-0.042339772
62	0x3da84816	0.08216874
63	0x3d14f48f	0.03636604

lstm_cells.0.W_in.weight f4 [64, 64]
0	0x3dc78cc0	0.09743643
1	0x3bb6aa00	0.005574465
2	0xbd6cddb8	-0.057828635
3	0xbdba2f02	-0.09090997
4	0xbcec1708	-0.028819576
5	0xbd96da16	-0.07365815
6	0xbc645900	-0.013937235
7	0xbda79914	-0.08183494
8	0xbd37688c	-0.044777438
9	0x3d56bb64	0.052424803
10	0x3dd8aa7a	0.10579391
11	0x3aa08480	0.0012246519
12	0xbd767be0	-0.06017673
13	0xbcdd4cd8	-0.027014181
14	0xbdb08d1c	-0.086206645
15	0x3ca31178	0.01990579
16	0x3d265e00	0.04061699
17	0x3d8802b4	0.066411406
18	0x3d641d14	0.055691794
19	0xbdadc49a	-0.084847644
20	0xbdce79de	-0.10081838
21	0x3db18506	0.0866795
22	0x3dba1b3e	0.09087227
23	0x3bf6ab80	0.0075277686
24	0x3d26d614	0.040731505
25	0xbdd0fb8a	-0.10204227
26	0x3d94bd64	0.07262686
27	0x3cf9d250	0.030495793
28	0x3d329684	0.043600574
29	0xbc398690	-0.011323586
30	0x3d658cf4	0.056042627
31	0x3d812d08	0.06307417
32	0xbca40f80	-0.020026922
33	0x3dec07ee	0.1152495
34	0xbd0d08d0	-0.034432232
35	0xbc34e870	-0.011041746
36	0x3de9f32c	0.114233345
37	0x3dbd3140	0.09237909
38	0xbdd35e42	-0.103207126
39	0xbb59a5c0	-0.0033210367
40	0xbdcd0c40	-0.10012102
41	0x3deaa55a	0.114573196
42	0x3d9d9a44	0.076954395
43	0xbd35fd90	-0.04443127
44	0x3de94c62	0.11391522
45	0xbd6133b8	-0.054980963
46	0x3d558c10	0.052135527
47	0xbb50f780	-0.0031885803
48	0xbd832f9e	-0.06405567
49	0xbdb7e35c	-0.08978912
50	0xbc3479d0	-0.0110153705
51	0xbc87a788	-0.016559377
52	0x3da41336	0.08011477
53	0xbd15eb80	-0.036601543
54	0xbd46a370	-0.04849571
55	0x3cc8eeb0	0.024527878
56	0xbd9b6f22	-0.07589556
57	0xbdaddc72	-0.08489312
58	0x3c938760	0.018008888
59	0x3dccfee4	0.10009554
60	0xbd2cd6c4	-0.042197004
61	0xbdf7772a	-0.120832756
62	0x3db94e4a	0.090481356
63	0xbdbf3e54	-0.0933806
64	0x3d45fd68	0.04833737
65	0xbdc5b8fc	-0.096544236
66	0x3c1cd130	0.009571359
67	0x3d47bf84	0.048766628
68	0x3d24faec	0.04027836
69	0xbd1eac44	-0.038738504
70	0x3db7f12c	0.08981547
71	0xbdb44250	-0.088017106
72	0x3de57384	0.112036735
73	0x3c63bd90	0.013900176
74	0xbdd1b00e	-0.10238658
75	0xbd2542b0	-0.0403468
76	0x3d89174a	0.06693895
77	0xbdaa4d8c	-0.08315572
78	0x3d0a4f58	0.033767074
79	0xbcdd30b8	-0.02700077
80	0xbde8aae2	-0.11360718
81	0x3da8b518	0.08237666
82	0xbd9ef468	-0.077614605
83	0x3df37cf0	0.11889064
84	0xbdfb43a8	-0.12268764
85	0x3dcdac7a	0.10042663
86	0x3d6f16b0	0.058371246
87	0x3dabe186	0.083926246
88	0x3d894028	0.0670169
89	0xbdb6e7d6	-0.08930938
90	0xbd0dc8a4	-0.034615174
91	0xbbde6ae0	-0.006787643
92	0xbdb98eec	-0.09060463
93	0x3dae332e	0.085058555
94	0x3bcc29e0	0.006230578
95	0x3db410d0	0.08792269
96	0x3d6daca4	0.05802597
97	0xbd931970	-0.07182586
98	0x3d0ed754	0.03487332
99	0x3dff3c3a	0.12462659
100	0xbdc76258	-0.097355545
101	0x3db38700	0.087659836
102	0x3dd5019c	0.104006976
103	0xbdbcf2a8	-0.092259705
104	0xbc9e00e0	-0.019287527
105	0xba956b80	-0.0011399835
106	0x3dfde40a	0.123970106
107	0xbda46802	-0.080276504
108	0xbd85b1f4	-0.065280825
109	0xbdcb6148	-0.09930664
110	0xbd13400c	-0.03594975
111	0x3cd61de0	0.026137292
112	0x3d491950	0.049096406
113	0xbdcdf7e2	-0.100570455
114	0x3d16da24	0.03682913
115	0xbd7683b8	-0.06018421
116	0x3d982714	0.074293286
117	0xbd94089e	-0.07228206
118	0xbd2f2644	-0.042761102
119	0x3d5b9628	0.053609997
120	0xbde83616	-0.11338441
121	0xbdee1de4	-0.11626795
122	0xbdd35104	-0.10318187
123	0x3dea4356	0.114386246
124	0xbce86fc0	-0.028373599
125	0xbdff9000	-0.12478638
126	0x3d6c4fec	0.057693407
127	0x3dec07d8	0.115249336
128	0xbddd98c6	-0.10820155
129	0x3dd08d6c	0.10183224
130	0xbdc10396	-0.09424512
131	0x3bb382c0	0.005478233
132	0x3dac89f4	0.0842475
133	0xbd0595a0	-0.032613397
134	0xbd9491c8	-0.07254368
135	0xbd0faf68	-0.03507939
136	0x3df335fe	0.118755326
137	0x3d9544fe	0.0728855
138	0xbdca85c2	-0.098887935
139	0x3cf819e0	0.030285776
140	0x3d04a870	0.032387197
141	0xbd86d732	-0.06584014
142	0xbdfb7b5e	-0.1227939
143	0xbd3b4d8c	-0.04572825
144	0x3d6dc388	0.0580478
145	0xbd9f8884	-0.0778971
146	0x3cb44700	0.022006512
147	0xbbca7ec0	-0.0061796606
148	0xbce91c10	-0.028455764
149	0xbafb8e00	-0.00191921
150	0x3d16a6ec	0.036780283
151	0x3d9afedc	0.07568142
152	0xbdcd2f48	-0.10018784
153	0x3dee9f3a	0.11651464
154	0xbc7b8310	-0.015351072
155	0xbd3d9d18	-0.046292394
156	0xbd6f9be0	-0.058498263
157	0x3d9b6570	0.07587707
158	0x3ca517f0	0.020153016
159	0xbb5cc300	-0.0033685565
160	0x3d93ba3e	0.07213257
161	0xbda5ba30	-0.08092153
162	0x3d4f183c	0.05056022
163	0xbd71f358	-0.05906996
164	0xbdbe70fe	-0.09298895
165	0xbd1c1ad8	-0.038111538
166	0xbc48e4a0	-0.01226154
167	0x3dc24eea	0.09487708
168	0x3ccdb738	0.02511178
169	0x3d14aa88	0.036295444
170	0x3dc1a6de	0.094556555
171	0x3ddc70da	0.10763712
172	0xbd7564a0	-0.059910417
173	0xbd361c1c	-0.0444604
174	0xbd84c25a	-0.06482382
175	0xbd4ceb5c	-0.050029144
176	0xbd6bd8e4	-0.05757989
177	0x3da215be	0.07914303
178	0x3dc61930	0.09672773
179	0x3da7478c	0.08167943
180	0xbda0024e	-0.078129396
181	0xbb8ed1a0	-0.0043584853
182	0xbd3a7958	-0.04552588
183	0x3db968d6	0.09053199
184	0xbc96b978	-0.018398985
185	0xbd925620	-0.07145333
186	0xbb26edc0	-0.00254713
187	0x3d4f9b04	0.050684944
188	0x3ae40380	0.0017396063
189	0xbcc700b8	-0.024292335
190	0xbd86a7e2	-0.0657499
191	0xbda2df4a	-0.07952745
192	0x3da87e5a	0.08227225
193	0xbd058b14	-0.03260334
194	0x3cbe3c38	0.023222074
195	0xbd6a1b34	-0.05715485
196	0xbdd2af30	-0.102873206
197	0xbdb75730	-0.089521766
198	0x3deb27d6	0.114822075
199	0xbc4ab8d0	-0.012373164
200	0x3dc88d22	0.09792544
201	0xbdfd05d4	-0.12354627
202	0xbd43f588	-0.04784158
203	0x3b6bed00	0.0035999417
204	0x3cf76900	0.030201435
205	0x3d1d8090	0.038452685
206	0x3d97f15e	0.07419084
207	0x3dba0a3e	0.09083985
208	0x3dc562ca	0.09637983
209	0x3dd0ea70	0.102009654
210	0xbdd6a1c2	-0.104800716
211	0x3d8935ba	0.06699701
212	0x3d72a3a8	0.059238106
213	0xbd62f490	-0.055409014
214	0xbdc379f6	-0.095447466
215	0x3dcfd566	0.101481244
216	0xbd8759b4	-0.066089064
217	0xbc4b1f30	-0.012397572
218	0xbdefb1a2	-0.11703803
219	0xbd7f67d8	-0.062354892
220	0xbd943f14	-0.07238594
221	0x3cb6b6b0	0.022303909
222	0x3dc41b48	0.09575516
223	0xbd2d28cc	-0.042275235
224	0xbde79ad8	-0.11308831
225	0xbb158400	-0.0022814274
226	0x3cdc1308	0.026864544
227	0x3df950ea	0.12173636
228	0x3db6818e	0.08911429
229	0xbd6d38b0	-0.05791539
230	0x3b931580	0.004488647
231	0xbc722450	-0.014779165
232	0x3d654b94	0.05598028
233	0x3d8cb7ca	0.068709925
234	0xbcfda030	-0.030960172
235	0xbd82135c	-0.06351349
236	0xbde5c294	-0.112187535
237	0x3da563ba	0.08075662
238	0xbdb8409c	-0.08996698
239	0x3de1d842	0.11027576
240	0xbd1724e4	-0.036900416
241	0x3da23d28	0.07921821
242	0x3df106bc	0.117688626
243	0x3be0f940	0.0068656504
244	0xbb60a6c0	-0.0034279078
245	0x3dafb802	0.085800186
246	0xbd74b128	-0.059739262
247	0x3dbf8a42	0.093525425
248	0xbd442a70	-0.047892034
249	0xbd38b2ac	-0.04509227
250	0x3d1725dc	0.03690134
251	0xbd67cf04	-0.05659391
252	0xba84d000	-0.001013279
253	0xbcde1d60	-0.027113616
254	0x3df35412	0.118812695
255	0x3c256180	0.010094047

lstm_cells.0.W_in.bias f4 [64]
0	0xbda887cc	-0.08229026
1	0xbd28a338	-0.041171283
2	0x3de1a52a	0.11017831
3	0xbd925722	-0.071455255
4	0xbc8cbc38	-0.017179593
5	0x3ce08478	0.027406916
6	0x3dc176a4	0.09446457
7	0xbc7ec8b0	-0.015550777
8	0x3bf62f60	0.0075129718
9	0x3c8fa9c8	0.017537013
10	0xbdffe816	-0.12495439
11	0x3d711f48	0.058867723
12	0xbd9668da	-0.073442176
13	0x3c7d21b0	0.015449926
14	0xbdff35f6	-0.12461464
15	0xbdfacc6e	-0.12246023
16	0x3ca954d0	0.020670325
17	0xbd0d27a8	-0.034461647
18	0x3c4c6ab0	0.012476608
19	0x3cf3f908	0.029781833
20	0xbc9d49f0	-0.019200295
21	0xbd00ab24	-0.031413212
22	0x3bee9540	0.0072809756
23	0xbdcc2fbe	-0.099700436
24	0x3dd31b44	0.10307935
25	0x3cd347d0	0.025791079
26	0xbdc0b38e	-0.09409247
27	0xbdee1dc8	-0.11626774
28	0xbbcf08c0	-0.0063181818
29	0x3d9836d6	0.07432334
30	0x3d9f539c	0.07779619
31	0x3cc5c1a8	0.024140194
32	0xbc8d9d20	-0.017286837
33	0x3dc16434	0.0944294
34	0xbde010f0	-0.109407306
35	0xbd95e840	-0.07319689
36	0x3c2aa480	0.010415196
37	0xbdb6bd20	-0.089227915
38	0x3d05f470	0.032703817
39	0x3de264ce	0.11054383
40	0x3c4bf200	0.012447834
41	0x3d582528	0.05276981
42	0xbbce3240	-0.0062926114
43	0x3dc9916a	0.09842189
44	0x3cefa7a8	0.02925475
45	0xbde94778	-0.11390585
46	0x3b561d80	0.0032671392
47	0x3aa8c080	0.0012874752
48	0x3cb4f010	0.022087127
49	0xbda62f3e	-0.081144795
50	0x3cad4f98	0.021156117
51	0xbd9fac5e	-0.07796548
52	0x3dd0f70e	0.10203372
53	0x3d3a936c	0.04555075
54	0x3ddc10ec	0.10745415
55	0xbd1b022c	-0.037843868
56	0xbdeb4506	-0.114877746
57	0x3b5cc4c0	0.0033686608
58	0xbb359900	-0.0027709603
59	0xbdfff41a	-0.124977306
60	0xbd070dc0	-0.032972097
61	0x3de34094	0.11096302
62	0x3dd318ec	0.10307488
63	0xbcd93138	-0.026512727

W_h.weight f4 [64, 64]
0	0xba9ecbf8	-0.0012115231
1	0x3b299904	0.0025878558
2	0xbcb776f3	-0.022395587
3	0xbcdc1c54	-0.026868977
4	0xbdd10467	-0.10205918
5	0xbc9b9f31	-0.018996807
6	0x3d69c77b	0.057075005
7	0x3a3234c0	0.00067980215
8	0xbd753e00	-0.05987358
9	0xbdd381fd	-0.10327528
10	0x3cbdb911	0.023159536
11	0xbdda9163	-0.106722616
12	0xbd68526d	-0.056719232
13	0xbdbd80dc	-0.092530936
14	0x3df11d9d	0.117732264
15	0xbc0f39c9	-0.008741804
16	0x3d9925ea	0.07477935
17	0xbe0001b1	-0.12500645
18	0x3db54144	0.08850339
19	0xbdbd584e	-0.092453584
20	0xbbf5f671	-0.0075061847
21	0x3d81321a	0.06308384
22	0xbd028b16	-0.031870924
23	0xbde70f1a	-0.11282177
24	0x3d71c46e	0.05902522
25	0x3db8ac51	0.09017242
26	0xbdb42f2f	-0.08798062
27	0xbda8370c	-0.08213624
28	0x3db8a1b1	0.09015215
29	0xbd5e44d7	-0.05426487
30	0xbd7c9443	-0.06166483
31	0xbbe091d5	-0.006853322
32	0x3d0dd51c	0.034627065
33	0xbd3300f3	-0.043702077
34	0xbd348736	-0.04407426
35	0x3dfc1f2e	0.123106346
36	0x3c329bc4	0.010901395
37	0x3d929237	0.071567945
38	0xbcfe6d6e	-0.03105804
39	0x3d467863	0.048454653
40	0xbe01e735	-0.12685855
41	0xbd972090	-0.07379258
42	0xbda28a8c	-0.07936582
43	0xbdf19ba2	-0.11797263
44	0xbc9ba792	-0.019000802
45	0x3df5e2d9	0.120061584
46	0x3db3337a	0.08750053
47	0xbd52b303	-0.05144025
48	0xbdd15b3f	-0.10222482
49	0xbdab8b70	-0.08376205
50	0x3c1ec840	0.009691298
51	0xbdd87e60	-0.10570979
52	0x3da8cd33	0.08242264
53	0x3d60747e	0.054798596
54	0xbdba3dbe	-0.09093808
55	0xbd9ec640	-0.07752657
56	0x3df9c146	0.12195067
57	0xbd8c00c1	-0.06836081
58	0x3dbc211a	0.09186001
59	0x3cd1b2b9	0.025597917
60	0x3d42384a	0.047416963
61	0xbd854d9d	-0.06508944
62	0x3de22e9a	0.11044045
63	0x3d080db0	0.03321618
64	0xbdbdb9ca	-0.09263952
65	0xbb97e36c	-0.004635265
66	0xbdb1d4aa	-0.086831406
67	0x3db482e0	0.08814025
68	0x3dc1e144	0.09466794
69	0x3d26dcab	0.04073779
70	0xbd57614a	-0.052583016
71	0xbdb666b2	-0.08906306
72	0x3c7ed9c7	0.015554852
73	0x3c87a115	0.016556302
74	0xbd8234aa	-0.06357701
75	0x3da2ba45	0.07945684
76	0x3d47f1b1	0.04881448
77	0x3df259c5	0.118335284
78	0xbda4573c	-0.08024451
79	0xbdd00262	-0.101567045
80	0xbc86e3b5	-0.016466001
81	0xbdee6cd9	-0.11641855
82	0x3c613f17	0.013747952
83	0xbd212fa1	-0.039352063
84	0x3d235cc8	0.039883405
85	0x3de57209	0.11203391
86	0x3d5762fb	0.05258463
87	0x3dc8084f	0.0976721
88	0xbdcc547f	-0.09977054
89	0x3c75bbd1	0.014998392
90	0xbc9a9044	-0.01886762
91	0xbdbcb82b	-0.09214815
92	0x3d981907	0.074266486
93	0x3d4fe916	0.050759397
94	0xbdbbb39e	-0.09165119
95	0xbdd6de6b	-0.104916416
96	0x3dab7c83	0.08373358
97	0x3dc26295	0.09491459
98	0xbd90b457	-0.07065647
99	0x3c3747db	0.011186565
100	0x3d4fcc07	0.050731685
101	0xbdefaa60	-0.11702418
102	0xbd19b87b	-0.03752945
103	0xbd7bfca5	-0.061520237
104	0x3c13ac6c	0.009013277
105	0x3c864a78	0.016392931
106	0x3daaafbc	0.083343
107	0xbda4181b	-0.0801241
108	0xbd8782a3	-0.06616714
109	0x3d860692	0.06544222
110	0xbd44e865	-0.04807319
111	0x3e03abb0	0.12858462
112	0xbdf695c9	-0.12040288
113	0x3dab3bd5	0.083610214
114	0xbd95aebf	-0.07308721
115	0x3c1108b6	0.0088521745
116	0xbb082650	-0.002077479
117	0xbb0abb61	-0.0021168815
118	0x3ce18b6c	0.027532302
119	0x3dd97cc0	0.10619497
120	0xbdc5f7fd	-0.09666441
121	0x3dd5f5a5	0.104472436
122	0x3df37247	0.11887031
123	0xbaa607fc	-0.0012667174
124	0xbd6bc4c7	-0.05756071
125	0xbdcce17d	-0.10003946
126	0xbd8a87a5	-0.067641534
127	0xbdc29c26	-0.09502439
128	0x3d6f1b34	0.058375552
129	0xbdf1b60b	-0.118023
130	0x3d347299	0.0440546
131	0xbde2b9b0	-0.11070573
132	0x3dd433f1	0.103614695
133	0x3d8457fc	0.06462094
134	0xbd426dc1	-0.04746795
135	0x3c72c7a7	0.014818109
136	0xbd0de3aa	-0.034640945
137	0xbd28b71f	-0.041190263
138	0xbdecc523	-0.11561038
139	0xbd00f620	-0.031484723
140	0xbdf71c31	-0.12065924
141	0x3db24eff	0.087064736
142	0xbd9bad08	-0.076013625
143	0xbd13b830	-0.036064327
144	0xbdec5dcd	-0.115413286
145	0xbb1873fe	-0.0023262496
146	0x3db66efa	0.08907886
147	0x3c752008	0.01496125
148	0xbda5609e	-0.08075069
149	0x3de310bd	0.11087177
150	0x3cf16f2c	0.029471956
151	0x3dc01a65	0.09380034
152	0xbcad2a33	-0.021138286
153	0x3c044425	0.008072888
154	0x3d1614a3	0.036640774
155	0xbc8c1943	-0.01710189
156	0xbd2f15d0	-0.04274541
157	0xbd21775f	-0.03942048
158	0x3d53bb4e	0.0516923
159	0x3d87eb2a	0.06636651
160	0x3dc6a697	0.09699743
161	0xbc318cd0	-0.010836795
162	0x3dce02b6	0.10059111
163	0xbddfe2cb	-0.10931929
164	0xbdc99b05	-0.09844021
165	0xbdb5e107	-0.08880811
166	0xbccf36dc	-0.025294714
167	0x3de3bee0	0.11120391
168	0x3db268bb	0.08711382
169	0xbb274986	-0.0025526
170	0x3d85a634	0.06525841
171	0x3df52e09	0.11971671
172	0x3d78acc7	0.06071165
173	0xbd99b6a7	-0.07505541
174	0xbd586ba0	-0.052837014
175	0xbd03b382	-0.032153614
176	0x3d055cf4	0.03255935
177	0x3dbc3b50	0.091910005
178	0x3cbe549e	0.023233708
179	0x3ddad9d5	0.106860794
180	0x3d3a00d9	0.045410965
181	0xbd76d5f1	-0.060262624
182	0x3c836d72	0.016043399
183	0xbdd82b24	-0.105551034
184	0x3df86e62	0.12130429
185	0x3df5ce75	0.12002269
186	0xbce83dba	-0.028349746
187	0xbda881b6	-0.082278654
188	0x3d8598e0	0.06523299
189	0xbdd84096	-0.10559194
190	0x3b96b308	0.004598979
191	0x3de20806	0.110366866
192	0xbda32721	-0.079664476
193	0xbd62c2f5	-0.055361707
194	0xbcdf7922	-0.02727944
195	0x3cd7494c	0.026280068
196	0xbd87d50b	-0.066324316
197	0x3db89bcc	0.09014091
198	0x3d8a1db9	0.067439504
199	0x3dc37344	0.095434695
200	0x3b383ff5	0.0028114293
201	0xbde90b77	-0.1137914
202	0xbc899ea3	-0.016799277
203	0xbd183339	-0.037158225
204	0x3df417b4	0.119185835
205	0x3d481265	0.048845667
206	0xbd63b52b	-0.055592697
207	0x3db8a9d9	0.09016771
208	0xbe083361	-0.1330085
209	0xbde7ffe7	-0.113281064
210	0xbc8ee015	-0.017440835
211	0xbdccc39e	-0.099982485
212	0x3c46ddaf	0.012137814
213	0x3dfa336d	0.1221684
214	0xbd5b9b28	-0.053614765
215	0xbdd1a29d	-0.10236094
216	0x3dce32b8	0.100682676
217	0xbdda8446	-0.106697604
218	0x3dcb8c79	0.099389024
219	0xbbbc433c	-0.0057453196
220	0xbdb91da6	-0.09038858
221	0xbbb4e889	-0.0055208844
222	0x3cbc3952	0.022976551
223	0x3d293b2d	0.0413162
224	0xbd08be1b	-0.033384424
225	0xbcd3b623	-0.025843685
226	0x3d199acd	0.037501145
227	0x3c903b0b	0.017606279
228	0xbda04629	-0.07825882
229	0x3c12bd64	0.008956287
230	0x3bd3a07a	0.0064583393
231	0xbc967aa7	-0.018369032
232	0xb9609703	-0.00021418561
233	0xbdcbb51e	-0.09946655
234	0x3d1f80be	0.038941137
235	0x3b9c456b	0.0047690175
236	0x3d585f68	0.05282536
237	0x3d9812f1	0.07425488
238	0xbd493850	-0.04912597
239	0x3d87cac9	0.06630475
240	0x3cae0877	0.02124427
241	0xbdd43d58	-0.10363263
242	0xbde1b84f	-0.11021482
243	0x3d34ed6a	0.04417173
244	0x3daedeb6	0.085385725
245	0xbd624068	-0.055237204
246	0xbd5ed7c1	-0.054404978
247	0xbcbcd912	-0.023052726
248	0xbda1e1ad	-0.07904372
249	0xbc0c1969	-0.00855098
250	0xbc13ccb6	-0.009020975
251	0x3d3eaaec	0.046549723
252	0x3dd9a611	0.10627378
253	0x3d51834b	0.0511506
254	0xbd4ca7b3	-0.049964618
255	0xbd8ab9c0	-0.0677371

W_h.bias f4 [64]
0	0xbdaade10	-0.08343136
1	0xbcc260ca	-0.023727793
2	0x3d9f7b31	0.07787169
3	0xbd974ed9	-0.07388086
4	0x3df64972	0.12025727
5	0x3cb8dbc8	0.022565737
6	0x3c9deac0	0.019276977
7	0xbcccef00	-0.025016308
8	0xbcfce198	-0.03086929
9	0xbc28f0aa	-0.010311285
10	0x3cd204fc	0.025637142
11	0xbd9ff464	-0.07810286
12	0xbd93b8d1	-0.07212985
13	0xbd1ab4ca	-0.03777007
14	0x3d24d236	0.040239535
15	0x3b1f8ee3	0.0024346642
16	0x3d9013bd	0.07035015
17	0x3bc9f800	0.006163597
18	0xbc90c05f	-0.017669855
19	0x3dfbf939	0.12303395
20	0xbbec01b3	-0.007202351
21	0x3dd1cead	0.102444984
22	0xbc1a1276	-0.0094038155
23	0xbe03a3f5	-0.12855513
24	0x3dd4d40d	0.10392008
25	0xbdec3804	-0.11534122
26	0xbdb7c840	-0.089737415
27	0x3c236f77	0.009975306
28	0xbca33c73	-0.019926285
29	0xbda9e988	-0.08296496
30	0xbd4d6c2a	-0.05015198
31	0x3d00ae1b	0.03141604
32	0x3d8bd788	0.06828219
33	0xbdc5e4ff	-0.09662818
34	0x3d354f66	0.044265173
35	0xbdac710b	-0.08419999
36	0x3bb43ef7	0.00550067
37	0x3e01ab30	0.12662959
38	0xbd066f63	-0.03282107
39	0xbd92eedd	-0.07174466
40	0xbd5201e6	-0.05127134
41	0xbd7acab6	-0.061228476
42	0xbdeef2e4	-0.116674215
43	0xbdd4f990	-0.10399163
44	0xbcceebce	-0.025258925
45	0x3d39f72c	0.045401737
46	0xbd4d5413	-0.050129008
47	0xbdf72431	-0.1206745
48	0xbb5b6540	-0.0033477098
49	0x3da3de19	0.08001346
50	0xbc890666	-0.016726684
51	0xbcedb7be	-0.02901828
52	0x3dda0926	0.10646276
53	0x3d0d14c9	0.03444365
54	0xbadf726c	-0.001704765
55	0x3dd2165c	0.10258171
56	0x3ca96eae	0.020682659
57	0x3d69850a	0.05701164
58	0x3d93fe3b	0.07226225
59	0xbc88ae00	-0.016684532
60	0xbda9c1d1	-0.08288921
61	0x3ca0a792	0.019611154
62	0xbce2e839	-0.027698623
63	0x3d979bdc	0.07402775

W_g.weight f4 [64, 64]
0	0xbd712ddb	-0.05888162
1	0x3c2ba499	0.010476255
2	0xbda7075a	-0.08155699
3	0x3b8b7f5d	0.0042571262
4	0xbd485053	-0.04890473
5	0xbdd2ab1c	-0.10286543
6	0xbd5cbf13	-0.05389316
7	0xbc3a5645	-0.011373107
8	0x3da3b596	0.07993619
9	0x3ac90cbf	0.0015338882
10	0xbe01cb2d	-0.12675162
11	0x3cf6ab33	0.030110931
12	0xbde250c6	-0.110505626
13	0x3c7411ee	0.014896853
14	0xbdede952	-0.11616768
15	0x3da9962e	0.082805976
16	0x3d3ee3b5	0.046603877
17	0xbe0939ed	-0.13401003
18	0x3ce26813	0.027637517
19	0x3d917f80	0.07104397
20	0xbdab41e2	-0.083621755
21	0xbdf647dc	-0.12025425
22	0x3d874ffa	0.06607051
23	0xbdc37a94	-0.09544864
24	0x3dab711e	0.08371185
25	0xbd988ccf	-0.07448732
26	0x3dbde2e4	0.092717916
27	0xbcc01fa1	-0.023452582
28	0xbd7bd25b	-0.061479907
29	0xbdef504a	-0.11685236
30	0xbd876e0d	-0.066127874
31	0x3dc75d9e	0.09734653
32	0xbd5ae403	-0.053440105
33	0xbd928448	-0.07154137
34	0xbcd25c11	-0.025678666
35	0xbdb82e22	-0.08993174
36	0xbca3a071	-0.019973965
37	0x3d708da4	0.05872883
38	0x3d2b95a9	0.041890774
39	0x3d661c45	0.056179304
40	0x3db6541c	0.08902761
41	0x3dc18eca	0.09451063
42	0x3ddd0bc4	0.1079326
43	0x3d9927a4	0.07478264
44	0x3dd47624	0.10374096
45	0x3d73a7ed	0.05948632
46	0xbc58d405	-0.013234143
47	0x3d3c2425	0.045932908
48	0x3c1ee5d9	0.009698355
49	0x3ddf2f2a	0.10897668
50	0xbdbafbf6	-0.09130089
51	0x3d48c08d	0.049011756
52	0xbb5b3ad7	-0.003345182
53	0x3ca60217	0.020264668
54	0xbd563d37	-0.052304473
55	0x3d1d68a5	0.038429875
56	0x3ddf646e	0.10907827
57	0x3c2da9fb	0.0105996085
58	0xbbdfeadd	-0.006833418
59	0x3d5721b8	0.05252239
60	0xbafb2ebd	-0.0019163709
61	0x3ca2600f	0.019821195
62	0xbd92f1f7	-0.071750574
63	0x3d3331e9	0.04374877
64	0x3dc7eff5	0.09762565
65	0xbdf501cb	-0.119632326
66	0x3daa6779	0.08320517
67	0xbc98cc62	-0.018652145
68	0x3d54240a	0.051792182
69	0xbd6f5b6a	-0.05843679
70	0xbd899b83	-0.06719115
71	0xbc506064	-0.012718294
72	0xbb5ced9d	-0.0033710964
73	0x3d87f4e7	0.06638508
74	0xbad62eab	-0.0016340812
75	0x3db9a74b	0.09065112
76	0x3dc4e107	0.09613233
77	0xbddc3d87	-0.10753923
78	0x3c386e5a	0.011256779
79	0x3d6ee07a	0.058319546
80	0x3c6425fa	0.01392507
81	0xbd3a6e42	-0.045515306
82	0x3deca591	0.11555017
83	0xbd8e21bd	-0.06940029
84	0xbce65fea	-0.028121907
85	0xbd04aa0a	-0.032388724
86	0xbdf5783b	-0.11985823
87	0x3d2e82fe	0.042605393
88	0x3df7ec97	0.12105673
89	0x3dbbbdf1	0.09167088
90	0x3d251a8a	0.040308513
91	0x3d8a9cc9	0.06768186
92	0x3d3963da	0.04526124
93	0x3da0e0a3	0.07855346
94	0x3cf649a6	0.030064415
95	0x3dd992d7	0.106237106
96	0xbd79d908	-0.060997993
97	0xbd2a00f6	-0.041504823
98	0xbd031096	-0.03199824
99	0xbd1d927a	-0.03846977
100	0x3db8911f	0.09012055
101	0xbdd29645	-0.10282568
102	0xbd8f1e1d	-0.069881655
103	0x3dd8951f	0.105753176
104	0x3d11083a	0.035408236
105	0xbdb9643b	-0.090523206
106	0xbdbae44d	-0.09125576
107	0xbca91282	-0.020638708
108	0xbc4f40c6	-0.012649721
109	0x3d5505d6	0.05200752
110	0x3c6c375a	0.014417494
111	0xbdb90607	-0.09034353
112	0x3c975674	0.018473841
113	0x3c60448a	0.013688216
114	0xbcf9c348	-0.030488625
115	0x3dd29793	0.10282817
116	0x3c7093aa	0.014683643
117	0x3c8fa0d8	0.017532751
118	0x3d5e4286	0.05426266
119	0x3bba167b	0.0056789494
120	0x3e038d56	0.12846884
121	0xbc036726	-0.008020198
122	0x3d0c41cc	0.034242436
123	0xbcdc6d9a	-0.02690773
124	0xbdb82cb9	-0.08992905
125	0xbdcc7a81	-0.09984303
126	0x3a7e6b9b	0.00097053655
127	0x3de362ef	0.111028545
128	0x3db990ae	0.090607986
129	0xbdcd421c	-0.10022375
130	0x3dc3f1bc	0.095675915
131	0x3c062fbd	0.008190093
132	0x3dd34cd8	0.10317391
133	0xbdf11bbc	-0.11772868
134	0x3bbb16dd	0.0057095126
135	0xbd4cf66e	-0.0500397
136	0xbdb94e66	-0.090481564
137	0x3d7ca27e	0.061678402
138	0x3d443746	0.047904275
139	0xbdc1158c	-0.09427938
140	0xbda313b4	-0.079627424
141	0x3d9e7426	0.07736997
142	0xbdb149d4	-0.0865666
143	0xbae385b2	-0.001735857
144	0x3d11797a	0.03551624
145	0xbd4b9222	-0.04969991
146	0xbd4a770a	-0.04942993
147	0x3df7ad7a	0.12093635
148	0x3db2c758	0.08729428
149	0xbac7d428	-0.0015245723
150	0x3dec6594	0.11542812
151	0x3d53bdb2	0.05169458
152	0xbc45d003	-0.01207352
153	0xbd927c84	-0.07152656
154	0xbdedabea	-0.11605056
155	0xbc5d1c83	-0.013495567
156	0x3b2e0cac	0.0026557846
157	0x3d9ec082	0.07751562
158	0x3d5d2da2	0.053998597
159	0x3dfa10b2	0.12210216
160	0xbd94418e	-0.07239066
161	0xbd8c7248	-0.06857735
162	0x3dbf2ffa	0.09335323
163	0xbbf62d45	-0.007512721
164	0xbdb041f4	-0.086063296
165	0xbd20e9be	-0.039285414
166	0xbde91ff4	-0.11383048
167	0x3dae0556	0.084971115
168	0x3db3e7a8	0.08784419
169	0x3c84da68	0.016217425
170	0x3ddd37b4	0.1080164
171	0xbdbfc336	-0.093634054
172	0x3db58f00	0.08865166
173	0x3dd8b014	0.10580459
174	0x3c9a298c	0.01881864
175	0xbd5d5b72	-0.054042287
176	0xbd25afa2	-0.0404507
177	0x3c6b72bd	0.014370617
178	0x3cb96b64	0.022634216
179	0x3dfe7ec1	0.1242652
180	0xbdc1107e	-0.09426974
181	0x3c52f42d	0.012875599
182	0xbd1baa5a	-0.038004257
183	0xbd714c9e	-0.05891096
184	0xbda65160	-0.0812099
185	0x3d2bab2a	0.04191128
186	0xbd0887a2	-0.033332475
187	0xbd47c45e	-0.048771255
188	0x3d99c820	0.07508874
189	0xbca3d91c	-0.020000987
190	0x3c95bcc4	0.018278487
191	0xbd3605f2	-0.044439264
192	0xbc2d7279	-0.010586374
193	0xbd28ed73	-0.041242074
194	0x3cace537	0.021105392
195	0x3d5c4691	0.053778235
196	0xbdc362b0	-0.095403075
197	0xbda4aa34	-0.08040276
198	0xbcaf1bbf	-0.021375535
199	0xbdea5098	-0.11441153
200	0x3d17bef3	0.037047338
201	0xbd01eb9b	-0.03171883
202	0x3dd476e4	0.10374239
203	0xbdecc33c	-0.115606755
204	0x3df4ab4e	0.11946736
205	0x3dcb3a2c	0.09923205
206	0xbad5bd16	-0.0016306962
207	0xbde8693a	-0.113481954
208	0xbddfb4de	-0.109231696
209	0x398a71ad	0.00026406106
210	0xbdd331ca	-0.10312231
211	0x3cdce101	0.026962759
212	0x3de08c70	0.10964286
213	0xbd7d1535	-0.061787803
214	0x3b578bad	0.003288965
215	0x3d945b56	0.072439834
216	0xbdade5d8	-0.08491105
217	0xbce51c6b	-0.027967652
218	0xbd911ac6	-0.07085185
219	0xbdb55cf6	-0.088556215
220	0xbd3bfd83	-0.045896064
221	0xbd71030b	-0.058840793
222	0x3db1a8f2	0.08674802
223	0xbdb7d926	-0.08976965
224	0xbca89cef	-0.020582644
225	0x3dad6104	0.0846577
226	0xbd1a0e1b	-0.03761111
227	0xbda5196e	-0.08061491
228	0x3d1233dd	0.035693992
229	0xbc35f2b2	-0.011105226
230	0xbde9d510	-0.114175916
231	0xbd83b292	-0.06430544
232	0xbd0f845f	-0.03503835
233	0x3d518369	0.051150713
234	0xbbdb59f7	-0.0066940743
235	0x3dd8c45e	0.10584329
236	0x3d4ac63d	0.04950546
237	0xbd3b8da3	-0.045789372
238	0x3c71dc0a	0.014761934
239	0xbcd94ad3	-0.026524937
240	0x3d86c0b3	0.06579723
241	0xbb4c8c0d	-0.0031211406
242	0x3df4854e	0.11939488
243	0xbcb58627	-0.022158695
244	0x3d32141d	0.043476213
245	0xbde3fc8e	-0.11132155
246	0x3d16d5bd	0.03682493
247	0xbd695241	-0.05696321
248	0xbdd8dd50	-0.10589087
249	0x3dc74c38	0.097313344
250	0x3c475df8	0.0121684
251	0x3d281509	0.041035686
252	0xbd6c97ff	-0.057762142
253	0xbd0a8a3b	-0.033823233
254	0xbd523813	-0.051323008
255	0xbd632b83	-0.055461418

W_g.bias f4 [64]
0	0xbd7fc1f3	-0.062440824
1	0xbdf4c7c8	-0.11952168
2	0xbd7b44ea	-0.06134502
3	0x3d58fc56	0.05297502
4	0xbdc0e5e6	-0.0941885
5	0xbdc7ba4b	-0.097523294
6	0x3d5866dc	0.05283247
7	0x3dc98a7e	0.098408684
8	0xbda6ddd7	-0.08147781
9	0xbdfe33f0	-0.1241225
10	0x3d707e3d	0.05871414
11	0x3dc5f886	0.09666543
12	0x3dade983	0.084918045
13	0xbcb80ba0	-0.02246648
14	0xbdf41ccb	-0.11919554
15	0x3d8d390e	0.06895648
16	0x3ccbfa81	0.024899723
17	0x3c4bc3ef	0.012436851
18	0xbdae34ca	-0.085061625
19	0x3ddaf469	0.10691149
20	0xbd8c17af	-0.06840455
21	0xbde79d01	-0.11309243
22	0xbce613a4	-0.028085537
23	0x3d8890ed	0.066682674
24	0x3db5f24b	0.08884104
25	0x3d414078	0.047180623
26	0xbdc653d0	-0.09683955
27	0xbdd918cd	-0.106004335
28	0xbe02e71e	-0.12783477
29	0xbd70f645	-0.05882861
30	0x3d36388e	0.04448753
31	0x3df13353	0.117773674
32	0x3cb5bf58	0.022185966
33	0xbb941990	-0.004519649
34	0x3d19d096	0.03755244
35	0xbcc96d61	-0.024588289
36	0x3dc37da8	0.095454514
37	0xbc945618	-0.018107459
38	0xbd939bb2	-0.07207431
39	0xbde83e33	-0.113399886
40	0xbda346dd	-0.079725005
41	0x3d0790b9	0.033097003
42	0x3d934cae	0.0719236
43	0x3da6309e	0.08114742
44	0x3c07c4c1	0.008286656
45	0x3d6b3134	0.05741997
46	0x3c51ba8b	0.012800823
47	0xbc0c338f	-0.008557214
48	0xbda1b47a	-0.07895751
49	0x3da38acd	0.079854585
50	0xbdcb5ec7	-0.09930187
51	0x3beca805	0.007222178
52	0x3d927d86	0.07152848
53	0x3df36f60	0.118864775
54	0x3da64163	0.0811794
55	0xbc43d22d	-0.011951965
56	0xbd0ad824	-0.033897534
57	0xbe037e3e	-0.12841126
58	0x3dbd9b39	0.09258122
59	0x3ce217f7	0.027599318
60	0x3db053af	0.086097114
61	0xbd90181d	-0.07035849
62	0x3d752ee0	0.059859157
63	0xbd038cb8	-0.03211662

W_x.weight f4 [64, 1]
0	0xbf743762	-0.9539701
1	0xbe4ec91b	-0.20193903
2	0xbed11db8	-0.40842986
3	0x3f2c3f53	0.67284125
4	0x3f7f0913	0.9962322
5	0xbf7cbb52	-0.9872333
6	0xbf0ee1b0	-0.5581312
7	0xbf06dac3	-0.52677554
8	0x3f454394	0.7705624
9	0x3f5c4fdb	0.8605935
10	0xbf14c640	-0.58115005
11	0x3f285418	0.65753317
12	0x3f2e0e4f	0.67990583
13	0xbe0b2e96	-0.1359199
14	0xbed50090	-0.41601992
15	0x3f2e6531	0.68123156
16	0x3f26c0ed	0.6513813
17	0x3e1466fa	0.14492407
18	0x3ed8a9f5	0.42317167
19	0x3f541599	0.82845455
20	0x3e2c33a6	0.16816577
21	0x3f6a8021	0.9160176
22	0x3ebe50fc	0.3717116
23	0xbe902191	-0.2815061
24	0x3ecabcf6	0.3959729
25	0x3e447964	0.19186932
26	0x3f5f18d8	0.87147284
27	0xbe891e22	-0.26780802
28	0xbdd58d0a	-0.10427292
29	0xbf602aec	-0.87565494
30	0xbe7a018b	-0.24414651
31	0x3f79bc41	0.9755288
32	0x3ed7be7f	0.42137524
33	0xbdaa893a	-0.08326955
34	0x3ef4633b	0.47731957
35	0xbf6f24fc	-0.9341581
36	0x3de42be5	0.11141185
37	0xbedab3d1	-0.42715314
38	0xbe199ff6	-0.15002427
39	0x3c87216b	0.016495427
40	0x3f119190	0.56862736
41	0xbf333a6e	-0.7001103
42	0xbe8c7d8f	-0.27439544
43	0x3e48b83c	0.1960153
44	0x3f1c15b8	0.6097064
45	0x3f39fe88	0.7265401
46	0x3f45db9f	0.7728824
47	0xbdce5332	-0.10074462
48	0xbf15cd2b	-0.58516186
49	0x3eb4d91f	0.353219
50	0x3f4d0cec	0.8009784
51	0xbf69a49f	-0.91266817
52	0x3f55b5ef	0.83480734
53	0x3e8654c6	0.26236552
54	0x3f2b87d4	0.6700413
55	0x3ee6e37e	0.45095438
56	0xbea046db	-0.31304058
57	0xbe932fb4	-0.28747332
58	0x3f638435	0.88873607
59	0xbeda396f	-0.42621943
60	0xbf17df7c	-0.59325385
61	0xbf0c53c5	-0.5481532
62	0xbf598f92	-0.84984696
63	0x3f351de6	0.70748746

W_x.bias f4 [64]
0	0x3e43906e	0.19098064
1	0xbf03f894	-0.51551175
2	0xbe2ed97f	-0.17075156
3	0x3d7bfa82	0.0615182
4	0x3f68ccae	0.90937316
5	0x3e374b0e	0.17899725
6	0xbf3343e6	-0.7002548
7	0x3ebee0c9	0.37280872
8	0x3eb42006	0.35180682
9	0x3ea29c51	0.31759885
10	0xbf4bab09	-0.79557854
11	0x3f17b858	0.5926566
12	0xbeed0fb2	-0.46301037
13	0x3ef04200	0.46925354
14	0x3e489c84	0.19590956
15	0x3f384abd	0.7198904
16	0x3f374d74	0.7160256
17	0x3ed9fd2b	0.42575964
18	0xbf623c52	-0.8837329
19	0xbf3d25e3	-0.73885936
20	0x3f6620c6	0.8989376
21	0xbe021140	-0.12701893
22	0x3e4a0c40	0.19731236
23	0x3f2d6112	0.6772624
24	0x3edc962e	0.43083328
25	0xbf7ab59a	-0.9793335
26	0xbe9f7bd6	-0.31149167
27	0xbf0b51f3	-0.5442192
28	0x3f52cd65	0.8234466
29	0xbf4ad473	-0.7923042
30	0x3e69bbc9	0.2282554
31	0xbea7beed	-0.32762852
32	0x3e00d0a7	0.12579595
33	0x3f260d40	0.6486397
34	0x3f161e9f	0.58640474
35	0xbe2d872d	-0.16946097
36	0x3e9c5335	0.30532232
37	0xbeca3907	-0.39496633
38	0xbf560c98	-0.83612967
39	0x3f79ef6a	0.9763094
40	0xbf254476	-0.6455759
41	0xbf7994ef	-0.9749288
42	0x3ee23e08	0.4418795
43	0x3e856b3e	0.26058382
44	0x3f236684	0.638283
45	0x3ed825a3	0.42216215
46	0x3ecff8b6	0.4061944
47	0x3f297369	0.66191727
48	0x3ef81b77	0.48458454
49	0xbf2dcd59	-0.6789146
50	0x3cfb781a	0.030696917
51	0x3e786da7	0.24260579
52	0xbd3edc55	-0.046596844
53	0xbec2ab78	-0.38021445
54	0xbee37592	-0.44425637
55	0xbf278798	-0.65441275
56	0x3f11a2e3	0.5688917
57	0xbeadd495	-0.3395125
58	0x3e8396d5	0.25701013
59	0x3f1268c7	0.5719113
60	0x3d0c6a96	0.034281336
61	0xbe3a48e2	-0.18191865
62	0xbf4307e6	-0.7618393
63	0x3e923b8a	0.2856105

W_1d.weight f4 [1, 64]
0	0xbb4d5ea6	-0.0031336932
1	0xbb36daf9	-0.0027901514
2	0xbddf590c	-0.10905656
3	0xbc98ce64	-0.018653102
4	0x3dbb1ec5	0.09136728
5	0xbd0934ee	-0.033497743
6	0xbb2be94b	-0.0026231583
7	0x3d38af8d	0.045089293
8	0xbd20f0b1	-0.03929204
9	0x3d8d9d0d	0.06914721
10	0xbd21377c	-0.039359555
11	0x3cd505db	0.026003769
12	0x3d10a05b	0.035309177
13	0xba0503bc	-0.0005074104
14	0x3b534a74	0.0032240422
15	0x3d421771	0.047385637
16	0xbda470d1	-0.080293305
17	0xbcfbccce	-0.030737307
18	0x3cbfe0d7	0.023422642
19	0x3d2cc06a	0.042175688
20	0xbc76558f	-0.015035047
21	0xbb02aa48	-0.0019937921
22	0xbce54240	-0.027985692
23	0x3d9b31ff	0.075778954
24	0xbbb13ef5	-0.0054091164
25	0x3c25f6eb	0.010129671
26	0x3d7c7a6f	0.0616402
27	0xb987e852	-0.000259223
28	0x3c420052	0.011840897
29	0xbb64c95e	-0.0034910063
30	0xbc14cc1e	-0.009081868
31	0x3c7afc4b	0.01531894
32	0xbd4e54c5	-0.05037381
33	0xb8685140	-5.538878e-05
34	0x3ddc81a5	0.10766915
35	0xbd4b4d05	-0.049634
36	0xbd5967a9	-0.053077374
37	0xbb3fe001	-0.0029277804
38	0x3c3020d2	0.0107500125
39	0xbde87423	-0.11350276
40	0x3cd2cde2	0.025732938
41	0xbd1695be	-0.0367639
42	0xbd83789a	-0.06419487
43	0x3ceb90b8	0.02875553
44	0x3d51b6af	0.05119961
45	0xbc82fd76	-0.01599
46	0x3d64f36c	0.055896208
47	0x3d0768ad	0.03305881
48	0x3c9500bc	0.018188827
49	0x3d98ebec	0.074668735
50	0xbaa5d676	-0.0012652415
51	0xbdd7c104	-0.10534862
52	0x3b82805c	0.003982587
53	0x3d8e4a4d	0.069477655
54	0x3ba1647f	0.00492531
55	0xbd87a51f	-0.06623291
56	0x3cbb4dbc	0.022864215
57	0xbb191fde	-0.0023364942
58	0x3d069a82	0.032862194
59	0xbaca3985	-0.0015428519
60	0x3ab513c8	0.0013815099
61	0xbc3294c4	-0.010899726
62	0xb95d0aa2	-0.00021080163
63	0xbd0935ce	-0.033498578
