model_weight/best_SWEDEN_model.pth (torch, 73864 bytes, 14 tensors)

lstm_cells.0.b_c f4 [64]
0.009342037 0.016422426 -0.009679895 -0.008765752 0.0023190556 0.009950462 0.008327245 0.04035094
0.018871069 -0.008490645 -0.018178541 0.0075047463 -0.00671031 0.017787652 0.007610448 0.007997508
-0.011773365 -0.019415217 0.011078872 -0.026688864 -0.0035750945 -0.008826319 0.020224076 -0.0062656165
0.0061826925 0.00917511 -0.013293776 -0.027965216 -0.023549262 0.0031361987 0.00890247 0.016723445
0.01037695 -0.019401416 -0.039032012 0.0022686305 0.009445448 0.018608699 0.0041857553 0.007732538
0.010767085 -0.021036005 0.0022122075 -0.0030692706 -0.00084578723 0.004716728 -0.005179115 -0.030199334
0.0042805676 0.005417038 -0.0081847245 0.029859975 0.0024363787 -0.0035432538 -0.011121969 -0.009229124
-0.0032337417 -0.00789762 0.03858729 0.008326386 -0.002567103 -0.012437249 -0.0123351 -0.015626742
00000000: 580f 193c 5388 863c 6c98 1ebc 3b9e 0fbc
00000010: 4cfb 173b 4307 233c ff6e 083c 0747 253d
00000020: 8097 9a3c 591c 0bbc 2aeb 94bc 60ea f53b
00000030: 29e2 dbbb 69b7 913c 1161 f93b fb07 033c
00000040: 12e5 40bc a90c 9fbc 2884 353c 9ba2 dabc
00000050: 224c 6abb 449c 10bc f6ac a53c cd4f cdbb
00000060: 2f98 ca3b 3353 163c 23ce 59bc 4f17 e5bc
00000070: 62ea c0bc af88 4d3b aadb 113c 9bff 883c
00000080: 1504 2a3c b8ef 9ebc 08e0 1fbd 4ead 143b
00000090: 15c1 1a3c 4571 983c a928 893b 3b61 fd3b
000000a0: 6d68 303c b353 acbc affa 103b d125 49bb
000000b0: d2b7 5dba c88e 9a3b 91b5 a9bb 9864 f7bc
000000c0: 0144 8c3b 6981 b13b 3919 06bc e89c f43c
000000d0: a7ab 1f3b ef35 68bb eb38 36bc c035 17bc
000000e0: 2fed 53bb 0565 01bc b50d 1e3d 656b 083c
000000f0: d73c 28bb 9ac5 4bbc 2919 4abc a703 80bc

lstm_cells.0.W_ic.weight f4 [64, 1]
-0.21152803 0.29715204 -0.7351898 0.48394942 0.082648836 0.23207414 -0.54487485 0.83115333
0.74549294 -0.84327644 -0.6479259 0.48043364 0.101463646 0.4053871 0.33185565 -0.1963886
-0.8511441 0.056596007 -0.9275003 -0.76057786 -0.15989928 0.3257052 0.64950067 -0.7256698
-0.42909276 -0.82479644 -0.21947742 -0.5730318 -0.91386044 -0.53225964 0.92449725 0.8387581
0.69919276 -0.45403716 -0.75580734 -0.5139263 -0.4147015 0.29177716 -0.07164403 0.4903234
0.36903545 0.27924585 0.5682288 0.7723856 0.5509345 0.3496986 -0.7388159 -0.5667501
0.18734883 0.53112495 -0.969463 0.06996142 0.58991164 -0.027158182 0.21448277 -0.21306072
0.6455257 0.04909575 0.42688113 0.8121487 0.38804433 -0.43199745 -0.3423574 -0.57205987
00000000: ce9a 58be 5024 983e 6635 3cbf 38c8 f73e
00000010: cb43 a93d d8a4 6d3e eb7c 0bbf 77c6 543f
00000020: a0d8 3e3f f7e0 57bf 79de 25bf 66fb f53e
00000030: 2ccc cf3d e68e cf3e fce8 a93e 181a 49be
00000040: 94e4 59bf 37d1 673d a970 6dbf 3bb5 42bf
00000050: a3bc 23be d5c2 a63e ad45 263f 7fc5 39bf
00000060: 0cb2 dbbe dc25 53bf b0be 60be 36b2 12bf
00000070: c2f2 69bf 2b42 08bf daab 6c3f dab8 563f
00000080: 4cfe 323f 8f77 e8be 977c 41bf ad90 03bf
00000090: c153 d4be d163 953e 1bba 92bd ab0b fb3e
000000a0: 37f2 bc3e 50f9 8e3e 7177 113f 10bb 453f
000000b0: 0b0a 0d3f b20b b33e 0a23 3dbf 8916 11bf
000000c0: 5fd8 3f3e cef7 073f ba2e 78bf ef47 8f3d
000000d0: 7304 173f d67a debc 5fa1 5b3e 972c 5abe
000000e0: 2c41 253f a018 493d 2a90 da3e fae8 4f3f
000000f0: bfad c63e c52e ddbe 7849 afbe 8472 12bf

lstm_cells.0.W_ic.bias f4 [64]
-0.13516682 -0.47377768 0.32359147 0.8599391 -0.46230334 -0.9291559 -0.9719718 -0.4998913
-0.91618526 0.8293733 0.6822326 -0.5202385 0.07853151 -0.86845267 -0.012763012 -0.5307004
-0.03756216 0.6420949 -0.9075737 0.6707604 -0.11994774 0.8891177 -0.389912 0.80387276
-0.80771595 -0.87076 0.9519797 0.73419815 0.37100697 -0.31180388 0.5434564 -0.6462288
0.10996378 0.779329 0.8635017 -0.288888 -0.25058833 -0.7276171 -0.4123862 -0.626977
-0.11677817 0.08930084 -0.29292533 0.9071947 0.9449486 0.04219236 -0.37905225 0.5305645
-0.018188002 0.1278967 0.38663995 -0.35239947 0.9600611 0.10811999 0.2512768 0.83826923
0.36280778 0.6752481 -0.31721693 0.3403025 -0.05287164 0.5706832 0.017057821 0.29441273
00000000: 2c69 0abe fd92 f2be c8ad a53e f824 5c3f
00000010: 06b3 ecbe 29dd 6dbf 25d3 78bf c1f1 ffbe
00000020: 1e8b 6abf cf51 543f cca6 2e3f 5a2e 05bf
00000030: 21d5 a03d ea52 5ebf f41b 51bc fbdb 07bf
00000040: c8da 19bd 5560 243f c056 68bf f4b6 2b3f
00000050: 29a7 f5bd 389d 633f 8ca2 c7be 9bca 4d3f
00000060: 79c6 4ebf 21ea 5ebf f1b4 733f 69f4 3b3f
00000070: a0f4 bd3e c2a4 9fbe f51f 0b3f 406f 25bf
00000080: b134 e13d 1b82 473f 730e 5d3f 21e9 93be
00000090: 1d4d 80be 1d45 3abf 4924 d3be 9181 20bf
000000a0: 6529 efbd 5ce3 b63d 4ffa 95be e93d 683f
000000b0: 27e8 713f e5d1 2c3d 2313 c2be 13d3 073f
000000c0: 01ff 94bc 5af7 023e acf5 c53e b46d b4be
000000d0: 90c6 753f 036e dd3d 5aa7 803e d098 563f
000000e0: f1c1 b93e 0fdd 2c3f 426a a2be 213c ae3e
000000f0: ef8f 58bd 4b18 123f d8bc 8b3c 44bd 963e

lstm_cells.0.W_hc.weight f4 [64, 64]
-0.004757696 0.010400164 -0.11874333 0.013726735 0.01725063 -0.05010336 -0.017564572 -0.066668674
0.014411378 0.037900817 -0.06643964 -0.03647826 -0.012124369 -0.0010094043 0.056716632 -0.058896918
0.12536201 -0.05641996 -0.04348967 0.0076521635 0.11555203 -0.106082134 0.019890275 -0.10347486
0.06829783 0.05336931 -0.039976448 0.052009385 -0.014981489 0.09143295 -0.039612584 -0.020718442
0.031614807 0.10696655 -0.004085536 -0.057031345 -0.052857026 0.09673373 -0.052189484 -0.07900721
0.108263664 0.061655216 -0.0345353 0.04470134 0.07365399 -0.063095585 0.057265226 0.030831486
-0.025099587 -0.07327498 0.07392633 0.0703105 -0.10464801 0.06792223 -0.030313637 -0.048991907
0.091863245 -0.05186184 -0.12601775 -0.0610642 -0.08587778 -0.028411482 0.121162295 -0.023225754
0.10185327 -0.06738323 -0.06935078 -0.06205025 -0.09538256 -0.027311614 -0.0070502576 -0.035821274
-0.047478687 -0.003196784 0.06863001 0.012283607 -0.08037485 -0.07373237 -0.03147636 -0.04661947
0.044818744 0.048814148 0.0904024 -0.0066729095 0.08150862 0.0066333157 -0.033363752 -0.034404807
-0.10594971 0.030435976 -0.009719797 0.089212336 0.085143745 0.07094847 -0.087698124 0.08410714
-0.07835508 0.06428496 -0.045840766 0.086982764 0.07841817 -0.041024137 -0.0917226 0.06961645
0.10212672 0.07105797 0.09724501 -0.026331574 -0.015354212 -0.09333959 0.035730485 -0.042328868
-0.022678345 -0.026864193 0.10494602 -0.013024277 0.0384498 -0.013375659 -0.028676094 -0.09695466
-0.044465907 -0.01856734 -0.03273415 0.06827132 -0.0010368484 -0.037746787 -0.05183879 0.021849262
-0.07845115 -0.07250361 -0.10444125 0.0879763 -0.09246227 -0.06923219 0.048269454 -0.010284318
-0.07587796 0.05660044 -0.016854517 -0.05229484 -0.12435393 0.044890255 0.022769775 0.0130415745
-0.03937475 -0.09333709 -0.0028980593 -0.01222904 0.10800045 -0.041269653 0.06649568 -0.041817486
-0.035915013 -0.028744334 0.0476697 0.097499795 0.012411794 0.024412299 -0.044256598 0.07956727
-0.081449986 0.09399337 -0.026651617 -0.12191148 -0.0035613885 0.0055321977 -0.10601362 0.10915697
-0.105775006 0.03859854 -0.093786255 -0.037993696 -0.07730375 0.018970923 0.040996995 -0.013205776
-0.07062552 -0.12599711 -0.08396555 -0.010114477 -0.04765489 0.048735727 -0.038592834 0.1129442
0.01713692 0.0905892 0.016794993 0.07601714 0.019096626 0.04648164 0.042349704 -0.0039019915
-0.08242061 0.1300202 0.10643825 0.075841494 0.070968285 0.033549838 0.014591595 0.021979423
0.07289531 -0.12892275 -0.031917498 -0.010178967 0.07786723 -0.015550833 -0.09392228 0.12711558
0.04395751 -0.0818655 0.032558367 0.061287586 -0.0641954 -0.06000122 -0.052145567 -0.09852964
0.07157897 -0.04685969 0.030847892 0.039515764 0.008037934 0.12481204 0.034327615 0.10626359
-0.06770053 0.07654037 0.07969803 -0.045520518 0.015769487 0.08801134 -0.044748355 0.054659
-0.00824238 -0.015786702 0.099270515 0.059888426 -0.100934245 -0.07209776 0.10061392 0.08880022
0.048993487 0.09308365 -0.12068371 -0.064551674 0.005459883 0.07617989 0.01307405 0.086336024
-0.01563957 -0.07623914 -0.0068306476 0.04788034 0.11042576 -0.07352553 -0.0060743266 -0.11971368
00000000: 72e6 9bbb 7365 2a3c b42f f3bd 19e6 603c
00000010: 3151 8d3c 2e39 4dbd 94e3 8fbc 9689 88bd
00000020: b31d 6c3c e33d 1b3d 8211 88bd 3a6a 15bd
00000030: 4aa5 46bc fd4d 84ba b34f 683d e53d 71bd
00000040: e65e 003e 9e18 67bd 3922 32bd 00bf fa3b
00000050: 8ba6 ec3d 9741 d9bd eef0 a23c a1ea d3bd
00000060: bcdf 8b3d c799 5a3d 58be 23bd cb07 553d
00000070: eb74 75bc 3341 bb3d ce40 22bd b9b9 a9bc
00000080: 877e 013d 4711 db3d f6df 85bb b399 69bd
00000090: 9c80 58bd 551c c63d a4c4 55bd 88ce a1bd
000000a0: 57b9 dd3d 2e8a 7c3d e374 0dbd c118 373d
000000b0: e7d7 963d 4238 81bd f18e 6a3d 5092 fc3c
000000c0: a69d cdbc 3111 96bd b066 973d f4fe 8f3d
000000d0: b251 d6bd cf1a 8b3d 4e54 f8bc bdab 48bd
000000e0: cc22 bc3d 156d 54bd cc0a 01be 741e 7abd
000000f0: b1e0 afbd 32bf e8bc f023 f83d f043 bebc
00000100: 7298 d03d 3800 8abd c807 8ebd 6728 7ebd
00000110: ee57 c3bd 9bbc dfbc d905 e7bb 54b9 12bd
00000120: 0379 42bd 2381 51bb e48d 8c3d 2f41 493c
00000130: 929b a4bd ff00 97bd 5bed 00bd 0ff4 3ebd
00000140: dc93 373d 58f1 473d e524 b93d 6ca8 dabb
00000150: feed a63d 495c d93b 6ea8 08bd 0eec 0cbd
00000160: 29fc d8bd de54 f93c c93f 1fbc f5b4 b63d
00000170: d85f ae3d 6e4d 913d 139b b3bd 5d40 ac3d
00000180: a178 a0bd d5a7 833d 87c3 3bbd 0524 b23d
00000190: b599 a03d ed08 28bd 0fd9 bbbd 1293 8e3d
000001a0: d027 d13d d786 913d 6428 c73d 50b5 d7bc
000001b0: 3c90 7bbc d428 bfbd 215a 123d 0961 2dbd
000001c0: f0c7 b9bc 4c12 dcbc f0ed d63d c763 55bc
000001d0: 8a7d 1d3d 9425 5bbc 21ea eabc 2a90 c6bd
000001e0: e221 36bd 891a 98bc 3e14 06bd d5d1 8b3d
000001f0: dce6 87ba 609c 1abd e954 54bd 39fd b23c
00000200: ffaa a0bd c67c 94bd 4be5 d5bd eb2c b43d
00000210: dc5c bdbd 9bc9 8dbd 31b6 453d 8e7f 28bc
00000220: e765 9bbd ddd5 673d 7c12 8abc 1d33 56bd
00000230: 46ad febd d8de 373d ae87 ba3c 54ac 553c
00000240: 6b47 21bd 8427 bfbd 5eed 3dbb 505c 48bc
00000250: 572f dd3d 5e0a 29bd e32e 883d d048 2bbd
00000260: 9f1b 13bd 3d79 ebbc 4e41 433d f9ad c73d
00000270: d65a 4b3c 4dfc c73c 6846 35bd 2af4 a23d
00000280: 40cf a6bd 997f c03d 7e54 dabc baac f9bd
00000290: 2f66 69bb 7047 b53b ab1d d9bd b18d df3d
000002a0: 91a0 d8bd 8119 1e3d 0213 c0bd 479f 1bbd
000002b0: 6e51 9ebd e968 9b3c 77ec 273d 0a5d 58bc
000002c0: 1da4 90bd 6305 01be 21f6 abbd 31b7 25bc
000002d0: c631 43bd 1d9f 473d 8513 1ebd 4a4f e73d
000002e0: ba62 8c3c d586 b93d a795 893c e0ae 9b3d
000002f0: 8770 9c3c 8863 3e3d e276 2d3d 8eb8 7fbb
00000300: 23cc a8bd 0424 053e 4cfc d93d c952 9b3d
00000310: d257 913d 8e6b 093d 9611 6f3c 310e b43c
00000320: 234a 953d 5304 04be ecbb 02bd afc5 26bc
00000330: db78 9f3d ecc8 7ebc 535a c0bd 962a 023e
00000340: ca0c 343d 19a9 a7bd ec5b 053d b108 7b3d
00000350: e178 83bd d7c3 75bd 9796 55bd e8c9 c9bd
00000360: ff97 923d f2ef 3fbd b8b4 fc3c 48db 213d
00000370: 8ab1 033c 749d ff3d 1d9b 0c3d baa0 d93d
00000380: 93a6 8abd 33c1 9c3d b938 a33d b973 3abd
00000390: 032f 813c 4a3f b43d 0d4a 37bd 1ee2 5f3d
000003a0: 0c0b 07bc 1d53 81bc 574e cb3d 914d 753d
000003b0: 9db6 cebd fea7 93bd ac0e ce3d e4dc b53d
000003c0: 65ad 483d a4a2 be3d 0529 f7bd ab33 84bd
000003d0: d1e8 b23b 3404 9c3d 8a34 563c f1d0 b03d
000003e0: 8e1e 80bc 4423 9cbd a0d3 dfbb 2d1e 443d
000003f0: e726 e23d 8e94 96bd 250b c7bb 722c f5bd

lstm_cells.0.W_hc.bias f4 [64]
0.11393303 -0.075367965 -0.040991712 -0.045013666 0.055693854 0.01629589 0.016408084 -0.024636494
0.022619497 -0.01768934 -0.038654994 -0.031244704 0.064872764 0.13989213 0.0035595691 -0.0802492
0.091890335 0.058847282 0.07398484 0.014739068 -0.04536664 0.107384495 0.029854577 -0.033753566
0.102803566 -0.11088577 0.080436565 -0.058471836 -0.046735734 0.05981001 0.0009233925 -0.03151632
0.04009391 0.03911416 0.0098398365 -0.06312897 0.08951078 -0.016780632 0.091441385 0.12079
-0.008413513 -0.06951538 0.11459936 -0.09294512 0.069755964 0.11269236 0.032529064 -0.01883145
-0.108910635 -0.000983709 -0.012579179 -0.0261283 0.09909206 0.048943076 -0.07951765 0.08696777
0.08280525 0.056764103 -0.026423028 -0.015613451 0.12167612 -0.029167747 -0.044298086 -0.047037452
00000000: b855 e93d 855a 9abd ede6 27bd 4060 38bd
00000010: 3d1f 643d f57e 853c 3f6a 863c 79d2 c9bc
00000020: 864c b93c 3ce9 90bc b354 1ebd e5f4 ffbc
00000030: 03dc 843d e23f 0f3e a947 693b b159 a4bd
00000040: 0031 bc3d d909 713d 5d85 973d 227c 713c
00000050: 5fd2 39bd 67ec db3d 9691 f43c 2e41 0abd
00000060: ad8a d23d 1418 e3bd edbb a43d 2a80 6fbd
00000070: f86d 3fbd 57fb 743d d20f 723a 4217 01bd
00000080: 8339 243d 2b36 203d 4437 213c c349 81bd
00000090: 6e51 b73d 8977 89bc 9f45 bb3d bf60 f73d
000000a0: d5d8 09bc 145e 8ebd 12b3 ea3d 035a bebd
000000b0: 37dc 8e3d 41cb e63d 323d 053d 6a44 9abc
000000c0: 8a0c dfbd ccef 80ba e718 4ebc 040b d6bc
000000d0: c7f0 ca3d 8978 483d 26da a2bd 281c b23d
000000e0: cd95 a93d 7a81 683d 1b75 d8bc 8fcf 7fbc
000000f0: 5431 f93d 33f1 eebc e971 35bd 58aa 40bd

lstm_cells.0.W_in.weight f4 [64, 64]
0.10152589 -0.12210287 0.05252962 0.054637283 -0.12206961 0.00025193393 -0.102248445 0.004766375
0.04879968 -0.06956123 -0.0056254715 0.0465312 -0.11726585 -0.024772346 -0.09647828 -0.01851663
0.0029157847 0.011020511 0.06596838 0.0077624917 -0.12452999 -0.020258918 0.003470555 0.05646506
-0.09731966 0.016795248 0.0019579232 -0.071953654 -0.05283968 -0.076730326 -0.06609833 0.042813674
0.08798204 0.11209887 0.077718616 -0.08538696 0.062152475 -0.073018 -0.058274508 -0.03164296
0.034699693 0.100110844 -0.106146544 0.08186278 -0.08170779 -0.040917203 -0.062493533 -0.058320537
-0.038047016 -0.015984774 0.023261204 -0.074918985 0.034722924 0.0037705153 0.016703635 0.09302375
-0.040295735 0.00559175 0.0009033084 -0.11879158 0.0979757 -0.007226005 0.11587566 -0.064675
-0.11129242 -0.12284088 0.054158643 0.11191374 -0.11367659 -0.082748696 -0.0898429 -0.01957713
-0.060770676 0.09634364 0.090605095 -0.013308823 -0.07396476 -0.04559423 0.08227354 -0.05519171
-0.12041871 -0.09887135 -0.026468307 0.043693215 0.09530981 -0.031346098 0.124692336 0.0312946
-0.109148055 -0.12246506 0.11699693 0.02291575 -0.009198442 0.049926758 0.04183407 -0.06277062
-0.07068719 -0.064850494 -0.083181396 -0.045152947 -0.05445604 -0.082944885 -0.104227245 -0.041140452
-0.038361996 -0.12258725 -0.04613103 0.031761378 -0.05260633 0.112965524 0.06745212 0.04675159
0.022444665 0.08232331 0.017127812 -0.10153392 0.1139925 -0.11584693 -0.029990032 0.06953929
-0.034983933 0.03334242 -0.08450101 -0.07358949 0.0902306 -0.041250244 -0.09628868 -0.010974869
0.054688647 0.10206856 0.08523604 0.010834113 -0.07518616 0.017996475 0.053559422 -0.11256613
0.03176725 0.041252255 0.026214615 0.092844665 0.09784496 0.10616009 0.072541475 -0.1211983
0.11807014 0.12053013 -0.04115185 0.026912361 0.07800087 -0.034580976 -0.02007614 -0.11507973
0.05562733 -0.09664817 0.076296985 -0.039991826 0.11222203 0.0032443404 -0.019900456 -0.066286445
0.030133754 -0.039081693 -0.038350746 0.07337235 0.063166976 0.026179522 0.12237126 0.027963221
-0.077568516 0.10939975 0.10677934 -0.021334663 0.017328978 -0.11146578 -0.0062702745 -0.047944546
-0.07315339 -0.061695457 -0.10581954 -0.059879377 0.058110103 0.07286382 0.079915866 0.018744335
-0.09601924 -0.007029131 -0.038494498 0.054024443 0.05402744 0.116474465 0.011609733 0.025011629
-0.088161334 -0.047796935 -0.036530167 0.015965506 0.059385166 -0.054019645 0.121548265 0.05765401
0.038114578 0.05896233 0.050219595 0.010393128 0.06048104 -0.075053126 0.1126173 -0.0019273609
0.020327315 0.0716414 0.013531879 -0.047235355 -0.03690709 -0.07626952 0.07428588 -0.035813913
-0.08857462 -0.00822936 -0.05281058 0.032647595 -0.109328926 -0.06433475 -0.11327353 -0.072868034
-0.11718953 -0.050171956 0.0664776 0.027371898 -0.10997513 -0.054474637 0.044342443 -0.055830777
0.016074583 0.08328284 0.0053955466 -0.0075143874 0.08882657 -0.0058334917 -0.029192492 -0.10001907
-0.015098795 0.039288893 -0.0698995 -0.07773775 -0.08815724 -0.047183305 0.09087323 0.11718327
-0.0022346228 -0.0644739 0.04025565 -0.028857931 -0.1223364 0.06746335 0.121043965 -0.030409396
00000000: ceec cf3d 1211 fabd 4c29 573d 58cb 5f3d
00000010: a2ff f9bd 0016 8439 a267 d1bd 402f 9c3b
00000020: 2ce2 473d 1e76 8ebd e055 b8bb 8097 3e3d
00000030: 1429 f0bd 60ef cabc 6896 c5bd 30b0 97bc
00000040: c016 3f3b 608f 343c 6e1a 873d 805c fe3b
00000050: 9409 ffbd 08f6 a5bc 4072 633b e847 673d
00000060: 884f c7bd 3096 893c 8050 003b 705c 93bd
00000070: 6c6e 58bd ca24 9dbd 905e 87bd 645d 2f3d
00000080: ee2f b43d 1894 e53d f02a 9f3d 5cdf aebd
00000090: 9893 7e3d 768a 95bd 40b1 6ebd 0c9c 01bd
000000a0: 4421 0e3d ea06 cd3d 5c63 d9bd aca7 a73d
000000b0: 6a56 a7bd cc98 27bd 38f9 7fbd 84e1 6ebd
000000c0: 30d7 1bbd 80f2 82bc 488e be3c 206f 99bd
000000d0: a039 0e3d c01a 773b 10d6 883c 3c83 be3d
000000e0: 240d 25bd 003b b73b 00cc 6c3a 0049 f3bd
000000f0: 7ca7 c83d 20c8 ecbb 3850 ed3d 5474 84bd
00000100: 48ed e3bd 0094 fbbd 74d5 5d3d 0833 e53d
00000110: 46cf e8bd 2678 a9bd 8eff b7bd 3860 a0bc
00000120: acea 78bd d04f c53d 2a8f b93d 400d 5abc
00000130: d67a 97bd 04c1 3abd 087f a83d b410 62bd
00000140: 169e f6bd 107d cabd 10d4 d8bc a8f7 323d
00000150: ca31 c33d c464 00bd b25e ff3d c42e 003d
00000160: 0489 dfbd f6ce fabd 169c ef3d d0b9 bb3c
00000170: 10b5 16bc 0080 4c3d 345a 2b3d e28d 80bd
00000180: 72c4 90bd 56d0 84bd 025b aabd 4cf2 38bd
00000190: 4c0d 5fbd 02df a9bd 1875 d5bd e482 28bd
000001a0: 7821 1dbd 060f fbbd e4f3 3cbd 3818 023d
000001b0: bc79 57bd 785a e73d 5624 8a3d 987e 3f3d
000001c0: e0dd b73c 2099 a83d a04f 8c3c 04f1 cfbd
000001d0: e674 e93d 2841 edbd a8ad f5bc 9e6a 8e3d
000001e0: 504b 0fbd 1092 083d de0e adbd 16b6 96bd
000001f0: d2ca b83d 04f6 28bd 0033 c5bd f0cf 33bc
00000200: 3401 603d 5209 d13d 3c90 ae3d 9081 313c
00000210: 34fb 99bd 586d 933c 2061 5b3d 1289 e6bd
00000220: 601e 023d 20f8 283d 08c0 d63c 5825 be3d
00000230: f062 c83d 766a d93d a090 943d d036 f8bd
00000240: c2ce f13d 80d8 f63d d88e 28bd 5077 dc3c
00000250: ecbe 9f3d c8a4 0dbd b876 a4bc ecae ebbd
00000260: 7cd9 633d 7aef c5bd 9841 9c3d 78ce 23bd
00000270: aad4 e53d 009f 543b 4806 a3bc 30c1 87bd
00000280: 10db f63c 2014 20bd ac15 1dbd 3e44 963d
00000290: b05d 813d 7076 d63c c89d fa3d 2013 e53c
000002a0: 3edc 9ebd fa0c e03d 20af da3d 08c6 aebc
000002b0: 80f5 8d3c 2c48 e4bd e076 cdbb 8061 44bd
000002c0: 72d1 95bd 60b4 7cbd eab7 d8bd 1444 75bd
000002d0: dc04 6e3d a039 953d eeaa a33d b88d 993c
000002e0: bca5 c4bd a054 e6bb 68ac 1dbd bc48 5d3d
000002f0: e04b 5d3d 2a8a ee3d c036 3e3c 30e5 cc3c
00000300: ee8d b4bd b8c6 43bd a8a0 15bd 18ca 823c
00000310: dc3d 733d b443 5dbd 4cee f83d 9c26 6c3d
00000320: 081e 1c3d 7c82 713d 10b3 4d3d f047 2a3c
00000330: f8ba 773d 74b5 99bd e6a3 e63d 809f fcba
00000340: 7885 a63c bab8 923d d0b4 5d3c dc79 41bd
00000350: e42b 17bd 3233 9cbd 3223 983d 9cb1 12bd
00000360: 9c66 b5bd 70d4 06bc e84f 58bd 7cb9 053d
00000370: d8e7 dfbd f0c1 83bd f4fb e7bd d63b 95bd
00000380: 1001 f0bd 1c81 4dbd 6825 883d 083b e03c
00000390: a43a e1bd cc20 5fbd 6ca0 353d d0ae 64bd
000003a0: d8ae 833c 3290 aa3d 20cd b03b 403b f6bb
000003b0: b4ea b53d e026 bfbb 1825 efbc ccd6 ccbd
000003c0: f060 77bc 64ed 203d 7827 8fbd f834 9fbd
000003d0: c88b b4bd 4843 41bd be1b ba3d c8fd ef3d
000003e0: c072 12bb e40a 84bd 1ce3 243d 7867 ecbc
000003f0: 828b fabd 3a2a 8a3d e6e5 f73d 201d f9bc

lstm_cells.0.W_in.bias f4 [64]
-0.05139552 0.04983732 0.098039016 -0.076752976 -0.11719242 -0.009710848 0.019115895 -0.04744251
-0.0804705 0.0128995925 -0.04118961 -0.0920089 -0.061349154 -0.0025907755 0.041051507 0.034931272
-0.052648872 -0.021707699 -0.09424256 0.029101044 -0.08065954 -0.048752785 0.09679566 -0.036941722
-0.10669702 0.059618726 -0.082721785 0.049745455 0.076652765 -0.11411695 -0.061372563 0.04227966
-0.070436716 0.10204017 -0.038342044 -0.007331565 0.052646816 0.031514466 -0.1159772 -0.0985882
-0.065959305 0.017965287 -0.018588275 -0.04672928 0.10016708 0.11535312 -0.08712286 0.10341935
0.11731647 0.08360793 0.057274833 0.009627089 0.019903943 -0.100860596 -0.1098012 -0.12016711
0.06390642 -0.072099194 0.09723902 0.021539927 -0.11183371 -0.09573981 -0.0841108 0.08273071
00000000: 1c84 52bd 3822 4c3d aec8 c83d aa30 9dbd
00000010: 9402 f0bd 401a 1fbc f098 9c3c 1453 42bd
00000020: b8cd a4bd d058 533c 70b6 28bd 2a6f bcbd
00000030: 4049 7bbd 00ca 29bb a025 283d 1814 0f3d
00000040: 58a6 57bd 58d4 b1bc 3e02 c1bd 5065 ee3c
00000050: d430 a5bd 00b1 47bd ce3c c63d 3450 17bd
00000060: f883 dabd c432 743d 0a6a a9bd e4c1 4b3d
00000070: 20fc 9c3d 26b6 e9bd cc61 7bbd 702d 2d3d
00000080: 2041 90bd 70fa d03d 8c0c 1dbd a03d f0bb
00000090: 30a4 573d 5015 013d 7485 edbd 9ce8 c9bd
000000a0: ac15 87bd f02b 933c 7046 98bc 3467 3fbd
000000b0: 6624 cd3d 423e ec3d 786d b2bd 86cd d33d
000000c0: 9e43 f03d a23a ab3d 0499 6a3d f0ba 1d3c
000000d0: 980d a33c 0090 cebd 74df e0bd 2c1a f6bd
000000e0: 5ee1 823d bea8 93bd 4025 c73d 8074 b03c
000000f0: 1209 e5bd 3c13 c4bd 4842 acbd b86e a93d

W_h.weight f4 [64, 64]
0.055206466 -0.09977768 0.04363516 -0.04540194 -0.0075698034 -0.038675234 -0.104075804 -0.0014957342
-0.070172235 0.05933732 -0.038732883 0.09054979 0.1096156 -0.08704885 -0.07191944 -0.13062598
-0.0916535 -0.119006075 0.01422992 0.012638593 -0.023814844 0.04298279 -0.04705554 0.07771496
-0.022578377 0.012409961 -0.12257673 0.12838471 0.035852905 0.0894162 0.0009796473 -0.08193623
-0.0472042 0.12324429 -0.10838842 0.1259821 0.10658638 -0.008515282 -0.045676056 -0.018316159
-0.030421453 0.058140762 0.088590644 -0.0137846265 0.10103351 0.044039354 -0.11304917 0.119862266
-0.06061622 -0.07371568 0.011245795 -0.08412716 -0.019944724 0.058541935 -0.10386476 -0.05852603
0.10619799 0.07518841 0.022033643 -0.05365877 0.11873212 -0.072224036 0.0830662 0.037327033
0.009289899 -0.08280748 -0.06331091 0.02926149 0.10616878 0.052330542 -0.019001631 0.10914643
0.03294199 0.04915633 0.06630008 -0.021776512 -0.115835674 -0.10477831 -0.00039754628 0.0040846462
-0.100155 0.12273614 -0.07359251 0.004773962 -0.121308446 0.074137695 -0.10504782 0.06207572
0.11051825 -0.11535511 0.09385681 0.070932336 0.0041565723 0.008983772 0.109894484 0.0339919
0.03830922 -0.0949723 -0.03242426 -0.13280952 -0.114730634 0.12760949 0.02553875 0.09419625
-0.0077445568 -0.037899453 -0.09562924 -0.01187971 0.088587016 0.089750394 -0.0096803885 -0.08415799
-0.07450008 0.0012210367 -0.0056418353 -0.027972963 -0.048445106 0.007832758 0.04651885 -0.025761364
0.0132206045 0.057028856 0.06030223 -0.076500095 0.069496565 -0.079271145 -0.03537996 0.013739104
0.07235897 0.0018361654 -0.10458131 -0.05167166 -0.081071146 -0.11280567 0.053453706 0.009675601
-0.02770966 0.070919625 -0.001186939 -0.08335355 -0.05876706 0.04805428 0.13056876 -0.05754346
0.1031343 0.10538085 0.07794766 0.034820713 0.029092263 0.012741595 0.079825506 -0.015815966
-0.1238474 0.012822839 0.0045862338 0.041814398 -0.06854956 -0.06569055 0.11078285 -0.09688297
-0.10294243 -0.045295104 0.0092692 -0.13205251 0.006201194 0.0706745 -0.0039101033 0.019049373
-0.044404574 -0.037228312 -0.03206197 0.065012 0.005868223 -0.08513814 -0.13421208 0.032862462
0.009485358 -0.07026868 -0.0481523 -0.072254054 0.04047742 -0.0019105816 -0.053443003 -0.06476511
0.04050011 -0.03357726 -0.0507656 -0.0078081996 0.018987937 0.012609094 0.010762004 -0.0064909076
-0.06644494 0.011115363 0.12219644 0.047836307 -0.118507534 -0.064518094 -0.09416895 0.11245758
-0.071984224 -0.09486898 -0.015692135 -0.10328842 0.10521308 0.016236104 -0.04019269 0.01976132
0.020338658 -0.03625735 0.011810123 0.09659664 -0.0015565834 0.035658818 -0.08815169 -0.08304777
0.055755105 0.075044274 0.0910361 -0.11258306 -0.01096 0.0734391 0.051475395 0.02765178
0.07954874 0.013845665 0.11988542 -0.06373884 0.10250549 0.024039537 0.11236799 -0.07557417
-0.06306175 -0.0499779 -0.124062546 0.04126126 0.04161106 0.08665225 0.04502176 0.013341414
-0.0043058875 0.0712499 -0.033801977 0.10368823 0.11259197 0.09734329 -0.12316116 0.037106037
-0.05328347 -0.037433464 -0.11661296 -0.00800088 -0.10112409 0.10100602 -0.0026959619 0.035684306
00000000: 2d20 623d 3e58 ccbd c8ba 323d 62f7 39bd
00000010: 1d0c f8bb ec69 1ebd b225 d5bd 830c c4ba
00000020: 76b6 8fbd b10b 733d 5fa6 1ebd 2b72 b93d
00000030: 257e e03d ab46 b2bd 804a 93bd d1c2 05be
00000040: d5b4 bbbd 75b9 f3bd 9c24 693c 1a12 4f3c
00000050: 5917 c3bc b90e 303d 4fbd 40bd 0529 9f3d
00000060: 4af6 b8bc 2653 4b3c 8209 fbbd 4877 033e
00000070: 7fda 123d d71f b73d 8267 803a 2fce a7bd
00000080: 3159 41bd 8167 fc3d bffa ddbd 7401 013e
00000090: f649 da3d ae83 0bbc d116 3bbd c50b 96bc
000000a0: 6936 f9bc 0225 6e3d 036f b53d ead8 61bc
000000b0: a8ea ce3d 9c62 343d 5386 e7bd 597a f53d
000000c0: b748 78bd 3ff8 96bd 4840 383c dc4a acbd
000000d0: 1e63 a3bc abc9 6f3d 0cb7 d4bd feb8 6fbd
000000e0: 557e d93d 62fc 993d e67f b43c 4cc9 5bbd
000000f0: d329 f33d 32ea 93bd 9d1e aa3d 3be4 183d
00000100: a934 183c f896 a9bd 26a9 81bd cbb5 ef3c
00000110: 046f d93d 8d58 563d 4fa9 9bbc 2a88 df3d
00000120: 2eee 063d 2658 493d 56c8 873d a864 b2bc
00000130: 413b edbd 0396 d6bd c26d d0b9 7fd8 853b
00000140: 111e cdbd 165d fb3d abb7 96bd e56e 9c3b
00000150: 9070 f8bd 81d5 973d 5023 d7bd 1c43 7e3d
00000160: 6457 e23d 4d3f ecbd 0038 c03d f944 913d
00000170: db33 883b ac30 133c 5c10 e13d 173b 0b3d
00000180: 21ea 1c3d d680 c2bd 4dcf 04bd 38ff 07be
00000190: e5f7 eabd 10ac 023e a436 d13c f7e9 c03d
000001a0: 0dc6 fdbb 753c 1bbd 43d9 c3bd 1da3 42bc
000001b0: 1c6d b53d 0ecf b73d 7e9a 1ebc 065b acbd
000001c0: 7f93 98bd 310b a03a 25df b8bb 8e27 e5bc
000001d0: 606e 46bd f854 003c 8d8a 3e3d 7f09 d3bc
000001e0: 3c9b 583c 1797 693d 79ff 763d 15ac 9cbd
000001f0: 3754 8e3d e958 a2bd 94ea 10bd fb19 613c
00000200: f130 943d 7dab f03a ba2e d6bd aaa5 53bd
00000210: a108 a6bd a906 e7bd 46f2 5a3d 6986 1e3c
00000220: 5eff e2bc 4f3e 913d 1093 9bba 44b5 aabd
00000230: bbb5 70bd 91d4 443d d1b3 053e b1b2 6bbd
00000240: 1338 d33d ead1 d73d 06a3 9f3d 2aa0 0e3d
00000250: e652 ee3c 1fc2 503c 8e7b a33d 7c90 81bc
00000260: b5a3 fdbd e316 523c 1e48 963b 9345 2b3d
00000270: b663 8cbd c488 86bd 1ee2 e23d 946a c6bd
00000280: 7bd3 d2bd 5c87 39bd d8dd 173c c638 07be
00000290: 6333 cb3b cbbd 903d 5320 80bb 6e0d 9c3c
000002a0: 92e1 35bd b77c 18bd 6a53 03bd 0325 853d
000002b0: 394a c03b e85c aebd e46e 09be ca9a 063d
000002c0: 7a68 1b3c 07e9 8fbd 593b 45bd eff9 93bd
000002d0: a7cb 253d 7b6c faba 0de7 5abd 92a3 84bd
000002e0: 71e3 253d 4f88 09bd 97ef 4fbd eddb ffbb
000002f0: 978c 9b3c 6096 4e3c 1e53 303c aeb1 d4bb
00000300: 4914 88bd 361d 363c 2142 fa3d 01f0 433d
00000310: 14b4 f2bd 1022 84bd a7db c0bd 2950 e63d
00000320: 776c 93bd ab4a c2bd cb8c 80bc e188 d3bd
00000330: f579 d73d 9401 853c 17a1 24bd 7ee2 a13c
00000340: 429d a63c 9682 14bd 3f7f 413c 76d4 c53d
00000350: 4606 ccba fb0e 123d e088 b4bd f314 aabd
00000360: 775f 643d d0b0 993d 2371 ba3d f391 e6bd
00000370: 9291 33bc 3d67 963d ddd7 523d fc85 e23c
00000380: 73ea a23d eed8 623c 7d86 f53d 8289 82bd
00000390: 66ee d13d 90ee c43c 3021 e63d a1c6 9abd
000003a0: 8526 81bd a0b5 4cbd 8114 febd 9101 293d
000003b0: 5c70 2a3d bc76 b13d bd68 383d f295 5a3c
000003c0: 6718 8dbb 78eb 913d f173 0abd 7f5a d43d
000003d0: 9e96 e63d eb5b c73d eb3b fcbd 80fc 173d
000003e0: c53f 5abd d553 19bd c7d2 eebd 1f16 03bc
000003f0: 261a cfbd 3fdc ce3d bcae 30bb b529 123d

W_h.bias f4 [64]
-0.06691246 -0.023298861 0.0033153235 -0.06614816 0.10057765 -0.028318983 -0.04804115 -0.05174079
0.09226107 -0.037763987 -0.121187605 0.027606271 -0.019817716 -0.11269714 -0.027959952 -0.0077891788
0.026857505 0.022579066 -0.055613782 -0.120828666 0.11749159 -0.017606245 -0.06281249 -0.02343736
0.040107597 0.077780515 -0.061220862 -0.061735127 0.012718379 0.06637724 -0.036967825 -0.038485587
-0.12208031 0.123395234 0.009693692 -0.119662985 -0.043052997 -0.04521042 0.10813269 -0.08700423
0.041305277 -0.029043645 0.1161008 -0.08775771 0.050624147 0.1257041 0.015676508 0.0960707
0.05050509 -0.0976354 0.022339983 0.046859257 0.050351493 -0.07532975 -0.112007156 0.11114032
0.12271543 0.018271402 -0.0030283849 0.049833596 -0.0873019 0.10723759 0.001215361 -0.118158236
00000000: 6609 89bd 41dd bebc e645 593b b078 87bd
00000010: a8fb cd3d 36fd e7bc ccc6 44bd 27ee 53bd
00000020: 5ff3 bc3d 69ae 1abd 3531 f8bd 8c26 e23c
00000030: c358 a2bc c2cd e6bd 450c e5bc 5e3c ffbb
00000040: 4504 dc3c bcf7 b83c 47cb 63bd 0575 f7bd
00000050: 6e9f f03d f93a 90bc d6a3 80bd b5ff bfbc
00000060: dd47 243d 644b 9f3d bac2 7abd f9dd 7cbd
00000070: bf60 503c caf0 873d 936b 17bd 10a3 1dbd
00000080: 3e05 fabd a4b6 fc3d 4bd2 1e3c de11 f5bd
00000090: 5758 30bd 902e 39bd ac74 dd3d 462f b2bd
000000a0: b92f 293d f0ec edbc 42c6 ed3d 50ba b3bd
000000b0: 445b 4f3d 93b8 003e 056c 803c b7c0 c43d
000000c0: 6dde 4e3d 12f5 c7bd 5702 b73c 7eef 3f3d
000000d0: 5e3d 4e3d 7c46 9abd 0264 e5bd 899d e33d
000000e0: 3a52 fb3d e8ad 953c de77 46bb 501e 4c3d
000000f0: 57cb b2bd 629f db3d bf4c 9f3a f2fc f1bd

W_g.weight f4 [64, 64]
0.03837641 0.02171514 -0.11626179 -0.10968118 0.0101055885 -0.027126873 0.05788571 -0.06519283
0.09323024 -0.09537669 -0.048863184 0.059901994 0.01889815 0.056695748 0.050187502 0.008478739
-0.06554763 -0.08915653 0.019707536 0.08016812 0.11979736 -0.12600417 -0.01959228 0.037606765
0.053663645 0.083613805 0.04819711 -0.02582998 -0.011740199 0.10391607 0.04355267 -0.099274494
-0.03677204 0.106522284 0.073953725 -0.008499812 -0.107923575 0.044698168 0.10421959 -0.088244386
-0.041399848 0.08445766 0.0419312 -0.11534069 -0.08222147 0.080020584 -0.07873585 0.026473885
-0.08497188 -0.013863674 0.008006193 0.09633217 0.08999372 -0.013526565 0.051656384 0.008440041
0.05673212 -0.03998388 0.06540922 -0.12539954 0.064008825 -0.070626594 0.032344718 -0.02654239
0.10225901 -0.034262866 -0.06011911 -0.06992267 0.079483986 0.032792456 0.034400344 -0.07335718
-0.039239496 0.03543064 0.010435442 -0.097305834 -0.04660222 0.11990929 0.097969726 0.0564235
0.094713464 0.06846517 0.10431744 -0.0051118885 -0.03327495 0.011248405 0.015261039 0.08214301
-0.117321566 0.078547806 0.033918172 -0.07799868 -0.09045148 0.02286216 -0.037826315 0.011282916
0.093146876 0.12438854 0.113516256 0.04498306 -0.021938091 -0.02362821 -0.043817773 -0.032003984
-0.05741732 -0.091042936 -0.07836838 -0.12304643 0.0917985 -0.121702194 -0.11206561 -0.092004046
-0.002003637 -0.077462465 0.11867738 -0.0007683448 0.01171958 -0.006322429 -0.10421926 0.11150822
0.07072835 -0.027620172 -0.0011397555 -0.015746498 -0.097709045 0.03221849 -0.0737098 -0.11385082
-0.03218271 0.03764855 -0.119294606 -0.03623294 0.047874756 0.05310125 -0.11041818 0.10907807
-0.022894165 -0.08098882 -0.015007135 0.067423604 0.022746423 0.027745554 0.11485434 -0.054612838
0.020341316 -0.12481314 -0.012811224 -0.017952854 0.0975432 -0.092275046 -0.108978875 0.014099465
0.07628823 0.10752242 0.016466388 0.03542269 0.07187965 -0.03291408 -0.09890092 0.09610114
0.09578896 -0.12475344 -0.061863065 0.11693343 -0.1007011 0.097341456 0.109354146 0.05520522
-0.060192384 0.015850121 0.06645369 0.008164842 0.07897612 -0.12376053 -0.011680285 0.059490956
0.074445 0.103142895 0.102190726 0.085706644 -0.023940912 0.029287986 0.049004562 0.04794427
-0.12534355 -0.008860846 0.07263286 0.014345123 -0.102290295 0.11962836 -0.08854505 -0.040344797
-0.016320761 -0.006238907 -0.039701845 0.11549071 0.0878874 0.055759717 -0.11316199 0.07152853
0.075826176 0.0095041 -0.09315465 -0.041555893 -0.11507533 -0.0053280885 0.017743653 -0.033504438
-0.09345756 0.10296372 -0.10783579 0.074885316 -0.006603883 -0.077322416 -0.034277644 0.023927798
0.04362086 0.013786366 0.019738128 -0.008698145 0.017971447 -0.01788793 0.031672604 0.09799277
-0.08286921 0.1125397 -0.023661727 0.046223093 0.05609787 0.0904137 -0.036644753 -0.09833414
0.030064266 -0.047790702 0.028520351 -0.09535139 0.115638815 -0.09601822 -0.06154695 -0.12159651
0.058439706 -0.050416302 -0.11004055 0.06956903 -0.1090372 0.07329173 0.06771729 0.083815105
-0.10631702 0.06628581 -0.10359005 -0.016151305 -0.019076461 0.068898045 0.077062584 0.002847664
00000000: 9530 1d3d f3e3 b13c a91a eebd 87a0 e0bd
00000010: e991 253c 2d39 debc 9119 6d3d d283 85bd
00000020: 7fef be3d db54 c3bd c324 48bd cb5b 753d
00000030: 4bd0 9a3c cd39 683d 6991 4d3d 69ea 0a3c
00000040: d63d 86bd b397 b6bd b371 a13c 2f2f a43d
00000050: 5158 f53d 3d07 01be fd7f a0bc 8d09 1a3d
00000060: 69ce 5b3d b73d ab3d 556a 453d 6599 d3bc
00000070: f759 40bc f3d1 d43d 4964 323d 6d50 cbbd
00000080: 479e 16bd 5b28 da3d 0d75 973d cc42 0bbc
00000090: 0907 ddbd 6d15 373d 1571 d53d 79b9 b4bd
000000a0: e392 29bd 23f8 ac3d 0dc0 2b3d bd37 ecbd
000000b0: bb63 a8bd d5e1 a33d 4340 a1bd c3df d83c
000000c0: bd05 aebd 7724 63bc 682c 033c cd49 c53d
000000d0: a14e b83d 879e 5dbc a595 533d 1948 0a3c
000000e0: f15f 683d 23c6 23bd 45f5 853d bd68 00be
000000f0: 0f17 833d ada4 90bd e57b 043d 6d6f d9bc
00000100: 2c6d d13d 3857 0cbd 753f 76bd 9e33 8fbd
00000110: 80c8 a23d 6251 063d 60e7 0c3d 4a3c 96bd
00000120: 98b9 20bd b81f 113d 6bf9 2a3c 4848 c7bd
00000130: f8e1 3ebd 0093 f53d 5aa4 c83d 541c 673d
00000140: 22f9 c13d 7837 8c3d 62a4 d53d a181 a7bb
00000150: 504b 08bd 3b4b 383c 7009 7a3c 983a a83d
00000160: 4a46 f0bd acdd a03d c8ed 0a3d c6bd 9fbd
00000170: a03e b9bd 6d49 bb3c c4ef 1abd fbdb 383c
00000180: cac3 be3d 6bbf fe3d 367b e83d 2840 383d
00000190: 83b7 b3bc f38f c1bc 447a 33bd 9c16 03bd
000001a0: 6c2e 6bbd b874 babd 9a7f a0bd c4ff fbbd
000001b0: da00 bc3d 003f f9bd a882 e5bd 9e6c bcbd
000001c0: 734f 03bb a4a4 9ebd 200d f33d bf6a 49ba
000001d0: 7b03 403c 612c cfbb e870 d5bd 6c5e e43d
000001e0: 06da 903d b343 e2bc d963 95ba cdfe 80bc
000001f0: ae1b c8bd 89f7 033d 2af5 96bd 9e2a e9bd
00000200: 04d2 03bd 5e35 1a3d bb50 f4bd fe68 14bd
00000210: 5218 443d b280 593d ed22 e2bd 5364 df3d
00000220: 8b8c bbbc 77dd a5bd 7de0 75bc 6315 8a3d
00000230: b556 ba3c a54a e33c c138 eb3d b6b1 5fbd
00000240: d5a2 a63c 089e ffbd 2be6 51bc dd11 93bc
00000250: bbc4 c73d b3fa bcbd 5130 dfbd 7101 673c
00000260: 013d 9c3d b734 dc3d 85e4 863c 6217 113d
00000270: a335 933d ead0 06bd 918c cabd add0 c43d
00000280: 012d c43d bb7e ffbd 2064 7dbd cb7a ef3d
00000290: 613c cebd f55a c73d 11f5 df3d de1e 623d
000002a0: 4a8c 76bd 1dd8 813c df18 883d d4c5 053c
000002b0: 3bbe a13d 2976 fdbd ab5e 3fbc caac 733d
000002c0: 9f76 983d 953c d33d 5f49 d13d f786 af3d
000002d0: bb1f c4bc 5ced ef3c 02b9 483d 3661 443d
000002e0: 0f5a 00be 152d 11bc 89c0 943d cf07 6b3c
000002f0: 937d d1bd b7ff f43d 1b57 b5bd 9640 25bd
00000300: 1eb3 85bc bf6f ccbb 679e 22bd 6586 ec3d
00000310: 4ffe b33d 4d64 643d 79c1 e7bd 8d7d 923d
00000320: c14a 9b3d 16b7 1b3c ddc7 bebd 8336 2abd
00000330: 9dac ebbd 3f97 aebb 235b 913c f33b 09bd
00000340: ad66 bfbd a5de d23d 03d9 dcbd 795d 993d
00000350: 6365 d8bb 375b 9ebd b766 0cbd 3b04 c43c
00000360: c9ab 323d 36e0 613c dbb1 a13c aa82 0ebc
00000370: db38 933c b589 92bc 22bb 013d 6fb0 c83d
00000380: 55b7 a9bd 377b e63d 3dd6 c1bc 6d54 3d3d
00000390: e1c6 653d d12a b93d cf18 16bd 6963 c9bd
000003a0: 5649 f63c 2fc0 43bd 83a3 e93c 9747 c3bd
000003b0: 0bd4 ec3d 33a5 c4bd a818 7cbd 9707 f9bd
000003c0: 795e 6f3d 5381 4ebd f15c e1bd 357a 8e3d
000003d0: e54e dfbd f919 963d 5daf 8a3d 41a7 ab3d
000003e0: bdbc d9bd dbc0 873d 0527 d4bd be4f 84bc
000003f0: 3d46 9cbc 6b1a 8d3d fdd2 9d3d e09f 3a3b

W_g.bias f4 [64]
0.048032656 0.106881805 -0.054228425 -0.10588689 -0.09733465 0.12291914 -0.07980431 -0.02674605
-0.06238598 0.024026712 -0.105855085 -0.06012391 0.12218736 0.016163725 0.029889682 0.041940875
-0.02215851 0.056892533 -0.11409557 -0.11164468 -0.052992918 -0.04978929 0.09192929 0.097228765
0.050979715 0.089832574 0.020358568 0.056079257 -0.122870415 -0.12105276 -0.04128897 0.116043404
-0.13063277 0.051717233 0.059261456 0.11172117 0.10037835 -0.07791712 0.11736469 0.096906334
-0.028875452 -0.115545586 0.00925456 -0.06751776 -0.055316746 -0.104790725 -0.07995237 0.084201716
-0.05008171 0.057600133 -0.034912128 -0.099535525 0.003070799 -0.015089476 0.12279888 -0.08209225
0.044982314 -0.02659979 -0.061313327 -0.012409377 -0.07534576 0.057892166 -0.01800973 -0.015907727
00000000: e4bd 443d d9e4 da3d a01e 5ebd 3adb d8bd
00000010: 6457 c7bd 08bd fb3d 7170 a3bd 881a dbbc
00000020: 7188 7fbd abd3 c43c 8dca d8bd 7d44 76bd
00000030: 5e3d fa3d ca69 843c 35db f43c 32ca 2b3d
00000040: c385 b5bc 2508 693d f0aa e9bd f7a5 e4bd
00000050: 1a0f 59bd dbef 4bbd 6c45 bc3d e01f c73d
00000060: 1bd0 503d 24fa b73d 03c7 a63c 5db3 653d
00000070: 7ca3 fbbd 82ea f7bd 9f1e 29bd 2aa8 ed3d
00000080: 99c4 05be 73d5 533d 24bc 723d 12ce e43d
00000090: 2a93 cd3d 0393 9fbd e65c f03d d476 c63d
000000a0: 368c ecbc 2aa3 ecbd 70a0 173c c046 8abd
000000b0: d093 62bd 859c d6bd 11be a3bd f371 ac3d
000000c0: 7b22 4dbd 1eee 6b3d 0500 0fbd 48d9 cbbd
000000d0: 753f 493b d939 77bc fb7d fb3d fb1f a8bd
000000e0: 603f 383d cee7 d9bc af23 7bbd b350 4bbc
000000f0: e14e 9abd 5620 6d3d 2489 93bc ec50 82bc

W_x.weight f4 [64, 1]
0.35614955 0.80142057 -0.15320398 -0.6878407 0.4080144 -0.35087013 0.8102154 -0.23069403
0.025991147 -0.62004954 -0.15220699 -0.91190976 -0.11512873 -0.47143728 -0.8283722 0.75305295
0.59888893 -0.27969274 0.29519558 0.56452197 0.07031213 -0.06161846 -0.14529945 -0.34720865
-0.6616197 -0.8398704 -0.6643523 0.3505544 -0.038174566 -0.94054174 0.59638363 0.29452026
-0.15069884 0.40746963 -0.81144226 0.27946842 -0.33811975 0.8519759 0.76129955 0.8776465
-0.28371638 -1.0087154 0.71355236 -0.92172664 0.8493475 0.8065176 0.93417907 0.20698498
0.19380595 0.115336604 -0.81559354 0.3213526 -0.68639195 -0.93524563 -0.5608356 -0.83559924
0.2649805 -0.19247961 -0.43406984 0.04906009 0.65643835 -0.027699223 0.2022994 0.73808527
00000000: 3c59 b63e e629 4d3f 81e1 1cbe 5416 30bf
00000010: 43e7 d03e 40a5 b3be 476a 4f3f 0e3b 6cbe
00000020: 63eb d43c 91bb 1ebf 26dc 1bbe eb72 69bf
00000030: 9dc8 ebbd 3a60 f1be 3310 54bf 14c8 403f
00000040: c950 193f e333 8fbe e023 973e 8384 103f
00000050: ceff 8f3d a363 7cbd 61c9 14be 55c5 b1be
00000060: e95f 29bf bf01 57bf fe12 2abf de7b b33e
00000070: ef5c 1cbd 58c7 70bf 99ac 183f 5ccb 963e
00000080: cc50 1abe dc9f d03e aeba 4fbf 7c16 8f3e
00000090: 081e adbe 181b 5a3f 87e4 423f 71ad 603f
000000a0: 4643 91be 961d 81bf 5eab 363f 47f6 6bbf
000000b0: d66e 593f f077 4e3f 5c26 6f3f dff3 533e
000000c0: 1175 463e 9935 ec3d bdca 50bf 5488 a43e
000000d0: 62b7 2fbf 426c 6fbf ec92 0fbf d5e9 55bf
000000e0: 86ab 873e 6019 45be 673e debe 3cf3 483d
000000f0: 580c 283f 7be9 e2bc 9327 4f3e 28f3 3c3f

W_x.bias f4 [64]
0.28829902 -0.29230517 0.3550129 -0.4326494 0.36707535 -0.71888745 -0.74086344 -0.4070756
-0.20416085 0.6390588 0.60201883 -0.8689416 -0.49911818 0.6276827 0.42606395 0.2331073
-0.5252633 0.19887757 -0.56491065 0.18897754 -0.67771024 -0.43814522 -0.44693345 0.5710052
-0.6464773 -0.8667053 -0.030183967 0.7687033 0.011646449 -0.08547871 0.3633136 -0.26253274
0.30157217 0.21015003 -0.82326245 0.267652 -0.42907447 -0.47829816 -0.06312147 -0.5838032
-0.35365757 0.35352188 -0.44553688 0.5758918 0.042315602 -0.52723986 -0.80976963 0.26664686
0.7117875 0.5495221 0.916487 -0.6192353 -0.5197883 -0.34480736 0.78115803 0.32629028
0.44556504 -0.20326586 0.81108534 -0.018337168 0.8442466 0.83243114 0.93814176 0.9534056
00000000: ee9b 933e 06a9 95be 40c4 b53e 3984 ddbe
00000010: 4df1 bb3e 0209 38bf 3aa9 3dbf 376c d0be
00000020: 8b0f 51be 5c99 233f e81d 1a3f f572 5ebf
00000030: 6b8c ffbe d0af 203f 0e25 da3e aeb3 6e3e
00000040: a877 06bf 90a6 4b3e fc9d 10bf 5483 413e
00000050: 6b7e 2dbf 9254 e0be 76d4 e4be 662d 123f
00000060: 897f 25bf 66e0 5dbf 5e44 f7bc bdc9 443f
00000070: bfd0 3e3c 760f afbd 3d04 ba3e b16a 86be
00000080: ab67 9a3e 9231 573e 54c1 52bf af09 893e
00000090: a6af dbbe 7fe3 f4be d445 81bd 2074 15bf
000000a0: 9b12 b5be d200 b53e 691d e4be a56d 133f
000000b0: 2053 2d3d 31f9 06bf 104d 4fbf f085 883e
000000c0: b537 363f 7bad 0c3f e49e 6a3f 3486 1ebf
000000d0: d910 05bf 978a b0be f9f9 473f 850f a73e
000000e0: 1a21 e43e ed24 50be 4aa3 4f3f d437 96bc
000000f0: 8c20 583f 351a 553f 0f2a 703f 6412 743f

W_1d.weight f4 [1, 64]
-0.029330026 0.07930204 0.08601739 -0.08964511 0.058426682 0.0023895898 0.009235107 -0.03500278
0.04998027 0.035288237 2.3203447e-05 0.06939139 0.04039368 0.0020888569 0.039923333 0.11276962
-0.05158599 -0.0011454818 -0.07448984 0.04303632 -0.115047045 -0.012094595 -0.032423507 0.01653428
-0.0026699547 0.028492596 -0.089740485 0.080095485 0.06824563 0.049291637 0.10941664 0.07936436
-0.0024088877 0.08396963 -0.070587024 -0.07123017 0.0064397943 0.0040102014 0.07341075 0.017592518
0.058011815 -0.023277076 0.08945096 -0.05631144 -0.0672361 -0.004495948 -0.10073096 -0.047011796
-0.018274877 -0.0032442969 -0.029884262 -0.03464692 0.022312464 0.0072857784 0.08053756 -0.057263423
0.1150966 -0.016469225 -0.002750711 -0.09489292 -0.096740276 -0.106234886 -0.07087267 -0.06416053
00000000: 8645 f0bc 1c69 a23d e329 b03d db97 b7bd
00000010: d150 6f3d aa9a 1c3b d94e 173c 135f 0fbd
00000020: 1db8 4c3d 668a 103d 06a5 c237 131d 8e3d
00000030: d873 253d 34e5 083b a686 233d c2f3 e63d
00000040: d54b 53bd fe23 96ba 218e 98bd da46 303d
00000050: c99d ebbd 6828 46bc 83ce 04bd e672 873c
00000060: 68fa 2ebb 4e69 e93c dcc9 b7bd 1a09 a43d
00000070: 5dc4 8b3d 07e6 493d d515 e03d c889 a23d
00000080: 6ede 1dbb 45f8 ab3d ee8f 90bd 20e1 91bd
00000090: e904 d33b 0268 833b 6058 963d 2f1e 903c
000000a0: cc9d 6d3d 91af bebc 1132 b73d d3a6 66bd
000000b0: 15b3 89bd bf52 93bb 094c cebd 718f 40bd
000000c0: 32b5 95bc 459e 54bb d7cf f4bc eee9 0dbd
000000d0: a1c8 b63c 8abd ee3b e0f0 a43d 0d8d 6abd
000000e0: c4b7 eb3d 78ea 86bc 4645 34bb 3857 c2bd
000000f0: c41f c6bd ad91 d9bd b125 91bd 9966 83bd
