model_weight/best_BRAZIL_model.pth (torch, 73864 bytes, 14 tensors)

lstm_cells.0.b_c f4 [64]
000000 53 fe 7e 3d 87 e1 6b bd 12 18 a7 bd bd 45 4b 3d
       0.06225426 -0.057588127 -0.08158888 0.049627054
000010 0b a6 86 bd de 6d 13 3d ce b9 b0 bc c4 3e dd 3c
       -0.06574639 0.03599345 -0.021572974 0.027007468
000020 1f 17 b2 3d 71 42 2a bd 01 45 59 3d a8 02 f3 bc
       0.08695816 -0.04156727 0.053044323 -0.029664353
000030 a1 82 77 3c c9 88 ed bc 30 73 84 bb 9c d4 b2 3d
       0.015106828 -0.028995888 -0.0040420517 0.08731958
000040 e3 1a ae 3d bc 5b 51 3c 86 2f 80 3d 0f 11 3a bb
       0.08501222 0.012778219 0.062590644 -0.0028391515
000050 13 07 d1 bc 15 ee 54 3c c8 85 bd 3c 38 0c 11 bd
       -0.025516069 0.012996216 0.023135081 -0.035412043
000060 1d 97 1e 3c 87 63 03 bc d5 c5 93 3a d3 45 e3 3c
       0.009679583 -0.008019335 0.0011274169 0.027743256
000070 a5 cb 42 bd e9 24 68 bd 46 01 61 bd 01 3e 79 3d
       -0.04755749 -0.056675825 -0.054932855 0.060850147
000080 bc cf 9b 3d fc 18 6d 3d 35 71 05 bd c6 34 94 bc
       0.076079816 0.057885155 -0.032578666 -0.01809157
000090 97 5d 7e 3c 4e f7 bc bd b3 d7 fa bb f6 96 71 3c
       0.015525243 -0.09226857 -0.007655108 0.014745465
0000a0 af 5d 97 3d d7 e8 49 3d e8 f6 50 bd 75 f8 bb 3c
       0.073909156 0.04929432 -0.05101672 0.022945622
0000b0 9c 0b b3 bc 9c 1d 94 3c 90 0b 0a 3b 43 a8 6a 3d
       -0.021856122 0.018080525 0.002106402 0.057289373
0000c0 5c be 9a bd 59 38 2e bc b6 59 62 3d c1 3d 18 3c
       -0.075558394 -0.0106335515 0.055261336 0.009292067
0000d0 27 1a 88 bc 1d be f2 bd 33 6c b3 bd f2 5e 99 bd
       -0.016614033 -0.118526675 -0.08760872 -0.074888125
0000e0 d7 b3 3a bc b5 fa 3b 3d cd 00 09 3c 80 c6 ea bb
       -0.011395416 0.04589339 0.008362007 -0.0071647763
0000f0 76 6c d3 3c 95 8b c5 ba f3 cb a8 bd fb 6a 4b bd
       0.025808554 -0.0015071506 -0.08242025 -0.04966257

lstm_cells.0.W_ic.weight f4 [64, 1]
000000 ec 75 a3 be e7 ac 3e 3f 37 bf cc be 8f 15 1d bf
       -0.31925905 0.7448258 -0.39989635 -0.6136102
000010 be a3 d3 3e d8 de 9f 3b f5 90 2f bf 5a a3 4b 3f
       0.41335863 0.00487886 -0.6858056 0.7954613
000020 65 74 a8 be 16 0a 1e bf 1e 31 5e bf fe d3 d5 3e
       -0.32901302 -0.6173414 -0.86793697 0.417633
000030 58 e9 2b bf 0a 14 d6 3e fa 26 b3 3e 88 9a 93 be
       -0.6715293 0.41812164 0.34990674 -0.28828835
000040 41 4d 48 3f a8 32 8c 3e fa 02 18 be 68 3e 1a bf
       0.7824288 0.27382398 -0.14844885 -0.60251474
000050 90 b9 6e 3f 29 18 7e bf b3 05 84 3e 26 3e 59 bf
       0.93251896 -0.99255615 0.25785598 -0.84860456
000060 b0 dc f7 3e 99 7c 37 3f d6 80 e9 be 3a 4d 57 bf
       0.4841056 0.71674496 -0.45606107 -0.84102213
000070 8c ce 5d 3f 8a 85 dc 3d 1c 33 71 be 0a 50 45 bf
       0.8664329 0.10767658 -0.23554653 -0.77075255
000080 99 57 1c 3f 68 53 09 3f ee 01 3d 3d aa 95 57 3f
       0.61071163 0.5364289 0.04614442 0.84212744
000090 d5 2e e4 be 10 4a 85 be 5d 0a 7f 3e 16 9a 48 bf
       -0.4456698 -0.26033068 0.24906297 -0.78360116
0000a0 b1 7c 2e bd bb 05 71 3f ca 09 7a 3d 8d e4 d9 be
       -0.042599384 0.9414937 0.06104449 -0.42557183
0000b0 24 22 03 bf a4 8d 2e 3e dc a8 62 3e 01 a5 f7 be
       -0.5122397 0.17046219 0.22134727 -0.48368075
0000c0 dd 83 f1 3d 11 f1 44 3f 6d 88 df be 48 ad 1c 3f
       0.11792729 0.7693034 -0.43658772 0.61201906
0000d0 35 60 a2 3e 5f 12 09 bf d3 7f 5e bf f9 d8 f6 3e
       0.31714025 -0.5354366 -0.86913794 0.48212412
0000e0 c7 2e 6c bf 36 63 12 3f ba 11 1b 3f 70 cc 4e bf
       -0.92258877 0.57182634 0.60573924 -0.80780697
0000f0 83 4b ef be 41 9f 0c 3f 58 3e 89 be 92 1e 3c 3f
       -0.46737298 0.549305 -0.26805377 0.73484147

lstm_cells.0.W_ic.bias f4 [64]
000000 87 4d 4f be 83 95 5e 3f 3f 1d c1 3e e0 b7 37 bf
       -0.20244418 0.86946887 0.37717625 -0.71764946
000010 28 74 0b 3f 0e 4a 21 bf 1e 51 1b bf 4f 34 aa be
       0.54474115 -0.63003623 -0.6067065 -0.33243033
000020 b5 0b 55 bf db 66 18 bf d8 a7 17 bf 01 62 2a 3f
       -0.8322099 -0.59531945 -0.59240484 0.6655579
000030 a4 85 7d 3e 07 7a 27 3f 98 3c 0e be c3 e7 e5 be
       0.24758011 0.65420574 -0.13890302 -0.44903383
000040 7d f1 d1 be 91 5b 14 3f 93 fd 31 bf c8 9a 38 bf
       -0.41004553 0.5795222 -0.6952755 -0.7211118
000050 0d a6 5d be 35 3a 19 bc c1 86 d5 be 3e c5 23 3f
       -0.21645375 -0.009352257 -0.41704372 0.6397284
000060 4b 6f dc 3e 1f d6 1b 3f 8a 19 24 be 54 c7 c6 3c
       0.4305366 0.608736 -0.16025367 0.024264969
000070 ff 13 18 3f 61 b1 49 3d 16 d8 41 3f 7e d1 37 bf
       0.5940551 0.049241427 0.75720346 -0.71804035
000080 43 7e e0 bb 69 45 3f bf 69 bb 86 bd 1d 3c 40 3f
       -0.006850989 -0.74715286 -0.065787144 0.75091726
000090 75 15 78 bd 6d 94 5f 3f a8 25 00 3e ef ff 88 be
       -0.060567338 0.87335855 0.12514365 -0.26757762
0000a0 c1 b4 07 bf ec 33 0d bf 81 d8 45 3e f8 81 36 bf
       -0.53010184 -0.5515735 0.19320871 -0.71292067
0000b0 94 fc c6 3e 13 19 5d be d9 ae 70 3c 79 a8 62 bf
       0.38864577 -0.21591596 0.014690124 -0.8853832
0000c0 62 d8 59 3f 76 30 9d 3e 97 c3 31 bf f1 79 47 3f
       0.850958 0.30701035 -0.6943907 0.7792044
0000d0 0a 9c 73 3e b4 9e 24 3f e7 8b 60 3f d1 ef 35 3f
       0.23789993 0.6430466 0.87713474 0.71069056
0000e0 d3 1e 68 3c f9 37 fe 3e 50 b3 e3 be f6 67 61 3e
       0.014167505 0.4965208 -0.44472742 0.22012314
0000f0 fe 66 a7 be 24 ce 6f be ac 1b 83 3d a6 41 3e 3f
       -0.32695764 -0.2341848 0.06401762 0.7431892

lstm_cells.0.W_hc.weight f4 [64, 64]
000000 c5 cf 05 3d fc 41 a5 bd 3a 8d a4 3d b8 40 67 bd
       0.032668848 -0.08069226 0.08034749 -0.056458205
000010 ea e8 9b 3c e9 2a b5 bc c8 bb b3 bd 43 e8 d3 bc
       0.01903196 -0.022115188 -0.08776051 -0.025867587
000020 37 f4 16 3e 07 a3 15 3e fa 0a 01 3e 60 ed bf bc
       0.14741598 0.14612971 0.12601843 -0.023428619
000030 a7 ed a2 bd 99 da 0e 3e d5 da fb bb ca dc 94 bd
       -0.07955485 0.13950576 -0.007685999 -0.07268675
000040 40 77 a0 bd 45 d3 4a 3e 30 42 8e 3d 50 e3 bb 3d
       -0.07835245 0.19807155 0.06946218 0.09174216
000050 ed 65 63 bd 0c 72 86 bd 6c 2f f8 bb 7b 6d da bc
       -0.055517126 -0.065647215 -0.0075740125 -0.026663532
000060 a9 e5 21 3d 55 c9 dc 3d fd b9 9a 3d 82 0c 9b bd
       0.03952566 0.107805885 0.07555006 -0.07570745
000070 2d b9 0a 3e e5 7e a5 bd 63 23 e0 3d ea e6 de bd
       0.13547201 -0.08080844 0.109442495 -0.10883887
000080 8e 63 11 bc ae 4d e2 bc e0 9b f3 bd e9 77 27 3d
       -0.008873833 -0.027624931 -0.11894965 0.04088584
000090 89 24 bd 3d b0 e7 2a bd bc e6 40 3e 76 16 c6 3c
       0.09235484 -0.04172486 0.18838018 0.024180632
0000a0 e2 02 ba bd 2a 19 a4 bd 1a 2a 89 3c 08 eb 1f 3d
       -0.09082581 -0.08012612 0.016743708 0.039042503
0000b0 3c 44 75 3d a8 0d 0a 3d bb 39 23 bd ad 3c 2e 3c
       0.059879526 0.03370443 -0.039849978 0.010634583
0000c0 51 43 1d 3e 9e 9f bf 3d e8 cd bb 3d 8a a0 97 3c
       0.1535771 0.093566164 0.09170133 0.018509168
0000d0 8b 60 ba 3d b3 6e 6b bc 68 db 6c 3b 57 56 54 3c
       0.09100445 -0.0143696545 0.0036141519 0.012960038
0000e0 4f c8 6a 3d 9c e5 65 3d 71 82 78 3a 1c d2 a7 bd
       0.057319935 0.056127176 0.00094798865 -0.08194372
0000f0 f8 bf ac bd d1 9b 15 bd 60 a3 65 3d 70 43 aa bc
       -0.08435053 -0.03652555 0.05606401 -0.02078411
000100 49 d0 31 bd 6d 69 f0 bd c6 50 b0 bd 21 8f 8e bd
       -0.043411527 -0.11738858 -0.08609156 -0.069608934
000110 de ad 92 3d 97 e9 91 3d a4 66 0e 3e d8 72 ce 3d
       0.07162069 0.07124632 0.13906342 0.100804985
000120 a0 4f 9d bd f1 70 73 bd ce 78 c1 bb 95 22 7f bd
       -0.07681203 -0.05943388 -0.0059042936 -0.06228884
000130 f8 f0 2a bc d7 8b a4 3d 98 7b 5f 3d b3 6b 0e bd
       -0.010433428 0.08034485 0.054561228 -0.03477068
000140 4f d6 6b 3d 90 9b 44 be 4f 50 a2 bb 07 52 ad bd
       0.057577427 -0.19199967 -0.004953421 -0.08462911
000150 0d 93 df bd ed ca d4 bd d4 94 27 3d 82 79 d6 3b
       -0.109167196 -0.103902675 0.040913418 0.0065452466
000160 34 72 08 be 70 06 7c bd ef a3 08 bd 81 41 49 bd
       -0.13324815 -0.061529577 -0.033359464 -0.049134735
000170 b6 74 fd 3c e9 e2 2b 3d 4a 78 1f 3d ad 45 65 bd
       0.030939441 0.041964445 0.038933076 -0.05597465
000180 9c 26 b8 bd b9 52 1d 3d 14 a6 c0 3d b1 9f 0a be
       -0.08991739 0.03840897 0.09406677 -0.1353748
000190 b7 64 f8 bc 30 ee 9c 3c 2e d9 30 bd 22 fd d5 bd
       -0.030321462 0.019156545 -0.04317587 -0.10448672
0001a0 10 1b db b9 cf 84 1e 3d 08 93 95 3d 12 14 0f 3d
       -0.00041791098 0.038700875 0.073034346 0.03493125
0001b0 5a fc 2d bd 35 5d 02 3e 71 fe da 3d c7 2b 17 bd
       -0.04247699 0.12730868 0.10693062 -0.036906984
0001c0 e3 b8 5f 3d 80 11 c8 bd eb 82 61 3d 0d 85 d6 bc
       0.05461968 -0.09768963 0.055056494 -0.02618649
0001d0 34 87 1b bd 06 1d 10 bc 2b 3e ac bc ca ae 0f bc
       -0.037970737 -0.008795982 -0.021025738 -0.0087697
0001e0 9c aa b0 bd 06 ce 09 bc 21 06 a5 3d 16 64 fa bc
       -0.08626291 -0.008410936 0.080578096 -0.030565303
0001f0 3c 6f 90 3d 8b 93 8a bc 73 82 f5 3c a0 fd 96 3d
       0.07052466 -0.016916057 0.02996943 0.07372594
000200 d5 0a b0 3d 10 4c b0 39 70 11 e9 bd e8 e9 0f 3c
       0.08595816 0.00033626007 -0.11380279 0.008783795
000210 6c 78 16 be ed 23 34 bc f6 fa d8 3d 61 c6 a8 bc
       -0.14694375 -0.0109948935 0.10594742 -0.020602407
000220 9b 41 95 3c a9 a1 1f bc 6b 42 67 3c d9 7b 95 3d
       0.01821976 -0.009743133 0.014114956 0.07299013
000230 5e 73 a9 bc 5b e6 33 be 91 9f 08 3e 45 10 d6 bd
       -0.020684894 -0.17568342 0.1334212 -0.10452322
000240 38 57 ab 3d 4d 3f ff 3c f7 53 98 bd b9 f5 c8 3d
       0.08366245 0.031158114 -0.0743789 0.09812493
000250 80 69 8a bd 51 cb a0 bd be 60 e0 3d c9 bb 08 3d
       -0.06758404 -0.078512795 0.10955952 0.03338221
000260 8b 87 a7 3d 5c 90 84 bd ca 72 fd 3b 31 40 05 be
       0.0818015 -0.06472847 0.007734631 -0.13012768
000270 21 84 92 bd fa 9a 9f bc a3 67 5d 3d 3c cd 65 bc
       -0.07154108 -0.019483078 0.054053914 -0.0140259825
000280 2a 5f 38 3d 03 68 0e bd 57 20 04 3d 10 0d 9a 3d
       0.04501263 -0.034767162 0.032257404 0.07522023
000290 ba 56 84 bd a5 1b e6 bd 06 eb dd bd aa c7 f3 3c
       -0.06461854 -0.112357415 -0.10835843 0.029758293
0002a0 a4 81 f9 3d 7f b6 4c bd 74 96 5c 3b 2e 45 06 bd
       0.1218293 -0.04997873 0.0033659013 -0.03278082
0002b0 04 d8 9e 3a f6 e7 d7 3c 13 20 e6 3d b4 34 6b bd
       0.0012118821 0.026355725 0.112365864 -0.05742331
0002c0 dd 87 b9 3d aa 52 42 3c d1 ef bd 3d 84 e9 e1 3c
       0.09059117 0.011860529 0.09274257 0.02757717
0002d0 3a eb a9 bd 68 b5 90 3c 90 1e 3d bd be ab 0b 3d
       -0.08296819 0.017664626 -0.046171725 0.034099333
0002e0 f0 51 6a bd 6f ad 5c 3d b1 8e f8 3d 63 7d 50 bd
       -0.057207048 0.053876337 0.12136591 -0.050900828
0002f0 02 e6 93 3c 1e 37 b2 bd 8b cc d8 3b 30 cd 22 3d
       0.018054012 -0.08701919 0.0066161803 0.039746463
000300 0d 79 0c 3d f0 b8 bb 3d 56 58 bf bd 99 f0 bd bb
       0.03429513 0.091661334 -0.093430206 -0.0057965037
000310 ff 15 6d bd 3a 18 92 3d 10 56 1f bd f5 05 cf 3d
       -0.057882305 0.07133527 -0.038900435 0.10108558
000320 f9 5c af bd af 49 c3 bb 28 87 96 3c 8c f8 33 3d
       -0.08562655 -0.0059597115 0.018374994 0.043938205
000330 99 35 76 3c f5 3d 80 3d 98 ea 0d bd b1 0a 75 3c
       0.015027427 0.06261817 -0.034647554 0.014956162
000340 83 58 0a bd 31 27 dc 3d 0c 24 ee 3c a8 d1 ef bd
       -0.033775818 0.10749663 0.029069923 -0.11709911
000350 eb d1 d2 3c 58 a3 ca bc 93 77 38 3d 13 ba a8 3d
       0.025734862 -0.024736091 0.04503591 0.08238616
000360 d5 18 65 bd 83 fc a8 3d 4b dd 70 bd 6c 3b 4a bd
       -0.055931885 0.08251288 -0.05880479 -0.049373075
000370 0f e3 26 bd af f2 b2 3d a3 59 a4 bd 44 25 ed 3c
       -0.040743884 0.087376945 -0.08024909 0.028948434
000380 8d a0 31 bd 82 99 5a bd 49 bb bd 3c a9 8a 3f 3d
       -0.043366004 -0.053369053 0.023160594 0.046763096
000390 4c 1a 2d 3c 1c ee ce 3c 5e 25 fb 3d 55 b5 ff bd
       0.010565352 0.025260024 0.122629866 -0.12485758
0003a0 57 2b a9 bd 1a 55 af bc 59 2f 35 3e 7b 7b 12 bb
       -0.082602195 -0.021402884 0.17693843 -0.0022351432
0003b0 f3 2f 8f bd 27 ed a5 3d ce 6f 8a bc 9f e6 99 3c
       -0.069915675 0.08101874 -0.016899016 0.018786727
0003c0 b2 b5 eb 3d 82 34 1a 3e a8 6e 09 be e3 04 83 bd
       0.11509265 0.15059093 -0.13421118 -0.063974164
0003d0 d9 f0 93 3d dc 2f bc bd ab 26 1c bd bc 7a 5b 3d
       0.072236724 -0.09188816 -0.038122814 0.053583845
0003e0 12 68 01 be b1 ca ef bd 5b bf 61 bd 6f e3 b7 3c
       -0.12637356 -0.11708582 -0.05511413 0.022447316
0003f0 6e 8f ab 3d c0 e7 14 bd f7 45 17 bc 4a 7a 24 3d
       0.083769664 -0.036353827 -0.0092329895 0.040155686

lstm_cells.0.W_hc.bias f4 [64]
000000 35 d7 36 3b 40 ee 1a be 07 24 8b bd b3 90 2c 3e
       0.002789927 -0.15129948 -0.06793981 0.16852073
000010 de 5d f9 bd 9d 03 bc 3d 79 ed 8a bd 8c 3e b3 bd
       -0.12176107 0.09180377 -0.067835756 -0.08752164
000020 b9 a7 52 3e ed 79 59 3d 3a 47 14 3e 8f 77 00 3d
       0.20571794 0.053094793 0.14480296 0.03136402
000030 c6 de ab bd 99 01 aa 3d 34 71 53 3c 4c 32 d7 3d
       -0.083921 0.08301086 0.012905408 0.1050764
000040 67 77 45 3e 64 ff c3 3c 37 58 5f bc e5 94 ff bc
       0.1928383 0.02392549 -0.013631872 -0.031198928
000050 8a bb 09 3d 3d 84 d0 bd 65 c2 a4 bd f7 c2 24 bc
       0.033626117 -0.101814725 -0.0804489 -0.010056249
000060 b9 d4 e1 3d 7d 81 85 bd 16 a1 7e bc c3 fb cd 3c
       0.11026902 -0.065188386 -0.015541336 0.025144463
000070 82 f3 9a 3c 07 a1 21 3d 63 37 93 bd 04 dc 67 3b
       0.018914942 0.03946021 -0.071882986 0.0035378942
000080 3d d2 0c 3e 8e f9 39 3e 73 41 02 3c 7b 93 93 3d
       0.13752075 0.18161604 0.007950175 0.07205864
000090 ef 82 f1 b9 42 21 1f be 3b 71 f7 bd 59 db 4e bd
       -0.00046064655 -0.1554003 -0.12082144 -0.050502155
0000a0 a5 2d 03 3e 9b c4 5f bd 20 2f 5d bd 64 1f cd bd
       0.12810381 -0.054630857 -0.05400002 -0.10015753
0000b0 24 99 94 bd 9c 43 84 3d 1e ae e0 3d ed 42 f1 3d
       -0.07255772 0.06458208 0.1097071 0.11780343
0000c0 f8 b7 e3 bd 7f 0e 53 bd d9 ee 77 bd 62 19 c6 3c
       -0.11119074 -0.051527496 -0.060530517 0.024182025
0000d0 50 97 31 3c 1f bf f3 bb 01 0e ed 3c 6a a3 46 bd
       0.010839298 -0.007438555 0.028937342 -0.048495688
0000e0 50 3d f4 bd 6c 28 f0 bb 01 9b c7 bc 98 d9 95 3c
       -0.11925757 -0.0073290374 -0.024365904 0.018292233
0000f0 c4 82 dd 3d df 67 b3 3d 82 57 03 3d bd db 21 bd
       0.10815957 0.08760046 0.032065876 -0.0395162

lstm_cells.0.W_in.weight f4 [64, 64]
000000 f4 9c 4c 3d 6c bb da bd c0 28 bf 3b 1e f2 dd bd
       0.04995437 -0.10680279 0.005833715 -0.10837196
000010 80 6d 43 3d a6 01 c1 3d 1c 21 c3 3d e0 f5 3a bc
       0.04771185 0.094241425 0.095277995 -0.01141116
000020 ee fe f7 3d f0 ed 2f bd 6e a7 8f 3d 60 91 32 bd
       0.12109171 -0.042951524 0.070143566 -0.04359567
000030 be 76 e3 3d f0 12 90 3d 20 b3 3e bc da 37 9f 3d
       0.11106633 0.07034862 -0.011639386 0.07774325
000040 3c 1f 4f 3d be 24 c1 bd e0 39 8a bc 54 9a bb bd
       0.050566897 -0.09430836 -0.0168733 -0.09160295
000050 9c 47 22 3d 0c 86 eb bd 38 b6 c0 3c 80 b0 2c 3b
       0.039619073 -0.11500177 0.023524389 0.002635032
000060 62 d8 dc 3d 68 e9 c6 bc 28 34 83 bc 4c c1 85 bd
       0.10783459 -0.024281219 -0.016016081 -0.06531009
000070 70 a2 66 bc e0 58 a0 3d 4c a4 a1 3d 6c b8 d6 3d
       -0.014076814 0.078294516 0.07892665 0.104843944
000080 08 4f 8c 3c f0 ce 58 3d e8 e4 fe bd 40 f1 3a 3c
       0.017127529 0.052931726 -0.12446004 0.011410058
000090 1a 49 8b bd 20 fb ba bc 40 c1 94 bd 0e f8 83 3d
       -0.068010524 -0.022824824 -0.07263422 0.06443797
0000a0 b0 ba 21 3c 9c 19 20 3d 8e 20 d6 bd b4 91 90 bd
       0.00987117 0.039086923 -0.10455428 -0.07059041
0000b0 50 f2 c9 bc d0 7d 03 3d ea c0 9f bd 12 50 ad bd
       -0.024651676 0.032102406 -0.07800467 -0.08462538
0000c0 50 5a f5 3c 18 bb 1f bd f0 f6 45 bc 5e be 82 bd
       0.02995029 -0.038996786 -0.0120828 -0.06383966
0000d0 48 23 2c 3d 00 65 44 ba e0 05 0c 3c 88 c3 66 bd
       0.042025834 -0.0007491857 0.008546323 -0.056338817
0000e0 b8 16 59 bd 5e 89 d0 3d d0 7f 78 3d e8 2f c7 bc
       -0.053000182 0.10182451 0.060668766 -0.024314836
0000f0 e4 e7 40 bd 48 c7 96 bc 88 e8 c9 bc ba dc c4 3d
       -0.047096148 -0.018405572 -0.024647012 0.09612413
000100 c2 23 b4 3d 04 9a b8 3d 4a 9e 93 3d a0 79 a1 bd
       0.08795883 0.09013751 0.072079256 -0.07884526
000110 f0 0f a7 bd b2 e2 d7 3d c0 3d 7d 3d bc b4 9a bd
       -0.08157337 0.105412856 0.061826468 -0.075540036
000120 80 b7 e1 3c 90 d6 1e bd c2 98 99 3d 9c 1c f5 bd
       0.02755332 -0.03877884 0.07499839 -0.119683474
000130 c0 e0 5c bb b8 e4 8a 3c d0 c0 8a 3d c0 3d 16 bc
       -0.0033703297 0.016954765 0.06775057 -0.009169996
000140 74 53 36 bd 00 66 7e bc 38 dd 38 3d ac 32 14 3d
       -0.04451318 -0.015527248 0.045132846 0.036181137
000150 9e 4b 9d bd ac 80 2d 3d 30 d9 02 bc f8 61 47 bd
       -0.076804385 0.04235904 -0.007986352 -0.048677415
000160 a4 a6 ef bd 20 38 ec bd 64 97 81 3d f8 56 15 3d
       -0.11701706 -0.115341425 0.063277036 0.036459893
000170 e6 6a a2 3d 6c de 5b bd 8c 53 65 3d ca 38 f2 bd
       0.079305455 -0.053678915 0.05598788 -0.11827238
000180 aa 70 91 bd c4 ec e7 bd c8 26 ea bc b4 65 69 3d
       -0.07101567 -0.11324456 -0.028582945 0.056981757
000190 26 b1 82 3d e0 a6 ac 3d 30 1b bf bc 0a 51 95 3d
       0.06381445 0.084302664 -0.023328394 0.072908476
0001a0 28 4a d0 3c 88 d6 f7 3c ca 37 a6 3d ae 2c ee 3d
       0.025425985 0.030253664 0.0811611 0.11629616
0001b0 1e 08 fb 3d b8 7d aa bd 2e ec a3 3d 76 46 85 bd
       0.122574076 -0.0832476 0.08004032 -0.0650758
0001c0 5c c2 8a 3d a2 2e 9b 3d f4 45 72 bd 7c e3 4d 3d
       0.06775352 0.07577254 -0.059148744 0.050265774
0001d0 ce f0 95 bd a0 cf 39 3c 04 15 97 3d e0 41 96 bb
       -0.073213205 0.011341006 0.07377055 -0.0045854896
0001e0 f0 79 8e 3c 38 9c 96 bd 94 73 48 3d 80 f4 57 3d
       0.017392129 -0.07354015 0.04893835 0.052723408
0001f0 70 e1 b2 bc b2 b8 c0 bd 3a b4 9c 3d 08 b3 f1 bd
       -0.021836013 -0.09410228 0.07651563 -0.118017256
000200 40 73 d8 3c 4c 83 3b 3d ea 63 98 3d 70 43 1b bd
       0.026422143 0.04577951 0.07440932 -0.03790611
000210 4a 66 f2 bd b2 6d f6 3d 66 89 87 bd 10 75 e4 bd
       -0.11835916 0.120326415 -0.066180035 -0.111551404
000220 50 e8 ac 3c 6a a8 ae bd 00 ed 38 bb 22 06 f4 3d
       0.021106869 -0.08528216 -0.0028217435 0.11915232
000230 ee 9b a0 3d 8a 23 aa 3d f0 bb 39 bd 84 65 ae bd
       0.07842241 0.0830756 -0.045345247 -0.08515456
000240 a8 19 e7 bc 00 15 35 bb d2 d7 9b bd b0 1b 1d 3d
       -0.028210476 -0.0027630925 -0.07609524 0.038356483
000250 8c 22 ce 3d e8 cd f3 3d 40 c1 34 bd 78 74 7f 3d
       0.10065183 0.11904508 -0.04412961 0.062366933
000260 82 a2 bf bd 90 dd 96 bd f0 15 d5 3c 86 29 b8 3d
       -0.09357168 -0.073664784 0.026011437 0.08992295
000270 fc 8c 72 bd 98 0b be bd 18 94 e7 bc 28 17 a2 bc
       -0.059216484 -0.09279555 -0.028268859 -0.019786432
000280 90 2a 81 3c 2e ef 8e 3d 76 d7 ba 3d 70 36 4b 3c
       0.015767366 0.06979214 0.09123127 0.012403116
000290 58 9c e5 3c da 83 d5 3d d8 41 e8 3d b0 1b 90 bc
       0.028028652 0.10425539 0.11340684 -0.017591327
0002a0 68 f0 c6 bc f0 c4 9a bc b0 ae e9 3c 92 86 b1 bd
       -0.024284557 -0.018892735 0.02852568 -0.086682454
0002b0 e4 55 8a bd d2 bb a6 3d 00 f3 69 bd c0 52 22 bd
       -0.067546636 0.08141293 -0.05711651 -0.039629698
0002c0 10 64 da 3c 88 57 86 3d 18 cf ab bc 9e 59 aa 3d
       0.026659042 0.06559664 -0.020972773 0.08317874
0002d0 b0 21 7d bc 7e 4d 8d 3d fe 8b bc 3d aa 7c d2 bd
       -0.015449926 0.06899546 0.09206389 -0.10277684
0002e0 ee 14 85 3d 40 20 5d 3c 14 81 5c 3d 4c 94 2b bd
       0.06498133 0.0134964585 0.053834036 -0.041889474
0002f0 d6 d0 9f bd 7e c7 bb bd a0 93 f6 bc 3a e4 bb bd
       -0.07803504 -0.091689095 -0.03009969 -0.0917439
000300 e0 91 ed 3b 1e cd f7 bd 00 52 18 3d 84 95 64 3d
       0.0072500557 -0.1209967 0.037187576 0.05580665
000310 b8 47 90 bc 68 51 e8 3c 64 4d a0 3d c0 22 b9 bc
       -0.017612323 0.02835913 0.07827261 -0.022599578
000320 a0 2b d1 3b 88 fc ec 3d 20 1d 01 bd c0 2b 8f bb
       0.0063833743 0.11571604 -0.031521916 -0.004369229
000330 00 e6 ad bb c0 11 9e 3b 20 14 2a 3c 64 3e 19 3d
       -0.005306959 0.0048238933 0.010380775 0.037413016
000340 30 a3 45 bc 14 4b 7a 3d 5c 17 3a 3d 00 a4 52 bb
       -0.012062833 0.061106756 0.045432433 -0.0032141209
000350 a8 00 0e bd 0c 44 40 bd 84 61 b2 bd 64 fb 95 bd
       -0.034668595 -0.046939895 -0.08710006 -0.073233396
000360 12 8c de 3d 90 63 f7 3c bc ac 19 3d 78 75 88 bc
       0.1086656 0.030198842 0.037518248 -0.016657576
000370 14 ba 97 3d d2 de 84 bd 64 5a 2e bd 60 be c5 bc
       0.074085385 -0.06487812 -0.042566672 -0.02413863
000380 be eb 81 bd 80 25 67 bb e0 64 8d 3d 9a da 94 bd
       -0.063437924 -0.0035270154 0.06904006 -0.072682574
000390 32 42 c8 bd 14 e4 3b bd dc fd a5 bd 60 a5 44 bd
       -0.09778251 -0.04587181 -0.081050605 -0.048009276
0003a0 78 69 98 bd 82 77 fc bd 30 e0 68 3d 18 bb 91 bc
       -0.074419916 -0.12327482 0.056854427 -0.017789409
0003b0 ac e9 1d 3d b4 db b2 3d 7a 7b b1 3d fe 40 d2 bd
       0.038552925 0.08733311 0.086661294 -0.102663025
0003c0 e0 de c6 3b 2e 4b f5 bd 04 d9 ec 3d 88 ee 90 3c
       0.0060690492 -0.1197723 0.1156483 0.017691866
0003d0 20 9b 0f 3c 32 1c ca bd fc 40 fd 3d 14 b7 c2 bd
       0.008765012 -0.09868659 0.123659104 -0.09507576
0003e0 dc 2e bd bd 40 e0 e7 bd 38 98 e6 3d 5c 98 3a bd
       -0.09237453 -0.11322069 0.11259502 -0.045555457
0003f0 58 d8 f0 bd a4 b4 06 3d a8 51 a0 3c 90 c9 d3 bd
       -0.11760014 0.032887116 0.019570187 -0.10341179

lstm_cells.0.W_in.bias f4 [64]
000000 e8 11 a8 bc 9c de 1e bd 40 43 c3 3c 44 d3 b2 bd
       -0.02051635 -0.038786516 0.023835778 -0.08731702
000010 b0 68 3d 3d 98 9c 04 3d 00 ec bc 3c fc ca 90 bd
       0.046242416 0.032375902 0.023061752 -0.07069966
000020 f8 58 2d bd 4c e5 95 3d 38 4f 2d 3d e0 fe 8d bb
       -0.042321175 0.073191255 0.042311877 -0.004333362
000030 78 b4 50 3d 00 4e 10 3b cc 77 f7 bd c8 50 f3 bc
       0.05095336 0.0022019148 -0.12083396 -0.029701605
000040 14 82 1e 3d f0 4c d8 3d 1e f6 ed 3d 40 57 28 3c
       0.03869827 0.1056155 0.11619209 0.010274708
000050 18 97 e3 bd f4 06 9a bd aa 25 ad 3d c0 0c 6d 3d
       -0.11112803 -0.075208575 0.084544495 0.057873487
000060 d4 77 8b bd a4 44 fb bd f2 96 c9 bd ce c7 f2 bd
       -0.06809965 -0.122689515 -0.09843244 -0.11854516
000070 6c 1a f8 bd a2 86 e8 3d 2a be 86 3d cc 8c 61 bd
       -0.121144146 0.11353804 0.0657924 -0.055065915
000080 e0 6c e9 bc 78 e1 be bd 00 48 88 b9 9c af 9e 3d
       -0.028494298 -0.093203485 -0.00025993586 0.077483386
000090 22 60 c4 3d 96 d9 8c bd be 26 ae bd 80 51 b3 ba
       0.095886484 -0.06877439 -0.08503483 -0.0013680905
0000a0 5c 0b 4d 3d de 59 86 bd 8c 1a 77 bd 98 7b 83 3d
       0.05005966 -0.065601096 -0.06032805 0.06420058
0000b0 9c de 63 bd f4 b2 e1 3d b0 df 7c 3d ee 73 93 3d
       -0.05563222 0.11020461 0.061736763 0.07199846
0000c0 a8 3d f4 3d 2a 5b 9e 3d 6c e0 3d 3d 78 07 d7 3c
       0.119258225 0.07732232 0.046356604 0.026248679
0000d0 58 d8 d4 3c b0 f8 b9 bc 90 89 40 bd 74 9f 75 bd
       0.025982067 -0.022701591 -0.04700619 -0.05996652
0000e0 9a f2 88 3d 50 12 5e 3d 64 b8 d8 3d 20 8d 02 3c
       0.066868976 0.054216683 0.10582045 0.007968217
0000f0 c0 f5 d7 3c b8 25 e7 bc 60 8a b7 3c ac 6a 10 bd
       0.0263623 -0.028216228 0.02240485 -0.03525798

W_h.weight f4 [64, 64]
000000 ea 8d 0e 3d d0 78 de 3d 41 5d 07 be 39 32 ae bd
       0.03480331 0.10862887 -0.13219167 -0.08505673
000010 e6 6d 80 bd cd d2 94 bb 14 49 8f bd 92 bd 67 bd
       -0.062709615 -0.004541731 -0.069963604 -0.056577273
000020 53 c6 e0 3d ed 6d 0d bd 66 50 ce 3c 2c 15 ff 3d
       0.10975327 -0.03452866 0.025184821 0.1245521
000030 de 9d c1 bd dd 45 8f 3d d1 f4 bf 3d ef 37 be 3d
       -0.09453939 0.06995747 0.09372867 0.09288012
000040 08 09 d3 bd dc 3b 8b bd b5 08 44 3d 8a ff fa 3a
       -0.10304457 -0.06798527 0.047859866 0.0019149643
000050 e2 bf de bd b6 bf 2b bc b6 2e 84 bd b4 13 2c 3d
       -0.108764425 -0.010482719 -0.06454222 0.042010978
000060 4b 4a 9a bd 40 ae 7a 3d 5a e5 18 bd b3 0d af 3c
       -0.075337015 0.061201334 -0.0373281 0.021368837
000070 80 af 76 3d 43 b8 91 3d 7d 6c ec bd 3c 98 a0 3d
       0.060225964 0.07115223 -0.1154413 0.078415364
000080 72 e0 be bd c3 52 79 bd 8f 2a 97 bc 7b 80 15 3d
       -0.09320153 -0.060869943 -0.01845291 0.03649948
000090 01 c4 65 bc 27 4f d9 3d 59 53 6c bd ac fe 6e bd
       -0.014023782 0.106108 -0.057696674 -0.058348343
0000a0 55 35 9f 3d d7 68 19 3d a4 3b be 3d 74 d1 98 bd
       0.07773844 0.0374535 0.09288719 -0.07461825
0000b0 1c c2 d9 3d 0b 0c 3d bd 02 b1 24 3d c3 f2 6b 3b
       0.106327266 -0.046154063 0.04020787 0.0036002852
0000c0 43 d2 8a 3d be e9 2f bd 2e 8c b2 bd 03 5e 29 3d
       0.067783855 -0.042947523 -0.087181434 0.041349422
0000d0 4d cd 8a 3d 43 3a a3 3b 81 50 a7 3d d2 78 96 bb
       0.06777439 0.0049813106 0.08169652 -0.0045920396
0000e0 13 4c 6d 3d 46 bd c8 3d 7b ca 08 3e 81 da d8 3d
       0.05793388 0.09801726 0.1335849 0.10588551
0000f0 48 1d ce bd de e3 c0 3c 67 cd bf 3d 11 32 8e bd
       -0.10064179 0.023546156 0.09365349 -0.06943143
000100 37 fd 75 3d 2b bf a2 3d 50 1e 5f bd d3 ba c3 3b
       0.060055938 0.07946619 -0.054472268 0.005973199
000110 da 1e 84 3d 79 44 d5 bd 93 94 8a 3b 0c 06 95 bd
       0.06451197 -0.10413451 0.004229137 -0.07276544
000120 42 b5 ca 3d 4c 9f 27 3d db bc b0 bd 66 1a 0a bc
       0.098978534 0.0409234 -0.08629771 -0.008429145
000130 db 50 8a bc c3 81 91 3c 89 31 32 3d 7d c9 39 be
       -0.016884258 0.01776207 0.04350427 -0.18143268
000140 1f b7 a6 bb f6 20 e8 bd 3e 9b 83 3d 7e a9 4d bd
       -0.0050877477 -0.11334412 0.064260945 -0.05021047
000150 b3 2d 80 bd 7b 5f 3d bd 61 70 95 bd 8a e2 43 3c
       -0.062587164 -0.046233635 -0.07296825 0.011955867
000160 39 f1 6a bc c4 b0 a1 3d 45 0f c7 3d d0 40 3e be
       -0.0143397385 0.078950435 0.09719709 -0.18579412
000170 c5 b8 cd bd 28 02 9f 3d 3b 67 05 3d af 7d 26 be
       -0.100450076 0.07764083 0.03256915 -0.16258882
000180 11 72 68 bc ba a7 74 3d 40 86 dc 3d fa 3d 83 bd
       -0.014187352 0.05973027 0.10767794 -0.064083055
000190 a1 4e a4 3b fc 19 75 3d 1e b5 08 3e 94 fa e7 3d
       0.005014256 0.059839234 0.1335034 0.11327091
0001a0 65 0e a0 3d 42 ac bf 3d ee 13 f7 3d e5 c4 8f bd
       0.078152455 0.093590274 0.12064348 -0.070199765
0001b0 c7 5a c1 3d 62 93 c7 3d 5b 38 ad 3d 50 02 ee bd
       0.094411425 0.09744908 0.084580146 -0.11621535
0001c0 f5 0e cd bd 8f dd 69 3e f0 9b 84 bd f0 5c 88 bc
       -0.100126185 0.22838424 -0.06475055 -0.016645879
0001d0 45 18 35 bd 68 0d b6 bd 76 53 07 bd 5a 36 38 3d
       -0.0442126 -0.08889276 -0.03303858 0.04497371
0001e0 53 bf cc bd 8c ab 13 3d 79 f5 62 bd 13 04 7a 3c
       -0.0999743 0.03605227 -0.055409882 0.01525976
0001f0 ba ae 23 be d9 1f 89 bd 7f 7b ba 3d 8a fb 22 3e
       -0.15984622 -0.066955276 0.09105586 0.15916267
000200 d6 62 c6 bd cb d8 9c bd 5d e2 bd bd 7f 6b 32 3d
       -0.0968682 -0.076585375 -0.09271691 0.043559548
000210 a2 96 3f bd 30 b4 8b bd 4f 93 ae 3c 94 59 d3 3d
       -0.046774514 -0.068214774 0.021310477 0.1031982
000220 34 8e 97 3d 66 08 cb bd a4 57 0b bc 80 a6 c4 3d
       0.0740017 -0.09913711 -0.008504782 0.0960207
000230 78 c3 ba 3d ae 96 08 3d 44 2d 9e 3d a2 52 e5 3c
       0.09119314 0.033346824 0.077234775 0.027993504
000240 20 f0 9e 3d 70 ee a4 bd 79 f9 11 bd f3 b9 8b 3b
       0.07760644 -0.08053291 -0.035638306 0.0042641102
000250 88 3b dd 3c 98 8f 37 bd f4 03 9d 3d 9f ec 8e bc
       0.027005926 -0.044814676 0.076667696 -0.017446814
000260 be 40 23 bc c9 a4 f6 3d 01 8c a9 3d 44 a5 2a bd
       -0.009964166 0.12043149 0.08278657 -0.041661516
000270 05 1f fc 3d 4f e0 b4 bc 7c c4 c2 bb 59 91 cc bd
       0.12310604 -0.022079615 -0.005943833 -0.0998866
000280 c2 a1 c7 bd 80 38 be 3d f5 99 d8 bd 4a 0b 52 bd
       -0.0974765 0.0928812 -0.1057624 -0.051280297
000290 85 5c 22 bd be 05 a9 bd ac 09 c9 bd 64 3d 72 bd
       -0.039639015 -0.08253048 -0.09816298 -0.059140578
0002a0 60 8b b4 bd 61 9d ce 3d e0 a2 c9 3d 54 03 03 be
       -0.08815646 0.100886114 0.09845519 -0.12794238
0002b0 0e d7 ad 3c c1 00 6d 3c 28 5a ef bd bf e3 e7 bd
       0.02122071 0.014465512 -0.11687118 -0.11322736
0002c0 4f 8b 31 bc 89 e9 a9 3c 55 3c b7 3c fc d3 d9 3d
       -0.010836436 0.020741241 0.022367636 0.10636136
0002d0 98 91 68 3b ae a7 e2 3c d8 5d ca bd c7 c9 03 be
       0.0035487171 0.027667847 -0.098811805 -0.1286994
0002e0 48 9f 92 3d 16 43 93 bd a2 36 df 3c 88 32 a8 3b
       0.07159287 -0.0719053 0.02724773 0.005132977
0002f0 8e a4 14 3d 1a e7 c6 3d a8 86 a6 3d cf e2 b9 bd
       0.036289744 0.09712048 0.081311524 -0.090764634
000300 f2 5f b4 3d 73 8b 29 bd 5e 27 1f 3d bc 5f 3f 3d
       0.088073626 -0.041392755 0.038855903 0.04672216
000310 70 34 e8 3d 1d 7c ea 3d 94 8e 89 3d b2 76 a8 bd
       0.11338127 0.11449454 0.06716648 -0.08225764
000320 68 ad ad bd f9 5a 55 bc 06 38 dd bc b2 fe 6f bd
       -0.0848034 -0.013022178 -0.027004253 -0.058592506
000330 9f e0 f7 3c 1b ee b0 3c 2f 87 27 bd 6b fc f2 bb
       0.030258475 0.021597913 -0.040900405 -0.0074153445
000340 e2 ed b5 bd 27 51 81 bd 73 a3 7f bd 0f 6a 9e 3d
       -0.08883263 -0.06314307 -0.062411737 0.07735073
000350 21 aa 8f 3d 0e 08 22 be 07 24 c8 3d cc 75 de 3c
       0.070148714 -0.15823385 0.09772497 0.02715578
000360 83 f8 cc bd 05 4d 4a bd 87 26 0b be 9b 55 1c 3d
       -0.10008337 -0.049389858 -0.13588916 0.038167577
000370 34 9c 89 bd 1b 4a a8 3d 68 ac 8e 3c b2 48 8b 3c
       -0.067192465 0.082172595 0.017416194 0.017002437
000380 ac 4b 4a 3d ce 97 b7 bd e2 91 e8 3d d5 e0 5a bd
       0.049388573 -0.08964501 0.1135595 -0.053437073
000390 d2 fb 7e bc 9d 98 22 3d f0 1a c2 bc 72 93 19 3d
       -0.015562968 0.039696325 -0.023694485 0.03749413
0003a0 e7 a5 71 3d 6a 01 50 bd 8b 74 9a bd 6b 88 e9 bd
       0.058996107 -0.0507826 -0.0754176 -0.11402973
0003b0 f3 67 15 3d a9 64 b8 3d 1d f4 89 3a 1e b5 45 3d
       0.036476087 0.090035744 0.0010525022 0.04826843
0003c0 2d 77 f0 bd 7b 34 63 3c c6 14 b5 3c 87 b1 56 3d
       -0.11741481 0.013867493 0.022104632 0.052415397
0003d0 77 24 e7 3d e9 34 83 bd 06 55 63 3c fc bd 23 bc
       0.11286252 -0.06406576 0.013875252 -0.009994026
0003e0 78 51 d9 bd 06 51 3c 3d bb 86 87 bd 05 22 9f bd
       -0.10611242 0.045975707 -0.06617495 -0.077701606
0003f0 bf a6 48 bd 8e dc 98 3c 72 2b a3 3d a9 bb 02 3d
       -0.048987146 0.018659856 0.07967271 0.031917248

W_h.bias f4 [64]
000000 8d 91 b4 3c 8c 9d 99 3d 17 df 97 3d ac 79 b1 3d
       0.02204206 0.07500753 0.07415598 0.08665785
000010 25 9b 9b 3d 3a b4 cf bd 57 2d 0a 3d b8 b4 98 bc
       0.07597951 -0.10141797 0.033734646 -0.01864086
000020 a2 0e 8f 3c 51 46 c9 3d 72 0d 63 bd 48 4d cf 3d
       0.017463032 0.09827865 -0.055432744 0.10122162
000030 4e 8c e9 3d 6f 30 57 39 4d 0a ad bd ba 47 96 bd
       0.11403714 0.0002052204 -0.0844923 -0.073378995
000040 d4 cd b2 bd 57 f7 5a 3d 47 9e 5e 3d a0 61 00 be
       -0.08730665 0.053458538 0.054350164 -0.12537241
000050 3b 29 d2 bc 66 03 d0 3b a0 c7 b0 3c bb a3 a4 bd
       -0.025654426 0.0063480614 0.021579564 -0.080390416
000060 8b 07 9b 3d 10 6a e3 bc 32 51 81 3d f1 e4 e2 3b
       0.07569798 -0.027760535 0.06314315 0.0069242646
000070 cf 4e e6 3c fa 29 d9 bd d1 74 ff bd 69 55 f2 3c
       0.02811375 -0.106037095 -0.12473453 0.029581742
000080 80 02 9e 3d 07 0a d1 3d 38 4e e0 3d 66 30 9b 3d
       0.077153206 0.10206991 0.10952419 0.07577591
000090 72 1e 81 bd f4 85 34 bd cc 4f ce bd 0b 87 12 3c
       -0.06304635 -0.04407306 -0.10073814 0.00894333
0000a0 28 2c 90 bd 7e 5b c3 bd 63 c2 3e bd 7a 2a 84 bc
       -0.07039672 -0.09538935 -0.0465721 -0.016133536
0000b0 66 fc c8 3c e7 6a 16 bd 47 e1 64 3d eb 04 96 bb
       0.024534415 -0.036723044 0.055878904 -0.004578223
0000c0 66 ce b0 3c 06 0a c7 bc 56 88 1e 3d af c1 75 3c
       0.021582793 -0.024296772 0.03870424 0.014999791
0000d0 8d 87 69 3d ff 13 e1 3d 65 3e ab 3d c5 dd fd bc
       0.057014037 0.10990142 0.0836151 -0.030989537
0000e0 ef 16 57 3d db c7 69 3d 8c e3 a0 bd 10 cc fc bc
       0.052512106 0.057075363 -0.07855901 -0.030859023
0000f0 21 c0 6a 3d 19 ef fb bc d1 28 8a bd 2f 84 c1 3d
       0.057312135 -0.03075366 -0.06746066 0.0944904

W_g.weight f4 [64, 64]
000000 a5 a6 84 bd 1a a7 a1 bd 4b 8b 9c 3b 86 78 e2 3c
       -0.064770974 -0.078932 0.004777347 0.02764536
000010 02 5c 23 3c 24 41 c9 3d b5 c9 66 3b 7a e4 dc bd
       0.009970667 0.09826878 0.0035215442 -0.10785766
000020 74 42 df 3d b4 f6 8e 3d 74 d9 93 bd 0e 49 b6 bd
       0.10901347 0.06980649 -0.0721921 -0.08900653
000030 8a 41 dc 3d ec 95 73 bc b2 f9 ae 3d 9c b0 87 bb
       0.10754688 -0.014867287 0.08543719 -0.0041409265
000040 f6 9b b9 bd a1 f6 13 3d 72 80 e4 bd 00 5e f6 bd
       -0.0906295 0.036123876 -0.111573115 -0.12029648
000050 18 13 94 bd 1b f5 5e bd 84 c2 9a 3d 3f 94 6a bd
       -0.07230204 -0.05443297 0.07556632 -0.057270285
000060 d3 98 67 3d 3d 1a 3a 3d c5 e8 7b 3d a4 62 ce bc
       0.05654223 0.04543518 0.061501283 -0.02519352
000070 e8 59 99 ba 8e de ed 3d 72 54 88 bd 93 77 03 be
       -0.0011699768 0.116147146 -0.06656732 -0.12838583
000080 f4 dc eb bd 80 82 91 bd c2 f6 80 3b 8d d3 1b 3d
       -0.11516753 -0.07104969 0.003935666 0.038043547
000090 38 98 de bd 40 2d a0 3d e0 ad e3 3d 98 ef 75 3a
       -0.10868877 0.07821131 0.111171484 0.00093817106
0000a0 31 e9 4d 3d ae 35 db 3d 4d 28 77 3d 76 39 3d bc
       0.050271217 0.10703598 0.06034117 -0.011549344
0000b0 c8 c6 b7 bd eb 75 46 bd 30 1b a8 3d 23 44 21 bd
       -0.089734614 -0.0484523 0.082083106 -0.03937162
0000c0 8c 52 c2 3c 1c 0f 80 bb ec 9c 07 3d 26 69 e2 3d
       0.023721002 -0.003908051 0.033108637 0.11055212
0000d0 14 41 da bc 1d 7e 59 3d 0e 0e d3 3d bc a2 d9 bd
       -0.02664236 0.053098787 0.10305415 -0.10626742
0000e0 66 3f cd bd 7e a6 c4 bd ac 85 dc bd 66 0c 54 bc
       -0.10021858 -0.09602068 -0.107676834 -0.012942409
0000f0 15 c6 09 3d 76 8a a5 bc 90 d2 c6 3d 18 fa b9 3d
       0.03363617 -0.020207625 0.0970813 0.09080905
000100 1a d0 27 3d 40 d0 99 bd 96 0f 23 3d e0 7b 05 3e
       0.040969945 -0.07510424 0.039809786 0.13035536
000110 d4 5c c4 bd eb 2b dc bc 12 da ea 3d 3e ea b4 3d
       -0.09588018 -0.02687641 0.11467375 0.08833741
000120 d2 e1 22 3d 2a 19 d6 bd ea f7 af bd da f8 aa bd
       0.03976614 -0.104540184 -0.08592208 -0.08348246
000130 7a e9 06 3e 37 34 f0 3c 56 c4 81 bd 96 79 c2 3d
       0.13175002 0.029321773 -0.06336276 0.09495847
000140 4c a3 4a bd 18 dd 1c bd 4e ef b1 bd ac 94 c9 bd
       -0.04947214 -0.03829679 -0.08688222 -0.0984281
000150 0c 72 31 bd bc bf 86 3d d0 01 fd 3d 0c 68 3a bd
       -0.043321654 0.06579539 0.12353861 -0.045509383
000160 7a ec d4 bd e8 72 94 bd a8 58 5e 3d 02 1b f5 b7
       -0.10396667 -0.07248479 0.054283768 -2.9218852e-05
000170 80 0f 95 3d 02 10 b7 bd b8 48 c3 3d 0a 00 a6 3d
       0.07278347 -0.089386 0.095353544 0.08105476
000180 de 86 7d bc 8c f1 1f bd 3e 1e c9 bd b8 25 88 bc
       -0.015474049 -0.039048716 -0.09820221 -0.016619548
000190 84 47 35 bd 04 93 5e 3d dd f1 af bb fc be 8f bd
       -0.044257656 0.054339424 -0.0053694085 -0.07018849
0001a0 d0 15 be bd ec 65 d5 bd 1f af 78 3c 66 25 1a 3d
       -0.09281504 -0.10419831 0.015178471 0.037633322
0001b0 14 64 17 bd 22 d4 bb bd 2e 10 86 3d 2a 19 0b 3e
       -0.036960676 -0.091713205 0.06546055 0.13583818
0001c0 e4 65 0b 3e a8 64 ce bd 98 ef df 3d 00 0c 95 3d
       0.13613087 -0.100777924 0.10934371 0.072776794
0001d0 d9 f5 f4 3c 33 c1 78 bd 3a 90 97 bd 56 8f a1 bd
       0.029902386 -0.060731124 -0.07400556 -0.07888667
0001e0 1f 96 f8 3d 44 7e cf bd 24 54 8d 3d fd 2f ff 3d
       0.12138008 -0.10131505 0.06900814 0.12460325
0001f0 2c 4c 95 3d 1c 03 b8 bd ce 0f 08 3d 16 f0 c8 3d
       0.07289919 -0.08984968 0.033218198 0.09811418
000200 ae 17 c9 bc 89 f8 c2 bd 64 b9 ba 3c 60 52 08 3d
       -0.024547424 -0.095200606 0.02279348 0.033281684
000210 b3 43 8e bd 86 a4 fc 3d cb 18 f0 bc d5 6c a9 bd
       -0.06946506 0.12336068 -0.029308697 -0.08272711
000220 4b 1f 92 bd f4 e3 2e bd 4f 1a 05 3e 37 7a 94 bd
       -0.07134875 -0.04269786 0.12998317 -0.07249873
000230 85 80 fb 3d 60 b3 24 3c b3 e2 cb 3d 14 5c 59 bc
       0.122803725 0.010052532 0.09955349 -0.013266582
000240 0d 7e fa 3d 99 c7 a3 bd 6d 61 aa bd de ea 78 bd
       0.122310735 -0.079970546 -0.08319364 -0.06077086
000250 88 4b 04 3d db 6f dc 3d ee 72 57 3b c0 31 09 bd
       0.032298595 0.10763522 0.00328749 -0.03349471
000260 0d dc a0 bd 59 57 ec bc e8 42 cf bc c0 4f 2b bd
       -0.07854471 -0.028850244 -0.025300458 -0.041824102
000270 bb 41 39 bb f5 e7 b6 3b a8 be 44 bd 87 8e 89 bc
       -0.0028267938 0.0055818507 -0.048033386 -0.016791595
000280 61 c1 eb 3d e0 d5 d3 bb f1 56 8b bd cf 73 af bd
       0.115114935 -0.006464705 -0.06803692 -0.085670106
000290 16 36 89 bc 34 79 59 3d 11 a9 94 bd 3c dc 3d bd
       -0.016749423 0.053094104 -0.07258809 -0.04635261
0002a0 a1 1d 9d bd bc f9 21 3d aa 5f 1d 3d d9 fc e3 3d
       -0.07671667 0.039544806 0.03842131 0.11132211
0002b0 3d a6 b8 bd cd a2 91 bd d9 bb da bd e6 4f c4 bc
       -0.090160824 -0.0711113 -0.1068036 -0.02396388
0002c0 68 b0 79 bd 26 79 82 bd a0 df 25 bd 01 a4 aa bd
       -0.06095925 -0.063707635 -0.04049647 -0.083320625
0002d0 5b ca 9b bd 2b 32 e0 3d 10 b4 a2 3c ed 96 ca bd
       -0.076069556 0.10947069 0.019861251 -0.09892068
0002e0 b5 86 9c 3d 3d ef ba bd 50 1c 39 bd 20 87 0b 3d
       0.07642881 -0.09127662 -0.045193017 0.034064412
0002f0 e3 a6 b0 3d 46 ba 0f bc 6d d8 97 bd 0c 4e 84 3d
       0.08625581 -0.008772438 -0.07414327 0.06460199
000300 dd 45 89 bd 35 84 c4 bd 86 2e 68 bd 21 50 00 3e
       -0.067027785 -0.09595529 -0.056684993 0.12530567
000310 73 76 18 bc 81 98 a2 bd 0f d9 cf bd 71 a8 d8 3d
       -0.009305584 -0.07939244 -0.101488225 0.10579003
000320 92 eb 56 bd 01 34 87 bd 5d 67 fc 3d 06 ed 5f 3d
       -0.05247075 -0.06601716 0.123244025 0.054669403
000330 5a 90 02 bb 5a 49 83 3c d9 76 bb 3d e1 7b 01 3e
       -0.0019922466 0.016026188 0.09153528 0.12644912
000340 96 1a 4c bd 81 6a a3 bd da e6 4c bd 12 72 09 bd
       -0.04983004 -0.079792984 -0.050024845 -0.03355605
000350 32 af ff 3d f1 ec f6 bd 23 d2 a2 3d 3d de b4 3d
       0.12484588 -0.12056912 0.07950237 0.08831451
000360 31 9a e5 3d ed 29 94 3d 41 95 a6 bd 2a 82 5b bd
       0.1121105 0.07234559 -0.08133937 -0.05359093
000370 d5 d0 c6 bd 79 c7 a7 bc ad 0a c1 bd a8 a5 fa 3d
       -0.097078 -0.020480858 -0.09425864 0.12238628
000380 39 af c8 bc d9 1a d1 bc d8 61 f5 bb 5a e0 47 bd
       -0.024497615 -0.025525497 -0.0074884705 -0.048797943
000390 51 88 d0 3d 35 a8 ec bd 2b 68 d9 bd ca 3a 4d 3d
       0.1018225 -0.115555204 -0.106155716 0.050104894
0003a0 f6 e3 28 3d 38 dd 0a bd 49 6d 99 bd 43 43 d3 3d
       0.041233025 -0.033902377 -0.074915476 0.103155635
0003b0 3b 79 c2 ba 4d 16 f8 3d 0b 01 80 3d a1 c8 dd 3d
       -0.0014837155 0.121136285 0.06250199 0.108292826
0003c0 8d 93 d7 bd 96 15 44 bd ce 07 fc 3d cb 0c 54 bc
       -0.1052619 -0.04787215 0.12306176 -0.012942503
0003d0 8f 3f 6b 3c 92 a6 67 bd 7f 3f d9 3c 97 57 ef 3d
       0.014358415 -0.05655534 0.026519535 0.11686628
0003e0 5e 43 09 bd 72 eb 36 bd 27 90 af 3d 56 e4 1a 3c
       -0.033511512 -0.044658132 0.08572417 0.009453854
0003f0 1a e0 3f 3d 4a 25 7d 3d 62 f7 5c bd 3d 59 89 bd
       0.04684458 0.06180314 -0.05394686 -0.06706474

W_g.bias f4 [64]
000000 4e ac 55 bc 0e 26 d2 3d 57 b4 ce 3d 68 06 57 3d
       -0.013041569 0.102611646 0.10092991 0.052496344
000010 02 f0 66 3c d2 99 b3 3d 87 1a eb bc e7 24 4a bd
       0.014095308 0.08769573 -0.028699173 -0.0493516
000020 0d 40 f6 bd 92 96 87 bc 32 e7 f2 3d 35 cd c9 3c
       -0.120239355 -0.01655129 0.11860503 0.024633983
000030 1c a5 f7 bd 23 cd 62 3d 29 b2 1d bd aa 99 e0 bd
       -0.12092039 0.055371415 -0.038499985 -0.10966809
000040 e5 c3 d2 bb 3b 2a 32 3d 1a e0 d9 3d 1a 2f 42 3d
       -0.006432044 0.043497305 0.10638447 0.0474082
000050 27 db ad 3d 8e 47 e7 3d d9 d0 9e 3d e3 bf d4 bd
       0.084890656 0.11292945 0.07754678 -0.10388162
000060 c2 2a b3 bc 77 f3 f8 bd f8 80 86 bd a7 8a b2 bd
       -0.021870974 -0.12155812 -0.065675676 -0.08717852
000070 4a 1f 3b bd 02 39 b2 3d 81 1d c2 3d da 33 96 3d
       -0.045684136 0.087022796 0.09478284 0.07334109
000080 a7 1a 91 bc 09 09 c7 bd b3 ea 32 bb 8c 18 f2 3d
       -0.017712904 -0.0971852 -0.0027300536 0.11821088
000090 72 8e ff bc 98 12 59 bd 30 f1 5d bd 56 7e 81 bd
       -0.031195853 -0.052996248 -0.054185092 -0.06322925
0000a0 c3 ae 46 bd e0 8b 67 bd 4b 84 9f bd 29 4e 0c be
       -0.04850651 -0.05652988 -0.07788905 -0.1370169
0000b0 86 20 cb 3c 72 90 81 3d a1 a4 e9 3d ec 34 c5 bd
       0.024795782 0.06326379 0.114083536 -0.09629235
0000c0 fa db db 3d 7a 4c c7 bd 87 d7 3a bb af aa 87 bd
       0.107353166 -0.097313836 -0.0028509812 -0.06624352
0000d0 f1 3f 42 3d 7d 71 09 bd c2 1f d1 3c b9 81 c0 3c
       0.04742426 -0.033555496 0.025527839 0.023499357
0000e0 a7 e1 7b 3d 7f 59 af 3d 1a c9 a5 3d e2 44 15 3d
       0.061494496 0.08561992 0.08094998 0.036442645
0000f0 f2 f8 8c 3d f0 aa 66 3d 06 7a cb bb 55 c0 7b bd
       0.0688342 0.056315362 -0.0062096147 -0.06146272

W_x.weight f4 [64, 1]
000000 b0 b7 7c 3f df 62 f4 be fa eb 22 3f c7 8d 6f 3f
       0.98717785 -0.47731683 0.6364132 0.9357571
000010 b0 e9 57 3e 3d 43 2e bf b5 07 04 be dc 81 47 bf
       0.21085238 -0.6807135 -0.12893565 -0.77932525
000020 f8 f4 72 be f8 29 6e 3f 2a 45 47 3f 0b 95 20 3f
       -0.2372626 0.9303279 0.7783991 0.6272742
000030 a4 0f 11 be d4 44 5c 3e 7d 12 bd 3e a4 83 15 bd
       -0.14166123 0.21510631 0.36928168 -0.036502495
000040 38 78 5d 3f 6a c3 54 3f bc b8 7f 3f cd 8c 07 bf
       0.86511564 0.8311068 0.9989126 -0.5294922
000050 79 2a ab be 49 8e 41 be 8f 4a 23 3e 0f 0f 4d 3e
       -0.33430842 -0.18901934 0.1594641 0.20025276
000060 81 75 6f 3f 55 13 54 be 72 64 f6 bd b5 74 02 bf
       0.9353867 -0.207105 -0.12030877 -0.5095933
000070 a5 9c 83 be 50 71 fc 3e d7 06 98 3d 4f a4 68 3f
       -0.25705448 0.493052 0.074231796 0.90875715
000080 54 22 fb be 61 fa 65 bf 16 79 ee 3d 54 07 2b 3e
       -0.49049628 -0.8983517 0.11644189 0.16702014
000090 5d 23 07 3f 56 48 66 bf 9a 0e a6 bc 62 31 78 3e
       0.52788335 -0.89954126 -0.020270634 0.24237588
0000a0 af 5d 46 3e 64 87 34 3d 3d fa 5e bd 3b 22 86 3e
       0.19371675 0.04407443 -0.054437865 0.2619799
0000b0 3b 61 40 bf 8a 37 84 3f e6 5c 81 3f 00 d8 9a 3d
       -0.7514836 1.0329449 1.0106475 0.0756073
0000c0 22 11 d7 3e 19 aa 29 be a2 18 d0 3c 43 84 15 3f
       0.4200526 -0.16568793 0.02540237 0.5840494
0000d0 34 74 97 3e 51 9d 6a 3e 32 cb 01 3e 1f 3b 44 bd
       0.29580843 0.22911574 0.12675169 -0.047907945
0000e0 b7 d5 9b bd 54 ed c5 be c2 8f 2e bf c1 7e 86 be
       -0.07609122 -0.3865763 -0.68188107 -0.2626858
0000f0 87 15 00 bf 6c a2 3d 3e dc 65 30 bf be 87 09 3f
       -0.5003285 0.1851899 -0.68905425 0.5372275

W_x.bias f4 [64]
000000 e9 3a 27 3e 44 ca 76 be 43 e3 78 3f 91 6a f8 be
       0.16331066 -0.24100596 0.97221774 -0.48518804
000010 f2 b0 11 bf ab d9 77 bf 01 7a 9b 3e cf d1 73 bf
       -0.5691062 -0.9681651 0.3036652 -0.9524202
000020 40 a6 90 3e a4 e2 c6 be 0b 0e 6d 3e 8c e1 b5 bd
       0.2825184 -0.38844788 0.23149888 -0.0888091
000030 86 d5 bf 3e 19 fd e9 3e 3f d9 27 bf 43 f9 d7 3e
       0.37467593 0.4570091 -0.65565866 0.4218236
000040 2a 6d 99 bd 43 f3 f9 3e a9 79 14 3f 7d cb 86 be
       -0.074915245 0.48818406 0.5799814 -0.26327124
000050 c8 fb 37 bf 8c b4 2c bf e0 cc 78 bf a3 ba 3d 3f
       -0.7186856 -0.6746299 -0.97187614 0.7411291
000060 18 08 1a bf f6 cd 23 3e c2 dd dd 3e 67 d4 40 bf
       -0.601686 0.15996537 0.4333325 -0.753241
000070 65 a9 34 3f 5a ab e4 be 45 b1 78 bf 42 ea 9f bd
       0.70570976 -0.4466198 -0.9714549 -0.07808353
000080 fa 9c 47 3f 0a e4 4a be 5b 5a 70 3d ba b0 5e be
       0.779739 -0.19813552 0.05867992 -0.21747103
000090 86 94 40 3f 69 4b e9 be c5 e5 a0 3e 9a 15 f8 3d
       0.7522663 -0.45565346 0.314253 0.12113495
0000a0 a2 e1 5e 3f d0 76 6a bf 5f 13 04 3f 84 fd 4f 3f
       0.8706304 -0.91587543 0.5159206 0.8124621
0000b0 07 f5 30 bf 93 c6 6f 3e c7 d3 4d bf 93 10 1c bf
       -0.6912388 0.23415594 -0.8040127 -0.6096279
0000c0 ae f0 ac 3c 64 f4 ac be 28 a3 b2 3e ef 17 bf be
       0.021110859 -0.33780205 0.34890103 -0.37322947
0000d0 60 9d 86 be 66 66 8a be be 22 6a bf 89 10 4a 3f
       -0.26291943 -0.2703125 -0.9145926 0.7893148
0000e0 c6 2d ae be 42 f3 2d bf 5d 7b 21 bf ee 93 05 bd
       -0.34019297 -0.67949307 -0.6307886 -0.03261178
0000f0 f4 10 50 3e 57 c4 1e 3f d0 a0 74 3d 4d 1e 7d 3d
       0.20318967 0.6201834 0.059723675 0.061796475

W_1d.weight f4 [1, 64]
000000 fa e7 1f 3d 21 57 99 3b 46 be 78 3c 72 86 56 3d
       0.03903959 0.004679576 0.0151820835 0.05237431
000010 ec 54 6b bc b0 d7 cd b9 73 b9 11 bc 17 fe bd 3c
       -0.014363509 -0.00039261347 -0.008894312 0.023192449
000020 53 a9 1d bc 60 2f 47 3c 80 10 28 3c e0 ad 9d 3b
       -0.00962289 0.012157291 0.01025784 0.0048119873
000030 09 b4 6e 3b 77 62 27 bd 23 70 a2 3b ca 74 22 bd
       0.0036423227 -0.040865388 0.0049572154 -0.03966216
000040 4b db 45 3c 85 4e 18 3d f8 d0 7e 3d f9 d9 c7 bb
       0.012076209 0.037184257 0.062211007 -0.0060989824
000050 b2 e6 16 3b 19 6d c2 38 5c 41 91 bc 48 e4 d7 3b
       0.0023025689 9.270962e-05 -0.017731361 0.0065884925
000060 33 ca 04 bc 5c f1 b6 bc 1a aa 8f bd 2c f6 df 39
       -0.008104849 -0.022331886 -0.07014866 0.00042717287
000070 3a f0 81 bd 25 bd 07 3d 49 fb 79 3d 8b 12 36 3c
       -0.06344648 0.033139367 0.06103066 0.011112819
000080 34 37 81 3a f0 5d 94 bc c0 9a 9a bb 43 1e c0 3b
       0.0009858371 -0.0181112 -0.0047181547 0.0058629825
000090 3c e4 2e 3b 4a 65 1f bd 12 ba 44 3b ee c3 03 3b
       0.0026686331 -0.038914956 0.0030018133 0.0020105797
0000a0 44 e1 87 bb 19 f0 b6 3b 05 10 de bb b1 58 ac 39
       -0.004146727 0.005582821 -0.006776812 0.00032872477
0000b0 43 eb 45 bd 26 c6 98 3d be fa 67 3d f0 79 d3 bb
       -0.048320066 0.07459669 0.05663561 -0.006453745
0000c0 3f 26 4c 3c b8 f8 4d bd ff 0b 87 3c 39 a4 1b 3b
       0.01246029 -0.050286025 0.016485212 0.0023749007
0000d0 d1 1b 98 3c 49 7a bb 3b 34 33 c7 3b 88 f9 09 3c
       0.018567951 0.0057213646 0.006079102 0.008421309
0000e0 d7 a7 0e bb bf 73 26 bb 79 33 3f bb f2 23 17 bb
       -0.002176752 -0.002539858 -0.0029174967 -0.0023062197
0000f0 50 dc 0d bd 6a 75 30 3b 49 5a 1b 3b 12 e9 96 bb
       -0.034633934 0.0026925453 0.0023704937 -0.004605421
