model_weight/best_TURKEY_model.pth (torch, 73864 bytes, 14 tensors)

lstm_cells.0.b_c f4 [64]
000000 02 18 22 bc fc cc 22 bc 0f dd b9 bc 23 73 77 bb
       -0.009893419 -0.009936567 -0.022688417 -0.0037757836
000010 50 10 05 3b 9e b3 82 3b e9 71 be bc 5b a9 0b bc
       0.0020303912 0.003988697 -0.023247676 -0.008524264
000020 c7 3d c1 3c e5 f0 af 3c 72 87 3b bb d7 f8 78 bc
       0.023589028 0.021477172 -0.0028614667 -0.015196047
000030 13 05 95 3b 4a 3d b5 bb 46 86 95 bc c1 5d 99 bc
       0.004547724 -0.005530988 -0.018252503 -0.018721463
000040 b5 54 27 3c 0f b3 56 3c dd 24 47 3c a8 1d a7 3c
       0.010213067 0.013104214 0.012154785 0.020399883
000050 b1 15 9e 3c ff 81 49 bb da 98 9b bc b5 22 c6 bb
       0.019297453 -0.003074765 -0.018993784 -0.006046618
000060 d3 fc ce 3c 8b ed b4 bb e3 16 76 bc d5 7f 48 3c
       0.02526704 -0.0055214814 -0.015020105 0.012237509
000070 b4 5b 75 bc 8d 20 7e 3c a6 93 c8 3b a4 87 7d bb
       -0.014975477 0.01551069 0.0061211167 -0.0038685584
000080 bb 10 17 bc 0d 78 44 3b 54 41 bf bc 6d 12 b5 3b
       -0.009220297 0.0029978782 -0.02334658 0.005525878
000090 50 52 bf bb cc 50 f3 3b 3d 6f e6 3b ad 67 61 3b
       -0.00583867 0.007425403 0.0070323036 0.003439407
0000a0 ac 3a 0d bc 28 84 3e ba 39 a0 54 3c 91 af 1a 3c
       -0.0086199455 -0.00072676176 0.012977653 0.009441272
0000b0 d7 85 c4 bc 87 e6 a3 bc a4 2c 42 bc 5e c6 2d 3c
       -0.023989601 -0.020007385 -0.0118514635 0.010606376
0000c0 0d 15 cd bc 35 25 38 bb f6 b3 2a bc 1b 92 b0 ba
       -0.025034452 -0.002809835 -0.010418883 -0.0013471277
0000d0 89 af 91 bc 72 5a ff ba 99 f4 11 3c c7 ae 0e bc
       -0.017783897 -0.0019481911 0.008908414 -0.008708662
0000e0 11 62 05 3d 82 e0 68 3b cc 9b 7a 3a c2 f0 ac ba
       0.032564227 0.0035534208 0.00095599587 -0.001319431
0000f0 a1 67 67 bc 4e 61 85 bc a0 a9 b7 3b cb ca ec 3c
       -0.014123828 -0.01628175 0.0056049377 0.028905293

lstm_cells.0.W_ic.weight f4 [64, 1]
000000 c6 ac f8 3e c2 8d 43 3d 95 96 df bc f9 6a e1 be
       0.48569316 0.047742613 -0.027293483 -0.44026926
000010 63 2c c6 be cb 7f 6d 3f 11 f0 3a be 46 79 f4 be
       -0.3870574 0.9277312 -0.1825564 -0.47748774
000020 49 d6 97 3e 9e 0a e7 be 1d b3 64 bf 54 9d 50 bf
       0.29655674 -0.45125288 -0.89335805 -0.81490064
000030 f2 59 8f 3d 3f 7e 77 3f 86 a0 17 be 8f e7 67 bf
       0.069995776 0.9667701 -0.14807329 -0.90587705
000040 a7 16 be 3e 4f 2a a2 3e b2 43 3b 3e 23 cf 9b 3b
       0.37126657 0.31672904 0.18287542 0.004754917
000050 c9 a4 6f 3d f8 d5 fd be 0b 9d 77 bf 56 eb b9 3e
       0.05850676 -0.49577308 -0.96724004 0.3631236
000060 af 42 f6 bd 2c 15 57 bf c1 7a 6b bf b3 31 c8 3e
       -0.12024438 -0.8401668 -0.9198418 0.39100417
000070 87 8a 18 3e c6 94 27 3f ae 85 65 3f 59 b4 fa 3d
       0.14896594 0.65461385 0.89657104 0.1224143
000080 5e 81 66 3f 88 e8 0c bf 5f d9 5d bf 2c 74 32 3f
       0.9004115 -0.55042315 -0.86659807 0.69708514
000090 11 bc fb 3e 23 16 88 3e 2e db a0 3e 2c 2b 7c 3d
       0.4916692 0.2657939 0.3141722 0.06156461
0000a0 15 bc 71 bf 68 91 52 3f 7a a4 39 3f 62 12 0b bf
       -0.94427615 0.8225312 0.72516596 -0.54324925
0000b0 21 93 d7 be 14 11 81 3e 55 c1 43 bf 52 43 3d 3f
       -0.42104438 0.25208342 -0.76466876 0.7393085
0000c0 54 ba 59 bf 81 e9 65 3f d7 89 ff be 1d a0 76 bf
       -0.8504994 0.89809424 -0.4990985 -0.96338063
0000d0 09 14 d7 3e 7c dc 93 bd 5a a5 8a be 18 fe d3 bd
       0.42007473 -0.072197884 -0.27079278 -0.10351199
0000e0 1f 11 7c 3d 2f 43 69 3f cf 68 53 3f 67 7c f3 bd
       0.061539765 0.9111814 0.825818 -0.11888962
0000f0 9b 2c 22 bf 7b de 10 3e 0e f2 82 3e 28 a7 24 3e
       -0.6334931 0.1414737 0.25575298 0.1607939

lstm_cells.0.W_ic.bias f4 [64]
000000 bd ad d0 3e 7d 66 30 3e 47 4b 4d 3f db 50 d7 be
       0.40757552 0.17226596 0.8019299 -0.42053875
000010 f6 9b cc be b1 d4 24 bd 47 22 10 3f 02 61 ef 3e
       -0.3996274 -0.0402419 0.56302303 0.467537
000020 93 c8 6b bf 89 b3 35 bf 5f 9a f6 3d c2 7c 57 be
       -0.92102927 -0.70977074 0.12041163 -0.21043685
000030 85 06 8e be a5 77 13 3f e7 c9 9b 3e 53 40 79 3f
       -0.2773935 0.5760444 0.30427477 0.97363776
000040 e8 56 36 3f 58 e2 f0 be 8f a1 cd be 8a d5 ea be
       0.7122636 -0.47047687 -0.40162322 -0.45866042
000050 92 3f 19 bf 4b b3 e8 be f0 d2 cb 3e 40 6c 32 3f
       -0.59862626 -0.4544929 0.3980937 0.69696426
000060 4f 7c 25 bf 7b 8d 46 bd 9a 6b dc be a4 5a 69 bf
       -0.64642805 -0.04847477 -0.43050843 -0.9115393
000070 7e b7 52 3f a2 f9 c0 be bd 2a 50 bb 52 96 15 3e
       0.82311237 -0.37690455 -0.0031763755 0.14608124
000080 20 dd a9 3e c4 af 19 bf 5c cf 53 3b 75 ab 3c 3f
       0.33176517 -0.6003382 0.003231964 0.7369912
000090 40 8a b8 3e 3a e6 76 3e f1 96 9b 3d a2 8d dc 3d
       0.36042976 0.24111262 0.07597149 0.10769202
0000a0 f4 69 a8 3e 25 d4 11 3f 8d d4 30 bf 59 78 e7 be
       0.32893336 0.5696433 -0.69074327 -0.45209005
0000b0 f4 dd 01 3f f3 f3 55 3f d0 31 29 3f ba 0f e2 3e
       0.507293 0.8357536 0.6609163 0.44152623
0000c0 40 0f 2e 3f de eb db 3e e3 1f cc 3d c0 e8 2c bf
       0.6799202 0.4295339 0.099670194 -0.6754265
0000d0 c6 d1 40 3f 7f e7 72 be 71 ac dd be 0e 6d dc be
       0.7532009 -0.23721121 -0.43295625 -0.43051952
0000e0 26 34 74 bf ea 91 27 3f 04 6b 4d 3e 85 45 09 3f
       -0.9539207 0.6545702 0.20060354 0.53621703
0000f0 67 4e 0b 3f ef 7c 15 3f 0b 44 30 bf 14 64 7a be
       0.5441651 0.5839376 -0.68853825 -0.2445224

lstm_cells.0.W_hc.weight f4 [64, 64]
000000 5f f4 d5 3c 8b db 80 bd 04 ad 93 3d ec 7d a9 3a
       0.026117502 -0.062918745 0.072107345 0.0012931204
000010 71 db 05 3e d2 2a eb 3c a6 c3 b7 3d 60 e5 d3 3d
       0.13071992 0.028706942 0.08972864 0.10346484
000020 d8 c1 8b 3c fb f7 d6 3c 2f fe e4 3d 46 19 32 bd
       0.017060205 0.026241293 0.11181294 -0.043481134
000030 1a 67 9b 3d 90 aa 68 bd 0a 34 8a 3d fe 7a 93 bd
       0.075880244 -0.056803286 0.06748207 -0.07201193
000040 88 7c 96 bc 74 0d ef bd 20 07 cb 3d f4 af b0 3d
       -0.018369928 -0.11672488 0.09913468 0.086273104
000050 69 f9 12 3e 02 9b 98 3d 67 a4 75 3b b2 01 15 bd
       0.14352955 0.074514404 0.0037482025 -0.03637857
000060 7b 54 1b bd 47 44 8c bd 02 dc 75 3d 21 c3 a5 bc
       -0.037922364 -0.0684896 0.06002427 -0.020234646
000070 e6 06 8d 3d 73 ce 19 3d 79 0d 9f bd fb bd 3f 3d
       0.068860814 0.0375504 -0.077662416 0.04681204
000080 08 46 78 bd 51 71 cf 3c 17 46 96 3d 6e 05 1e bd
       -0.060613662 0.025322588 0.07337587 -0.038579397
000090 72 f4 46 3d af 89 97 bd 58 d4 a5 bc 9c 05 20 bd
       0.048572965 -0.07399308 -0.020242855 -0.03906785
0000a0 dd ce 1d bd 62 12 15 3d d3 86 2e bc ce 3b cc 3b
       -0.03852736 0.036394484 -0.010652262 0.006232715
0000b0 77 0a ed bd ba 71 17 bd 2b 50 17 bd 5a 41 90 3d
       -0.11574262 -0.036973692 -0.03694169 0.07043715
0000c0 4e bd f5 bd ac 8a 56 3d 7e ee 3f bc 60 43 01 3d
       -0.11998998 0.05237834 -0.011714576 0.031558394
0000d0 bc 25 10 be 61 55 ab bd 7a d5 e1 bd 79 6c ca bd
       -0.14076895 -0.08365894 -0.110270455 -0.09883971
0000e0 f1 93 b3 3d dc b2 f1 bd 11 b4 2b 3d d7 4d 3b 3d
       0.08768452 -0.11801693 0.04191977 0.04572853
0000f0 f5 c8 df 3c 6d 9a be 3d 07 97 05 3b a1 4f f5 bc
       0.027317503 0.09306798 0.0020384209 -0.029945197
000100 7a 74 aa 3b 05 cc 19 3c fb cd e8 3d 74 12 ac 3d
       0.0052018734 0.009387021 0.11367413 0.08401957
000110 55 f2 67 3c 94 0d a7 bc 22 b2 c3 bd 8f 37 a8 3c
       0.014156898 -0.020392217 -0.095554605 0.020534305
000120 11 6e 57 bd 56 7c eb 3c 4c d6 bf bc 5d 9b b6 bd
       -0.052595202 0.028745811 -0.023417614 -0.08916352
000130 71 83 95 3d ff d4 f1 bd bb 1b 84 bd 14 31 cf 3c
       0.07300461 -0.11808204 -0.06450602 0.025291957
000140 9e bc 00 be b9 8b c8 3d 3e 2f 8e bd 80 95 1b bd
       -0.12571952 0.09792275 -0.069426045 -0.03798437
000150 73 d8 ec b9 21 8a 8e bd 78 dd d9 bd fa 65 00 be
       -0.00045174695 -0.0695994 -0.10637945 -0.12538901
000160 72 3e 98 3d 1c e2 46 bd 08 a7 47 bc fe 69 b7 bd
       0.074337855 -0.04855548 -0.012185819 -0.08955763
000170 49 e0 0c bd af 76 3b 3d 61 15 28 3d ab 70 03 be
       -0.034393582 0.045767482 0.041036014 -0.12835948
000180 d8 be b7 bb 86 36 9c bd 57 7d e9 bd bb 9f 22 3c
       -0.005607467 -0.07627587 -0.1140086 0.009925778
000190 ed 49 4c 3c bc b2 ec 3b 58 6f 41 3d 55 77 04 bd
       0.012468797 0.0072234552 0.047225326 -0.032340366
0001a0 96 03 a3 bd 2b 4d ab bc 30 77 51 bc d2 a4 35 bd
       -0.07959668 -0.02091082 -0.012784764 -0.044346638
0001b0 4d b2 4d 3d 55 d2 9e 3d be ab 48 bc bb 65 86 bc
       0.05021887 0.077549614 -0.012247978 -0.01640593
0001c0 c7 78 34 bd 8b 7c 26 bd 9e 80 82 bc 6e 03 9a bd
       -0.044060495 -0.040646117 -0.01593047 -0.075201854
0001d0 8a 4d 8a 3d 5c e5 06 3d 68 c5 0c 3d d1 14 cb bd
       0.06753071 0.032933578 0.03436795 -0.0991608
0001e0 08 23 aa 3d 60 f2 db bd 8e f3 45 3d 39 47 28 bc
       0.08307463 -0.10739589 0.048327975 -0.010270887
0001f0 a3 8c b5 3a b2 b8 85 bc 7d dc f8 bd 7e 9b 09 bd
       0.0013851117 -0.016323421 -0.1215143 -0.033595555
000200 33 e4 03 3c f0 71 c1 3c 73 a9 4c 3c 54 97 99 bd
       0.008050012 0.0236139 0.012491572 -0.07499567
000210 e4 18 ee bc fb 4b ea 3d 88 b9 02 be c6 79 55 3c
       -0.029064603 0.114402734 -0.12766087 0.013029521
000220 26 43 bb 3c 2a 8b ae 3d 67 ff dc bb 8c 83 4a 3c
       0.022859167 0.08522637 -0.0067443135 0.012360465
000230 c5 d0 16 3c 6a bd 3c bc 57 24 b4 3d 4c 82 f3 3c
       0.009205048 -0.011519769 0.08795994 0.029725216
000240 7c 37 cd 3c 16 61 e9 3d a0 ff fb 3d 13 0f a6 bd
       0.025050871 0.11395471 0.12304616 -0.08108344
000250 4e 0e ab bd c9 90 6b bd 45 23 bc bd 59 b3 9b bd
       -0.08352338 -0.057511125 -0.09186415 -0.07602567
000260 b4 57 d7 bb 68 93 f0 bc d1 b5 cd 3d 10 cb e3 3d
       -0.0065717343 -0.029367164 0.10044444 0.111227155
000270 39 91 3e 3d b5 72 e7 3d 7a 9e 9a bd 53 90 eb bd
       0.046525214 0.113011755 -0.07549758 -0.11502137
000280 b7 40 f4 bd ef 7b b8 bc 02 ea 7a bd f3 1b 2c 3d
       -0.11926406 -0.022520034 -0.061258323 0.042018842
000290 cf c2 77 bd f0 6a d1 bd 75 ed 9a bd fd d5 6f 3d
       -0.06048852 -0.10225475 -0.075648226 0.058553685
0002a0 ae 2b 13 3d 16 3b 42 bd 31 70 20 3d f5 5e 94 3b
       0.035930328 -0.04741963 0.039169494 0.0045279213
0002b0 4c a7 a1 3d 31 88 fd bd 21 f7 70 3d 95 8e 41 bd
       0.078932375 -0.12379492 0.05882943 -0.047255117
0002c0 d1 58 24 3c 13 1f d3 3d bf e3 64 3d 74 51 3a bc
       0.010030941 0.10308661 0.055881258 -0.011371959
0002d0 69 c0 db 3c 6e e6 7f 3d 58 e2 ec 3c 41 19 74 3d
       0.026825147 0.062475614 0.028916523 0.059594397
0002e0 46 17 72 bd c1 e0 ad 3c 36 13 a0 bc dd 3b dd bd
       -0.059104227 0.021225335 -0.01954041 -0.10802434
0002f0 eb a6 cb bd 57 e3 90 3d a8 67 66 bc 05 1e 47 3a
       -0.099439465 0.07074612 -0.0140627995 0.0007595721
000300 4b 7c b6 bd ba 91 68 bd cc b3 96 3d d0 00 83 bd
       -0.08910426 -0.0567796 0.07358512 -0.06396639
000310 6f 20 95 bc 91 83 b5 bd fd 6e 3d 3c b3 9f 44 3d
       -0.018203942 -0.08862985 0.011562106 0.048003864
000320 98 b5 3f bd e5 65 9b bd bb 0e cd bd 69 c4 65 bc
       -0.04680404 -0.07587794 -0.10012575 -0.014023879
000330 a2 91 3c 3d e1 38 25 3e 43 c3 08 3d 84 4f 91 3d
       0.046037324 0.16134979 0.03338934 0.070952445
000340 39 ea f9 3d 76 f1 9a 3d ea 47 cd 3d 75 95 f1 3a
       0.122028776 0.07565586 0.10023482 0.0018431382
000350 c8 8b 5b 3d 45 02 c8 bd 17 7a 9c 3d 4c 00 8a 3d
       0.053600103 -0.09766058 0.07640474 0.06738338
000360 79 87 50 bd 8c 1a 9f 3c c7 2b 09 3d a0 2e 06 3e
       -0.050910447 0.019421838 0.033489015 0.13103724
000370 33 77 c1 3d 73 54 08 3e db 92 07 3d c8 a9 5e 3d
       0.094465636 0.13313465 0.033099037 0.054361135
000380 01 08 38 bd af d8 04 bc ea 97 6a 3d 62 e6 36 3d
       -0.044929508 -0.008108302 0.057273783 0.044653304
000390 22 cc d8 bd c8 a5 4c bb 8b ad 69 3d d7 59 36 bc
       -0.1058581 -0.0031226743 0.05705027 -0.011129818
0003a0 c8 f4 6f 3d 8b 0b 1b 3d 1c d5 3b bd 27 9b 4d bc
       0.05858305 0.037852805 -0.045857534 -0.012549198
0003b0 df 01 c3 3c 5d 08 91 3d 45 30 5d 3d 24 08 6a bc
       0.023804603 0.07081673 0.05400111 -0.014284167
0003c0 31 de fc 3c 72 d8 02 3b d1 70 58 bd e1 c7 b8 bd
       0.030867668 0.0019965437 -0.052841965 -0.09022499
0003d0 1c 7f 80 3c 84 cd d3 bd fd 54 d5 bd d0 a4 eb bc
       0.01568561 -0.10341933 -0.10416601 -0.028765112
0003e0 04 a5 35 3d d2 c7 26 bd 6d df 90 bd db 1e 9e bd
       0.044346824 -0.040717907 -0.07073865 -0.07720729
0003f0 0b a0 d9 bd d1 ca 13 bd e2 f7 da bd 2b 78 82 bc
       -0.10626229 -0.036082093 -0.10691811 -0.015926441

lstm_cells.0.W_hc.bias f4 [64]
000000 63 75 06 3d 7d bb 3b 3d ac 43 11 3d 51 8e 4d bd
       0.032826792 0.0458331 0.035464928 -0.05018455
000010 06 48 9d 3d 91 f5 6a bb cf 3f 01 3c 59 cd 2a bc
       0.07679753 -0.0035851935 0.007888748 -0.010424935
000020 27 2b 02 bd dc d4 01 3e 37 6f f3 3d 97 f5 7b bd
       -0.031779435 0.12678856 0.11886447 -0.06151351
000030 ea b9 9b bd ee 1a ce bc 8d ee 2f bd b6 6b f0 bd
       -0.0760382 -0.025159325 -0.04295211 -0.11739294
000040 2c 5e d1 bd 10 f5 63 bc a7 21 d7 3b d9 54 03 3e
       -0.1022304 -0.013913408 0.006565291 0.12825336
000050 84 77 f3 3d a7 53 ac 3d b2 0e bf 3a 03 57 de 3b
       0.1188803 0.08414393 0.0014576523 0.006785275
000060 5e 35 3f bd df 46 ea bd 55 0d c8 bc fc 52 4a 3d
       -0.046681754 -0.11439299 -0.02442042 0.049395546
000070 a4 69 64 bc 3f af 2f bc ff fe 62 3d bf 69 5d bc
       -0.013941202 -0.010722934 0.055418964 -0.013513981
000080 49 98 e2 bd 4f c7 f6 3d 2c 99 8d 3c 07 a5 d5 3d
       -0.11064202 0.12049734 0.017284952 0.10431867
000090 d7 14 6c 3d fe 60 00 3e bf 19 9a bb 16 a5 40 bd
       0.057637062 0.12537 -0.004702776 -0.04703244
0000a0 1e 70 8e 3d f7 18 47 3d 7a c8 cc bd 8d 35 b4 3d
       0.069549784 0.048607793 -0.09999175 0.087992765
0000b0 d5 ec 15 be 87 24 8a 3d 43 20 85 bd 07 81 8c 3c
       -0.14641126 0.06745248 -0.06500294 0.017151369
0000c0 05 63 86 3d a8 72 24 bd f1 39 a9 3d 15 28 f3 3d
       0.06561855 -0.040148407 0.082630046 0.118728794
0000d0 3c a7 b7 3d cc 8c d8 3d 2b a2 3a bc fd e6 bd 3d
       0.08967444 0.1057373 -0.011391203 0.09272573
0000e0 78 87 47 bd 1b 97 80 3d 46 a8 e7 bd a7 00 e5 bd
       -0.048713177 0.06278821 -0.113113925 -0.11181765
0000f0 0f 0d c1 3c 9c a5 f5 bd 1d 7d fa 3d e4 bd 77 3d
       0.023565797 -0.11994478 0.12230895 0.06048383

lstm_cells.0.W_in.weight f4 [64, 64]
000000 f0 3f 89 3d a4 a3 f0 bd 70 61 e8 3d 50 11 3d bd
       0.06701648 -0.11749962 0.1134671 -0.04615909
000010 c0 12 ca 3c 3a b2 e7 3d dc 2b ef 3d 10 c8 20 3d
       0.024667144 0.11313291 0.116782874 0.039253294
000020 90 99 ef bd e0 6f 2a 3d 20 04 e1 bc 68 0c 75 3d
       -0.116992116 0.0416106 -0.027467787 0.059826285
000030 46 17 cb bd 54 27 65 3d de e9 b7 3d 94 5f f8 3d
       -0.099165484 0.05594571 0.089801535 0.12127605
000040 c0 3d 39 3d 48 e9 e5 bc a2 a7 d3 bd 60 8c fb bb
       0.045224905 -0.028065339 -0.10334708 -0.007676646
000050 80 87 12 3b fa 11 c8 bd 60 87 e9 bc ec dc 06 3d
       0.0022358596 -0.09769054 -0.028506935 0.03292553
000060 00 60 43 ba 04 3e 7e bd 80 57 da ba 26 dd cc 3d
       -0.0007452965 -0.06207086 -0.0016658157 0.10003118
000070 30 29 a8 3c 32 2d d9 bd 30 ed f7 3d 02 4d d6 bd
       0.020527452 -0.106043234 0.12105787 -0.10463907
000080 22 f5 d3 bd c0 e9 20 3d 02 f4 e9 bd f0 b1 bb 3d
       -0.1034949 0.03928542 -0.11423494 0.09164798
000090 c8 b7 14 3d 74 5c 86 3d 90 45 3d 3c d4 dd b6 bd
       0.03630808 0.06560603 0.0115522295 -0.08929029
0000a0 50 dd cd 3c d0 44 54 bc 60 8f c6 bb 10 1e c0 bd
       0.025129944 -0.012955859 -0.006059572 -0.09380734
0000b0 34 4d 34 bd 48 81 d3 bd e4 19 db bd 74 57 bd 3d
       -0.04401894 -0.10327393 -0.106982976 0.09245196
0000c0 68 17 72 bd 88 3e c9 3c 00 54 c1 ba 28 18 ad bd
       -0.059104353 0.02456595 -0.0014749765 -0.08451873
0000d0 64 fe d1 3d 90 5d d1 bd 9c 79 1e 3d 84 f6 eb 3d
       0.10253599 -0.10222924 0.038690194 0.115216285
0000e0 9e 74 ca 3d 64 08 b2 3d fa 60 e5 3d c6 d1 d7 3d
       0.09885524 0.08693007 0.112001374 0.10538058
0000f0 20 c1 b9 3c a8 1a 2b 3d a8 3f 58 3d 44 45 75 3d
       0.022675097 0.04177347 0.052795082 0.05988051
000100 36 4d d0 bd e4 54 83 3d 88 d1 72 3d e4 00 33 bd
       -0.10170977 0.06412676 0.059281856 -0.04370202
000110 38 50 3d 3d 88 5a ff 3c 02 e8 d8 3d 1c 42 ba 3d
       0.04621908 0.031171098 0.10591127 0.090946406
000120 f8 9e 3c bd 00 e2 bf 3d 00 6c b4 3a 58 3e ed 3d
       -0.046050042 0.09369278 0.0013765097 0.11584157
000130 9c e4 be bd a2 d9 8e 3d 5a d6 be 3d 70 9e 9d bd
       -0.093209475 0.06975104 0.09318228 -0.07696235
000140 e0 0b c7 3b 7e 5a b9 bd fc bc 65 bd 5a 5f ec 3d
       0.0060744137 -0.09050463 -0.056088433 0.11541624
000150 c4 93 7a bd fa 9a ac 3d 42 50 c4 bd 30 b2 5f 3d
       -0.061176077 0.08427997 -0.095856205 0.054613292
000160 9c 45 70 bd 94 63 fc bd d8 a3 74 bd f0 25 ff bc
       -0.058660135 -0.123236805 -0.059726566 -0.03114602
000170 70 6f 6f 3d b8 54 f0 3d 08 e9 cc bd f6 15 bb bd
       0.058455884 0.11734909 -0.10005385 -0.09135048
000180 10 7d 8b 3c e8 9b e8 bd c0 44 4f 3b 7c 26 22 3d
       0.017027408 -0.11357862 0.0031626672 0.039587483
000190 68 ee d6 bc 20 b3 19 3d 18 d5 db bd 00 fd dd 3a
       -0.026236728 0.037524343 -0.10734004 0.0016936362
0001a0 ea 69 f9 3d 8a f1 f2 3d 40 83 6c 3d 9c fd 2f bd
       0.12178405 0.11862476 0.057742357 -0.04296647
0001b0 30 22 1e bd b0 88 d8 bc 90 57 fc 3c 0e af e7 3d
       -0.038606822 -0.026432365 0.030803472 0.11312686
0001c0 d8 54 ce 3d 94 9f 0e 3d 28 ac bc 3d f4 61 d5 bd
       0.100747764 0.034820154 0.09212524 -0.10419074
0001d0 00 5a 58 3b ea bd dc bd a0 ee 9d bc 20 2b f6 bb
       0.0033012629 -0.10778411 -0.019278824 -0.007512465
0001e0 40 04 ba 3d f8 3f d9 3d 60 12 50 3c 74 35 48 bd
       0.09082842 0.10607904 0.012699693 -0.048879102
0001f0 46 c7 b1 3d e0 db f9 bd f0 57 f9 3c e8 2d ed bd
       0.086805865 -0.12200141 0.03043744 -0.115810215
000200 ac a5 4e bd dc c6 48 3d 62 03 89 3d 6e 0e ad 3d
       -0.050450966 0.049017772 0.06690098 0.08450018
000210 86 8e bc bd 94 b1 40 bd 18 3f 2e bd 88 d2 0b bd
       -0.09206872 -0.04704435 -0.04254064 -0.034136325
000220 dc c2 fb bd c0 e0 d2 3c c2 11 be 3d 0c 9b 61 3d
       -0.12293026 0.025741935 0.09280731 0.055079505
000230 72 5c b1 3d 10 6f a8 bd 8e b7 e9 bd 00 39 40 3b
       0.08660211 -0.082243085 -0.114119634 0.002933085
000240 5c 29 ee 3d e0 45 cf 3d b0 96 72 bd 74 8e 4b 3d
       0.116289824 0.101207495 -0.059225738 0.0496964
000250 d8 d3 6e 3d 60 17 e5 bb 40 f2 da bb e0 5f b7 bb
       0.0583075 -0.006991312 -0.0066817105 -0.005596146
000260 38 11 b1 3c 20 48 fb 3d 34 78 ad bd 48 6f e2 bc
       0.021614656 0.12269616 -0.084701926 -0.027640954
000270 cc 13 13 3d c0 10 05 bb e6 ab af bd 40 3a 61 bc
       0.03590755 -0.0020304173 -0.08577709 -0.013746798
000280 f2 27 c4 3d 6c 0d 5b 3d ac a5 2a bd c0 27 9c bb
       0.095779315 0.053479597 -0.041661903 -0.0047654808
000290 dc 58 dd bd 18 f5 03 bd 10 d9 43 bd b8 7f 21 bd
       -0.10807964 -0.03221616 -0.04781443 -0.039428443
0002a0 18 b3 d5 3d 2c 2b cb bd 3c 18 ef 3d 60 b2 99 3d
       0.1043455 -0.09920344 0.11674544 0.075047255
0002b0 f0 36 fc bc 90 f4 26 bc d0 40 8c bc 4c bb f3 3d
       -0.030787915 -0.010190144 -0.017120749 0.119009584
0002c0 2c 5d 8e bd e0 81 07 3c f8 dc cc 3d 86 84 8c bd
       -0.06951365 0.008270711 0.10003084 -0.06861214
0002d0 d0 91 14 3c 94 9e 7a 3d dc b9 f3 3d 1e 01 98 bd
       0.0090679675 0.061186388 0.11900684 -0.07422088
0002e0 00 aa 2e 3a 10 a7 67 bd 40 93 25 bb 38 fd 61 3d
       0.0006662905 -0.056555808 -0.002526477 0.05517313
0002f0 4e fc e1 3d 9a 1e cd 3d c8 5f 2f bd c4 ab 4c 3d
       0.110344514 0.100156024 -0.042815953 0.049968496
000300 38 43 2a 3d 50 3c 84 3d 10 47 21 bd d4 ea 55 3d
       0.04156801 0.06456816 -0.03937441 0.052225903
000310 86 ba 85 bd 00 0f 7e bc 80 6c d0 bb 22 1d ef 3d
       -0.06529717 -0.015506506 -0.0063605905 0.116754785
000320 1e 17 c9 bd 04 fd 88 bd c4 31 b4 bd c0 06 2f bb
       -0.098188624 -0.06688884 -0.087985545 -0.0026706904
000330 bc 54 27 3d b4 30 fd bd c0 27 ac bc 78 44 77 bd
       0.040852293 -0.12362805 -0.021015048 -0.06036803
000340 80 a6 00 bb 78 eb 24 3d 70 c4 ab 3c 64 52 46 3d
       -0.0019630492 0.040263623 0.020967692 0.048418418
000350 2c e0 cf 3d 00 a5 02 3a 40 09 49 3d 1e aa 9e 3d
       0.10150179 0.00049836934 0.049081087 0.07747291
000360 f0 ad 53 bc d0 93 4d bc a0 dc 94 bb 02 3e a3 bd
       -0.012919888 -0.012547448 -0.004542902 -0.079708114
000370 7a b8 ab bd ba cd a1 bd b0 c9 1b bd 64 76 4d 3d
       -0.083847955 -0.07900567 -0.03803414 0.050161734
000380 cc e5 e7 bd 58 e9 d5 bd a6 41 ac bd 9a e1 ad 3d
       -0.11323127 -0.104448974 -0.08410959 0.08490296
000390 d4 14 8e 3d f2 eb ec bd 8e a1 fd bd e8 0e 8b bc
       0.069375664 -0.115684405 -0.1238433 -0.016974881
0003a0 28 13 b8 3d f0 b9 be bc 00 fb cb bd 40 a8 bd bd
       0.08988029 -0.023282021 -0.09959984 -0.09260607
0003b0 5c e2 29 3d 94 10 51 3d 3a da dd 3d 18 fd 59 bd
       0.04147564 0.0510412 0.10832639 -0.053219885
0003c0 d0 be f5 bd 9e 23 d2 bd b6 3d da bd c8 51 53 bd
       -0.11999285 -0.102607 -0.10656302 -0.051591665
0003d0 1a b8 d2 bd a0 02 9d 3c f0 f6 b1 bd 40 e6 33 3c
       -0.10289021 0.01916629 -0.08689678 0.010980189
0003e0 54 74 2e bd a8 d0 aa bc 24 cb a0 bd 52 b0 f8 bd
       -0.042591408 -0.020851448 -0.07851246 -0.121430054
0003f0 bc 8e b8 3d 70 89 4f bd 7c f9 4a bd 30 d1 d5 bc
       0.090115994 -0.05066818 -0.049554333 -0.026100725

lstm_cells.0.W_in.bias f4 [64]
000000 50 cf 2e bd 90 92 4b 3d 68 d6 cb bc 0e ca 85 bd
       -0.042678177 0.04970032 -0.02488251 -0.065326795
000010 88 7b 80 bc 94 25 e9 3d 10 9b df bc 28 f2 b3 3c
       -0.015683904 0.113841206 -0.02729562 0.021966055
000020 0e b8 d7 bd 9a ba 91 3d e8 6b f5 bc 0c 0c a5 3d
       -0.105331525 0.071156695 -0.02995868 0.080589384
000030 74 0f 8d 3d 66 2b 8f bd 72 7c e4 3d 68 70 ad bc
       0.06887713 -0.069906995 0.111565486 -0.021171764
000040 40 07 ea bb cc ee 70 bd 34 89 7f 3d 98 65 c1 bc
       -0.0071419775 -0.058821484 0.062386706 -0.023608014
000050 ac 8e d2 3d 3a 40 fd 3d 58 f7 96 3c f4 4c 0f bd
       0.10281119 0.12365766 0.01842849 -0.034985498
000060 2c f0 2f 3d f0 16 5d 3c c0 8a f9 bd 30 ba b3 bd
       0.042953655 0.013494238 -0.121846676 -0.08775747
000070 2a 95 f3 3d 04 19 2d 3d 3a 24 88 3d a0 81 8b 3d
       0.11893685 0.042260185 0.06647535 0.068118334
000080 92 62 b8 3d 2a 91 c4 bd 30 f1 a7 3c 78 4d d0 bc
       0.09003176 -0.09598 0.02050075 -0.025427565
000090 8c 15 f6 bd 60 c1 2b bc a8 51 10 bd 8e 3b dd 3d
       -0.120158285 -0.010483116 -0.035234123 0.10802375
0000a0 60 fd ec bd 00 a0 27 bd 44 70 2f bd e4 0c 08 bd
       -0.11571765 -0.040924072 -0.042831674 -0.03321542
0000b0 00 d8 31 3b d6 95 bf bd fa 91 d1 3d 9e 3e a8 bd
       0.0027136803 -0.09354751 0.10232921 -0.08215068
0000c0 08 3c 64 bd 40 de 3c 3d b8 08 ab bd 32 58 ec bd
       -0.055721313 0.04611039 -0.08351272 -0.115402594
0000d0 f0 3a 6c 3c 18 d0 b0 3c a0 0f 9f 3b 1a 54 e5 3d
       0.014418349 0.021583602 0.0048541576 0.11197682
0000e0 12 5f ac bd d4 eb ed bd e0 fb e8 bd e4 4f cc 3d
       -0.08416571 -0.11617246 -0.11376166 0.099761754
0000f0 80 7f be 3c 1c 62 17 bd c8 b2 a5 3d f8 28 99 3c
       0.023254156 -0.0369588 0.080907404 0.018696293

W_h.weight f4 [64, 64]
000000 95 39 d6 bd 8b 2b d8 3c a7 e0 01 be 94 4d a6 bd
       -0.10460202 0.02638795 -0.12683354 -0.081202656
000010 cd a5 b0 bb 71 c7 02 3e 88 f5 1c bd b9 bf d9 3d
       -0.0053908587 0.12771393 -0.038320094 0.10632271
000020 30 4f 6c bc 3b 07 27 3d 72 d0 f2 3d d6 8e fc bd
       -0.014423177 0.04077838 0.11856164 -0.12331931
000030 1c 8f e9 bd 20 4b 71 3c 1f be 83 bc 0b c9 3f bd
       -0.11404249 0.014727384 -0.016081868 -0.04682259
000040 06 de 95 bd 88 48 fc bd f3 84 f7 3d 9e 25 95 3d
       -0.07317738 -0.12318522 0.12085905 0.072825655
000050 fb cc e5 bd 3f 60 f2 bd e3 ad af bd e4 4a 4e 3c
       -0.112207375 -0.11834764 -0.08578088 0.0125910975
000060 73 b7 09 bd d5 8e 3b bd 30 ea 64 bb ff 9d e0 3b
       -0.033622216 -0.045790512 -0.0034929626 0.006854772
000070 22 f6 c1 3d c2 c1 84 3d 2b 0c 63 3a 18 2e 1d 3d
       0.09470774 0.06482269 0.0008661176 0.038374037
000080 59 bd 97 bc 7a fa 6c bd 87 f1 9b bd ec 16 bb 3c
       -0.018522905 -0.05785606 -0.07614427 0.022838078
000090 bd 59 c1 3d 39 7b e7 bd 16 11 02 3d 7b cc 94 3d
       0.09440944 -0.113028 0.031754576 0.07265564
0000a0 70 66 66 bc 34 4f 55 3d 49 a7 a8 bd ef 1d 94 3d
       -0.014062509 0.052077487 -0.08235032 0.07232272
0000b0 b1 20 20 bd 3a 64 16 3b ae 6a f7 bd 4a 31 cb 3b
       -0.039093677 0.0022947923 -0.120808944 0.006200944
0000c0 44 29 f2 bd 7b eb 5c bd 3e 6f 5f bd 0f 27 88 3d
       -0.11824277 -0.05393551 -0.05454945 0.06648075
0000d0 a3 5b 6b 3d 5a d6 a5 bd 78 8e d7 3d b1 40 fd 3c
       0.05746044 -0.08097525 0.10525221 0.030914636
0000e0 36 5b 96 3d 5b 89 18 3d 60 39 a7 3d 73 cb 39 bd
       0.07341616 0.037240367 0.0816524 -0.04536004
0000f0 ee 06 e1 3d 18 2a 15 3d 34 92 10 3d 02 9c 9b bd
       0.1098765 0.036417097 0.03529568 -0.075981155
000100 f8 96 84 bd 69 9a 11 3b eb fb 05 3d 17 51 a1 3d
       -0.064741075 0.002221728 0.03271095 0.07876795
000110 15 b9 fb bd 2f 97 87 bd ac e0 c7 bd bc 1e cc 3d
       -0.12291161 -0.06620633 -0.0975965 0.099667996
000120 81 ad a8 bc 39 93 90 bd 77 e4 e5 bd 78 6e 90 bc
       -0.020590546 -0.070593305 -0.11225217 -0.0176308
000130 90 8d d0 3c 63 71 b7 3d df 67 7c 3d 22 57 0b bd
       0.025458127 0.08957174 0.061622497 -0.034018643
000140 59 e5 ef bc bd 2e 40 3d 97 90 7a bb e4 ea 85 3c
       -0.029284166 0.046919573 -0.0038233155 0.016347356
000150 0c 1e dc bd 70 a1 ce bd a6 07 9f 3d 55 41 8b bd
       -0.107479185 -0.100893855 0.07765131 -0.067995705
000160 4a 5e ee 3d 16 4b a2 3d 6d 73 b2 3d 8f ac a4 bd
       0.11639078 0.07924478 0.08713422 -0.080407254
000170 15 62 bf 3d fc 2a 32 3d 33 8d 82 bd 42 bf cd bc
       0.093448795 0.043498024 -0.06374588 -0.025115613
000180 8f da 01 3d 0f 9f 86 bd 6c f5 73 bd e5 af ef 3d
       0.031702574 -0.06573307 -0.059560224 0.11703471
000190 fe 9d ba ba a3 1f 5f bd bb f4 5b bd 05 d1 03 bd
       -0.0014237759 -0.05447353 -0.05370019 -0.03218176
0001a0 e9 59 fe bc d8 45 74 bb d7 ba e7 bd a0 75 00 be
       -0.031048732 -0.0037273075 -0.11314934 -0.1254487
0001b0 db d7 aa 3b 17 65 6c 3c 3b 22 f7 bd 73 8e d0 3d
       0.0052137203 0.014428399 -0.12067076 0.1018342
0001c0 71 c2 dc 3d 7f 48 6b bd be 41 6b 3d f9 69 87 3c
       0.10779274 -0.057442185 0.057435744 0.016530024
0001d0 61 25 ff 3d 70 ff df 3c 02 57 5e bc 0c f4 3a 3d
       0.12458301 0.027343482 -0.013570549 0.045642897
0001e0 e1 2f da bd 18 95 ba bd 84 87 8d 3d 21 6d b4 bd
       -0.106536634 -0.091104686 0.06910613 -0.08809877
0001f0 33 43 8f 3d a2 0a 09 bd 21 3f f5 bc 81 0a a3 bd
       0.06995239 -0.033457406 -0.029937329 -0.07960988
000200 10 87 fa bd ce d7 50 bc 4c 0c d0 3c eb 6b 09 be
       -0.122327924 -0.012746764 0.025396489 -0.13420074
000210 06 33 b7 bd 19 2f 48 3d 84 6f 81 bd ff 32 c5 3c
       -0.08945279 0.04887304 -0.06320098 0.024072168
000220 81 3a ca bd f8 62 5f 3d 81 4e 40 3d 1c 98 3d bd
       -0.0987444 0.054537743 0.046949867 -0.04628764
000230 78 74 d2 3d 40 44 82 3b a7 bf ce 3d 15 b5 47 3d
       0.10276121 0.003975421 0.100951485 0.048756678
000240 0b ba aa bd 74 23 bd 3c f1 6b 8e bd d7 d4 8c bc
       -0.08336266 0.023088194 -0.06954182 -0.017191334
000250 69 a8 a8 b9 9f 20 24 3d b9 f4 cc bb 65 84 70 3d
       -0.00032168932 0.040070172 -0.006254759 0.05872001
000260 29 f3 62 3d 14 bf 7a bc 18 e6 ef bd 99 95 2c 3c
       0.055407677 -0.015304346 -0.11713809 0.010533714
000270 57 14 c7 3d b2 34 36 3c 19 48 a9 3d 66 e9 33 bd
       0.097206764 0.011120962 0.08265705 -0.043923758
000280 75 27 e9 3d 63 7c 80 bd 61 da a8 bd 97 3d 27 3d
       0.11384479 -0.06273725 -0.082447775 0.04083022
000290 2f f3 03 be ef a6 ad 3d 4f bb 66 3d e6 e7 be 3d
       -0.12885736 0.08479106 0.056330975 0.09321575
0002a0 51 70 ff bd e1 71 03 3e 84 17 28 3d 5c 45 45 bd
       -0.124725945 0.1283641 0.04103805 -0.04816185
0002b0 32 8f a1 3d 2c 75 24 3d 0c 96 b2 3b c5 a1 86 bd
       0.078886405 0.040150806 0.005450016 -0.06573824
0002c0 bc e8 af bc f4 cb b1 bd 1f 60 5d bd 6b a3 c8 bc
       -0.021473281 -0.08681479 -0.054046746 -0.024491986
0002d0 82 ba 86 3d 40 42 ef 3d 59 3b 95 3d f2 91 79 3d
       0.06578542 0.11682558 0.0728671 0.0609302
0002e0 7c ac 07 3d 45 ff 9d 3d 92 35 8f bd f1 f3 0e 3d
       0.03312348 0.077147044 -0.069926396 0.03490061
0002f0 81 46 ba 3d 0e 27 ba bd a8 db 41 3a d3 34 37 bd
       0.09095479 -0.0908948 0.0007395097 -0.04472811
000300 6d a8 79 bd 1b b0 1b 3d 93 75 7d 3d 3e 17 23 bd
       -0.06095164 0.038009744 0.061879706 -0.039817087
000310 dd 0a 68 bd e9 e8 58 3c d3 5e cb bc cf 0d cd 3d
       -0.056650985 0.013239124 -0.02482549 0.100123994
000320 0d 31 e5 3d 1d 86 78 bd b8 8b f0 3d 33 9b 3d bd
       0.11190996 -0.060674775 0.11745399 -0.046290588
000330 a7 82 33 3d 95 cc 10 bd 2b 7c 18 bd 09 60 87 3d
       0.04382577 -0.035351355 -0.03722779 0.06610114
000340 ea 4d 26 bd 4d f1 d7 bd a2 97 48 3d 18 32 f9 3d
       -0.04060165 -0.10544071 0.048972733 0.12167758
000350 a1 f3 3b 3d 36 1f 88 bd 1d 8e ce bc 65 99 95 bd
       0.04588664 -0.06646578 -0.02521425 -0.07304648
000360 5c 2d 76 3d 96 32 96 3d 66 47 78 3d ed 0a 8e bd
       0.06010185 0.07333867 0.060614966 -0.06935678
000370 77 2c cd 3d 5b 29 7d bd b4 75 f1 bd 38 68 e4 3d
       0.100182466 -0.061807018 -0.11790028 0.11152691
000380 1a 18 c7 bd 91 d9 d9 3d c4 27 b6 3d 01 d1 3a bc
       -0.09721394 0.106372006 0.088943034 -0.0114023695
000390 b0 63 1c bd 0e 32 98 3d 8a e5 4d bd 27 13 89 3d
       -0.038181007 0.07431422 -0.050267734 0.06693106
0003a0 0b 3f f0 3d 06 f9 08 3d ea 7b d8 3d b5 fd 57 bd
       0.117307745 0.033440612 0.1057051 -0.05273219
0003b0 44 14 83 3c 9b d5 9f bc a9 d3 af bd 76 70 c6 3d
       0.016000874 -0.019511035 -0.08585293 0.09689419
0003c0 6a 69 02 3e 23 5a e3 bd 5b 73 7b 3d d3 ad ac 3d
       0.12735525 -0.111011766 0.06138931 0.08431592
0003d0 9d f5 ee 3d 7f 9e f4 bc be 0a 9b bd 8b 80 80 3c
       0.11667941 -0.029860733 -0.07570408 0.015686294
0003e0 f7 97 88 bc 49 16 31 3d d7 48 86 bd d7 6c 97 3d
       -0.016674025 0.043234143 -0.06556862 0.073938064
0003f0 29 e8 4e bd 04 d8 b0 3c a8 12 ab bd bd 8c c2 3b
       -0.050514374 0.02158738 -0.08353168 0.0059371875

W_h.bias f4 [64]
000000 75 47 e7 bd 6d d9 5b bd 63 7a 51 3d 69 27 e3 3c
       -0.11292926 -0.05367415 0.051142108 0.027728753
000010 9b f0 ae bd 5d 03 56 3c 7c bd b2 bd d6 5c 93 3d
       -0.085419856 0.013062325 -0.087275475 0.071954414
000020 cc af df 3d d1 b5 04 3e b0 75 af bd 14 d4 e4 3d
       0.109222025 0.12959982 -0.08567369 0.11173263
000030 d9 42 e2 3d 11 fd ec 3d b5 e4 8d bc 05 c2 d5 3d
       0.110479064 0.11571706 -0.01732097 0.10437397
000040 68 05 ec bd 23 55 e7 bd 86 cd e4 bb bd 71 e6 3d
       -0.11524469 -0.112955354 -0.006982508 0.112521626
000050 cb 26 8f 3d 9b 7f 69 3d 5a 17 94 bd 43 51 c8 bd
       0.06989821 0.05700646 -0.072310165 -0.097811244
000060 92 f2 48 3d 2f 57 00 3e a1 70 34 3a cf 3f a2 ba
       0.049059458 0.12533258 0.0006883238 -0.0012378636
000070 ca 22 45 3c 7e b8 cb 3d 6f 73 4d bd fe 69 ac bc
       0.01203222 0.099472985 -0.050158914 -0.021046635
000080 20 84 49 3d 19 51 bc bd 5f 04 09 3d 88 cb c8 3d
       0.04919827 -0.09195156 0.033451434 0.098044455
000090 e7 17 b6 3d 97 98 e1 bd d8 b7 17 bc b9 74 be 3c
       0.08891278 -0.11015432 -0.00926014 0.023249017
0000a0 87 1d 8d bd 2f 2d d9 bc e4 3f b9 bc 5f c2 81 3d
       -0.068903975 -0.026510803 -0.022613473 0.063359015
0000b0 db e8 38 bd 14 ab eb 3d 84 dd 09 3d c6 1d 7b bd
       -0.045143943 0.1150724 0.03365852 -0.06130769
0000c0 2e aa 90 3d af 07 51 bd 97 2e 8b bc fa 96 bf bd
       0.07063709 -0.05103272 -0.01698999 -0.09354968
0000d0 2a 8a 9f 3d ef 9c 65 3d c6 2e 6a 3c 51 cb af bd
       0.077900246 0.056057867 0.014293378 -0.085837014
0000e0 29 90 a4 3d 2c 0d 5d bd fd 5d 3a 3d ed 2f ad 3d
       0.08035309 -0.05396764 0.04549979 0.08456407
0000f0 91 33 2a 3d 55 0f 54 bc c8 fa b0 3d 49 1d 2b bd
       0.041553084 -0.012943109 0.08641583 -0.041775975

W_g.weight f4 [64, 64]
000000 e6 7c ab 3d ca d1 e8 bd a8 24 d3 3d b2 6e 8a 3d
       0.08373432 -0.11368139 0.10309726 0.06759395
000010 55 f2 08 3d 2f 69 9e bb 64 9b 54 3d 8d 31 09 3d
       0.03343423 -0.004834316 0.051906005 0.03349452
000020 10 3b 37 bd 4c e1 a3 3d 46 9a 96 bc e9 7f fc 3c
       -0.04473406 0.08001956 -0.01838411 0.030822711
000030 ec 03 50 3d 66 6f c5 3d 4d 5b b3 bb 14 71 a2 bd
       0.05078499 0.09640388 -0.0054735304 -0.07931724
000040 74 32 1f 3d 80 55 47 3d 76 06 de bd 93 a9 b9 3b
       0.038866475 0.048665524 -0.10841076 0.005665967
000050 88 a7 b5 bd 68 89 24 bd 10 c5 29 bd bc d8 e0 bd
       -0.08869845 -0.040170103 -0.0414477 -0.10978839
000060 e4 52 f7 3d 26 11 c9 bc b9 af 21 3c 88 bb 25 bd
       0.12076357 -0.02454431 0.009868556 -0.040462047
000070 4e 90 a3 3d 98 a2 0b bd 06 5f af bd a0 61 fd 3d
       0.07986508 -0.03409061 -0.08563046 0.12372136
000080 78 7c a8 bd 77 ba 5e bc 84 ca 51 bd b8 84 01 bd
       -0.082268655 -0.013594261 -0.051218525 -0.03162071
000090 32 0e dc 3c 30 34 ef 3a f0 98 bd bd 52 62 a4 3c
       0.026862238 0.0018249806 -0.09257686 0.020066414
0000a0 36 6a d0 bc bb db 9e 3a 57 47 59 bc c1 99 08 3d
       -0.02544127 0.0012119928 -0.013261638 0.033349756
0000b0 8e 20 f6 bc 32 03 ba 3c 40 12 52 bd a2 d9 b7 bd
       -0.03004482 0.022706602 -0.051286936 -0.08977057
0000c0 98 44 c1 3d 4e 26 8b 3d 6e 0b 00 be 30 8f 66 3d
       0.09436911 0.067944154 -0.1250436 0.056288898
0000d0 49 80 14 3c 96 84 f2 bc ea f8 d5 3c ae b5 e3 bd
       0.009063789 -0.029604238 0.026119668 -0.11118637
0000e0 39 da 3b 3c 37 b3 58 bc 04 c0 f5 3c 3c 65 9f bd
       0.011465603 -0.013226322 0.029998787 -0.07782981
0000f0 80 e7 62 3d 50 9a c8 3d 56 00 e4 bc f2 64 91 3d
       0.055396557 0.09795058 -0.027832191 0.07099332
000100 b4 7d 81 bc f1 10 d5 bd 69 02 da bd 4f 42 95 bd
       -0.01580701 -0.10403622 -0.10644991 -0.07288038
000110 3b 96 d2 3d 0f 58 ee bd ab 27 dc bd 76 10 f6 3c
       0.102825604 -0.116378896 -0.107497536 0.030037146
000120 6c 49 76 bd ad ef 0a 3d b6 3a 50 bc d6 44 dd 3c
       -0.060128614 0.03391998 -0.01270931 0.027010363
000130 c9 dc a5 bd c1 93 84 bd 28 dd 4e bd 06 d0 6e bc
       -0.08098752 -0.06473494 -0.05050388 -0.014575964
000140 0e ff fb bd d1 03 b7 3d f4 c0 16 3d b1 47 df 3d
       -0.12304507 0.08936275 0.03680511 0.10902346
000150 d8 35 2d bc c1 6c a5 3d 1c b7 01 bd 06 90 c8 3c
       -0.010571919 0.08077384 -0.031668767 0.024482738
000160 f4 a7 4d bd 75 5a 0b 3d bd 2e a9 bd 63 4d f4 bd
       -0.050209 0.034021813 -0.08260868 -0.11928823
000170 f8 04 66 3d f5 08 a1 bd 2a cb 05 3d c0 86 51 bd
       0.056157082 -0.078630365 0.032664455 -0.0511539
000180 b4 83 30 bd 47 1c d7 bd 5b 87 9e 3d 4f a7 e3 bd
       -0.043094352 -0.1050344 0.07740661 -0.11115896
000190 4e 67 a2 3c 6f 1a dd 3d b8 2c 3d 3c 97 fa df bd
       0.01982465 0.107960574 0.011546306 -0.10936468
0001a0 cd c0 d3 bd 8b 52 86 3d 32 f8 d1 bc 39 f9 f3 bd
       -0.10339508 0.065587126 -0.025631044 -0.1191277
0001b0 78 c8 61 3c ca 80 03 bc 18 e6 3f 3c 4f ea fc bb
       0.013780706 -0.008026311 0.0117125735 -0.0077183614
0001c0 74 3e e2 bc a8 4b 51 3c 40 b1 22 3d 51 04 fb bd
       -0.02761767 0.0127743855 0.03971982 -0.12256683
0001d0 a1 ed 0e 3d 7f 90 cf 3d f5 3f 9e bd f5 19 83 bd
       0.03489459 0.10134982 -0.077270426 -0.06401435
0001e0 6d c8 94 bd 11 cb fb 3d 65 b9 8e bd 99 f9 d6 bd
       -0.07264791 0.12294591 -0.06968955 -0.10496826
0001f0 63 8a b4 bd 03 59 c7 3d a6 6e f0 3c 8e 7d 98 3c
       -0.08815458 0.097337745 0.029349636 0.018614557
000200 cd dc 0e 3c 32 a4 23 bd 9b f8 cb bd 21 ac 00 be
       0.008719635 -0.03995151 -0.09959527 -0.12565662
000210 d5 3f c8 bd 22 1c 78 bd b2 ef 14 3d 01 62 da 3d
       -0.097778 -0.060573705 0.036361404 0.10663224
000220 bd 6f 89 bd 2a 37 f5 3b d6 6f 37 bd 47 7a 6a 3d
       -0.067107655 0.0074833827 -0.04478439 0.05724552
000230 4b a4 c4 3d f2 5f 85 bc 21 98 ac bd 9a 2d 4f 3d
       0.09601649 -0.016281102 -0.08427454 0.0505806
000240 d5 98 a1 3d af 89 89 bd 16 91 0c 3d 97 92 ad 3d
       0.078904785 -0.06715714 0.034318052 0.084752254
000250 4d 30 a0 3d 95 d3 ad bd b1 c5 b2 3d 22 33 a8 bc
       0.07821713 -0.08487622 0.08729113 -0.020532195
000260 72 7e 1a 3b 60 9e 80 bd fb 7c e8 3d 47 42 9f bd
       0.0023573902 -0.06280208 0.11351963 -0.07776313
000270 85 f5 e0 3d e3 09 90 bd f7 8b e3 3d 1b 0c f0 3d
       0.10984329 -0.07033136 0.111106806 0.11721059
000280 30 56 fa bc 5d c1 c8 3d a9 ad b4 3d f9 a7 f2 bd
       -0.030558676 0.09802506 0.088221855 -0.118484445
000290 4d 2d e1 3d 73 12 87 bd bb cf c4 3d 16 0f 70 bd
       0.109949686 -0.06595316 0.09609934 -0.058608137
0002a0 63 17 e4 bd 82 f0 71 bd a6 d1 3b 3d be de 1b bd
       -0.11137273 -0.059067257 0.045854233 -0.03805422
0002b0 32 4e 8d bb e3 72 5a bc 3e fe 1d bd 27 8d c2 3d
       -0.0043123 -0.013333055 -0.038572542 0.09499579
0002c0 60 84 85 3c c9 4d 8a 3d e7 b8 80 3d e3 1f fa bd
       0.016298473 0.067531176 0.06285267 -0.12213113
0002d0 7f 16 b2 bd b5 52 89 3d 77 8c b8 bd 58 72 d1 3c
       -0.08695697 0.06705228 -0.090111665 0.025567219
0002e0 45 39 b0 3d 26 54 65 bd 48 4b 85 3c c3 fd 86 3d
       0.08604673 -0.055988453 0.016271248 0.0659137
0002f0 60 d4 a9 bb 27 ff b2 3d 0a c6 4a 3d 2b da 87 bd
       -0.005182788 0.08740073 0.04950527 -0.06633409
000300 72 be e1 bd 04 cc 4e 3d 38 3a e8 bc 50 67 46 bd
       -0.11022653 0.050487533 -0.028348073 -0.04843837
000310 28 e3 a0 3c 44 d3 60 3d b7 b6 90 bc e4 c7 04 bd
       0.019639567 0.05488898 -0.01766525 -0.032417193
000320 64 64 41 bd 16 17 22 bb 09 7a 7e 3d 08 ad b8 3c
       -0.04721488 -0.0024732999 0.0621281 0.022543445
000330 0c 8c ed bd 54 bb 67 3d 2c 21 5e bd 9a 27 37 bc
       -0.115989774 0.056575134 -0.054230854 -0.011178875
000340 42 d8 ec 3d a0 53 df 3d 80 ca b5 3d de 39 98 3d
       0.115646854 0.10904622 0.088765144 0.07432912
000350 d0 ab e1 bd 30 7b da 3c e0 d9 d4 bd 7a dd bd 3d
       -0.11019099 0.026670069 -0.10393119 0.09270759
000360 06 e7 2e 3c 48 86 7b bd d8 b5 4c bd d4 64 3f bd
       0.0106751975 -0.061407357 -0.049978107 -0.046727017
000370 69 4f d0 3b f8 6a d0 3c 84 42 a7 3d b4 64 da 3d
       0.0063571227 0.025441632 0.08166984 0.10663739
000380 88 58 85 bd 9a f4 13 bc c4 aa dc bd 2c 65 68 bd
       -0.065110266 -0.0090304855 -0.107747585 -0.05673711
000390 82 38 00 3e d7 95 e7 bb 7e 34 ef bd 38 7a 1c 3d
       0.12521556 -0.007067423 -0.11679934 0.038202494
0003a0 ca 02 00 3e 5c bf 65 3d 9c 09 2c 3d 1a 83 9c 3d
       0.12501064 0.056090698 0.04200135 0.07642193
0003b0 3c 10 43 3d f6 28 bf 3d 6e 75 c4 bd 9c 3a a2 3d
       0.047622904 0.093339846 -0.095927104 0.07921335
0003c0 ec 33 62 3d 74 de 55 3d 25 b0 f1 3c d8 bc 8f bd
       0.055225298 0.0522141 0.029502938 -0.07018441
0003d0 00 21 6b 3d 7c 56 25 3d fc 01 92 bd 7a 39 87 3d
       0.057404518 0.04036568 -0.07129285 0.0660276
0003e0 a8 43 22 bd b8 de 67 3d 2e 91 d6 3d 2e c8 96 3d
       -0.039615303 0.056608886 0.104769096 0.073624
0003f0 bc 6c af bd d0 0b af 3c 7e 0b fc bd c2 fc d4 3d
       -0.08565661 0.021367937 -0.123068795 0.10399772

W_g.bias f4 [64]
000000 e4 f0 20 bd a8 9c 95 bd 0b 57 4d 3c 79 a3 20 3c
       -0.03929223 -0.073052704 0.01253296 0.0098046
000010 fb 18 bc bd 1f 4f b8 3d 34 22 9c bd 04 89 a6 bd
       -0.09184452 0.08999466 -0.07623711 -0.081316024
000020 11 23 2a bd 7e 02 c7 3d 01 22 0c bc 8e 71 ee bd
       -0.04153735 0.09717272 -0.008553029 -0.116427526
000030 3f 6b 97 3d 2b 02 ae 3d e1 07 0d bd b9 17 e4 3d
       0.073935024 0.08496507 -0.034431342 0.11137337
000040 69 80 02 be 90 3d 7f bc 81 5b 00 3d 7b 2c ef bd
       -0.12744297 -0.0155786425 0.031337265 -0.11678406
000050 1d 0e 5b bd 23 bc 0a 3d f6 ab f1 3d cf d9 96 bd
       -0.053480256 0.033870827 0.11800377 -0.073657624
000060 1a fb 2e 3d 10 2f ff 3d cc b8 0b bd 1b 39 f9 3b
       0.042719938 0.12460148 -0.034111783 0.0076056845
000070 32 6e e0 bd 7e 90 5e bd df c6 28 bd e4 a4 e8 3d
       -0.10958518 -0.054337017 -0.041205283 0.113595754
000080 7b 79 b9 bc eb 99 ab bd 33 59 06 be 2e 74 52 3d
       -0.022640934 -0.08378967 -0.13119964 0.05138033
000090 3f c9 c8 3d d3 96 f1 3c 88 c4 b2 bd 91 8a 9d 3c
       0.0980401 0.029490864 -0.087288916 0.019231113
0000a0 d0 09 0e bd d6 c6 8d 3d 58 2d b2 3d 73 3d 5a bd
       -0.034677327 0.069226906 0.08700055 -0.05328126
0000b0 ac bf fb bd be 89 7e 3d 90 f0 d6 3d 5e 3d 37 bd
       -0.12292418 0.06214308 0.104951024 -0.04473626
0000c0 07 7a 05 bc 3d 52 63 3d 35 73 fa bd e8 94 cc bb
       -0.008146769 0.05549835 -0.12229005 -0.006243337
0000d0 1c 75 c9 bd 12 9f 20 3c 89 7c bf 3d e1 fe 03 be
       -0.0983679 0.00980355 0.09349925 -0.12890197
0000e0 50 92 56 bd a6 b2 bd bd 1f 19 ec 3d 4b ff f5 bd
       -0.05238563 -0.0926259 0.11528229 -0.12011584
0000f0 57 47 d8 bc 7c ee 1f 3b b6 e1 ce 3d cf cc 59 3d
       -0.026401205 0.0024403622 0.10101645 0.053173836

W_x.weight f4 [64, 1]
000000 52 6c 9f 3d 01 ab cd 3e 10 b3 fe 3e 9a 2b 76 3f
       0.07784332 0.40169528 0.4974599 0.9616028
000010 db 47 67 bf 89 d3 92 3e 3d 89 d7 be 7b 4c 7a bf
       -0.9034402 0.28677014 -0.42096892 -0.9777295
000020 97 df 49 bf d4 8f 1c 3f ba 26 72 be e6 45 08 be
       -0.78856796 0.61156964 -0.23647586 -0.13307914
000030 0f fa 51 bf 21 83 29 3f f5 ef b7 be 09 da 07 bf
       -0.82022184 0.6621571 -0.3592526 -0.5306707
000040 c9 6a db be b4 3b 43 3f 47 9e 5e bf c0 4f 59 bb
       -0.42854908 0.76262975 -0.8696026 -0.0033159107
000050 5c 52 1c bf a5 ae 29 be 1d 6a 06 3f 3d 80 52 3f
       -0.6106317 -0.16570528 0.52505666 0.82226926
000060 6f 1c 64 3f ee e9 08 3f 82 af 73 bf 18 59 e6 3e
       0.89105886 0.5348195 -0.9518968 0.44989848
000070 52 b9 57 bf 9f 44 68 3e 06 04 41 bf 43 03 4c 3f
       -0.8426715 0.22682427 -0.75396764 0.79692477
000080 40 93 72 3f c3 68 4c bf ca 1b 35 3f b1 f2 ae bd
       0.94755936 -0.79847354 0.7074553 -0.085423835
000090 af ac 31 3f eb 43 fe 3d 20 98 10 3e 3a 6a 8d be
       0.6940412 0.12415298 0.14120531 -0.27620107
0000a0 d9 41 0f bf 9b 6a e8 3d d6 37 7a 3f bd 6c 94 be
       -0.5595985 0.113484584 0.9774145 -0.2898921
0000b0 cb c0 76 3f e3 28 b8 3d 2b 31 80 bd 44 e2 39 bd
       0.9638793 0.089921735 -0.06259378 -0.0453818
0000c0 10 28 36 3f 74 e8 65 3f b8 37 41 3f 8c c1 66 3f
       0.7115488 0.8980782 0.75475645 0.9013908
0000d0 8b 8b e9 3e 1c f1 06 3f 17 cc 28 be 4c 3e 1a 3d
       0.45614275 0.52711654 -0.16484104 0.037657067
0000e0 8d c7 dc be 13 8c 5f 3f 43 45 48 bf 87 e5 80 bf
       -0.43120995 0.8732311 -0.78230685 -1.0070046
0000f0 4d 76 05 3f f9 60 1c bf 0f 9d 11 3f e8 32 29 3f
       0.5213364 -0.6108547 0.5688028 0.660933

W_x.bias f4 [64]
000000 18 de e4 3e 60 79 83 be 87 38 2e 3f 1d dd d8 bd
       0.44700694 -0.2567854 0.68055004 -0.10589049
000010 45 dc eb 3d 56 df 70 bf 00 84 21 be 1d b3 35 bf
       0.115166225 -0.94090784 -0.1577301 -0.7097643
000020 fb 15 53 3e 16 9a 2d bf d2 79 24 3f c8 da ef 3e
       0.20613854 -0.6781324 0.64248383 0.46846604
000030 d8 20 69 3e 7f 62 f2 3d b3 00 b7 be 17 93 df be
       0.22766435 0.11835193 -0.3574272 -0.43666908
000040 59 53 87 3e b6 c6 7a bf 5b 3c 83 3d 06 96 27 be
       0.26430777 -0.9795946 0.06407996 -0.16365823
000050 73 0f 9f be eb b0 11 3e e6 2a 01 3f c2 4c 8d 3e
       -0.31066474 0.14227645 0.5045608 0.27597624
000060 08 88 00 3e de 55 90 bd 9e a1 41 3f ce e6 24 3f
       0.12551892 -0.07047628 0.75637233 0.6441468
000070 50 b9 de 3d 1b 60 41 3f 22 25 66 bf 24 34 de 3d
       0.10875189 0.7553727 -0.8990041 0.10849789
000080 5f f0 69 3f 6f 76 b6 3e ab 43 78 3f 08 ce 91 be
       0.913824 0.35637233 0.96978253 -0.28477502
000090 d8 e0 2d bf fa e5 a3 ba 58 2e 7d 3f 79 19 f7 3c
       -0.6792121 -0.0012504451 0.9889884 0.030163513
0000a0 5c 89 60 be 63 a4 32 bf 63 a5 6c bf 5b c8 04 3e
       -0.21927398 -0.69782084 -0.9243986 0.12967055
0000b0 eb 79 a5 3e dc 7b 27 3f b7 00 6c 3f ad b1 5c 3f
       0.3231958 0.6542337 0.9218859 0.8620861
0000c0 c7 81 5e 3e b7 f1 6f bf 96 e8 5c 3f cd 13 35 bf
       0.21729194 -0.937282 0.862924 -0.7073334
0000d0 1e 0f 03 bc b3 3b 38 3f dd 1d 7b be b6 b8 19 3f
       -0.00799921 0.71966094 -0.2452311 0.6004747
0000e0 57 66 f2 bd da a4 d0 be a5 3b 73 3f 51 b3 50 3e
       -0.11835926 -0.40750772 0.95012885 0.20380904
0000f0 a2 0a 4c bf 57 b5 05 bf 40 b0 75 bf 16 20 72 3f
       -0.79703724 -0.5222983 -0.9597206 0.9458021

W_1d.weight f4 [1, 64]
000000 b7 49 f5 3a 7b 9b 74 3d 3c d4 cc 3c c5 05 39 bd
       0.0018713985 0.05971859 0.025003545 -0.045171518
000010 86 61 aa 3c 17 01 8f 3c 51 ce 9c bb 12 10 67 3d
       0.020798456 0.017456574 -0.004785337 0.05641181
000020 55 72 31 bd 64 77 3d 3c a7 8e f6 bb d4 d8 23 3d
       -0.043321926 0.0115641095 -0.0075243297 0.040001705
000030 6c ee b5 bb 1f de 5f 3d ad 14 6c 3d 23 29 95 bd
       -0.0055521037 0.05465519 0.057636905 -0.07283237
000040 e6 ee 4a 3c a1 8c b6 bd 40 d8 d2 bd 6f 0a bb bb
       0.012386059 -0.089135416 -0.10295153 -0.005708031
000050 d8 e0 b2 3c 73 86 f3 ba 52 6e 08 bd d2 e0 34 3d
       0.02183573 -0.0018579498 -0.033308335 0.044159718
000060 82 1c 41 bd 7b fd 20 bd 84 5f b3 3c f8 4e e2 3c
       -0.047146328 -0.039304238 0.021896131 0.027625546
000070 8d e5 a8 3d ca 78 c2 bd fa 43 f7 bb 42 8c be 3d
       0.08246908 -0.09495695 -0.0075459452 0.09304096
000080 10 fd 0c 3c dd 93 6e bd 55 45 47 3a c1 98 7c bd
       0.008605257 -0.058246482 0.0007601579 -0.061669115
000090 7c 55 65 39 cf 76 4f bc 16 81 86 3c fb 01 37 bb
       0.00021870987 -0.0126626035 0.016418975 -0.0027924764
0000a0 5d 37 f8 bc d9 3e e1 38 a5 a2 2a bd 53 1a 6a bd
       -0.030299837 0.00010740542 -0.041659016 -0.05715401
0000b0 3f 3d d0 3d c9 25 1b 3d 83 9f 93 3c ba 07 f2 3c
       0.10167932 0.03787783 0.018020397 0.0295447
0000c0 9f 7b 08 bc 18 c3 2a 3d 62 5b 3c 3d 13 45 df 3c
       -0.008330255 0.041689962 0.045985587 0.027254617
0000d0 42 00 94 bb 97 d8 1e 3c c9 bd 54 bd 86 37 35 b8
       -0.0045166323 0.009695194 -0.051938806 -4.3205473e-05
0000e0 4f 4e 04 bd dc 15 07 bd e7 f7 c5 bc 68 0d a4 bd
       -0.032301243 -0.03297983 -0.02416606 -0.080103695
0000f0 dc 6f 2c bd 2e ed d5 bd b1 e7 e4 bc b4 ad f3 bc
       -0.042098865 -0.10445629 -0.02794251 -0.029745914
