model_weight/best_GREECE_model.pth (torch, 73864 bytes, 14 tensors)

lstm_cells.0.b_c f4 [64]
0	0xbce73f37	-0.028228385
1	0x39ab870a	0.00032716274
2	0xbc40fff2	-0.011779772
3	0x3c398829	0.011323967
4	0xbbe48b9b	-0.00697465
5	0xbb4c282c	-0.0031151874
6	0x3abf965f	0.0014616958
7	0x3aa67b1a	0.0012701482
8	0x3c268a75	0.010164847
9	0x3c419ece	0.011817647
10	0xbcb5a05f	-0.022171197
11	0xbc9b2945	-0.018940577
12	0x3ccf0523	0.025271004
13	0xbcc2c107	-0.023773683
14	0x3ac2247d	0.00148119
15	0xbca00c80	-0.01953721
16	0x3c167110	0.00918223
17	0x3c55ec4e	0.013056828
18	0x3d032ed4	0.03202708
19	0xbc54fb35	-0.012999346
20	0x3d0a420c	0.033754393
21	0xbc9e051d	-0.019289548
22	0xbcc2931d	-0.02375179
23	0xbc2799ef	-0.010229572
24	0xbc92afff	-0.017906187
25	0x3c8226f7	0.01588772
26	0xbc563737	-0.013074688
27	0xbc636b5b	-0.013880576
28	0x3c561f4a	0.013068983
29	0x3d04a66d	0.03238528
30	0x3cacf28c	0.02111175
31	0x3cabd9fd	0.020977968
32	0x3c201f1a	0.00977304
33	0xbc4de747	-0.012567348
34	0xbb3f5be6	-0.0029199063
35	0xbc828715	-0.015933553
36	0x3c9f663a	0.019457925
37	0xbbcb8881	-0.006211341
38	0x3a38d2b3	0.00070504396
39	0x3b03f749	0.0020136407
40	0x3b9086a0	0.00441058
41	0xbd142600	-0.036169052
42	0xbd604469	-0.05475274
43	0xbc349090	-0.0110207945
44	0x3c2d3aad	0.010573071
45	0xba13761f	-0.00056252064
46	0xbd14ed58	-0.03635916
47	0x3ced7194	0.028984822
48	0x3ad5fb13	0.0016325436
49	0xba861240	-0.0010228828
50	0x3d003774	0.031302884
51	0xbc38ef63	-0.011287543
52	0x3cc1bb13	0.023648774
53	0xbcce2f04	-0.025168903
54	0x3d2f2fac	0.042770073
55	0x3b16bad1	0.0022999535
56	0x3c4f6e44	0.012660567
57	0x3c49557c	0.0122884475
58	0x3c3304d5	0.010926445
59	0x3c5fca3d	0.013659057
60	0x3bf3976a	0.0074338214
61	0xbd342634	-0.043981746
62	0xbbec837f	-0.007217824
63	0x3c2e514b	0.010639499

lstm_cells.0.W_ic.weight f4 [64, 1]
0	0xbf32bad6	-0.6981634
1	0xbed821aa	-0.42213184
2	0xbf17153d	-0.5901678
3	0x3f365f19	0.7123886
4	0xbebb2c6f	-0.36557338
5	0xbe777911	-0.24167277
6	0x3f51d6cf	0.81968397
7	0xbebc1d8a	-0.36741287
8	0x3f277317	0.6540999
9	0xbdab6c80	-0.08370304
10	0x3dbcd41f	0.092201464
11	0xbf1ac83d	-0.6046179
12	0x3dfec7e6	0.12440471
13	0x3ca51902	0.020153526
14	0x3f689342	0.908497
15	0xbe8c404b	-0.27392802
16	0x3e8317bd	0.25604048
17	0x3f101161	0.5627652
18	0x3f141fec	0.5786121
19	0xbf3f1ff4	-0.7465813
20	0x3f298f46	0.6623424
21	0xbe72018a	-0.236334
22	0xbf3883e1	-0.7207623
23	0xbf6d0cd4	-0.925977
24	0xbf56d51f	-0.83918947
25	0xbd0ef58f	-0.03490215
26	0x3f0d7cc3	0.55268496
27	0x3f29ef44	0.66380715
28	0x3e969e58	0.29417682
29	0x3f64381a	0.89148104
30	0x3f0374d6	0.5135015
31	0xbdb91143	-0.090364955
32	0xbd93e29a	-0.07220955
33	0xbf2a6b19	-0.6656967
34	0xbf2821da	-0.65676653
35	0xbf56d19a	-0.83913577
36	0x3f2ceb76	0.67546785
37	0xbd23fb93	-0.04003484
38	0xbef9a6d5	-0.48760095
39	0x3f7eca27	0.9952721
40	0x3f015a7c	0.50528693
41	0xbf579b3b	-0.8422124
42	0xbf2ec1d7	-0.68264526
43	0xbf03ceb8	-0.514873
44	0x3ec1b153	0.378306
45	0x3e35c105	0.17749412
46	0xbe4d8e9b	-0.20073931
47	0x3edfb7f9	0.43695047
48	0x3df08559	0.11744184
49	0x3f7915cb	0.9729888
50	0x3f3b371f	0.73130983
51	0xbe83714f	-0.25672385
52	0x3f0f6c6f	0.5602483
53	0xbe36156f	-0.17781614
54	0x3f131a51	0.5746203
55	0x3f661157	0.8987021
56	0xbf0e3df7	-0.555633
57	0x3f235bce	0.6381196
58	0x3f583f6f	0.8447179
59	0x3f63b92b	0.8895442
60	0x3e0c3dd0	0.13695455
61	0xbee67740	-0.45012856
62	0x3eb992cf	0.3624482
63	0x3df953f0	0.12174213

lstm_cells.0.W_ic.bias f4 [64]
0	0xbd2614fa	-0.04054735
1	0xbf388b07	-0.7208714
2	0x3e354004	0.17700201
3	0x3bb39357	0.0054802108
4	0x3ecb608b	0.39722094
5	0x3f229581	0.63509375
6	0x3f3be873	0.73401564
7	0xbe8c1827	-0.27362177
8	0xbde549e6	-0.11195736
9	0xbc1d2c2f	-0.009593054
10	0x3e8f83d8	0.28030276
11	0x3da75c54	0.08171907
12	0xbeb24cb4	-0.34824145
13	0x3f4a0e26	0.7892784
14	0x3f6a8ca4	0.9162085
15	0x3f0ed84f	0.5579881
16	0xbd058069	-0.032593165
17	0x3e3909a8	0.1807009
18	0xbf2bad88	-0.6706166
19	0x3f11262f	0.5669889
20	0xbe96aed1	-0.2943025
21	0x3f2beaf8	0.6715541
22	0x3f5c0a19	0.8595291
23	0x3f275846	0.6536907
24	0x3f3ec927	0.74525684
25	0xbf69540f	-0.9114389
26	0x3f1a539c	0.6028383
27	0x3f2dd967	0.67909855
28	0xbec88944	-0.39167225
29	0x3ec3927c	0.38197696
30	0xbede09a9	-0.43366745
31	0xbf18ae8d	-0.59641343
32	0xbed0737d	-0.4071311
33	0x3f5f79f0	0.87295437
34	0xbf2194a2	-0.6311742
35	0xbed7ca40	-0.42146492
36	0xbefc639e	-0.49294752
37	0x3e92d268	0.28676152
38	0xbee081a2	-0.43848902
39	0x3f78fbae	0.9725903
40	0xbec807a6	-0.39068335
41	0x3dfb60da	0.12274332
42	0x3f51a006	0.818848
43	0x3f6dc992	0.92885697
44	0xbf432034	-0.76221013
45	0xbe820193	-0.25391826
46	0x3f07ff04	0.531235
47	0xbd521af0	-0.05129522
48	0xbc8020d6	-0.015640657
49	0x3f7b9906	0.9828037
50	0xbf4fe16e	-0.81203353
51	0x3e3d37e1	0.18478347
52	0xbe883f6a	-0.2661088
53	0x3ebdbac8	0.37056565
54	0xbf5f3a3b	-0.8719823
55	0x3e1d4231	0.15357281
56	0xbf3fb4cf	-0.74885267
57	0x3ef2c99d	0.47419444
58	0xbd723589	-0.059133086
59	0xbdef4f26	-0.11685018
60	0xbe23dec3	-0.16002946
61	0x3ecc3680	0.3988533
62	0x3f320f7d	0.69554883
63	0xbf381936	-0.7191347

lstm_cells.0.W_hc.weight f4 [64, 64]
0	0x3d4cdd6e	0.05001586
1	0xbdcdb96e	-0.100451335
2	0xbe0396cb	-0.12850492
3	0x3e0294c8	0.12752068
4	0xbe0dceae	-0.13848373
5	0xbd579a58	-0.052637428
6	0x3c3f9c1f	0.011694937
7	0x3d8fec27	0.07027464
8	0x3deb33b4	0.11484471
9	0x3b2bc75c	0.0026211357
10	0xbd23bc49	-0.039974485
11	0x3db24307	0.08704191
12	0x3d3ec85a	0.04657779
13	0xbd03b556	-0.032155357
14	0x3c816990	0.015797406
15	0xbdd29b30	-0.10283506
16	0x3e12bca9	0.1432978
17	0xbd676996	-0.05649718
18	0x3dc1258f	0.09430992
19	0xbb73fb26	-0.0037228554
20	0xbc3d6a29	-0.011560955
21	0x3d38219a	0.04495392
22	0x3d94f9dc	0.072742194
23	0xbdd0604d	-0.10174618
24	0xbdbc9c29	-0.09209473
25	0xbdd624e2	-0.104562536
26	0xbd9d0cf1	-0.07668484
27	0xbdb151b7	-0.08658164
28	0x3dbf449c	0.09339258
29	0x3d97ff42	0.074217334
30	0x3d2d385e	0.042290084
31	0x3d5ac6ab	0.05341212
32	0xbd53fb67	-0.051753428
33	0x3d0e97f7	0.034812894
34	0xbd22318d	-0.039598037
35	0x3d8a3fc6	0.06750445
36	0x3d209eba	0.039213873
37	0xbdd3919e	-0.10330509
38	0x3d64c57f	0.05585241
39	0x3dd5c8c9	0.10438687
40	0x3d9929b1	0.07478655
41	0xbe0581c0	-0.13037777
42	0xbd20cf02	-0.039259918
43	0xbb261516	-0.0025342158
44	0x3d01be24	0.031675473
45	0xbdfb3025	-0.12265042
46	0x3cafd635	0.021464447
47	0x3ccfcc80	0.025366068
48	0x3da71414	0.081581265
49	0xbbaed622	-0.005335585
50	0x3e14e24a	0.14539447
51	0x3c224213	0.009903449
52	0xbdb9553d	-0.09049461
53	0x3dc64d01	0.09682656
54	0x3d13bab9	0.036066744
55	0x3e337fb4	0.17529184
56	0xbd9b9f3f	-0.07598733
57	0x3e2eaaed	0.1705739
58	0xbdb82758	-0.08991879
59	0xbda67d06	-0.08129315
60	0x3e14203b	0.1446542
61	0xbb64dd89	-0.0034922084
62	0x3c86bbcc	0.01644697
63	0xbc400af3	-0.0117213605
64	0xbab7279d	-0.0013973598
65	0x3d765645	0.060140867
66	0x3cf8ce10	0.030371696
67	0xbdc8fe9c	-0.09814188
68	0x3cddf7c5	0.027095685
69	0x3dd195a9	0.102336235
70	0x3cf72f33	0.030173874
71	0x3d7ad187	0.061234977
72	0xbcdc6cad	-0.02690729
73	0x3d991b60	0.074759245
74	0xbdd7d404	-0.10538486
75	0x3df3c9a9	0.11903698
76	0xbd4730f6	-0.048630677
77	0x3d74a445	0.059726972
78	0xbdb47305	-0.08811001
79	0x3cfde51a	0.030993033
80	0xbcacf441	-0.021112563
81	0x3d54bf8c	0.051940486
82	0x3da6aa19	0.08137912
83	0xbcf567f2	-0.029956792
84	0xbdca0fa6	-0.09866266
85	0x3c2846ac	0.010270756
86	0x3d1d26a3	0.038366925
87	0x3cc70b11	0.024297269
88	0xbd07572c	-0.033042118
89	0x3daaea7a	0.08345504
90	0xbdc5976c	-0.09648022
91	0x3da8db92	0.08245005
92	0xbc9f4eab	-0.019446691
93	0x3d3c5c8a	0.04598669
94	0xbdf0b3a4	-0.11753014
95	0xbd0e1751	-0.034690205
96	0xbd38e63b	-0.04514144
97	0xbc112944	-0.008859936
98	0x3bf9896e	0.00761526
99	0xbd85761e	-0.0651667
100	0x3cc3ae76	0.0238869
101	0x3c896887	0.016773475
102	0x3db66eda	0.08907862
103	0x3e0569bd	0.13028617
104	0x3dcc3b7c	0.09972283
105	0x3d1f1b7d	0.038844574
106	0x3cd2c4bf	0.025728581
107	0x3cebedad	0.028799856
108	0xbd15d8b3	-0.036583614
109	0xbe1386d5	-0.14406903
110	0xbd945708	-0.072431624
111	0x3b8cd76f	0.0042981426
112	0xbd0615b3	-0.032735538
113	0xbd6bfbef	-0.05761331
114	0x3d3f7bb2	0.046748824
115	0xbc8a2256	-0.016862076
116	0x3d947396	0.07248609
117	0x3da3a2aa	0.0799001
118	0x3de47576	0.111552164
119	0xbcf95580	-0.030436277
120	0xbd9cc66b	-0.07655033
121	0x3dafff5e	0.08593629
122	0xbd6c3a16	-0.057672583
123	0xbda5e53a	-0.08100362
124	0xbd0725f5	-0.032995183
125	0x3d43bf1d	0.04778968
126	0x3dbe558b	0.0929366
127	0x3c374f27	0.011188305
128	0x3c97911b	0.018501809
129	0x3dd5b276	0.10434429
130	0x3d0c6c7d	0.03428315
131	0x3d56e6e2	0.05246628
132	0x3c78bf2e	0.0151823
133	0xbc5b9eb3	-0.013404536
134	0x3dcf11ca	0.10110815
135	0xbc99a791	-0.01875666
136	0xbddd956b	-0.10819515
137	0x3db0e303	0.08637049
138	0x3d8df589	0.06931598
139	0x3dd80349	0.105475016
140	0xbd17f744	-0.037101045
141	0xbe0b220d	-0.13587208
142	0x3da0ac86	0.07845406
143	0x3d2560ff	0.040375706
144	0x3dd59cb2	0.10430278
145	0x3d08ab36	0.033366404
146	0x3d9bdb53	0.07610192
147	0xbe013c47	-0.1262065
148	0x3dcd120f	0.1001321
149	0xbd797f95	-0.060912687
150	0x3d9510e1	0.0727861
151	0xbd73c92f	-0.059518036
152	0xbc7225df	-0.014779537
153	0xbc951b55	-0.01820151
154	0xbb8b858c	-0.0042578634
155	0x3c585a6f	0.013205155
156	0x3d52d5a2	0.051473267
157	0x3da488c8	0.080339015
158	0xbbd8f109	-0.0066205305
159	0x3daa3a50	0.083119035
160	0x3d2b19ce	0.041772656
161	0x3b1b5d00	0.0023706555
162	0xbd5e7321	-0.054309014
163	0xbcadc684	-0.021212824
164	0x3d53caed	0.051707197
165	0xbde00e3a	-0.109402135
166	0xbdf4120c	-0.11917505
167	0xbd2c9325	-0.042132515
168	0x3ce4a60b	0.027911207
169	0xbde63989	-0.11241443
170	0x3dcc6f98	0.09982222
171	0xbe017799	-0.12643279
172	0xb8da1685	-0.00010399245
173	0x3d690d40	0.0568974
174	0x3d909654	0.07059923
175	0x3ceda478	0.029009089
176	0xba63e186	-0.00086929684
177	0xbd2293cc	-0.03969173
178	0x3bf0fa42	0.007354052
179	0xbd4bc4bb	-0.049748164
180	0x3dc4c214	0.0960733
181	0xbc0ea575	-0.00870644
182	0xbbde81db	-0.0067903823
183	0xbd6b4bb5	-0.057445247
184	0xba9de960	-0.0012047701
185	0xbc93f6a3	-0.018061941
186	0xbc96a1cc	-0.018387698
187	0xbd3a4867	-0.045479205
188	0x3da7f833	0.08201637
189	0xbce3ca63	-0.027806466
190	0xbd87b72c	-0.06626734
191	0xbde6081f	-0.11232018
192	0x3e005e66	0.1253601
193	0xbdd4ac7d	-0.10384462
194	0xbd1c4089	-0.038147483
195	0x3c246f34	0.0100362785
196	0x3c5826af	0.013192817
197	0x3d7c59ff	0.061609264
198	0xbdcbf73c	-0.099592656
199	0xbc03ff42	-0.008056464
200	0xbdbce0a8	-0.09222537
201	0xbb27c649	-0.0025600365
202	0xbdcd60fe	-0.100282654
203	0xbda08953	-0.078386925
204	0xbcc80adc	-0.02441924
205	0x3da333a2	0.079688326
206	0x3d5689ff	0.052377697
207	0xbdf569c5	-0.119830646
208	0xbd6bfd87	-0.05761483
209	0xbdd61075	-0.10452358
210	0x3d1c2b55	0.038127262
211	0x3c91baf3	0.01778934
212	0xbda5c12b	-0.080934845
213	0x3d8616fd	0.065473534
214	0x3d65eb3a	0.056132533
215	0xbdbf31d9	-0.093356796
216	0x3e06f656	0.13179907
217	0x3dc45672	0.09586801
218	0x3b28f1fb	0.0025778997
219	0x3de5545e	0.111977324
220	0xbdb2770b	-0.08714112
221	0x3bf7b31c	0.0075591933
222	0xbdca7dde	-0.098872885
223	0xbd98328f	-0.07431518
224	0x3db7b144	0.089693576
225	0xbde243bc	-0.110480756
226	0x3ca47583	0.020075565
227	0x3c0a5227	0.008442438
228	0xbe0c74d5	-0.13716443
229	0xbd8bdca4	-0.06829193
230	0xbd24ad81	-0.04020453
231	0xbdb356b5	-0.087567724
232	0xbdb4e3e8	-0.08832532
233	0x3dee4004	0.11633304
234	0x3d63ebf2	0.055644937
235	0x3c9bf4ac	0.019037567
236	0x3c81d76f	0.015849797
237	0x3d336b15	0.043803293
238	0xbd4f54e1	-0.050618056
239	0xbd0a1d20	-0.033719182
240	0x3e005e80	0.12536049
241	0x3ceba184	0.02876354
242	0xbc21afd1	-0.009868578
243	0xbb06e689	-0.0020584187
244	0xbd97c21d	-0.07410071
245	0x3dcca188	0.09991747
246	0x3d81ae98	0.06332129
247	0x3ca6f753	0.020381605
248	0x3d712ea7	0.05888238
249	0xbe14eb77	-0.14542948
250	0xbdaa8a4a	-0.08327158
251	0x3a067092	0.00051284686
252	0xbd8b5f75	-0.06805316
253	0xbcd2c8f2	-0.025730584
254	0xbd3592e7	-0.04432955
255	0xbe00afb7	-0.1256703

lstm_cells.0.W_hc.bias f4 [64]
0	0x3d7e4cdd	0.06208502
1	0x3dbd95d3	0.09257092
2	0xbd64d2d4	-0.055865124
3	0xbb6edf4f	-0.003644902
4	0xbdc3b162	-0.095553175
5	0x3d95b65b	0.07310172
6	0x3bc7fcb1	0.006103121
7	0x3d18bef9	0.0372915
8	0xbda9ac34	-0.08284798
9	0x3de86219	0.11346836
10	0x3d623f16	0.055235945
11	0xbdd9321e	-0.10605262
12	0x3d68a4a2	0.05679763
13	0x3da50946	0.080584094
14	0xbdf53fca	-0.119750574
15	0x3d8adf18	0.06780833
16	0x3dc419c5	0.09575228
17	0x3d89fcd2	0.06737675
18	0x3d81cd9e	0.063380465
19	0x3dcbea7e	0.09956835
20	0xbd004cf7	-0.0313234
21	0x3d0460e3	0.03231896
22	0x3d9c5ae2	0.07634522
23	0x3c8c1ca7	0.017103506
24	0x3b8455ff	0.004038572
25	0xbd53e7e3	-0.051734816
26	0x3d72fcdd	0.05932318
27	0xbdd8f139	-0.105928846
28	0xba96dae5	-0.0011509327
29	0x3d169338	0.036761492
30	0xbda6b016	-0.081390545
31	0x3d0e4b10	0.034739554
32	0xbdab3958	-0.08360547
33	0x3c24e9c1	0.010065497
34	0x3c9c45a8	0.019076183
35	0xbce3d86b	-0.027813157
36	0xbd1b01fb	-0.037843686
37	0xbcf33f74	-0.029693343
38	0x3dd1756c	0.102274746
39	0xbd94a31b	-0.072576724
40	0x3dae6c9e	0.08516811
41	0x3d90614b	0.07049807
42	0xbda522c5	-0.080632724
43	0xbc2c148e	-0.0105029475
44	0x3d675ee9	0.056486998
45	0x3da90e92	0.08254732
46	0xbe239f7e	-0.1597881
47	0x3c130939	0.008974367
48	0x3d900901	0.07032967
49	0xbd2dd227	-0.042436745
50	0xbd4fd508	-0.05074027
51	0x3d88192d	0.06645427
52	0x3e0c4a82	0.13700297
53	0x3d8d313b	0.068941556
54	0xbd0870ce	-0.033310704
55	0x3dcebdca	0.10094793
56	0x3c277256	0.010220131
57	0xbdbb0fea	-0.09133895
58	0x3dddc1d2	0.10827984
59	0xbc83c1bd	-0.016083593
60	0x3d8eeb68	0.06978494
61	0xbd9de6e5	-0.07710055
62	0x3cff8dc8	0.031195536
63	0x3d213b79	0.03936336

lstm_cells.0.W_in.weight f4 [64, 64]
0	0x3deef780	0.11668301
1	0x3dc6eb20	0.09712815
2	0x3d831fce	0.06402551
3	0xbd7a068c	-0.0610414
4	0x3d58e3e0	0.052951694
5	0xbc853358	-0.016259834
6	0x3d9bbe60	0.076046705
7	0xbd85c496	-0.065316364
8	0x3dd199c4	0.102344066
9	0x3cc19738	0.023631677
10	0xbd412440	-0.04715371
11	0x3db457ea	0.08805831
12	0x3d806270	0.062687755
13	0x3d3faaf4	0.046793893
14	0x3cef7f78	0.029235587
15	0x3d265040	0.040603876
16	0x3c615b20	0.013754636
17	0xbd7819e0	-0.06057155
18	0x3d65e494	0.056126192
19	0xbc832a98	-0.016011521
20	0x3d7f9038	0.062393397
21	0xbdfbee84	-0.123013526
22	0xbdedc9fc	-0.11610791
23	0x3cdd71e8	0.027031854
24	0x3d687a08	0.056757003
25	0x3db58d72	0.08864869
26	0x3dec0184	0.115237266
27	0x3dfbe8b6	0.123002455
28	0x3d16e930	0.03684348
29	0xbd6494e8	-0.05580607
30	0x3c9695d0	0.018381983
31	0x3ce4a980	0.027912855
32	0xbc8f8a40	-0.017521977
33	0x3ddb4eec	0.107084125
34	0x3c4ed920	0.012625009
35	0xbdd9aafe	-0.10628317
36	0xbdba9b14	-0.0911161
37	0xbdcee816	-0.10102861
38	0x3d144574	0.03619905
39	0x3cb409f0	0.021977395
40	0xbde43d84	-0.11144546
41	0x3d9d67fe	0.076858506
42	0x3b586300	0.0033017993
43	0xbda5cbbe	-0.08095501
44	0xbd4836ec	-0.048880503
45	0xbdc50774	-0.09620562
46	0xbd9281ee	-0.07153688
47	0xbd4d938c	-0.05018954
48	0x3dbfee22	0.09371592
49	0x3df55564	0.119791776
50	0x3d2a9888	0.04164937
51	0xbd9e4e32	-0.07729758
52	0x3dbf4848	0.093399584
53	0x3d8df958	0.06932324
54	0xbc315450	-0.010823324
55	0x3de78a7e	0.11305712
56	0x3d42049c	0.047367677
57	0x3d9a9b6e	0.07549177
58	0xbd97e3c8	-0.07416493
59	0xbbd3cb00	-0.0064634085
60	0x3d763484	0.060108677
61	0xbdbc9b66	-0.092093274
62	0x3dbb1e70	0.09136665
63	0x3d53f8bc	0.051750883
64	0xbd9c4538	-0.0763039
65	0xbd474460	-0.04864919
66	0x3cd8d680	0.02646947
67	0x3d8e7244	0.06955388
68	0xbdc7edd2	-0.097621575
69	0x3d91918e	0.071078405
70	0xba243300	-0.0006263703
71	0x3dd60dde	0.10451864
72	0xbde58f8e	-0.112090215
73	0xbdb3e772	-0.08784379
74	0xbdee70f6	-0.11642639
75	0xbda11b26	-0.07866506
76	0xbd9a13da	-0.07523318
77	0x3d8e5b82	0.069510475
78	0x3d96a69c	0.07355997
79	0xbdb8f2fa	-0.09030719
80	0x3dd0a14a	0.101870134
81	0x3dbe49f2	0.09291448
82	0xbcdc2320	-0.026872218
83	0xbdb5b428	-0.08872253
84	0xbdcae234	-0.09906426
85	0x3dfc5bf8	0.12322229
86	0x3df01b42	0.11723949
87	0x3d9e601a	0.07733174
88	0xbbfe2880	-0.007756293
89	0xbde33c90	-0.11095536
90	0xbcb47a68	-0.022031024
91	0xbdb4b782	-0.08824064
92	0xbdd99370	-0.106238246
93	0x3de7f80c	0.11326608
94	0x3d37d8cc	0.044884488
95	0x3d98f6be	0.07468937
96	0x3db5881c	0.088638514
97	0x3ccf9d78	0.025343642
98	0xbd8c809a	-0.06860466
99	0xba833880	-0.0010011345
100	0x3d910552	0.07081093
101	0xbdcf5e26	-0.10125379
102	0x3afd1980	0.0019309968
103	0x3df8a4f6	0.12140839
104	0x3db547d6	0.08851592
105	0x3d4861b8	0.048921317
106	0xbda56c3a	-0.08077283
107	0x3c7f8230	0.015595004
108	0xbbbe7340	-0.0058120787
109	0x3cdee7d0	0.027210146
110	0x3c7cd400	0.015431404
111	0x3bb942e0	0.005653724
112	0x3dcb00ae	0.09912239
113	0xbcb462b0	-0.022019714
114	0x3dd0d444	0.101967365
115	0x3c361840	0.01111418
116	0x3d07ad08	0.033124
117	0xbcb69010	-0.022285491
118	0x3dc9fd68	0.098627865
119	0xbd48d1a8	-0.04902807
120	0xbc0c9030	-0.008579299
121	0x3be88660	0.007096097
122	0xbdbc2c42	-0.09188129
123	0x3df6cd7c	0.12050912
124	0x3d377b90	0.044795573
125	0xbd445e8c	-0.04794173
126	0x3bd0e100	0.0063744783
127	0xbdef39a2	-0.116809145
128	0xbd7283ac	-0.059207603
129	0xbc461b50	-0.012091473
130	0xbc8f6a20	-0.017506659
131	0xbc1dfc20	-0.009642631
132	0xbccc3508	-0.024927631
133	0x3d651340	0.05592656
134	0xbd965086	-0.073395774
135	0x3c3d5540	0.01155597
136	0x3cadcd08	0.02121593
137	0xbdaae710	-0.08344853
138	0x3b9129c0	0.004430026
139	0x3bcb67c0	0.0062074363
140	0x3dcc014e	0.09961186
141	0x3db9afd0	0.09066737
142	0x3c7e0130	0.015503213
143	0x3d3841ac	0.044984505
144	0xbbbcfdc0	-0.005767554
145	0xbdaf6ea8	-0.08566028
146	0x3bb84420	0.0056233555
147	0xbb3fec00	-0.0029284954
148	0xbd65fa0c	-0.056146666
149	0xbd741e94	-0.059599474
150	0x3dc31458	0.09525365
151	0x3dc310ce	0.095246896
152	0x3ce9d858	0.028545544
153	0x3c11e830	0.0089054555
154	0xbce7d2e0	-0.028298795
155	0xbb7b8c40	-0.0038383156
156	0x3db66d6c	0.08907589
157	0x3de2b83c	0.11070296
158	0xbdc24060	-0.09484935
159	0x3d089380	0.033343792
160	0x3db5cd12	0.08877005
161	0xbd0a5864	-0.033775702
162	0x3d4a4170	0.049378812
163	0xbdfb1e64	-0.12261656
164	0xbd4c4378	-0.04986903
165	0x3d02ac74	0.031902745
166	0xbd3c055c	-0.04590355
167	0x3d9baba6	0.07601099
168	0x3de025ae	0.10944687
169	0xbdaafc00	-0.083488464
170	0x3d89ecbe	0.06734608
171	0xbde5963c	-0.112102956
172	0xbdcfb59e	-0.101420626
173	0x3ce573e0	0.028009355
174	0xbc3181e0	-0.010834187
175	0x3d9d1662	0.07670285
176	0x3df9f018	0.122039974
177	0x3dc958b8	0.09831375
178	0x3cf81188	0.030281797
179	0x3df1f5d4	0.11814466
180	0xbd8bbeec	-0.06823525
181	0x3dad3150	0.08456671
182	0xbdeb5d2e	-0.11492382
183	0x3db39dbe	0.08770321
184	0xbd8dee70	-0.06930244
185	0xbdf9e5f8	-0.12202066
186	0xbd52b120	-0.05143845
187	0xbbc250c0	-0.0059300363
188	0x3d82d214	0.063877255
189	0xbdabf7aa	-0.083968475
190	0xbd3e2118	-0.04641828
191	0xbd8621e6	-0.06549434
192	0x3d83b920	0.06431794
193	0x3df4f23c	0.11960265
194	0x3ddc9758	0.10771054
195	0xbd14ee74	-0.03636022
196	0x3b953480	0.0045533776
197	0xbdfefa76	-0.124501154
198	0x3d02c650	0.031927407
199	0xbb95d9a0	-0.004573062
200	0xbd3d1234	-0.046159938
201	0x3c17cf40	0.009265721
202	0xbda9963e	-0.082806095
203	0x3d087178	0.033311337
204	0x3dbaee46	0.09127478
205	0x3dcb2d16	0.09920709
206	0x3d84f6d8	0.06492394
207	0x3dd3fff0	0.103515506
208	0xbd8aab00	-0.06770897
209	0xbdeaebbc	-0.11470744
210	0x3d82ab82	0.06380369
211	0xbd46e608	-0.04855922
212	0x3d630544	0.055424944
213	0xbd9f8852	-0.07789673
214	0xbc69ac60	-0.014262289
215	0xbd279dfc	-0.04092215
216	0xbdec9a40	-0.11552858
217	0x3ddd3206	0.10800557
218	0x3ccc4ff0	0.02494046
219	0xbdfb90c4	-0.12283471
220	0xbd76f1b0	-0.060289085
221	0x3ddec296	0.10876958
222	0x3dde2d00	0.10848427
223	0xbc496e20	-0.012294322
224	0xbdd76e86	-0.105191275
225	0xbc2db860	-0.01060304
226	0xbd7ae394	-0.06125219
227	0x3dcf0282	0.101079
228	0xbd49f308	-0.04930404
229	0x3dacf8a0	0.08445859
230	0x3d15dbcc	0.036586568
231	0xbdd22bb4	-0.10262242
232	0xbbb76900	-0.005597234
233	0xbce29848	-0.027660504
234	0x3d2c1740	0.04201436
235	0xbdb0e0ce	-0.08636628
236	0xbda51b62	-0.080618635
237	0x3d6c20ec	0.057648584
238	0x3cbeb2e0	0.023278654
239	0x3c7c5450	0.015400961
240	0xbd030d38	-0.03199503
241	0x3d9fdf30	0.078062415
242	0x3d813b12	0.06310095
243	0x3df15cea	0.117853
244	0x3dc4c026	0.09606962
245	0x3d8ba2ac	0.068181366
246	0x3be9e9e0	0.007138476
247	0xbd714d3c	-0.058911547
248	0xbd602f4c	-0.054732606
249	0xbd8e260a	-0.06940849
250	0x3d651740	0.055930376
251	0xbdab98f4	-0.08378783
252	0xbdeae55e	-0.114695296
253	0xbd4cdefc	-0.050017342
254	0x3df6f862	0.12059094
255	0xbd641a40	-0.055689096

lstm_cells.0.W_in.bias f4 [64]
0	0x3dc825e4	0.09772852
1	0x3d01b7dc	0.031669483
2	0xbcb963b8	-0.022630557
3	0xbdd3893c	-0.1032891
4	0xbdc6a324	-0.09699085
5	0xbc720a20	-0.014772922
6	0x3dfe031e	0.12402938
7	0xbdeedc04	-0.116630584
8	0xbdd500a6	-0.10400514
9	0x3d4b2ed4	0.049605206
10	0x3dcb2226	0.09918623
11	0x3d462ba0	0.048381448
12	0x3dc9b07c	0.09848115
13	0xbd8626f0	-0.065503955
14	0x3de3c24e	0.11121045
15	0x3d619cd8	0.05508122
16	0xbdc16ae0	-0.09444213
17	0x3cc70020	0.024292052
18	0x3d2db25c	0.042406425
19	0xbd94354a	-0.072367266
20	0x3d50c880	0.05097246
21	0xbd041798	-0.032249063
22	0x3ddcf2b2	0.10788478
23	0xbddaad00	-0.106775284
24	0x3c747c20	0.014922172
25	0x3dcf3b5a	0.10118742
26	0xbca367c0	-0.019946933
27	0x3ce717d8	0.028209612
28	0xbd9bb530	-0.07602918
29	0x3d8b2cce	0.06795655
30	0xbddfdc8e	-0.10930739
31	0x3b9d7420	0.004805103
32	0x3dafbbf4	0.08580771
33	0xbd9efc40	-0.077629566
34	0x3de5e942	0.11226131
35	0xbd2cce40	-0.042188883
36	0x3deb2cae	0.11483131
37	0xbda46b0e	-0.080282316
38	0x3df55e0a	0.11980827
39	0x3d7cf488	0.06175664
40	0x3d50dd5c	0.050992355
41	0xbdf46ad0	-0.11934435
42	0x3d128fa0	0.035781503
43	0x3ceea100	0.029129505
44	0xbdb9e452	-0.09076752
45	0x3a39a600	0.0007081926
46	0x3dffa3aa	0.12482388
47	0x3d56c360	0.052432418
48	0x3dc1a4a2	0.09455229
49	0xbdaf9836	-0.08573954
50	0x3da8dadc	0.08244869
51	0xbd0d5de8	-0.034513384
52	0xbcb79f48	-0.022414818
53	0x3dec5aee	0.11540781
54	0x3cb2a4b0	0.021807045
55	0xbda4117e	-0.08011149
56	0xbb9317a0	-0.0044889003
57	0x3d02232c	0.031771824
58	0xbcea0c60	-0.028570354
59	0xbc7f3680	-0.015576959
60	0xbdb0ccea	-0.08632834
61	0x3dbcf740	0.09226847
62	0xbd492858	-0.04911074
63	0x3d360868	0.04444161

W_h.weight f4 [64, 64]
0	0xbdb9bf8f	-0.0906974
1	0xbd1e7f93	-0.038695883
2	0xbd739cf1	-0.059475843
3	0x3c978d61	0.018500032
4	0x3df835e1	0.121196516
5	0x3b07465a	0.0020641298
6	0x3aac72d7	0.0013156784
7	0x3d12ef9c	0.03587304
8	0x3d354b37	0.044261184
9	0xbd695030	-0.05696124
10	0xbd8d3a54	-0.06895891
11	0x3d14b349	0.036303792
12	0xbd6af945	-0.05736663
13	0x3dbd8152	0.092531815
14	0xbdd70cac	-0.10500464
15	0xbd391e9c	-0.045195207
16	0x3d8a7682	0.06760885
17	0xbcf96483	-0.030443436
18	0xbca25a23	-0.019818371
19	0xbdc11204	-0.09427264
20	0xbc6584fa	-0.014008755
21	0xbc9c3830	-0.019069761
22	0x3cf46b7a	0.029836405
23	0xbdeff686	-0.117169425
24	0xbccacbd1	-0.02475539
25	0xbd101e6b	-0.03518526
26	0xbcb91e75	-0.02259753
27	0xbda81e75	-0.08208934
28	0x3d66e182	0.056367405
29	0x3dd7e086	0.10540871
30	0x3de767e4	0.112991124
31	0xbde30d7d	-0.11086557
32	0xbdd53b2d	-0.104116775
33	0x3daeb827	0.08531218
34	0x3d96b46c	0.073586315
35	0xbded85af	-0.11597764
36	0x3d89132c	0.0669311
37	0x3b139dca	0.002252447
38	0xbd8d3c4a	-0.06896265
39	0x3cd71a3b	0.026257625
40	0x3dab5311	0.08365453
41	0x3dfcbcdf	0.12340712
42	0x3d85173a	0.06498571
43	0xbc8060e5	-0.015671203
44	0x3d6b8d4b	0.057507794
45	0xbd5f399e	-0.054498307
46	0x3d95fc46	0.07323508
47	0x3dbd2d07	0.09237104
48	0xbcb02bfe	-0.021505352
49	0xbdeab0b4	-0.11459485
50	0x3da754bf	0.08170461
51	0x3d9203b6	0.07129614
52	0x3d870c68	0.06594163
53	0x3d887aae	0.06664024
54	0xbdcf9919	-0.10136623
55	0xbc4c32e8	-0.012463309
56	0xbd8b9476	-0.06815426
57	0x3cb23596	0.021754067
58	0xbdc1b44d	-0.09458218
59	0x3d88d027	0.06680327
60	0x3d522600	0.05130577
61	0xbc653db7	-0.013991765
62	0xbceae608	-0.02867414
63	0x3d1ba20a	0.03799633
64	0xbda9065b	-0.08253165
65	0x3c0b7063	0.008510682
66	0xbd590c55	-0.052990276
67	0x3d20d73d	0.039267767
68	0x3d79eb57	0.061015453
69	0x3d9c12c1	0.076207645
70	0xbdb13b26	-0.0865386
71	0x3d588d46	0.052869104
72	0xbdc0059c	-0.0937607
73	0xbdb576c2	-0.08860542
74	0x3dd90391	0.10596383
75	0x3af46c17	0.0018647936
76	0x3c8b6053	0.017013704
77	0xbde6f397	-0.1127693
78	0x3dc220b1	0.09478892
79	0xbded5eca	-0.11590345
80	0xbde07e6e	-0.109616145
81	0x3d8bc148	0.06823975
82	0x3c166960	0.009180397
83	0x3d07f346	0.033190988
84	0xbdcec072	-0.100953
85	0x3cc468ad	0.023975695
86	0xbdb43688	-0.087994635
87	0xbd1e690e	-0.038674407
88	0x3ddec802	0.10877992
89	0x3dd17f44	0.10229352
90	0xbd1743b2	-0.036929794
91	0x3cf0c371	0.029390069
92	0x3b9a0892	0.0047007287
93	0xbdc95469	-0.09830553
94	0xbc7c31ad	-0.015392703
95	0xbd20de20	-0.039274335
96	0xbdcfd7e6	-0.10148601
97	0xbde819f5	-0.11333076
98	0x3db82d95	0.08993069
99	0xbc4dd15d	-0.012562123
100	0x3df21a64	0.1182144
101	0xbdded3d0	-0.10880244
102	0x3d4a82de	0.04944121
103	0x3ca56753	0.02019087
104	0x3de10f6c	0.109892696
105	0xbd935c56	-0.07195346
106	0x3d109529	0.0352985
107	0xbdf6101d	-0.12014792
108	0x3dccbdd6	0.09997146
109	0x3de376fa	0.11106677
110	0xbbfac1ee	-0.0076525128
111	0x3c99c0ac	0.01876863
112	0xbdf32fb4	-0.11874333
113	0xbafecfce	-0.0019440593
114	0x3dd1e68d	0.10249052
115	0xbd881b29	-0.066458054
116	0x3c50c162	0.012741419
117	0xbdf1a7c7	-0.11799579
118	0x3df5c199	0.119998164
119	0xbd3952f0	-0.04524511
120	0xbb9bce1a	-0.004754794
121	0xbd55a90a	-0.05216316
122	0x3d927cc3	0.07152703
123	0x3ceb4723	0.028720444
124	0xbd538540	-0.05164075
125	0x3daaccc2	0.08339836
126	0xbdf0237e	-0.117255196
127	0xbdac50f7	-0.0841388
128	0x3e00b5e1	0.12569381
129	0xbc657256	-0.014004311
130	0xbda007a2	-0.07813956
131	0xbd03b4a8	-0.03215471
132	0xbc083ef4	-0.00831579
133	0xbd8d2268	-0.06891328
134	0xbda56815	-0.08076493
135	0xbdacfb9a	-0.08446427
136	0x3d2f26db	0.042761665
137	0x3e00bf5c	0.12572998
138	0x3deacbf3	0.114646815
139	0xbc934747	-0.017978324
140	0xbbc81c4b	-0.0061068884
141	0xbde39d9f	-0.11114048
142	0xbdfafc01	-0.12255097
143	0xbd99bf56	-0.075071976
144	0xbd505627	-0.05086341
145	0xbd01e474	-0.03171201
146	0xbd9c44eb	-0.076303326
147	0xbd9c6222	-0.07635905
148	0xbda4f85d	-0.08055184
149	0x3de04afe	0.109518036
150	0xbd66b840	-0.05632806
151	0xbd7533bb	-0.059863787
152	0xbd3a7182	-0.045518406
153	0x3cf9e4eb	0.030504664
154	0x3c01a2a4	0.007912312
155	0xbdc1eb49	-0.09468705
156	0x3cc5e9d7	0.024159355
157	0x3c82e59f	0.015978632
158	0xbd1a8ace	-0.03773003
159	0x3daebb28	0.08531791
160	0x3978457d	0.0002367701
161	0xbdebea7f	-0.11519336
162	0x3bdbc478	0.0067067705
163	0xbd7b34df	-0.06132972
164	0x3c0cd779	0.008596295
165	0xbd98247f	-0.07428836
166	0x3cf82076	0.030288916
167	0x3dd7e6f8	0.10542101
168	0xbcf9cefa	-0.030494202
169	0x3d5145b5	0.05109187
170	0xbc79aa0f	-0.015238299
171	0xbdebec5f	-0.115196936
172	0x3da91486	0.08255868
173	0x3dd7e6bb	0.10542055
174	0xbde9d2e6	-0.11417179
175	0x3dffdf7e	0.124937996
176	0x3d9fe948	0.07808167
177	0x3c63dcb4	0.0139076
178	0x3e00f8f7	0.12594973
179	0xbdc0701b	-0.093963824
180	0xbdbdba23	-0.092640184
181	0x3bde8757	0.006791036
182	0xbde2955b	-0.110636435
183	0xbb96a8c9	-0.0045977575
184	0x3d958b48	0.073019564
185	0xbdc03bc3	-0.09386399
186	0x3d85dd4e	0.06536351
187	0x3d4cc849	0.049995694
188	0x3db1f9ef	0.08690249
189	0x3d8a9406	0.067665145
190	0xbcfa4ba3	-0.030553645
191	0x3d471b21	0.048609857
192	0xbd97995d	-0.074022986
193	0xbd1878ed	-0.0372247
194	0x3d4f1059	0.0505527
195	0xbd5d4f38	-0.054030627
196	0x3d880b2b	0.06642755
197	0xbd1d154d	-0.038350392
198	0xbc97054a	-0.01843514
199	0xbd92fb4a	-0.07176836
200	0xba1c6692	-0.0005966212
201	0xbd6ea5d9	-0.058263633
202	0x3cedb073	0.029014802
203	0xbdbbd5fb	-0.09171673
204	0x3ce7a935	0.028278926
205	0xbe02c734	-0.12771302
206	0xbdafbe11	-0.08581174
207	0x3d86ebd3	0.06587949
208	0x3d396dc1	0.045270685
209	0x3c4c2f13	0.012462395
210	0x3d34ac12	0.04410941
211	0x3cebf370	0.028802603
212	0xbd2d7cf5	-0.042355496
213	0x3d4e1f26	0.050322674
214	0x3d62bde4	0.055356875
215	0x3bd738d1	0.0065680523
216	0x3d0db9a1	0.034600858
217	0x3d9a974c	0.07548389
218	0xbb8f69c8	-0.004376624
219	0x3da46ef6	0.080289766
220	0xbdc744a7	-0.09729891
221	0x3d053077	0.032516923
222	0xbdb72217	-0.08942049
223	0xbd8c4e34	-0.068508536
224	0xbd542279	-0.05179069
225	0x3b29f79f	0.0025934947
226	0xbde5d346	-0.11221938
227	0x3d1b7254	0.03795083
228	0x3d9e60d8	0.07733315
229	0xbda07407	-0.078346305
230	0xbde3dc4f	-0.11126005
231	0x3cfb5bc7	0.030683411
232	0x3d0efc90	0.03490883
233	0x3d2c1412	0.042011328
234	0xbdccea0b	-0.10005578
235	0x3d05dc74	0.032680944
236	0x3c940f2f	0.018073646
237	0xbc8fcc6c	-0.01755353
238	0xbd6d6c63	-0.057964694
239	0x3d7e41a9	0.062074337
240	0x3da7476d	0.0816792
241	0xbe0da41d	-0.13832135
242	0x3d5d96ab	0.054098766
243	0xbdfaf45c	-0.12253639
244	0x3da5bd6d	0.08092771
245	0x3db7d82d	0.08976779
246	0xbd1f820d	-0.038942385
247	0x3dc4bb86	0.0960608
248	0xbc71c7af	-0.014757081
249	0x3ca90827	0.02063377
250	0x3d2db42f	0.042408165
251	0x3dc19190	0.09451592
252	0x3d4f799c	0.050653085
253	0x3c8a4e65	0.016883085
254	0xbd7c71ac	-0.061631843
255	0xbdd3ba60	-0.103382826

W_h.bias f4 [64]
0	0xbcbdc9df	-0.023167549
1	0xbdd7371a	-0.10508557
2	0xbdc63798	-0.096785724
3	0xbd1399c3	-0.03603531
4	0xbde050ea	-0.10952933
5	0xbd7407bb	-0.059577685
6	0x3de2e42d	0.11078677
7	0xbcd77863	-0.026302522
8	0xbdd2c8a2	-0.10292174
9	0xbc15e7df	-0.009149521
10	0x3da3a0fd	0.079896905
11	0xbd954d9a	-0.07290192
12	0x3d65c069	0.0560917
13	0x3d6cf85d	0.057854045
14	0x3daa63eb	0.08319839
15	0xbde53ffa	-0.11193843
16	0x3d355a1a	0.04427538
17	0xbd666024	-0.05624403
18	0x3dea03f8	0.11426538
19	0x3c55dcd9	0.013053142
20	0x3dae9110	0.08523762
21	0xbb9a541f	-0.004709735
22	0xbd441b6d	-0.047877718
23	0xbcf49482	-0.02985597
24	0x3c00ff5d	0.007873383
25	0xbdf54713	-0.11976447
26	0x3cb91e9c	0.022597603
27	0xbdea85e1	-0.114513166
28	0xbd8751ee	-0.06607424
29	0xba956f60	-0.001140099
30	0xbd30e950	-0.043191254
31	0x3d9b21ac	0.07574782
32	0xbd56e615	-0.052465517
33	0xbccb0362	-0.024781886
34	0x3dccfaa9	0.10008747
35	0xbd9a9b77	-0.07549184
36	0xbdbdc347	-0.09265762
37	0xbd46f0e7	-0.048569586
38	0x3d13a664	0.036047354
39	0x3d208a6c	0.03919451
40	0x3dba55a0	0.09098363
41	0x3dc3ad0a	0.09554489
42	0xbda3eedc	-0.08004543
43	0x3cb66ba6	0.022268128
44	0xbcaba4a4	-0.02095253
45	0x3df03a0c	0.117298216
46	0xbdabb768	-0.08384591
47	0x3d88d0f9	0.06680483
48	0xbdcddd4a	-0.10051973
49	0x3d066be5	0.03281774
50	0x3bb96f2f	0.005659006
51	0xbdeb5e63	-0.11492612
52	0xbd371dfa	-0.044706322
53	0xbdb4d04b	-0.08828791
54	0x3daed7ab	0.08537229
55	0xbd67736b	-0.056506556
56	0x3da81dbf	0.082087986
57	0xbdf33d97	-0.11876982
58	0x3cf86afe	0.030324455
59	0xbd93babe	-0.072133526
60	0x3dd43753	0.10362115
61	0x3d9448e2	0.07240464
62	0x3bf02dc9	0.0073296768
63	0xbd882a08	-0.06648642

W_g.weight f4 [64, 64]
0	0x3dd11d1b	0.102106296
1	0xbde68a91	-0.11256898
2	0x3cdf4563	0.027254766
3	0x3dd8fa69	0.10594637
4	0xbdbaf4c3	-0.09128716
5	0xbcd76b35	-0.026296237
6	0xbd961cbf	-0.07329702
7	0xbd9665f1	-0.073436625
8	0xbd5ad175	-0.05342241
9	0x3cdb2a5b	0.026753595
10	0xbd1a4c41	-0.037670378
11	0xbdd8b337	-0.105810575
12	0xbd812634	-0.06306115
13	0x3dca8c71	0.09890068
14	0xbde7d0ef	-0.11319148
15	0xbcd1be0d	-0.025603319
16	0xbd9ecb1f	-0.07753586
17	0xbcb732f5	-0.022363165
18	0x3d2ae39b	0.041720968
19	0x3c35ae32	0.011088895
20	0xbc1901bc	-0.009338792
21	0x3bd03c67	0.006354857
22	0x3d28380f	0.041069087
23	0x3d3f8e1f	0.046766397
24	0xbd6f6849	-0.058449063
25	0xbe01fa1f	-0.1269307
26	0x3c4d1972	0.012518274
27	0x3dd02e93	0.10165133
28	0x3d87912d	0.06619487
29	0xbd8c8395	-0.06861035
30	0x3d981bdd	0.074271895
31	0xbde4669d	-0.111523844
32	0xbd96af7b	-0.07357689
33	0xbd5db899	-0.054131124
34	0x3d4fce23	0.050733697
35	0xbd5bd23d	-0.053667296
36	0xbc6efdae	-0.014586849
37	0x3dbc205f	0.09185862
38	0xbd9e717b	-0.077364884
39	0xbbc48797	-0.005997609
40	0x3d9381a9	0.07202465
41	0xbdf5e947	-0.12007385
42	0x3dd36489	0.1032191
43	0x3d999c55	0.07500521
44	0xbdb57ff9	-0.088622995
45	0x3c98d9e3	0.018658584
46	0xbd4482bd	-0.047976244
47	0x3caa5a4b	0.020795008
48	0xbdfb7697	-0.122784786
49	0x3beb3c35	0.007178808
50	0x3d3502d7	0.04419216
51	0x3c838e15	0.01605896
52	0x3ccf801b	0.02532964
53	0xbdfeaa34	-0.124348074
54	0xbddec39b	-0.108771525
55	0x3cb5d6cb	0.022197148
56	0xbd7da1c1	-0.06192184
57	0xbdebc7b7	-0.11512702
58	0xbdc03b4b	-0.09386309
59	0xbd0f4cfd	-0.03498553
60	0xbce3650d	-0.027758146
61	0x3ba0f8a7	0.004912454
62	0xbca149bd	-0.019688481
63	0x3de8dd81	0.113703735
64	0xbdd267cb	-0.10273703
65	0xbc21b760	-0.00987038
66	0xbdc93da9	-0.09826214
67	0xbcfbe108	-0.030746952
68	0x3c218f70	0.009860858
69	0x3df3a317	0.11896341
70	0x3dab953b	0.08378073
71	0xbd78094d	-0.060555745
72	0xbd93abb5	-0.07210485
73	0x3c52a710	0.012857214
74	0xbd5e41fd	-0.05426215
75	0x3cddf018	0.027092025
76	0xbd3dc669	-0.046331797
77	0xbd01a152	-0.031647988
78	0x3d85fe3f	0.06542634
79	0x3bfb9cbd	0.007678597
80	0x3d2a0a2b	0.041513603
81	0x3d5ae80f	0.053443965
82	0x3db435ad	0.087993
83	0x3dee05af	0.11622178
84	0x3d95ab23	0.07308032
85	0x3db794d1	0.08963931
86	0x3da80993	0.08204951
87	0xbdcc79ad	-0.09984145
88	0x3d886939	0.06660695
89	0x3d868fc5	0.065703906
90	0xbd07c637	-0.033148017
91	0x3d112923	0.03543962
92	0x3da906e3	0.08253267
93	0x3c66b020	0.014080077
94	0x3daf2211	0.085514195
95	0x3dee3df5	0.11632911
96	0x3cc716b0	0.02430281
97	0xbdc4fe17	-0.09618776
98	0x3d956e65	0.07296447
99	0xbdffa493	-0.12482562
100	0x3ceaf070	0.028679103
101	0x3debe9a3	0.11519172
102	0xbd1abd15	-0.03777798
103	0xbd4d61a9	-0.050141964
104	0xbdeb9bd1	-0.11504329
105	0x3d527667	0.05138245
106	0xbc7ce494	-0.015435357
107	0xbbf3092a	-0.007416864
108	0x3dc395c3	0.09550049
109	0x3d6bbee7	0.057555106
110	0x3c62ca00	0.013842106
111	0xbdf40c03	-0.119163536
112	0xbd9c467f	-0.076306336
113	0x3d9cbbe9	0.076530285
114	0xbd371275	-0.044695336
115	0x3ddcf8c5	0.107896365
116	0x3db2a169	0.08722193
117	0x395c7f5e	0.00021028283
118	0x3ddb3395	0.10703198
119	0x3c991588	0.018687025
120	0xbde3650d	-0.11103258
121	0xbd3233dd	-0.043506492
122	0xbd78147d	-0.060566414
123	0x3ddf2925	0.108965196
124	0x3d2365a7	0.039891865
125	0xbc1c78c0	-0.009550273
126	0x3cd0d1c0	0.025490642
127	0x3d34c71f	0.04413521
128	0x3bc336ba	0.0059574516
129	0xbdf82aa6	-0.121175095
130	0x3cbeb3ee	0.023279157
131	0x3d858ba6	0.065207765
132	0xbdcf2aaa	-0.101155594
133	0x3ce8e726	0.028430533
134	0xbdee6736	-0.1164078
135	0x3c658692	0.014009135
136	0xbd67e706	-0.056616805
137	0xbd5bb876	-0.053642713
138	0x3d97ab98	0.07405776
139	0x3daf6d68	0.085657895
140	0xbd4f196a	-0.050561346
141	0xbe03eb4c	-0.12882727
142	0xbcb01a82	-0.021497015
143	0x3dbe288e	0.09285079
144	0x3c8781be	0.016541358
145	0x3db8c324	0.09021595
146	0x3ce15326	0.027505469
147	0xbc7b9090	-0.015354291
148	0x3d93f10a	0.07223709
149	0x3d86aa36	0.06575434
150	0xbd97229c	-0.07379648
151	0x3dd9d7ea	0.106368855
152	0x3d9e9440	0.0774312
153	0x3c308120	0.010772973
154	0xbd6fb9fa	-0.05852697
155	0x3ab7c4ec	0.0014020479
156	0x3def2c40	0.11678362
157	0xbd5509fa	-0.052011468
158	0x3de20cae	0.11037575
159	0xbd745726	-0.059653424
160	0x3dc31760	0.09525943
161	0xbd36514e	-0.044511132
162	0xbdbbddc0	-0.09173155
163	0xbd7142c6	-0.05890157
164	0x3d905c14	0.070488125
165	0xbd9dbbac	-0.07701811
166	0x3de0b0fe	0.109712586
167	0xbdd2cc16	-0.102928326
168	0x3cf0e572	0.029406283
169	0x3cd08ad6	0.025456827
170	0xbd568c0e	-0.05237966
171	0xbd334f12	-0.04377658
172	0xbb9f6fa0	-0.0048656017
173	0xbd8bf8dc	-0.068345755
174	0xbddcf4be	-0.10788868
175	0x3db3600e	0.08758555
176	0x3d7a310d	0.061081935
177	0x3ce6131e	0.028085288
178	0xbc8bead4	-0.017079748
179	0x3da96ce6	0.08272724
180	0xbc8516be	-0.016246196
181	0xbadc1984	-0.0016792272
182	0xbd8bbbce	-0.0682293
183	0xbe03c12a	-0.12866655
184	0x3c6c0cc5	0.014407341
185	0x3d280812	0.04102332
186	0x3dbaa0c6	0.09112696
187	0x3d025bba	0.03182576
188	0xbc90dd36	-0.017683607
189	0x3d9f44c4	0.07776788
190	0xbdf61310	-0.12015355
191	0x3da8f9de	0.082507834
192	0xbdabbff0	-0.083862185
193	0xbd7c70d6	-0.061631046
194	0xbc88689a	-0.01665144
195	0xbd27bd9e	-0.040952317
196	0xbdb46606	-0.08808522
197	0xbddbd0e4	-0.10733202
198	0xbd086232	-0.03329677
199	0x3db5b356	0.08872096
200	0x3dec6f54	0.11544672
201	0xbd4ab0fa	-0.049485184
202	0xbdbc6b40	-0.09200144
203	0x3dc60c7e	0.096703514
204	0x3dbe1cda	0.09282847
205	0x3d6138f2	0.054985948
206	0x3de68518	0.11255854
207	0x3d6ccfbe	0.057815306
208	0xbdb53334	-0.08847657
209	0x3d846aa0	0.064656496
210	0xbd8dbeca	-0.06921156
211	0x3d29a3d6	0.04141601
212	0x3d95f996	0.07322995
213	0x3aca9600	0.001545608
214	0x3d44fa7a	0.048090436
215	0x3deb1046	0.11477713
216	0x3ddbd648	0.1073423
217	0x3dd3fc42	0.10350849
218	0xbdd28aa6	-0.10280351
219	0xbd90f7dc	-0.070785254
220	0xbdff425e	-0.124638304
221	0xbe046308	-0.12928402
222	0xbd844a83	-0.064595245
223	0x3de6db2a	0.11272271
224	0xbd181220	-0.03712666
225	0xbdb1728a	-0.08664425
226	0xbcc130b5	-0.023582796
227	0xbdf67afa	-0.12035175
228	0xbcfbe5ad	-0.030749166
229	0x3cf57eee	0.029967751
230	0x3d29e3fa	0.04147718
231	0x3d083c12	0.033260413
232	0xbde3285a	-0.11091681
233	0x3d54739e	0.051868074
234	0xbd161032	-0.03663654
235	0xbd238772	-0.039924093
236	0x3de14fc0	0.11001539
237	0x3da1d7c8	0.07902485
238	0xbd73222a	-0.059358753
239	0xbc6ef887	-0.014585621
240	0x3de0505e	0.10952829
241	0x3d199162	0.037492163
242	0xbd808925	-0.06276158
243	0xbdf2cc0e	-0.118553266
244	0x3d925c58	0.071465194
245	0xbb856bea	-0.0040717022
246	0xbd29bdae	-0.04144066
247	0xbc416465	-0.011803721
248	0x3d898de8	0.067165196
249	0x3c5d1ee9	0.013496139
250	0xbda58400	-0.080818176
251	0x3d868996	0.06569211
252	0xbd816063	-0.063172124
253	0xbd65c30a	-0.056094207
254	0xbdba17fa	-0.090866044
255	0x3d9657e4	0.073409826

W_g.bias f4 [64]
0	0xbd02e868	-0.03195992
1	0x3d8b3574	0.06797305
2	0xbd5dc81b	-0.054145914
3	0xbdc06232	-0.09393729
4	0xbdb3e300	-0.08783531
5	0xbcf464f9	-0.029833304
6	0x3db85239	0.09000058
7	0xbe00c528	-0.12575209
8	0xbcaab452	-0.020837937
9	0x3dd72e34	0.105068594
10	0xbde25765	-0.110518254
11	0x3b692899	0.0035577177
12	0x3b162e1d	0.002291567
13	0x3d098905	0.033577938
14	0x3dc78047	0.09741264
15	0xbd32fc67	-0.04369774
16	0xbda35b4d	-0.079763986
17	0xbdfb9c89	-0.12285716
18	0x3cefb2b3	0.029260015
19	0x3dc3918e	0.09549247
20	0xbc228336	-0.009918978
21	0x3d85af67	0.06527596
22	0xbb8370f9	-0.00401127
23	0xbdc69cc1	-0.09697867
24	0x3cc5e25d	0.02415579
25	0x3df69ac1	0.12041236
26	0xbc2671ac	-0.010158937
27	0x3cb665c2	0.022265319
28	0xbd35c435	-0.04437657
29	0xbce6594d	-0.028118754
30	0x3d2bab30	0.041911304
31	0x3cb70817	0.022342725
32	0x3d7da906	0.06192877
33	0xbddad6cc	-0.106855005
34	0x3d2ed124	0.04267992
35	0xbdbdf387	-0.09274965
36	0xbdb8f2c9	-0.090306826
37	0xbdb790c8	-0.08963162
38	0x3d25132c	0.040301487
39	0xbdf438b5	-0.119248785
40	0x3de13872	0.10997094
41	0xbdc615b2	-0.09672107
42	0xbd86b3a6	-0.06577234
43	0xbdf374d5	-0.11887518
44	0xbd8f07d6	-0.069839165
45	0x3d40fcf7	0.047116246
46	0xbba03898	-0.004889559
47	0xbc89c662	-0.01681823
48	0x3d57111a	0.052506544
49	0x3cd33842	0.025783662
50	0x3dfbe86c	0.1230019
51	0x3db6cf8b	0.089263044
52	0xbd80b14c	-0.06283817
53	0xbdf36ccf	-0.11885988
54	0x3df48df1	0.11941136
55	0xbdcc014e	-0.09961186
56	0xbdf2a61b	-0.11848088
57	0xbdea0619	-0.11426944
58	0xbd556ca8	-0.052105576
59	0x3da0cc38	0.07851452
60	0x3de98c13	0.1140367
61	0x3c963af0	0.01833865
62	0x3c96e627	0.018420292
63	0x3dbf59d9	0.09343309

W_x.weight f4 [64, 1]
0	0xbf00a754	-0.5025532
1	0xbe84e333	-0.2595459
2	0x3db0d2d1	0.0863396
3	0x3e66c180	0.22534752
4	0xbee1301b	-0.43982014
5	0xbec239e4	-0.37934792
6	0xbe76552f	-0.24055932
7	0x3f431aa2	0.76212513
8	0xbf441a4f	-0.76602644
9	0x3f03119c	0.51198745
10	0xbe5b9bc0	-0.21446133
11	0x3f1c6c0b	0.6110236
12	0xbe4cd402	-0.2000275
13	0xbf768d12	-0.96309006
14	0xbef9e282	-0.48805624
15	0x3f44450c	0.7666786
16	0xbe6e341a	-0.23262063
17	0x3ee135f8	0.43986487
18	0xbe8597d7	-0.26092407
19	0x3f39601b	0.7241227
20	0x3f11e73f	0.5699348
21	0xbc9631c4	-0.018334277
22	0xbde412fe	-0.11136435
23	0x3e6873c4	0.22700411
24	0xbf221af1	-0.6332236
25	0x3de320ac	0.11090216
26	0xbf2945dc	-0.6612222
27	0x3ef35c44	0.4753133
28	0x3f7de000	0.9916992
29	0xbed4d9dc	-0.41572464
30	0x3f51550d	0.817704
31	0xbf1b6782	-0.60704815
32	0xbecab5c8	-0.39591813
33	0xbf53b856	-0.8270315
34	0xbeeac529	-0.45853546
35	0xbf465678	-0.7747569
36	0xbda397d2	-0.07987942
37	0xbe536440	-0.20643711
38	0xbe3b12a9	-0.18268837
39	0x3f67c242	0.9053079
40	0x3f80fd7a	1.0077355
41	0x3e356588	0.17714512
42	0xbf6263b3	-0.8843338
43	0x3f180dd6	0.5939611
44	0x3e82737a	0.25478727
45	0xbf5865d6	-0.8453039
46	0x3ed9b825	0.42523304
47	0x3eeb5f2c	0.45971048
48	0xbef30411	-0.4746404
49	0x3ef08a42	0.46980482
50	0xbf4f577c	-0.80992866
51	0xbe9d9c79	-0.30783442
52	0xbe9f9f3f	-0.31176183
53	0xbebedde0	-0.37278652
54	0xbe29f6c0	-0.16598034
55	0x3ef7afd4	0.48376334
56	0x3e9625ea	0.293258
57	0xbf6c8162	-0.9238492
58	0x3f085b61	0.53264433
59	0xbf28cb00	-0.65934753
60	0xbf6491ea	-0.8928515
61	0xbe77a1ef	-0.24182867
62	0xbe54b0c9	-0.20770563
63	0xbe4fae89	-0.20281424

W_x.bias f4 [64]
0	0x3f7b1154	0.98073316
1	0x3f276a6c	0.6539676
2	0x3f44a4f3	0.7681419
3	0x3f69e06e	0.9135808
4	0x3e17a3ed	0.14808626
5	0xbea5be1e	-0.3237161
6	0xbf6b5dc4	-0.9193995
7	0x3ecc9bdb	0.39962658
8	0x3e636618	0.22206914
9	0x3f3f0025	0.74609596
10	0x3f6c3a2c	0.92276263
11	0xbf163f15	-0.58690006
12	0x3f321ed7	0.6957831
13	0x3e4a1183	0.19733243
14	0x3dc92b49	0.09822709
15	0xbda7627c	-0.08173081
16	0xbe5ff914	-0.2187236
17	0x3e5480f9	0.20752324
18	0x3ef57bc6	0.47945994
19	0xbf631c21	-0.88714796
20	0xbf653dfd	-0.8954771
21	0x3ead4a93	0.33845958
22	0xbd95e842	-0.0731969
23	0xbec8e331	-0.39235833
24	0x3e1e82de	0.1547961
25	0x3e8ca5f7	0.2747037
26	0xbdc34b6e	-0.095358714
27	0xbeedd27e	-0.46449655
28	0x3f3d7a1f	0.74014467
29	0x3ecd452d	0.4009184
30	0x3f3e0ef3	0.7424156
31	0x3f7dca76	0.99137056
32	0x3f7053d1	0.93877894
33	0x3ea7f0c2	0.3280087
34	0x3f252067	0.6450257
35	0x3f3cfe54	0.73825574
36	0xbf6a1f45	-0.91453964
37	0x3e9d8760	0.30767345
38	0xbe21c9c6	-0.15799627
39	0xbe92e3f2	-0.28689533
40	0xbb0fe01b	-0.0021953646
41	0xbe19aab6	-0.15006527
42	0xbd49c262	-0.049257644
43	0x3f25feca	0.648419
44	0x3d3c10f4	0.045914605
45	0xbd3b377d	-0.045707215
46	0x3e690f97	0.22759853
47	0xbf7dcf45	-0.99144393
48	0x3e5e7bf6	0.21726975
49	0x3f1531ef	0.5827932
50	0xbe8e54b2	-0.27798992
51	0x3f062a6a	0.5240847
52	0x3e606e5d	0.219171
53	0xbee39d1d	-0.44455805
54	0x3e7e5f52	0.2484105
55	0xbdffef6f	-0.1249684
56	0xbe95b3f2	-0.2923885
57	0xbf02ab60	-0.5104275
58	0xbf2e1a5f	-0.6800899
59	0xbd117cd5	-0.03551944
60	0x3eedd120	0.46448612
61	0xbf7a2853	-0.9771778
62	0xbe2940ed	-0.16528673
63	0x3f3317f6	0.69958436

W_1d.weight f4 [1, 64]
0	0xbd92d137	-0.07168811
1	0xbdc2519b	-0.09488221
2	0x3b10c857	0.0022092068
3	0xbc2476b5	-0.010038068
4	0xb97d976e	-0.00024184372
5	0x3d49183b	0.049095374
6	0x3d20a0a7	0.03921571
7	0xbccc9613	-0.024973905
8	0xbd4b1af1	-0.04958624
9	0x3ca4b28c	0.020104669
10	0xbd9e0f16	-0.07717721
11	0xbd8cdfe8	-0.06878644
12	0xbd8fea81	-0.0702715
13	0x3dc76156	0.09735362
14	0x3dc52d86	0.096278235
15	0x3db4a264	0.08820036
16	0x3bfb88ce	0.0076762205
17	0xbdbfc947	-0.093645625
18	0xbda5b2c7	-0.0809074
19	0x3d42a88d	0.047524024
20	0x3d4bbcf2	0.04974074
21	0xbde23164	-0.11044577
22	0x3cd40319	0.025880383
23	0x3a59a406	0.00083023345
24	0x3d3420c3	0.043976557
25	0x39ba1bb6	0.0003549733
26	0xbbd94be3	-0.006631361
27	0xbb8aef86	-0.004239979
28	0x3d8201ef	0.06348025
29	0x3bc4de79	0.006007966
30	0x399806e0	0.00028996821
31	0xbdb1e58d	-0.086863615
32	0x3c0a5d5b	0.008445109
33	0x3c811552	0.015757237
34	0x3d6f39f4	0.058404878
35	0xbda92878	-0.08259672
36	0xbdb7fee7	-0.08984166
37	0xbd486c87	-0.048931625
38	0xbc06ff55	-0.008239587
39	0x3d5b4222	0.053529866
40	0x3d36a870	0.04459423
41	0xbc1d33fc	-0.009594914
42	0xbd404ca5	-0.046948094
43	0xbcbee95d	-0.023304636
44	0x3d73bf61	0.059508685
45	0xbdde20b8	-0.10846084
46	0x3b288fcd	0.0025720478
47	0x3dda3152	0.10653938
48	0xbd38b6e4	-0.045096293
49	0xbc6be2ed	-0.014397365
50	0xbce4761b	-0.027888348
51	0x3cb92de2	0.022604886
52	0x3c30c85f	0.01078996
53	0x3cb24216	0.021760028
54	0x3d64b416	0.055835806
55	0xbdb1c844	-0.08680776
56	0x3dd7687e	0.10517977
57	0x3c099633	0.008397627
58	0xbd33cbd9	-0.043895576
59	0xbd8c6734	-0.06855622
60	0x3d8522c9	0.06500775
61	0xb9bae396	-0.0003564625
62	0x3cb4f1ed	0.022088015
63	0xbd0debf5	-0.034648854
