model_weight/best_NORWAY_model.pth (torch, 73864 bytes, 14 tensors)

lstm_cells.0.b_c f4 [64]
-0.012851314 0.00041650113 0.018528497 0.007115199 -0.012384861 -0.016845249 0.02827944 -0.020941254
-0.0064724637 0.016545307 -0.020470453 0.00228832 -0.018424971 -0.002984364 -0.03010262 -0.002772411
-0.013207284 0.004927364 -0.029695328 -0.008918365 -0.0064046048 -0.0001583952 -0.01570787 0.009009259
0.018844323 -0.012659442 -0.016356586 -0.0065264585 -0.008961503 0.0044733477 -0.012086842 -0.029666154
0.0013599775 0.011173607 0.005305666 -0.001005324 0.0013505112 -0.012675907 0.011164896 0.0002270993
0.008974744 -0.006007409 -0.01913205 -0.023934806 -0.01813588 0.017262256 0.0053379573 0.0061016656
-0.0064511094 -0.002909101 0.001821726 0.013416321 0.014825206 -0.0029837224 -0.00022458186 0.02633146
-0.0007280874 0.004480276 0.001933557 0.023707047 -0.012083585 1.0011889e-05 -0.011669087 0.00699616
00000000: 518e 52bc d65d da39 13c9 973c 9e26 e93b
00000010: dfe9 4abc 0cff 89bc 49aa e73c fe8c abbc
00000020: f616 d4bb 068a 873c a7b1 a7bc a4f7 153b
00000030: f7ef 96bc 5295 43bb c599 f6bc 57b1 35bb
00000040: 5d63 58bc ba75 a13b 9e43 f3bc 561e 12bc
00000050: b8dd d1bb e316 26b9 caad 80bc 929b 133c
00000060: 695f 9a3c 8c69 4fbc 3ffe 85bc e7db d5bb
00000070: 45d3 12bc 2995 923b e407 46bc 6f06 f3bc
00000080: 4641 b23a 8111 373c 27db ad3b 13c5 83ba
00000090: a303 b13a 9cae 4fbc f8ec 363c 8121 6e39
000000a0: ce0a 133c cdd9 c4bb d1ba 9cbc ed12 c4bc
000000b0: b291 94bc 9369 8d3c 08ea ae3b 7bf0 c73b
000000c0: d463 d3bb 9ea6 3ebb fbc6 ee3a 21d0 5b3c
000000d0: 6ce5 723c 8e8a 43bb bc7d 6bb9 13b5 d73c
000000e0: 1edd 3eba 47cf 923b 686f fd3a 4835 c23c
000000f0: 3bfa 45bc bcf8 2737 b32f 3fbc 0b40 e53b

lstm_cells.0.W_ic.weight f4 [64, 1]
-0.29672036 -0.75155574 0.28840518 0.67263925 -0.84450454 -0.7126837 0.74828 -0.9201349
-0.9225116 0.53434545 -0.42052317 0.7159837 -0.109755084 -0.55622613 -0.5809144 -0.8634484
-0.63734066 -0.58167917 0.4217351 -0.29698128 0.18136905 0.25587142 -0.89770406 0.97813344
0.28570506 0.43737265 -0.37217435 -0.7119595 -0.94124776 -0.027497957 -0.8103338 -0.96534634
-0.0010630437 0.566093 0.2211558 -0.50009036 0.70377827 -0.33935204 0.8319232 -0.52549034
0.84383065 -0.5055648 -0.14607187 -0.78275067 0.48873103 0.5430917 0.7442513 0.40128732
-0.5862771 -0.0782397 -0.9773525 0.4920431 0.28020307 -0.60715246 -0.024588428 0.7441513
-0.98414016 0.67982495 0.8286422 0.6961552 -0.15896502 -0.22424504 -0.6359309 -0.061239958
00000000: bbeb 97be f565 40bf d8a9 933e 1632 2c3f
00000010: 7331 58bf 7072 36bf 478f 3f3f f68d 6bbf
00000020: b829 6cbf ddca 083f d04e d7be b54a 373f
00000030: 46c7 e0bd d664 0ebf ceb6 14bf f40a 5dbf
00000040: c228 23bf ede8 14bf aaed d73e ee0d 98be
00000050: cfb8 393e 9401 833e efcf 65bf f466 7a3f
00000060: ef47 923e 4fef df3e a38d bebe fa42 36bf
00000070: 9df5 70bf 6543 e1bc 0972 4fbf f020 77bf
00000080: d455 8bba 79eb 103f ab76 623e ec05 00bf
00000090: d02a 343f 8dbf adbe ebf8 543f 8986 06bf
000000a0: 4905 583f b26c 01bf dd93 15be 5962 48bf
000000b0: f43a fa3e 0f08 0b3f 4187 3e3f 8875 cd3e
000000c0: 4216 16bf 233c a0bd c633 7abf 13ed fb3e
000000d0: c776 8f3e 586e 1bbf ac6d c9bc b380 3e3f
000000e0: 9cf0 7bbf 0209 2e3f e521 543f 3a37 323f
000000f0: bac7 22be 7ea0 65be 5ecc 22bf c0d6 7abd

lstm_cells.0.W_ic.bias f4 [64]
0.53037643 -0.44026384 -0.48223293 0.4090212 -0.5166265 -0.03498686 -0.53471106 0.72774774
-0.15684676 -0.43424505 0.9032603 0.85169315 0.8742431 -0.7786743 0.38747472 -0.8551526
0.2339874 -0.6816935 0.77960753 -0.23051913 0.78536785 -0.5407887 -0.15924254 0.4440826
-0.6386065 0.50856286 0.7094968 0.08705118 -0.44910598 -0.4455718 0.9171899 -0.07111248
0.48922896 -0.4936777 -0.89038646 -0.08062644 -0.027837176 0.30915642 -0.14528172 -0.6537286
-0.32888314 0.3872243 0.43244535 -0.119627476 0.90960175 -0.4554024 -0.17562787 0.5263713
-0.49177143 -0.45746866 -0.8302899 -0.08878437 -0.72066575 0.68696886 -0.19199939 -0.7141332
-0.2906403 -0.1949697 0.97382015 -0.61852217 0.52871233 -0.7561931 -0.58809036 -0.73521334
00000000: c0c6 073f 436a e1be 3ce7 f6be 3a6b d13e
00000010: a241 04bf 624e 0fbd d3e2 08bf ad4d 3a3f
00000020: 709c 20be 5e55 debe 113c 673f 9008 5a3f
00000030: 65ce 5f3f 3357 47bf 1663 c63e 48eb 5abf
00000040: 659a 6f3e 7783 2ebf 5c94 473f 350d 6cbe
00000050: de0d 493f 2171 0abf 7a10 23be cb5e e33e
00000060: b77b 23bf 2d31 023f 95a1 353f e447 b23d
00000070: 38f1 e5be fd21 e4be f5cc 6a3f 6ba3 91bd
00000080: 387c fa3e 53c3 fcbe 5ef0 63bf 7a1f a5bd
00000090: ca0a e4bc c049 9e3e bbc4 14be c25a 27bf
000000a0: 5f63 a8be 4342 c63e 7a69 dd3e 40ff f4bd
000000b0: a9db 683f 812a e9be cbd7 33be 45c0 063f
000000c0: 77c9 fbbe 5539 eabe e18d 54bf 94d4 b5bd
000000d0: 8d7d 38bf 31dd 2f3f 7d9b 44be 6fd1 36bf
000000e0: cece 94be 23a6 47be 474c 793f 7857 1ebf
000000f0: b159 073f df95 41bf 178d 16bf f136 3cbf

lstm_cells.0.W_hc.weight f4 [64, 64]
0.00727231 0.046264365 0.09619009 0.1333386 -0.107807614 0.010030154 -0.018830739 -0.109432824
-0.12761088 -0.03878411 -0.09346594 -0.0006996484 -0.07079717 0.089616686 -0.019496083 -0.01929533
0.062312093 -0.110560894 0.10174118 0.014184203 0.058687646 -0.11306821 -0.0922463 -0.10546306
-0.0628677 -0.10685604 -0.0013772411 -0.08498566 -0.044394005 -0.005157188 0.042654116 -0.089712314
-0.080759145 0.053665407 0.09536768 0.07592063 0.0464026 -0.044206884 0.019354267 -0.12842734
-0.016412016 -0.085137986 0.057572365 0.11090664 -0.12016573 -0.09360865 -0.02057861 0.057123892
-0.040136654 0.0020249889 0.069024086 -0.04982572 -0.0017418818 -0.1109596 0.007118344 0.10579867
-0.062138353 0.0005152378 -0.095048964 -0.004009868 -0.09669085 0.1005408 -0.056758992 -0.027972998
-0.06348283 0.11706194 -0.066023834 0.043647613 0.010439621 0.10169341 0.056905422 0.03832303
-0.062983304 0.016856981 0.026518725 0.039883178 -0.032064937 -0.107339546 0.07161731 0.061594244
-0.074247874 -0.049660213 0.02098154 0.09946335 0.0016758504 0.054199062 0.06715976 0.03664932
0.04148116 -0.053601768 0.010582435 -0.08092972 -0.069194876 0.008904782 -0.05406326 0.049119048
0.110406585 -0.08531466 -0.01893607 0.02997677 -0.08334408 0.0637074 -0.113181524 0.007612873
-0.047892306 0.02514502 -0.08523662 0.07322317 -0.06646129 -0.009540649 0.09551672 -0.04847308
-0.01365551 0.12494233 0.04997276 0.0990024 -0.09055725 0.038292386 0.060421415 -0.039547052
-0.008080048 0.043003496 -0.065449946 0.051815305 -0.016499046 0.04456129 -0.09071289 0.06258984
0.10681036 0.09733725 0.005991651 -0.11089344 -0.06777872 0.056732774 -0.10695529 0.0023877923
-0.064180724 0.09644421 -0.10272872 -0.105353855 -0.07404753 0.042131618 -0.047785696 0.044207122
0.016261557 0.022289693 0.02239642 -0.01754873 -0.07053481 -0.0749156 -0.04479706 -0.020726448
-0.025672957 -0.0693549 0.14172335 -0.10117944 -0.12373282 0.047758825 0.009487752 -0.07679005
0.096062675 -0.027288452 0.10161172 -0.13092577 0.09434644 0.12257377 -0.15276627 0.0050145774
0.05008488 0.10675663 -0.08097367 0.10293061 0.05889504 -0.11259894 0.0031598164 0.104182616
0.12707166 0.088468336 0.06921644 -0.09842775 0.0021666486 -0.057851497 0.060037233 -0.020680573
-0.029335506 -0.13320345 -0.102958925 -0.113812275 -0.09251318 -0.010185376 0.05238738 0.036349192
-0.068850264 -0.13113682 -0.0046569244 0.03579608 0.11581921 0.019564131 0.107066885 -0.07885537
-0.00020947975 0.045958243 0.10897942 0.042737957 -0.052515835 0.018072827 -0.007471095 -0.11603735
-0.027869746 -0.11601621 0.044817246 0.0849911 -0.01600938 0.08652837 -0.105094925 0.03714167
-0.01565454 0.027645791 0.03942664 -0.05488959 -0.08237432 -0.05664028 -0.019652199 0.017044684
-0.11950652 -0.10696226 0.04264015 0.06505801 0.073836595 0.08971157 0.08453388 -0.009373163
-0.10106568 0.1202519 -0.050895303 0.025444988 0.081765585 0.05918825 -0.08083151 0.12512124
-0.037552 -0.04620468 -0.108599685 -0.039239455 0.11469891 -0.0035125553 -0.049207855 0.030286988
0.041552875 0.017782448 -0.06730049 0.007996134 0.14166535 -0.09403439 -0.00022579322 -0.07580556
00000000: 8f4c ee3b b47f 3d3d 4fff c43d ea89 083e
00000010: 3dca dcbd 8455 243c ec42 9abc 511e e0bd
00000020: 6dac 02be 16dc 1ebd 126b bfbd 9c68 37ba
00000030: 1bfe 90bd f488 b73d 40b6 9fbc 3d11 9ebc
00000040: f73a 7f3d c06d e2bd ae5d d03d dc64 683c
00000050: 7562 703d 4e90 e7bd a1eb bcbd 04fd d7bd
00000060: c8c0 80bd 57d7 dabd 8b84 b4ba f60c aebd
00000070: 7dd6 35bd a1fd a8bb 15b6 2e3d 17bb b7bd
00000080: 0d65 a5bd 42d0 5b3d 2150 c33d 467c 9b3d
00000090: a710 3e3d 4712 35bd d78c 9e3c 7582 03be
000000a0: 7e72 86bc d35c aebd 00d1 6b3d 0523 e33d
000000b0: 7319 f6bd e4b5 bfbd 7994 a8bc befa 693d
000000c0: 5566 24bd adb5 043b 805c 8d3d 0e16 4cbd
000000d0: db4f e4ba c93e e3bd ff40 e93b f9ac d83d
000000e0: c984 7ebd 0611 073a 08a9 c2bd 3665 83bb
000000f0: da05 c6bd 56e8 cd3d 1e7c 68bd a127 e5bc
00000100: 4903 82bd 2cbe ef3d 8137 87bd d7c7 323d
00000110: f20a 2b3c a244 d03d a915 693d 9cf8 1c3d
00000120: 64fd 80bd a717 8a3c cc3d d93c 8b5c 233d
00000130: 8656 03bd d6d4 dbbd 19ac 923d 3f4a 7c3d
00000140: 450f 98bd 8268 4bbd 7be1 ab3c 71b3 cb3d
00000150: 35a8 db3a d6ff 5d3d 0e8b 893d 991d 163d
00000160: 26e8 293d 878d 5bbd f361 2d3c 7bbe a5bd
00000170: 0bb6 8dbd 5de5 113c 7071 5dbd 0e31 493d
00000180: d91c e23d 74b9 aebd d11f 9bbc d891 f53c
00000190: 4db0 aabd 0679 823d b7cb e7bd 6875 f93b
000001a0: b92a 44bd eefc cd3c 8990 aebd 08f6 953d
000001b0: db1c 88bd 6250 1cbc 459e c33d b58b 46bd
000001c0: 5cbb 5fbc c4e1 ff3d 3db0 4c3d c5c1 ca3d
000001d0: 1476 b9bd 7ad8 1c3d 727c 773d 17fc 21bd
000001e0: 2d62 04bc 6f24 303d 9f0a 86bd 493c 543d
000001f0: 0229 87bc e685 363d aec7 b9bd 1a2f 803d
00000200: 64bf da3d c158 c73d 9d55 c43b 1a1c e3bd
00000210: 92cf 8abd a060 683d 600b dbbd 827c 1c3b
00000220: 2f71 83bd 8b84 c53d 6f63 d2bd c3c3 d7bd
00000230: 3ba6 97bd 3492 2c3d efba 43bd 8712 353d
00000240: f536 853c e098 b63c b278 b73c 5bc2 8fbc
00000250: 8e74 90bd 5a6d 99bd 1f7d 37bd 83ca a9bc
00000260: 1850 d2bc f109 8ebd ed1f 113e 2b37 cfbd
00000270: a267 fdbd c29e 433d 8472 1b3c 1a44 9dbd
00000280: 82bc c43d 088c dfbc ce19 d03d 6811 06be
00000290: b538 c13d f507 fb3d c36e 1cbe 5351 a43b
000002a0: ce25 4d3d 38a3 da3d 86d5 a5bd 49cd d23d
000002b0: ed3b 713d 469a e6bd ec14 4f3b b25d d53d
000002c0: 131f 023e e32e b53d 59c1 8d3d 7d94 c9bd
000002d0: 55fe 0d3b b1f5 6cbd 9ae9 753d 4e6a a9bc
000002e0: 0451 f0bc 7c66 08be 21dc d2bd 6916 e9bd
000002f0: 8d77 bdbd 90e0 26bc 2694 563d e4e2 143d
00000300: 5e01 8dbd bb48 06be 1d99 98bb e99e 123d
00000310: 9f32 ed3d f544 a03c e245 db3d ed7e a1bd
00000320: cba7 5bb9 b63e 3c3d 9a30 df3d ff0d 2f3d
00000330: d81a 57bd 770d 943c 16d0 f4bb fda4 edbd
00000340: 184f e4bc e899 edbd 4a92 373d d00f ae3d
00000350: 1a26 83bc c935 b13d 023c d7bd dd21 183d
00000360: f33d 80bc 6d79 e23c d47d 213d e8d3 60bd
00000370: deb3 a8bd a3ff 67bd a6fd a0bc 4ba1 8b3c
00000380: d6bf f4bd 080f dbbd 70a7 2e3d 223d 853d
00000390: a437 973d b3ba b73d 1920 ad3d e591 19bc
000003a0: 86fb cebd a146 f63d 9877 50bd 0272 d03c
000003b0: b774 a73d 616f 723d fe8a a5bd c81f 003e
000003c0: 20d0 19bd 1e41 3dbd 8369 debd 8db9 20bd
000003d0: 43e7 ea3d e632 66bb 2d8e 49bd 6b1c f83c
000003e0: 5933 2a3d 7fac 913c d7d4 89bd 3802 033c
000003f0: b910 113e 1a95 c0bd e8c2 6cb9 f23f 9bbd

lstm_cells.0.W_hc.bias f4 [64]
0.08456579 -0.0552826 -0.018067176 -0.09528763 -0.0628651 -0.041044004 0.075024754 0.09895454
-0.059582908 -0.015851336 -0.030774038 -0.07434538 0.06800436 0.08624093 0.035416905 0.10575062
-0.13191088 -0.049662314 0.08219535 -0.060495887 -0.12505543 0.108512074 -0.045329835 -0.089977086
-0.10053799 0.0058719143 0.006781702 0.075009376 -0.11480628 0.049305536 -0.10664084 -0.039557613
-0.03854917 -0.09991654 0.050806876 0.013960978 0.035021428 -0.13184641 0.116466 -0.07320294
-0.049085204 0.052293092 0.02663642 -0.057325926 -0.0057896874 0.103731684 0.06800916 0.094815046
0.087004334 -0.116253875 0.09708399 -0.107057154 0.09741011 -0.036583 0.111478716 -0.07696626
0.06442671 -0.06390969 -0.07885103 0.009881593 0.062634625 0.06412325 0.0043076584 0.011966746
00000000: d430 ad3d 0270 62bd 9d01 94bc 2926 c3bd
00000010: 6bbf 80bd c21d 28bd 94a6 993d aea8 ca3d
00000020: 350d 74bd a9da 81bc d619 fcbc 6442 98bd
00000030: df45 8b3d 169f b03d 5111 113d c893 d83d
00000040: a513 07be b66a 4bbd 0956 a83d 89ca 77bd
00000050: 880e 00be 943b de3d c7ab 39bd e845 b8bd
00000060: dde6 cdbd 3069 c03b 0a39 de3b 849e 993d
00000070: 8e1f ebbd 9af4 493d 8366 dabd 2a07 22bd
00000080: bce5 1dbd 0ba1 ccbd df1a 503d 96bc 643c
00000090: a172 0f3d bf02 07be ba85 ee3d 6ceb 95bd
000000a0: 910d 49bd 4831 563d 9f34 da3c 97ce 6abd
000000b0: 6bb7 bdbb 4771 d43d 6348 8b3d 642e c23d
000000c0: 542f b23d 8316 eebd f9d3 c63d c840 dbbd
000000d0: f47e c73d 0ed8 15bd f44e e43d 7da0 9dbd
000000e0: 27f2 833d 15e3 82bd a67c a1bd 68e6 213c
000000f0: 9546 803d 0d53 833d 4227 8d3b 2c10 443c

lstm_cells.0.W_in.weight f4 [64, 64]
-0.11058925 -0.052716017 0.0101288855 0.11062479 -0.07790735 0.025675982 0.093286514 0.030868575
-0.11794861 0.02101238 -0.094162315 0.018201888 0.10433571 0.11403638 -0.091687754 0.11400761
-0.06562026 -0.022354558 0.08162609 0.05570458 -0.028546482 -0.06677608 -0.08503981 -0.10035446
0.059109718 0.098574474 0.11651485 0.05930847 -0.09754163 0.091298446 -0.03499061 -0.08242555
-0.046783477 -0.048333973 0.094753265 -0.1150042 0.11582582 -0.02448292 -0.07922885 -0.062674806
-0.1118104 -0.12037501 -0.020470396 0.11395688 -0.037569076 -0.03185825 -0.043921858 -0.038213983
-0.008589104 -0.025093272 -0.016099736 -0.10403323 0.11066562 0.11066033 0.028370798 -0.042332083
0.052734837 0.05803445 -0.1175544 -0.09769374 -0.015170351 -0.0035296232 0.11881505 0.11206259
-0.12102863 -0.06207539 -0.039138153 -0.09038174 -0.06135735 -0.034872964 -0.09447473 0.10089202
-0.019710138 0.046258062 0.021304667 -0.036037922 0.018704146 -0.03418681 -0.04600367 -0.095678136
-0.06695348 -0.08513291 -0.0073857605 -0.046736002 0.097295806 0.03640008 -0.004826352 -0.097530305
-0.07809915 0.115051016 -0.10320887 0.10310936 0.030928493 -0.027277425 0.107338235 -0.05404578
0.0077178776 -0.018835112 -0.048523948 0.067950085 -0.045406133 0.08002089 0.010270894 -0.02008593
0.008914828 0.054025933 -0.055684954 -0.101884216 0.008547306 -0.06652807 -0.0422142 0.00447686
-0.0486297 0.10545543 0.10582206 0.09481858 0.09692623 -0.03005749 -0.028860569 -0.0015432537
-0.064438134 -0.112466976 0.064300105 -0.00044320524 0.000967741 -0.0012038648 0.017609 -0.02513346
0.033139452 0.032672957 0.06956212 -0.06876494 0.035417512 0.033216268 0.03804949 -0.10395695
0.02015613 -0.024713933 -0.12316808 -0.12119971 -0.037969932 -0.124276355 -0.07894273 -0.056609556
-0.03621368 -0.051716432 -0.018879756 0.09697418 -0.04022771 0.020728499 0.1146481 -0.046375483
-0.02080831 0.034598187 0.109658 -0.026129901 0.05216655 0.023409232 0.04866615 0.058442056
0.09858222 0.0636995 0.08356394 -0.07838026 0.111106634 0.11817622 -0.0949931 0.016774029
-0.033244923 -0.015849262 0.005584419 -0.015931576 0.10982524 -0.012779519 -0.106834784 0.034014955
0.040791407 -0.10196282 0.03761141 0.08857411 -0.059610248 -0.039721563 0.08118865 0.10674834
0.015731677 -0.101754665 0.051659495 -0.034324676 -0.11249004 0.09883003 0.090062514 0.017889798
-0.116534665 -0.08845796 -0.095463514 0.094789654 0.10172176 -0.09370449 0.06940551 -0.08105391
-0.046336636 -0.051235646 0.066771016 -0.050802812 0.08869326 -0.050856233 0.10571805 0.09416549
0.12103802 -0.076747045 0.041718215 0.060188025 0.036810055 -0.044066653 0.0072601885 -0.054767862
-0.09428842 -0.033602834 -0.086745605 -0.029283479 0.06132622 -0.12159169 -0.065972656 0.02457036
0.08484064 -0.08848789 0.033715814 -0.013292 -0.029514313 0.06506428 -0.032168478 -0.11982952
0.10030514 -0.07404086 0.095297605 -0.08801611 0.10997142 -0.03212948 -0.016715825 -0.07951702
0.018286303 -0.03554876 -0.007070124 0.05435869 -0.052462116 -0.015442088 0.06843746 -0.033721074
-0.11751881 0.09366037 -0.048921183 0.08005962 0.121435955 -0.08113073 -0.04754077 0.07172482
00000000: 9e7c e2bd c0ec 57bd a0f3 253c 408f e23d
00000010: e48d 9fbd 7056 d23c 000d bf3d 18e0 fc3c
00000020: 0a8f f1bd 2822 ac3c 2cd8 c0bd 201c 953c
00000030: f6ad d53d e88b e93d cac6 bbbd d27c e93d
00000040: ea63 86bd e820 b7bc 942b a73d 7c2a 643d
00000050: 50da e9bc e6c1 88bd 5a29 aebd a486 cdbd
00000060: 081d 723d 6ae1 c93d 569f ee3d 70ed 723d
00000070: e8c3 c7bd aefa ba3d 5052 0fbd bace a8bd
00000080: 08a0 3fbd d8f9 45bd 000e c23d 5287 ebbd
00000090: 1636 ed3d 6890 c8bc bc42 a2bd a65b 80bd
000000a0: dafc e4bd 2c87 f6bd 88b1 a7bc 3a62 e93d
000000b0: 08e2 19bd cc7d 02bd 68e7 33bd 4486 1cbd
000000c0: 50b9 0cbc 6890 cdbc 98e3 83bc 600f d5bd
000000d0: a8a4 e23d e2a1 e23d e069 e83c 6864 2dbd
000000e0: 7c00 583d 88b5 6d3d 5cc0 f0bd a813 c8bd
000000f0: 108d 78bc 4051 67bb 4e55 f33d 1281 e53d
00000100: dcdd f7bd c442 7ebd 544f 20bd 101a b9bd
00000110: d851 7bbd f4d6 0ebd f87b c1bd 7aa0 ce3d
00000120: 2877 a1bc 1879 3d3d 2087 ae3c 809c 13bd
00000130: 7039 993c 7807 0cbd 586e 3cbd e6f2 c3bd
00000140: e81e 89bd 2a5a aebd 4004 f2bb 406e 3fbd
00000150: 0643 c73d 4018 153d 6026 9ebb f8bd c7bd
00000160: 72f2 9fbd de9f eb3d 2c5f d3bd 002b d33d
00000170: c05d fd3c e874 dfbc 26d4 db3d 1c5f 5dbd
00000180: 40e6 fc3b 184c 9abc 0cc1 46bd 6a29 8b3d
00000190: c8fb 39bd fee1 a33d 4047 283c 408b a4bc
000001a0: 800f 123c 4c4a 5d3d e815 64bd aca8 d0bd
000001b0: 000a 0c3c de3f 88bd cce8 2cbd a0b2 923b
000001c0: f02f 47bd 04f9 d73d 3cb9 d83d 3e30 c23d
000001d0: 4281 c63d 203b f6bc 006d ecbc 0047 caba
000001e0: 24f8 83bd 1655 e6bd c6af 833d 005e e8b9
000001f0: 00b0 7d3a 00cb 9dba c040 903c b0e4 cdbc
00000200: 3cbd 073d 14d4 053d 9676 8e3d a2d4 8cbd
00000210: f411 113d c80d 083d c8d9 1b3d 62e7 d4bd
00000220: 781e a53c e074 cabc 8c3f fcbd 8e37 f8bd
00000230: 5c86 1bbd 9a84 febd baac a1bd 6cdf 67bd
00000240: cc54 14bd 9cd4 53bd b8a9 9abc 669a c63d
00000250: d0c5 24bd d0ce a93c a0cc ea3d 38f4 3dbd
00000260: 3076 aabc d4b6 0d3d 6094 e03d 600e d6bc
00000270: 98ac 553d b8c4 bf3c 2856 473d f060 6f3d
00000280: 7ae5 c93d e274 823d 9223 ab3d d485 a0bd
00000290: e08b e33d 6006 f23d be8b c2bd b069 893c
000002a0: d42b 08bd 50d6 81bc 80fd b63b f082 82bc
000002b0: 0eec e03d 3061 51bc 32cc dabd 4453 0b3d
000002c0: e414 273d e2d1 d0bd 6c0e 1a3d 5866 b53d
000002d0: e029 74bd 14b3 22bd 3c46 a63d e09e da3d
000002e0: b8df 803c c064 d0bd e898 533d 0898 0cbd
000002f0: 2e61 e6bd 6667 ca3d b272 b83d a08d 923c
00000300: baa9 eebd 7229 b5bd 6082 c3bd 1421 c23d
00000310: 8053 d03d 24e8 bfbd 7a24 8e3d 98ff a5bd
00000320: 7ccb 3dbd 78dc 51bd 3ebf 883d 9c16 50bd
00000330: d0a4 b53d a04e 50bd b482 d83d d6d9 c03d
00000340: c8e2 f73d 8e2d 9dbd b8e0 2a3d b887 763d
00000350: 24c6 163d 3c7f 34bd e0e6 ed3b 4454 60bd
00000360: 4a1a c1bd 20a3 09bd aea7 b1bd e8e3 efbc
00000370: 3431 7b3d 1005 f9bd ac1c 87bd c847 c93c
00000380: eec0 ad3d 2439 b5bd 9819 0a3d b0c6 59bc
00000390: 00c8 f1bc 6c40 853d 18c3 03bd 2e69 f5bd
000003a0: c86c cd3d bca2 97bd 642b c33d ca41 b4bd
000003b0: b238 e13d 349a 03bd a0ef 88bc d2d9 a2bd
000003c0: 28cd 953c 949b 11bd 80ac e7bb 38a7 5e3d
000003d0: 84e2 56bd d000 7dbc f028 8c3d 1c1f 0abd
000003e0: b4ad f0bd 02d1 bf3d 9461 48bd 4cf6 a33d
000003f0: 6ab3 f83d de27 a6bd 1cba 42bd 76e4 923d

lstm_cells.0.W_in.bias f4 [64]
0.08244604 0.04929708 0.103514135 -0.034708306 0.016931519 0.04530455 -0.12463488 -0.030264556
0.024217814 0.09427005 -0.11936456 -0.068211794 -0.02573973 0.04992196 0.006662473 -0.07070787
-0.08846673 -0.10438602 -0.090064615 0.049825773 0.031105444 -0.03159757 -0.093429044 -0.015820548
0.09909639 -0.052363917 0.117378354 -0.07819036 -0.059379026 0.029910326 0.030639946 -0.0006965101
0.009106383 0.09590635 -0.10109906 0.12228903 0.035547927 0.02602303 -0.031276822 0.10835087
-0.04862027 -0.010415494 0.10956289 0.11749786 -0.03976953 0.031089798 0.050288096 -0.096910045
-0.024303049 -0.07132758 -0.09958063 0.10377641 0.114165574 -0.030429825 -0.108250454 0.0059557855
-0.0009773374 0.12226364 0.0838785 -0.040787384 -0.028161362 0.048496395 0.0011471659 0.10845119
00000000: 78d9 a83d bceb 493d 38ff d33d 4c2a 0ebd
00000010: f8b3 8a3c 4491 393d 9240 ffbd 60ed f7bc
00000020: 7064 c63c a810 c13d 6875 f4bd a0b2 8bbd
00000030: 20dc d2bc f87a 4c3d e050 da3b 4acf 90bd
00000040: 0c2e b5bd 56c8 d5bd cc73 b8bd 1c16 4c3d
00000050: d8d0 fe3c 746c 01bd ba57 bfbd 189a 81bc
00000060: 0cf3 ca3d 8c7b 56bd 1064 f03d 4422 a0bd
00000070: 6c37 73bd 8006 f53c a000 fb3c 0096 36ba
00000080: f032 153c 8c6a c43d 060d cfbd ac72 fa3d
00000090: b49a 113d 402e d53c 201c 00bd 10e7 dd3d
000000a0: 0c26 47bd c0a5 2abc 8262 e03d b8a2 f03d
000000b0: 60e5 22bd 08b0 fe3c e4fa 4d3d c678 c6bd
000000c0: 3017 c7bc 3214 92bd eef0 cbbd ba88 d43d
000000d0: a4cf e93d f847 f9bc 6ab2 ddbd c028 c33b
000000e0: 001a 80ba 5c65 fa3d 7ec8 ab3d ac10 27bd
000000f0: a8b2 e6bc 28a4 463d 805c 963a a81b de3d

W_h.weight f4 [64, 64]
-0.11570483 0.07875043 -0.0010447368 -0.0832017 -0.024235075 -0.04133847 0.016361253 0.07215654
-0.06116368 -0.050783567 -0.05785002 0.12248582 0.02222484 0.11682201 -0.0926701 -0.030167352
-0.0008461609 0.12349268 0.08715468 -0.11305199 0.11163985 0.08177166 -0.05055222 -0.023696128
-0.04712389 0.10953561 -0.054963954 0.014346067 -0.092929035 -0.10510099 0.10904466 0.032967288
0.11897366 -0.11690665 0.10964284 -0.107359335 0.1159338 -0.090062074 0.0683657 -0.079260156
-0.04723516 -0.052016698 -0.110583976 0.121292695 0.06695344 0.04632434 -0.08675454 0.0155638475
-0.11021887 0.02981972 -0.083991066 -0.10925443 -0.016318902 0.11545442 0.08700545 0.09572976
0.006127775 0.04092862 -0.025302859 0.009431242 -0.011965662 0.10790653 0.036253795 -0.011335898
0.08891086 -0.083122484 -0.08171179 -0.08698613 0.007859471 0.08815309 -0.065619186 -0.11935191
0.011554815 -0.07950494 0.035546463 0.029065778 -0.059096012 -0.013135458 -0.09923909 0.11674507
-0.025668783 -0.07236856 -0.06715584 0.07769902 -0.1159218 0.11968126 0.026316654 0.062190056
0.07381188 0.101997964 0.09078577 0.04679583 -0.073221676 -0.12489252 0.10651474 -0.07826515
0.06413521 0.03709095 -0.12084576 0.07551529 0.12442961 -0.10587619 0.05456238 0.12771986
-0.10008623 0.10219863 -0.103693105 -0.11065054 -0.039078005 0.020151261 0.0070644193 -0.11486144
0.04119521 -0.10361192 0.12164344 -0.083753265 -0.11898844 0.038662385 0.023812352 -0.0576069
-0.10951061 -0.11065396 0.055581704 0.055444248 -0.0036782355 0.110012755 -0.09730005 -0.073148675
-0.09736394 -0.001702992 -0.06990166 -0.08083338 -0.00832029 -0.017724268 -0.05158515 -0.09006898
0.108819224 0.11605727 -0.027776016 0.098153554 0.0534678 0.06660061 0.051453635 -0.0367845
0.1243791 0.13455726 0.07199392 -0.09098605 -0.09315687 0.01358983 0.0693601 0.022362195
-0.04311654 0.07615453 -0.11108329 -0.013822164 0.12461629 0.069045104 -0.11007526 0.11885807
0.059772983 -0.08134567 0.039044444 -0.042676877 -0.107314825 -0.08085663 -0.00994806 -0.0039367992
-0.0998882 0.08574075 0.01644531 -0.0011379834 -0.03578053 0.081852965 -0.08930076 -0.04793107
-0.010306883 0.024147276 -0.05591829 0.09805896 0.030446757 0.10853454 0.037322827 0.065067954
-0.10644844 -0.013915714 0.08405701 0.09062208 -0.001453578 -0.07255663 0.12956358 0.06104052
-0.060496118 0.0010077008 -0.12461811 -0.06057796 -0.008111645 0.094300315 0.07896222 -0.054436147
-0.1014229 -0.03829857 0.0606619 -0.07613037 -0.08171807 0.07317201 -0.09669467 -0.101376094
0.10152046 -0.029179497 -0.0992501 0.11883398 0.060332444 -0.03481117 -0.08835627 0.08480576
0.015163282 -0.070022315 0.10364223 0.12062429 -0.07802939 -0.024064602 -0.091736875 0.019963829
-0.05904654 -0.013765917 0.10790207 0.07294707 -0.10918293 0.0784829 0.07431409 -0.039779015
-0.023406163 -0.01429067 -0.062048484 -0.04944753 0.0023049023 0.05945384 0.026676048 0.10442849
-0.122015424 -0.025629094 -0.07833538 -0.010365214 0.121204905 -0.07621613 -0.11205023 -0.065384716
0.030163769 0.020550802 0.12287856 0.013251573 -0.12855662 0.035701297 0.033424318 0.018143028
00000000: a7f6 ecbd e847 a13d 8def 88ba a765 aabd
00000010: a388 c6bc 8752 29bd 0908 863c cfc6 933d
00000020: c486 7abd 6e02 50bd 24f4 6cbd d8d9 fa3d
00000030: de10 b63c 6140 ef3d d2c9 bdbd 8621 f7bc
00000040: e6d0 5dba bbe9 fc3d 277e b23d cd87 e7bd
00000050: 6fa3 e43d e677 a73d d80f 4fbd 621e c2bc
00000060: fb04 41bd 3554 e03d e221 61bd c40b 6b3c
00000070: 9451 bebd 303f d7bd cf52 df3d b508 073d
00000080: 76a8 f33d c16c efbd 6d8c e03d 36df dbbd
00000090: b36e ed3d 7772 b8bd 5103 8c3d 2653 a2bd
000000a0: a879 41bd 760f 55bd da79 e2bd 4e68 f83d
000000b0: e31e 893d 97be 3d3d 5dac b1bd 82ff 7e3c
000000c0: 6eba e1bd 7c48 f43c 8203 acbd c9c0 dfbd
000000d0: 38af 85bc 5e73 ec3d ea2f b23d f70d c43d
000000e0: 81cb c83b c5a4 273d f147 cfbc 7f85 1a3c
000000f0: a00b 44bc 19fe dc3d dc7e 143d 34ba 39bc
00000100: e616 b63d 1f3c aabd 8358 a7bd c925 b2bd
00000110: 03c5 003c 9b89 b43d 5a63 86bd c66e f4bd
00000120: 6850 3d3c 7cd3 a2bd 2b99 113d 5b1b ee3c
00000130: a90e 72bd 1b36 57bc dd3d cbbd 0a18 ef3d
00000140: 5747 d2bc f835 94bd 0089 89bd aa20 9f3d
00000150: 6968 edbd 731b f53d 0696 d73c 00bb 7e3d
00000160: af2a 973d 4fe4 d03d e4ed b93d fcac 3f3d
00000170: 3ff5 95bd a6c7 ffbd 6624 da3d 7b49 a0bd
00000180: 5259 833d aeec 173d fb7d f7bd c3a7 9a3d
00000190: f4d4 fe3d 9ed5 d8bd cd7c 5f3d ffc8 023e
000001a0: 02fa ccbd 844d d13d 0d5d d4bd c09c e2bd
000001b0: 4210 20bd 4214 a53c a57c e73b 7a3c ebbd
000001c0: 4fbc 283d 7c32 d4bd 3220 f93d d586 abbd
000001d0: 36b0 f3bd 735c 1e3d 1f12 c33c 36f5 6bbd
000001e0: 1947 e0bd 8b9e e2bd a4a9 633d 8219 633d
000001f0: 8d0e 71bb 5e4e e13d 4045 c7bd f9ce 95bd
00000200: bf66 c7bd ee36 dfba 9a28 8fbd f98b a5bd
00000210: d351 08bc 7c32 91bc f34a 53bd 1676 b8bd
00000220: 9ddc de3d 6faf ed3d 878a e3bc bb04 c93d
00000230: 0d01 5b3d e765 883d 0cc1 523d 58ab 16bd
00000240: 78ba fe3d 61c9 093e 8c71 933d e556 babd
00000250: 07c9 bebd e1a7 5e3c ab0c 8e3d ec30 b73c
00000260: f89a 30bd e8f6 9b3d a37f e3bd 5c76 62bc
00000270: d336 ff3d 8567 8d3d 236f e1bd dc6b f33d
00000280: 84d4 743d 8f98 a6bd 11ed 1f3d f3cd 2ebd
00000290: e0c7 dbbd 2998 a5bd 30fd 22bc 4400 81bb
000002a0: 2f92 ccbd d998 af3d 51b8 863c 6328 95ba
000002b0: 9b8e 12bd 87a2 a73d 51e3 b6bd 5f53 44bd
000002c0: 33de 28bc 82d0 c53c 940a 65bd 23d3 c83d
000002d0: 7a6b f93c 5b47 de3d d2df 183d 5942 853d
000002e0: a401 dabd bcfe 63bc 1526 ac3d 1298 b93d
000002f0: fc85 beba 9298 94bd 51ac 043e a005 7a3d
00000300: c7ca 77bd d414 843a c837 ffbd 9820 78bd
00000310: b4e6 04bc 8620 c13d f2b6 a13d 70f8 5ebd
00000320: cfb6 cfbd f6de 1cbd 9d78 783d 3dea 9bbd
00000330: ce5b a7bd 35db 953d db07 c6bd 459e cfbd
00000340: f5e9 cf3d d709 efbc a343 cbbd 3b5f f33d
00000350: 271f 773d 2896 0ebd 22f4 b4bd a4ae ad3d
00000360: 6a6f 783c dc67 8fbd 6142 d43d de09 f73d
00000370: dfcd 9fbd 2123 c5bc 8be0 bbbd 2f8b a33c
00000380: c9da 71bd 718a 61bc c3fb dc3d 4665 953d
00000390: 4d9b dfbd a5bb a03d fc31 983d 52ef 22bd
000003a0: 48be bfbc 6a23 6abc 8d26 7ebd 7e89 4abd
000003b0: d80d 173b df85 733d ba87 da3c 9bde d53d
000003c0: 39e3 f9bd 1bf4 d1bc 4d6e a0bd dcd2 29bc
000003d0: 473a f83d 3417 9cbd 977a e5bd 6ce8 85bd
000003e0: 021a f73c 285a a83c c1a7 fb3d 201d 593c
000003f0: 59a4 03be 863b 123d f0e7 083d b0a0 943c

W_h.bias f4 [64]
0.06603835 -0.113655925 0.0036966908 0.11648064 0.03244669 0.08889605 0.06982463 0.07981019
-0.03082441 -0.058569156 -0.07795519 -0.09334561 0.105748 -0.0012431609 -0.04054443 -0.06267711
0.061120383 0.03699268 -0.047042772 -0.018344795 0.058451425 0.0010193026 0.0549962 -0.03579781
0.014226877 -0.1122736 -0.020087479 0.015646959 -0.11157064 0.1102647 0.08430483 0.1100547
-0.103074454 -0.01075028 0.10858267 0.113680646 -0.09198682 0.008134919 0.07699536 0.00030489796
-0.03948602 -0.11966587 -0.1191937 -0.02936523 -0.08151816 0.10008198 -0.00911065 0.012794558
-0.034349523 -0.0025949616 0.045904547 -0.035285123 -0.016919084 -0.01441871 -0.04458896 -0.12535961
0.02388229 -0.11580277 0.034623332 0.09531186 0.01572666 -0.09993146 -0.097120315 0.006837927
00000000: 1d3f 873d 70c4 e8bd 2e44 723b 678d ee3d
00000010: d2e6 043d 220f b63d 3700 8f3d 8673 a33d
00000020: 7983 fcbc 36e6 6fbd f8a6 9fbd fc2b bfbd
00000030: 6892 d83d 8ff1 a2ba eb11 26bd db5c 80bd
00000040: 5e59 7a3d a385 173d ecaf 40bd d347 96bc
00000050: c36a 6f3d 1f9a 853a b243 613d b9a0 12bd
00000060: d917 693c b4ef e5bd 7f8e a4bc 0d2e 803c
00000070: 267f e4bd 76d2 e13d 03a8 ac3d 5c64 e13d
00000080: b318 d3bd f121 30bc 9760 de3d 66d1 e83d
00000090: 9663 bcbd 5348 053c beaf 9d3d b6da 9f39
000000a0: 18bc 21bd 6113 f5bd d41b f4bd 5a8f f0bc
000000b0: fef2 a6bd c8f7 cc3d d644 15bc 44a0 513c
000000c0: 16b2 0cbd 3b10 2abb 6806 3c3d 2287 10bd
000000d0: e499 8abc 743c 6cbc eaa2 36bd 455e 00be
000000e0: cba4 c33c 012a edbd 32d1 0d3d dd32 c33d
000000f0: 32d5 803c dea8 ccbd 04e7 c6bd b010 e03b

W_g.weight f4 [64, 64]
0.017332694 0.06753982 0.079202466 0.084500335 0.06048865 0.030250603 0.04778114 -0.1155499
-0.116753526 -0.056780845 0.038462117 0.026095724 0.0066556064 -0.10061849 0.07987768 -0.109716944
0.03674741 -0.109232835 0.031525902 -0.008145262 -0.06516399 0.06487558 -0.024177724 -0.035482943
0.101920374 0.003222659 0.11106988 -0.04953921 -0.10154595 -0.046995193 -0.10589025 0.11186258
0.09979715 -0.11781091 0.040509984 0.007072826 -0.032761246 0.117003255 0.08593025 0.12439148
0.10576006 -0.02573132 0.10737773 0.08230869 0.058292106 0.05384168 -0.027835498 -0.086771555
0.10566216 0.059387326 -0.10792131 -0.10486128 0.034000307 -0.09473812 0.05772485 0.016167512
-0.049758524 -0.06240578 0.072831266 0.04577945 -0.013580587 -0.1171288 0.1180497 0.09889167
-0.10448531 -0.096392624 -0.021377817 0.09883731 0.053743146 0.10137095 -0.009829799 -0.09486707
-0.112189464 0.008736094 -0.050193034 0.09266957 -0.0009685987 -0.047197096 0.090376996 0.033215947
-0.0083455555 -0.11513596 -0.09149129 0.024363786 0.05815483 0.12087562 0.014616638 0.06371976
0.11304348 0.010168454 -0.05866512 0.08933679 -0.06642807 0.114616 -0.018965632 -0.058139227
-0.011837447 0.12431086 -0.07054772 -0.040166534 -0.07342028 0.06253396 -0.117876075 0.10128368
0.11567805 0.059704848 -0.03276127 -0.015385805 0.08083197 -0.056155182 0.05943822 -0.02148214
-0.03263642 0.047972344 0.0058286693 -0.017925844 -0.11520057 0.1029279 0.10804748 0.026616856
-0.033207223 -0.09326164 -0.085325696 0.07781463 0.122069694 0.029955171 -0.057218708 -0.036504097
0.05999311 -0.049674608 -0.06375855 0.018065222 0.003077166 0.08062592 -0.07254195 -0.044665553
-0.09480132 -0.023548104 -0.0084343115 -0.103220195 0.073481694 -0.07572621 -0.04669135 -0.09010516
0.01090994 0.07337737 0.11870062 -0.09597859 0.054308034 0.12360617 0.026178889 -0.06195231
-0.11324966 0.09296137 0.119442135 0.11164825 -0.0121737765 -0.081992984 0.08574608 -0.095554635
0.07980329 0.076473534 0.050950997 0.026864775 -0.076538235 -0.0182975 0.026230402 -0.018736638
-0.030905602 0.09573455 0.10036126 -0.023582898 -0.031797677 -0.10758604 0.01904013 0.10379289
0.06248486 -0.059908442 0.009389232 -0.10611983 -0.0037723181 -0.06620377 0.08196813 0.061637595
0.071342975 -0.002187325 -0.020166524 -0.08515912 0.05023711 0.0020070828 -0.023729675 0.08304833
0.12067417 0.041826494 -0.12135995 0.11639551 0.12291289 -0.0325711 -0.10401992 0.029010076
-0.037665673 0.01665161 -0.032908075 -0.00018052707 -0.021963429 -0.11721901 -0.030474713 -0.09410552
-0.09357879 -0.043140702 -0.08001151 0.00037046827 0.115496926 0.03983558 0.12504093 -0.0376836
-0.0084888525 -0.10834273 0.07761281 0.02071542 -0.074165635 0.11456215 -0.028580718 -0.00991841
0.014418852 -0.114935316 0.06883055 0.10856556 -0.083143376 -0.089326434 -0.09347216 -0.0075743217
-0.030865323 0.1265923 0.07709607 -0.043101527 -0.0995838 -0.063530035 0.0075702453 -0.084358744
-0.030029181 0.12645945 -0.052653648 0.10427862 0.080660574 -0.09941407 -0.07067553 0.035460785
0.12380586 0.033757623 -0.09704348 0.021283198 -0.09006863 0.083323665 -0.0062195407 0.06840022
00000000: 4bfd 8d3c 5152 8a3d e734 a23d 830e ad3d
00000010: f2c2 773d 1dd0 f73c 28b6 433d 6da5 ecbd
00000020: 791c efbd 0893 68bd 748a 1d3d b3c6 d53c
00000030: 4617 da3b 1111 cebd e996 a33d 47b3 e0bd
00000040: 7484 163d 77b5 dfbd 4e21 013d b473 05bc
00000050: b374 85bd 7ddd 843d 5d10 c6bc 9056 11bd
00000060: a1bb d03d 3f33 533b 9b78 e33d a0e9 4abd
00000070: 53f7 cfbd 087e 40bd fddc d8bd 3518 e53d
00000080: 7362 cc3d d946 f1bd cced 253d 2ac3 e73b
00000090: a830 06bd 679f ef3d 33fc af3d f6c0 fe3d
000000a0: bb98 d83d 7dca d2bc dbe8 db3d 7591 a83d
000000b0: b4c3 6e3d 1889 5c3d 4507 e4bc 49b5 b1bd
000000c0: 6765 d83d 2040 733d d905 ddbd 83c1 d6bd
000000d0: e843 0b3d 0f06 c2bd e470 6c3d bb71 843c
000000e0: 98cf 4bbd 349d 7fbd 8f28 953d 3c83 3b3d
000000f0: 1c81 5ebc 39e1 efbd 0bc4 f13d b787 ca3d
00000100: 65fc d5bd 7f69 c5bd 8820 afbc 376b ca3d
00000110: c621 5c3d 939b cf3d 2a0d 21bc ab49 c2bd
00000120: 97c3 e5bd d621 0f3c 3697 4dbd 8bc9 bd3d
00000130: 8fe9 7dba be51 41bd 9317 b93d 720d 083d
00000140: ccbb 08bc 67cc ebbd c95f bbbd 9096 c73c
00000150: c233 6e3d a38d f73d a07a 6f3c 817f 823d
00000160: 5783 e73d 9699 263c d64a 70bd 35f6 b63d
00000170: 710b 88bd cbbb ea3d d05d 9bbc 6623 6ebd
00000180: daf1 41bc b196 fe3d 537b 90bd aa85 24bd
00000190: 5f5d 96bd ce11 803d 0369 f1bd d16d cf3d
000001a0: 9de8 ec3d 128d 743d ae30 06bd be14 7cbc
000001b0: 3b8b a53d fa02 66bd 7e75 733d 50fb afbc
000001c0: c4ad 05bd a67e 443d 6cfe be3b 38d9 92bc
000001d0: 47ee ebbd ddcb d23d ff47 dd3d 980b da3c
000001e0: 4c04 08bd f5ff bebd 3dbf aebd 475d 9f3d
000001f0: adff f93d 8c64 f53c 2a5e 6abd 5285 15bd
00000200: 56bb 753d 9a77 4bbd d893 82bd 84fd 933c
00000210: 47aa 493b 341f a53d e090 94bd 3af3 36bd
00000220: 3227 c2bd f4e7 c0bc 1130 0abc 1c65 d3bd
00000230: 927d 963d 5816 9bbd 6e3f 3fbd 0e89 b8bd
00000240: 9bbf 323c e046 963d 5019 f33d 6c90 c4bd
00000250: 1a72 5e3d 3b25 fd3d 1c75 d63c b5c1 7dbd
00000260: 70ef e7bd 8862 be3d 149e f43d d6a7 e43d
00000270: 8574 47bc f0eb a7bd a49b af3d 26b2 c3bd
00000280: e86f a33d 289e 9c3d feb1 503d 8413 dc3c
00000290: 14c0 9cbd a4e4 95bc 24e1 d63c 947d 99bc
000002a0: bf2d fdbc 7a10 c43d 348a cd3d ec30 c1bc
000002b0: 483e 02bd 1256 dcbd 0cfa 9b3c 5e91 d43d
000002c0: 20f0 7f3d 8e62 75bd 4bd5 193c 5a55 d9bd
000002d0: ff38 77bb d895 87bd e8de a73d b477 7c3d
000002e0: 441c 923d 3959 0fbb 4434 a5bc e867 aebd
000002f0: 6ec5 4d3d 4389 033b bc64 c2bc 3e15 aa3d
00000300: 0524 f73d 4252 2b3d 918b f8bd c560 ee3d
00000310: c1b9 fb3d 4669 05bd 6508 d5bd 8aa6 ed3c
00000320: 5247 1abd f568 883c 9eca 06bd de4b 3db9
00000330: a6ec b3bc 8510 f0bd 1ba6 f9bc 65ba c0bd
00000340: 3da6 bfbd 4eb4 30bd 13dd a3bd 693b c239
00000350: a789 ec3d a22a 233d bb0a 003e 1e5a 1abd
00000360: d414 0bbc cbe2 ddbd 77f3 9e3d 62b3 a93c
00000370: 27e4 97bd 8f9f ea3d 1c22 eabc d480 22bc
00000380: 0c3d 6c3c 3563 ebbd 08f7 8c3d 9f57 de3d
00000390: 1347 aabd c7f0 b6bd 556e bfbd 0432 f8bb
000003a0: 46d9 fcbc 69a1 013e 8be4 9d3d 3a8b 30bd
000003b0: 97f2 cbbd 091c 82bd d20f f83b 47c4 acbd
000003c0: c2ff f5bc 967e 013e 5aab 57bd 0790 d53d
000003d0: 5f31 a53d 9b99 cbbd 55be 90bd 543f 113d
000003e0: ed8d fd3d 6f45 0a3d bbbe c6bd 1a5a ae3c
000003f0: e775 b8bd 99a5 aa3d 4acd cbbb 6a15 8c3d

W_g.bias f4 [64]
-0.040990815 0.06025191 -0.06546644 0.020193297 -0.08862232 0.07564379 0.10997235 -0.12095122
-0.01637793 0.1107542 0.0701035 0.11348514 0.07415709 -0.07698339 0.019023387 0.040704012
0.025707837 -0.10756112 -0.10875865 -0.07972966 -0.10491784 0.07226425 -0.08458702 0.076293066
0.08340263 -0.10163559 -0.052251328 0.05588682 0.0229028 0.07506983 0.09827299 -0.082068786
0.07088841 -0.032143902 -0.12410378 -0.11012998 0.10742578 0.10939094 0.09049666 -0.007463794
-0.0003760088 -0.059655845 -0.059808794 -0.05837047 -0.09722662 -0.065259874 0.03370521 0.07230628
0.09372206 0.09613927 -0.0854312 0.021174457 0.071532175 -0.12265851 -0.0818314 0.028361952
-0.0750465 -0.100345306 -0.075922936 0.048522454 0.023669792 0.049134698 -0.032720488 0.08027691
00000000: fce5 27bd b5ca 763d 4513 86bd 6a6c a53c
00000010: 9e7f b5bd 22eb 9a3d 2f39 e13d 46b5 f7bd
00000020: 022b 86bc 19d3 e23d 6c92 8f3d e66a e83d
00000030: acdf 973d 78a9 9dbd efd6 9b3c 40b9 263d
00000040: 3e99 d23c 0149 dcbd dbbc debd 4e49 a3bd
00000050: 2adf d6bd 47ff 933d f63b adbd 8a3f 9c3d
00000060: 00cf aa3d 5226 d0bd 7d05 56bd 94e9 643d
00000070: a79e bb3c 36be 993d 5943 c93d ae13 a8bd
00000080: f12d 913d 53a9 03bd 1f2a febd d48b e1bd
00000090: 0c02 dc3d 5b08 e03d 5056 b93d d892 f4bb
000000a0: 0c23 c5b9 b059 74bd 11fa 74bd e015 6fbd
000000b0: c01e c7bd f8a6 85bd 790e 0a3d 5115 943d
000000c0: 5af1 bf3d aae4 c43d 8ef6 aebd 0e76 ad3c
000000d0: 767f 923d 6334 fbbd 3997 a7bd 5357 e83c
000000e0: fbb1 99bd d781 cdbd 7c7d 9bbd 7bbf 463d
000000f0: 27e7 c13c 7741 493d eb05 06bd 3868 a43d

W_x.weight f4 [64, 1]
0.25948644 0.32583162 0.8487184 -0.6805643 0.79414505 -0.89561546 0.9727778 0.9312182
0.35065818 0.89681315 -0.49972886 0.07102204 -0.18838112 0.052584007 0.815311 -0.24508359
-0.24789271 0.5450518 0.1137048 -0.17472784 -0.55835634 0.61158323 0.3670329 -0.75540453
0.3600411 -0.81463087 0.7868874 0.13493423 0.9231653 -0.24346866 -0.6594897 0.39840236
-0.38506654 0.5881335 -0.8292615 -0.7105495 0.7150306 -0.55267566 0.011330609 -0.15062529
0.02782406 -0.30160615 0.1375334 -0.0011534223 -0.55940247 0.028709821 -0.9464997 0.8484876
-0.037506275 -0.47126517 0.033338808 -0.3212468 0.43034774 -0.056726877 -0.93495756 0.8428668
0.4178289 -0.62358177 0.6313882 0.63284844 0.47058323 0.17171998 -0.15809351 0.09628797
00000000: 68db 843e 67d3 a63e 9c45 593f 7639 2ebf
00000010: 174d 4b3f 0e47 65bf f707 793f 5164 6e3f
00000020: 7889 b33e 8c95 653f 76dc ffbe 0174 913d
00000030: fbe6 40be 5462 573d 39b8 503f 31f7 7abe
00000040: 96d7 7dbe 8488 0b3f 10de e83d dbeb 32be
00000050: 71f0 0ebf b890 1c3f bceb bb3e 3162 41bf
00000060: 4f57 b83e a68b 50bf 7471 493f 332c 0a3e
00000070: 9054 6c3f d94f 79be 51d4 28bf 65fb cb3e
00000080: 7127 c5be eb8f 163f 7b4a 54bf 92e6 35bf
00000090: 3f0c 373f 277c 0dbf 05a4 393c 843d 1abe
000000a0: 48ef e33c 1f6c 9abe 8ed5 0c3e 6e2e 97ba
000000b0: 0035 0fbf dc30 eb3c ce4d 72bf 7c36 593f
000000c0: 2ea0 19bd ab49 f1be 468e 083d 767a a4be
000000d0: 8a56 dc3e 715a 68bd 6159 6fbf 1ec6 573f
000000e0: abed d53e 0ea3 1fbf a8a2 213f 5b02 223f
000000f0: 49f0 f03e 5dd7 2f3e 44e3 21be a132 c53d

W_x.bias f4 [64]
0.98479 -0.2700066 0.74798286 -0.7868364 0.9213323 0.57745975 -0.858921 0.18951407
-0.4971679 -0.8859977 -0.51484114 -0.68761474 0.955296 -0.23723325 0.4816201 -0.13817737
-0.9246315 0.1490048 0.10204462 -0.5925647 0.6124216 0.5891484 0.27795526 0.33631897
0.52160496 -0.42398176 0.35163632 0.42110893 -0.24572647 0.34853777 -0.028327046 0.74223393
0.70967907 0.9373524 0.6116914 -0.985986 -0.9310668 -0.36031154 0.3376715 -0.39276037
-0.93795484 0.23210669 0.22975166 0.72610265 -0.6771718 0.4553308 0.20223884 0.83980167
0.56827825 -0.48969617 -0.7032159 0.317076 0.95072377 -0.3038422 -0.60179305 0.07533972
0.8392844 0.9446202 0.73202133 -0.9786993 -0.07524161 -0.5913959 0.14093834 -0.29582846
00000000: 331b 7c3f 4e3e 8abe ce7b 3f3f 1c6e 49bf
00000010: 6fdc 6b3f 67d4 133f 3fe2 5bbf fa0f 423e
00000020: ca8c febe bfd0 62bf a1cc 03bf 8507 30bf
00000030: 478e 743f 46ed 72be e996 f63e 5e7e 0dbe
00000040: a6b4 6cbf b794 183e c5fc d03d 52b2 17bf
00000050: a9c7 1c3f 6ed2 163f 2750 8e3e 0032 ac3e
00000060: e787 053f 2314 d9be ad09 b43e 979b d73e
00000070: b89f 7bbe 8b73 b23e 1f0e e8bc 0b03 3e3f
00000080: 87ad 353f 54f6 6f3f cf97 1c3f 9469 7cbf
00000090: 655a 6ebf c17a b8be 47e3 ac3e e317 c9be
000000a0: cf1d 70bf 60ad 6d3e 0544 6b3e dde1 393f
000000b0: 225b 2dbf 1e21 e93e b317 4f3e 3efd 563f
000000c0: af7a 113f 75b9 fabe f505 34bf c957 a23e
000000d0: a262 733f 3491 9bbe 1c0f 1abf b64b 9a3d
000000e0: 58db 563f a1d2 713f c065 3b3f 0a8c 7abf
000000f0: 4618 9abd b965 17bf 2452 103e d476 97be

W_1d.weight f4 [1, 64]
-0.105057254 -0.040096667 -0.0655389 0.0055058445 0.0006513808 -0.06643675 -0.09201654 0.06697012
-0.0428851 -0.09009109 0.063950576 0.0003641178 -0.008955207 0.0028828536 0.046737127 -0.087723054
0.10675533 8.332217e-05 -0.09293829 -0.03978425 -0.04106615 -0.012138542 0.00021288167 -0.09494104
0.09620556 0.057703022 -0.024841174 -0.0035158964 0.022446344 0.033759005 -0.09828764 0.10434319
-4.794765e-05 0.017499927 0.033241265 -0.053987943 -0.059185784 0.028984964 0.023919614 -0.03461132
-0.07178125 -3.1480664e-05 -0.028067676 -0.009360716 -0.104998805 0.0015297581 0.021099824 0.0007720844
-0.112204894 0.055738125 -0.07185626 -0.0001785655 -0.04096641 0.09594808 -0.07046986 0.034738403
0.07004899 0.058485832 0.09447194 0.06976045 0.11295571 -0.052658807 -0.042912297 -0.033550546
00000000: 4228 d7bd 673c 24bd 4239 86bd 5f6a b43b
00000010: 6dc1 2a3a fe0f 88bd 2b73 bcbd a127 893d
00000020: 49a8 2fbd ad81 b8bd 85f8 823d 10e7 be39
00000030: dcb8 12bc 42ee 3c3b 6e6f 3f3d 25a8 b3bd
00000040: 8aa2 da3d 40bd ae38 6e56 bebd cff4 22bd
00000050: fb34 28bd bce0 46bc fd38 5f39 7370 c2bd
00000060: 6c07 c53d 015a 6c3d b87f cbbc f46a 66bb
00000070: 65e1 b73c e246 0a3d 084b c9bd e2b1 d53d
00000080: 661b 49b8 025c 8f3c fe27 083d 7622 5dbd
00000090: cb6c 72bd e071 ed3c 11f3 c33c 99c4 0dbd
000000a0: 0c02 93bd 1b0a 04b8 2fee e5bc b05d 19bc
000000b0: 9d09 d7bd 2a82 c83a 8ad9 ac3c b565 4a3a
000000c0: aecb e5bd a94d 643d 6029 93bd 503d 3bb9
000000d0: 65cc 27bd 6d80 c43d 8152 90bd db49 0e3d
000000e0: d875 8f3d d78e 6f3d 817a c13d 91de 8e3d
000000f0: 5355 e73d c3b0 57bd cec4 2fbd 4c6c 09bd
