model_weight/best_CHINA_model.pth (torch, 73843 bytes, 14 tensors)

lstm_cells.0.b_c f4 [64]
-0.0010040067 0.0043887324 0.006097963 0.0013782039 -0.012690698 0.0067617074 0.00073767285 0.0026163638
-0.00064155296 -0.0045329225 -0.01165259 -0.010111305 0.0027252568 0.0039490983 0.008539021 -0.0017368135
0.0005979694 -0.0109090395 0.0009503087 -0.0035635848 -0.003764854 0.0012617586 -0.0022016119 -0.0011787271
0.004415363 -0.004340833 -0.006487991 -0.0051149293 0.007460231 0.009153659 -0.0017771091 0.00063332537
0.0034596468 0.0018962175 0.0051967534 0.012237757 0.00412048 -0.0014379264 -0.003362554 0.012100812
-0.0049991836 -0.004407473 0.0023491648 -0.007094419 -0.003419894 0.0012988583 -0.007457944 -0.0017878421
-0.005453439 0.0035985427 -0.0014667065 0.004405194 0.00016962942 -0.004110698 0.004996927 0.00085970113
-0.0057108924 -0.003846082 0.003233122 0.0013608377 -0.0031897672 0.002057843 0.0031712514 0.012883465
00000000: e098 83ba 5bcf 8f3b 6cd1 c73b d9a4 b43a
00000010: a5ec 4fbc 5091 dd3b 6360 413a 4d77 2b3b
00000020: e42d 28ba e988 94bb 81ea 3ebc e3a9 25bc
00000030: 399a 323b 7067 813b 40e7 0b3c caa5 e3ba
00000040: 0cc1 1c3a d4bb 32bc 231e 793a 088b 69bb
00000050: c5bb 76bb 9861 a53a eb48 10bb 857f 9aba
00000060: c0ae 903b 8c3d 8ebb 3799 d4bb 239b a7bb
00000070: f474 f43b 3bf9 153c e3ed e8ba bf05 263a
00000080: 3ebb 623b 808a f83a 8749 aa3b e080 483c
00000090: 1705 873b ce78 bcba 4b5e 5cbb 7c42 463c
000000a0: 31d0 a3bb 906c 90bb 72f4 193b 4d78 e8bb
000000b0: 4d20 60bb 743e aa3a c561 f4bb 0756 eaba
000000c0: c3b2 b2bb 87d5 6b3b 813e c0ba 7259 903b
000000d0: 8dde 3139 09b3 86bb 43bd a33b 915d 613a
000000e0: 7022 bbbb 8c0e 7cbb c9e2 533b 235e b23a
000000f0: 6a0b 51bb e0dc 063b c5d4 4f3b 2b15 533c

lstm_cells.0.W_ic.weight f4 [64, 1]
-0.5975138 -0.27144364 -0.6613284 -0.574983 -0.68055683 0.9280339 -0.3467915 -0.8614657
-0.97662437 0.22763109 -0.37041306 -0.59615254 0.41676566 0.29217932 0.037950486 -0.714729
-0.94876003 -0.9565242 0.34826338 -0.12837806 -0.95734733 0.55140036 -0.7774518 0.85807765
0.4857736 -0.4090557 0.9981234 -0.37971994 -0.84297657 0.7166495 0.4405232 -0.40633515
-0.086253434 -0.7373128 -0.42284006 0.55348366 0.7029479 0.4467642 -0.4001875 0.4491257
0.08554641 -0.9268221 0.75651485 0.09125861 0.50862944 -0.56452936 -0.73769426 -0.23337753
0.19495407 0.8869885 -0.9702034 0.9058852 -0.85267586 -0.91757894 -0.09157435 0.08958511
-0.28897065 0.68581086 0.9820478 0.78512996 0.7290231 0.81773794 0.047790386 -0.3032252
00000000: aaf6 18bf a9fa 8abe d14c 29bf 1632 13bf
00000010: f938 2ebf a193 6d3f a88e b1be 0489 5cbf
00000020: 0e04 7abf 2018 693e c8a6 bdbe 749d 18bf
00000030: 4f62 d53e 8798 953e f871 1b3d 7bf8 36bf
00000040: f0e1 72bf c5de 74bf 944f b23e 8a75 03be
00000050: b714 75bf 9328 0d3f 1507 47bf faaa 5b3f
00000060: 51b7 f83e c06f d1be 0485 7f3f a76a c2be
00000070: 50cd 57bf 5776 373f 428c e13e 290b d0be
00000080: a4a5 b0bd 88c0 3cbf 7e7e d8be 1bb1 0d3f
00000090: 65f4 333f 47be e43e 60e5 ccbe cef3 e53e
000000a0: f532 af3d 3744 6dbf f5aa 413f cbe5 ba3d
000000b0: 8a35 023f ff84 10bf 88d9 3cbf 85fa 6ebe
000000c0: 0aa2 473e ae11 633f 405f 78bf 18e8 673f
000000d0: f748 5abf 74e6 6abf 558b bbbd 6678 b73d
000000e0: f6f3 93be 4d91 2f3f 7c67 7b3f 47fe 483f
000000f0: 42a1 3a3f 4657 513f dabf 433d 5540 9bbe

lstm_cells.0.W_ic.bias f4 [64]
-0.347533 -0.41299978 -0.7268268 0.023518486 0.65822476 -0.3138118 0.18579789 -0.7652645
0.40049893 0.25946692 0.89267474 0.856411 0.05650439 -0.98137057 -0.80900174 0.7987854
-0.26446408 -0.5439711 0.38027456 0.436298 0.87425405 -0.25481114 -0.9956538 0.38716754
0.9378914 0.8587564 0.71416175 -0.6590097 -0.6485463 0.05987067 0.8975563 -0.3716848
-0.53067034 -0.89327174 -0.8429239 -0.55804604 -0.69116884 0.13417749 0.6020354 0.0013838965
0.9129016 0.4475795 0.3942424 -0.428455 0.8494663 0.44184926 0.73431885 0.020899843
0.2838233 -0.4549883 0.566575 0.04474488 0.07789856 -0.8188755 -0.2421829 0.5369411
0.32991052 0.6055546 -0.2856435 0.28795862 0.5498242 0.28929216 -0.9773847 -0.6878249
00000000: d8ef b1be b574 d3be 5211 3abf d7a9 c03c
00000010: 6b81 283f f1ab a0be cd41 3e3e 60e8 43bf
00000020: 320e cd3e d9d8 843e 5586 643f c03d 5b3f
00000030: 2671 673d 1a3b 7bbf bd1a 4fbf 337d 4c3f
00000040: d667 87be b141 0bbf 59b3 c23e 7462 df3e
00000050: 1dcf 5f3f 9b76 82be 2be3 7ebf d33a c63e
00000060: a719 703f 76d7 5b3f 4ed3 363f dcb4 28bf
00000070: 2107 26bf f33a 753d 40c6 653f 784d bebe
00000080: 03da 07bf 75ad 64bf dcc9 57bf 1bdc 0ebf
00000090: 71f0 30bf d365 093e fe1e 1a3f dc63 b53a
000000a0: ebb3 693f 2429 e53e 24da c93e 745e dbbe
000000b0: a076 593f 113a e23e 52fc 3b3f 2636 ab3c
000000c0: 4a51 913e 3af4 e8be 0f0b 113f 6846 373d
000000d0: 4889 9f3d d3a1 51bf cbfe 77be f974 093f
000000e0: 08ea a83e a005 1b3f dd3f 92be 506f 933e
000000f0: 47c1 0c3f 1a1e 943e e235 7abf 4b15 30bf

lstm_cells.0.W_hc.weight f4 [64, 64]
-0.052194756 -0.025133483 0.10495464 0.099750005 -0.052623853 -0.0017202309 0.054205686 -0.06909683
0.09167892 -0.047633033 0.012667057 -0.09602355 0.08913353 -0.08151365 -0.065524966 0.02498835
0.112848274 -0.045997467 -0.0037411402 -0.0029066764 0.11229682 0.04627473 -0.074721485 0.106881745
0.02003491 0.101524875 0.0037791363 0.0047264434 0.014057624 0.008957265 0.101760976 -0.102277786
0.05721724 -0.031239076 -0.070633106 0.082821876 -0.101814225 0.052703496 -0.112766735 -0.092685506
0.08196505 -0.084755264 0.026558181 -0.09273811 0.071503215 -0.03812407 -0.09724735 -0.08246263
-0.122410536 0.03432 -0.037086207 -0.047713447 -0.006662707 -0.011150219 0.11065633 0.053680867
-0.04121993 -0.1139458 0.11950632 -0.102645755 0.04237289 -0.016352367 -0.060543444 0.07722295
-0.0341147 0.06326583 0.00822018 0.1250239 0.08704758 -0.03688967 0.12203116 0.10817451
0.030627381 -0.03997116 -0.068152346 0.107495174 -0.11602407 0.105680205 0.08708367 -0.09288103
0.07469384 -0.095859185 0.10462883 -0.06950466 -0.105924144 0.049245495 0.028792214 -0.04616433
0.117036335 -0.08311089 0.02109602 0.09742689 -0.08662436 -0.0403618 -0.058029223 0.11721691
-0.08344313 -0.089625254 0.07255905 0.07485143 -0.11946317 -0.10192746 0.047357254 -0.08000164
0.03970342 0.006565008 0.099830754 0.05703816 0.06067114 -0.033418126 -0.02242916 0.039837904
0.11833614 0.05091382 -0.095353484 0.0005141998 0.07310491 -0.05299929 -0.056060337 -0.117162615
0.113693625 0.10291833 0.06020984 0.009810864 -0.086255655 -0.07814588 -0.045113474 -0.027660312
0.06369915 0.10677383 0.10586834 -0.016482783 -0.006647593 0.09824653 -0.019791773 0.03429083
0.09540708 -0.103718795 0.0053907447 -0.09883212 -0.034892518 0.007911422 0.049198333 0.040327262
0.039548866 -0.00055008155 -0.097294495 -0.09647419 0.07034092 -0.080561854 -0.07031683 -0.061592817
-0.050021958 -0.061333604 -0.03691877 -0.05005462 0.0030357158 -0.104632705 0.052528296 0.10654419
-0.091576815 -0.014040912 -0.03663908 0.03424196 -0.024785737 0.031185197 0.11972437 0.055862278
0.102123514 0.088417225 -0.06865468 0.10670974 -0.015831467 0.09875436 -0.04590157 -0.042316142
-0.087287754 -0.015028601 -0.040672913 -0.10500691 -0.0704057 -0.023487406 0.09062305 0.0045918594
0.06320391 -0.037839692 0.045134105 0.013483092 0.1295204 -0.057164174 -0.0076486603 0.05158848
-0.10537415 -0.12371681 0.031556252 0.080554195 0.0088901315 0.039380733 0.112323076 -0.026947731
0.07403113 0.12515125 0.105842516 0.06488926 0.12185639 -0.08538904 0.09313888 -0.11929334
0.017994717 0.078971386 -0.013328829 -0.11507833 -0.0111096455 0.009602951 -0.10083115 0.12098367
-0.08731477 -0.01600472 -0.08275579 -0.016108379 -0.041042343 -0.117488354 -0.11633763 -0.066121325
0.042382274 0.08740744 -0.043231994 0.0055803335 -0.068785496 0.12913272 0.057576805 -0.11918735
-0.10950294 0.10306592 0.08807967 -0.020770194 -0.015443357 -0.020317342 -0.059624527 -0.04613648
0.06117608 0.06867034 0.0805781 0.02661542 0.046261832 -0.10044057 -0.1063218 0.12123097
0.026330536 0.055597257 0.046492618 0.00566076 -0.043477662 0.12026433 -0.052578192 0.05531704
00000000: 2bca 55bd bce4 cdbc 75f2 d63d bb49 cc3d
00000010: 1c8c 57bd 5f79 e1ba c806 5e3d a482 8dbd
00000020: 28c2 bb3d db1a 43bd 7d89 4f3c ffa7 c4bd
00000030: a48b b63d a1f0 a6bd f431 86bd 5eb4 cc3c
00000040: ff1c e73d d767 3cbd eb2d 75bb f07d 3ebb
00000050: e0fb e53d 928a 3d3d 9407 99bd d1e4 da3d
00000060: 4020 a43c 46ec cf3d 63ab 773b 48e0 9a3b
00000070: f351 663c 7ec1 123c 0f68 d03d 0477 d1bd
00000080: a05c 6a3d 17e9 ffbc 17a8 90bd 849e a93d
00000090: fa83 d0bd 9fdf 573d 3ff2 e6bd e6d1 bdbd
000000a0: 4bdd a73d 2b94 adbd 8b90 d93c 7aed bdbd
000000b0: 4770 923d fc27 1cbd 9e29 c7bd 2be2 a8bd
000000c0: 60b2 fabd 2193 0c3d b5e7 17bd 2d6f 43bd
000000d0: d652 dabb 68af 36bc c99f e23d 78e0 5b3d
000000e0: 3bd6 28bd 6a5c e9bd bbbf f43d f037 d2bd
000000f0: 328f 2d3d 66f5 85bc 67fc 77bd 1127 9e3d
00000100: dbbb 0bbd 8491 813d efad 063c 4406 003e
00000110: 0046 b23d 9f19 17bd 79eb f93d 998a dd3d
00000120: 46e6 fa3c cdb8 23bd 7593 8bbd 6e26 dc3d
00000130: 079e edbd dd6e d83d ec58 b23d 6938 bebd
00000140: 16f9 983d d251 c4bd a447 d63d 7658 8ebd
00000150: c2ee d8bd a5b5 493d a6dd eb3c cf16 3dbd
00000160: bfb0 ef3d 0b36 aabd 8fd1 ac3c c087 c73d
00000170: 1d68 b1bd 6a52 25bd 0db0 6dbd 6b0f f03d
00000180: 3be4 aabd 728d b7bd d799 943d b54b 993d
00000190: 1ba9 f4bd 58bf d0bd aef9 413d e6d7 a3bd
000001a0: 0ea0 223d 471f d73b 1174 cc3d d8a0 693d
000001b0: 4d82 783d 72e1 08bd 5cbd b7bc 122d 233d
000001c0: 385a f23d 028b 503d b048 c3bd 5dcb 063a
000001d0: 07b8 953d c915 59bd 869f 65bd f4f2 efbd
000001e0: 34d8 e83d d8c6 d23d 989e 763d bfbd 203c
000001f0: cea6 b0bd f20a a0bd e8c8 38bd e197 e2bc
00000200: b374 823d 3dac da3d 80d1 d83d e706 87bc
00000210: 0dd4 d9bb 7a35 c93d 5b22 a2bc 8b74 0c3d
00000220: ca64 c33d 856a d4bd d8a4 b03b 7f68 cabd
00000230: 75eb 0ebd e99e 013c 3184 493d 332e 253d
00000240: fefd 213d 5933 10ba 5642 c7bd 4394 c5bd
00000250: e60e 903d 9dfd a4bd 4502 90bd c048 7cbd
00000260: d3e3 4cbd f238 7bbd 2338 17bd 1306 4dbd
00000270: dcf2 463b ac49 d6bd e927 573d d733 da3d
00000280: a08c bbbd da0b 66bc dc12 16bd 4c41 0c3d
00000290: 750b cbbc 1978 ff3c 0d32 f53d d8cf 643d
000002a0: 2226 d13d 1714 b53d d39a 8cbd a38a da3d
000002b0: feb0 81bc ba3f ca3d 4903 3cbd b153 2dbd
000002c0: ecc3 b2bd 853a 76bc a498 26bd dd0d d7bd
000002d0: dd30 90bd a968 c0bc 9498 b93d 4f77 963b
000002e0: 0d71 813d cbfd 1abd 8ade 383d 30e8 5c3c
000002f0: ffa0 043e fb24 6abd 9da1 fabb 714e 533d
00000300: 67ce d7bd 3d5f fdbd 2141 013d 99f9 a43d
00000310: eaa7 113c b14d 213d a409 e63d 7dc1 dcbc
00000320: a29d 973d a627 003e f6c3 d83d a9e4 843d
00000330: d88f f93d 73e0 aebd 99bf be3d 1150 f4bd
00000340: a869 933c c0bb a13d 2961 5abc 30ae ebbd
00000350: 3b05 36bc b255 1d3c 9080 cebd 49c6 f73d
00000360: 16d2 b2bd 551c 83bc de7b a9bd b8f5 83bc
00000370: 041c 28bd bc9d f0bd 6c42 eebd 9e6a 87bd
00000380: 0999 2d3d ac02 b33d 0814 31bd 3bdb b63b
00000390: 69df 8cbd 5e3b 043e a8d5 6b3d 7f18 f4bd
000003a0: 1443 e0bd 3a14 d33d 1d63 b43d 4126 aabc
000003b0: 2206 7dbc 8e70 a6bc d938 74bd 9bf9 3cbd
000003c0: c593 7a3d 09a3 8c3d 2206 a53d 9508 da3c
000003d0: 0c7d 3d3d c9b3 cdbd 3ebf d9bd f147 f83d
000003e0: 23b3 d73c f3b9 633d 0b6f 3e3d e67d b93b
000003f0: a215 32bd 254d f63d 3b5c 57bd 1f94 623d

lstm_cells.0.W_hc.bias f4 [64]
-0.109444216 0.11304448 -0.07575744 0.022970272 0.0041568913 0.052748177 0.0050338265 -0.097406924
-0.12054393 0.06621522 -0.11505416 -0.00973873 -0.0018217114 -0.022437377 -0.008286206 0.012488572
0.050118268 0.05988141 -0.11950804 -0.0043216865 0.08180163 -0.0073995623 0.091475174 -0.10383494
0.09204891 -0.016634239 -0.0158091 -0.024028596 -0.09007455 -0.08181786 -0.022301514 0.055106178
0.009094931 -0.08556647 0.006371724 0.053726494 0.002206736 0.07399735 -0.014279958 -0.08030646
-0.034881 -0.048736814 0.0537908 -0.05713404 -0.107973024 -0.008292511 0.035899475 -0.024741117
-0.12628114 -0.10981525 -0.014072455 -0.09268579 -0.08824666 0.10243856 -0.05614397 0.11906855
-0.031484067 -0.05992396 -0.027932202 -0.0096251145 0.044371236 -0.016086973 0.08905508 -0.04377209
00000000: 4a24 e0bd dd83 e73d b726 9bbd 272c bc3c
00000010: 8836 883b 790e 583d ccf2 a43b 487d c7bd
00000020: bcdf f6bd d89b 873d 84a1 ebbd 328f 1fbc
00000030: 7ec6 eeba 97ce b7bc dec2 07bc de9c 4c3c
00000040: d048 4d3d 3646 753d a2c0 f4bd ef9c 8dbb
00000050: 9d87 a73d 0778 f2bb 5657 bb3d 6aa7 d4bd
00000060: 2484 bc3d 8744 88bc 1682 81bc 9ed7 c4bc
00000070: 0179 b8bd 1f90 a7bd aab1 b6bc 04b7 613d
00000080: e802 153c 793d afbd e5c9 d03b 5010 5c3d
00000090: e39e 103b ec8b 973d 7cf6 69bc b777 a4bd
000000a0: 61df 0ebd 41a0 47bd be53 5c3d 6205 6abd
000000b0: f620 ddbd 50dd 07bc 540b 133d e2ad cabc
000000c0: d84f 01be d1e6 e0bd 2790 66bc 0cd2 bdbd
000000d0: aaba b4bd 4fcb d13d 38f7 65bd 36da f33d
000000e0: 70f5 00bd d472 75bd 13d2 e4bc a8b2 1dbc
000000f0: 9dbe 353d d4c8 83bc 8362 b63d 5d4a 33bd

lstm_cells.0.W_in.weight f4 [64, 64]
0.092996106 -0.0775623 0.03838131 -0.10339652 -0.07126765 -0.008153573 0.021799684 0.032359153
-0.079346016 0.09643845 0.011802733 0.06042503 -0.09018646 0.08924855 -0.055709094 0.09670694
-0.100258976 0.013847634 -0.035098046 0.012207419 -0.043265074 0.11526868 -0.07732014 -0.05151458
-0.020741805 -0.024498686 0.04663579 -0.037652895 -0.10797711 0.068352506 -0.0024517179 0.015338793
-0.071506396 -0.10117757 -0.12096527 0.10203603 0.10512631 0.053918213 0.014669552 -0.085434586
0.020669937 0.113484696 -0.123331025 -0.08333731 0.0252444 -0.08511101 -0.00674659 -0.04413137
0.044904247 0.07388362 0.08978893 0.024540663 0.053448975 -0.07549718 -0.082745254 0.12450424
-0.063585654 0.09221543 -0.06087607 -0.07459539 -0.1062748 0.12108871 -0.115350306 0.03277695
0.090606004 0.10950188 0.028088078 0.10654944 0.05754581 0.0036163926 -0.050437614 -0.12076762
0.07813415 -0.075133845 0.1026828 0.07210019 0.07093169 0.07221632 0.116508394 -0.0013820529
-0.084956646 0.10135624 0.0956039 -0.078879744 -0.086917415 -0.07402675 -0.061337546 0.120189935
-0.02378732 -0.059607446 0.06928155 0.100189835 0.06617932 0.11392766 -0.10891117 -0.006045997
0.0924696 0.061778024 -0.11906324 0.00044113398 0.04114014 -0.11471601 0.00016051531 -0.039259836
-0.070582315 0.09926735 0.034138665 0.084117636 0.053937197 0.0034911036 -0.08689745 0.069691464
-0.022664651 -0.04783979 0.107536376 0.07830419 -0.089897856 0.11329211 -0.052017584 0.06997818
-0.07960756 -0.081871554 -0.06567542 -0.109807625 0.010879397 -0.06811947 0.09836954 -0.12426083
-0.076220185 0.0399224 0.088721216 0.07376221 0.07951483 -0.09343454 -0.037868127 -0.024855897
0.10085395 -0.067497656 -0.0059355497 0.012309805 -0.096649945 -0.09840588 -0.05705127 -0.090926245
0.11865339 0.047331303 -0.021579191 0.10366072 0.066211104 -0.08045159 -0.038702875 -0.11836997
0.113814056 0.033544317 -0.09867442 0.1235788 -0.009670168 0.023360237 0.071054876 0.00050631166
-0.033094198 0.051407367 0.058076933 0.115562424 0.0632516 -0.047550306 -0.11051099 -0.068780944
-0.11035159 0.10143936 -0.057079345 -0.019499794 0.052300125 -0.04231447 0.035868317 -0.055170238
0.07655032 0.078246355 -0.060746714 0.02841881 0.074888125 0.060209304 0.0928404 0.015298322
0.11308268 0.1016915 -0.0021919757 0.023010343 -0.056421846 -0.02553907 -0.012583479 0.11581299
0.08430487 0.021110132 0.024035275 0.11389795 0.10220666 -0.11112708 0.07091509 -0.11784296
0.08435784 0.095748976 -0.05960077 -0.08406502 -0.07283345 -0.027992085 -0.06533112 -0.05053939
0.11631502 0.059216425 0.054007173 -0.117767245 -0.083892494 0.049019486 0.0147622675 0.002282992
0.06048493 -0.09985274 -0.018895403 0.01242426 0.004431352 -0.023457468 -0.033432722 -0.08039175
0.06099938 -0.10164498 0.0667904 -0.062680244 0.04178737 0.019483283 0.0008152127 -0.024818838
-0.06198424 0.040719956 0.0794182 -0.036581427 -0.10763082 0.02079162 -0.096372604 -0.106640026
0.06477237 0.010694355 -0.11441192 -0.031367123 0.04033217 0.10501599 0.032784954 0.042574987
0.051452562 0.03985116 -0.078765064 -0.075648636 -0.088176906 -0.104999736 -0.03061968 0.049051493
00000000: be74 be3d fcd8 9ebd b835 1d3d 8ec1 d3bd
00000010: c6f4 91bd 9096 05bc 4095 b23c 088b 043d
00000020: 2a80 a2bd 8681 c53d 4060 413c 3c80 773d
00000030: aeb3 b8bd f2c7 b63d 382f 64bd 4a0e c63d
00000040: 9454 cdbd 30e1 623c f8c2 0fbd a001 483c
00000050: b836 31bd fc11 ec3d 065a 9ebd f400 53bd
00000060: b8ea a9bc 78b1 c8bc 2c05 3f3d ec39 1abd
00000070: 1a23 ddbd 66fc 8b3d 00ad 20bb 904f 7b3c
00000080: f271 92bd 3036 cfbd a4bc f7bd 44f8 d03d
00000090: 764c d73d 58d9 5c3d 9058 703c 54f8 aebd
000000a0: 0054 a93c aa6a e83d fa94 fcbd c0ac aabd
000000b0: 58cd ce3c ae4e aebd 8012 ddbb 18c3 34bd
000000c0: 84ed 373d 4c50 973d 42e3 b73d 8009 c93c
000000d0: 50ed 5a3d 449e 9abd 5876 a9bd 14fc fe3d
000000e0: 3239 82bd 72db bc3d 3059 79bd 78c5 98bd
000000f0: 9aa6 d9bd 5cfd f73d c83c ecbd 2041 063d
00000100: a48f b93d 8642 e03d f818 e63c 9836 da3d
00000110: 28b5 6b3d 0001 6d3b ac97 4ebd 0455 f7bd
00000120: cc04 a03d c6df 99bd 5c4b d23d 44a9 933d
00000130: a244 913d 26e6 933d f49b ee3d 0026 b5ba
00000140: c0fd adbd dc93 cf3d facb c33d b48b a1bd
00000150: c201 b2bd 569b 97bd 143d 7bbd 2426 f63d
00000160: a0dd c2bc f026 74bd 7ce3 8d3d 5430 cd3d
00000170: 0689 873d e852 e93d d20c dfbd 801d c6bb
00000180: b460 bd3d f40a 7d3d 6ed7 f3bd 0048 e739
00000190: 9082 283d 3af0 eabd 0050 2839 ecce 20bd
000001a0: 768d 90bd ae4c cb3d fcd4 0b3d de45 ac3d
000001b0: 40ed 5c3d 00cb 643b 4af7 b1bd 66ba 8e3d
000001c0: 38ab b9bc a8f3 43bd 083c dc3d f25d a03d
000001d0: 5e1c b8bd b205 e83d 6410 55bd b850 8f3d
000001e0: 4a09 a3bd 46ac a7bd d680 86bd d2e2 e0bd
000001f0: 803f 323c 3882 8bbd f875 c93d 767c febd
00000200: 5419 9cbd ac85 233d 78b3 b53d a410 973d
00000210: acd8 a23d 9c5a bfbd 9c1b 1bbd 989e cbbc
00000220: 848c ce3d 363c 8abd 007f c2bb 10af 493c
00000230: 68f0 c5bd 0689 c9bd 98ae 69bd 8a37 babd
00000240: 8c00 f33d 78de 413d d8c6 b0bc 124c d43d
00000250: b099 873d cec3 a4bd e886 1ebd f46b f2bd
00000260: 5817 e93d c465 093d d015 cabd e216 fd3d
00000270: a06f 1ebc f85d bf3c 3885 913d 00ba 043a
00000280: c88d 07bd 8890 523d 14e2 6d3d feab ec3d
00000290: 0e8a 813d 1cc4 42bd 9653 e2bd 06dd 8cbd
000002a0: 0400 e2bd 70bf cf3d 08cc 69bd 08be 9fbc
000002b0: a838 563d f051 2dbd a8ea 123d 30fa 61bd
000002c0: 6ac6 9c3d a03f a03d 8cd1 78bd 90ce e83c
000002d0: f25e 993d 089e 763d 1c23 be3d d0a5 7a3c
000002e0: e497 e73d a243 d03d 40a7 0fbb 3080 bc3c
000002f0: 981a 67bd 5037 d1bc f02a 4ebc 5c2f ed3d
00000300: 08a8 ac3d 28ef ac3c a0e5 c43c 5443 e93d
00000310: ba51 d13d 9896 e3bd ee3b 913d a657 f1bd
00000320: cec3 ac3d 0a18 c43d f01f 74bd 482a acbd
00000330: b429 95bd a84f e5bc 52cc 85bd 6402 4fbd
00000340: 9236 ee3d ec8c 723d a036 5d3d f42f f1bd
00000350: d4cf abbd a8c8 483d 70dd 713c 409e 153b
00000360: 0cbf 773d 987f ccbd 88ca 9abc 208f 4b3c
00000370: e034 913b e029 c0bc c0f0 08bd 6ea4 a4bd
00000380: 7cda 793d 3e2b d0bd 68c9 883d 805e 80bd
00000390: 3c29 2b3d 689b 9f3c 00b4 553a e050 cbbc
000003a0: 30e3 7dbd f8c9 263d 02a6 a23d 68d6 15bd
000003b0: 8c6d dcbd 3053 aa3c 005f c5bd 1666 dabd
000003c0: 60a7 843d 6037 2f3c cc50 eabd d07a 00bd
000003d0: 5833 253d a012 d73d 8449 063d 1c63 2e3d
000003e0: ecbf 523d f83a 233d 944f a1bd aced 9abd
000003f0: 1896 b4bd 1a0a d7bd 20d6 fabc 38ea 483d

lstm_cells.0.W_in.bias f4 [64]
0.016484842 0.1185707 -0.11686076 -0.02800773 -0.12373093 0.027739853 -0.052355602 -0.029000878
-0.028571516 -0.033011794 0.06469579 -0.11236857 0.065782666 0.038211614 -0.019853696 0.010854408
-0.08381568 -0.038321942 -0.08183941 0.01455757 -0.103771225 -0.024712265 -0.021189734 0.03821841
0.09533101 0.08389221 0.010061815 -0.028279588 0.10081591 -0.09971784 0.089814216 -0.071140215
0.10801263 -0.048479155 -0.017909274 0.12194958 0.06414527 -0.061275765 -0.014038578 -0.07355824
0.005734071 -0.034250528 0.04487729 0.032328203 -0.121957585 0.06801307 -0.03463325 0.01597716
-0.005209118 0.11588633 -0.0053358376 0.058911532 0.07812974 -0.07026598 -0.0027112216 0.11163488
0.10892594 0.097078174 -0.027919278 0.06605597 -6.1005354e-05 0.091900826 -0.039486185 0.08632761
00000000: 380b 873c 32d5 f23d b254 efbd 7870 e5bc
00000010: a466 fdbd b03e e33c d472 56bd 4093 edbc
00000020: d00e eabc 6037 07bd 3a7f 843d 7e21 e6bd
00000030: 10b9 863d c883 1c3d 38a4 a2bc b0d6 313c
00000040: 8ea7 abbd 78f7 1cbd 6c9b a7bd e082 6e3c
00000050: 0286 d4bd 6071 cabc 1896 adbc e88a 1c3d
00000060: e83c c33d aecf ab3d 50da 243c 98aa e7bc
00000070: 9278 ce3d de38 ccbd 84f0 b73d f6b1 91bd
00000080: ba35 dd3d 1492 46bd 78b6 92bc b4c0 f93d
00000090: 985e 833d 4cfc 7abd 1002 66bc b4a5 96bd
000000a0: e0e4 bb3b 484a 0cbd 40d1 373d 946a 043d
000000b0: e6c4 f9bd 704a 8b3d 98db 0dbd 88e2 823c
000000c0: 40b1 aabb d055 ed3d 40d8 aebb 384d 713d
000000d0: 7c02 a03d 9ce7 8fbd c0ae 31bb d4a0 e43d
000000e0: 9014 df3d ecd0 c63d f8b6 e4bc 5a48 873d
000000f0: 00e0 7fb8 8036 bc3d 44bc 21bd 88cc b03d

W_h.weight f4 [64, 64]
-0.103304096 -0.11857591 -0.11063283 -0.056917123 0.09498833 0.069027714 -0.013602471 -0.0035798452
-0.03478837 -0.04940352 -0.088943556 -0.039865047 0.0378223 0.012327456 -0.10423193 0.031429537
-0.10667249 0.108999975 0.065625146 0.09968867 -0.06758297 0.10329581 0.078613184 0.122168735
-0.017553715 0.025899475 0.016615361 -0.036442064 -0.013907013 0.08678411 0.086657844 0.118681684
-0.05223346 -0.02317915 -0.020071888 -0.035481747 -0.048452165 0.010603653 -0.07623145 0.01880526
-0.09455571 -0.05575853 0.06646733 -0.014596162 -0.019251427 0.037720796 0.10858398 0.083361454
-0.028010542 0.08345543 0.043328773 -0.06993804 0.090973094 0.09003745 -0.04353863 -0.021070324
0.10074786 -0.10231652 0.038194574 -0.0542844 -0.11615252 -0.06938727 0.049183898 -0.106649704
0.11078042 -0.11465832 -0.019598786 0.12047163 0.0030132972 -0.10162072 -0.0042440947 0.08885049
0.06690406 0.094343916 -0.023644218 -0.096890494 -0.10349822 -0.11490222 0.097006544 -0.021568552
0.051234987 -0.015747614 -0.12258487 0.12550081 0.0014323515 0.06505494 0.043805778 -0.03772214
0.004759589 -0.037084237 0.117329635 0.10293809 -0.11561836 0.037379205 0.11152038 -0.0931074
0.047903724 0.07343905 -0.102056265 0.053901758 0.069646016 -0.01340508 -0.081175275 0.020767555
-0.030041052 -0.08921353 -0.03550062 0.041499652 0.027011741 -0.03642284 0.051084306 -0.03174496
-0.088144764 -0.041877106 -0.055019688 -0.05873826 -0.07483318 -0.10180926 -0.0578701 0.060871597
-0.07470508 -0.025716865 -0.12495234 0.021414816 0.069192775 -0.06218961 0.057601385 0.014095616
-0.025979854 0.047463343 0.057454176 0.07525856 0.02519995 -0.10985596 -0.0852422 -0.014317494
-0.021292176 -0.048204824 0.06100373 0.017757868 -0.064399585 0.058750074 0.11573675 -0.0008857222
0.068305135 0.11621313 -0.06085268 0.08809804 -0.0140506895 -0.051199753 0.031145329 -0.0044094725
0.014260523 0.019349651 -0.0026343218 -0.06594921 -0.025702612 -0.008722797 0.007945042 0.090560615
0.05583621 0.1152023 -0.08667615 0.0026495035 0.06292265 -0.123442054 -0.061424296 -0.012951081
-0.07601229 -0.058196675 0.09881637 -0.07608952 0.09622477 0.051553715 -0.066879116 -0.038884506
0.05970414 -0.119254634 0.09811898 -0.11459891 0.009086568 0.07119174 -0.10192515 -0.11879611
-0.024045859 -0.059488416 0.03614567 0.080792986 0.11196309 0.12618412 0.0027709557 0.08801749
0.0065781036 -0.09219384 -0.04931453 -0.007929465 0.10649832 0.026394574 -0.0825722 0.08882175
0.11841849 0.027797585 -0.07724896 -0.012030279 0.112975575 0.041648984 0.029598013 -0.08008046
0.10234497 0.0946506 0.016859535 -0.101133265 -0.11117912 -0.040028885 -0.017897056 0.10436305
0.11888398 -0.12087296 0.010837951 -0.0993397 0.12173573 0.018925026 0.09966932 0.109717995
0.044836022 -0.11537546 0.10493898 0.056074973 -0.08301946 0.0651789 0.07222927 -0.108317375
-0.064059146 0.11841949 0.11795636 -0.10213574 -0.055000596 -0.07261273 -0.031414177 0.11930919
-0.10945045 0.015067268 -0.06336278 -0.121040344 0.018919623 -0.09234334 -0.05358139 0.09085824
-0.018713564 0.05535733 0.017061684 0.09247049 0.050685056 0.11406584 0.12579013 0.009258479
00000000: 1991 d3bd edd7 f2bd 7793 e2bd ee21 69bd
00000010: 3e89 c23d 675e 8d3d e6dc 5ebc d69b 6abb
00000020: 407e 0ebd 585b 4abd 0a28 b6bd 8849 23bd
00000030: 8eeb 1a3d 19f9 493c 8d77 d5bd 42bc 003d
00000040: 1b77 dabd 613b df3d 7a66 863d 9329 cc3d
00000050: f168 8abd c18c d33d f3ff a03d 9a33 fa3d
00000060: cfcc 8fbc 232b d43c f01c 883c 4644 15bd
00000070: 3eda 63bc debb b13d ab79 b13d 620f f33d
00000080: c1f2 55bd 33e2 bdbc cd6d a4bc 4f55 11bd
00000090: c775 46bd f2ba 2d3c 3c1f 9cbd 7d0d 9a3c
000000a0: 6da6 c1bd 0e63 64bd 0620 883d be24 6fbc
000000b0: 2bb5 9dbc 1f81 1a3d 4761 de3d 69b9 aa3d
000000c0: 5d76 e5bc aeea aa3d 8379 313d ad3b 8fbd
000000d0: 1a50 ba3d 8e65 b83d 9055 32bd ac9b acbc
000000e0: e554 ce3d 538b d1bd ea71 1c3d 5259 5ebd
000000f0: 5fe1 edbd ea1a 8ebd 0e75 493d 296b dabd
00000100: d8e0 e23d fbd1 eabd a28d a0bc d4b9 f63d
00000110: bd7a 453b 861e d0bd 0c12 8bbb 3ff7 b53d
00000120: ff04 893d 6237 c13d 85b1 c1bc 866e c6bd
00000130: e0f6 d3bd db51 ebbd 5eab c63d 88b0 b0bc
00000140: c7db 513d 2401 81bc c70d fbbd 4983 003e
00000150: bebd bb3a 863b 853d b06d 333d 8882 1abd
00000160: 54f6 9b3b a4e5 17bd 854a f03d 35d1 d23d
00000170: 52c9 ecbd f01a 193d cc64 e43d 18af bebd
00000180: b236 443d 3667 963d e002 d1bd 17c8 5c3d
00000190: 92a2 8e3d fba0 5bbc 393f a6bd b820 aa3c
000001a0: a718 f6bc 95b5 b6bd 1969 11bd 8afb 293d
000001b0: ba47 dd3c 1e30 15bd c73d 513d 0107 02bd
000001c0: 3e85 b4bd 5487 2bbd 535c 61bd 8897 70bd
000001d0: 2342 99bd 6081 d0bd 3309 6dbd 7f54 793d
000001e0: fafe 98bd 2dac d2bc 03e7 ffbd 206e af3c
000001f0: f1b4 8d3d 88ba 7ebd 6eef 6b3d 4cf1 663c
00000200: b4d3 d4bc ec68 423d 1255 6b3d 2921 9a3d
00000210: 2070 ce3c 29fc e0bd 7693 aebd ec93 6abc
00000220: ee6c aebc 6c72 45bd 0cdf 793d f378 913c
00000230: eee3 83bd eba3 703d 6407 ed3d d02f 68ba
00000240: 90e3 8b3d 2601 ee3d a940 79bd bf6c b43d
00000250: dd34 66bc d5b6 51bd 7d24 ff3c 567d 90bb
00000260: f8a4 693c 2983 9e3c 96a4 2cbb 6110 87bd
00000270: 498e d2bc 10ea 0ebc ec2b 023c d877 b93d
00000280: 82b4 643d 2fef eb3d 4483 b1bd 4ba3 2d3b
00000290: 97dd 803d 30cf fcbd 0b98 7bbd c530 54bc
000002a0: 55ac 9bbd a35f 6ebd 3d60 ca3d d2d4 9bbd
000002b0: 7e11 c53d fd29 533d ebf7 88bd 5c45 1fbd
000002c0: 548c 743d c63b f4bd 9bf2 c83d d5b2 eabd
000002d0: d4df 143c facc 913d 22be d0bd 604b f3bd
000002e0: d2fb c4bc 20aa 73bd 7b0d 143d cb76 a53d
000002f0: e84c e53d 6936 013e ec98 353b 8442 b43d
00000300: 228d d73b 20d0 bcbd 08fe 49bd 96ea 01bc
00000310: cb1b da3d 6f39 d83c 9d1b a9bd 2de8 b53d
00000320: 6585 f23d c3b7 e33c b434 9ebd a61a 45bc
00000330: bd5f e73d 2098 2a3d 8877 f23c 3901 a4bd
00000340: 3d9a d13d 2cd8 c13d 021d 8a3c f51e cfbd
00000350: e1b1 e3bd 54f5 23bd d99c 92bc 4bbc d53d
00000360: 7279 f33d 3e8c f7bd a991 313c 9d72 cbbd
00000370: 9550 f93d a808 9b3c 6e1f cc3d d4b3 e03d
00000380: faa5 373d f849 ecbd 3fea d63d dfae 653d
00000390: 1b06 aabd 847c 853d f1ec 933d 80d5 ddbd
000003a0: 7131 83bd eb85 f23d 1b93 f13d 8b2c d1bd
000003b0: 4e48 61bd fcb5 94bd 27ac 00bd 6058 f43d
000003c0: 8f27 e0bd b4dc 763c 58c4 81bd 00e4 f7bd
000003d0: 53fd 9a3c 811e bdbd 2978 5bbd e313 ba3d
000003e0: 304d 99bc 5ebe 623d f2c4 8b3c 2b61 bd3d
000003f0: 229b 4f3d 5a9b e93d 21cf 003e e0b0 173c

W_h.bias f4 [64]
-0.06324033 0.099946156 -0.05385022 -0.0141278915 -0.050625514 0.10935466 0.09651255 -0.10937338
0.09980424 0.10629944 -0.02113887 0.015628504 0.024728425 -0.10171905 0.08655867 -0.050452918
0.081137806 -0.06798384 0.047107697 -0.042410295 0.0075567793 0.1199918 0.067026466 0.027035471
-0.007893784 0.011138195 -0.07364025 -0.07939908 0.07845765 0.03566999 0.08700379 0.0033117349
0.0014062636 0.029462373 -0.019693457 -0.10308213 0.017327875 -0.0011136614 0.089101925 0.027769934
0.11118436 0.08534741 -0.08943472 -0.11300827 -0.0688046 0.036871646 -0.0086753275 -0.079931736
0.1209685 0.070829846 -0.051556334 0.01860119 -0.07833608 0.02599101 -0.004043536 -0.04726176
-0.11931427 -0.065247394 -0.10884346 0.07294983 -0.08893986 0.036696438 0.0006078072 -0.035291124
00000000: 2584 81bd 92b0 cc3d 0c92 5cbd ac78 67bc
00000010: b35c 4fbd 56f5 df3d 5fa8 c53d 27ff dfbd
00000020: 2a66 cc3d 85b3 d93d 6c2b adbc 5907 803c
00000030: 4493 ca3c 1452 d0bd ac45 b13d b8a7 4ebd
00000040: 942b a63d 1d3b 8bbd 00f4 403d 6bb6 2dbd
00000050: dc9e f73b 43be f53d 2c45 893d 7e79 dd3c
00000060: ee54 01bc fa7c 363c b3d0 96bd fc9b a2bd
00000070: 68ae a03d b21a 123d 0b2f b23d b109 593b
00000080: 6052 b83a 135b f13c 2c54 a1bc b91c d3bd
00000090: 30f3 8d3c 47f8 91ba 127b b63d c67d e33c
000000a0: a0b4 e33d 9fca ae3d 8d29 b7bd e170 e7bd
000000b0: 6de9 8cbd b906 173d f622 0ebc 40b3 a3bd
000000c0: 55be f73d 3d0f 913d bc2c 53bd 8661 983c
000000d0: ab6e a0bd 19eb d43c a37f 84bb 8c95 41bd
000000e0: 0a5b f4bd 6da0 85bd 52e9 debd b866 953d
000000f0: 1a26 b6bd 014f 163d 4055 1f3a 6d8d 10bd

W_g.weight f4 [64, 64]
-0.11435788 0.10402403 -0.02826879 0.057899237 0.09922401 -0.004893102 0.00022489355 0.021599377
-0.02691785 0.0078520365 0.048997387 0.013484286 0.09070913 -0.118931435 0.054531038 0.064350046
0.047222286 -0.1118067 -0.07128098 0.0072286944 0.053762794 0.058918 -0.077744015 -0.041827455
0.054916188 -0.0712396 -0.03890501 0.038115636 0.090553574 -0.11617284 0.08748714 0.048735037
-0.02185922 -0.03932163 -0.10860332 0.09753331 -0.034634292 -0.07167304 -0.02796661 0.046360075
-0.05407241 -0.06869552 -0.12161315 -0.00032710537 -0.0696137 0.032505646 0.06927996 0.10516117
-0.020358672 -0.11603861 -0.06830592 0.01977914 -0.09667837 0.04908602 -0.049681127 0.06635376
0.054641977 0.08855491 -0.08926397 0.11633154 0.07717573 0.11893096 0.07698754 0.016788432
-0.044597704 -0.019003168 0.03266598 0.118731774 0.124927774 -0.0105866995 0.058899354 0.10812207
0.028186515 0.02952239 0.09136335 0.054236706 -0.1126406 0.04545709 0.100982286 -0.0043517235
-0.031733662 -0.042160947 -0.014125278 0.08475118 -0.10736074 0.02573581 -0.11830225 -0.10538579
0.013643632 0.048925202 0.09577859 0.033816736 -0.067725845 -0.105110206 -0.02215159 -0.1031222
0.0145902 -0.010823896 -0.08684415 0.07964372 0.11697445 -0.111341365 0.029362127 0.061597355
0.04462151 -0.107001565 0.0823214 0.037919577 0.05371247 0.10658791 -0.0375661 0.04928
0.054733347 0.059051078 -0.122504346 0.062426563 0.091752015 -0.014475545 0.089672394 0.060927805
-0.043122593 -0.058300126 -0.09988742 -0.019516632 -0.087751515 0.014363462 -0.07832391 0.04463407
0.037957594 0.053115726 0.06419976 -0.123695835 0.063186646 0.07972549 0.03056368 0.087994516
0.10715358 -0.056466803 0.013315796 0.115895376 -0.12193973 -0.013241128 -0.026552161 0.010955795
0.09836824 -0.0006516742 -0.10400103 0.06916131 -0.12227814 -0.093170986 0.0009771271 0.0892978
0.013081758 0.11104791 0.020697245 0.036482424 0.10427451 0.002648051 -0.07599971 0.059524134
-0.0005682128 -0.0328905 0.08211407 -0.1245137 -0.03546202 -0.047045276 -0.09348737 0.02310736
-0.08565746 -0.054908678 -0.015329839 0.122883484 -0.1088658 0.081557736 0.0011907354 -0.11589013
-0.0035893517 -0.069576606 0.06807132 -0.12068327 -0.11843246 -0.0839086 -0.10037972 0.12263253
0.11390968 0.03435135 -0.01661191 0.093713835 -0.07481246 -0.09427799 0.028360734 0.015308599
0.119755715 -0.1142381 0.10589141 0.061303075 0.07763845 -0.10780573 0.009113809 -0.113117486
-0.04607669 0.10407056 -0.02049164 0.08590734 -0.04382487 0.050218742 -0.09850393 -0.09330018
0.06089176 0.013186699 -0.052247394 -0.0843004 -0.005585209 -0.121025205 0.097665474 0.053133067
0.057338532 -0.008071222 0.07039948 -0.07179898 -0.02728472 -0.033407945 0.07762325 -0.038356487
-0.0072625424 0.0018244648 0.110652015 -0.019247064 -0.0122038815 -0.018357703 -0.07573718 -0.113618135
-0.026167491 0.04149696 0.008913716 -0.11699216 -0.10276005 0.120767534 -0.06610969 0.059161138
0.036877822 0.090942934 0.06531401 -0.016934777 -0.07331832 -0.06285899 0.088252544 -0.008265131
-0.087328196 -0.013643796 -0.09922555 0.084292084 0.02365092 -0.04974294 0.013796186 0.050977644
00000000: 7734 eabd 8d0a d53d f393 e7bc c027 6d3d
00000010: f535 cb3d 5156 a0bb 67d1 6b39 2df1 b03c
00000020: d382 dcbc d4a5 003c 7cb1 483d 32ed 5c3c
00000030: b5c5 b93d 5392 f3bd f05b 5f3d f5c9 833d
00000040: 286c 413d e9fa e4bd c3fb 91bd afde ec3b
00000050: 6036 5c3d 0054 713d 4138 9fbd 4453 2bbd
00000060: ccef 603d 11e6 91bd dc5a 1fbd 241f 1c3d
00000070: 2774 b93d 07ec edbd 752c b33d 649e 473d
00000080: 1b12 b3bc b80f 21bd 6b6b debd 8bbf c73d
00000090: b0dc 0dbd 51c9 92bd 3b1a e5bc 10e4 3d3d
000000a0: 087b 5dbd 3db0 8cbd 5110 f9bd 577f abb9
000000b0: a191 8ebd a424 053d a7e2 8d3d bd5e d73d
000000c0: 3bc7 a6bc a7a5 edbd f9e3 8bbd dd07 a23c
000000d0: 4fff c5bd 6c0e 493d 707e 4bbd 7be4 873d
000000e0: 44d0 5f3d 475c b53d 07d0 b6bd 3b3f ee3d
000000f0: 4f0e 9e3d 1392 f33d a5ab 9d3d e587 893c
00000100: 15ac 36bd 88ac 9bbc c3cc 053d a529 f33d
00000110: 22da ff3d d673 2dbc 7340 713d 1b6f dd3d
00000120: 68e7 e63c f0d8 f13c b51c bb3d 4f27 5e3d
00000130: 1db0 e6bd 3731 3a3d cdcf ce3d e798 8ebb
00000140: 28fb 01bd f5b0 2cbd b66d 67bc 0792 ad3d
00000150: f3df dbbd e8d3 d23c 7348 f2bd 81d4 d7bd
00000160: 8a89 5f3c cb65 483d 9127 c43d 6b83 0a3d
00000170: d9b3 8abd 0544 d7bd 4077 b5bc bb31 d3bd
00000180: bc0b 6f3c b656 31bc 59db b1bd 3f1c a33d
00000190: 4d90 ef3d f106 e4bd d888 f03c 824d 7c3d
000001a0: 0bc5 363d a323 dbbd 1f98 a83d 8f51 1b3d
000001b0: 9b01 5c3d c34a da3d e9de 19bd d3d9 493d
000001c0: 1330 603d 8bdf 713d 8fe3 fabd ffb2 7f3d
000001d0: 7be8 bb3d d62a 6dbc 29a6 b73d 6f8f 793d
000001e0: 51a1 30bd 1dcc 6ebd c791 ccbd 58e1 9fbc
000001f0: 11b7 b3bd ba54 6b3c 4968 a0bd 37d2 363d
00000200: 6c79 1b3d e08f 593d 2a7b 833d 3e54 fdbd
00000210: 0068 813d 1e47 a33d af60 fa3c 7836 b43d
00000220: 5673 db3d bc49 67bd 7f2a 5a3c 8e5a ed3d
00000230: 8abb f9bd 51f1 58bc eb83 d9bc ef7f 333c
00000240: 4a75 c93d 1ed5 2aba 7efe d4bd 72a4 8d3d
00000250: f66c fabd 6ed0 bebd f212 803a c4e1 b63d
00000260: df54 563c 166d e33d 458d a93c 986e 153d
00000270: e08d d53d ec8a 2d3b bca5 9bbd 94cf 733d
00000280: 1ef4 14ba 30b8 06bd 6c2b a83d 0a01 ffbd
00000290: a040 11bd 8cb2 40bd 4e76 bfbd a54b bd3c
000002a0: 2e6d afbd ece7 60bd 012a 7bbc 56aa fb3d
000002b0: 08f5 debd be07 a73d 7312 9c3a ce57 edbd
000002c0: 543b 6bbb 2e7e 8ebd fa68 8b3d ca28 f7bd
000002d0: b88c f2bd 46d8 abbd e293 cdbd c426 fb3d
000002e0: 7a49 e93d 00b4 0c3d b315 88bc 0aed bf3d
000002f0: 4637 99bd d214 c1bd c554 e83c ebd0 7a3c
00000300: 7c42 f53d aaf5 e9bd 98dd d83d ef18 7b3d
00000310: e800 9f3d 40c9 dcbd 1652 153c 24aa e7bd
00000320: e9ba 3cbd f222 d53d 15de a7bc 30f0 af3d
00000330: b581 33bd 2bb2 4d3d 6ebc c9bd 2a14 bfbd
00000340: a369 793d 060d 583c 5d01 56bd b0a5 acbd
00000350: 2104 b7bb 10dc f7bd d604 c83d 0fa2 593d
00000360: cfdb 6a3d 293d 04bc 9a2d 903d 580b 93bd
00000370: 3584 dfbc c5d6 08bd f0f8 9e3d b11b 1dbd
00000380: 9ffa edbb e122 ef3a 869d e23d 05ac 9dbc
00000390: caf2 47bc e562 96bc 181c 9bbd a0b0 e8bd
000003a0: 355d d6bc b7f8 293d d60a 123c 9699 efbd
000003b0: dc73 d2bd f854 f73d 8464 87bd f352 723d
000003c0: 330d 173d 4a40 ba3d 5ac3 853d cdba 8abc
000003d0: ea27 96bd 37bc 80bd c0bd b43d 796a 07bc
000003e0: 20d9 b2bd 3a8a 5fbc c436 cbbd 54a1 ac3d
000003f0: 93bf c13c 41bf 4bbd 6609 623c efcd 503d

W_g.bias f4 [64]
0.12111654 0.1046571 -0.0060817 0.040254105 0.103468224 -0.109033704 -0.088934325 -0.015806545
0.04561265 0.09942844 -0.084562436 0.075597584 -0.10988631 0.08906348 -0.0544232 0.064582065
0.075401366 -0.037588846 0.10452032 0.11447322 0.03477225 -0.11628387 -0.10323641 0.11129814
0.032487612 -0.025373656 -0.07387822 -0.09610118 -0.044086326 -0.054613955 0.057554767 0.109240755
-0.04425685 -0.002466169 0.093551144 -0.02042012 0.0953402 -0.06843189 0.12023036 0.07274341
-0.030448124 0.0044235378 0.040673066 0.11627699 0.11434763 -0.035769727 0.109703414 -0.05712419
0.08528494 -0.09749075 0.046212703 0.08737883 0.024928896 0.09207045 -0.045174703 -0.12472704
0.07470669 -0.10528471 0.046381716 -0.038226232 -0.030215995 -0.066743 -0.013740824 -0.027270235
00000000: f30b f83d 7656 d63d ff48 c7bb 7de1 243d
00000010: 26e7 d33d 104d dfbd 3323 b6bd ba7c 81bc
00000020: 55d4 3a3d 23a1 cb3d 122f adbd e8d2 9a3d
00000030: 130c e1bd ea66 b63d ddea 5ebd 9a43 843d
00000040: 086c 9a3d c3f6 19bd c00e d63d f070 ea3d
00000050: 596d 0e3d 3d26 eebd 9c6d d3bd 47f0 e33d
00000060: bb11 053d 6adc cfbc 774d 97bd b2d0 c4bd
00000070: dd93 34bd e2b2 5fbd 8cbe 6b3d 9eb9 df3d
00000080: ac46 35bd 739f 21bb be97 bf3d 1848 a7bc
00000090: b941 c33d 0526 8cbd 563b f63d 7ffa 943d
000000a0: 586e f9bc 53f3 903b cd98 263d a122 ee3d
000000b0: 172f ea3d 4783 12bd 2fac e03d 0efb 69bd
000000c0: dfa9 ae3d 3ba9 c7bd 8849 3d3d acf3 b23d
000000d0: af37 cc3c 6f8f bc3d 1c09 39bd e470 ffbd
000000e0: d2ff 983d 839f d7bd c1fa 3d3d 1c93 1cbd
000000f0: 8987 f7bc 8eb0 88bd 3121 61bc d465 dfbc

W_x.weight f4 [64, 1]
0.29436922 -0.6078356 -0.4927777 -0.14333619 -0.8471778 -0.3537902 0.27390993 0.67923343
0.015416754 0.8221534 -0.66741383 0.89604044 0.70175993 0.19101335 0.5145068 -0.8242574
0.12742901 0.32106954 -0.86716866 -0.90609246 0.17720217 -0.8764901 0.695764 -0.25311646
0.6098966 0.52562964 0.16244628 -0.89200133 0.099616155 0.412506 0.6582306 0.22940199
0.5757265 0.2542764 -0.3581539 -0.9904715 0.8132233 0.40418717 -0.7425503 0.37881505
-0.43449423 0.10702899 -0.18149751 0.35426188 -0.7526535 -0.8109833 -0.6832558 0.031084178
-0.9876857 0.6159472 0.14681815 0.81970173 -0.38576177 -0.8427515 -0.20178348 -0.39936572
-0.32237825 -0.93223834 0.124305636 0.041034672 0.28398877 0.18689929 0.1489423 -0.10935214
00000000: 90b7 963e 1d9b 1bbf 5c4d fcbe b9c6 12be
00000010: a5e0 58bf fd23 b5be ec3d 8c3e 3ee2 2d3f
00000020: 8e96 7c3c a578 523f a2db 2abf e862 653f
00000030: 8aa6 333f 0199 433e b8b6 033f 8802 53bf
00000040: c07c 023e 3a63 a43e c4fe 5dbf adf5 67bf
00000050: 7c74 353e a861 60bf 971d 323f 7b98 81be
00000060: 2f22 1c3f aa8f 063f 5158 263e 335a 64bf
00000070: 8e03 cc3d fd33 d33e cd81 283f 5be8 6a3e
00000080: d062 133f 8430 823e f35f b7be 8a8f 7dbf
00000090: 672f 503f 9ff1 ce3e c717 3ebf 0cf4 c13e
000000a0: 0776 debe 0432 db3d 7cda 39be d061 b53e
000000b0: e6ad 40bf 9a9c 4fbf dae9 2ebf 3fa4 fe3c
000000c0: f8d8 7cbf b7ae 1d3f 7f57 163e f9d7 513f
000000d0: 9182 c5be 90be 57bf 54a0 4ebe aa79 ccbe
000000e0: c30e a5be 2ca7 6ebf f493 fe3d f913 283d
000000f0: fa66 913e 8762 3f3e 5584 183e 04f4 dfbd

W_x.bias f4 [64]
-0.06590908 0.19529703 0.6849031 0.61658555 -0.3949965 -0.62912387 -0.6401698 0.3943452
-0.92791694 0.6503498 -0.76969296 -0.34556493 -0.83592963 0.30803382 0.4502317 -0.17556153
0.5500333 0.58024734 0.13980998 0.3776733 -0.10906521 -0.34609208 0.015384333 0.25816303
0.5075817 -0.95399374 -0.42494473 -0.49909505 0.37648198 0.33374974 0.25310332 -0.036675695
-0.4405684 -0.8626994 -0.32986438 0.5782059 -0.40269703 -0.07870077 -0.46141753 0.19952312
-0.016248878 0.79149586 0.7642103 -0.46652612 0.04214207 0.07349898 0.17997056 -0.76990426
0.0827677 0.09127071 0.5739632 -0.9128411 0.70672864 -0.2210211 -0.3289544 0.18635981
0.67888856 0.43056464 0.5614011 0.568843 0.12464275 0.0852132 0.31874263 0.65856284
00000000: 57fb 86bd f2fb 473e cf55 2f3f 8dd8 1d3f
00000010: fb3c cabe 430e 21bf 2be2 23bf 9de7 c93e
00000020: f78b 6dbf 537d 263f 990a 45bf e3ed b0be
00000030: 7cff 55bf 9cb6 9d3e c584 e63e 67c6 33be
00000040: fbce 0c3f 178b 143f 592a 0f3e 655e c13e
00000050: 955d dfbd fb32 b1be 920e 7c3c f22d 843e
00000060: e0f0 013f ef38 74bf 5b92 d9be 6389 ffbe
00000070: 3fc2 c03e 3fe1 aa3e c296 813e 4139 16bd
00000080: 2e92 e1be ded9 5cbf fce3 a8be 4d05 143f
00000090: 4e2e cebe df2d a1bd eb3e ecbe ca4f 4c3e
000000a0: 5e1c 85bc 799f 4a3f 49a3 433f 83dc eebe
000000b0: 2a9d 2c3d a286 963d 344a 383e 7218 45bf
000000c0: 1d82 a93d 23ec ba3d 41ef 123f f4af 69bf
000000d0: 2bec 343f 5b53 62be b66c a8be 1bd5 3e3e
000000e0: a4cb 2d3f f872 dc3e fcb7 0f3f b29f 113f
000000f0: b344 ff3d 4284 ae3d 3c32 a33e 9397 283f

W_1d.weight f4 [1, 64]
-0.08104458 -0.06746784 0.028595274 0.099649526 -0.017639114 -0.0803697 0.025268195 -0.032926124
-0.10748741 -0.1027189 -0.11589514 -0.02806116 0.02867324 0.06749723 0.020161033 0.078018725
0.0711515 -0.054833114 -0.06934385 -0.060008388 0.03549889 -0.041996315 0.09664347 0.04153455
0.07507988 0.1045701 -0.10981545 -0.093784824 -0.09202312 0.1181193 0.069973454 -0.10523188
-0.025165893 0.078563415 -0.04260835 0.06892182 -0.09162057 0.0011240381 -0.10753133 0.12255573
-0.011141078 0.0880494 0.06395927 -0.066470996 -0.092174605 -0.1021575 -0.05679686 0.07333586
0.041297875 0.07793696 0.07850041 0.03960148 0.027622478 -0.08397909 0.060637966 0.043032587
-0.07494164 -0.032513615 -0.03992837 0.10890074 0.082833506 -0.03178527 0.015290321 0.026988007
00000000: b3fa a5bd 942c 8abd a340 ea3c 0d15 cc3d
00000010: e77f 90bc df98 a4bd 3fff ce3c 8bdd 06bd
00000020: 5c22 dcbd 495e d2bd 6e5a edbd 85e0 e5bc
00000030: 25e4 ea3c fd3b 8a3d c028 a53c 48c8 9f3d
00000040: e1b7 913d b098 60bd 2604 8ebd 5bcb 75bd
00000050: 4967 113d 5404 2cbd 03ed c53d 2220 2a3d
00000060: 7bc3 993d d928 d63d ece6 e0bd 4212 c0bd
00000070: 9e76 bcbd 88e8 f13d 3e4e 8f3d d083 d7bd
00000080: b428 cebc dbe5 a03d 1886 2ebd e226 8d3d
00000090: 91a3 bbbd 7654 933a 6339 dcbd 80fe fa3d
000000a0: 1189 36bc 3e53 b43d 14fd 823d f221 88bd
000000b0: 0ac6 bcbd f437 d1bd d3a3 68bd 1d31 963d
000000c0: f627 293d 6a9d 9f3d d3c4 a03d 2935 223d
000000d0: 8948 e23c 3bfd abbd 845f 783d f042 303d
000000e0: 017b 99bd ff2c 05bd ee8b 23bd 5a07 df3d
000000f0: 9da4 a93d 4531 02bd 4184 7a3c f415 dd3c
