weight/best_AUSTRALIA_model.pth (torch, 28561 bytes, 12 tensors)

SSM_blocks.0.W_bh f4 [64]
00000000: ec04 a83c 0eeb e3bc dccc 15bd c9bb a7bc
00000010: 8f37 d63b b15c 1fbd aab8 983c b11d 3f3d
00000020: 88c8 84bb 2b67 4e3d a964 65bc fcbc 353b
00000030: cb0b c5bd 09b2 9f3c 1fab 0f3c 7b3d 1fbd
00000040: 6994 41bd 7476 d23d 88c6 1d3d 52fa 6d3c
00000050: 2790 96bc adb8 0ebb ec86 8d3b 5f81 52bd
00000060: ec7b 01bd da99 9abc d068 3d3d 1afb 4dbd
00000070: c888 9e3d f654 d73b de7b 83bc d5ed 573d
00000080: 8ea6 debc f505 c73c a312 e4bb b736 debc
00000090: ad2b 94bc 16a9 efbb 4253 563d 30be 7cbc
000000a0: 578f c63c 561d 493d 476a 51bb 290f c9bc
000000b0: b49c 81bd 6fae 0e3c 39d6 91bd 2dca 08bb
000000c0: 8987 51bb 18a7 bcbb f4a0 11bd a36a 02bd
000000d0: 54f5 35bd 9143 993c c9d5 d93c e0dd 773c
000000e0: 56a0 813b 2e75 28bd 80cb 813b 1894 8f3b
000000f0: 9a58 0cbd 1663 2abc 7d63 753d 07b6 a63c
0.02051016 -0.027822044 -0.036572322 -0.020475285 0.006537385 -0.038906757 0.018642742 0.046659175
-0.0040522255 0.050391357 -0.01400105 0.0027731052 -0.0962139 0.019494073 0.008768826 -0.03887699
-0.047260676 0.102764994 0.038519412 0.014525013 -0.018379284 -0.0021777556 0.0043190625 -0.05139291
-0.03161232 -0.01887219 0.046242535 -0.050288297 0.07740933 0.0065714074 -0.016050275 0.05271705
-0.027179029 0.024294833 -0.0069602295 -0.0271257 -0.018087232 -0.007313858 0.052325495 -0.015426204
0.024238272 0.049100243 -0.0031954215 -0.024543362 -0.06328717 0.00870858 -0.07120938 -0.002087246
-0.0031971654 -0.005757224 -0.035553887 -0.031839978 -0.044423416 0.018708976 0.026591199 0.015128583
0.003955881 -0.041127376 0.0039610267 0.004381668 -0.034264185 -0.0103996005 0.059909333 0.02035047

SSM_blocks.0.W_bg f4 [32]
00000000: 0000 0000 0000 0000 0000 0000 0000 0000
00000010: 0000 0000 0000 0000 0000 0000 0000 0000
00000020: 0000 0000 0000 0000 0000 0000 0000 0000
00000030: 0000 0000 0000 0000 0000 0000 0000 0000
00000040: 0000 0000 0000 0000 0000 0000 0000 0000
00000050: 0000 0000 0000 0000 0000 0000 0000 0000
00000060: 0000 0000 0000 0000 0000 0000 0000 0000
00000070: 0000 0000 0000 0000 0000 0000 0000 0000
0.0 0.0 0.0 0.0 0.0 0.0 0.0 0.0
0.0 0.0 0.0 0.0 0.0 0.0 0.0 0.0
0.0 0.0 0.0 0.0 0.0 0.0 0.0 0.0
0.0 0.0 0.0 0.0 0.0 0.0 0.0 0.0

SSM_blocks.0.W_A.weight f4 [64, 64]
00000000: 42ac de3d cbcf e63d b783 583d 8292 4d3d
00000010: 5d86 c6bd 39f4 08be f30f 44bc 8f7b 02be
00000020: afc2 9d3c a91c 66bc 16c5 8fbd d8b3 2fbc
00000030: 3a8c 8ebd 33d3 4b3c fae7 b7bd 4c99 b6bd
00000040: a5e7 70bc 6055 b2bd 6728 19be d769 dabd
00000050: 0b69 0b3c 7fa5 743b 7e75 a73d 4e23 74bd
00000060: 9896 c8bd a14b 47bd 64de 293d 73ed 8cbd
00000070: 4863 863d 23eb 60bc 9932 16bc c80b c7bd
00000080: 42b7 c73d a201 6ebd 2dcb bdbd db76 0a3e
00000090: feab 5ebd f4bc fd3c b5a5 16be 1a1a f5bd
000000a0: d71b eb3d b10d fb3c 9784 153d 9ce8 1e3d
000000b0: 64a8 cd3d 8b13 5dbd 6f66 ff3d 52c4 b2bd
000000c0: 2294 023e b761 f83d b662 673d 471e a2bd
000000d0: 0809 533c 7e9f c7bd dc5d 2e3e 7acd d9bc
000000e0: d87d 90bc c89e 0d3e ceba 8b3d d527 093d
000000f0: 16fe 8c3c b17b 06bd 6118 f4bc 8408 82bd
00000100: 6830 313c 54fc 463d 1fba 7b3d 09e0 42bd
00000110: 2feb 163e 1896 333e 4344 cbbc 7ef6 563d
00000120: a913 0b3e c868 1c3d 1467 b1bd 00ea 883d
00000130: c3e6 f73b 60ce 30be e0c7 023e 2f86 a7bd
00000140: d069 a73d 7d40 fb3c f956 cf3c de4e ab3d
00000150: ce60 fcbd 2a1e 603d bc01 bbbd 58d2 533d
00000160: 8732 c7bd 3d92 5e3c 54a5 a0bc 21fe 33bd
00000170: 08f4 a3bd 895a ac3d 6770 99bd c83e 8a3b
00000180: 56be 65bd 4e57 a5bc c97b 993d 5d7f 963d
00000190: 7bd4 7f3d 3981 513c e216 70bc 8564 4ebd
000001a0: dacb d6bd 31f2 193d 7849 12be c5c8 a63d
000001b0: b636 db3c ef9c e5bc 9a0c 433d cd07 22bd
000001c0: b76e 22bd cc50 13be fbcc b43c 9ee9 ac3c
000001d0: 5516 8b3d 59f3 1bbd 7bc0 16bd 6c84 b73d
000001e0: 9146 01be 2f97 65bd e42a ed3d 74b8 cc3d
000001f0: 7dd0 a23d ccb8 b5bd 5b1a 95bc fd9e c93d
00000200: 6380 e2bd 1ead ffb8 49d3 31bd 264a c2bd
00000210: 1a3d b43c e1d5 c9bd 7875 0e3d 2d0a 83bc
00000220: 918c 253d dc93 90bd b525 96bd 1488 e53d
00000230: 278d 033d 43bb 41be 479a 8f3d e83c a33d
00000240: 3ef2 e43d ab69 013e 5128 2dbc bb00 16bd
00000250: 343f 8f3c 8706 bc3d db43 c23d 3337 c73d
00000260: 7b9c 8d3d bd5a 85bc 96ac 183c 0850 6bbd
00000270: 93c1 50bd cb54 843d bf0d 0cbe 19fd e5bc
00000280: 35b2 a23d f6ff be3d b9e1 123d 86d2 b53d
00000290: 1948 a4bc d831 84bc 37db 263d 6a1c 6abd
000002a0: 689e 25bd 8298 ee3d bd1e a23b 55dc 0dbe
000002b0: 581c e43c 56ad cb3d 7fc6 cf3d 2749 efbd
000002c0: 116d b9bd fadd 3ebd 4760 abbd 7734 d5bc
000002d0: 51e2 17be 0bd7 fdbc a6d8 cf3d 521c 1cbd
000002e0: 4a6f d63c a377 8a3d 3080 473d ae98 8ebc
000002f0: 1b04 0dbd f26b 72bd b238 e6bd 70bf c4bd
00000300: 1c65 67bd 250d 97bd 9963 05be dd99 f3bc
00000310: 3685 d2bc 2e3f dc3d 3ee1 f0bc 402c b33d
00000320: 46eb be3d 9059 c3bd 9e4d 203e 9d79 3abd
00000330: b59f bdbb bf79 553d f8a1 1e3d 6c52 aa3c
00000340: 75d8 153e 94e3 493d 1870 063d 423e ef3c
00000350: 93e4 513d dc3c 183e 97e8 eabd 9f8c 87bd
00000360: 59a9 a6bc e5c3 003e 0783 e03c a829 193e
00000370: 8f20 63bd 59f7 e53b 6c48 27be 719c 6d3d
00000380: becf 10bb d124 a83c da98 09bc 533a 2a3d
00000390: a6c6 cdbd 44fd c33d 43e8 503d 41c6 05bd
000003a0: 987c 9dbb f275 c0bd 32ef cb3d d8ef 35be
000003b0: a90f a9bd e668 13be 0640 0fbd 3c9a b8bd
000003c0: 5d05 e1bd b8d4 d5bd 954e 86bd 837d 31bd
000003d0: 304a b8bd c6da 12be 61d8 debd 3356 cd3c
000003e0: a60a 913c 18b1 a73d 496e 093e 6e6d 053e
000003f0: a778 18bd 7f7a 8f3b 6844 06be 3504 34bd
0.10872699 0.11270102 0.052859988 0.05018855 -0.096935965 -0.13374414 -0.011966693 -0.12742446
0.019257871 -0.014044919 -0.07020013 -0.01072403 -0.0696034 0.012440491 -0.08979793 -0.08915958
-0.014703666 -0.0870769 -0.14956819 -0.106647186 0.008508931 0.0037330089 0.08176707 -0.05960398
-0.097943485 -0.04865611 0.041471854 -0.06881227 0.06561905 -0.013727936 -0.009167337 -0.09719044
0.097517505 -0.058107026 -0.09267268 0.13521902 -0.054363243 0.030973889 -0.1471165 -0.11967869
0.114799194 0.030646177 0.0365034 0.038796052 0.100418836 -0.053973716 0.124707095 -0.087288514
0.1275182 0.121280126 0.056490622 -0.07915931 0.012880571 -0.097472176 0.17027992 -0.026587237
-0.017638132 0.13830101 0.068227395 0.033485252 0.017211001 -0.032832805 -0.029796781 -0.063492805
0.010814764 0.048580483 0.061456796 -0.047576938 0.14738153 0.17537725 -0.024812823 0.052481167
0.13581719 0.038185865 -0.08662239 0.06685257 0.0075653507 -0.17266226 0.12771559 -0.0817989
0.08174479 0.030670399 0.025310026 0.08364652 -0.123231515 0.054716267 -0.0913119 0.05171427
-0.09726434 0.013584671 -0.019610085 -0.043943528 -0.0800553 0.08415706 -0.07492142 0.00421891
-0.05608972 -0.020183232 0.07494313 0.07348511 0.062458497 0.012787157 -0.014653893 -0.05038883
-0.104881 0.037584487 -0.14285839 0.081437625 0.026759487 -0.028028933 0.04761944 -0.03955822
-0.039656367 -0.1438629 0.022070399 0.021107491 0.06791369 -0.03807387 -0.036804657 0.08960804
-0.12624575 -0.056052383 0.11580446 0.09996119 0.07949922 -0.08873138 -0.018201044 0.09844778
-0.11059644 -0.00012191593 -0.043414388 -0.09486799 0.022001792 -0.09855247 0.034779996 -0.015996063
0.040417258 -0.07059452 -0.07331411 0.112075955 0.032117035 -0.18919091 0.07011848 0.07970601
0.111790165 0.12637965 -0.010568694 -0.03662179 0.017486192 0.091809325 0.09485599 0.09727325
0.06914612 -0.016278619 0.009318491 -0.05744937 -0.050965857 0.064614855 -0.13677119 -0.028074788
0.079441465 0.093261644 0.035859797 0.08878045 -0.02005391 -0.016137049 0.040736403 -0.057156004
-0.04043427 0.11650182 0.004947512 -0.13853581 0.027845547 0.099451706 0.10145282 -0.116838746
-0.09054006 -0.046598412 -0.08367973 -0.026025994 -0.14832427 -0.03098633 0.10148744 -0.038112946
0.026176114 0.067611 0.048706234 -0.017406788 -0.034427743 -0.059184976 -0.112412825 -0.09606826
-0.05649291 -0.07375554 -0.13026275 -0.029736454 -0.025698286 0.10754238 -0.029404279 0.087486744
0.093222186 -0.09538567 0.15654609 -0.045526136 -0.005786861 0.05211806 0.038728684 0.020791255
0.14633353 0.0492893 0.032821745 0.029204492 0.051243376 0.14866966 -0.11470144 -0.06618618
-0.020344423 0.12574728 0.027406229 0.14957297 -0.055450972 0.0070180115 -0.1633622 0.058010522
-0.002209648 0.020525368 -0.008398259 0.04155953 -0.10047655 0.09569791 0.051002752 -0.032659773
-0.0048061125 -0.09397496 0.09957732 -0.17767274 -0.0825494 -0.14395484 -0.034973167 -0.09013793
-0.10987351 -0.104409635 -0.06557957 -0.043332588 -0.08998525 -0.14341268 -0.10881115 0.025065517
0.017705273 0.08188075 0.13420977 0.13030025 -0.037224438 0.0043786163 -0.13112032 -0.043949325

SSM_blocks.0.W_A.bias f4 [64]
00000000: b93f a93d 2be2 b23d fa85 373c 57ea 8e3d
00000010: 1787 46bc 7305 6ebd 82d2 b2bd 22a1 be3c
00000020: 6ce7 00be a221 9f3d 8974 1e3c c9fe eabd
00000030: a1e9 b2bd 2571 8f3c 464b c53d 99c8 aabd
00000040: 0d2b 75bd 758a 183e 8e46 203d cbba e73d
00000050: de50 da3b 4660 b9bd 492d 813d ea8a 813d
00000060: cfdb a13c 7590 d43d f9e6 1b3e d1e5 903c
00000070: 0f9b 90bb aea9 f43c 84c5 03bd 8f1c 403d
00000080: b38d 193c b92d 093e 961a 14bd d1f0 c1bc
00000090: cf75 483d 0bdb e0bd bcc0 273e 54fc 5dbc
000000a0: 73c3 7b3c 29d8 f73d bb5b 153d fa4b f1bd
000000b0: 7231 30be 9d06 a8bd 0f08 88bd 6c8c e33d
000000c0: 3c11 3b3c 5d18 f9bc f018 803d 7472 fbbd
000000d0: 3a45 633d 851a e53d 23da 1a3e ae49 f83d
000000e0: 11e4 b4bc 8139 03be 7307 673d b0fd 563d
000000f0: ba1f 663d ee4a 623d b647 f23d 9805 e93d
0.08264107 0.08734544 0.011201376 0.069782905 -0.012117169 -0.058110666 -0.087315574 0.023270193
-0.1258828 0.07770087 0.009671339 -0.11474378 -0.087359674 0.017510006 0.09633498 -0.08339042
-0.05985551 0.14896567 0.039129786 0.11314925 0.006662472 -0.09051566 0.063074656 0.06325324
0.019758133 0.103791155 0.15224828 0.01768771 -0.0044130157 0.029866066 -0.032170787 0.046902236
0.009372163 0.13396348 -0.036158167 -0.0236744 0.048940476 -0.10979279 0.16382116 -0.013548929
0.015366423 0.12101776 0.036464434 -0.117820695 -0.17206362 -0.082043864 -0.06642162 0.11110768
0.011417683 -0.030407125 0.062547565 -0.122776896 0.05548594 0.11186699 0.15122275 0.12123428
-0.022081407 -0.12814905 0.05640359 0.05248803 0.0561826 0.05524724 0.11830084 0.1137802

SSM_blocks.0.W_B.weight f4 [64, 1]
00000000: 799c 133e b4d6 3bbd 7e99 32bf d871 09bf
00000010: d084 073f ae80 75bf 847a b2be feca 0cbf
00000020: a770 3cbf 9e10 2f3f e7aa 85be a15c 8e3e
00000030: 966f d9be 94d8 6abe a98c 123e 2e6a 59bf
00000040: cbaa 57bf eddf cc3e 8c2a c83e 5c16 e43e
00000050: 300b 573e b829 d5bb 0a90 f93e 9883 443d
00000060: 9fc0 90be 8d46 72be ead1 143f 4eef 33bf
00000070: 9b79 f33b 567c 43be 7efc 1bbf 36b0 603f
00000080: fe8e b33d dfc7 923e c2e1 b7be 0a8d f2be
00000090: 9442 eebd deaa 00bf dfe4 4c3f 1cb8 8bbe
000000a0: a791 713f 79f8 4d3f e675 3ebe 4753 b5be
000000b0: f1ab 2dbf 1bfb ba3e fcb2 6abf a24e 5d3f
000000c0: a10c 2f3e dc2f 09bc 7753 09be 950a e1be
000000d0: a065 49bf 577e 0b3f fed1 753f 7727 723d
000000e0: f585 afbd 45fd e0be 2aac 2dbf eb43 cb3e
000000f0: 3153 af3e f433 9fbe 4776 5d3f 0685 f3be
0.14415158 -0.045859054 -0.6976546 -0.53689337 0.5293703 -0.95899475 -0.34859097 -0.5499724
-0.73609394 0.6838473 -0.2610695 0.27805045 -0.42467946 -0.2293418 0.1431147 -0.8492764
-0.84244984 0.40014592 0.3909496 0.4454831 0.21000361 -0.0065052174 0.48742706 0.04797706
-0.28271958 -0.23659725 0.58132803 -0.70287025 0.007430268 -0.19090399 -0.6093215 0.87768877
0.08767508 0.28668115 -0.35914427 -0.4737323 -0.116337925 -0.5026072 0.8003673 -0.27288902
0.9436287 0.80457264 -0.18599662 -0.35415098 -0.67840487 0.36519703 -0.9167936 0.8644811
0.17094661 -0.008373227 -0.13410746 -0.43953386 -0.7867069 0.54489654 0.9602355 0.059119668
-0.08570472 -0.4394323 -0.67840827 0.39700255 0.34243158 -0.31094325 0.865086 -0.47562426

SSM_blocks.0.W_B.bias f4 [64]
00000000: b3c5 c6be 02fc f13e 1c44 84be 4f50 1bbf
00000010: d513 0abf 1348 02bf bae1 28bf b9a2 38bf
00000020: f196 41bf 4df6 773e ea4e b9be 1cfb 61bf
00000030: ad11 3f3f 612a b5be c5d1 64bf 1f48 e4be
00000040: 1726 08bf eec2 5bbf 2572 43bf b4a8 5ebf
00000050: 2994 133d f093 593e 3519 b43d f327 7a3e
00000060: 3429 573f db98 d3bd f438 4f3d fdc1 883e
00000070: cf11 e0be 9191 22bf d571 cfbe 097d 0fbf
00000080: eb26 3a3f b4b8 e4bd 217a 67be 533f 7abe
00000090: e487 02be f275 993e 4e6d 14bd a2bf d53e
000000a0: ebd2 e43d be3b d8be e29b a4be a898 bf3d
000000b0: 938c eb3e 59b3 85be fb80 ac3d 9eab 743f
000000c0: afd2 523f 8eec 313f bc6f 383e 8252 533f
000000d0: 97a6 ddbe 3516 1fbe eb36 253f 8e73 24bf
000000e0: a2d1 8bbe 3578 563f 73c6 7bbf bb4b e83e
000000f0: bb32 6b3f cfe5 ea3d 44b8 d23e ac02 c0be
-0.38822708 0.4726258 -0.25833213 -0.60669416 -0.5393651 -0.50891227 -0.6596943 -0.72123295
-0.75620943 0.2421505 -0.3619302 -0.8827379 0.74636346 -0.35383895 -0.8938258 -0.44586274
-0.5318312 -0.85844314 -0.76346046 -0.8697617 0.03602997 0.2124784 0.0879387 0.24429302
0.84047246 -0.10331889 0.050591424 0.267105 -0.43763587 -0.63503367 -0.40516534 -0.56050164
0.72715634 -0.11168042 -0.22605182 -0.24438219 -0.1274715 0.29972798 -0.036237054 0.41747767
0.11173042 -0.4223308 -0.3215018 0.09355289 0.46005687 -0.26113394 0.084230386 0.9557437
0.8235273 0.6950158 0.18011373 0.8254777 -0.4329116 -0.15535815 0.64536923 -0.6423882
-0.27308375 0.8377717 -0.98349684 0.45370278 0.91874284 0.11469614 0.4115621 -0.37502038

SSM_blocks.0.W_E.weight f4 [32, 32]
00000000: d718 1dbe 9d24 683c 985b 0dbe 1f1b d7bd
00000010: 9152 dd3c 8b33 11bd 77c7 1d3d 8256 d73d
00000020: 5964 ebba e592 eb3d 54b3 763d 9103 343e
00000030: 0f25 a63d 848a f63d fb12 0b3d 0a28 243d
00000040: 09cb a73d 5590 2ebd 34a0 633d deed 65bd
00000050: 61ce 933d ad4d 1e3e 7c1a 193d 3f6a fc3d
00000060: 89ed aebd 6f2a a7bd 371b 433d 53f3 823d
00000070: 6a07 a2bd 6109 c03d abba 143e d788 0ebe
00000080: a39f 01be c8b8 5a3c a7c2 cebc 0ce8 1e3e
00000090: e3bb c9bd 52de 9bbd 860a 27bd 2765 1dbc
000000a0: bd25 fd3d 0e5d 21be 76ba a9bd 7d5a d03d
000000b0: b992 d73d ff79 3e3d 8e53 d1bb 6864 15be
000000c0: 860c 1d3e 9726 293e abd0 73bc 86fc 46bd
000000d0: 7258 e93d 9e2c b23d d81f 06bd 5608 c5bd
000000e0: 8e99 013e 96a1 2abd 5d20 3fbd 327a 8bbc
000000f0: e3fa 42bd 4876 94bc 11c5 233d 5c33 453c
00000100: 48f8 31be 367c 563d 9919 963b 1a94 e4bd
00000110: 4bec 6e3c 1fcd 8cbd eac6 643c 7cc6 06be
00000120: 8af6 243c c58f 51bd 531e 2bbc d37a 1d3e
00000130: d82e ecbd 47b0 afbd 610b a2bd 5976 d53d
00000140: 33f6 ef3d f466 8a3d 3a0a 753d 56e9 d8bd
00000150: a418 973d 1596 2bbe 172e 4f3d 818d 86bd
00000160: 7c8b fd3d 5b8e 38bd b9e4 d1bd 0700 1cbe
00000170: f375 26be e951 ecbd 1817 e73d 7205 163b
00000180: 5c17 063e b208 ddbd 7047 313c d028 34be
00000190: 4a06 3f3d 4701 21be 8831 8bbd 46b6 103d
000001a0: 0a71 df3d 85e8 e93d 433e ef3d 78e6 253d
000001b0: 17e1 96bc 0890 283e cef4 01be 7af3 f43d
000001c0: 3e5e bebd 2a6f 0abe e166 113e 2721 d5bc
000001d0: 124e 19be 14b1 343e 5b7b 33bc ded0 25be
000001e0: ad98 27bd 4fd3 243e 1811 16be 24ce b13d
000001f0: 7b8b 6f3b d633 0e3e daf0 063e 7302 29bc
00000200: e605 9cbd ade3 df3d b327 ce3d 0231 cd3d
00000210: 231c 9a3c e42b 7b3d 97fb e7bd e560 a03d
00000220: 843d 1d3e e438 c3bc 7997 b13d e929 65bd
00000230: 7e46 aabd db2d 88bd 191e cebd d0dd 28bd
00000240: 356d 1d3e 8610 32bc b0a7 1d3d 0fc3 28be
00000250: e9a1 5a3d cb30 03be 1e8f 083e 98eb dcbd
00000260: e723 60bd 33fc 5a3d c29c 933d 3d59 8fbd
00000270: afbf 26bd cdd0 f3bc 9e33 df3c 5b54 0bbe
00000280: 78f6 c8bd 0276 c43d 4143 10be a562 b03d
00000290: 8775 36bd ae0a 283e 6a7d 91bd 9c61 0dbe
000002a0: 21ee b73d 4375 0c3c cacd 09be 3c35 393d
000002b0: 11d8 2dbe 7795 5f3d 0f00 7abc f465 f93c
000002c0: 862c 193e d042 05be ef0b 95bd b8e8 2abe
000002d0: bc41 e83d 38a8 a1bc 68a4 e73d 2fc0 c9bd
000002e0: d35c 92bd 0be9 e4bd 847f 103d a087 97bd
000002f0: 8bba 243e d2eb a8ba 8c75 8d3d 86cf a23c
00000300: b5d7 4fbd b879 123d a065 a03d 0b1e 25be
00000310: 9a13 b73d f816 0c3e 86d6 dabc d6cb 12be
00000320: 3a41 ecbd 0625 a4bd 5ce9 1d3e 7eec 72bd
00000330: d4bf 493d bdb9 13be 8d8b 85bc a71c ebbd
00000340: d2ff 193e eb7a 163e c12b 0ebe 8022 663d
00000350: 3990 dcbd e769 6dbd aa2b 21be 0bc3 f13d
00000360: 6b08 34be ec1f 013e 2711 b6bd e697 493d
00000370: b48c 22bd 6e31 a4bc d833 b6bd bfdd b93b
00000380: f878 d33d 3057 71bd 584c 06be ca85 17be
00000390: 5bca 613c 45a9 26be 15ec eabd a496 1fbe
000003a0: 2af7 2ebe 41ae 3e3d a9e6 91bc eb02 b5bd
000003b0: f671 e63d a7e1 153e 0bcc 203d 2dc0 ab3d
000003c0: 428b 02bd 3b9d ddbd a9ea 593c fe99 703d
000003d0: 6bb8 ad3c 387a 9cbc 441b e83d 3def c33d
000003e0: a135 f8bd 8e09 d5bb 5826 0ebe eaf6 0cbe
000003f0: 27ae 883d be80 30be 477a 143e 9320 843d
-0.15341507 0.014168886 -0.13804471 -0.1050322 0.02701691 -0.035449546 0.038520303 0.10514547
-0.0017958983 0.11502627 0.060229614 0.17579485 0.08112537 0.120381385 0.033953648 0.040077247
0.08193023 -0.042618115 0.055572703 -0.05613505 0.07217098 0.15459318 0.037378773 0.12324952
-0.085414 -0.081623904 0.047633376 0.06394067 -0.0791157 0.09376789 0.14524333 -0.13919388
-0.12658553 0.013349719 -0.025239302 0.15518206 -0.0985029 -0.076107636 -0.04078152 -0.009606636
0.12360714 -0.15758154 -0.08287518 0.10173509 0.10526032 0.046503063 -0.0063881343 -0.14589083
0.15336809 0.16518627 -0.014881293 -0.04858067 0.11393823 0.08699916 -0.032745212 -0.096207306
0.12656233 -0.041658007 -0.046661723 -0.01702604 -0.047602545 -0.018122807 0.03998286 0.012036171
-0.17379868 0.05236455 0.004580688 -0.11161061 0.014582704 -0.06875061 0.01396344 -0.13161653
0.010068545 -0.0511625 -0.010444242 0.15378885 -0.11532372 -0.08578544 -0.079123266 0.10422964
0.11716881 0.06757918 0.059824206 -0.1059138 0.07377747 -0.1675647 0.050581064 -0.065699585
0.1238012 -0.045057636 -0.102487035 -0.15234385 -0.16255932 -0.115390606 0.11283702 0.002289143
0.13094848 -0.10792674 0.010820255 -0.17593694 0.046636857 -0.15723144 -0.06796557 0.03533008
0.10910232 0.11421303 0.11681797 0.040502995 -0.018417878 0.16461194 -0.12691042 0.11960502
-0.09295319 -0.13518968 0.14199401 -0.026016785 -0.14971188 0.17645675 -0.010954703 -0.16192958
-0.040917087 0.16096233 -0.14654958 0.08681896 0.0036551643 0.13886961 0.13177815 -0.010315525
-0.076183125 0.109320976 0.10066166 0.10019113 0.018812245 0.061321154 -0.11327284 0.07830981
0.15355498 -0.023830839 0.08671469 -0.05594817 -0.083142266 -0.06649371 -0.100643344 -0.041227162
0.1537369 -0.010868197 0.038489997 -0.16480659 0.053377066 -0.12811582 0.13335845 -0.107871234
-0.05472174 0.053463172 0.072076336 -0.06999443 -0.040710147 -0.02976265 0.027246293 -0.13606398
-0.09812635 0.09592821 -0.14088155 0.08612565 -0.044545677 0.16410324 -0.07103999 -0.13806766
0.08980966 0.008572879 -0.13457409 0.045216784 -0.16976954 0.0545859 -0.015258803 0.030444123
0.1495839 -0.13013768 -0.07277667 -0.16690338 0.11340663 -0.019733533 0.11310655 -0.09851109
-0.07146611 -0.11177262 0.03527786 -0.07398915 0.16086785 -0.0012887663 0.06907186 0.019874346
-0.050742824 0.03576061 0.078318834 -0.16124742 0.089392856 0.13680637 -0.02671362 -0.1433557
-0.115358785 -0.08014874 0.15421051 -0.059307568 0.049255207 -0.14426322 -0.016301895 -0.114800744
0.15038994 0.14695327 -0.13883878 0.056185246 -0.10769696 -0.057962324 -0.15739313 0.118047796
-0.17581336 0.12609833 -0.0888999 0.049217127 -0.039684966 -0.020043101 -0.08896607 0.005672186
0.10325807 -0.05892104 -0.1311506 -0.1479713 0.013781155 -0.16275509 -0.1147081 -0.15584809
-0.17086473 0.0465529 -0.017810183 -0.08838447 0.11252205 0.14636861 0.03925709 0.08386264
-0.031871088 -0.10821005 0.013300576 0.05874061 0.021206101 -0.019101247 0.113333255 0.095671155
-0.12119604 -0.006501383 -0.13881814 -0.13766065 0.06673842 -0.17236611 0.1449977 0.064515255

SSM_blocks.0.W_E.bias f4 [32]
00000000: 8f8e 203e 6a08 fbbd 33b8 833c 3516 9ebd
00000010: 236f c6bd 7960 90bb 76a0 073e a594 8bbd
00000020: ad8a 253d 8a75 f7bd 4568 5cbd c352 303e
00000030: b4a4 323d 96fb ccbd 8399 eb3d 62df 8abd
00000040: 97a4 213e 5d40 debd 4233 1abe eea4 1a3e
00000050: 25a8 51bd 0a45 12be 8349 b83d 1c14 aa3d
00000060: 214b d9bd 6a15 04be f057 e1bd 0071 343e
00000070: 3fbd d33d 28e8 a13d 4c79 273e a993 2e3e
0.15679382 -0.12257464 0.016079044 -0.077190794 -0.096891664 -0.0044060317 0.13244805 -0.06815461
0.040415455 -0.12082966 -0.053810377 0.17219071 0.043614104 -0.10008924 0.115038894 -0.06780888
0.15785442 -0.1085212 -0.15058616 0.15101978 -0.051185746 -0.14284149 0.08998396 0.08304617
-0.10610033 -0.12898794 -0.11003101 0.17621231 0.1033883 0.079056084 0.16354865 0.17048515

SSM_blocks.0.W_F.weight f4 [32, 1]
00000000: ca07 59bf 3cad d53e 9e02 2bbf f41b 143f
00000010: c03a 4c3d 6c2e 39bf c289 5bbf 68b8 c23e
00000020: 4c6b 493f 0061 dabb b4f9 e33e cc7a 09bf
00000030: 420d 693f 9cf0 7cbf bca5 3f3f f02e 1dbe
00000040: 9433 76bf 18d2 0abf 7eff 5abf 303c d2bd
00000050: 003c 8e3a 887a 6c3e 54b4 073f b410 82be
00000060: a097 973d b6b4 52bf b6ee 73bf 54e3 9dbe
00000070: a2f3 32bf f601 1e3f 4a1b 4e3f 9ae3 0ebf
-0.8477751 0.4173373 -0.6680087 0.57855153 0.049860716 -0.7233646 -0.85757077 0.38031316
0.7867935 -0.0066643953 0.44526446 -0.53703 0.91035855 -0.9880464 0.74862266 -0.15349936
-0.9617245 -0.5422683 -0.855461 -0.10265386 0.0010851622 0.23093617 0.53009534 -0.25403368
0.07401967 -0.82306993 -0.9528612 -0.308375 -0.69903004 0.6172174 0.8051039 -0.5581604

SSM_blocks.0.W_F.bias f4 [32]
00000000: 6029 c03e b272 343f 34cb 4b3f 74a5 78bf
00000010: 80f3 283c 927b 313f 8c22 b03e 60a9 4c3e
00000020: 0017 a53d 186e a7be fcbd cf3e b843 2e3f
00000030: 70fa 77be 8021 e1be ae4b 7c3f 487c cfbe
00000040: 9486 ffbe 927b 73bf 04de 18bf ca76 71bf
00000050: c01d dcbd 1654 5abf 48fa 37bf 00ae 693c
00000060: c055 c03d 8886 51bf 0c84 6ebf d638 5bbf
00000070: 2cdc ac3e 6045 723f e8a6 333e 88b5 3b3e
0.37531567 0.7048751 0.7960694 -0.9712746 0.010311961 0.6932918 0.34401357 0.19986486
0.080610275 -0.32701182 0.40574634 0.6807208 -0.24216628 -0.4397087 0.9855298 -0.40524507
-0.49907362 -0.9511043 -0.5971377 -0.9432188 -0.10747862 -0.85284555 -0.71866274 0.014262676
0.093913555 -0.81845903 -0.9317024 -0.856336 0.33761728 0.9463711 0.17544138 0.18330967

W_C.weight f4 [1, 64]
00000000: 6af7 b13c d9b7 f3bb 7662 acbc 7cf4 a4bd
00000010: 3b9f bbbd b603 a8bc 3478 bfbc b3b7 e93c
00000020: 0d88 c43c 6474 2ebd ed6a 363d 6ad5 cbbd
00000030: 6238 9ab9 4815 453c 524e e7bc 204c 14bc
00000040: 6ff8 1e3d ef38 093d 019c b73d 705d 9fbd
00000050: 504b 1dbb 3bab ce3c 7ef6 90bd a641 6ebd
00000060: 2428 823d 7ec1 753c a9f3 4a3c e930 553d
00000070: 631d 0e3d 9951 9cbd 19a5 56bd 2dcb 463d
00000080: c52d b13c 17b3 423a d29c 533d c57a 46bd
00000090: 2acc 2cbd 6784 d83d 7252 d83c 5473 803d
000000a0: b0c1 bcbc 5f72 95bc ebd0 893d e01c 8bbd
000000b0: e3df e0bc 96e0 b8bd caba f0bb 9fa9 7b3d
000000c0: 3ee7 58bd 956c c33c 316e 6fbc c349 94bd
000000d0: 9d27 10bd bb50 11bd cf3d a8ba c6b7 dbbc
000000e0: 9509 343d 8e1d 7dbd 8b15 d43c 7f8a 693d
000000f0: b9b7 71bc d844 a03c 1780 2abd b9ef 2f3d
0.021724422 -0.007437688 -0.021043044 -0.08054444 -0.0916123 -0.020509582 -0.023372747 0.028529977
0.023990655 -0.042591467 0.044535566 -0.09952815 -0.00029415177 0.012029 -0.028235588 -0.009051353
0.038811143 0.03350156 0.08965302 -0.07781494 -0.0024001189 0.025228133 -0.07078265 -0.058168076
0.063553125 0.014999745 0.012387195 0.052048597 0.034695994 -0.07632751 -0.052403543 0.048533607
0.02162827 0.0007427199 0.051663227 -0.048456926 -0.042186894 0.10572129 0.0264065 0.06271997
-0.023041576 -0.018243013 0.06729301 -0.06792617 -0.027450508 -0.09027211 -0.0073464857 0.06144106
-0.052954905 0.023855487 -0.014613674 -0.072406314 -0.03519403 -0.03547738 -0.0012835803 -0.026821028
0.04395445 -0.061795764 0.025889179 0.057016846 -0.014753276 0.019564077 -0.041626062 0.042953227

W_J.weight f4 [1, 32]
00000000: 30e8 fcbc 05ab 25bd e6bc 9e3c c5d2 343e
00000010: b0ed a0bc bc86 fb3d 610c 243e f0a0 c7bd
00000020: 71d9 05bd d473 a93d cd72 0e3e b2d5 bb3d
00000030: d4e6 96bd 177a 26be 3d73 1a3d 7f8d 143d
00000040: 41a3 163e 74df b8bd 20e9 ecb9 faa0 a73d
00000050: 67cc 75bd ad78 3b3e 5fd2 28be 3b6d 16be
00000060: b62d fdbd 1f46 16be f856 903d 58f8 843d
00000070: 1c5f edbd ac25 923d 8eed b9bc 772f 1bbe
-0.030872434 -0.0404463 0.019377183 0.17658527 -0.019644588 0.12281558 0.16020347 -0.09747493
-0.03267807 0.082740456 0.1391098 0.091716185 -0.07368246 -0.16257511 0.037707556 0.036267754
0.14710714 -0.09026995 -0.0004518712 0.08185001 -0.060009386 0.18307753 -0.164865 -0.14690106
-0.12362234 -0.14675187 0.07047838 0.0649268 -0.11590406 0.071360916 -0.022696283 -0.15154825
