weight/best_FRANCE_model.pth (torch, 28495 bytes, 12 tensors)

SSM_blocks.0.W_bh f4 [64]
00000000: 30c6 283b 1176 b0bb 796d e83a 3a03 dd3b
00000010: f297 9ebc da38 7b3b d0e0 64bc 098d 63bc
00000020: 5f5e 133b 7d91 b1bb 6dc1 f6bb 0ab7 c8bb
00000030: 4ef7 aa3c ce70 b93c 8ec7 dfbb 2da7 e5bc
00000040: e7ab 813b c82c 62bc a670 8f3c 8e26 33bc
00000050: 4041 3bbb 27dd d5bb 9178 04bc 1705 19bc
00000060: 9418 113b b45b f63b 16f4 e3bb ff63 363c
00000070: 83fc 763b db0b ceba 5da0 1cbc 5350 c1bb
00000080: 4cb3 963c b8fe 4eb8 c308 2e3b 7256 ee3b
00000090: e35b 19bb f726 703b 58fb 08bb f149 a1bb
000000a0: b866 f8bb 1432 81bb 44e0 123c 2286 b13a
000000b0: 1c41 2b3c 097e 203b 427f 75bb 2f52 59bd
000000c0: e8c4 5fbb 0620 593b 0b37 d73b fe44 993c
000000d0: 676b 07bd 6f93 3b3b f20e 00bc dcec 85bc
000000e0: 3c8c 6e3c 7383 01bc ab5f febb dd9f ceba
000000f0: cfde e4ba 2e37 993b d522 f2ba ca19 e639
0.0025752895 -0.0053851684 0.0017732821 0.0067447694 -0.019359563 0.0038333447 -0.013969615 -0.013888606
0.002248667 -0.005418955 -0.0075303824 -0.0061253356 0.020869877 0.022636797 -0.0068292087 -0.028033817
0.00395726 -0.013804622 0.01750977 -0.010934485 -0.0028572828 -0.0065266076 -0.008085386 -0.009339592
0.0022139894 0.007518256 -0.0069565875 0.011132239 0.003768713 -0.0015720086 -0.009559718 -0.005899468
0.018396042 -4.9351453e-05 0.0026555515 0.0072734887 -0.0023400716 0.0036644319 -0.0020901766 -0.0049221446
-0.0075806044 -0.0039427374 0.008964602 0.0013544003 0.010452535 0.0024489185 -0.0037459885 -0.053056892
-0.0034144465 0.003313066 0.006567841 0.018709656 -0.03306141 0.0028621813 -0.007816063 -0.016348295
0.014559802 -0.007904875 -0.0077628694 -0.0015764196 -0.0017461422 0.0046757674 -0.0018473516 0.00043888233

SSM_blocks.0.W_bg f4 [32]
00000000: 0000 0000 0000 0000 0000 0000 0000 0000
00000010: 0000 0000 0000 0000 0000 0000 0000 0000
00000020: 0000 0000 0000 0000 0000 0000 0000 0000
00000030: 0000 0000 0000 0000 0000 0000 0000 0000
00000040: 0000 0000 0000 0000 0000 0000 0000 0000
00000050: 0000 0000 0000 0000 0000 0000 0000 0000
00000060: 0000 0000 0000 0000 0000 0000 0000 0000
00000070: 0000 0000 0000 0000 0000 0000 0000 0000
0.0 0.0 0.0 0.0 0.0 0.0 0.0 0.0
0.0 0.0 0.0 0.0 0.0 0.0 0.0 0.0
0.0 0.0 0.0 0.0 0.0 0.0 0.0 0.0
0.0 0.0 0.0 0.0 0.0 0.0 0.0 0.0

SSM_blocks.0.W_A.weight f4 [64, 64]
00000000: 00cd d9bc 2fd2 ea3d 0772 853d d6db 713d
00000010: 3b28 1bbc 14fd c5bd 30f0 9c3c ef3e 6b3d
00000020: 7d1f 803c e4b0 fabd b67a 00bd d493 79bc
00000030: de36 803c 0b31 f3bd ba41 b3bd a4a2 1cbd
00000040: f564 033e 974d 083e e009 8b3d 784d 82bd
00000050: cad0 a33d 2285 253d ff45 303d ea0e eabc
00000060: a35e 78bd 5de8 f1bd 792b e3bd c13e 07bd
00000070: 1b16 8a3d b212 0c3d 01a7 913d a61c 95bd
00000080: 01c6 c33d 0f80 97bd 3119 4ebd 12b3 6c3d
00000090: e4f8 0e3d 3fad a5bd d4e2 bbbd f71f 9cbd
000000a0: ac84 1abe 5c79 1bbb 857b 4ebb 805a dfbd
000000b0: 57fa a73c 3f9f bc3d 8eb0 b33d df1f 153d
000000c0: 00fa f5bd 6fa4 97bd 6a95 6cbd 3877 26bd
000000d0: 01f2 91bd 9677 9f3d 7a83 73bb 88fd 63bd
000000e0: b48c a7bd 2064 413d ab74 2e3c 8e5e ea3d
000000f0: e40e fe3b ac35 12bd 1818 453d dad7 9fbd
00000100: f39c 583c d83f 40bd f980 423b c822 3abd
00000110: 4445 d63d d2c0 22bd b7be 1e3c 6530 91bd
00000120: 12cb b5bd 12a4 f43d 64ff 073e 7717 0c3e
00000130: 7419 aabc 1256 cc3c aa89 c3bc a6a8 0c3d
00000140: cc6d f33d e496 803c 07d3 a13d 4740 87bd
00000150: 38a1 7eba 8e75 e53d 4797 e13d 2120 d5bd
00000160: c57b b83d 6952 bdbd d9e0 0b3d 7a0e e5bd
00000170: 0952 f43d bdcb c9bd 22d0 2a3d 92e7 6d3c
00000180: 3d41 aebd f823 8dbd 9b26 4ebd 56e6 3c3d
00000190: 310b 8e3c de4c edbd 9e51 943d c081 d2bd
000001a0: 51ae 93bd f3e1 b4bd 0d7f e63d c9c3 bdbd
000001b0: ea4c b6bd ed1b d83c 8551 ce3d 6a98 c3bd
000001c0: dce9 443d c528 a5bd b704 9f3b 5687 a6bd
000001d0: 357e ea3d 4ffb 013d a4f4 90bd d90a e9bd
000001e0: 68a6 f23d 9766 e3bc 1453 e23d 1abb 6dbc
000001f0: a397 d4bd 3865 c43d 2d73 59bd c1e3 783d
00000200: 2aea 4cbc 325c 87bc 2ea8 a4bd e2d6 c1bd
00000210: fa84 f03c 7bab 4abd d92e dabd d3c9 e53b
00000220: 5f7c 3b3d 3d1c a03b e286 d23b 51c9 163e
00000230: a561 483c 7a22 d23d 5cb5 453d 5bfb dfbd
00000240: e73e 82bd 48ea a5bd 33c9 8bbd 0325 a0bd
00000250: 56c9 25bd 56cd 9cbc 6b6b c63d 2faf fa3c
00000260: 0491 76bd 48f0 263c 0ec5 00be 5265 5fbc
00000270: ec63 3fbe 8f8e 52bd bfeb c0bc b57b 0f3d
00000280: 0435 e33c 9dac 693d c181 613d e6aa b93b
00000290: 3579 833c d9f9 953d 0b16 cfbd abdc 87bd
000002a0: 8d71 423b 6722 103e 4c77 533c 159a 1c3d
000002b0: cacf c2bd 2127 48bd a7de c13d 8d38 253d
000002c0: 49aa c7bd 52b4 e7bd 4d6e a2bd bcb3 623d
000002d0: 9e42 ba3d 4f61 093e 5da6 9ebd f4f8 3bbd
000002e0: f210 ae3d 8bf1 dfbd 919a c93d e900 14bc
000002f0: 8a31 dc3c 5fdc aa3d fb05 9bbd f108 a43c
00000300: d288 053e 9ff8 d1bd 8492 933d ec7c e0bc
00000310: 2cf5 dabd aa6d e2bd 5d3e bbbd 6f84 e1bd
00000320: 3e5a f03c 6b45 de3b 47fe 5abd 0d2f 673d
00000330: e9cf 6d3d af55 d43d 797b d73c 03b3 d23d
00000340: 2f7b 823d 9e4e 4fbd 814d a0bd 811d 303c
00000350: 8330 253d 865a f8bc cbcc 63bd ac86 0d3e
00000360: 4ee7 1439 ea16 9f3c c39c a8bc d08b f4bd
00000370: 7b82 5c3d 86f4 ddbd 0760 8bbd 276f af3d
00000380: 8151 8b3c a9b3 c6bd 07fd a23d 2170 d53d
00000390: 4ae6 533d 7705 ac3d 2d23 48bb 6523 cfbd
000003a0: 098c a3bd c7fa 023d 4813 ef3c 4869 e53d
000003b0: 311a 05be 0167 a73c 5b7c c1bd d6c9 23bd
000003c0: c154 d6bd af3d edbd 94a0 d03d eb1e f63d
000003d0: ef23 dbbd eec0 51bd 9bd2 cbbd 76cd d7bd
000003e0: 6dbc e1bd 8801 a93c 3070 1dbe 60b2 4ebc
000003f0: 19e5 883d a45a 87bc 0a9a 0bbd b422 fa3b
-0.02658701 0.114658706 0.065158896 0.059047543 -0.009470041 -0.096674114 0.0191575 0.057433065
0.015640015 -0.122407705 -0.031367026 -0.015232999 0.015651163 -0.118745886 -0.08752771 -0.038241044
0.12831481 0.13310848 0.06788993 -0.06362432 0.07998808 0.04041017 0.043035503 -0.028571565
-0.060637128 -0.11811898 -0.11092276 -0.03301883 0.067424975 0.034197517 0.071119316 -0.07280855
0.095592506 -0.07397472 -0.050316993 0.057787962 0.03490533 -0.08089685 -0.091741234 -0.07623284
-0.15089673 -0.002372346 -0.003150673 -0.109059334 0.020505114 0.09210061 0.087739095 0.036407348
-0.12010574 -0.0740441 -0.05775968 -0.04064104 -0.07126237 0.07786481 -0.0037157224 -0.055661708
-0.08181134 0.047214627 0.010647933 0.11443816 0.00775324 -0.035695717 0.04811868 -0.07804842
0.013221013 -0.046935886 0.0029678924 -0.045443326 0.1046243 -0.03973467 0.009689025 -0.07089309
-0.08876623 0.119453564 0.13281018 0.13680826 -0.02076409 0.024943385 -0.023869354 0.034340523
0.118861765 0.01569695 0.079015784 -0.06604057 -0.00097133545 0.112040624 0.11015182 -0.10406519
0.09007982 -0.09244234 0.03414998 -0.11184402 0.119297095 -0.09853313 0.041702397 0.014520543
-0.08508537 -0.06891626 -0.050329786 0.046118103 0.01733932 -0.11586927 0.0724213 -0.10278654
-0.072109826 -0.08832159 0.11254702 -0.09265859 -0.08901389 0.026380504 0.10074142 -0.09550555
0.04807459 -0.08064417 0.004852857 -0.08131282 0.11449853 0.031733807 -0.070779115 -0.11379022
0.11848146 -0.02775888 0.11051002 -0.0145099405 -0.10380485 0.095896184 -0.053088356 0.060764078
-0.012507001 -0.016523454 -0.0803989 -0.09464814 0.029360283 -0.049479943 -0.10653467 0.0070125847
0.045772906 0.0048861788 0.0064247707 0.14725234 0.0122303115 0.10260482 0.04826866 -0.10936614
-0.06359654 -0.08101326 -0.06825485 -0.078195594 -0.040475212 -0.01914088 0.09688457 0.030601112
-0.06019689 0.010189123 -0.1257517 -0.0136349965 -0.18690461 -0.051405486 -0.023549912 0.035030086
0.02773524 0.057049382 0.055055384 0.0056661246 0.016049007 0.07323045 -0.10111626 -0.06633886
0.0029669732 0.14075623 0.012906861 0.03823288 -0.09512289 -0.04886544 0.09466296 0.040337134
-0.09749276 -0.1131369 -0.079311945 0.05534719 0.090947375 0.13416027 -0.07746575 -0.045891717
0.08499326 -0.109347425 0.09843934 -0.00903342 0.02687909 0.08342814 -0.075695 0.020023795
0.13040474 -0.10252499 0.0720568 -0.027403317 -0.10691294 -0.11056073 -0.09142754 -0.11011588
0.029339906 0.0067831776 -0.053465154 0.056441355 0.058059607 0.10367905 0.026303994 0.1028805
0.06371152 -0.050612085 -0.07827283 0.010749222 0.040329468 -0.030316602 -0.055615228 0.13820904
0.00014200548 0.019420106 -0.020582562 -0.119407296 0.053835373 -0.10837655 -0.06805425 0.085661225
0.017006638 -0.09702236 0.079584174 0.104217775 0.051733293 0.0839948 -0.0030538545 -0.10114173
-0.07985694 0.03197744 0.029183999 0.112017214 -0.12998272 0.020434858 -0.09447547 -0.039987408
-0.10465384 -0.11584031 0.10186878 0.12017616 -0.10700213 -0.051209383 -0.09952279 -0.105372354
-0.110222675 0.020630613 -0.15374827 -0.01261577 0.06684322 -0.016522713 -0.03408245 0.0076335315

SSM_blocks.0.W_A.bias f4 [64]
00000000: 2ccd f2bd 4a9f b13c c8b6 c63d fd54 d1bd
00000010: e1c3 a33c 5fd0 cebd 007c 07be 4a13 b63d
00000020: 8b32 d6bc 4715 94bc 879c a9bc d83c a43d
00000030: 4cbd d33d 5bfc 243d 9126 27bc d12c 8cbd
00000040: e00e 773d 1c26 7fbd 062d aebd 1282 ab3c
00000050: b85d 02bd 6183 ac3d 2aee 613d 696c c43d
00000060: f1f7 cdbc 9f55 aa3d 33dd 87bd a701 0a3e
00000070: daf4 40bd c1bc d1bd e35d a83d e7ed df3d
00000080: 2f5e 403d adbc 583d a84e 8b3d c077 64bd
00000090: a357 93bd da0d a93d b939 093c edd7 703c
000000a0: 4f7e d23c 4594 8d3d 62af ecbc 548f 8cbc
000000b0: ea94 f13d dd73 0fbc 9775 bbbb 2d57 433d
000000c0: a8de f6bd 8826 e5bd ceed a8bd 541a 293d
000000d0: a72e e6bc 0b3d 303d 876b 103a 02f7 f7bd
000000e0: 1e61 ea3d e3db 913d 93da a8bd 4ac4 00be
000000f0: 955d fabd 5c7c 8f3d 16a7 c93d e733 94bd
-0.1185554 0.0216824 0.097028315 -0.10221288 0.019990863 -0.100983374 -0.13230896 0.08890398
-0.026147148 -0.018076552 -0.02070452 0.080194175 0.1033884 0.040279727 -0.010202066 -0.068444856
0.06031692 -0.062292203 -0.08504681 0.020936046 -0.03182766 0.08423496 0.05515877 0.0959099
-0.025142642 0.08317112 -0.06633987 0.13477193 -0.04710851 -0.1024108 0.082210325 0.10934048
0.04696482 0.05291431 0.06802112 -0.055778265 -0.0719445 0.08254595 0.008375579 0.014699918
0.025694994 0.06913046 -0.028892223 -0.017158188 0.11795981 -0.008755651 -0.005720805 0.04769056
-0.12054187 -0.1118899 -0.08248483 0.041284874 -0.028098417 0.043026965 0.0005509187 -0.1210766
0.11444305 0.07122018 -0.08244815 -0.12574878 -0.122248806 0.070061415 0.09846322 -0.07236462

SSM_blocks.0.W_B.weight f4 [64, 1]
00000000: b4a6 513f fc47 553f a3f1 5fbf 17c2 1dbf
00000010: e2b8 6abf b2e7 f93e 3d28 45bf 7f5f b63e
00000020: 0f87 013f 6393 97be c695 2fbf d2b0 ebbe
00000030: dc65 b73e e229 513f 7559 343d bf63 05bf
00000040: 1a85 b6be 1620 d53e 17c4 483f a20c 873e
00000050: ab39 a63e 0852 bfbe f5af 07bf 031c 32bf
00000060: c6ca 4bbf 622d 963d 1a6d 52bf 1485 7b3e
00000070: 9d27 273f 352e 773f fc5d 063e 5840 12bf
00000080: 57ad 203f 4084 b4bd cc40 53be 24dc 09bf
00000090: f3b7 66bf f301 09bf 436a 683e 95ff 3c3e
000000a0: 0cd0 89be 1d84 5ebf 8af4 28bd 2eff 47bf
000000b0: 9297 c43e d727 27bf 9119 17be 03ec e5be
000000c0: d20b 613f bace 6abe ea8a 873e 903d 673f
000000d0: 6e71 6ebf 7f85 23bf d4b5 13bf 4c06 71bf
000000e0: 4212 0b3f 5401 69bf 220b 06bf 3f3d 4cbf
000000f0: f3a0 623f d264 5d3f 2b3f 15bf 178f d73e
0.81894994 0.83312964 -0.87478083 -0.6162428 -0.9168836 0.48809582 -0.77014524 0.35619733
0.5059671 -0.29604635 -0.6858791 -0.4603334 0.358199 0.81704533 0.044030625 -0.52105325
-0.35648423 0.41626042 0.7842421 0.26376826 0.32465872 -0.37367272 -0.53002864 -0.6957399
-0.7960628 0.07332875 -0.82197726 0.24562484 0.6529482 0.9655488 0.1312179 -0.5712943
0.62764496 -0.08814287 -0.20630187 -0.5385153 -0.90124434 -0.535186 0.22696786 0.18456872
-0.2691654 -0.8692034 -0.041248836 -0.7812375 0.3839689 -0.65295166 -0.14755847 -0.44906625
0.8790866 -0.22930422 0.2647317 0.9032831 -0.9314183 -0.63875574 -0.5769932 -0.94150233
0.54324734 -0.9101765 -0.5236074 -0.79780954 0.8852684 0.86481965 -0.5829951 0.42101356

SSM_blocks.0.W_B.bias f4 [64]
00000000: 9d42 0d3f 9e79 1c3f dea3 22bf 17ac 7b3d
00000010: e0a2 113f a63a 633f 2ecc a9bd c79f 783f
00000020: 3188 18bf a552 813c 9144 37bf aa76 23bf
00000030: 17c8 f8be deb9 a73e 9f95 f23e 906d 643f
00000040: 48af 1fbd ba34 523f 1d82 1c3f fa2a 313e
00000050: a87a 7e3f 0ee6 19bf bc82 673f a1d8 e9bd
00000060: 8170 733f f808 17bf ea35 9abe 10eb febd
00000070: bd6d 423f 2ad9 4c3f 46db 293f 4244 57bf
00000080: fc98 e0be 35ee 043e 8bd7 31bf a5dd 34bf
00000090: d36f e73e 6dda 93be 12f1 263e 8a8d 413f
000000a0: 45d0 793d f55c 12bf 5256 e3be 0e8f 43bf
000000b0: aa5b a9bc 752b 6d3f 3fbf 2b3f 349e 133f
000000c0: 02eb 333f 57a7 623f c468 07bf 2390 c93e
000000d0: b730 a6bd 9fda a1be 30d1 af3e 8061 103e
000000e0: 80bc 65bf e221 cc3e 1b93 52be c7e0 b83c
000000f0: 9f2c 143f 09bc 17bf 7e08 40bf 0ab1 38bf
0.5517977 0.61123073 -0.6353129 0.061443415 0.5688915 0.88761365 -0.08290897 0.971188
-0.5958281 0.015786478 -0.71589 -0.6385294 -0.48590156 0.32758993 0.47379777 0.8922968
-0.03898552 0.82111704 0.6113604 0.1730155 0.9940591 -0.6011666 0.9043386 -0.11418272
0.9509354 -0.5899806 -0.30119258 -0.12447178 0.759487 0.80018866 0.6635021 -0.8408853
-0.43866718 0.12981494 -0.6946952 -0.706507 0.45202503 -0.28877583 0.16302899 0.75606596
0.060989637 -0.5717309 -0.44401795 -0.7639016 -0.020673592 0.92644435 0.67088693 0.57663274
0.7028047 0.8853659 -0.52894235 0.3936778 -0.0811476 -0.31612107 0.34339285 0.14099693
-0.89740753 0.398696 -0.20563929 0.02256812 0.57880586 -0.59271294 -0.7501296 -0.7214514

SSM_blocks.0.W_E.weight f4 [32, 32]
00000000: 7bef 1ebe abfd d63d a355 d9bc ae5e c5bd
00000010: a8bd 3ebd 91e2 4dbd 107b 2d3e fe42 10bd
00000020: 0269 d4bd bd5a 2b3e d761 473d 1fc2 f4bd
00000030: a99e a8bc e15e 073e 01e1 89bb 7249 cf3d
00000040: 739f 64bd 4c50 bcbd 32d7 e7bd 6416 273c
00000050: b77c 33be a22d 12be a594 9e3d 8e3a d13d
00000060: 47df 12bd 1034 f4bc d1a8 0cbd 0222 e53d
00000070: 32b2 6b3d 686f 3fbd 0420 a53d 0859 13bd
00000080: e9ac 913d e0ad 843b 85f1 2a3e eaa3 293d
00000090: 3e68 85bc dd00 18be c0bc 1dbe a71f 063e
000000a0: 18b4 2ebe e29a f13d f875 8abd 131a cabc
000000b0: 580b c0bd 489a 893d 44a9 95bd 53d1 f0bc
000000c0: 10cd c1bd c178 f5bc 129f d8bd 2aeb adbd
000000d0: f998 363c e1d7 a43d bed5 313c 3c21 803d
000000e0: e7b2 b0bc 0499 88bd daea efbd aee1 1b3d
000000f0: 2904 153e caa5 3abd 2fdd 12be 75bf 81bb
00000100: ad1f 143e 09bc 09be 048d febd decd e53d
00000110: b19b cfbc 82dd 623b 3924 813d 565d abbd
00000120: 1150 c43c d18d 2fbe c527 dabd 5cd9 613d
00000130: d9c2 34be dbd2 0bbe 17de b2bd 79f6 303c
00000140: cc29 b13d 4a04 9b3d 9dca 313e 668b c8bd
00000150: f859 b73d 93ac 273e a55b 9ebd b64a 123e
00000160: 41b4 6ebc 0469 1d3e 3a27 333e 5cd5 fc3d
00000170: 486f 283e 25da 523d 2134 b9bd c202 e0bd
00000180: 16e7 cdbd 75b6 c1bb 7d57 a1bd 9c50 1c3d
00000190: e593 0bbe a4a5 b53c 9932 253d 3440 65bd
000001a0: e950 bf3c f5f6 133d c251 35bd 70bc 0a3e
000001b0: dada 2ebe abcd 053b f197 c33d 81f2 89bb
000001c0: 81ab b1bd 76ed c93d e869 cb3d 0f55 983d
000001d0: 2861 18be 476a 23be 509a 5dbd f80b 1a3e
000001e0: 6559 fabd 628f abbd 0a19 d63d b78a f6bc
000001f0: 7102 103e 2822 8a3d b923 d0bc 60fd 30be
00000200: 8d8f 07be 53fd ef3d 52d1 b43d 7178 18be
00000210: 8488 fa3d 5938 d93d a150 253e e72a df3d
00000220: 2eef fcb9 eea4 e6bd 343b 12bd 4156 193e
00000230: d122 3fbc a6fe 063e 4636 a8bd 5c70 923d
00000240: 22ff 28be d9a6 c93d d5e3 083e 547c b53d
00000250: 790f 0e3d d91f 133e 32a1 093e fbc9 d03c
00000260: 4e43 a9bd 1952 17be 609e da3d 6dfe 20be
00000270: cf93 133e e1e0 81bd 4bd5 c8bd f400 b4bd
00000280: 0906 083e 0255 c8bd 4c02 0abe f1dd 2d3e
00000290: 3295 253d 83fc 923c d1eb 113e c32d ee3d
000002a0: a09f 153e 9f60 223e 9717 0dbe 622a a4bd
000002b0: dd26 edbd 60cd 193e a13f 893d ad82 4bbd
000002c0: 0ad4 793b 8ee6 a13d 57f9 253d 1adc 023e
000002d0: 2bcb 1abe c1ee 0cbe 3eb5 173e de59 0bbd
000002e0: b45b a0bc 1717 dd3d 3387 81bc b4ab afbd
000002f0: 64a7 1b3d 2c6e b8bd cebf 78bd 4a8f 9ebb
00000300: 29b3 e4bc 5edb 223e 7c89 033d f490 96bd
00000310: 6115 ccbc f062 0c3e 903b f8bd e146 803c
00000320: 4b6c 163e c4a5 213d 230d 0dbd b06c 173e
00000330: d0e9 eb3b bde1 713d 886f 55bd 6019 c0bd
00000340: 0d00 0d3e 1510 183d 1a09 96bd eb51 9fb9
00000350: 4c9b b5bc df2a 133d dea2 3fbd 778c f53d
00000360: 0971 c43c 97b4 0fbe 5a91 ad3b 566f 09bd
00000370: a5bb 103e 23bb 943d c66c 9ebd f146 21be
00000380: f453 4dbd c602 80bc cfab 563d ce1d 163e
00000390: 1c5e 703c 50eb fa3d ef99 9bbd 2053 2ebe
000003a0: a6c2 be3d 7954 293c 8478 d7bd beac f03d
000003b0: d525 fc3c 364a 1ebd 29bb 333e ed4f b5bd
000003c0: 984e 08bd 80e8 32be 9f9c eabd 722c 2d3e
000003d0: a76a fa3b 8f1c 213e 0dd0 38bd 7fe1 04be
000003e0: 5294 453c 512e 84bd ae0f 26bd 0225 a7bd
000003f0: 0570 ddbd c6ce 15bd e9b8 8fbd 93c3 9d3d
-0.15521042 0.10497602 -0.026530093 -0.09637199 -0.04656759 -0.0502649 0.16941476 -0.03522014
-0.10371591 0.16733833 0.04867729 -0.11951088 -0.020583468 0.13219787 -0.0042077308 0.101214305
-0.055816125 -0.09195003 -0.11320342 0.010198209 -0.17528044 -0.1427522 0.077431954 0.102162465
-0.035857465 -0.029809982 -0.034340683 0.11188127 0.057542987 -0.046737105 0.08062747 -0.03597358
0.07113058 0.004049048 0.16693695 0.041416086 -0.016285058 -0.1484408 -0.15404034 0.13098012
-0.17060888 0.1179712 -0.06760782 -0.024670636 -0.09377164 0.0671888 -0.073076755 -0.029396689
-0.09462941 -0.029964807 -0.10577215 -0.084921196 0.01114487 0.08048988 0.010854183 0.06256339
-0.021569682 -0.066698104 -0.11714716 0.03805702 0.14552368 -0.045568265 -0.14342187 -0.003959591
0.14465208 -0.13450636 -0.1242924 0.11220907 -0.025342794 0.0034616892 0.06305737 -0.08367412
0.02396396 -0.17143942 -0.10652117 0.05513893 -0.17652453 -0.13654654 -0.087337665 0.010800951
0.0865055 0.075691774 0.17362447 -0.09792213 0.08952707 0.16374426 -0.077323236 0.14286312
-0.014569343 0.15372092 0.17495432 0.123453826 0.164487 0.05147757 -0.09043146 -0.10938026
-0.10053842 -0.005911643 -0.07878015 0.038162813 -0.13630636 0.02217371 0.040331457 -0.055969432
0.02335401 0.03612419 -0.044267423 0.13548446 -0.17075673 0.0020416777 0.09550465 -0.004209817
-0.0867529 0.09859745 0.099323094 0.07438099 -0.14880812 -0.1595851 -0.054102242 0.15043628
-0.12224082 -0.083769575 0.104539946 -0.030095441 0.14063431 0.06744796 -0.025407659 -0.17284155
-0.13238354 0.1171824 0.08828987 -0.14889695 0.122330695 0.106064506 0.16144039 0.10896855
-0.00048243388 -0.112619266 -0.03570099 0.1497431 -0.011666016 0.13183078 -0.08213477 0.07150337
-0.16503575 0.09846277 0.13368161 0.08861604 0.034682725 0.14367618 0.13440397 0.025486937
-0.082647905 -0.14777412 0.10674739 -0.15722056 0.14411853 -0.0634172 -0.098063074 -0.08789244
0.13283552 -0.09781839 -0.13477439 0.16979195 0.040425487 0.017942673 0.14250113 0.11629822
0.14611673 0.1585717 -0.1377853 -0.080158964 -0.11579678 0.1501975 0.067015894 -0.04968517
0.003812077 0.07905303 0.040520992 0.12779275 -0.15116565 -0.13762952 0.14815232 -0.03402125
-0.019574977 0.1079542 -0.015811538 -0.08577672 0.038001433 -0.090053886 -0.060729794 -0.0048388587
-0.027917461 0.15903994 0.032113537 -0.07351866 -0.024912538 0.13709617 -0.12120736 0.015658798
0.14689748 0.039464727 -0.034436356 0.14787555 0.0071995035 0.05905317 -0.052108318 -0.0937984
0.1376955 0.037124712 -0.07325955 -0.00030387877 -0.022168778 0.035929557 -0.04678618 0.11989682
0.02397968 -0.14033733 0.0052968683 -0.033553444 0.1413408 0.07262256 -0.07735591 -0.15749718
-0.050128892 -0.015626322 0.052409943 0.14659807 0.014670875 0.122519135 -0.0759772 -0.17023897
0.0931447 0.010335081 -0.105210334 0.11751698 0.030779758 -0.03864499 0.17551865 -0.08853135
-0.033278078 -0.17471504 -0.11455654 0.16911486 0.0076421085 0.1573355 -0.045120288 -0.12976645
0.012059288 -0.06454147 -0.040542297 -0.081613556 -0.10812382 -0.036574148 -0.07017691 0.077033184

SSM_blocks.0.W_E.bias f4 [32]
00000000: 534a 3f3d 80c6 12be e3a1 003e ef9a 20be
00000010: 3d09 bfbd 7db2 9e3d c263 33bd c1c5 cdbd
00000020: ba5b e3bc 8589 40bd 1fb1 06be 4767 f7bd
00000030: 5c57 af3d 16e2 8b3d b234 19be 982a ccbc
00000040: 824e e83d f9a4 363d 4153 203e 9b70 98bc
00000050: 19a5 9abc ab86 0abe 527a 143e ce34 02be
00000060: 4c25 0abe 81c5 e3bd cf84 303d 6734 1bbe
00000070: 1c12 26bd 2579 77bd 671f 86bd 9956 e3bc
0.04670174 -0.14333534 0.12561755 -0.15684102 -0.09327934 0.07748888 -0.04379631 -0.10047484
-0.0277537 -0.04700615 -0.13153504 -0.120802455 0.08561584 0.06830232 -0.14961508 -0.024922654
0.11343099 0.044590924 0.15656759 -0.018608382 -0.018877553 -0.13527934 0.14499786 -0.12715456
-0.1349079 -0.11121655 0.043095406 -0.15156709 -0.040544614 -0.060418267 -0.06548958 -0.027751254

SSM_blocks.0.W_F.weight f4 [32, 1]
00000000: fe20 04bf d26e 2b3f 0801 e73e 4c67 5b3f
00000010: 8008 733f 0cc8 0abf ae63 3ebf 12c0 1bbf
00000020: 146c 463f 4a42 523f dac8 28bf 5c33 28bf
00000030: 00db fd3d 2e38 4abf 30a7 ea3e 7c26 50bf
00000040: 283e 3b3e e887 433e 707d bcbe 805b da3c
00000050: 904e f5bd 927d 45bf 106c a6be 00ca dabd
00000060: 7237 283f 24ee 533f 16c8 58bf 2c9d cd3e
00000070: 26ff 4bbf f452 ebbe 7267 023f 769d 633f
-0.5161284 0.66965973 0.45117974 0.85704494 0.94934845 -0.542115 -0.7437085 -0.6083995
0.77508664 0.821324 -0.65931475 -0.6570337 0.123952866 -0.78991973 0.4583068 -0.8130872
0.1828543 0.19094813 -0.3681445 0.026654959 -0.11977875 -0.7714473 -0.3250432 -0.1068306
0.657096 0.8278525 -0.84680307 0.40158975 -0.796862 -0.45961726 0.50939095 0.8891214

SSM_blocks.0.W_F.bias f4 [32]
00000000: f4da f13e b2f3 30bf e8e4 1b3f 326a 4fbf
00000010: 0019 3d3c c83c febe 2200 013f 22a3 20bf
00000020: dcfc 95be 04b7 28bf 208e 603d 52ca 243f
00000030: 68d8 43bf aca0 6bbf b862 2c3f 20b7 aabd
00000040: b8a1 88be feb5 22bf 8468 f53e 7ea5 583f
00000050: d27e 69bf c0d1 69bd 64ba 9ebe 488d 193f
00000060: 7428 1dbf a4ab ad3e b8e2 443f 9e9d 323f
00000070: ac19 633f be13 25bf 226a 06bf c4ec 6cbf
0.4723736 -0.6912185 0.6089616 -0.81021416 0.011541605 -0.49655747 0.5039083 -0.6274892
-0.2929448 -0.6590426 0.05482304 0.64371216 -0.76502085 -0.9204204 0.6733813 -0.083357096
-0.26685882 -0.6355895 0.47931302 0.8462752 -0.9120914 -0.0570848 -0.3100158 0.59981203
-0.6138985 0.33920014 0.76908445 0.69771755 0.8871105 -0.6448325 -0.52505696 -0.92548776

W_C.weight f4 [1, 64]
00000000: 2cef 99bd 0fe8 1cbd 7bd4 61bd bd9f fd3c
00000010: 3df5 483d 735b 863c 5548 c1bd 6c78 ebbd
00000020: 58fe 9ebd 0d8b 313c 1818 70bb 9b14 bc3c
00000030: 0e3a de3c 3080 2d3b faf0 703d fd7e bdbd
00000040: 607b 573d b62e 57bd 3dd8 11bc 0a17 c0bc
00000050: 8d18 3bbc 7526 4c3c efce 9b3d 8ea8 87bd
00000060: 3a08 013e 9996 60bd c71b a7bd c6d1 c33d
00000070: 9169 e6bd 2f76 f03d e55e 563b 6f23 8c3c
00000080: 2bfe af3c 25b5 9d3d e9b0 5dbc 395b e43d
00000090: ae4c 9d3d a151 cebc 511e be3d f042 373d
000000a0: 6b11 933a aa96 7d3a 3618 bf3d a63c 1a3c
000000b0: 57f9 28bd 3dfc 9d3d 08fa a73d 261e b63c
000000c0: f9e6 02bd 0d42 813d 8d0e 97bd b8c3 9b3a
000000d0: 6007 16bd 3849 fa3d 716e 433d 682a d4bc
000000e0: f408 733c ccfd 7ebc 2ad1 b43d ddad be3d
000000f0: c367 04be 9a2b 1f3d f0bc eabd cb6a f6bd
-0.075163215 -0.038307246 -0.055134278 0.030959958 0.049062002 0.016401028 -0.09437624 -0.11497578
-0.07763356 0.010836375 -0.0036635455 0.022959044 0.027127292 0.002647411 0.058823563 -0.09252737
0.052607894 -0.05253478 -0.008901653 -0.023448486 -0.011419428 0.012460341 0.07607829 -0.06623946
0.12600794 -0.05483112 -0.08159595 0.095614955 -0.11250604 0.11741292 0.003271037 0.01710674
0.021483501 0.07700566 -0.013530948 0.11150212 0.07680641 -0.025185408 0.09283126 0.04474157
0.0011220401 0.0009673635 0.0933079 0.009413874 -0.041253414 0.07714126 0.082019866 0.022231173
-0.031958554 0.06311426 -0.07375822 0.001188389 -0.036628127 0.122209966 0.047712747 -0.025899127
0.014833678 -0.01556344 0.088289574 0.093105055 -0.12930207 0.03885994 -0.11461818 -0.12032088

W_J.weight f4 [1, 32]
00000000: be57 a63a 397f a73c 5145 eabc 5d7e efbd
00000010: 7c58 213d d4ff 4fb8 0cf2 0ebe 8f23 81bd
00000020: 9228 03be a896 283e d6b5 1dbe 92c2 0f3e
00000030: 2ff6 86bd 8beb 88bd 9b35 32bc ce9f 1e3d
00000040: e0ac 303e 84dd 4a3d cb11 d33d cb3a dfbc
00000050: 39ad e03d 9777 da3b a6a6 09be 08ee 0d3e
00000060: 8a55 25be 332e bebd 5f04 a53c d1e4 7b3c
00000070: 1ba7 083c 9f94 f1bd ed4d c8bc 6bce 913d
0.0012690944 0.020446407 -0.028597506 -0.11694024 0.039391026 -4.9590904e-05 -0.13959521 -0.063056104
-0.12808445 0.16463721 -0.15401396 0.14039066 -0.065899245 -0.06685551 -0.010877038 0.03872662
0.17253447 0.04952766 0.10306128 -0.027249714 0.109705396 0.0066670883 -0.13442478 0.13860333
-0.16145912 -0.092861556 0.020143686 0.015374378 0.008340622 -0.11795925 -0.02445122 0.07119449
