weight/best_CANADA_model.pth (torch, 28495 bytes, 12 tensors)

SSM_blocks.0.W_bh f4 [64]
000000 a7 b9 10 3b 9a cb c2 38 eb 03 15 bc 64 66 46 3b
       0.0022083314 9.2885646e-05 -0.009095172 0.0030273432
000010 26 39 bb bb c5 50 a8 bb cd 8e e4 3b 3c e7 d5 ba
       -0.0057135997 -0.0051365816 0.006975031 -0.0016319524
000020 4c 66 19 bb 71 68 4f 3b e2 45 c5 3b 9c e7 11 ba
       -0.002340692 0.0031647945 0.0060202936 -0.00055658235
000030 2b 7c 53 3a 80 6b 08 bc 43 45 d3 3b c5 d5 c3 bb
       0.00080675137 -0.008326411 0.0064474656 -0.005976411
000040 bb 00 7e 3a ed 77 6d 3b 09 40 4e 3b 4f cd 10 39
       0.000968944 0.0036234811 0.0031471273 0.00013809394
000050 d7 fc ed 3b 86 3a 82 3b 95 29 3d 3b 64 c8 dc bb
       0.007262807 0.0039742617 0.0028863896 -0.0067377556
000060 9e 33 11 3c ec 2d d4 b9 cb d3 3a bc f1 82 55 3b
       0.008862404 -0.00040470005 -0.011403034 0.0032579268
000070 a5 73 a0 3b df aa a6 3b de 96 3f bb f7 67 be 3b
       0.0048965984 0.0050862874 -0.002923421 0.0058107334
000080 ba fb 43 bb a9 21 60 bb 4e 24 7e bb c2 60 3b 3c
       -0.002990468 -0.003419975 -0.0038778963 0.011436643
000090 49 8c d0 39 46 53 b0 bb e1 db d3 3b 63 55 54 3a
       0.00039777372 -0.0053810207 0.0064654206 0.0008099882
0000a0 b2 e6 b5 bb 82 ec d7 ba 6f 43 11 3c 29 d0 6f bb
       -0.0055511827 -0.0016473683 0.008866175 -0.003659258
0000b0 a4 59 eb 3b 06 eb d2 3b 4b bb 38 3b f5 2a c8 3b
       0.007182317 0.0064367084 0.0028187807 0.0061086365
0000c0 8d 69 04 ba 29 f3 01 3b 71 45 41 3c a9 12 53 3b
       -0.00050511287 0.0019828773 0.011796341 0.0032207167
0000d0 ba e6 c7 3b 8e 05 34 3c fb a9 24 3b 3f e9 51 3b
       0.006100503 0.0109876525 0.002512573 0.0032029895
0000e0 fb d9 28 bb 40 53 5e bb 14 af 5d bb 1a ab 1d 3a
       -0.0025764692 -0.0033924133 -0.0033826279 0.0006014571
0000f0 d1 c3 88 bb 55 dc bd ba 7c 5a e2 3a 51 44 77 3b
       -0.0041737338 -0.001448522 0.0017269398 0.0037729929

SSM_blocks.0.W_bg f4 [32]
000000 00 00 00 00 00 00 00 00 00 00 00 00 00 00 00 00
       0.0 0.0 0.0 0.0
000010 00 00 00 00 00 00 00 00 00 00 00 00 00 00 00 00
       0.0 0.0 0.0 0.0
000020 00 00 00 00 00 00 00 00 00 00 00 00 00 00 00 00
       0.0 0.0 0.0 0.0
000030 00 00 00 00 00 00 00 00 00 00 00 00 00 00 00 00
       0.0 0.0 0.0 0.0
000040 00 00 00 00 00 00 00 00 00 00 00 00 00 00 00 00
       0.0 0.0 0.0 0.0
000050 00 00 00 00 00 00 00 00 00 00 00 00 00 00 00 00
       0.0 0.0 0.0 0.0
000060 00 00 00 00 00 00 00 00 00 00 00 00 00 00 00 00
       0.0 0.0 0.0 0.0
000070 00 00 00 00 00 00 00 00 00 00 00 00 00 00 00 00
       0.0 0.0 0.0 0.0

SSM_blocks.0.W_A.weight f4 [64, 64]
000000 93 77 96 3d 3c 68 10 bc f2 bd 2f 3d 31 b3 4f bd
       0.07347026 -0.008813914 0.042905755 -0.050708
000010 9d 04 ce 3d 85 55 79 bc 77 01 1c bd ab 4e ce bc
       0.10059474 -0.015218143 -0.038087334 -0.025183996
000020 ca fb df bd 46 ea 91 bd d1 d9 9c bd 61 fb b1 3d
       -0.10936697 -0.07124762 -0.07658733 0.08690525
000030 2f 34 e4 bd ca 59 81 3b 9a 33 8b 3d dc 8e a4 bd
       -0.11142766 0.0039474713 0.067969516 -0.08035061
000040 5e ef a6 bd 31 9f d5 bd 67 96 eb 3d ec ac 23 bd
       -0.081511244 -0.10430754 0.11503296 -0.039959833
000050 5c 66 d8 3d bf a8 f3 3d e2 51 a8 bd 69 60 a4 3d
       0.105663985 0.1189742 -0.08218743 0.08026201
000060 21 ef cc bd 16 ae b4 3d 2c c3 90 3d 4f 90 a7 bb
       -0.10006548 0.08822267 0.07068476 -0.0051136385
000070 fa 41 0b 3d 04 e2 ac bd de 1e d0 3b 2e 10 11 bd
       0.033998467 -0.084415466 0.006351336 -0.03541582
000080 f7 ef 04 be 49 78 9c bd d0 05 c5 bd 55 1f b1 bc
       -0.12982164 -0.0764013 -0.09620249 -0.021621386
000090 36 38 77 bd a8 16 8b bd f1 80 26 3d 94 22 04 be
       -0.06035634 -0.06791431 0.04065031 -0.12903816
0000a0 5f 3e 54 bb 42 63 c1 3d 4e aa a6 3d fc 51 fc bb
       -0.003238581 0.0944276 0.08137952 -0.007700203
0000b0 2d 21 b9 bc e8 9d 4c 3d 9e 9a 9d bd f2 e4 d2 3d
       -0.022598827 0.04995528 -0.076955065 0.10297574
0000c0 c8 43 ed 3d 83 63 bb bd 92 54 39 3d 7e ab 06 3d
       0.11585194 -0.0914984 0.04524667 0.03287839
0000d0 06 e0 cc bd 79 23 e7 3d 8c 86 b9 3d 1e ac d8 bd
       -0.100036666 0.11286063 0.09058866 -0.10579704
0000e0 ea b6 b7 bd 75 81 12 3d 06 44 95 3c 71 5c 26 3d
       -0.08970435 0.03576799 0.018220913 0.040615503
0000f0 9d 67 ae bd dc 63 73 bc 54 11 7f 3c 62 a8 3b 3d
       -0.085158564 -0.014855351 0.015568096 0.04581488
000100 e6 52 81 bb 05 a4 f1 3c d3 28 00 3b 34 c8 de 3d
       -0.00394665 0.029497156 0.0019555583 0.108780295
000110 da 48 f4 bd b2 05 ad bd 62 c2 e2 bd 0c c7 37 3d
       -0.11927958 -0.08448352 -0.11072232 0.04486756
000120 89 19 be bc a5 0e f3 3d 62 0a 89 bd 5c 7e d9 b9
       -0.023205535 0.118680276 -0.066914335 -0.0004148361
000130 a6 06 e2 3b 1d 64 de 3d d1 bc ab 3d a1 d6 a1 3d
       0.006897765 0.10858939 0.08385623 0.07902265
000140 a4 f1 dc bd dc fd 41 3d 60 02 79 bc 17 5a 04 be
       -0.10788277 0.04736124 -0.01519832 -0.12924992
000150 e6 0b c0 bd c8 68 df 3c ca 18 1e 3d 2d 3a 1b 3d
       -0.093772694 0.027271643 0.03859786 0.037897278
000160 03 f1 02 3d 05 29 0d 3c da ef ad 3d f1 88 95 bd
       0.031968128 0.008615737 0.08493014 -0.0730151
000170 9c d6 f8 bd 26 60 20 bc 75 8e 5f 3d a8 60 8d 3d
       -0.121503085 -0.009788549 0.054579217 0.06903201
000180 6b 92 ad 3d 1a 66 9e 3c c0 f7 97 3d b1 62 d6 3d
       0.08475193 0.019335795 0.074203014 0.10468043
000190 d4 1e 97 3d 0e b3 4c bd b2 d6 03 bd 8d dd 0b 3c
       0.07378927 -0.049975447 -0.03218717 0.008536709
0001a0 4c dd 00 3d 00 e1 01 3d 95 32 77 3d 23 40 ad bc
       0.031461045 0.031708717 0.060350973 -0.021148747
0001b0 36 2f f0 bd 3b af 24 3d 02 89 b3 bd 51 fd aa 3c
       -0.11727755 0.040206175 -0.087663665 0.020872744
0001c0 56 66 85 bd 4b 16 a3 bb 6e 9b e7 bc 5f 43 6a bc
       -0.0651366 -0.0049770228 -0.028272357 -0.014298289
0001d0 c5 de 24 bd b3 7f a5 3d 98 91 16 bd fe 5d d7 3d
       -0.040251512 0.08080997 -0.036759943 0.105159745
0001e0 f2 c8 e3 bd aa 5a 1d bd fd 32 d7 bb 55 60 dc 3d
       -0.11122312 -0.038416542 -0.0065673576 0.107605614
0001f0 68 61 cb bd e8 50 c6 bd 78 93 5b bd 50 58 c5 bc
       -0.09930688 -0.096834004 -0.053607434 -0.024089962
000200 05 b2 03 3d 45 d3 ad bd 50 49 4c bd e6 60 88 3d
       0.032152195 -0.08487562 -0.049874604 0.06659107
000210 2d 95 80 3b de b7 d3 3c 5b 0f 22 bc 12 c8 b7 bd
       0.003924033 0.02584451 -0.009891356 -0.08973707
000220 49 16 1d bd 39 37 5e 3d b0 9c c4 bd 44 d9 88 3d
       -0.03835133 0.054251883 -0.09600198 0.06682065
000230 dd 4f c2 bd 28 12 2e 3d 85 43 fe bc 94 4d c4 3c
       -0.09487889 0.042497784 -0.031038055 0.023962773
000240 60 03 ac bd 71 1f 97 bd bc 87 db 3c 16 f0 78 bd
       -0.08399081 -0.07379044 0.026798122 -0.06077584
000250 d9 5b 49 3d 4f b9 e4 3d c8 a8 ba 3d c9 e2 48 bd
       0.04915986 0.11168157 0.09114224 -0.049044404
000260 b0 cb c9 bd c4 0c bc 3d 09 40 97 bd e0 35 5e 3d
       -0.098533034 0.09182122 -0.073852606 0.054250598
000270 52 21 bc bc 4c b5 e6 bc 27 8f 75 bd 5a ee d8 3c
       -0.022965107 -0.028162621 -0.059950974 0.026480842
000280 ce 80 d5 bc b6 f9 fa 3d 9d 46 83 bc f5 59 08 3e
       -0.026062395 0.1225466 -0.016024882 0.13315566
000290 b4 5b 01 be b8 42 44 bc 16 7d 7d bc d6 1f 99 bd
       -0.12632638 -0.011978798 -0.015471717 -0.07476775
0002a0 ba 2a d2 3c 43 26 d6 3d 6c d9 4b bd da 84 2d 3d
       0.02565514 0.104565166 -0.049767897 0.042363025
0002b0 02 60 9e 3d 84 f8 01 3e 93 29 08 be 56 93 be bd
       0.07733156 0.12692457 -0.1329711 -0.09305446
0002c0 b5 0c cd bd fd 01 c3 3c d4 b8 17 bc 77 3c 38 3d
       -0.10012189 0.023804659 -0.009260375 0.04497954
0002d0 04 c0 ce 3d 6c 3f be 3d 69 80 79 bd 31 fc 81 3d
       0.10095218 0.092894405 -0.060913477 0.0634693
0002e0 37 33 9c 3d a6 3c 0d 3d 0e e0 e3 bd ae 25 b2 3d
       0.07626956 0.034481667 -0.111267194 0.08698593
0002f0 48 80 0f 3d 29 ee 65 3d d7 25 8b 3c e7 1e ea bd
       0.035034448 0.05613533 0.016985817 -0.114316754
000300 6d 00 c2 bd fe 3d 18 3d 20 40 d5 bd 49 e6 cc 3d
       -0.094727375 0.037168495 -0.104126215 0.10004861
000310 4a 15 e4 bd 17 c8 0b 3e ab d7 8a bd 06 8e 87 3b
       -0.11136873 0.13650547 -0.06779417 0.0041368036
000320 6a e6 d9 ba be 21 a4 bd cf 15 60 3d ca 5b 30 3d
       -0.0016624455 -0.08014248 0.0547083 0.043056287
000330 8a ac a2 bb 76 8b c8 bd 60 a2 32 bd 68 32 e4 bc
       -0.004964416 -0.09792225 -0.043611884 -0.027856067
000340 65 2b c1 bd 5c d7 cd bd fc 29 08 bd 46 c6 2b bc
       -0.09432105 -0.10050842 -0.033243164 -0.010484284
000350 8e 17 f1 bd 64 09 b0 bd 33 2b 0f bd 3f 81 13 3d
       -0.11772071 -0.08595541 -0.034953307 0.03601193
000360 ad 2f d2 3c 82 4b 81 bd b2 31 4b bd 0d a7 fe bd
       0.0256575 -0.0631323 -0.04960794 -0.12434206
000370 11 15 4f 3d c2 10 12 3d 18 35 6c 3b b6 c4 91 bd
       0.0505572 0.035660513 0.0036042389 -0.07117598
000380 dd f6 55 3d a0 5b 3a bb 3e 07 d8 3d 3c 92 de bd
       0.05223738 -0.002843596 0.10548256 -0.10867736
000390 97 74 69 bd 73 ec 44 3c 84 aa 0a 3d 3a 38 d4 3d
       -0.056995954 0.0120192645 0.033854023 0.10362287
0003a0 2b df 82 3d 9f 04 36 bb 3d b6 f6 3d 84 f3 02 3e
       0.06390222 -0.002777375 0.12046478 0.12788206
0003b0 af 7d de 3c 81 22 87 bd d5 16 d6 bd dd 0b a5 3d
       0.02715954 -0.06598378 -0.104535736 0.08058903
0003c0 14 b8 80 bd 13 c7 44 bc 6b 2f c0 3d 98 54 de 3c
       -0.0628511 -0.012010354 0.09384044 0.027139947
0003d0 a3 7a fb 3c c9 9d 36 bb 9a 2f 01 bd d7 bf f5 3d
       0.030698126 -0.0027865043 -0.031539537 0.11999481
0003e0 93 f4 33 3b d1 62 7e bd 6c cb e2 3d e8 34 6f bd
       0.002745901 -0.062105957 0.11073956 -0.058400065
0003f0 8c 33 3a bd 58 e1 83 3d 64 55 fb bd cc c1 4a bd
       -0.045459315 0.06439465 -0.12272146 -0.049501225

SSM_blocks.0.W_A.bias f4 [64]
000000 15 54 f0 3c f4 f2 8d 3d b3 b9 41 3c 24 c5 ca bd
       0.029336968 0.06931105 0.011824059 -0.09900883
000010 af 61 4d 3d 71 98 a9 3d b2 0a b1 3d df 3b d4 bd
       0.050141986 0.08281029 0.08644618 -0.10362982
000020 ab ab e8 3d 78 4c b6 3b b0 af aa bd 15 9a 8a bd
       0.11360868 0.005563315 -0.08334291 -0.0676767
000030 b9 8c 97 3d 97 48 47 bd 8b f9 66 3b 85 2b 7d bd
       0.073998876 -0.04865321 0.0035243954 -0.06180908
000040 2b 7e fb bc cd 54 59 3d b8 67 8d 3d 33 c1 77 3d
       -0.03069981 0.053059388 0.069045484 0.060486984
000050 d9 b3 c5 3d 4e 9c af bc fa 76 96 bd 99 79 f9 bd
       0.09653444 -0.021436837 -0.07346912 -0.12181396
000060 9f a8 a6 3d 8b 2b c5 bd 30 cf 9f 3d fe 43 c1 3d
       0.08137631 -0.09627446 0.0780319 0.094367966
000070 46 4e ea bd 95 0e 95 bc 85 53 8c 3c 46 01 c2 3d
       -0.11440711 -0.01819543 0.017129669 0.09472899
000080 29 bf bd 3d 53 a6 d6 3d aa 6f a9 bd 2e 27 62 bc
       0.092649765 0.104809426 -0.08273251 -0.0138032865
000090 c0 d8 97 3d 01 c2 cf bc 6c 3d 2a 3d 82 a3 06 3d
       0.07414389 -0.025361063 0.041562483 0.032870777
0000a0 c1 d6 b7 bd 8f 30 10 bd bc 62 d3 3d 28 4b 5e bc
       -0.08976508 -0.03520256 0.103215665 -0.013567723
0000b0 fa e5 1a bc 18 e7 71 3d 18 d4 ca 3d 40 d5 b8 3d
       -0.009454245 0.05905828 0.09903735 0.09025049
0000c0 9e 1e 8a bd d9 10 b1 bd 0d df 07 3e e1 95 f3 bd
       -0.06744121 -0.086457916 0.13268681 -0.118938215
0000d0 ba 93 29 bd 8f 38 59 bc 3e fa 00 3e 4c 81 87 3d
       -0.04140065 -0.0132581135 0.1259546 0.06616458
0000e0 83 c0 1a 3b 19 25 67 3d e0 23 e1 3d d7 5e 32 ba
       0.002361328 0.056431863 0.10993171 -0.00068042934
0000f0 c5 f1 3a 3c 5e 4d 9a 3d 10 61 d7 3d 9c a7 b2 bd
       0.011410181 0.07534288 0.1051656 -0.08723375

SSM_blocks.0.W_B.weight f4 [64, 1]
000000 0a 15 91 3e b5 62 ac be ab 44 15 bf 1f 23 2f bf
       0.28336364 -0.33669057 -0.58307904 -0.68412966
000010 b1 cf 10 bf b2 4e 43 bf 6a 2a 3e 3f 74 52 83 3e
       -0.5656691 -0.76291955 0.7428347 0.25648844
000020 71 bf bd 3e b6 9b 10 3e 87 33 b7 bd f5 d4 57 3f
       0.3706012 0.14121899 -0.08945375 0.8430932
000030 88 bd 82 3e 23 a8 5c bf 89 22 0e 3f 9f 99 8f 3d
       0.25535226 -0.86194056 0.55521446 0.07011723
000040 82 4c 35 bf af 99 1c 3f b2 a9 b3 be 05 d6 9e be
       -0.70819867 0.61172 -0.35090405 -0.3102266
000050 a3 c6 c4 3e 52 ef 46 bf 8a c2 aa be 10 8e 47 be
       0.38432798 -0.77708924 -0.33351547 -0.19487786
000060 d6 20 81 bf d2 52 22 bf 58 59 0a bd b7 81 f8 3e
       -1.0088146 -0.63407624 -0.03377661 0.48536465
000070 88 96 c0 3d 40 68 bb be 4e 6d 49 be 82 e2 30 3f
       0.094037116 -0.36602974 -0.19670603 0.69095623
000080 64 4f 6a 3f eb f6 33 bf 9f a9 69 3d 18 90 99 3e
       0.9152739 -0.7029864 0.05704653 0.29992747
000090 7b 11 62 bf 74 b4 54 be 0c 4a e4 3e 95 ab 8a bd
       -0.88307923 -0.20771962 0.44587743 -0.06771008
0000a0 10 4c 67 bf 73 35 dc bd 26 19 bc 3e e3 fe d5 bd
       -0.9035044 -0.10752382 0.36737937 -0.104490064
0000b0 b6 94 8d 3c 7b c7 7d be b5 df 09 3f 63 82 c2 3e
       0.017282825 -0.24783127 0.53856975 0.37990102
0000c0 77 29 12 3f cf 8f b2 3e d5 24 78 3f 69 b5 04 bf
       0.5709452 0.34875342 0.969312 -0.5183931
0000d0 e7 cc 4d be de 24 06 3f 30 5d 65 3e 45 3a 05 3e
       -0.20097695 0.52400005 0.2239883 0.1301051
0000e0 ad 8d 52 3f 5e 89 ef 3e 32 fe 46 3f 3e a4 73 3f
       0.8224743 0.4678449 0.7773162 0.9517249
0000f0 4c 54 79 3f 6c c2 3f 3f 5d 95 c0 3e 25 32 d5 be
       0.9739425 0.7490604 0.37613955 -0.4163982

SSM_blocks.0.W_B.bias f4 [64]
000000 29 eb d6 be 29 15 51 bf 2c 85 d6 be d2 4f 24 3f
       -0.41976288 -0.8167291 -0.41898477 0.64184296
000010 72 06 7d 3f bc 12 4b bf bf bd 43 be d1 97 cb 3e
       0.9883796 -0.7932546 -0.19115351 0.39764264
000020 0f e7 a5 be 34 15 75 3f a0 18 1d bf df fc 9e 3d
       -0.32402846 0.9573548 -0.613657 0.07763075
000030 7b 73 b2 be 69 17 31 be de 1b 2a bf de 5d 83 3e
       -0.3485373 -0.17294087 -0.6644877 0.25657552
000040 ff 9e 48 bf 0b d8 dd 3e 06 c4 5a bf bd 4e 8b be
       -0.7836761 0.4332889 -0.8545536 -0.2720851
000050 70 f9 78 be 62 a8 e7 3c 11 1a 52 3f f8 80 ab 3e
       -0.24313903 0.028278533 0.82071024 0.33496833
000060 56 d1 69 be a4 1f 1d 3f e7 bb 8b be 4e 22 a0 be
       -0.22833762 0.61376405 -0.27291796 -0.31276172
000070 f6 84 a6 bd 4a de 76 bf 70 88 2c bf 7e 57 5c bf
       -0.08130829 -0.96432936 -0.6739569 -0.86071
000080 4b 67 72 3f 0c ec 19 bf 4e 9c ba be b5 49 91 3e
       0.9468886 -0.60125804 -0.36447376 0.28376547
000090 ea fa 05 bf 08 93 06 3f 95 6f 1e 3f 84 82 e1 be
       -0.5233599 0.525681 0.6188901 -0.44044888
0000a0 9c ac 7e 3e ad dc 84 3e 18 d2 ef 3d 2b 4c c8 be
       0.24870533 0.25949612 0.11709994 -0.39120612
0000b0 d4 60 1a be 3e 29 e0 be bd 05 24 3e c0 89 5d 3d
       -0.15076 -0.43781465 0.16017814 0.054086447
0000c0 c0 98 85 bd b7 6c 94 be 5c 22 26 3d e7 1d be 3d
       -0.065232754 -0.28989193 0.04056011 0.09283047
0000d0 ab 42 67 be bb 58 2b bf f0 81 5f 3e ff b5 4e be
       -0.22584026 -0.66932267 0.21826911 -0.20186614
0000e0 a8 01 0c 3f 1c 3d 5c bf da 84 a1 3d fc 23 53 be
       0.5469003 -0.86030746 0.078866675 -0.20619196
0000f0 7b 12 6c bd 67 a0 7b be f7 f4 0b 3f 15 46 3c 3f
       -0.05763481 -0.24572907 0.5467066 0.73544437

SSM_blocks.0.W_E.weight f4 [32, 32]
000000 b4 d6 2e 3e 95 3a fc bd d8 ce ac bd 67 2f 24 3e
       0.1707409 -0.12315861 -0.0843789 0.16033708
000010 ef fb a1 3d d0 4a 32 bd 09 21 c8 3d 4b 69 4e bd
       0.07909381 -0.043528378 0.09771926 -0.050393384
000020 c8 ac e9 bd 7e 47 ee 3d a7 5e b1 bd 6c df db 3d
       -0.114099085 0.1163473 -0.086606316 0.10735974
000030 1b 3d 12 bd b3 d3 ab b6 ab 23 e9 3d 4a 17 ca 3b
       -0.035702806 -5.120842e-06 0.11383756 0.006167327
000040 fd 70 a3 bd 57 b5 a8 3d 93 1f b1 3c 4a 58 91 bd
       -0.07980535 0.08237713 0.021621501 -0.07096918
000050 ad f5 70 bd 4b d9 15 3d 0e 68 f0 3d 6c 0d 31 be
       -0.058828045 0.03658418 0.11738597 -0.17290276
000060 10 f7 90 bd b5 a3 c8 bc 40 91 ab bd fc 1f 11 3d
       -0.070783734 -0.024492124 -0.083773136 0.035430893
000070 bc 91 cb bd 77 0a 84 bd be 1b af ba 80 74 88 3d
       -0.09939906 -0.064473085 -0.0013359708 0.066628456
000080 6d fb 1f be 45 ec b8 3d 29 a2 d2 bd 15 b1 00 be
       -0.15623255 0.0902944 -0.10284836 -0.12567551
000090 94 91 e9 3d e8 9b e1 3c bb 2d 15 3d f4 85 e5 3d
       0.1140472 0.027540162 0.036420565 0.1120719
0000a0 d3 fc 11 3e d4 e8 84 3d 41 5c a2 3d 75 c0 2a 3c
       0.14256601 0.06489721 0.07927752 0.010421862
0000b0 a7 db e6 3d 06 2c b8 3c 44 16 05 be b9 17 aa bc
       0.11272364 0.02248193 -0.12996775 -0.020763265
0000c0 73 b7 1f 3e 28 43 99 bd b3 72 8c 3d 06 4b 32 3e
       0.15597324 -0.07483512 0.06857815 0.17411432
0000d0 0f a7 88 3d 39 de c5 bd 01 21 cc 3d 27 5f 56 3d
       0.06672489 -0.09661526 0.099672325 0.052336838
0000e0 cb 1d b8 bc 66 9a 92 3d 04 b8 28 3e ad f9 24 bd
       -0.022475144 0.071583554 0.16476446 -0.040277172
0000f0 d2 d9 9a 3a fc 9a 81 bd be 20 0a be f5 4e 0e 3d
       0.0011814183 -0.06328389 -0.13489053 0.034743268
000100 c8 d3 06 be 59 68 1e 3e 8e 82 b6 bd 8c 6f 35 bc
       -0.13166726 0.15469493 -0.0891162 -0.011073958
000110 23 00 cb 3d 27 a6 18 3e 34 0c ef bd 0f e6 1f bd
       0.099121355 0.14907132 -0.116722494 -0.03903776
000120 68 c9 50 bc 13 10 8d bd 12 1f 12 be 57 47 ff bb
       -0.0127433315 -0.068878315 -0.14269665 -0.007790487
000130 c7 ca 00 3d ba 4b c4 3d c8 40 0c be 0e 18 7a bd
       0.031443384 0.09584756 -0.13696587 -0.061058097
000140 5e 88 1f 3e b1 6c fd bc f8 45 89 3b 92 12 19 be
       0.15579364 -0.030935617 0.004189249 -0.1494849
000150 78 85 b2 bd dd e0 52 3c 28 26 32 bd de ec d1 3c
       -0.087168634 0.012870994 -0.04349342 0.025625642
000160 5b c6 13 be fd d9 03 3e e7 4b 39 bd bf fd 26 be
       -0.14431135 0.12876125 -0.0452384 -0.16307734
000170 ef 98 f8 3d 92 80 34 3e a6 a3 fb 3d 0d 55 32 3e
       0.12138545 0.1762717 0.12287073 0.17415257
000180 29 92 d7 bd cc 0b a9 3d 39 54 3b 3d 2a 98 b0 3a
       -0.10525925 0.08254203 0.045734618 0.0013473083
000190 b9 cc a1 bb 68 37 1a 3d 31 7d 27 be b0 02 86 3d
       -0.004937735 0.037650496 -0.1635635 0.06543481
0001a0 02 a7 21 be 58 fc 4b 3d 80 0f 9a bd 2d 7c 00 3d
       -0.15786365 0.0498012 -0.07522488 0.031368423
0001b0 22 8c 1b be 69 dd 68 3d 33 26 de bd 42 27 11 be
       -0.15190175 0.05685178 -0.1084713 -0.14175132
0001c0 58 b1 2d 3e 5d 6f 2e be 8d e0 aa bd 39 8d b1 3d
       0.16962183 -0.17034669 -0.08343611 0.08669514
0001d0 fb c5 58 3d c1 e1 55 3b 75 b9 fb bd 12 52 b0 bc
       0.052923184 0.003263578 -0.122912325 -0.02152351
0001e0 59 63 1b be 3b fa 82 bd 4e d0 cb bc 26 26 ca bd
       -0.15174617 -0.06395384 -0.0248796 -0.098705575
0001f0 56 03 ff bd dc b2 12 3e 91 97 ce 3c ce bc 05 be
       -0.12451808 0.14326042 0.025218757 -0.13060305
000200 25 04 0e be d5 42 2f 3d e9 d0 03 be 30 19 2d be
       -0.13868769 0.042788345 -0.12872662 -0.1690414
000210 39 b5 06 be d0 d1 e3 bb 95 d0 92 bc 12 21 fc bd
       -0.13155068 -0.006952502 -0.017921725 -0.12310995
000220 b3 bd f5 3b 9c fd e3 bd 8f ba cb bc 46 0d 20 3e
       0.0074994205 -0.111323565 -0.024869232 0.15630063
000230 fa 41 0f 3e 60 5c 1e be 9b 2c eb 3d a2 a1 b6 3c
       0.13990012 -0.15464926 0.11483117 0.02229387
000240 17 0e 88 3d a7 43 b9 3d 77 cc f2 3d 1d d7 8b bd
       0.066433124 0.09046107 0.11855405 -0.06828139
000250 a9 4a 11 be bf 6c 18 3e 73 ee e1 3d 2d 9b 9e bc
       -0.14188637 0.14885233 0.11031809 -0.019361103
000260 90 eb 77 bd e8 78 2a bd 6d 77 1d bd c5 fa f2 3d
       -0.060527384 -0.04161921 -0.03844397 0.11864237
000270 a6 1e 9c 3c e6 ef c3 3d 5c 6e e8 3d 56 06 3a 3d
       0.019057583 0.09567241 0.113491744 0.0454162
000280 4c 7a 32 3e f5 c2 b6 bb a0 f7 0b be 32 4c 2d 3e
       0.17429465 -0.00557744 -0.1366868 0.16923597
000290 74 26 9d bd 4c 4a f1 bd 2e 1c 81 bd 39 e0 c3 3d
       -0.0767335 -0.11781749 -0.06304203 0.095642515
0002a0 6f d0 43 bd f1 63 2b 3e 81 a6 6f bd 1a 4a 34 3e
       -0.0478062 0.16737343 -0.0585084 0.17606393
0002b0 d2 ef 52 3d 45 42 1d 3e dd 10 0a 3d 28 a0 2b 3e
       0.05149824 0.15357311 0.03370749 0.16760314
0002c0 a9 e9 4d 3c d8 ff 23 3d 94 36 c8 bd ab 2b 09 be
       0.012567916 0.040038913 -0.09776035 -0.13395564
0002d0 28 71 05 be 77 d9 d1 bd 51 5b f8 3d 67 6f 0d be
       -0.13031447 -0.10246556 0.12126792 -0.13812028
0002e0 22 78 1c be fb 84 db bd ac 30 3b bd 77 35 4c bb
       -0.15280202 -0.107187234 -0.045700714 -0.0031159797
0002f0 05 62 83 bc dc 84 37 bd 7b dd 24 bd c1 a0 68 3d
       -0.01603795 -0.04480444 -0.040250283 0.056793932
000300 44 3e d3 3d 03 b3 dc bd 57 07 19 be a8 ef 1b 3e
       0.103146106 -0.10776331 -0.14944206 0.1522814
000310 cc 82 1d 3e f4 32 18 be 84 48 ac bd b9 ad 3e bd
       0.15381926 -0.14863187 -0.08412269 -0.046552394
000320 02 e6 10 3e 1f 9a e0 bd 7f 52 38 3d e9 18 2d 3e
       0.14150241 -0.10966896 0.04500055 0.16904034
000330 6f 77 24 3e 8e e0 f3 3d b7 6e 00 be 2a b3 22 be
       0.16061185 0.11908065 -0.12542234 -0.15888658
000340 4a 61 8c bd c6 d1 27 be 07 56 0a 3c f8 aa ef 3d
       -0.06854494 -0.16388616 0.008443362 0.117025316
000350 e8 5d 0f 3e c5 c5 10 3e 3a 31 e2 bd 43 1d a5 3d
       0.14000666 0.14137943 -0.110445455 0.08062222
000360 bf de fb bd b4 76 70 3d 28 82 ed bd 95 5b 9e 3d
       -0.12298345 0.058706954 -0.11597091 0.07732312
000370 e3 d2 08 bd 76 94 d8 3c e3 98 02 be 37 df 20 be
       -0.033404242 0.02643798 -0.12753634 -0.1571015
000380 17 ea 86 3d 75 38 a6 3d ff a8 a9 bd 80 4b b2 bd
       0.06587618 0.08116237 -0.082841866 -0.08705807
000390 07 eb 3d 3d 12 5e 28 3d 69 34 28 3e 0b e3 a3 bd
       0.046366718 0.041105337 0.16426243 -0.080022894
0003a0 96 e8 dc bc a1 de 13 be cb 2a 8f bd 1a 6b 53 bc
       -0.026966374 -0.14440395 -0.06990584 -0.012903953
0003b0 f8 85 f5 bc 2c 08 d7 3d f2 b7 ff ba 73 18 18 3e
       -0.029971108 0.104996055 -0.0019509776 0.14853077
0003c0 6c 15 e1 3d a9 46 a5 bd ba 32 e9 3c fb 47 7f bd
       0.10990414 -0.08070118 0.028466571 -0.062324505
0003d0 17 4e c4 bd 37 96 21 be 08 e1 a9 3d 25 57 9f bd
       -0.09585207 -0.15779959 0.082948744 -0.077802934
0003e0 e1 78 27 be 0d 1c c4 3c a4 46 68 bc 1b f0 f4 ba
       -0.16354705 0.023939157 -0.014176998 -0.001868728
0003f0 cf c2 39 3d e4 1b d6 bd d6 48 97 3d 70 ca a3 bd
       0.0453518 -0.104545385 0.07386939 -0.07997596

SSM_blocks.0.W_E.bias f4 [32]
000000 e3 8e d5 3c 5e f3 b9 3d 25 72 cc 3d f3 bd a6 bd
       0.02606911 0.09079622 0.09982709 -0.08141699
000010 96 7d 6a bd ee 47 1f bc 95 bc f5 bd 53 6a f1 3d
       -0.057248674 -0.009721739 -0.1199886 0.11787858
000020 c0 5f fc 3d a7 10 f6 bd 23 19 8d 3d 22 25 30 be
       0.1232295 -0.12014895 0.0688956 -0.17201665
000030 31 d6 6b 3d fa 6a 22 be 62 42 45 bb 40 bc 13 be
       0.057577316 -0.15861121 -0.0030099382 -0.1442728
000040 3c b9 9d bd 00 25 37 3d ce 78 8f 3c 17 11 d1 3b
       -0.07701346 0.04471302 0.017513659 0.006380211
000050 21 cd 13 be 44 ef 0b bd 84 13 ef 3d 5c ce 8c bd
       -0.14433719 -0.03416373 0.11673644 -0.068752974
000060 63 6e d2 bd 29 bd 59 3d 5f a0 3f bd 04 eb e5 3d
       -0.10274961 0.053158913 -0.0467838 0.11226466
000070 3f e9 20 be ad 4c 21 be 0e 36 c3 bd 15 77 17 3e
       -0.15713976 -0.15751906 -0.095317945 0.1479152

SSM_blocks.0.W_F.weight f4 [32, 1]
000000 d0 56 15 3f c0 c8 a6 be 80 cc d0 bc 20 2e 5a be
       0.5833559 -0.32575035 -0.025488138 -0.21306658
000010 e6 9f 3b 3f be ad 0a bf cc 5c b5 be 24 1e 79 bf
       0.7329086 -0.5417136 -0.3542236 -0.97311616
000020 e0 e3 15 bd 38 6c 7f bf 40 b0 ff bc fc de 79 3f
       -0.03659427 -0.99774504 -0.031211972 0.9760587
000030 d2 39 44 bf 3a 54 33 bf fe 5a 11 bf 6e 19 65 3f
       -0.76650727 -0.70050395 -0.5677947 0.8949193
000040 f0 37 6c 3f a0 8e 8c 3d 1c 32 39 bf c0 16 8c be
       0.92272854 0.06863141 -0.72342086 -0.27361107
000050 f8 3a 11 3e 10 3c 77 bf 10 ee 71 be 16 4f 3e bf
       0.14182651 -0.96576023 -0.2362597 -0.74339426
000060 e8 f3 06 3e 90 25 30 be 80 fb 0a 3e 64 aa 04 3f
       0.1317898 -0.17201829 0.13572502 0.51822495
000070 0c 46 c6 be 74 33 cc be 54 ad b9 be 38 30 cb be
       -0.38725317 -0.39883006 -0.3626505 -0.39685225

SSM_blocks.0.W_F.bias f4 [32]
000000 b2 0d 61 bf f2 c3 63 3f 20 88 0a bd 68 7d 31 be
       -0.8791152 0.88970864 -0.033821225 -0.17332995
000010 bc 2d 6a bf 40 51 16 bf 00 a2 5d bb 98 8b b6 be
       -0.91476035 -0.5871773 -0.0033818483 -0.35653377
000020 da 8e 4f 3f fa 43 12 3f 74 bc af be 6e 42 06 3f
       0.8107735 0.57134974 -0.34323466 0.52445114
000030 00 18 d3 bd 14 69 26 bf 04 bc b8 3e 94 65 ac 3e
       -0.10307312 -0.65004086 0.36080945 0.33671248
000040 a0 dc 20 3d 54 06 7c bf 7c 9a c7 3e 4a 35 03 3f
       0.039272904 -0.98447156 0.3898505 0.5125319
000050 90 ba f4 bd f0 25 34 3f 50 06 20 bf dc 86 c2 be
       -0.119496465 0.7037039 -0.6250963 -0.37993515
000060 84 dc 73 bf 7e fb 00 bf a8 e5 0d bf 74 33 f9 3e
       -0.95258355 -0.50383747 -0.5542855 0.48672068
000070 94 43 47 3f 00 09 58 bf e2 96 39 3f 02 7d 1d 3f
       0.7783749 -0.8438873 0.72495854 0.6151887

W_C.weight f4 [1, 64]
000000 aa d8 40 bd 4a ec 87 bd 3d 36 fa b9 25 db b4 bd
       -0.047081627 -0.066368654 -0.00047724126 -0.08830861
000010 c2 47 c7 3d c1 c2 9f 3d 7d 1e 3c 3d ef e5 d3 3d
       0.097304836 0.07800818 0.045927513 0.10346591
000020 6e ab b4 3d dd 75 74 3c e5 78 cd bc 54 60 b0 3c
       0.0882176 0.014920679 -0.025082061 0.021530308
000030 5f dd 62 bd 1c ff 8b 3c cb 4c cf bd 5e 89 e1 3c
       -0.055386897 0.017089419 -0.10122069 0.027531322
000040 cf ba 81 bc 8f df eb bd 58 88 de bc 28 8f 8a bd
       -0.015836148 -0.1151725 -0.027164623 -0.06765586
000050 a1 7d a1 bd ee 4f f2 bd 0f e6 9f bd d6 85 9d bc
       -0.0788529 -0.11831652 -0.07807552 -0.019228857
000060 73 7f 90 bd a0 42 f8 bc a5 52 7c 3c e5 2f ce 3c
       -0.07055559 -0.030305207 0.015400563 0.025169322
000070 85 a3 86 bd 88 1e e4 bd a2 38 f1 3d 80 5c c9 bd
       -0.065741576 -0.11138636 0.1177838 -0.09832096
000080 69 aa f2 3d 76 57 12 3d 1d 8a f0 3d 48 db 35 bd
       0.118489094 0.03572794 0.11745093 -0.044398576
000090 5b 91 c1 bd 14 12 cd 3d 54 cc c8 bb 8d 61 85 3c
       -0.094515525 0.10013214 -0.0061278734 0.016281867
0000a0 39 52 dc 3d ef 05 a7 3d e9 96 72 bd 6a 13 bd 3d
       0.1075787 0.081554286 -0.05922595 0.092322186
0000b0 74 ae 43 bd 02 94 0c bd 9e 4c f7 bd 10 47 64 bc
       -0.047773793 -0.03432084 -0.120751604 -0.013932958
0000c0 e2 b5 a4 3c 32 f0 5a bd ed 09 33 bd 43 cf d5 bd
       0.02010626 -0.053451724 -0.043710638 -0.10439923
0000d0 a6 a1 eb bd f0 b6 e8 bd 73 a2 80 bd 0f 5c 94 3c
       -0.11505441 -0.113630176 -0.06280985 0.018110303
0000e0 60 de 94 3d 6b 75 da 3d 70 cd 66 3c 57 33 b5 bd
       0.07268977 0.10666927 0.014087066 -0.08847683
0000f0 67 1a a4 3d 36 03 9e 3d 0c 82 74 bd 93 05 e9 bd
       0.08012848 0.07715456 -0.059694335 -0.11378016

W_J.weight f4 [1, 32]
000000 a5 81 92 bd d1 1f 1a 3d 57 32 58 3d cf a5 8b bd
       -0.07153634 0.037628 0.052782383 -0.06818735
000010 a8 a9 87 3d a7 b0 0c 3e ec ce ca 3d 18 06 14 be
       0.06624156 0.13739263 0.099027485 -0.1445545
000020 4e ec 2b bd 75 00 b3 3d cc 86 36 bd 62 bf 11 bd
       -0.041973405 0.087403215 -0.044562146 -0.035582907
000030 29 39 b3 3d 8a 2d 8c bd 37 a7 01 be d6 8c cf 3d
       0.08751137 -0.068446234 -0.12661444 0.10134284
000040 32 64 df 3c d0 03 11 3e 04 2e 7c 3d 45 b4 08 3b
       0.027269457 0.1416161 0.06156732 0.0020859402
000050 90 f0 6b 3d 2d ed 10 bd 8d c2 10 be 8c 21 06 3e
       0.057602465 -0.03538244 -0.14136715 0.13098735
000060 e9 93 2a 3e 93 f4 00 3d e7 b8 39 be d7 a1 31 be
       0.16657986 0.031483244 -0.18136941 -0.17346893
000070 f9 ba 18 3d bc 24 90 bd 22 6b 8d 3d aa bb 6f 3d
       0.037287686 -0.070382565 0.069051996 0.05852858
