weight/best_RUSSIA_model.pth (torch, 28495 bytes, 12 tensors)

SSM_blocks.0.W_bh f4 [64]
0.016569456 0.024973398 -0.0048219403 -0.010760236 0.009524195 -0.0019100234 0.006068123 -0.0042044716
-0.013196091 0.021024846 -0.0022970014 0.019818177 0.0017929894 -0.0004980845 -0.035995517 -0.020226484
0.028800465 0.017550098 -0.018488083 0.015801733 -0.011119919 0.027844533 0.016705744 -0.0077858265
0.023952989 -0.0064922343 0.001450465 -0.024938814 -0.0044523235 -0.0035376262 0.025587665 0.0040477836
-0.008133575 -0.0014491924 -0.03058396 -0.016854312 -0.034982126 -0.0029368317 0.008169805 -0.012445367
0.00661987 -0.00734195 0.006767393 -0.025072452 0.027056037 -0.0030678164 -0.02859129 0.0144269485
0.011528819 0.05229593 0.0498185 -0.012319759 -0.0027467746 0.03737411 -0.02614551 -0.041980002
0.01740726 -0.00020028037 0.011344648 -0.013546186 -0.034444023 0.022028428 -0.011929504 -0.00093229
00000000: abbc 873c 0395 cc3c 5e01 9ebb b34b 30bc
00000010: 5f0b 1c3c c059 faba 1bd7 c63b aac5 89bb
00000020: 6b34 58bc 4c3c ac3c 4a89 16bb bb59 a23c
00000030: be02 eb3a e391 02ba 0970 13bd 03b2 a5bc
00000040: f4ee eb3c 39c5 8f3c 5274 97bc a372 813c
00000050: 5230 36bc 381a e43c 7cda 883c 3f20 ffbb
00000060: 0f39 c43c cfbc d4bb 871d be3a 7c4c ccbc
00000070: cce4 91bb 85d7 67bb 399d d13c 45a3 843b
00000080: b042 05bc d4f2 bdba 368b fabc 0e12 8abc
00000090: 6b49 0fbd dc77 40bb a5da 053c a7e7 4bbc
000000a0: 7feb d83b be94 f0bb 02c1 dd3b be64 cdbc
000000b0: 9fa4 dd3c 6b0d 49bb 4838 eabc 025f 6c3c
000000c0: 5fe3 3c3c 4234 563d 7c0e 4c3d d0d8 49bc
000000d0: 3b03 34bb 9815 193d 1c2f d6bc 39f3 2bbd
000000e0: ac99 8e3c 5a02 52b9 e7de 393c d2f0 5dbc
000000f0: 2d15 0dbd f674 b43c f773 43bc ec64 74ba

SSM_blocks.0.W_bg f4 [32]
0.0 0.0 0.0 0.0 0.0 0.0 0.0 0.0
0.0 0.0 0.0 0.0 0.0 0.0 0.0 0.0
0.0 0.0 0.0 0.0 0.0 0.0 0.0 0.0
0.0 0.0 0.0 0.0 0.0 0.0 0.0 0.0
00000000: 0000 0000 0000 0000 0000 0000 0000 0000
00000010: 0000 0000 0000 0000 0000 0000 0000 0000
00000020: 0000 0000 0000 0000 0000 0000 0000 0000
00000030: 0000 0000 0000 0000 0000 0000 0000 0000
00000040: 0000 0000 0000 0000 0000 0000 0000 0000
00000050: 0000 0000 0000 0000 0000 0000 0000 0000
00000060: 0000 0000 0000 0000 0000 0000 0000 0000
00000070: 0000 0000 0000 0000 0000 0000 0000 0000

SSM_blocks.0.W_A.weight f4 [64, 64]
0.023697017 0.07766134 -0.0900086 0.033132784 -0.0815506 -0.118397474 0.111815885 -0.05460328
-0.029253662 -0.13935313 0.081055336 0.099153556 -0.063944384 -0.039282665 0.06271938 0.13044253
0.07727142 -0.08438047 0.037485406 0.084479764 0.124068946 0.10173749 -0.046954818 -0.13220154
-0.058722686 0.035337538 -0.029264465 -0.0022796777 0.041042842 -0.11237573 -0.09834137 0.015071047
-0.058051858 -0.10455386 -0.10756897 0.0041516004 0.1227118 0.007029752 -0.07304825 -0.012107399
0.10085392 -0.035880372 0.0751326 -0.12257968 -0.06778003 0.03594736 -0.02789022 -0.00049183663
-0.0596929 0.09406637 0.086817816 -0.011944855 -0.047847617 -0.012838852 -0.07391392 0.08346307
-0.113641664 0.102655694 0.006037386 0.11343276 0.09184781 -0.07163973 -0.07721494 0.04513934
0.023309045 0.038098942 0.0013221285 -0.03059286 -0.023632986 -0.14784242 0.018843502 -0.028005488
-0.027873963 0.07221053 -0.122981526 0.00034033754 -0.13393942 0.025205469 -0.08227636 -0.10524193
0.0917131 0.031508956 -0.052886724 -0.012098492 0.051894907 0.029810436 0.008527888 0.119725205
-0.015990986 0.070134684 0.04658155 -0.08144792 0.034765363 -0.099704355 -0.10773275 -0.027603237
0.022717958 0.08448616 0.11378291 -0.04587177 0.093655065 0.029864071 0.01112422 -0.09928772
0.08511118 0.04225199 -0.026741171 0.07171844 -0.13052349 -0.0045034955 0.081078395 -0.07753743
0.0713893 0.0007808978 0.06950607 0.07923373 -0.03969314 0.016301246 0.13548423 -0.034918148
-0.12019962 -0.10363415 0.092446774 0.090584725 -0.06129783 0.013304457 0.078274935 -0.092871815
0.08507939 -0.00673874 -0.024930758 0.09850947 0.09954141 0.07603038 -0.052827805 0.035148498
-0.051924203 -0.031101936 0.03647382 -0.04915746 -0.12872215 0.007206321 0.10083196 0.03724594
0.08649206 0.12199933 0.0056195627 0.0006556318 -0.05359833 -0.11844719 -0.09607068 0.020841718
-0.041276775 0.009272968 0.059197307 0.10672335 -0.08426031 -0.15991442 0.006295711 -0.07847978
-0.022898499 0.09321208 -0.017165884 0.11899644 -0.054171167 0.01847564 0.07459801 0.055096176
-0.11892915 0.07553365 0.11277336 0.067889296 -0.07151088 -0.012891779 -0.06773356 -0.09521884
0.022236988 0.08645889 -0.07337511 -0.014076288 -0.108757295 -0.1205957 -0.07764785 0.076742694
-0.116529986 0.018601133 -0.05773062 0.110233545 -0.11752615 0.0016868088 -0.046886798 -0.028146349
-0.08438484 -0.084146984 0.031677056 -0.05014404 0.08482319 -0.13256699 0.020639181 -0.08731909
-0.010739458 -0.07427373 0.0014055755 -0.03117155 0.15460545 0.0767419 -0.113517866 0.0044247117
0.09666391 0.017438637 -0.04019306 -0.094361946 -0.123368 0.08078405 -0.099246114 0.08543053
0.046132907 -0.06192761 -0.040935125 0.12015244 -0.00563313 0.13172817 0.102959014 0.07491308
0.03736051 -0.08942669 0.052093286 -0.0061719893 -0.13115728 0.031424258 -0.06796577 -0.0050486187
-0.106498316 0.09655942 -0.009998036 -0.021320138 -0.020578275 -0.022573497 -0.082825646 0.07842249
-0.023164181 0.050860714 -0.015713777 -0.01906024 0.07140379 0.12605011 0.01426791 0.10732053
-0.049492385 0.047531504 -0.08443399 -0.0804846 0.07929905 0.1351419 0.091761656 -0.07973162
00000000: 3f20 c23c e90c 9f3d 6e56 b8bd 3eb6 073d
00000010: 0004 a7bd 607a f2bd baff e43d b0a7 5fbd
00000020: 60a5 efbc 96b2 0ebe 5700 a63d 0511 cb3d
00000030: 46f5 82bd dce6 20bd 0573 803d ba92 053e
00000040: 7a40 9e3d abcf acbd 4c8a 193d ba03 ad3d
00000050: dc17 fe3d bf5b d03d b253 40bd d75f 07be
00000060: 3387 70bd 18be 103d 08bc efbc a566 15bb
00000070: 8a1c 283d 3f25 e6bd 3367 c9bd 8dec 763c
00000080: c9c7 6dbd 5620 d6bd 1f4d dcbd 260a 883b
00000090: 5350 fb3d d559 e63b 529a 95bd 1d5e 46bc
000000a0: 808c ce3d 4cf7 12bd 1fdf 993d 0e0b fbbd
000000b0: 42d0 8abd 8a3d 133d 087a e4bc 99ee 00ba
000000c0: 8b80 74bd dea5 c03d 8acd b13d 5ab4 43bc
000000d0: ddfb 43bd 0c5a 52bc 2e60 97bd b0ee aa3d
000000e0: f6bc e8bd 263d d23d 44d5 c53b 6f4f e83d
000000f0: b41a bc3d dab7 92bd de22 9ebd 07e4 383d
00000100: 9cf2 be3c a30d 1c3d 454b ad3a e19d fabc
00000110: f799 c1bc 0164 17be b05d 9a3c c46b e5bc
00000120: f057 e4bc 1de3 933d bddd fbbd 556f b239
00000130: 6a27 09be b37b ce3c 8280 a8bd 1589 d7bd
00000140: 14d4 bb3d 890f 013d c09f 58bd c138 46bc
00000150: c18f 543d 0435 f43c 8eb8 0b3c 7d32 f53d
00000160: 87ff 82bc c6a2 8f3d 4ccc 3e3d 2bce a6bd
00000170: 2066 0e3d cc31 ccbd fda2 dcbd 2f20 e2bc
00000180: 031b ba3c 1407 ad3d 0407 e93d 09e4 3bbd
00000190: 3ace bf3d 7fa5 f43c 5c42 363c 5c57 cbbd
000001a0: c54e ae3d 6c10 2d3d 4d10 dbbc 1ee1 923d
000001b0: f3a7 05be 0f92 93bb 6e0c a63d f2cb 9ebd
000001c0: 8e34 923d 2ab5 4c3a 3359 8e3d 4b45 a23d
000001d0: 4695 22bd 318a 853c 61bc 0a3e 5506 0fbd
000001e0: 382b f6bd 243e d4bd bc54 bd3d 7c84 b93d
000001f0: 6f13 7bbd f0fa 593c 9c4e a03d 9433 bebd
00000200: 1a3e ae3d a6d0 dcbb 973b ccbc 55bf c93d
00000210: 5edc cb3d d1b5 9b3d f861 58bd dff7 0f3d
00000220: 79ae 54bd 7dc9 febc 9365 153d 5559 49bd
00000230: bdcf 03be 0123 ec3b fd80 ce3d 338f 183d
00000240: c022 b13d c9da f93d 4f24 b83b b5de 2b3a
00000250: ec89 5bbd 7194 f2bd b4c0 c4bd 40bc aa3c
00000260: d611 29bd a6ed 173c e078 723d c691 da3d
00000270: ab90 acbd 9bc0 23be 404c ce3b 02ba a0bd
00000280: a295 bbbc fae5 be3d 789f 8cbc 68b4 f33d
00000290: 96e2 5dbd 3a5a 973c d7c6 983d 87ac 613d
000002a0: 2091 f3bd 63b1 9a3d b8f5 e63d 8b09 8b3d
000002b0: 4c74 92bd 0a38 53bc e5b7 8abd 1802 c3bd
000002c0: 582a b63c 5c11 b13d b145 96bd 3ba0 66bc
000002d0: 25bc debd e1fa f6bd d605 9fbd 462b 9d3d
000002e0: 46a7 eebd 6761 983c f176 6cbd 20c2 e13d
000002f0: 8db1 f0bd e917 dd3a 5f0c 40bd 2c93 e6bc
00000300: f6d1 acbd 4155 acbd cdbf 013d d663 4dbd
00000310: c8b7 ad3d a4bf 07be 8013 a93c 5ad4 b2bd
00000320: 8df4 2fbc d31c 98bd 4a3b b83a 7a5b ffbc
00000330: e450 1e3e db2a 9d3d 0e7c e8bd 2cfd 903b
00000340: baf7 c53d 79db 8e3c 7aa1 24bd d640 c1bd
00000350: 5da8 fcbd 1c72 a53d 8c41 cbbd 34f6 ae3d
00000360: dcf5 3c3d cea7 7dbd 97ab 27bd 7c12 f63d
00000370: 1f96 b8bb c0e3 063e 2ddc d23d 076c 993d
00000380: 5607 193d 5725 b7bd c55f 553d 663e cabb
00000390: 184e 06be b9b6 003d a331 8bbd e26e a5bb
000003a0: ca1b dabd f2c0 c53d cdce 23bc 92a7 aebc
000003b0: c593 a8bc 0eec b8bc 7ea0 a9bd f89b a03d
000003c0: cfc2 bdbc 5353 503d 2eba 80bc 3824 9cbc
000003d0: 263c 923d 4813 013e f4c3 693c deca db3d
000003e0: 87b8 4abd 65b0 423d baeb acbd 1cd5 a4bd
000003f0: 8a67 a23d a362 0a3e 89ed bb3d 554a a3bd

SSM_blocks.0.W_A.bias f4 [64]
0.012359528 -0.019838585 -0.08331995 0.08389453 -0.044307366 -0.00016642544 0.013578868 -0.08844365
-0.0977221 0.07603266 0.04387525 -0.045646243 0.039575145 -0.027994264 -0.077288635 -0.031036288
0.113738 -0.011104022 -0.10773383 0.1392225 0.10788323 0.066962786 0.121732585 -0.06708968
0.06388812 0.0011852159 -0.058782186 0.06755374 -0.08482835 0.08460182 0.08231923 0.06854142
-0.03707252 0.0068738987 -0.047951628 -0.011578748 -0.09905774 0.005323411 0.020148955 0.06465282
-0.104523666 -0.03265205 -0.0972476 0.054268345 0.03655629 0.09270151 -0.045977436 0.05993484
-0.050077 0.00943257 0.09986728 -0.05814323 -0.0030028059 0.039004497 0.045643516 0.03974248
0.08025458 0.07379089 0.022672921 0.083808415 0.08583318 -0.06716933 0.029398851 -0.04257835
00000000: 9e7f 4a3c 8784 a2bc a6a3 aabd e5d0 ab3d
00000010: a47b 35bd 7d82 2eb9 e679 5e3c f221 b5bd
00000020: 8622 c8bd 03b7 9b3d 89b6 333d 8ef7 3abd
00000030: 8c19 223d 3a54 e5bc 8149 9ebd d03f febc
00000040: 78ef e83d a5ed 35bc 8ea3 dcbd 5890 0e3e
00000050: e2f1 dc3d c923 893d ef4e f93d 5066 89bd
00000060: c6d7 823d 3f59 9b3a 97c5 70bd 9e59 8a3d
00000070: 7cba adbd b843 ad3d fc96 a83d 725f 8c3d
00000080: 5bd9 17bd 713e e13b ed68 44bd cab4 3dbc
00000090: c9de cabd 0270 ae3b 6c0f a53c b368 843d
000000a0: 8110 d6bd 28be 05bd c029 c7bd 7c48 5e3d
000000b0: 0cbc 153d 4ada bd3d d652 3cbd 3c7e 753d
000000c0: 8a1d 4dbd 118b 1a3c 3787 cc3d 9827 6ebd
000000d0: b9ca 44bb 2ec3 1f3d b2f4 3a3d 03c9 223d
000000e0: 835c a43d ae1f 973d 90bc b93c bfa3 ab3d
000000f0: 4ec9 af3d 1390 89bd dcd5 f03c a366 2ebd

SSM_blocks.0.W_B.weight f4 [64, 1]
0.15768144 0.15827405 -0.6583348 -0.30638346 0.2748526 -0.36545715 0.038065515 0.365378
-0.620768 0.44423804 -0.20753595 0.9281394 -0.012877578 -0.27927235 0.070689805 -0.25254777
0.47509465 -0.08183585 -0.8227866 0.8379531 -0.72367686 0.9638764 0.6417491 0.022234784
0.7009625 0.88446265 0.7209115 -0.027094852 0.36673915 0.7152136 0.08561798 0.5258181
-0.6150272 0.5516571 -0.102886476 -0.2347366 -0.50244045 -0.929752 -0.3748077 -0.10081542
0.44435117 -0.8991294 0.08160612 0.084113106 0.7078115 -0.31038848 -0.9409397 -0.3118673
0.64364076 0.83594346 0.609396 -0.84149885 -0.44140625 0.8079628 -0.30325213 0.22226436
0.5414375 0.4310937 0.59186405 -0.8394995 -0.25361973 0.8154036 -0.47590718 0.8139289
00000000: 3e77 213e 9812 223e a188 28bf 4bde 9cbe
00000010: 7bb9 8c3e 331d bbbe 96ea 1b3d d312 bb3e
00000020: a7ea 1ebf 2b73 e33e 4e84 54be 8b9a 6d3f
00000030: 7afc 52bc c9fc 8ebe d1c5 903d f14d 81be
00000040: 9b3f f33e 8e99 a7bd 25a2 52bf 1884 563f
00000050: e342 39bf 9bc0 763f ab49 243f b925 b63c
00000060: 4772 333f 256c 623f a88d 383f 06f6 ddbc
00000070: 3cc5 bb3e 3d18 373f 7b58 af3d 049c 063f
00000080: 6c72 1dbf 6639 0d3f 25b6 d2bd cb5e 70be
00000090: f09f 00bf 3a04 6ebf cbe6 bfbe 5178 cebd
000000a0: ff81 e33e 582d 66bf 1c21 a73d 7e43 ac3d
000000b0: 2233 353f 3deb 9ebe 6de1 70bf 12ad 9fbe
000000c0: a4c5 243f 6400 563f 6001 1c3f 786c 57bf
000000d0: 0000 e2be a6d6 4e3f dd43 9bbe 4599 633e
000000e0: a69b 0a3f 50b8 dc3e 6784 173f 70e9 56bf
000000f0: 72da 81be 4abe 503f 1baa f3be a55d 503f

SSM_blocks.0.W_B.bias f4 [64]
-0.32687813 -0.504878 -0.7216048 0.9609104 -0.24772237 -0.31455925 0.20283452 0.47841996
0.2663095 -0.8270205 -0.20079766 -0.63339305 -0.66218966 -0.8557437 0.686474 0.23971339
-0.18228836 -0.27375793 -0.4763347 0.3249653 -0.16374509 -0.27535105 -0.140569 0.51918083
-0.3313578 0.7089183 0.9385244 0.40442947 0.7401633 0.604589 -0.6250851 -0.5232107
-0.082547 0.16149037 0.7800671 0.72255886 0.27842847 -0.53839517 -0.9154928 0.7191036
0.85562754 -0.5979968 -0.97332263 0.6279194 -0.59859574 0.6893688 0.4149978 -0.7559842
0.12434059 -0.89789546 -0.79310733 0.38206178 0.42070076 -0.21210445 0.75423294 0.558959
0.14789446 0.72705585 -0.52639633 -0.49567705 0.7188856 0.29173237 0.59927756 -0.976473
00000000: 925c a7be af3f 01bf 18bb 38bf 39fe 753f
00000010: efaa 7dbe e90d a1be dab3 4f3e 76f3 f43e
00000020: b859 883e 9eb7 53bf e79d 4dbe 0c26 22bf
00000030: 4385 29bf 0512 5bbf c3bc 2f3f 6d77 753e
00000040: cda9 3abe 002a 8cbe 24e2 f3be da61 a63e
00000050: cbac 27be d0fa 8cbe 52f1 0fbe 09e9 043f
00000060: bba7 a9be ab7b 353f 2343 703f 6111 cf3e
00000070: 587b 3d3f 58c6 1a3f 9405 20bf 23f1 05bf
00000080: 670e a9bd bb5d 253e 7ab2 473f 9ef9 383f
00000090: 2d8e 8e3e 44d4 09bf bc5d 6abf 2c17 383f
000000a0: 680a 5b3f 5116 19bf ac2b 79bf 53bf 203f
000000b0: 923d 19bf 797a 303f 977a d43e 2e88 41bf
000000c0: 47a6 fe3d 7adc 65bf 1509 4bbf 9a9d c33e
000000d0: 1766 d73e e931 59be 6915 413f f017 0f3f
000000e0: a571 173e 5520 3a3f e9c1 06bf 62c9 fdbe
000000f0: e308 383f f25d 953e 416a 193f 22fa 79bf

SSM_blocks.0.W_E.weight f4 [32, 32]
-0.15459293 0.17304815 0.04905025 0.027366474 -0.17505118 -0.15996557 -0.1481503 0.11479446
0.15317649 0.064444155 -0.05929781 0.023342546 -0.1545873 -0.107714616 -0.08799244 0.082423665
0.042003717 -0.07569085 0.016991228 0.097212866 -0.09418541 0.07574176 -0.021015937 0.0022193266
-0.028967317 0.0658455 0.014578847 -0.06876098 -0.0104370555 0.15355928 -0.17267355 -0.13056844
-0.039621495 -0.05641678 0.043875184 -0.17531046 -0.02163718 -0.032883476 -0.15219791 0.014125811
-0.1176371 -0.09836853 0.10664461 0.07774871 0.10710543 0.032915846 -0.02253261 -0.07999973
-0.06653818 -0.021192994 -0.17660072 -0.014323332 0.08686882 0.061520066 0.17145795 0.13576403
-0.064697795 -0.03737572 -0.17162512 -0.06221663 0.014081157 -0.17289735 -0.12684862 -0.1123471
-0.022357153 -0.14030106 0.033552896 0.1595255 0.0049619484 -0.08068843 0.1671344 -0.07920322
-0.14395633 0.16686289 0.01669167 0.14928691 -0.001113035 0.015815374 0.10624456 -0.066412345
-0.031457122 -0.023832778 0.033012826 0.024700392 0.14648902 -0.06575195 -0.10346048 -0.08021681
0.03560968 -0.1328557 0.067896925 0.07115724 0.1253035 0.14358951 0.046210248 -0.05109243
0.12755324 -0.14623915 -0.06763364 0.041665573 -0.10174023 -0.1762338 0.03152976 0.16080356
-0.04063797 0.15949064 -0.1380079 -0.1298737 -0.013353196 0.060165364 0.037393358 -0.04527994
0.124030605 -0.06550141 -0.028385965 -0.14541766 -0.057352334 0.017108923 -0.038896948 0.118258804
-0.11521766 -0.15608686 0.049756378 -0.08529365 0.05015007 0.03096592 -0.128955 -0.084604315
0.08962331 -0.04666874 0.17613688 -0.011873167 0.04923203 0.16817202 -0.10892625 -0.0021986114
-0.14804982 0.06625365 -0.1284839 -0.08425292 -0.014626874 -0.11308073 0.11517178 -0.027111445
0.035467837 0.102999836 -0.09278795 -0.03327443 -0.102680005 -0.07238584 0.1081867 -0.022041537
-0.09742769 0.123181306 -0.16200848 -0.048592914 0.09651167 -0.16328363 -0.006425687 -0.09845137
0.17342684 -0.12729274 0.13470794 0.006838621 -0.14932548 0.072881155 0.03658867 0.14258423
0.13722503 0.003777917 -0.043147203 0.045090657 0.031707242 -0.019022685 -0.0059535163 -0.099712424
-0.0802892 0.048968736 -0.0071802633 -0.12469048 0.10302742 0.083385624 -0.10605055 -0.1063314
-0.03333586 -0.019943466 0.16695559 0.03244123 0.013489625 -0.16984224 -0.11065758 -0.026873779
0.027947428 0.14992017 -0.05883352 0.10209435 0.12987882 -0.14020894 0.011099098 0.15761887
-0.02913089 -0.06838716 0.016566576 0.12661885 -0.06448723 -0.10274451 -0.00048544738 -0.01261845
0.08524122 0.055250578 0.03584722 0.17512043 -0.0044876486 0.051338844 -0.1682933 -0.042740148
0.07269356 0.15588216 -0.14977634 -0.1347916 0.03378154 -0.06827372 0.03812311 -0.013031405
-0.06946173 0.13650818 0.15925245 0.108166404 0.05557753 0.13957255 -0.03781984 -0.04413677
-0.13437296 0.14018574 0.17032607 -0.16569373 0.09820902 -0.01476735 -0.114779964 0.15732752
0.11554124 -0.03906393 0.09552345 -0.054213468 -0.15473102 -0.021065226 0.085279845 0.040579047
0.08186534 0.15050785 0.03619053 -0.17275898 0.03036967 0.033564612 -0.15424581 0.005409316
00000000: 9c4d 1ebe 8933 313e eae8 483d a82f e03c
00000010: 9e40 33be 04ce 23be b6b4 17be 5c19 eb3d
00000020: 4cda 1c3e 4cfb 833d 43e2 72bd de38 bf3c
00000030: 224c 1ebe 7b99 dcbd 6135 b4bd bdcd a83d
00000040: 170c 2c3d ce03 9bbd 3031 8b3c 8a17 c73d
00000050: 48e4 c0bd 7f1e 9b3d 9d29 acbc 1f72 113b
00000060: de4c edbc 01da 863d 1edc 6e3c 8fd2 8cbd
00000070: 2f00 2bbc a53e 1d3e 56d1 30be bcb3 05be
00000080: 264a 22bd 4815 67bd 77b6 333d 9684 33be
00000090: 7540 b1bc d3b0 06bd c5d9 1bbe f26f 673c
000000a0: b8eb f0bd 7175 c9bd 7d68 da3d b73a 9f3d
000000b0: 175a db3d c4d2 063d 4f96 b8bc e6d6 a3bd
000000c0: 2b45 88bd ee9c adbc d2d6 34be 69ac 6abc
000000d0: 48e8 b13d 77fc 7b3d ac92 2f3e ba05 0b3e
000000e0: 4780 84bd 4817 19bd 7fbe 2fbe ddd6 7ebd
000000f0: a7b4 663c 010c 31be 9be4 01be 3d16 e6bd
00000100: 5926 b7bc 15ab 0fbe c36e 093d a75a 233e
00000110: d797 a23b fa3f a5bd 4825 2b3e 4c35 a2bd
00000120: 4a69 13be 1bde 2a3e f8bc 883c abde 183e
00000130: 42e3 91ba 3e8f 813c bf96 d93d 3203 88bd
00000140: 2fd9 00bd f53c c3bc 7538 073d 7a58 ca3c
00000150: 3801 163e f5a8 86bd 17e3 d3bd b648 a4bd
00000160: 75db 113d 530b 08be 8b0d 8b3d e3ba 913d
00000170: 904f 003e 2109 133e f546 3d3d 4c46 51bd
00000180: 519d 023e b7bf 15be 8183 8abd 85a9 2a3d
00000190: 2f5d d0bd a276 34be 5a25 013d b0a9 243e
000001a0: 0074 26bd 8451 233e f151 0dbe 9cfd 04be
000001b0: 5dc7 5abc f56f 763d c729 193d 7577 39bd
000001c0: c203 fe3d 9a25 86bd af89 e8bc 5ee8 14be
000001d0: 48ea 6abd 0328 8c3c 6852 1fbd ac31 f23d
000001e0: 3df7 ebbd 3cd5 1fbe 58cd 4b3d 70ae aebd
000001f0: 296a 4d3d 3eac fd3c c80c 04be 0745 adbd
00000200: 6d8c b73d b927 3fbd 3a5d 343e ac87 42bc
00000210: 86a7 493d 4935 2c3e ba14 dfbd 9416 10bb
00000220: 5f9a 17be feaf 873d 4991 03be cb8c acbd
00000230: 8ea5 6fbc df96 e7bd 2fdf eb3d d218 debc
00000240: b946 113d 94f1 d23d 9c07 bebd c54a 08bd
00000250: e549 d2bd 073f 94bd fd90 dd3d 7490 b4bc
00000260: 2b88 c7bd 7b46 fc3d 8de5 25be 5d09 47bd
00000270: e9a7 c53d d333 27be 928e d2bb dfa0 c9bd
00000280: ce96 313e 0759 02be e1f0 093e 8316 e03b
00000290: c7e8 18be b742 953d 00de 153d 9a01 123e
000002a0: b884 0c3e ee96 773b 1fbb 30bd fbb0 383d
000002b0: 74df 013d 76d5 9bbc b715 c3bb 0736 ccbd
000002c0: aa6e a4bd 7193 483d 6a48 ebbb b95d ffbd
000002d0: 0a00 d33d 15c6 aa3d 0831 d9bd 47c4 d9bd
000002e0: 2f8b 08bd 7b60 a3bc 68f6 2a3e 18e1 043d
000002f0: 9703 5d3c 20eb 2dbe 71a0 e2bd 6626 dcbc
00000300: 01f2 e43c ac84 193e 6bfb 70bd d816 d13d
00000310: f4fe 043e ef92 0fbe fed8 353c d766 213e
00000320: e7a3 eebc 910e 8cbd a1b6 873c 5fa8 013e
00000330: e111 84bd b76b d2bd a583 feb9 9ebd 4ebc
00000340: f392 ae3d 6e4e 623d 89d4 123d c552 333e
00000350: 200d 93bb ae48 523d 1455 2cbe 4b10 2fbd
00000360: 5ce0 943d 939f 1f3e f85e 19be cf06 0abe
00000370: 835e 0a3d 18d3 8bbd fa26 1c3d ad81 55bc
00000380: f441 8ebd cdc8 0b3e 1313 233e 5986 dd3d
00000390: 44a5 633d 1bec 0e3e fae8 1abd c2c8 34bd
000003a0: 1199 09be da8c 0f3e f569 2e3e 9eab 29be
000003b0: d021 c93d c1f2 71bc c211 ebbd 771a 213e
000003c0: e3a0 ec3d 8001 20bd cca1 c33d f10e 5ebd
000003d0: cf71 1ebe fb90 acbc 33a7 ae3d 3736 263d
000003e0: 04a9 a73d bb1e 1a3e 853c 143d bbe7 30be
000003f0: d0c9 f83c 0c7b 093d 9df2 1dbe a240 b13b

SSM_blocks.0.W_E.bias f4 [32]
0.010212328 -0.06685451 0.049908336 -0.00864318 0.0119221 -0.028913539 -0.10764815 0.012953159
-0.027689932 0.16036999 0.09743434 -0.14144701 0.14953154 -0.1637118 0.13427073 -0.021641606
0.11868696 -0.16593319 -0.13413835 0.035224397 -0.1455871 0.0041824426 0.056381565 0.15972473
0.050686136 -0.13958856 -0.17313582 0.0831288 0.111715995 0.0014280406 0.021187643 -0.023417737
00000000: 9c51 273c 04eb 88bd af6c 4c3d 209c 0dbc
00000010: e954 433c 16dc ecbc a276 dcbd 7d39 543c
00000020: ffd5 e2bc 0838 243e a88b c73d 7cd7 10be
00000030: cc1e 193e 11a4 27be 447e 093e bd49 b1bc
00000040: 2612 f33d 64ea 29be 905b 09be 7547 103d
00000050: c914 15be df0c 893b 5bf0 663d e18e 233e
00000060: 449c 4f3d 4ef0 0ebe 844a 31be 6f3f aa3d
00000070: 5bcb e43d 172d bb3a b591 ad3c 8ed6 bfbc

SSM_blocks.0.W_F.weight f4 [32, 1]
0.36587715 -0.046035767 -0.08631432 -0.94772255 0.7531185 -0.020076513 -0.2067709 -0.37068415
-0.35301065 -0.87881255 0.25242448 0.33314228 0.8907814 0.564471 -0.029720068 0.2540388
0.025108933 -0.8096005 0.41777015 0.16583872 0.94056857 0.23224604 -0.086001754 -0.64201784
0.63578415 0.88231623 -0.6741437 -0.141312 0.65097594 0.16044521 0.50233424 -0.081799984
00000000: 4054 bb3e 0090 3cbd 90c5 b0bd f29d 72bf
00000010: 60cc 403f 8077 a4bc c0bb 53be 50ca bdbe
00000020: d0bd b4be dcf9 60bf c83d 813e a091 aa3e
00000030: 400a 643f 2c81 103f 8077 f3bc 6011 823e
00000040: 40b1 cd3c fa41 4fbf f8e5 d53e a0d1 293e
00000050: 1ac9 703f e8d1 6d3e b021 b0bd 485b 24bf
00000060: c0c2 223f 7adf 613f ae94 2cbf 18b4 10be
00000070: 5ca6 263f c04b 243e fa98 003f c086 a7bd

SSM_blocks.0.W_F.bias f4 [32]
0.97744083 -0.26425195 0.8670634 0.2781211 -0.84253144 -0.5643153 -0.4158249 -0.6225865
0.035022378 0.18789971 0.097664475 -0.8069701 0.267213 -0.18106616 -0.8998401 -0.8030801
0.08600807 0.85611653 0.65640557 0.7098048 -0.6834825 0.38730776 -0.3933618 0.42583525
-0.42968512 0.12374735 -0.49085736 0.45337868 -0.08110106 0.6971836 0.88143945 0.3976574
00000000: 9039 7a3f 084c 87be def7 5d3f e465 8e3e
00000010: 24b0 57bf f876 10bf 00e7 d4be d461 1fbf
00000020: a073 0f3d c868 403e 5004 c83d 9895 4ebf
00000030: 24d0 883e 6869 39be ec5b 66bf a896 4dbf
00000040: 0025 b03d 742a 5b3f 320a 283f c4b5 353f
00000050: b6f8 2ebf 344d c63e b866 c9be 1407 da3e
00000060: b0ff dbbe 406f fd3d a851 fbbe 4021 e83e
00000070: 5018 a6bd a07a 323f 04a6 613f c099 cb3e

W_C.weight f4 [1, 64]
-0.08541107 0.062073648 -0.10814278 0.051774636 0.11637036 -0.066550046 0.03325568 -0.06923225
0.052220143 0.05975624 -0.11405013 -0.07665034 -0.05698585 -0.04648526 0.0033072934 -0.08175457
-0.037660092 -0.01006624 -0.11366087 0.122935414 -0.03779186 -0.02583347 -0.026258152 -0.028447088
0.028162738 -0.015077694 0.033329874 -0.010768582 0.11313571 -0.046652876 0.016443918 -0.10306964
-0.065209955 0.11597295 0.041580457 -0.041986573 -0.06907797 -0.05263861 0.03695901 -0.08664985
0.12696563 -0.107230544 -0.055662017 -0.00074390986 0.06252091 0.09098701 -0.029933535 -0.066162325
0.106878996 -0.070072934 -0.002512445 -0.113501646 0.056505583 -0.046515666 0.0716781 -0.015623744
0.03629308 0.12649244 -0.07763994 -0.052609656 -0.014859883 0.045000847 -0.104404695 -0.062373057
00000000: 00ec aebd f040 7e3d f679 ddbd a411 543d
00000010: 9553 ee3d 644b 88bd 1c37 083d a3c9 8dbd
00000020: cae4 553d f6c2 743d 1d93 e9bd dafa 9cbd
00000030: ff69 69bd 5467 3ebd 2dbf 583b f16e a7bd
00000040: 7841 1abd dfec 24bc 08c7 e8bd 90c5 fb3d
00000050: a3cb 1abd b7a0 d3bc 561b d7bc de09 e9bc
00000060: 8bb5 e63c 6f08 77bc e884 083d b56e 30bc
00000070: b2b3 e73d 1617 3fbd 65b5 863c 2d16 d3bd
00000080: cc8c 85bd 3a83 ed3d 4550 2a3d 1dfa 2bbd
00000090: c078 8dbd 959b 57bd 5562 173d 7a75 b1bd
000000a0: 4703 023e b09b dbbd dbfd 63bd f202 43ba
000000b0: f60a 803d 6657 ba3d 2c37 f5bc 1d80 87bd
000000c0: 60e3 da3d 6682 8fbd d5a7 24bb 8d73 e8bd
000000d0: 6672 673d 3687 3ebd f8cb 923d bbfa 7fbc
000000e0: 0da8 143d 3c87 013e b001 9fbd 397d 57bd
000000f0: de76 73bc cf52 383d 21d2 d5bd e47a 7fbd

W_J.weight f4 [1, 32]
-0.11971782 0.065183386 -0.05685303 -0.0033917362 0.032780975 -0.0687523 -0.06441417 0.041728918
0.008389815 -0.16971233 -0.13449843 -0.014272073 0.09705374 -0.15957725 -0.051264416 0.09111349
-0.013848604 0.026304545 0.099356666 -0.113836244 0.12278725 -0.13626537 -0.06358731 0.12440927
-0.16203322 -0.048295405 -0.059156846 -0.09151548 0.025074067 0.18146291 -0.16801482 -0.12993422
00000000: 9e2e f5bd de7e 853d b9de 68bd e447 5ebb
00000010: 5845 063d 02ce 8cbd 94eb 83bd f1eb 2a3d
00000020: 6f75 093c 12c9 2dbe f5b9 09be 6ad5 69bc
00000030: 1cc4 c63d 3868 23be a3fa 51bd b699 ba3d
00000040: 41e5 62bc a17c d73c 827b cb3d fa22 e9bd
00000050: e277 fb3d 2689 0bbe 103a 82bd 4aca fe3d
00000060: 09ec 25be 67d1 45bd 734e 72bd 786c bbbd
00000070: 2168 cd3c 6ad1 393e 140c 2cbe 7a0d 05be
