weight/best_GERMANY_model.pth (torch, 28517 bytes, 12 tensors)

SSM_blocks.0.W_bh f4 [64]
000000 0e 42 20 bc a7 1c 44 bc 76 ce 99 bb 2f e5 3a 39
       -0.009781374 -0.011969722 -0.0046938015 0.0001782372
000010 15 42 73 3c 47 df bc bb f6 01 c7 bc 26 50 ab 3b
       0.014847298 -0.0057639214 -0.024292927 0.0052280603
000020 03 2a 9b bc 61 b2 45 bc 65 4c 35 3c 4d 8c 2b 3c
       -0.018940931 -0.012066455 0.011065577 0.010470462
000030 f0 87 8d bc 60 e9 0e 3c 0e 6a a9 3c ec b9 39 bc
       -0.017276734 0.008722633 0.020680454 -0.011335831
000040 4d 3c ce 3b 7a 8e 97 3c 2e bc 82 3c 23 e3 4d 3c
       0.0062938095 0.018500555 0.015958872 0.012566361
000050 52 c6 5c bc 37 e8 29 3c e5 09 d8 3b d1 13 4d bc
       -0.013475018 0.010370306 0.0065929764 -0.012516932
000060 1c 91 30 3d 72 93 3f 3c 5f 21 c4 3b f8 4a d2 3c
       0.043107137 0.011692869 0.0059854235 0.025670514
000070 8c 2b 09 3c d6 14 24 bd 9e bb 87 3b e8 d4 0c bc
       0.008372199 -0.040058933 0.0041422388 -0.008595683
000080 c1 5d 03 bc b8 a2 63 3c 26 0e ab 3b e0 cf e2 bb
       -0.008017958 0.013893776 0.0052201925 -0.0069217533
000090 15 d4 a9 3b 02 76 e7 3b 87 2e 8a bc ac 8f 6e 3c
       0.005182753 0.007063628 -0.01686789 0.014560621
0000a0 26 27 9f bc 9d a5 7d 3c 45 04 c8 3c 6c f2 92 bc
       -0.019427847 0.01548138 0.024416098 -0.017937861
0000b0 4b b8 ae bb fd 4d 04 3d 2f 69 2a bc 01 90 1b bb
       -0.005332028 0.032300938 -0.010401054 -0.0023736956
0000c0 fc 18 85 3b aa 76 1e bc 47 c2 05 bc 83 bf 89 bb
       0.0040618163 -0.009671846 -0.008163995 -0.004203738
0000d0 16 ba 4d bc ee ea 9e bc b5 93 3e 3c 9e 50 c1 3c
       -0.012556573 -0.019399133 0.011631896 0.023598012
0000e0 7c 96 2b bb 4e 99 4a bc d3 76 51 bc ea 38 01 3d
       -0.0026182225 -0.012365652 -0.012784678 0.031548418
0000f0 3b 08 a1 3c e3 83 43 3c d6 c8 69 bc 87 4c 38 3d
       0.019657245 0.0119333 -0.014269074 0.044994857

SSM_blocks.0.W_bg f4 [32]
000000 00 00 00 00 00 00 00 00 00 00 00 00 00 00 00 00
       0.0 0.0 0.0 0.0
000010 00 00 00 00 00 00 00 00 00 00 00 00 00 00 00 00
       0.0 0.0 0.0 0.0
000020 00 00 00 00 00 00 00 00 00 00 00 00 00 00 00 00
       0.0 0.0 0.0 0.0
000030 00 00 00 00 00 00 00 00 00 00 00 00 00 00 00 00
       0.0 0.0 0.0 0.0
000040 00 00 00 00 00 00 00 00 00 00 00 00 00 00 00 00
       0.0 0.0 0.0 0.0
000050 00 00 00 00 00 00 00 00 00 00 00 00 00 00 00 00
       0.0 0.0 0.0 0.0
000060 00 00 00 00 00 00 00 00 00 00 00 00 00 00 00 00
       0.0 0.0 0.0 0.0
000070 00 00 00 00 00 00 00 00 00 00 00 00 00 00 00 00
       0.0 0.0 0.0 0.0

SSM_blocks.0.W_A.weight f4 [64, 64]
000000 eb 39 53 bd be a1 c1 3d 69 d4 ca 3c 3f 90 b3 3d
       -0.051568907 0.09454678 0.024759488 0.08767747
000010 97 76 52 3d 98 d6 91 ba 74 e5 a3 38 6d fb 31 3d
       0.051382627 -0.0011126576 7.815185e-05 0.04345267
000020 7f 25 ad bd 58 f4 93 bc 65 c4 9e 3d bc 5e 78 3d
       -0.084544174 -0.018060848 0.07752303 0.06063722
000030 11 8f 5e 3d 89 43 90 3d c5 71 b4 3d 99 64 5d 3d
       0.054335658 0.07044131 0.08810762 0.054051016
000040 b5 5f c2 ba 26 ea df bd e5 c3 e2 bd 51 ab d8 bd
       -0.0014829548 -0.10933332 -0.1107252 -0.10579551
000050 86 e9 b3 3d 92 51 02 3e c8 bd 55 bd 90 0e dc 3d
       0.087847754 0.12726429 -0.052182943 0.10744965
000060 58 05 84 bd 7a 94 e6 3c e5 b9 e4 3d 8e 96 fe bc
       -0.06446332 0.028146971 0.11168269 -0.03107765
000070 1e 6d 75 3d 0c 83 15 bd 43 51 f8 3d fb f1 c8 bd
       0.059918515 -0.03650193 0.121248744 -0.09811779
000080 d3 05 9f bd 6a c0 75 bd d9 75 db bd 0d 0a eb 3d
       -0.07764783 -0.059997953 -0.10715837 0.114765264
000090 0f 30 e1 bd db d2 b4 3d 77 e6 81 3b 73 a6 72 bc
       -0.109954946 0.0882928 0.003964241 -0.014810192
0000a0 34 d6 d4 3d a3 90 f9 3d d5 7d f3 bd 62 05 ea 3d
       0.103924185 0.121857904 -0.11889235 0.11426808
0000b0 50 19 17 bd e3 bc 15 bd 6c 34 a5 3d 31 dd c3 3d
       -0.036889374 -0.03655709 0.08066639 0.09563673
0000c0 36 fb 8c 3d ce 9d 04 3d 78 a4 e3 3c b5 cc b4 3c
       0.06883852 0.032377057 0.027788386 0.022070268
0000d0 b0 32 92 3c 13 79 d7 3d 23 9f 7a 3c 51 bd bd 3c
       0.017846435 0.1052114 0.01529673 0.023161562
0000e0 0f 75 00 bc 37 a7 1f 3d 73 a5 b5 3d 10 81 97 bd
       -0.007840409 0.038977828 0.088694476 -0.073976636
0000f0 f8 5b da 3d f5 45 2d 3b 2d 65 f3 bc 6c 1d 90 3d
       0.10662073 0.0026439403 -0.02971133 0.07036862
000100 cd 2f f7 bc b5 5d 32 bd f8 2c 7b bb 93 b2 ad 3c
       -0.03017416 -0.043546397 -0.0038326364 0.021203315
000110 a9 cc c8 3d 63 30 8e bd 88 41 c6 3b d3 70 76 bd
       0.09804661 -0.06942823 0.0060502924 -0.06016619
000120 a4 09 c6 bd 43 ab f2 3d 0c cc df bd 72 5a e2 bd
       -0.096698076 0.11849072 -0.10927591 -0.11052407
000130 1c 0a c9 3d b8 e8 14 3c 2d 27 8a bd b9 ae 2d 3d
       0.09816381 0.009088688 -0.067457534 0.042402957
000140 a5 4f fa 3d 27 d9 ec bd 45 46 e9 3d a0 0f f1 3d
       0.12222222 -0.11564856 0.11390356 0.11770558
000150 27 46 77 bc 12 9e 95 3d ad 6e b1 3c 03 62 ce 3c
       -0.015092409 0.0730554 0.02165922 0.02519322
000160 78 62 69 3d f3 04 d1 3d df 5b 2c bb 23 cb 3a bd
       0.056978673 0.10206022 -0.0026299877 -0.045603883
000170 83 73 eb bb 69 19 4b 3d 73 77 7e bd a2 ac 06 3d
       -0.007185401 0.04958478 -0.062125634 0.03287948
000180 a8 7e 24 be f0 dc 3c 3d 95 aa 2b 3d 4b 45 da bd
       -0.1606394 0.04610914 0.041910727 -0.10657748
000190 5f cc 80 bd 91 bc 78 3d 73 88 d1 3d e6 2e 47 3d
       -0.06288981 0.060726706 0.10231104 0.04862871
0001a0 a0 ad 90 bd 84 f2 bb bd 35 4c fd 3d 1f d7 29 3d
       -0.07064366 -0.091771156 0.12368051 0.04146492
0001b0 21 b4 f1 bd 50 bc b1 bc e9 04 40 bc 3f a6 79 bc
       -0.11801935 -0.02169624 -0.011719921 -0.01523739
0001c0 bd b4 9c 3d 4f ec 95 3d 45 6b 56 3d 2f 60 56 3d
       0.076516606 0.07320463 0.052348394 0.05233782
0001d0 54 38 a0 bd 6d d1 e7 bd 08 d2 58 3d 4f d8 b8 bd
       -0.07823244 -0.11319242 0.052934676 -0.090256326
0001e0 90 86 98 bb a6 b7 42 bd 51 34 74 bd d6 0c ed bd
       -0.004654713 -0.047538422 -0.059620205 -0.11574714
0001f0 63 35 0e bd 23 ac 25 bd 11 6b 96 ba 62 6f d1 bb
       -0.034718882 -0.040447365 -0.0011476 -0.0063914517
000200 c7 10 5e 3d e1 e7 3f 3d 2d 35 f8 3c b5 9b f1 3d
       0.05421522 0.046851996 0.030298794 0.11797277
000210 61 89 b2 3d 44 ed 47 3d d0 6f d2 3d fe 28 b8 bd
       0.08717609 0.04881026 0.10275233 -0.08992194
000220 6d f1 4b 3d ee 48 bb bd 54 85 b2 3c 57 a2 dc bc
       0.04979079 -0.091447696 0.021792091 -0.026932878
000230 93 96 ab bd 94 b7 50 bc 11 6a 24 3d 9e ac c9 bd
       -0.08378329 -0.012739081 0.040140215 -0.09847377
000240 f5 58 f7 bd b3 ad ac bd d5 02 2e 3d f2 ac 8a bd
       -0.12077514 -0.08431568 0.04248317 -0.06771268
000250 1c 11 0b 3d c4 65 9e bc de af 88 3d 62 66 63 bd
       0.033951864 -0.019335635 0.06674169 -0.05551756
000260 38 38 00 bd 99 91 a4 3b 48 0a 00 be c1 44 03 be
       -0.031303614 0.0050222394 -0.12503922 -0.12819196
000270 e0 fe 8a 3d ab a8 81 bb fc 9b 49 3d 38 eb 8e bd
       0.06786895 -0.0039568744 0.049221024 -0.06978458
000280 60 3e 81 bb 44 3b c4 bc 7e 0c e2 3d c5 a6 aa 3d
       -0.0039442033 -0.023954041 0.11037539 0.0833259
000290 79 46 d9 3d 29 c8 88 bd 01 57 4c bd 3b 01 f6 3d
       0.10609145 -0.066788025 -0.04988766 0.120119534
0002a0 e4 46 96 bd 55 45 b1 3d 7f 33 01 3d 0d c6 d9 bd
       -0.0733774 0.08655802 0.03154325 -0.10633478
0002b0 1d f1 8e bd 14 8d 94 3d 19 34 ba 3a 56 fa 06 3e
       -0.069795825 0.07253471 0.00142062 0.13181433
0002c0 44 22 02 3e 5d 2c b3 bd 3b 80 03 bc 51 55 57 bc
       0.12708384 -0.08748696 -0.008026178 -0.0131429
0002d0 0a f6 dd 3c ce a1 8c 3d c3 63 de bd 0e 23 ca 3d
       0.02709486 0.06866799 -0.10858872 0.098699674
0002e0 84 c2 dd bd ad 2f 9f bd e6 1e 42 3d d8 8e 00 3e
       -0.108281165 -0.07772765 0.04739275 0.1255449
0002f0 a0 08 05 3e 86 fc 58 bd fe 1d 8e bd 47 6d d3 3d
       0.12991571 -0.0529752 -0.06939314 0.103235774
000300 aa d1 3e bc 60 2f fa bd 6a b4 3c 3d 4b ff cb bd
       -0.0116466675 -0.12216067 0.046070494 -0.09960803
000310 f3 02 fd 3d d6 cb d2 bd 3d 65 2e bb 7b 7d f3 bd
       0.12354078 -0.10292785 -0.0026610636 -0.11889168
000320 9c a7 e9 bd 14 c3 12 3e 7d fb d7 bd 77 0e f3 3c
       -0.11408922 0.14332229 -0.105460145 0.029669983
000330 2b c0 85 bd 1c d0 82 3d 6f 9c 86 bd 88 1e b6 3d
       -0.06530794 0.0638735 -0.06572806 0.08892542
000340 51 12 2f bd 3f 67 73 bd 54 be 10 3e 9e ce 95 3d
       -0.042742077 -0.059424635 0.14135104 0.073148
000350 b0 75 07 3e b7 33 a5 bd cc 50 03 be 6f 18 a1 3d
       0.13228488 -0.080665044 -0.1282379 0.078659885
000360 09 5c 42 3d 48 43 b2 bd e6 5c de 3d 25 b9 82 bd
       0.047451053 -0.08704239 0.10857563 -0.0638297
000370 a0 a5 e8 3d b5 92 5d bd 0f b9 dc bd dc fd 9c 3c
       0.113597155 -0.05409499 -0.107774846 0.019164018
000380 4b 0c 1c bd ce fb 1d 3c 83 e7 94 3c 9b 47 2f 3d
       -0.03809766 0.009642554 0.0181768 0.042792898
000390 a5 d3 04 3e 6b c1 10 bd db 4c da bd 20 e9 95 bd
       0.12971361 -0.035340708 -0.1065919 -0.07319856
0003a0 48 66 1b 3d 9c bc 67 bd e6 8e 20 3c db 9f d0 3d
       0.03793934 -0.056576356 0.009799695 0.1018674
0003b0 b8 66 f6 bd 11 cb c4 bc de 8d ae 3b b5 b9 b0 3d
       -0.12031311 -0.02402261 0.0053269705 0.08629171
0003c0 1f d0 12 3d 2d ed 72 bd 59 dd 26 bd bc 81 bd bb
       0.03584301 -0.05930822 -0.040738437 -0.005783288
0003d0 23 52 32 3e 19 f0 8a 3d 28 ca b1 3c e0 e1 eb bd
       0.17414145 0.06784076 0.02170284 -0.115176916
0003e0 cc 84 86 3d 9e c7 89 3d bb 78 cc 3d 8e df c4 bd
       0.06568298 0.06727527 0.09983965 -0.09612952
0003f0 0f ce bc bd 75 e0 78 3d ad 80 d4 3d 5a 88 cb bd
       -0.0921899 0.060760934 0.103761055 -0.09938116

SSM_blocks.0.W_A.bias f4 [64]
000000 a0 b8 bb 3c 96 a3 2d 3d 93 d7 62 bd 3d 85 23 bd
       0.022915184 0.042392336 -0.05538137 -0.039921988
000010 ad 63 3f bd d9 56 53 3d 29 e4 65 3d c7 1c 8f bd
       -0.046725918 0.051596496 0.056125794 -0.06987911
000020 b2 81 60 3c 38 3e d2 3d 91 3f b1 3d 6a 17 82 bc
       0.013702797 0.102657735 0.086547025 -0.015880305
000030 b6 7e c6 3d d8 19 38 bc c1 22 9b 3d 1e 38 d9 3d
       0.09692137 -0.01123663 0.07574988 0.10606407
000040 27 f4 e1 bc 32 55 d6 bd da fb ae 3c 14 52 20 3d
       -0.027582241 -0.104654685 0.021360327 0.039140776
000050 ec c2 94 3d ba b4 92 3c 66 2e d8 bc 0d 6d 94 3d
       0.07263741 0.017908443 -0.026389312 0.07247362
000060 e0 61 6f bd c2 b2 05 3e 34 8c 1d bd 9e 59 8c 3d
       -0.05844295 0.13056472 -0.038463786 0.068530306
000070 8f ef 6a 3a 2c a4 24 be 77 a8 e3 3d 9b c1 91 bc
       0.00089620886 -0.16078252 0.111161165 -0.017792514
000080 9f bc 03 be ee 5c dd 3d 8f a7 85 3d 75 e6 f8 bd
       -0.12864922 0.108087406 0.065261 -0.12153331
000090 88 41 8a 3d 2a 19 07 3e e1 a4 02 be a5 27 94 bd
       0.0675078 0.13193193 -0.12758209 -0.07234124
0000a0 8a 1c b9 bd dc 06 ff 3d 9c 01 4f bd 45 4a af bb
       -0.090386465 0.1245248 -0.050538644 -0.00534943
0000b0 a3 f1 b1 bc 0d 9f 53 bd 5e 9e a9 bb 4c 01 80 bd
       -0.021721667 -0.051665355 -0.0051763495 -0.06250247
0000c0 46 63 ad 3d 92 67 d4 3c 13 2f d7 3c 1a c7 6c bd
       0.084662005 0.025928292 0.026267564 -0.057807066
0000d0 f5 33 d5 bc ce 24 a5 bd fb f9 1c 3d 05 06 18 3d
       -0.026025752 -0.080636606 0.038324337 0.037115116
0000e0 25 8b b7 3d 1a 7e f8 bd 9d 6d a7 bd 7d 71 47 bd
       0.089620866 -0.12133427 -0.08175204 -0.048692215
0000f0 c7 d8 1b 3a 69 f0 75 3d 48 5f 3f 3d b7 a4 50 bd
       0.0005945083 0.060043726 0.046721727 -0.050938334

SSM_blocks.0.W_B.weight f4 [64, 1]
000000 95 f1 2b bf 0a 6b 0c bf 09 7c 40 bf 68 10 0c 3f
       -0.671655 -0.5485083 -0.7518926 0.54712534
000010 a8 e1 c2 bd a7 dc 68 bf 19 41 4b bf fe bc 2e bf
       -0.09515697 -0.9096169 -0.79396206 -0.6825713
000020 dd 45 ea 3c a1 91 84 be df 92 6d 3f 3f c7 5a 3f
       0.028597767 -0.25892356 0.9280223 0.85460275
000030 86 1c 04 bf 52 e7 4d 3f 99 cb 22 3f 53 5a e8 be
       -0.51606023 0.8043109 0.63591915 -0.45381412
000040 d8 58 8d be 35 07 18 3f da 3a 35 3f 47 1b 43 3f
       -0.27606845 0.59386 0.70792925 0.76213497
000050 5e ee 03 bf 12 ef 1f 3f d5 e5 29 bf 7e d4 5c bf
       -0.51535594 0.6247417 -0.6636632 -0.8626174
000060 c2 d7 de 3d c3 9d 36 3f aa 96 bc 3e 94 ba 9e 3e
       0.10880996 0.71334475 0.36833698 0.31001723
000070 c9 bb dc 3c be 23 4f be ad 63 57 3f f6 1a bc be
       0.026945012 -0.20228478 0.8413647 -0.3673932
000080 ae 97 17 bf 08 6f 15 3f cb ef 4f be 8c c9 f9 be
       -0.5921582 0.58372545 -0.20306318 -0.4878658
000090 65 c7 ca bd bf 32 ce 3e 4c f3 63 bf f8 34 59 3f
       -0.09901313 0.4027309 -0.89043117 0.8484645
0000a0 ff ef 1f bd 53 71 6b 3f 7b 19 0f 3f 31 e1 1c 3e
       -0.039047237 0.91969794 0.55898255 0.15320279
0000b0 a0 e3 88 3e 51 89 2e 3f 71 96 4e 3e 53 e3 17 3f
       0.26736164 0.6817828 0.20174576 0.59331244
0000c0 eb bd fa 3e 8f 13 23 bf 41 56 81 bf 21 1b ba be
       0.4897302 -0.6370172 -1.0104448 -0.36348823
0000d0 8b cb fc bd 70 95 53 bf f4 6a 2e 3e 6e f7 ac 3e
       -0.1234351 -0.826499 0.17032987 0.33782524
0000e0 d0 4e 42 3e f0 38 19 bf e0 65 dd be 3f e1 56 3e
       0.18975377 -0.59852505 -0.43241787 0.20984362
0000f0 fb 6e 17 bf 9a 3a ab be 9c 5f d1 be be d6 29 3f
       -0.5915372 -0.33443147 -0.40893257 0.66343296

SSM_blocks.0.W_B.bias f4 [64]
000000 db 37 dc 3e 19 07 fe bd 0d c8 48 3f f6 5d 2f 3f
       0.43011364 -0.124036975 0.78430253 0.6850275
000010 ae bd f6 be 94 71 97 3e 40 52 44 bf a9 43 03 bf
       -0.4819159 0.2957884 -0.76688004 -0.51275116
000020 33 50 99 3e cb ee 99 be 18 08 5f bf c2 3a 50 3f
       0.29944 -0.30064997 -0.87121725 0.8133966
000030 42 b5 60 3f 2d fc 0e bf 3c 1c cd be e5 a1 41 3f
       0.8777658 -0.5585354 -0.40060604 0.75637656
000040 da 8d 30 bf 35 1c 78 bf 1f ed a1 3e a0 61 d1 bd
       -0.6896645 -0.9691804 0.31626222 -0.102236986
000050 c6 1c 6a 3e 1e f0 d6 be eb 85 2f bf c0 f7 89 3e
       0.22862539 -0.4198007 -0.6856372 0.2694683
000060 00 e1 3f bf 6c 84 9e bc dd d1 19 3f 18 38 42 bf
       -0.749527 -0.019350253 0.6008585 -0.7586684
000070 09 a4 ae be fb 72 3a 3f be bf 0d bf 75 ae 74 3f
       -0.34109524 0.72831696 -0.553707 0.955787
000080 28 33 e0 3e 56 88 9a be dc 89 5f be f0 11 1b 3f
       0.4378903 -0.3018214 -0.21829933 0.60574245
000090 1b 98 7f 3f c0 a5 ea bd a6 4a e5 3e 27 2b 09 bf
       0.9984147 -0.114573956 0.44783515 -0.5358147
0000a0 92 a1 26 3f 03 f8 53 bf c6 01 e9 3e ad e5 08 3f
       0.65090287 -0.8280031 0.45509166 0.5347546
0000b0 23 a3 30 3f a1 31 10 bf cc f2 c1 be dc 86 7d be
       0.68998927 -0.5632573 -0.37880552 -0.24758476
0000c0 a6 fd 2b 3f 13 0f 38 bf a1 e5 57 3e d2 32 c1 3e
       0.6718391 -0.71898 0.2108369 0.37734085
0000d0 22 2d 1d 3f da 88 20 3f 5d 19 05 bf bd e4 09 bf
       0.6139699 0.6270882 -0.51991826 -0.5386465
0000e0 95 13 44 3f 97 e5 44 3f 31 46 1b be ae d8 1b bf
       0.7659238 0.76912826 -0.15163495 -0.608775
0000f0 52 89 b9 bd 00 f5 ae be 4a f8 bc 3e 0f 9d 4d bf
       -0.09059395 -0.34171295 0.3690818 -0.8031778

SSM_blocks.0.W_E.weight f4 [32, 32]
000000 43 4e 1b 3e aa 50 cc 3d d8 7b f2 3c ff ce a6 3d
       0.15166573 0.09976323 0.029600069 0.0814495
000010 fd e6 85 bd e9 fa 87 bd 2f 2d 68 3c 3a 17 c7 bd
       -0.06538198 -0.06639654 0.014170929 -0.09721227
000020 69 4f 90 3d 8d bb ce bd df d2 c6 bd f5 94 b3 bd
       0.07046396 -0.10094366 -0.09708189 -0.08768646
000030 18 1e b1 bd ce 5b a6 bb 84 a7 fb 3d 32 45 85 3b
       -0.08648318 -0.005076862 0.122878104 0.0040670866
000040 ba be 2b bd e3 2d 19 3e fb 2a 0f be 55 42 06 be
       -0.041929938 0.1495891 -0.1398124 -0.13111241
000050 9c 2e 01 bd 59 aa 41 3c e6 29 da bc aa 85 b9 3c
       -0.03153859 0.011820399 -0.026631307 0.022646744
000060 b5 7f a5 bd 3e d2 61 bd ed e9 23 3e 7f bf 56 bd
       -0.08080999 -0.055132143 0.16007204 -0.05242872
000070 4a 3c 2b be 85 e5 29 3c e6 29 aa bd 41 aa a1 3b
       -0.16722217 0.010369663 -0.08308773 0.004933626
000080 f2 7f 30 bd ab 72 d3 bd da 48 e8 b8 12 98 ec bd
       -0.04309077 -0.103246056 -0.00011076192 -0.115524426
000090 fe b4 25 bd 09 c7 f9 3d 07 09 16 3e 50 73 34 3e
       -0.04045581 0.12196166 0.14651881 0.17622113
0000a0 0b 18 a8 bd 66 22 b6 bd 8c f3 47 3d 24 7c a2 bd
       -0.08207711 -0.0889328 0.04881625 -0.07933834
0000b0 90 be 5b bd b1 56 c9 bc 27 ba be 3d 35 a2 d4 bd
       -0.05364853 -0.02457747 0.093128495 -0.10382501
0000c0 ef 86 c0 bd 94 10 0a be 11 08 12 be 46 05 82 bd
       -0.094007365 -0.13482887 -0.1426089 -0.06348662
0000d0 58 cc e1 3d dd 51 58 3d 17 81 6c bd ae 25 97 bd
       0.110253036 0.052812446 -0.057740297 -0.07380234
0000e0 3d fe 33 3e 08 6e a2 3c 4e b4 4b 3d 78 be 00 3d
       0.17577453 0.019827858 0.0497325 0.031431645
0000f0 16 29 2f 3d ba bf 91 3b 76 46 19 3d d8 91 9b 3c
       0.042763792 0.0044479044 0.037420712 0.018990442
000100 16 30 2f be 37 1a 2f 3e 4f ef 32 be b1 97 21 bd
       -0.17108187 0.17099844 -0.17474101 -0.039451305
000110 7c b7 72 3d 34 a5 da bc 6b 12 22 bd a6 a0 11 3e
       0.059257016 -0.026690103 -0.039568346 0.14221439
000120 37 10 10 3d 30 76 e5 3b dc cb 9d bd d7 d6 34 be
       0.035171714 0.0070026144 -0.07704899 -0.1766008
000130 08 94 bf 3d 35 f2 2c bd 5d 48 f5 3d 16 8a eb 3d
       0.093544066 -0.042223174 0.11976693 0.11500947
000140 ba 3c 6f 3d d0 0c 81 3d 61 a0 2e 3e ef ad bc bb
       0.058407523 0.06301272 0.17053367 -0.005758039
000150 a0 fa 1f be 50 09 06 be e0 0d 8b 3c 68 d2 2d bc
       -0.1562295 -0.1308949 0.01697439 -0.010609247
000160 2c 10 9e 3d b8 e3 e6 3c 5e 12 ba bd 57 96 bf bb
       0.07717928 0.028184757 -0.090855345 -0.0058467793
000170 88 81 be 3d 8c f5 fc 3b ec 29 8a bc ac 86 f4 bd
       0.0930205 0.007719701 -0.016865693 -0.11939749
000180 af 64 96 3d 82 92 86 3d cd 3d a1 bd 57 cf 0a 3d
       0.073434226 0.06570913 -0.07873116 0.03388914
000190 ba 10 35 bd f3 bc 15 be 76 e2 d5 3b 59 1d 1b 3b
       -0.044205405 -0.1462286 0.0065272404 0.0023668616
0001a0 34 92 c0 bd f4 70 c3 bd 4b 78 98 38 17 7a 2e be
       -0.09402886 -0.095430285 7.270331e-05 -0.17038761
0001b0 b3 e5 ee 3d 87 e8 0c 3e 02 07 0c be c7 89 13 3d
       0.116649054 0.13760577 -0.13674548 0.036020067
0001c0 71 19 38 bd 5c b4 00 be db ff 0f be 68 4c b2 3c
       -0.044946138 -0.12568802 -0.14062445 0.021764949
0001d0 47 a0 e6 3c 67 c0 17 3e 81 a2 67 3d 38 97 2d be
       0.028152598 0.1481949 0.05655146 -0.16952217
0001e0 06 02 1b 3e 6a f2 00 3e 1d 2b c1 bc 17 d1 ea bc
       0.1513749 0.12592474 -0.023580128 -0.028664155
0001f0 74 a7 21 3e d1 fc d8 3d 92 6b 05 3e 54 c4 29 bd
       0.15786535 0.10595096 0.13029316 -0.041447
000200 56 94 f0 bc f9 3c bc 3d 34 b1 b4 3d 31 22 29 be
       -0.029367607 0.09191317 0.08822861 -0.16516949
000210 6b a6 1c be 36 15 2b 3e 69 a4 55 bd f7 24 af 3d
       -0.15297858 0.1670731 -0.052158747 0.08551972
000220 0c a4 0c be f6 01 da bd 75 7a 3a 3c a5 33 67 bd
       -0.13734454 -0.10644905 0.011381735 -0.056445736
000230 ed 20 e7 bd 06 d5 a3 3d 05 ad 70 bd a3 cf 19 be
       -0.11285577 0.07999615 -0.058758754 -0.15020613
000240 81 ad 0c 3e cb 5c 27 3e e3 35 ac bd 78 9c 31 3e
       0.13738061 0.16343991 -0.084087156 0.17344844
000250 f2 e3 7a 3d 3c 46 10 3e 9f 46 42 3c 46 5a f3 3d
       0.06125254 0.14089292 0.011857658 0.11882453
000260 7e 44 15 be bc 46 26 3e a3 d4 16 be 41 af e9 3d
       -0.14576909 0.1623792 -0.14729552 0.1141038
000270 57 21 25 bd c6 b6 af 3c 67 a3 0a be fb 63 e5 3b
       -0.040315 0.021449458 -0.13538896 0.007000444
000280 64 96 af bd ef 96 dd 3b 6c 6f 04 3e 38 6e 1c bd
       -0.085736066 0.0067623775 0.12933129 -0.03819105
000290 fe 9d e8 3d fc 31 82 bd 32 7b 17 3e 85 69 11 be
       0.113582596 -0.0635719 0.14793089 -0.14200409
0002a0 85 de 16 be f0 76 a6 bc e4 17 c9 bd e4 29 1d be
       -0.14733322 -0.020320386 -0.0981901 -0.15348011
0002b0 02 de 9c b9 01 17 2a be 28 1f db 3d f4 0d 21 be
       -0.00029920047 -0.16610338 0.10699302 -0.15727979
0002c0 da b7 21 be 0c f5 91 bd 64 b7 05 3e 7c 8a 39 3d
       -0.1579279 -0.07126817 0.13058239 0.045298085
0002d0 3b 20 c3 3d 92 1e 24 be 5f ec e8 3b 45 91 bd bc
       0.09527632 -0.16027287 0.0071082558 -0.023140559
0002e0 94 56 b0 bc d0 2f 8c 3d 82 56 2a 3e 5f 8f 25 3e
       -0.021525659 0.06845057 0.16634563 0.16167973
0002f0 d6 4b 19 3e d5 55 cb bd fd 11 97 bd d0 84 05 be
       0.14970335 -0.099284805 -0.07376478 -0.13038945
000300 6a 8c c2 3d 58 ba ec bd 67 5e da 3d ee 22 ed 3d
       0.09499438 -0.1155898 0.10662537 0.11578928
000310 de 11 e9 bd b0 97 d8 bd e6 e2 01 3c 29 ec 1c be
       -0.11380361 -0.10575807 0.007927632 -0.15324463
000320 c7 99 f3 bd 36 ff bb bd 6d 3c 04 bd bf e9 ed bd
       -0.11894565 -0.09179537 -0.03228419 -0.11616849
000330 5c ff e2 3c e3 4b 0b be 34 78 92 bd 34 0c 38 3d
       0.027709655 -0.13603167 -0.07151833 0.044933513
000340 45 b4 67 bc 3e 7c 65 3d 2c a8 91 3d a4 e5 fb bd
       -0.014142101 0.05602669 0.07112154 -0.1229966
000350 c8 7d b8 3a 60 d5 94 bd 30 72 8f bd 4f 25 9a 3d
       0.0014075572 -0.072672606 -0.070042014 0.07526647
000360 30 f0 93 3d e9 ed c3 3d f8 6e 4f bd 44 ae 05 3d
       0.072235465 0.09566862 -0.050642937 0.032636896
000370 65 f6 0f 3e 67 33 b6 bd a7 f1 c2 bb bd af 39 bd
       0.14058836 -0.08896523 -0.0059492174 -0.045333613
000380 d3 2f 77 3d 75 d0 0f be df e9 98 3c 33 93 1d be
       0.060348343 -0.14044364 0.018666206 -0.15388183
000390 43 ef 28 3e f7 ff 1f be 23 09 26 be bd c1 d0 3d
       0.16497521 -0.15624987 -0.16214423 0.10193203
0003a0 88 85 07 3e 39 2c 0f be 4f 20 12 3e d7 10 e5 bd
       0.13234532 -0.13981713 0.14270137 -0.111848526
0003b0 f3 99 24 be 03 74 67 bb a0 77 00 be 2b e5 5f 3d
       -0.16074352 -0.003531695 -0.12545633 0.05466191
0003c0 fa 3f 1f 3c 3b e8 bf bd 62 89 27 3e a2 99 06 3e
       0.009719843 -0.09370466 0.16361001 0.13144544
0003d0 47 93 4e bc 98 64 55 bb a1 8f 8b 3b cd 20 01 be
       -0.012608356 -0.003256118 0.0042590653 -0.12610169
0003e0 24 a4 73 bd 87 7d a7 bd 3c ba 27 3e 2f 66 23 be
       -0.05948271 -0.08178239 0.16379637 -0.15956949
0003f0 29 3d f9 3d ee bc dd 3d 57 29 10 bd 64 86 1a be
       0.121698685 0.10827051 -0.035195675 -0.15090328

SSM_blocks.0.W_E.bias f4 [32]
000000 68 d0 98 bd e0 d4 f8 bd 2c be c3 bd e1 d9 2e be
       -0.07461625 -0.12149978 -0.09557757 -0.17075302
000010 4b 42 7c bc d5 32 ff 3c c2 2b 01 3d cd 5d a4 3b
       -0.015396665 0.031152168 0.03153587 0.0050160647
000020 e5 aa 17 3e 2d 95 08 be 75 88 e8 bd c2 3d 53 bd
       0.14811285 -0.13338156 -0.11354152 -0.05157257
000030 66 99 20 3c b9 2d 8a ba c3 e5 24 3e c6 02 2a 3b
       0.009802198 -0.0010542191 0.16103272 0.0025941595
000040 ab 79 5f bd c4 f9 02 3e cc 13 6c bd 29 f8 0d bd
       -0.05455939 0.1279059 -0.057636067 -0.034660492
000050 a6 44 2d be 30 31 10 be f5 24 21 3e 8e 7e f3 3c
       -0.16920719 -0.14081264 0.15736754 0.029723432
000060 00 ed 33 bd 0d 2e 0e be ba b1 39 3c 10 e4 1c bd
       -0.043927193 -0.13884754 0.011333877 -0.038303435
000070 12 99 97 3c 52 17 4d bd 4c 6c 74 bd 68 2b 2b bb
       0.018505607 -0.050071068 -0.059673592 -0.0026118401

SSM_blocks.0.W_F.weight f4 [32, 1]
000000 e0 82 1b be 6c 2e e6 be 1c 3d 75 bf 88 3b 11 3f
       -0.15186644 -0.44957292 -0.9579637 0.5673146
000010 a0 9a 7a 3d 08 87 3e 3e 06 11 2e bf 88 e7 0e 3f
       0.06118262 0.18606198 -0.67994726 0.5582204
000020 d4 27 b6 be c0 97 72 bf e8 ee b0 be 88 a3 36 bf
       -0.3557726 -0.947628 -0.3455727 -0.7134328
000030 a4 35 0f bf 72 9b 75 3f c4 e9 3a bf aa 7f 4a bf
       -0.55941224 0.95940316 -0.7301295 -0.7910105
000040 78 6a 79 3e 14 9e e9 3e 3c 99 8f 3e 72 77 74 3f
       0.24357021 0.45628417 0.28046596 0.9549476
000050 7c e5 29 bf e8 bb 1a bf 6a 75 19 3f 66 07 62 bf
       -0.6636579 -0.6044297 0.59944785 -0.8829254
000060 44 e6 8e be 84 62 5c bf e0 50 5a bd 2e 15 0f 3f
       -0.27910054 -0.8608782 -0.053299785 0.5589169
000070 78 0a 46 be 08 b7 b4 3e 9c 9b 50 3f 60 d6 c1 3d
       -0.19339931 0.35295892 0.8148744 0.09464717

SSM_blocks.0.W_F.bias f4 [32]
000000 40 bc ce bc 78 9e b5 be 00 9a 7b 3b 3c 2f db 3e
       -0.025236249 -0.35472465 0.0038391352 0.42809474
000010 80 90 04 be a8 79 20 bf 40 dd 43 bf 00 25 3b 3f
       -0.12945747 -0.6268563 -0.76509476 0.7310333
000020 60 43 40 3f 74 56 41 bf b6 6a 41 bf 24 88 58 3f
       0.75102806 -0.7552254 -0.7555345 0.84582734
000030 18 c8 31 3f 6c 8b 22 3f f0 bc e4 be e4 92 4a 3f
       0.69445944 0.6349399 -0.44675398 0.7913039
000040 20 ce c6 bd 58 fc 4d be a2 aa 44 3f 60 d3 6c bf
       -0.09707284 -0.20115793 0.76822865 -0.9251003
000050 d4 84 76 3f 34 8c 0a 3f d0 d9 66 bf 58 a9 b7 3e
       0.9629643 0.54120183 -0.90176105 0.35871387
000060 8a c4 11 3f e8 51 9d 3e 92 20 7c bf 88 03 35 bf
       0.5694052 0.30726552 -0.984872 -0.70708513
000070 16 11 77 bf 3c a5 4b 3f d6 5e 4a bf c0 49 f7 3d
       -0.96510446 0.79549 -0.7905096 0.120746136

W_C.weight f4 [1, 64]
000000 0b 21 d2 bd 64 15 f6 bd 4c 57 d3 3c 47 aa 68 bc
       -0.10260209 -0.12015799 0.025798462 -0.0142007535
000010 46 97 6a 3d bb 97 c7 bd 51 92 9e bc 57 9e 1e bc
       0.05727317 -0.09745737 -0.019356878 -0.009681306
000020 e7 a2 c4 bd 1f d1 80 3d d2 0f 07 3e a9 a3 31 3e
       -0.09601384 0.06289887 0.13189629 0.17347588
000030 d5 c0 83 3d b8 5f c8 bd b0 4a b4 3d 79 e4 f1 3c
       0.06433264 -0.09783882 0.08803308 0.02952789
000040 7d ff ca 3d b2 e4 c5 bd 5b b7 aa 3d c6 ca 12 3e
       0.09912012 -0.09662761 0.083357535 0.14335164
000050 67 d9 bb bd 6f 85 cd bb 60 f2 2c 3d 9d d1 04 be
       -0.091723256 -0.00627201 0.042223334 -0.12970586
000060 90 72 4c bd 95 af 15 bd 83 14 d9 3d fa 97 8d 3d
       -0.049913943 -0.0365444 0.105996154 0.06913753
000070 66 a7 a8 3c c9 12 76 3d 2c 68 6f bd cb dc fa bc
       0.020587634 0.06007651 -0.058448955 -0.03062286
000080 1b 41 20 be 8e 0a 9d bd d3 c7 aa bc e4 94 64 bd
       -0.15649836 -0.07668029 -0.020847237 -0.055806056
000090 79 96 4a 3d 20 90 13 bd 3d b4 59 3d 2f fb 0c 3e
       0.04945991 -0.03602612 0.053150404 0.13767694
0000a0 de 44 f3 bc 40 56 15 bd 28 21 d9 3c b7 02 20 3c
       -0.029695924 -0.036459208 0.026505068 0.009766272
0000b0 c5 c7 ca 3c af c7 c1 bc 10 72 f0 3d 55 2a cb 3c
       0.02475346 -0.023654787 0.11740506 0.024800459
0000c0 84 66 12 bb 6f 97 ac 3d 16 91 07 be e0 09 a7 3d
       -0.0022338936 0.08427321 -0.1323894 0.081561804
0000d0 08 f6 33 bb 15 f9 22 bd 93 54 35 3d 6d c8 a9 3b
       -0.0027459878 -0.039788324 0.04427011 0.0051813633
0000e0 83 7a f0 3d 81 b8 05 be a1 a1 0f bd bb b0 a5 bc
       0.11742117 -0.13058664 -0.03506625 -0.020225873
0000f0 45 b5 da bd f6 25 df bd b3 33 93 bc d0 b5 16 bc
       -0.10679106 -0.10895912 -0.017968988 -0.009198621

W_J.weight f4 [1, 32]
000000 3e 2d b9 bd a5 3c 9d 3c 10 4d 01 be 1a 42 07 be
       -0.090418324 0.019193957 -0.12627053 -0.1320881
000010 b0 e3 ac 3d af b4 3d 3d f7 b7 66 3d b2 6f 25 be
       0.084418654 0.04631489 0.056327786 -0.1615589
000020 ef 30 5d 3d 1c 80 ce 3d 78 2e 1f be f2 76 e4 3d
       0.054001745 0.10083029 -0.1554507 0.111554995
000030 a6 5c 2c be c6 80 15 be 30 13 11 3e c7 60 54 3d
       -0.16832218 -0.14599904 0.14167476 0.051850107
000040 96 02 b7 bd 81 6c ca 3b b0 34 9e bd 92 7c fe 3d
       -0.0893604 0.0061774855 -0.07724893 0.12426104
000050 b9 e2 2b bc 38 cf 2d be e0 28 be 3d a6 64 08 3e
       -0.010491067 -0.16973579 0.0928514 0.13319644
000060 96 40 15 be d6 27 1f 3e f8 00 ad bd 07 28 7a 3d
       -0.14575419 0.1554254 -0.084474504 0.06107333
000070 b0 d0 c7 3d be a7 03 3e ad b7 de bb e2 8c 19 be
       0.09756601 0.12856957 -0.006796798 -0.14995149
