weight/best_VIETNAM_model.pth (torch, 28517 bytes, 12 tensors)

SSM_blocks.0.W_bh f4 [64]
00000000: fcb8 0dbd 6717 a33b 65fa 2bbe f3a3 c6bd
00000010: e9d3 183d 1adc e8bd 7905 52bd 3c1d 883d
00000020: 1ff2 8b3d 09f0 333d 7360 d4bd 0b11 14bd
00000030: 8c12 e6bb d329 483d cdde f0bd df75 abba
00000040: 092c 90bd 92d9 0d3e c744 a03d a55e 3a3d
00000050: 9085 fcbc 0f67 50bd 2141 dabb 665e 91bd
00000060: 475b 5eba 7171 a63d 7caa 3d3e 9751 83bd
00000070: 4e57 c83d 08ee 1bbb 1763 80bd 100d 6f3e
00000080: aa43 a4bc eb3a 113d 5495 6bbd f413 8abd
00000090: ae13 203e d2b0 a6bc e125 ca3d 7d74 473c
000000a0: 2a68 17bd 13f5 c9bc caf9 c6bd d478 6fbd
000000b0: 3442 b2bb 89aa 613d 9244 cd3a 6609 9a3d
000000c0: 604b 06bd 953d 88bb 1d60 67bb 13ff c8bc
000000d0: c54e c8bd 3dc6 25bd 37d3 25bd a23d 53bd
000000e0: 7b18 6f3d 2e8e a9bd 2c44 4b3d 7169 5b3e
000000f0: c2d6 1abe 630c ce3d 3f95 073b 93a0 3b3c
-0.034600243 0.004977155 -0.16794737 -0.096992396 0.03731147 -0.11370106 -0.05127475 0.06646201
0.0683329 0.043930087 -0.10369959 -0.036149066 -0.007021254 0.04886801 -0.11761246 -0.0013081393
-0.07039649 0.13852528 0.07825618 0.045500416 -0.030825406 -0.050879534 -0.006660596 -0.07098083
-0.00084822293 0.08127106 0.18522066 -0.064120464 0.09782277 -0.0023793 -0.062689 0.23344827
-0.020051796 0.03545658 -0.057515457 -0.06742087 0.15632507 -0.020347986 0.09870506 0.012173769
-0.036964573 -0.024652993 -0.09715612 -0.05846484 -0.005440021 0.055094276 0.0015660694 0.07521324
-0.032786727 -0.004157732 -0.003530509 -0.024535691 -0.09780649 -0.040472258 -0.040484633 -0.05157245
0.058372956 -0.08279072 0.04962556 0.21426941 -0.15120986 0.10060956 0.0020688323 0.011451858

SSM_blocks.0.W_bg f4 [32]
00000000: 0000 0000 0000 0000 0000 0000 0000 0000
00000010: 0000 0000 0000 0000 0000 0000 0000 0000
00000020: 0000 0000 0000 0000 0000 0000 0000 0000
00000030: 0000 0000 0000 0000 0000 0000 0000 0000
00000040: 0000 0000 0000 0000 0000 0000 0000 0000
00000050: 0000 0000 0000 0000 0000 0000 0000 0000
00000060: 0000 0000 0000 0000 0000 0000 0000 0000
00000070: 0000 0000 0000 0000 0000 0000 0000 0000
0.0 0.0 0.0 0.0 0.0 0.0 0.0 0.0
0.0 0.0 0.0 0.0 0.0 0.0 0.0 0.0
0.0 0.0 0.0 0.0 0.0 0.0 0.0 0.0
0.0 0.0 0.0 0.0 0.0 0.0 0.0 0.0

SSM_blocks.0.W_A.weight f4 [64, 64]
00000000: f5e5 18bd 4639 7dbd 85fd 7e3d f846 0fbe
00000010: f071 86bc df8b b83d 5cb4 373d 2171 ccbd
00000020: 07f5 7d3d 090a 103d 0b5c e0bd 022f 903d
00000030: 9fed f0bc 9a8a c3bd 45e9 e53c 2439 1cbe
00000040: fc51 9b3c b802 65bd 4230 87bc e3c5 f2bc
00000050: ece3 14bd 80cf aebd 9390 823a b1fc cabd
00000060: 5de9 a73c 0962 64bd 6f23 683d 267e 34be
00000070: 3f6f 0ebe f327 083e 2aea 5cbd 1ecf 853d
00000080: 5e39 00be 4369 ac3d 4ba2 e5bd aa80 a2bc
00000090: 1f99 66bc 1702 dc3d d6fd 573d 2872 c43d
000000a0: 567b a33d fca9 13be 28ff c63d 9763 c63d
000000b0: 0b6f b93d ea4a 58bc dd71 f0bc f1f3 ccbc
000000c0: 4312 de3c 41cc 2ebd bd52 a93d 2f72 85bd
000000d0: f087 953d f1e4 e83b 3b53 bebc ba1b a2bd
000000e0: ee64 dbbd 737a cabc 1d6a c1bd 1a88 0a3e
000000f0: 9c9e 5a3d b1bc cc3b 9090 91bc a227 b0bc
00000100: 2e35 45ba ed0e 27b7 7afc b13d d411 733d
00000110: ce34 91bd 385b 80bc 2a0d da3d a7cc fa3d
00000120: 3ecc fabd c88d e73d 0f25 69bb f6f8 7e3d
00000130: 05f6 bf3c 4477 edbd 66da bfbd 6c80 ab3d
00000140: 5080 b7bd 1847 bdbd 2935 213d 1720 dbbd
00000150: 4382 8b3d c1e7 fdbd d732 39bc 8770 17bd
00000160: 6dee 853d 321d 083e 837b b9bb bbb2 3fbd
00000170: 5775 fabd 9125 803d e7de babd ceea d3bd
00000180: 7a4c c03d 5bac c83d 80fc d93d e111 94bd
00000190: a7eb 79bd 8e57 8fbd 4276 cbbd 8ef3 65bc
000001a0: fb15 273c 62ba 103d 0ff4 eabd bb97 9c3d
000001b0: d272 a83d 2afa a5bd 2e0d 4a3c ec7d b83d
000001c0: b315 bebd d3d0 07be 3d8d 09be 5fa3 c33c
000001d0: 5ba3 9f3d c08a a03d 1935 fabd 96fc b3bd
000001e0: c2f4 37bd 78fc b2bc 460f 93bb abc9 043e
000001f0: 7cc1 c0bd 61bf 423c 7049 1ebd 2435 c93d
00000200: 2b78 a7bd e581 8d3d 7fee a6bc 4d80 473d
00000210: 93dd 0d3e 77bc 0bbd 6de6 063d 0048 2d3e
00000220: 213c 5e3e 7ba2 583e f587 ad3d 48c4 dcbd
00000230: 66ee a3bc cc1c 0f3e 1445 5fbd 0aab 26be
00000240: 39cf c23d 91cc cd3d e19f 28bd 9af6 403e
00000250: 6514 a93d cc81 41be f3d0 b3bd 91b1 803d
00000260: 35d5 44bd 8be6 b03d a8e2 8b3d 949f 30bc
00000270: de98 f43d e205 093c 5042 943d 33a2 2e3e
00000280: dc3d 933d 9c94 4b3d 2379 633d 1978 f9bd
00000290: 2b65 0d3e 5aca 9cbd 601c bd3c aa4c 063c
000002a0: afb0 46be 5339 00be dc71 55bd 5399 a4bd
000002b0: a494 ba3d 1e92 5a3e cf40 aabc 4e5b 0b3e
000002c0: 19c1 45be a161 dd3c d23c 5b3e 0eec 44bd
000002d0: a949 12bd 6ca8 50be ddbf c13d 184c 40be
000002e0: 11cb 5bbe 2cd7 fbbd cb88 c33b e008 c63d
000002f0: 852d 02be 6ec3 62bd 8ca8 7ebc 14ba 043e
00000300: d70a 273d ca8d 903d d5e0 05be 5fe2 53be
00000310: 9af4 003c a295 653d 0f70 ffbd 6d56 303d
00000320: 1ef4 66bc 89da c13d a7d3 443d b7bf 1cbe
00000330: 7423 803d 5b48 c13d ee4a dfbd 030f b8bd
00000340: 0833 46bd f2f1 133e 10f8 74bd 4409 4c3e
00000350: dea1 fe3b 1583 513d 1385 d0bd 1bc5 95bd
00000360: db88 08be 1f0d ebbb 461b 88bd 5de4 14bc
00000370: 50ba 063e 2848 c2ba 84bb 49be 3731 133e
00000380: 4aef e4bd 6906 43bd 7b7d 64bc d289 e1bd
00000390: 8ec3 0d3e de60 593d 6db0 df3c 15af 46bd
000003a0: 5270 3ebe 72bc 2c3d be1a 72bd e592 59bd
000003b0: debc 333d e3a9 fc3d 5c92 bf3a 10d9 9b3d
000003c0: be19 16be dcfd 7f3d d7cb 983d 81e2 35bd
000003d0: 798c 2bbd 7f23 41be ee7a 033e 0d39 e9bb
000003e0: 0ae1 1bbd 2691 e83b 0bd3 ecbd 65f5 c4bc
000003f0: 0c6b b2bd 640e 05bd 1652 8c3d c684 853d
-0.03732868 -0.0618222 0.062253494 -0.13991916 -0.016411752 0.09011053 0.04484974 -0.09982515
0.062001254 0.03516582 -0.10955056 0.07040216 -0.029410182 -0.095479205 0.028065333 -0.15256172
0.018959992 -0.055910796 -0.016502503 -0.029635375 -0.036350176 -0.08535671 0.0009961299 -0.09911478
0.020497018 -0.055757556 0.056674417 -0.17626247 -0.13909625 0.1329649 -0.053934254 0.06533645
-0.12521884 0.084185146 -0.112125956 -0.019836742 -0.014074593 0.10742586 0.05273231 0.09592086
0.07982509 -0.14420313 0.09716636 0.09686964 0.09054383 -0.013201455 -0.02935117 -0.025018664
0.027108317 -0.04267526 0.08267734 -0.065159194 0.07301319 0.00710737 -0.023233047 -0.07915445
-0.1071261 -0.024716591 -0.094440676 0.13528481 0.053373918 0.0062480797 -0.017769128 -0.021503273
-0.0007522878 -9.957451e-06 0.08690734 0.059343174 -0.0709015 -0.015668496 0.10647042 0.122460656
-0.12245987 0.113063395 -0.0035575067 0.062249146 0.023432741 -0.11595014 -0.09367828 0.08374104
-0.089600205 -0.09242076 0.039357338 -0.1069948 0.06811955 -0.12397719 -0.011303625 -0.03697255
0.06539617 0.13292387 -0.0056604757 -0.04680131 -0.12229412 0.06257165 -0.091245465 -0.1034752
0.09389587 0.09798499 0.10643864 -0.07229973 -0.06101575 -0.069991216 -0.09934665 -0.014035119
0.010198112 0.035334 -0.11472332 0.07646128 0.08225025 -0.08104356 0.012332244 0.09008393
-0.092814825 -0.13263254 -0.13432784 0.023881612 0.077948295 0.078389645 -0.12217159 -0.08788411
-0.044911154 -0.021848902 -0.0044879047 0.12967555 -0.09411904 0.011886449 -0.038644254 0.09824589
-0.08177217 0.06909541 -0.020377396 0.04870634 0.13854055 -0.03411528 0.032934595 0.16921997
0.21702625 0.21155731 0.08473197 -0.10779625 -0.020011138 0.13975829 -0.054509237 -0.16276184
0.09512181 0.100487836 -0.041168097 0.18844071 0.08255843 -0.1889717 -0.08780088 0.06283868
-0.048054893 0.086377226 0.068303406 -0.010780234 0.119432196 0.008363219 0.072392106 0.17054062
0.07189533 0.04970227 0.055535447 -0.1218111 0.13808124 -0.07655783 0.02308482 0.008196989
-0.19403337 -0.12521867 -0.052110538 -0.08037057 0.09110382 0.21344802 -0.020782856 0.13609049
-0.19311942 0.027024092 0.2140992 -0.04807668 -0.03571478 -0.20376748 0.09460423 -0.18779027
-0.21464182 -0.122969 0.0059672347 0.096696615 -0.12712677 -0.055362158 -0.015543114 0.12961608
0.040781822 0.07058294 -0.13074048 -0.20691822 0.007870818 0.056050904 -0.12472545 0.043051172
-0.014096288 0.094655104 0.04805341 -0.15307508 0.06256762 0.09437629 -0.109029636 -0.08987238
-0.04838851 0.14447764 -0.059806883 0.1992541 0.007770761 0.0511504 -0.10181632 -0.073129855
-0.13333456 -0.007173195 -0.06645827 -0.009087649 0.1315701 -0.001482253 -0.19700438 0.14374243
-0.11178453 -0.047613535 -0.0139459325 -0.11012615 0.1384413 0.053070895 0.027305806 -0.048506815
-0.18597534 0.042171903 -0.059107535 -0.053118605 0.04388129 0.12337091 0.0014615762 0.07609761
-0.14658257 0.06249796 0.07460754 -0.044405464 -0.041882012 -0.18861197 0.12839863 -0.0071173967
-0.03805641 0.007097381 -0.11563691 -0.024042794 -0.08711824 -0.032484427 0.06851594 0.06519465

SSM_blocks.0.W_A.bias f4 [64]
00000000: 262e 6e3d f122 b73d fce3 88be 3f43 eabd
00000010: 5eee a4bd d8c0 2ebe 3149 4dbd 8994 c23d
00000020: b029 833d 9f56 63bd 93fd 61be c29d 1f3c
00000030: 1ee9 16bd dd11 f93d 20e9 36be 1140 b63d
00000040: 5c70 88bd 8b02 c13d 8acc 1d3e 51e7 9f3c
00000050: e722 8fbb c016 0f3c d4d3 f63c 6662 833c
00000060: ba0e 1c3d 1f5a f33b 67d3 ec3d 0a60 26be
00000070: 0f6b 793d 2714 383c 32fd 34be b099 1f3e
00000080: 869e 223d 92af d23d 334f d33c acd6 c5bd
00000090: e947 5c3e d6c8 bdbc 8422 5d3c b113 fd3d
000000a0: 64fb 6c3d 6f74 8d3d 3eae bfbc dfde 31bc
000000b0: 0730 673d 05ea babc 3b49 063d 6e34 fa3d
000000c0: 03e9 913d 90f4 3abd ea72 6b3c c5b5 53bd
000000d0: 47cd e7bd dfdd 1abe 31f6 46bd 198a e7ba
000000e0: 77fb 113e 6887 d1bd dce9 6c3d 026a ba3d
000000f0: 849c 29be 5003 5f3e 383a 07bc a156 80bd
0.05814948 0.089422114 -0.26736438 -0.114386074 -0.080532774 -0.17065752 -0.05011863 0.09500987
0.06404436 -0.05550253 -0.22069387 0.009742202 -0.03684341 0.1216161 -0.17862368 0.088989384
-0.06662056 0.09424313 0.15410057 0.01951948 -0.0043681744 0.008733451 0.030130304 0.016038131
0.03809998 0.0074265148 0.11563759 -0.16247573 0.060893115 0.011235273 -0.17674711 0.15585971
0.03970196 0.10287394 0.025794601 -0.09660086 0.21511807 -0.023167055 0.013496999 0.123572715
0.057856932 0.069069736 -0.023398515 -0.010856359 0.056442287 -0.022816667 0.03278468 0.122170314
0.071245216 -0.04564339 0.014370659 -0.05168702 -0.113184504 -0.151237 -0.04857463 -0.0017665058
0.14256082 -0.10230905 0.057840213 0.09102251 -0.16563612 0.21778607 -0.0082536265 -0.06266523

SSM_blocks.0.W_B.weight f4 [64, 1]
00000000: 4c87 ca3e 3c4a da3e 5e6c 50bf b7da 37bf
00000010: 70aa 99be bbdf 36bf e219 3ebd f0ee 2a3f
00000020: 4257 ba3e 2d33 443f 7e0a e0be 2af4 69bf
00000030: 649e a63e cf43 223f c714 2cbf b13f a73e
00000040: 0051 82be 0ee3 053f 4334 c83e 676c 263f
00000050: 2c55 af3e 72fe e33d 0604 77be 9828 8ebc
00000060: b03f 47be 7033 6c3f 7ad1 1f3f 1e60 4dbf
00000070: c8e0 243e 02ff 3bbf 2cc4 e9be 8844 243f
00000080: fe0f 54bf cd97 113f 7db5 95bb e7db dd3d
00000090: 8f33 fe3e 0a88 da3c bd8b 2e3f a37e 9abe
000000a0: 75a6 78bf 0aeb ef3e 6ce1 46bf 44ef 3ebf
000000b0: c463 a13e 7168 1c3e 87c9 5cbf ef73 c73d
000000c0: f32b 80bf 23a4 a13e 9c2f 50bf 3716 9dbe
000000d0: 45ca 4abf 786f 1fbf 01e0 8e3e 009d 0fbe
000000e0: b841 743f 23dc 473e 677b 843e 756e 403f
000000f0: a3ac 27bf 3f3b 213f 5e63 cd3e 5ef7 4f3f
0.39556348 0.4263476 -0.81415355 -0.7181811 -0.30012846 -0.71435136 -0.046411403 0.6677084
0.36394697 0.7664059 -0.43758005 -0.9138819 0.32542717 0.6338472 -0.67219204 0.3266578
-0.25452423 0.5229958 0.39102373 0.6500916 0.34244668 0.11132516 -0.24122629 -0.017353341
-0.19457889 0.9226599 0.6242901 -0.8022479 0.16101372 -0.73435986 -0.4565748 0.6416707
-0.828369 0.56872255 -0.004568754 0.10832959 0.4964871 0.026676197 0.68181974 -0.3017474
-0.97128993 0.46859008 -0.77687716 -0.7458384 0.31521428 0.15274216 -0.86245006 0.097389095
-1.0013412 0.3157054 -0.81322646 -0.3068101 -0.7921489 -0.6227946 0.27905276 -0.14024734
0.9541278 0.19517569 0.258754 0.75168544 -0.654978 0.6298103 0.40114874 0.8123683

SSM_blocks.0.W_B.bias f4 [64]
00000000: 73f8 db3e 86a9 563e 35e3 283f 065a 723e
00000010: 8587 89be 3c42 ed3d a25a f03e 3c85 853e
00000020: c1bb 4bbf 027b 763e 2b49 d63d 25b3 4bbf
00000030: f301 1e3f 5a81 3d3e 13b3 313f 2593 a23e
00000040: b415 1f3f 3cdb 14be c5de a2be 893a cebe
00000050: 6744 173f 5af0 fa3e 85d4 5a3c e107 b03e
00000060: a6a0 99be ab13 c73e 23b1 05bf e09d 883e
00000070: 8d88 f7be a5a7 16bf 7d6d cd3e cb93 3bbf
00000080: c4d2 68bf 20f4 113e 4151 fa3e 7842 1c3f
00000090: 58d8 0dbf 30b4 ce3e eddd 343e d9fa 3fbf
000000a0: d25f 37bf 0e94 253f d4ac 63be c7b4 09bf
000000b0: 295f 123f d14c 10bf b845 6cbf 6866 53bf
000000c0: 217b 8bbe c566 063f 9af9 6abf fa41 f13d
000000d0: 84a8 453e 4f79 ef3e 806f 253f 5dd1 333f
000000e0: f853 a13e f226 573f 6379 dc3d e3ab 37bf
000000f0: b82f 063f afa1 d0be e857 ee3e 190b 813f
0.4296299 0.20963106 0.6597169 0.23667154 -0.26861206 0.11584899 0.46944147 0.26078212
-0.79583365 0.24070361 0.104631744 -0.7957023 0.61721724 0.18506375 0.6941387 0.31752887
0.6214249 -0.14536756 -0.31810585 -0.40279034 0.5908875 0.490115 0.013356333 0.3438101
-0.30005378 0.38882193 -0.52223414 0.2668295 -0.48346367 -0.58849555 0.40122595 -0.7327239
-0.909466 0.14253283 0.48890117 0.61038923 -0.5540824 0.40371847 0.17662783 -0.7499214
-0.71630585 0.6467904 -0.22233897 -0.5379147 0.5717645 -0.5636721 -0.9229388 -0.82578135
-0.27242377 0.52500564 -0.9178711 0.11780162 0.19302565 0.4677224 0.6462326 0.7024134
0.31509376 0.840438 0.1076534 -0.71746653 0.52416563 -0.40748355 0.46551442 1.0081512

SSM_blocks.0.W_E.weight f4 [32, 32]
00000000: 8155 1ebd 0e47 173e 75a8 a03d 483f 10bd
00000010: f7ef ccbb 0d14 853c c6dc 523d afd9 27bd
00000020: d470 02bd 4475 bebd e700 e83c c726 1a3e
00000030: 8001 03be 6022 08be 7c28 933d 86fa 6e3b
00000040: e8cb e6bd 8a5a 12be e060 783d fa50 163e
00000050: 0f4a e73d 6f47 c53d 59f6 1cbe 035a 113d
00000060: 6ea0 a33d 7486 093e d154 853d 3e96 5abd
00000070: 2de9 44bd 7472 03be 5fe5 5ebd ef71 e7bc
00000080: 1d4f 6fbd 967f 2b3e 5bbc 9e3d fb2e e53d
00000090: 50e8 1ebe 6406 733d 2f57 ca3d 5013 ec3c
000000a0: d4bf b6bd 46e6 24bb c2ba 1abe 8303 20be
000000b0: 3878 cebd 318d 143e 43b7 cabd a5fe ec3b
000000c0: 2b94 7b3d fba6 34be 2c7b 1f3e ed09 f33c
000000d0: 6016 1bbe 3880 bdbd 2e5e fcbd 0811 0e3e
000000e0: 6b19 d53d 41e2 023c e841 913c 1e2c 11bc
000000f0: b0b7 0b3e 31f2 cfbd 634b 9d3c 909e b83d
00000100: d6a4 26bd 1766 223e 7d7d 1cbc 7b7f 413d
00000110: 6306 0fbd ca0a 8e3b 4aca 27be 5296 58bd
00000120: 549a 30be b978 3c3a 6225 f9bc 8d59 303e
00000130: 52cf 303e c5fe e53d c84f ddbc 5f55 06be
00000140: c110 333e 8919 2bbe e11c dbbd b4eb 213e
00000150: d4d8 723a 7661 033e 54f1 dc3d bf3e f43d
00000160: eae6 073e 391f 91bd d297 f6bd af64 1bbe
00000170: 269f 273e 38f1 a33c adb2 0b3e d157 fc3c
00000180: d211 8bbd a384 98bd 5b00 993d 0a26 053e
00000190: e52a 6b3c b950 d4bd b26a 0ebe b35b a93d
000001a0: 6070 b7bd f782 ad3d c78c 87bc 606f 26be
000001b0: 8bcb 19be 34a4 133d b595 213e 1253 fdbd
000001c0: b790 143e 97bf adbd 531d 16be db52 edbd
000001d0: f2c0 22be a808 133e bcd6 b83d 1df1 fe3c
000001e0: 3710 a9bd 6871 dabc bb72 163e a511 a83d
000001f0: 69d9 03be 6ec1 1e3e 443f a8bd 79be 253d
00000200: fbb9 203e 3cb0 48bd c5c3 2abe 62af e8bc
00000210: fb8c d23c 8dfe 32be 9d4a 133e 9242 ebbd
00000220: 4327 943c f1ae a03d 3c92 21bd 269d f73d
00000230: 0dbf 8fbd d169 a13d e090 abbb 3b08 8d3d
00000240: ed47 e53d 764b 0fbd 06dc 07be f42b d0bd
00000250: 938f cc3c 9a27 1b3b 4e6d acbd 2ed8 06bd
00000260: fae1 a6ba 2d8d 943d 5aa3 063e e81a 33be
00000270: 503f 41bb efc0 b43c 0576 0d3e 4056 06be
00000280: 890c e43d 91c2 033e e585 053e 972d 80bd
00000290: 56d8 24be dc2c b03c 741d 163e 1142 1a3e
000002a0: 1d77 5d3b e4e3 303d 413d 00be 351f cdbc
000002b0: d56d 553d b9f3 f13c af55 f6bc f9f0 9d3d
000002c0: 0be4 19be 3edb 683d 1497 ca3d 93f5 0d3d
000002d0: cbcf b2bb 5d0d e23d 3c82 90bd b8ef cc3d
000002e0: 2f15 d8bd 543a 203e 6ec4 06be c59c 3f3d
000002f0: e8b2 77bd 238d ce3c c8e4 0d3e 83c3 2cbe
00000300: 08bc 9abd 474c 89bd 4bb2 9b3d 0dfb 813d
00000310: 9939 0d3e 703a 7e3d c904 04be 08fb b33d
00000320: af04 f4bc b48f a73c 0cbe f6bd 8d4d 543d
00000330: 42e6 a3bc d18a dabc 100f 063e c8ec 333d
00000340: 284b 22be f4c7 4fbd 4cda 0bbe 564d 793c
00000350: 4105 363d 3d86 9c3c 95df eb3d 4270 e23c
00000360: 73b4 10be aace fa3d 5764 113e 4f1d a73d
00000370: d0b5 d9bd e920 10be 8aa1 2cbe e5a5 0ebe
00000380: 436b c53c e73b a9bc a08a 0d3e 3beb 193e
00000390: ddaf 1fbe 8773 313e 3bcd 3fbc db3b b23d
000003a0: 7518 963d fce2 343e 37be b2bd 3e51 19be
000003b0: c7e0 dabc 77b9 053e 6f10 5c3c 02d2 bc3d
000003c0: e476 f0bd bad7 d23d 3f80 81bd 7c5b 173d
000003d0: 4593 b03d 91a9 07be 68bb 283d 71d3 1c3e
000003e0: 3e0c 633d 2c41 87bd ac9b 3ebd 624b afbd
000003f0: 81fa f43d f700 183e 710e a2bd 0ae8 2dbd
-0.03865576 0.14773199 0.07844631 -0.0352166 -0.006254192 0.016244913 0.051480077 -0.040979084
-0.031845883 -0.092997104 0.028320743 0.15053855 -0.12793541 -0.13294363 0.07185456 0.0036465242
-0.11269361 -0.1429235 0.060639262 0.14679328 0.112934224 0.096327655 -0.15328349 0.035486232
0.07989584 0.13430196 0.06510318 -0.05336594 -0.048073936 -0.12836629 -0.054417964 -0.02825257
-0.058425058 0.16747889 0.0775077 0.111906014 -0.15518308 0.059332266 0.0987991 0.028817803
-0.08923307 -0.0025161668 -0.15110305 -0.1562634 -0.10081524 0.14506985 -0.09898236 0.0072325044
0.0614206 -0.17641823 0.1557433 0.029667819 -0.15145254 -0.092529714 -0.12322651 0.13873684
0.10405239 0.007988513 0.017731622 -0.008860616 0.1364429 -0.10153616 0.019200986 0.090146184
-0.040684544 0.15859257 -0.009551403 0.047240715 -0.0349182 0.0043347823 -0.16385761 -0.05287773
-0.17246372 0.000718962 -0.030413333 0.17221661 0.17266586 0.11230234 -0.027015582 -0.13118504
0.1748686 -0.1670896 -0.106988676 0.1581257 0.00092638773 0.12830147 0.10788217 0.1192603
0.1327168 -0.070860334 -0.12040676 -0.15175126 0.16369304 0.020012483 0.13642378 0.030803593
-0.06790508 -0.074471734 0.07470771 0.13002792 0.014353489 -0.10366959 -0.13907889 0.08269443
-0.08956981 0.08472245 -0.01654662 -0.16253424 -0.15019052 0.03604527 0.15779765 -0.1236936
0.1450833 -0.084838085 -0.14659624 -0.11588069 -0.15893915 0.14358771 0.09025332 0.031120831
-0.08255046 -0.026665404 0.14692204 0.082064904 -0.12875904 0.15503475 -0.08215192 0.040464852
0.15695946 -0.048996195 -0.16676243 -0.028403942 0.02570199 -0.17479916 0.14383931 -0.11487307
0.018085128 0.078458674 -0.0394461 0.120905206 -0.07018862 0.07881511 -0.0052357763 0.068863355
0.111953594 -0.034984075 -0.13267526 -0.101646334 0.024970805 0.0023674727 -0.08419286 -0.03292101
-0.0012732141 0.0725349 0.13148251 -0.17490733 -0.00294872 0.022064654 0.13814552 -0.1311884
0.111352034 0.1286719 0.13039358 -0.062586956 -0.1609815 0.021505766 0.14659673 0.15064265
0.003379292 0.043186083 -0.12523367 -0.025039295 0.052106697 0.029535161 -0.030070154 0.077119775
-0.15028398 0.05684971 0.09892097 0.034658026 -0.0054568998 0.11037705 -0.0705609 0.1000666
-0.105509154 0.1564725 -0.1316087 0.046780366 -0.060473353 0.025213784 0.13856804 -0.16871457
-0.07555395 -0.06704002 0.07602366 0.06346712 0.13791503 0.06206745 -0.1289245 0.08788115
-0.02978739 0.020454265 -0.12047967 0.05183177 -0.020007256 -0.026677521 0.13091683 0.043926984
-0.15848982 -0.0507278 -0.13657492 0.015216192 0.044438604 0.019106979 0.11517254 0.02764142
-0.14131336 0.12246449 0.14198433 0.08159887 -0.10630381 -0.14075054 -0.16858497 -0.13930471
0.024098998 -0.020658446 0.13822412 0.1503114 -0.1559443 0.17329226 -0.011706646 0.08702823
0.073288836 0.17664713 -0.08727687 -0.14972398 -0.02671851 0.1305903 0.013431652 0.09219743
-0.117414266 0.10295053 -0.06323289 0.03695248 0.086218394 -0.13248278 0.04119435 0.15315033
0.055431597 -0.066042274 -0.04653518 -0.085593 0.11961842 0.14844118 -0.07912911 -0.042457618

SSM_blocks.0.W_E.bias f4 [32]
00000000: 7a7b 313d 647b 263e d7ed eebd 180c 273e
00000010: 7899 0abc d35c 14bb 76cd 67bb 9302 07be
00000020: 8b50 42bd 0991 043e 6986 0c3b 3661 0abd
00000030: acb1 28be 645b 1b3e 60c1 9bbd b269 0cbe
00000040: 8729 19be 343c 87bd b9fb 15be d961 25be
00000050: b9ab 0ebd 2b61 853c c8c4 213e d466 223e
00000060: d59e 2dbe e88c d83d 8106 ff3d 0222 c63c
00000070: fa69 ff3d 2f0d 3fbd ef44 503d 9aa3 11be
0.043330647 0.16258007 -0.11666458 0.16313207 -0.008459441 -0.0022638335 -0.0035370267 -0.13184576
-0.047440093 0.12945952 0.002144242 -0.033784114 -0.16474026 0.15171582 -0.07605243 -0.13712195
-0.14957248 -0.0660328 -0.14646806 -0.16150607 -0.034831736 0.016281685 0.15797722 0.15859538
-0.16955121 0.10573751 0.124524124 0.024186138 0.12471385 -0.046643432 0.05084699 -0.14222565

SSM_blocks.0.W_F.weight f4 [32, 1]
00000000: de6e 493f 4042 9d3e 2487 703f a8e9 3a3e
00000010: 9c7c b4be 3048 cebe d0a6 033f bce5 693f
00000020: e04a e03d 6e27 403f 707f 2bbf 9a9b 6ebf
00000030: 0018 69ba 5e99 16bf 9084 dabd 0880 e83e
00000040: 5c3d 7bbf 0290 5d3f aa18 5d3f 6c4c 7f3f
00000050: 2261 1bbf da71 7bbf 80ef a9bc f0b3 57be
00000060: b8d2 e8be dcb3 6abf d878 253f a88b 17be
00000070: ee18 14bf 984c 11be 9204 29bf 9c8c c0be
0.78684795 0.30714607 0.9395621 0.18253195 -0.3525132 -0.4028945 0.5142641 0.9136617
0.10951781 0.75060165 -0.6699133 -0.9320618 -0.0008891821 -0.5882777 -0.106698155 0.4541018
-0.981405 0.86547863 0.8636576 0.99725986 -0.6069509 -0.982206 -0.020744085 -0.21064734
-0.45473266 -0.91680694 0.6463752 -0.14799368 -0.5785054 -0.14189374 -0.660226 -0.37607276

SSM_blocks.0.W_F.bias f4 [32]
00000000: 8c7d f2be 864a 56bf 761a 2f3f 0e3e 1e3f
00000010: 3ac8 623f ac5e 723f 3eb9 56bf fa61 373f
00000020: 1087 f73d 8c94 c6be 22b5 6e3f a2dc 163f
00000030: de4d 4f3f 006a b5bd c62e 41bf c0e6 fdbd
00000040: 2ead 0a3f 9083 30be e4ff ad3e e093 913d
00000050: 207a 81bd a8c5 5a3e 0e1f 203f 8243 3bbf
00000060: c818 cdbe 30d0 75be 3c94 92be 8c39 3bbf
00000070: 0291 1fbf b050 5d3e b031 393e e0b9 0abf
-0.4736141 -0.83707464 0.6839975 0.6181344 0.8858677 0.9467571 -0.8387641 0.71633875
0.12086308 -0.38785207 0.93245137 0.5893041 0.8097819 -0.088581085 -0.75461996 -0.12397528
0.541705 -0.17237687 0.33984292 0.07108283 -0.063221216 0.21364462 0.62547386 -0.73149884
-0.4005797 -0.24005198 -0.2862872 -0.73134685 -0.6233064 0.21612811 0.1808536 -0.5418987

W_C.weight f4 [1, 64]
00000000: aae5 7f3d 0135 2cbd 12e5 43bc 0f58 293d
00000010: ad3b 3a3d 06c1 a2bd 99c9 533d 6ca4 cc3c
00000020: f4e3 7e3d 47aa 9b3d 82a6 2a3d 6311 0a3d
00000030: 0a83 37bd 051a 4f3d ecfa ff3c 39ca 4d3c
00000040: c1fd c63c 789c 3fbd aec5 7b3c 297e 9d3d
00000050: 9e90 16bd 5cde 38bd 4afc 4bbd d46b 54bc
00000060: 277a 2a3c db2c f2bc 7fe2 c73c 3017 8f3d
00000070: 42ac 8cbd 5b88 13bd 679e 7a3d 96d4 cabc
00000080: ff41 1abe adbd b13d 385a 593c 3b2a 453d
00000090: a57d 91bd ff14 a93a 604c a43c aba9 a53d
000000a0: 0101 9bbd 4d2f 61bc 091d 093d f2da 943d
000000b0: 6d14 2b3d 5fc9 53bd a25a eebc 5cce 2bbd
000000c0: 0057 eabd c1a6 373d 6360 d33c 9df0 19bd
000000d0: 92fe dc3c cfff a63d 144f 72bd 64f3 7c3d
000000e0: 80b7 71bd cdc5 6bbd ceea 32bd 9e1a f8bb
000000f0: ac27 ab3c 839c 6cbb 0ccf 623d 76a3 9e3d
0.062474884 -0.042042736 -0.01195647 0.041343745 0.045467068 -0.079469725 0.05170593 0.024980746
0.06222911 0.07600837 0.0416627 0.033707988 -0.044802703 0.050561924 0.031247579 0.012560421
0.024290921 -0.04678008 0.015366955 0.07690079 -0.03675901 -0.045133933 -0.04980115 -0.012965161
0.0104051 -0.029562404 0.024399994 0.069868445 -0.06868793 -0.03601871 0.06118622 -0.024759572
-0.15064238 0.08678756 0.013266139 0.048135977 -0.07104043 0.0012899934 0.02005595 0.08089002
-0.07568551 -0.013744188 0.033474956 0.07268323 0.041767526 -0.051705714 -0.029095951 -0.041944847
-0.11442375 0.044836763 0.025802797 -0.037582982 0.026976857 0.0815426 -0.059157446 0.061755553
-0.05901289 -0.057561684 -0.04368096 -0.0075715324 0.02089294 -0.003610403 0.055373237 0.077460214

W_J.weight f4 [1, 32]
00000000: d143 cbbd 1d8a 80ba eb8c f7bd a92d bfbd
00000010: 0fa5 12be 7dcd 89bd d139 1f3e 0b86 64b9
00000020: 31e4 d0bd 835f 24be 786f 51bd 6452 103c
00000030: 2bbe c53d 36a5 91bc 59ab 1a3e 94a1 34bd
00000040: f1ce 313e f7d9 1f3e ea5a b13a 2359 1ebe
00000050: 1f46 0c3e 28dc a93c 3a0f 74bd 8fa2 1e3e
00000060: cd4c 0ebe 5f3b 1f3e 997b c33d 4f5e 20be
00000070: 104b 02bd f52c 08be a716 0dbe 312b 2bbe
-0.09925044 -0.0009806786 -0.12087425 -0.09334881 -0.14320777 -0.06728647 0.15549399 -0.0002179371
-0.10199774 -0.1605206 -0.051131696 0.008808706 0.09655412 -0.017778974 0.15104426 -0.044099405
0.17364098 0.1561049 0.0013531123 -0.1546369 0.13698624 0.020734861 -0.059584834 0.15491699
-0.13896485 0.15549992 0.09545059 -0.15660976 -0.031809866 -0.132984 -0.13778172 -0.16715695
