weight/best_CHILE_model.pth (torch, 28473 bytes, 12 tensors)

SSM_blocks.0.W_bh f4 [64]
000000 b4 bf 01 bb 8d b7 a2 bd 77 0f 00 3d de c8 c7 3c
       -0.0019798102 -0.07945166 0.03126475 0.024387773
000010 db 73 e1 3b 69 d5 2d bd 77 ea 3d 3d e6 f1 cd 3c
       0.006880266 -0.042439852 0.04636618 0.02513976
000020 6e 90 ad 3c ef 84 5c 3c 39 6b 31 3c 38 5d 3e 3c
       0.021187034 0.013459428 0.0108287865 0.011618905
000030 9b b6 26 bd 9d bf 9c bc 5a 8c eb 3c 64 f2 18 bc
       -0.04070149 -0.019134337 0.028753448 -0.009335134
000040 2b f4 49 3d 00 ee f0 bc fa 97 60 3d 76 40 9a bc
       0.049305122 -0.029410362 0.054832436 -0.018829565
000050 16 fb c2 3a a5 af 02 3a f2 89 66 bc f3 e3 89 3b
       0.0014875855 0.00049852795 -0.014070975 0.004208082
000060 85 03 1a 3c 5f 18 0a bc 0e e2 d7 bc f9 bf f6 bc
       0.009400253 -0.008428662 -0.026352908 -0.030120837
000070 2b 71 9b bc dc db 5d b9 5c 85 63 bd e6 24 0b ba
       -0.018974861 -0.00021158106 -0.055547103 -0.00053079275
000080 de d0 ad 3c f0 3a 7a 3c 0f a9 f0 bc 81 45 18 3c
       0.02121776 0.015272841 -0.029377488 0.009293915
000090 93 ea 6c bc 07 c3 7e 3c 8d 46 63 bb d9 34 25 bc
       -0.014460224 0.015549428 -0.0034679503 -0.010083401
0000a0 d2 2a 31 3d 9e 8f 9e 3c e6 04 b8 3c d8 9f 4b 3d
       0.043253727 0.019355591 0.022463273 0.049712986
0000b0 95 3e f4 bb 16 91 b5 bc 83 80 b8 3c e8 fe 34 bd
       -0.0074537494 -0.022163909 0.022522217 -0.04418841
0000c0 ed aa 09 bb b1 05 90 bb c1 71 7b 3d 05 01 20 3c
       -0.002100642 -0.0043952097 0.06138778 0.009765868
0000d0 0c c4 91 bc ca d1 86 bb 0a eb b0 bb c8 4f a7 bb
       -0.017793678 -0.0041143643 -0.0053991126 -0.005105946
0000e0 f2 79 0d 3c ee 7b 39 3d 16 da 3c bc 26 46 b9 3b
       0.008635031 0.045284204 -0.011526605 0.0056541143
0000f0 5a 2d c7 3b 0b 0a e5 bc e1 ef 04 3d fa a9 0c bc
       0.0060784044 -0.02795889 0.03245533 -0.008585447

SSM_blocks.0.W_bg f4 [32]
000000 00 00 00 00 00 00 00 00 00 00 00 00 00 00 00 00
       0.0 0.0 0.0 0.0
000010 00 00 00 00 00 00 00 00 00 00 00 00 00 00 00 00
       0.0 0.0 0.0 0.0
000020 00 00 00 00 00 00 00 00 00 00 00 00 00 00 00 00
       0.0 0.0 0.0 0.0
000030 00 00 00 00 00 00 00 00 00 00 00 00 00 00 00 00
       0.0 0.0 0.0 0.0
000040 00 00 00 00 00 00 00 00 00 00 00 00 00 00 00 00
       0.0 0.0 0.0 0.0
000050 00 00 00 00 00 00 00 00 00 00 00 00 00 00 00 00
       0.0 0.0 0.0 0.0
000060 00 00 00 00 00 00 00 00 00 00 00 00 00 00 00 00
       0.0 0.0 0.0 0.0
000070 00 00 00 00 00 00 00 00 00 00 00 00 00 00 00 00
       0.0 0.0 0.0 0.0

SSM_blocks.0.W_A.weight f4 [64, 64]
000000 33 85 9d 3d 94 13 00 3d b0 73 31 3c c4 fc 2b 3d
       0.07691421 0.03126867 0.010830805 0.041989103
000010 67 33 de bd d1 a6 b8 3c f8 19 59 3d dc 1d 1d bd
       -0.10849648 0.022540482 0.05300328 -0.038358554
000020 27 0a 3a bd ba 43 2e 3c 61 65 5f 38 92 15 3a 3d
       -0.04541984 0.010636264 5.326176e-05 0.045430727
000030 cc 72 ab 3d ac 89 eb bc c0 8e 9c bd f1 c9 62 bd
       0.08371505 -0.02875217 -0.07644415 -0.055368368
000040 5e 75 56 bc c8 cb cc bc f9 bd 19 bd 46 bc 39 3c
       -0.013089506 -0.024999514 -0.037534688 0.011336392
000050 5c 2c bb 3d a2 48 04 3c fc 37 15 3d 3a 3e 15 bc
       0.0913932 0.008073958 0.036430344 -0.009109074
000060 49 e2 63 bc d5 b6 08 bd 60 3e 8f bd 30 80 c2 3d
       -0.013908931 -0.033377487 -0.06994319 0.09497106
000070 8f bd 03 be 6c 90 e6 bd 33 9c 22 bd 5a 5c 48 bd
       -0.1286528 -0.11258015 -0.039699744 -0.0489162
000080 52 dd 74 3d 84 9a 85 bd 78 e2 c8 3c 21 9d da 3d
       0.05978138 -0.06523612 0.024522051 0.10674501
000090 4c f8 d0 bc b8 ed 77 3c 85 4e 50 bd f9 6c 12 3d
       -0.025509022 0.01513236 -0.050856132 0.035748456
0000a0 73 1f 67 3d f5 b9 70 3a c3 b6 7a bd 07 9d f1 bd
       0.056426477 0.0009182983 -0.06120945 -0.11797529
0000b0 3e 27 a8 bd 04 4b 84 bd 3e d0 d1 bd 80 34 8a 3c
       -0.0821061 -0.064596206 -0.10244797 0.016870737
0000c0 c8 16 f0 3c 7d de d9 bc 33 cc 6b 3d a8 6b 80 3b
       0.029307738 -0.026595348 0.057567786 0.0039190836
0000d0 45 1d 2c bd 27 a4 a9 bd 1d 86 a8 bd f1 b5 fe 3c
       -0.0420201 -0.08283263 -0.08228705 0.031092616
0000e0 52 48 52 3d f2 53 94 3d 7a 7b c0 3d e8 7c ed 3d
       0.0513385 0.07242574 0.09398551 0.115960896
0000f0 1b f4 a2 bd be 33 03 3d 7a f7 f9 3d 59 66 ad 3d
       -0.07956716 0.032031767 0.122054055 0.08466787
000100 f0 4c 25 be 05 e4 e8 3d bb 60 ac 3d cb 3c 76 3d
       -0.1614263 0.11371616 0.084168874 0.06011657
000110 53 59 84 3d ce f2 49 be f1 b5 8f 3d a6 ec e3 3a
       0.0646235 -0.19721529 0.070171244 0.0017389252
000120 b5 c8 bb 3d 19 1f 3a be 4e db f9 3c 61 1e 2d 3d
       0.09169141 -0.18175925 0.03050008 0.0422653
000130 ef f4 b9 bd 9c 62 19 be cd 72 1d 3e 50 46 d3 bc
       -0.090799205 -0.14979023 0.15375824 -0.025790364
000140 41 00 a6 3d 7c 92 b1 3d 1f 6c 1c 3e 4c 51 60 3e
       0.08105517 0.08670518 0.1527562 0.21906012
000150 1b 17 c5 bd 53 42 12 3e f2 40 16 bd e3 7e ef 3d
       -0.09623548 0.14283113 -0.03668303 0.116941236
000160 c3 01 22 3e 6e b3 7d bd 03 cd 17 be b7 b6 e9 bd
       0.15820985 -0.061938696 -0.148243 -0.11411803
000170 30 f8 78 3d 8c 9d 25 3e 6b 56 a6 3a 0c 54 4c 3e
       0.060783565 0.1617338 0.001269055 0.19953936
000180 7a fa f2 3d f9 32 3e bd 14 a1 3c 3d e8 a7 d5 3d
       0.11864181 -0.04643533 0.046052054 0.10432416
000190 98 97 a5 3d cc b0 60 bc ef 7a f4 bc d6 4a 35 3d
       0.08085555 -0.013714027 -0.029843776 0.044260822
0001a0 41 e7 39 bd 1a 12 60 3c 9f 29 a3 bd fd b3 7e bd
       -0.045386557 0.013676191 -0.07966923 -0.06218337
0001b0 74 1f 0a 3c 00 67 c7 3d d4 b4 10 3e 63 cc 8a bd
       0.008430351 0.097364426 0.1413148 -0.06777265
0001c0 7d 44 86 bd c2 f0 e2 3d 7a 79 46 bc ef 7e 50 bd
       -0.06556032 0.11081077 -0.012113923 -0.050902303
0001d0 c7 fb 3b 3e 2d ea 8f 3e ca 44 90 bd 5b e6 86 be
       0.18357764 0.2810835 -0.070443705 -0.26347622
0001e0 17 92 49 be 78 e8 2c 3e 83 54 bf bd d0 18 73 3d
       -0.19684635 0.16885555 -0.09342291 0.059349835
0001f0 1c a3 08 be 31 fe 53 3d 1f d6 e9 bd 76 8a c3 bd
       -0.13343471 0.051756088 -0.114177935 -0.09547894
000200 8e cf 6f bb f8 27 50 3d 54 83 7f bd f6 67 16 3d
       -0.0036592218 0.050819367 -0.062381104 0.03672024
000210 67 f3 bc bd 95 6b 96 3d 3e 11 a8 3d b6 b4 9d 3d
       -0.09226113 0.073447384 0.08206414 0.077004835
000220 31 7a ec bc 91 06 cb 3d 6a ec 59 bd 64 b3 4a 3d
       -0.02886686 0.09913362 -0.053203978 0.049487486
000230 7d 09 66 3d f9 3d a8 bd 69 5c 20 3d 23 b7 5e 3c
       0.056161392 -0.08214945 0.03915063 0.013593468
000240 5c ce 11 be e6 bc 0b 3e 9e c1 b9 bd 50 a3 18 3d
       -0.14238876 0.13646278 -0.09070133 0.037265122
000250 68 fc c7 bd a0 36 0a be 3d 37 a1 bd 1a 98 2c bd
       -0.097649395 -0.134974 -0.07871864 -0.042137243
000260 24 aa a5 bd 0e a4 45 bc 63 70 17 3e d1 21 c8 bb
       -0.080890924 -0.0120630395 0.14788966 -0.006107547
000270 16 02 48 3d ea 86 40 bd 74 14 41 bd cf c0 ce bd
       0.048830114 -0.047003664 -0.047138646 -0.10095369
000280 6c 73 9e 3d 48 ba a4 3d be 1c 93 bd 66 c1 c7 3d
       0.07736859 0.08043343 -0.071832165 0.09753685
000290 ff e2 e9 bc ca 97 6e 3d 39 eb f0 bd 3b f1 01 3e
       -0.028550623 0.058250226 -0.11763615 0.12689678
0002a0 1e 4f b8 bd 69 21 6c bd f7 1d e1 3d dc 09 16 3d
       -0.089994654 -0.05764905 0.109920435 0.036630496
0002b0 45 bb a2 bd 6c b7 0c 3d a0 30 0d bd 00 ed bd bc
       -0.07945875 0.034354612 -0.0344702 -0.0231843
0002c0 f6 a2 bb bd 70 31 1b 3c 42 5e 9d 3d 6c 28 ae bd
       -0.09161942 0.009472236 0.07683994 -0.085038036
0002d0 c9 98 bc bd 4e 4b 57 bd 68 e2 81 3d e5 20 f1 3d
       -0.09208829 -0.05256205 0.06342012 0.11773852
0002e0 5c 5b 0d bd bf da cf bc 78 bc 4a bc 91 0a 8e bd
       -0.034510955 -0.025372861 -0.012374036 -0.06935609
0002f0 55 3f 83 bd b4 89 a3 3d ab a6 fe 3c 68 1b b5 bb
       -0.06408564 0.07985249 0.031085333 -0.0055269487
000300 64 80 d1 bd 96 b1 29 bc 62 f2 67 3d 15 ec 92 3d
       -0.10229567 -0.010357281 0.05662764 0.07173935
000310 2d 6b cd 3c e4 4a c4 3d c2 da 06 3d 7e 8b da 3c
       0.02507552 0.09584597 0.032923467 0.026677843
000320 b6 dd 93 bb 8f 6c 63 bd 8f bb 8c 3d 98 24 f3 bd
       -0.004512514 -0.05552345 0.068717115 -0.11872214
000330 38 2f 9a bd 59 21 34 3d 94 3c a4 3d 5c 9f 82 3c
       -0.075285375 0.043977115 0.08019367 0.01594513
000340 14 91 01 be 7a a0 e1 3d 7d e0 cd 3d 70 90 6a bd
       -0.12652999 0.110169366 0.10052583 -0.057266653
000350 fd 29 98 3d 30 59 a9 3d c7 31 29 3c 89 9a b3 3d
       0.07429884 0.08268964 0.010326809 0.087697096
000360 e8 a7 a9 3d be af 8f bd ac 7b 7b 3d ca 43 16 bd
       0.08283979 -0.07015942 0.06139724 -0.036685742
000370 9d 4b be 3d 06 5f 10 be 85 f9 c6 bd a0 2f 95 bd
       0.09291766 -0.14098749 -0.09715561 -0.072844744
000380 d7 4a d5 3d a3 a7 8d bd 9e 05 b8 3d 8a 02 77 3d
       0.10414665 -0.0691674 0.089854464 0.060305156
000390 da 70 b3 ba a9 95 e2 bd 98 08 dc bc 0f e4 f1 bd
       -0.0013690249 -0.11063702 -0.026859567 -0.11811077
0003a0 68 84 fe bd 9d b4 78 3d cf e9 fd 3d 82 7f c5 3d
       -0.12427598 0.06071912 0.12398111 0.09643461
0003b0 a6 55 f7 3d 4f 01 e1 bd 89 47 9e bd 27 82 bd bd
       0.12076883 -0.10986578 -0.07728488 -0.0925334
0003c0 67 8e cd 3d 21 55 f0 bd 79 9a f0 bd 24 20 c4 bd
       0.10036927 -0.11734987 -0.11748213 -0.09576443
0003d0 e1 f4 ca bc f1 b6 49 3d 9a 14 e5 3c 52 01 8e 3d
       -0.02477497 0.049246732 0.027963925 0.069338456
0003e0 d6 c4 06 bd 55 46 91 bd ff f1 6e 3d 4b 44 b6 3d
       -0.03290256 -0.07093493 0.058336254 0.088997446
0003f0 e0 a8 c1 3d 60 f6 a1 bd 09 b4 6d 3d df 72 ca 3c
       0.094560385 -0.079083204 0.058033023 0.024712978

SSM_blocks.0.W_A.bias f4 [64]
000000 17 a3 c1 bd 35 5e 45 be fc 29 10 3e e6 16 31 bd
       -0.09454935 -0.19274218 0.14078516 -0.04323473
000010 7a 34 4d bc f7 41 c3 3c 75 37 09 3e 38 69 fe 3d
       -0.012524718 0.023835165 0.13400061 0.12422413
000020 d6 33 4b 3d 07 d9 4e 3d 07 05 62 bd d7 2f c6 3d
       0.04960998 0.050499942 -0.055180576 0.096770935
000030 63 ce dd bc 67 27 b9 3c 7f 29 92 39 b0 d7 6c bd
       -0.027075952 0.022601796 0.00027878207 -0.057822883
000040 c7 fe a3 bc 82 fa a9 3d 58 86 e1 3d 96 66 ff 3b
       -0.020018948 0.08299734 0.11011952 0.0077942116
000050 38 c6 1d 3d 82 ae d3 bd 5b 6a 9a 3d 3a d7 03 3e
       0.038519114 -0.10336019 0.07539817 0.12875071
000060 66 28 ba 3d 4c 9a a8 bd b8 31 5f 3c 7d ba a7 3d
       0.09089737 -0.08232555 0.013622694 0.08189867
000070 f7 b1 16 bd 4d fa 87 bd c3 e0 af bc 38 8f a1 3d
       -0.036790814 -0.06639538 -0.02146948 0.07888645
000080 d4 e2 2f bd 06 03 dd 3d 7b 41 fc bd 33 ec a3 3d
       -0.04294093 0.10791592 -0.12317177 0.08004036
000090 06 75 12 bd 96 6b f1 3d fa 35 b8 3d b3 96 dd bd
       -0.035756133 0.117880985 0.0899467 -0.10819759
0000a0 79 5e c7 3d b1 98 a2 bd 7b a2 0e 3e 5c 4b 23 3e
       0.09734816 -0.0793928 0.13929169 0.15946716
0000b0 60 54 88 bd 37 ec 09 3c 7e 4b ea 3d 0a 37 cd b8
       -0.06656718 0.008418134 0.1144018 -9.7854136e-05
0000c0 63 d1 ae bd 90 ce de 3d 74 10 d5 3d 6a 93 80 bc
       -0.08536031 0.108792424 0.10403529 -0.015695293
0000d0 42 8d fa 3c 11 23 56 bd 94 bb ae 3d 04 13 8c 3b
       0.030584935 -0.052279536 0.085318714 0.004274728
0000e0 c0 15 a0 3a df c8 b9 3d 45 b8 43 3d 94 18 91 bd
       0.0012213513 0.09071516 0.047783155 -0.07084766
0000f0 15 20 a9 bc 9f c4 a1 3d 05 e2 b2 3d d8 36 98 3d
       -0.02064518 0.078988306 0.08734516 0.074323356

SSM_blocks.0.W_B.weight f4 [64, 1]
000000 6d 6d ca be 50 42 57 bf a4 7c d2 3e 09 94 a9 3e
       -0.3953661 -0.8408556 0.41110718 0.33120754
000010 bb c7 a9 3e 3e b2 4f bf 94 0e 52 3f 78 c2 64 3f
       0.33160195 -0.8113135 0.82053494 0.89359236
000020 66 e9 00 3f 8d 8f b2 3e 26 a2 60 3f 4d 24 1b 3f
       0.5035614 0.34875146 0.8774742 0.60602266
000030 cc 63 30 bf 54 34 17 bf f4 8e 02 3f f2 15 2a bf
       -0.6890228 -0.5906422 0.5099938 -0.66439736
000040 15 6f 31 3f 25 f6 29 3e 5a 17 5d 3c fd ad e6 3d
       0.6931012 0.16597803 0.013494337 0.112636544
000050 4e e9 37 bf 7d bb cb bd 30 b3 75 3f 6b 03 18 3f
       -0.7184037 -0.0994787 0.95976543 0.59380215
000060 8e bf 76 3f d1 41 ed be 7e 73 93 be 6a c3 2d bf
       0.9638604 -0.46339276 -0.2879905 -0.67876303
000070 91 50 e4 3e 21 1d 18 bf 43 48 78 bf f2 c8 b6 be
       0.44592717 -0.5941945 -0.9698526 -0.35700184
000080 11 d5 fd 3c dc 99 4b 3f 37 49 37 bf 96 9b 45 3e
       0.030985387 0.79531646 -0.7159609 0.19297633
000090 c8 a9 39 bf 89 3f bb 3c b9 60 a3 be 61 30 1b 3f
       -0.7252469 0.022857444 -0.3190973 0.60620695
0000a0 3b 9f 49 3f 62 bb 14 bf 95 20 20 bf 83 db 37 3f
       0.7875859 -0.58098423 -0.62549716 0.71819323
0000b0 8f c9 02 bf 0a 3c 29 bf 7c 2f 9b be c0 2c 5f bf
       -0.51088804 -0.6610724 -0.30309665 -0.8717766
0000c0 5f cc d1 3e bb 23 00 bf 50 51 6c 3f 85 0a 26 be
       0.40976235 -0.5005452 0.92311573 -0.1621495
0000d0 08 06 9d be 62 b6 38 be cc c9 06 bf 58 d6 e3 be
       -0.30668664 -0.18038324 -0.5265167 -0.4449947
0000e0 c1 25 00 3f 52 5e 58 3e da 5a 45 3a dd e5 11 3f
       0.5005761 0.2112973 0.00075284916 0.5699137
0000f0 57 84 67 bf dd 3f 00 bf 91 a3 f6 bd 0e c7 32 3f
       -0.9043631 -0.5009745 -0.120429166 0.69834983

SSM_blocks.0.W_B.bias f4 [64]
000000 7d aa c8 be 74 64 55 3f 49 f9 33 bf ab 3b cd be
       -0.39192572 0.83356404 -0.70302254 -0.40084586
000010 d4 50 3b bf ac 49 5a 3f 1c e6 a7 bd 9f 8a 32 3e
       -0.7317021 0.85268664 -0.08198187 0.17435692
000020 a8 85 35 bf 2b 2d 16 3d 56 40 12 3f 8f 6a e4 be
       -0.7090707 0.03666417 0.5712942 -0.44612548
000030 c1 10 6c 3d d3 3a ac bc 08 fa dd 3d 9b c8 a9 be
       0.057633165 -0.021024143 0.10838705 -0.33160862
000040 e4 30 56 bf 28 8f 68 3f 0a 04 2f bf fa 24 18 bf
       -0.8366835 0.9084344 -0.6836554 -0.5943142
000050 a7 6a dd be 84 4c 26 bf 73 c6 7b 3f 8c 68 b6 be
       -0.43245432 -0.64960504 0.98349684 -0.35626638
000060 df 6c b0 3e 88 e3 a3 bd 36 81 ba 3d 39 16 0c bf
       0.34458062 -0.080023825 0.09106676 -0.5472141
000070 28 11 2b 3f 91 6a 2c bf 47 68 f2 bb 8b 0b 46 bf
       0.66823053 -0.6735011 -0.0073976847 -0.77361363
000080 b8 3f d4 3d 67 90 19 3e 26 7e d5 be 25 b2 5e be
       0.10363716 0.14996491 -0.41697806 -0.21747644
000090 90 29 1a be ae e0 a2 bd 0e 8e 8a 3e 0e 4a 6c 3f
       -0.15054917 -0.079530105 0.27061504 0.923005
0000a0 fb c2 49 bf f4 ee 2d bf 91 70 2e bf ed 03 08 bf
       -0.7881314 -0.6794274 -0.6814051 -0.5313099
0000b0 4c 17 e5 3e 1a f5 56 bf ad af 51 bf 36 44 5f 3f
       0.44744337 -0.83967745 -0.81908685 0.87213457
0000c0 d5 de 70 3f 74 6f a1 be 02 06 22 bf af f2 82 be
       0.94090015 -0.31530344 -0.6329042 -0.25575778
0000d0 90 08 86 3e c0 83 ed bc 98 7c d3 be 10 d8 16 bf
       0.26178408 -0.028993487 -0.41305995 -0.58923435
0000e0 f5 46 f3 3e da 05 fe be 76 f2 60 3e 78 16 8a 3e
       0.47515073 -0.4961384 0.21967492 0.26970267
0000f0 5e 99 94 be 89 62 bc 3d ea 3c c4 be be 79 4c 3f
       -0.2902326 0.091984816 -0.38327724 0.79873264

SSM_blocks.0.W_E.weight f4 [32, 32]
000000 1b 1c df 3d 4c 35 18 3c 50 d9 1a 3e b6 75 ce 3d
       0.108940326 0.009290051 0.1512196 0.10081045
000010 e6 c3 9c 3d 55 3a a3 3d dc 73 d6 3d 41 19 9e 3d
       0.07654552 0.0797011 0.10471317 0.077196606
000020 4f b4 e2 bd b4 47 d3 3d 94 e2 f1 bc d9 08 1c 3e
       -0.110695474 0.10316411 -0.029526986 0.1523775
000030 44 52 e8 3c 8e 65 fb bd 53 67 2c 3e 51 d4 e8 3d
       0.02835954 -0.122752294 0.1683629 0.11368621
000040 af f0 56 bd 4e 4e da 3d 13 96 a4 3d 16 64 f0 bd
       -0.052475628 0.10659467 0.08036437 -0.1173784
000050 a2 d9 cc 3d 00 b9 67 bd b7 a3 06 be 30 a0 12 bd
       0.10002448 -0.056572914 -0.1314839 -0.035797298
000060 c2 2f 0f be d3 4b 04 3e 96 8d b1 bd 84 c2 22 3e
       -0.13983062 0.1291955 -0.086695835 0.15894514
000070 c7 7d df 3c d0 db 37 3d c5 f4 13 3d 99 75 64 bd
       0.027281655 0.044887364 0.036122102 -0.055776212
000080 56 20 98 3d 0a e4 42 bb 64 02 0a be fd d4 d1 bd
       0.074280426 -0.0029737973 -0.13477474 -0.102457024
000090 4a f0 32 3e ee 0b 08 be f0 23 06 3e 2b b6 c4 bd
       0.17474476 -0.13285801 0.13099647 -0.09605058
0000a0 d3 a1 15 3e c8 cd 26 3e c0 56 2d 3d eb 73 07 bd
       0.14612512 0.16289437 0.04231906 -0.033069532
0000b0 2b 5a 97 3d ba af b5 3d 2e 3d 0d be 04 5c 30 3d
       0.07390245 0.08871408 -0.1379287 0.043056503
0000c0 38 79 cd bd f7 ad 94 bb ea a0 3d 3d 2c e8 d3 bd
       -0.10032886 -0.00453734 0.046296038 -0.10347018
0000d0 da 11 1a be 2f 5f 61 bd 7e 1c 32 3e bc 7e 15 be
       -0.15045872 -0.055022415 0.17393681 -0.14599127
0000e0 9c 3e d9 3d d5 4d 4d 3c af c9 2c 3c e1 02 e6 3d
       0.10607645 0.012530764 0.010546132 0.11231018
0000f0 1d 41 43 3d f9 96 5e bd 7f a4 66 3d 7f ef 26 3e
       0.04766952 -0.054343197 0.05630922 0.16302298
000100 a5 aa 72 bd d2 eb a8 bd 18 14 51 bd 8b ae 70 bd
       -0.05924477 -0.08248104 -0.051044554 -0.058760207
000110 37 58 05 be d9 a9 40 3d 2c da ab 3d 42 9b 0e be
       -0.13021933 0.04703698 0.08391222 -0.13926414
000120 b4 c6 d3 3d 1d b2 25 be ec dc 28 be 43 08 b1 bd
       0.10340634 -0.16181226 -0.16490525 -0.08644154
000130 99 ea 1d bd 0a d6 de 3d a0 f3 32 3e 7c 06 1d be
       -0.038553808 0.108806685 0.17475748 -0.15334505
000140 a6 83 0e be 62 61 10 3e 30 5f 1e 3e 49 2b 9a bd
       -0.13917407 0.14099649 0.15465999 -0.07527787
000150 5d a5 4c bd a3 20 31 bd 91 96 29 be a8 2a dd bd
       -0.04996239 -0.043244015 -0.16561343 -0.10799152
000160 6b c1 2c bd 87 df 47 3d bb 10 13 bd fc bd b0 3d
       -0.042176645 0.048797157 -0.035904627 0.08629987
000170 28 f9 61 bd 8f 43 18 3e b3 24 19 3e 6f 1b 0a be
       -0.055169255 0.14869522 0.14955406 -0.13487028
000180 25 8d 33 3e ea f6 2a 3e 08 39 1e be 10 3c 3d bd
       0.17534311 0.16695753 -0.15451443 -0.04619986
000190 91 79 af 3c d0 41 d5 bc 87 64 85 3d 37 87 6f 3d
       0.021420272 -0.026032358 0.06513315 0.05847856
0001a0 61 cf 19 be ff a1 ce 3d 70 ca 40 bd 3e 14 a8 bc
       -0.15020515 0.10089492 -0.04706806 -0.020517465
0001b0 7d 74 bf bd 7e 9f ea bd 59 4f 81 bd e6 2f 02 3e
       -0.0934839 -0.11456202 -0.063139625 0.12713584
0001c0 a3 90 e1 bd 0b a6 9f 3d 92 36 11 bd fb 75 ac 3d
       -0.110139154 0.07795342 -0.035452433 0.084209405
0001d0 b6 65 0a 3e f5 01 91 3c 34 8a d9 3d e8 b1 4e bd
       0.13515362 0.017701128 0.10622063 -0.050462633
0001e0 ff c2 3b bd 31 90 9a bd 23 9d f3 3d c9 2c 75 bd
       -0.04584026 -0.075470336 0.11895206 -0.059857164
0001f0 73 24 00 bd 70 fb 28 be 37 90 ab bc be ce 74 bd
       -0.03128476 -0.16502166 -0.02094279 -0.059767477
000200 dd ef 0f 3e 19 7b da bd 51 94 93 bd 63 ca f0 bb
       0.14056344 -0.1066801 -0.072060235 -0.007348345
000210 bd 7a 10 be f5 4e f1 bd 81 0d 31 be e6 39 b8 bb
       -0.14109321 -0.11782638 -0.17290308 -0.0056221364
000220 d4 f2 1b 3d c3 57 1c 3e e8 37 e1 3d 7b e9 13 bd
       0.038073376 0.15267853 0.109969914 -0.036111336
000230 dd 53 ed bd 70 c0 c7 bd 69 d6 f8 3c 2f 2c 80 3c
       -0.11588261 -0.097535014 0.030375676 0.015646068
000240 9a 45 64 bc cd aa 0d bb 39 aa 59 bc 85 a9 e1 3d
       -0.01393261 -0.0021616698 -0.013285213 0.110186614
000250 25 45 15 3e cf 10 02 be 52 52 0b be 16 02 8d 3d
       0.14577158 -0.12701724 -0.13605621 0.068851635
000260 a3 0a 08 be f1 e5 f6 bd 2c f8 ec 3d 78 a0 a0 bc
       -0.13285308 -0.120555766 0.115707725 -0.019607767
000270 4a 5d cf bc 1d fe 79 bb 3f 3a 30 3e 93 9b 33 bd
       -0.025313038 -0.0038145848 0.17209719 -0.04384954
000280 4a 28 fb 3c 2d a5 c6 3b a6 39 e4 3d b0 af a1 3c
       0.03065886 0.006062171 0.11143808 0.019737095
000290 89 1b ed bd 3c b4 3b 3c 9f 44 1d be e8 83 af bd
       -0.115775175 0.011456545 -0.15358208 -0.08570081
0002a0 e1 50 1e be 4e 23 86 3d fb ff 09 3d 97 44 b5 bb
       -0.1546054 0.065497026 0.033691388 -0.005531858
0002b0 92 18 02 3e 7e d3 8b bd 98 36 1e 3e b3 70 84 3d
       0.12704685 -0.06827448 0.15450513 0.06466808
0002c0 31 40 20 3d 6f da 38 bd e6 91 fa bb c4 30 db 3d
       0.039123718 -0.04513019 -0.007646787 0.10702661
0002d0 b6 b4 e3 3d 19 9b 2b be 31 e1 a6 3d 3f 70 9b 3d
       0.11118452 -0.16758384 0.081484206 0.075897686
0002e0 d0 44 13 3e 71 e3 28 3e 8d 5f fc bc 9c 0b d1 bd
       0.14381719 0.16493012 -0.03080728 -0.102072924
0002f0 b3 35 9b 3c 74 ee 3d 3d 2b 63 60 bd 91 17 a6 bd
       0.018946504 0.046369985 -0.054782074 -0.08109964
000300 a1 60 db 3d e3 4c a0 bd ed 5d 82 3d bf cc f7 3d
       0.1071179 -0.07827165 0.06365571 0.12099599
000310 17 89 f4 3d ef c1 02 be 14 23 91 bd 10 a1 07 bb
       0.1194021 -0.12769292 -0.07086769 -0.0020695366
000320 26 db fc bd 1d d0 e7 bb fd 51 e4 bd 72 9a 87 bd
       -0.12346487 -0.0070743696 -0.111484505 -0.06621255
000330 3f 64 2a be 8f 44 d0 bd 4f 0a c8 bc c0 72 3d 3d
       -0.16639803 -0.101693265 -0.024418978 0.046252012
000340 c1 d3 29 3b 21 b9 b1 3d 57 ee f4 3c 2e 95 18 be
       0.0025913569 0.08677889 0.029898806 -0.14900658
000350 64 4d c9 3d 16 fe 19 be 92 e0 28 3e 12 d9 a6 bd
       0.09829214 -0.15038332 0.16491917 -0.081468716
000360 b0 81 c4 3d 1e 2b 26 be d2 03 f0 bd ec 59 2f 3d
       0.095950484 -0.16227385 -0.11719479 0.042810366
000370 f7 7a e6 3d 78 62 21 be d5 c3 2d 3e f7 d9 ec bc
       0.112539224 -0.15760219 0.16969235 -0.028912527
000380 b2 27 1c 3e 7c 9f d5 bd e7 93 d3 3d 96 5b d8 3c
       0.15249518 -0.1043081 0.103309445 0.02641086
000390 e7 bb 1b be 9d e3 2b 3e b7 ab 2d 3d af c5 fa 3d
       -0.15208398 0.16786046 0.04240009 0.122447364
0003a0 a6 a2 09 3e 5a 40 ba bd bb bd c5 bd cd dd a6 3d
       0.13440952 -0.09094305 -0.09655329 0.08147774
0003b0 0b 88 fe 3d 90 e8 86 bd ed 05 52 3d 82 9a 07 3e
       0.12428292 -0.065873265 0.051275183 0.13242534
0003c0 c3 66 0b 3e a7 fa 24 be f8 cb a6 3c e8 1f db 3d
       0.13613419 -0.16111241 0.020360932 0.10699445
0003d0 04 7e c2 3d 75 8c c4 3d 60 94 0c bc 61 34 0c be
       0.09496692 0.095971026 -0.008580297 -0.13691856
0003e0 0b b6 01 3d 31 ff 80 bd 40 43 3c bd d6 05 1d 3e
       0.03166775 -0.06298674 -0.045962572 0.15334257
0003f0 d5 49 5e bc 52 93 87 bc a0 9f 14 be 9f 56 f8 3d
       -0.013567408 -0.01654974 -0.14514017 0.12125897

SSM_blocks.0.W_E.bias f4 [32]
000000 fe 1e e1 bd 68 cb 31 be ca 99 c3 bd 29 7e 2f bd
       -0.109922394 -0.1736275 -0.09550817 -0.042844925
000010 ff 44 ab 3d c7 c3 09 be ff 91 fc bd 23 32 2d 3d
       0.08362769 -0.1345359 -0.12332534 0.042284142
000020 ad bd 5c 3c fe a1 d3 3c 93 da 18 be a8 30 35 bd
       0.013472957 0.02583408 -0.1492713 -0.044235855
000030 4e 09 ce 3d 5c 2b 24 be 34 55 c2 bc f2 c4 c3 3c
       0.100603685 -0.16032165 -0.023722269 0.023897622
000040 81 d8 ec bd 52 1e b2 3d 6b 8c c5 bd dc b7 f2 3d
       -0.11564732 0.086971894 -0.09645923 0.11851475
000050 c8 49 b7 bd 69 ed 8b bd b1 f7 b4 3c ab 51 18 be
       -0.089496195 -0.06832392 0.022090765 -0.14874904
000060 34 a3 6d 3d 13 8a 22 3d e2 ef d9 3d 1e e1 aa bc
       0.05801697 0.03968246 0.10641457 -0.020859297
000070 04 9f a7 3d 88 52 24 3e 8d eb 03 bd d4 f5 ea bd
       0.08184627 0.16047108 -0.03220706 -0.11472669

SSM_blocks.0.W_F.weight f4 [32, 1]
000000 ac e9 2a bf b8 bd 20 bf 4c ad fe be 50 dc 30 3f
       -0.66762805 -0.6278949 -0.4974159 0.6908617
000010 70 43 df 3e 40 91 22 bf dc a5 5b bf a0 61 39 bd
       0.43606138 -0.63502884 -0.85799956 -0.045259118
000020 44 71 67 3f 74 ce f2 3e f4 13 5f 3f 28 17 07 be
       0.90407205 0.47423136 0.8713982 -0.13192427
000030 80 ff 69 3e 24 87 8d be 3e 6f 7e bf 1c 70 96 3e
       0.22851372 -0.27642167 -0.9938849 0.29382408
000040 d8 dc 4a 3f e6 a0 36 bf 4a 3a 71 bf 6c e8 0e bf
       0.7924323 -0.7133926 -0.9422957 -0.558234
000050 a0 1b 6e bd 00 71 b7 bd e8 ea 88 be 44 0a 94 3e
       -0.058131814 -0.089571 -0.2674172 0.28914082
000060 34 b9 9a 3e 84 63 fd be b2 e0 74 3f ba 92 5d bf
       0.30219424 -0.49489987 0.9565536 -0.8655201
000070 98 d0 5b 3e 90 e8 15 be 1a 84 31 bf 44 8a 35 bf
       0.21466291 -0.14639497 -0.69342196 -0.709141

SSM_blocks.0.W_F.bias f4 [32]
000000 f6 3a 08 3f ba 7f 58 3f e4 16 60 bf 94 56 58 3f
       0.5321497 0.84569895 -0.8753493 0.8450711
000010 8a ec 1b 3f 0c 17 03 3f 40 c6 1e bf b0 d5 ae 3e
       0.60907805 0.5120704 -0.62021255 0.34147406
000020 e0 38 92 bd 10 8e 80 3d 3c e4 d7 3e a0 65 d2 bd
       -0.07139754 0.06277096 0.42166317 -0.1027329
000030 5e 10 7e bf dc 85 a7 3e b8 43 8a 3e 24 1d 3d bf
       -0.99243724 0.32719314 0.2700479 -0.7387259
000040 24 e6 00 bf 6c 67 c0 be 60 e1 38 bf 10 86 27 be
       -0.50351167 -0.37578905 -0.72218895 -0.16359735
000050 f0 0a 2b be 9c cb 60 bf a0 f3 9c be dc 7f 01 bf
       -0.16703391 -0.87810683 -0.3065462 -0.5058572
000060 70 aa cb 3d e0 e0 03 3d 5c 8b 7e 3f 00 54 ba 3a
       0.09944618 0.03219688 0.99431396 0.0014215708
000070 90 74 59 be 0c f1 9b 3e 00 77 76 3c 40 80 43 be
       -0.21235871 0.30457342 0.01504302 -0.19091892

W_C.weight f4 [1, 64]
000000 2c 37 87 3d 81 96 b5 bd e8 52 91 3d c1 d6 70 bd
       0.0660232 -0.08866597 0.07095891 -0.058798555
000010 b6 53 ed bd a9 bf b4 bb 3b 55 a5 3d 5c 57 0b 3b
       -0.11588232 -0.0055160117 0.08072897 0.0021261787
000020 76 59 8e bb 5b 88 d7 3d aa dd f7 bc bf a6 bf bd
       -0.0043441607 0.105240546 -0.030257065 -0.09357976
000030 9c 83 60 3d af 11 a8 3d a5 c2 f2 3b ab 53 81 3c
       0.054813012 0.08206498 0.0074084573 0.015786966
000040 29 d6 2e 3d db fd 4f bd 01 04 d8 3c 48 ec ba bd
       0.042684708 -0.050779205 0.026369097 -0.09127098
000050 cd 27 c8 3d c8 6a b7 bd 96 af 33 3b cb 10 cd bd
       0.097732164 -0.08955914 0.002741789 -0.10012969
000060 5b 5d 5d bd ee 84 38 3b 76 a0 90 bd 7a 89 a2 bd
       -0.05404411 0.0028155404 -0.070618555 -0.07936378
000070 f5 6c 70 bd 47 9d 74 bd 16 c7 c9 bd ac a8 a2 bd
       -0.05869766 -0.059720304 -0.09852426 -0.07942328
000080 ce 2b b8 3d 5b cd 1b bd 84 5f dc bc ad ca 8f bc
       0.0899273 -0.03803764 -0.026901014 -0.017552698
000090 6c e5 72 3d c2 1a 66 bd 8e 0b b0 3d 5e d2 bc bc
       0.059300825 -0.056177862 0.08595954 -0.02304953
0000a0 ae b6 8b 3d b5 d6 97 b9 aa 85 17 3d 49 eb c1 3d
       0.06821953 -0.00028960934 0.036992706 0.09468705
0000b0 6e 3d aa 3d 12 e3 da bd 27 9a 5e 3d ad bc c0 3c
       0.08312498 -0.106878415 0.05434623 0.023527468
0000c0 91 93 3d bc a5 ac c2 3c 20 6c e3 bc f1 85 30 3d
       -0.011570827 0.023763964 -0.027761519 0.043096486
0000d0 dd 9b a7 bc 2a 5e e8 38 4c 65 3c 3c 88 87 97 3d
       -0.020460064 0.000110801615 0.01149876 0.073988974
0000e0 06 31 ba bb 92 e8 1e bd f8 8c b2 3d a5 bb 0a bd
       -0.0056821136 -0.038796015 0.08718294 -0.033870358
0000f0 e9 ae d3 3d a1 d7 03 bc 3b db 00 bd e4 e3 90 bd
       0.10336096 -0.008047015 -0.031459074 -0.07074717

W_J.weight f4 [1, 32]
000000 3b 83 5b 3d 1a 52 ae bd f6 4a 1c be a4 80 bc 3d
       0.053591948 -0.085117534 -0.1526297 0.09204224
000010 4d 08 00 3e d8 e2 a6 bb 87 40 42 bd de 3e 20 be
       0.12503166 -0.00509296 -0.04742482 -0.15648982
000020 46 1b 1b 3e 4e a8 38 3e 7c 6f 89 3d d8 13 8e 3d
       0.15147123 0.18032953 0.06710717 0.06937379
000030 3e 7b 08 3e 48 9e 11 3e 64 af 15 be 12 65 1b 3e
       0.13328263 0.14220536 -0.14617687 0.15175274
000040 c6 81 b7 bd 92 3b d2 bd 30 89 02 3e 56 c3 16 3e
       -0.08960299 -0.102652684 0.12747645 0.14722952
000050 9c 29 bd bd c7 b5 07 3d 95 d4 78 bc b8 dc 09 be
       -0.09236452 0.03313234 -0.015187402 -0.13463104
000060 82 2c 9e bb 66 d5 92 3d 98 13 00 3d bc a2 0f be
       -0.004827083 0.07169609 0.031268686 -0.14026922
000070 56 57 da 3d dd 89 0c bd 58 01 bf bd f0 46 31 3e
       0.10661189 -0.034311164 -0.09326428 0.17312217
