weight/best_BANGLADESH_model.pth (torch, 28583 bytes, 12 tensors)

SSM_blocks.0.W_bh f4 [64]
000000 fe 22 72 bc ff 7b 6d bb 90 9d 18 bc 8c c9 54 bc
       -0.014778851 -0.0036237238 -0.00931491 -0.012987506
000010 ba e6 02 bb 29 f2 2b 3c b8 37 44 bc cf 05 0a 3c
       -0.001997395 0.010494747 -0.011976175 0.008424236
000020 cc b8 26 3c d7 ef 4c bc 65 58 2b 3c ac bc 06 bc
       0.010175895 -0.012508354 0.010458087 -0.008223694
000030 fd 2b ff bb 03 c2 18 3c af 1a 17 3c 01 39 7d 3b
       -0.0077872262 0.0093236 0.00922267 0.0038638713
000040 6d 98 fb bb c6 5b 2a 3c 8e c4 27 bc df 69 0a bc
       -0.0076780827 0.010397857 -0.010239733 -0.008448093
000050 3d 32 55 3c 5a b3 b1 3b 49 64 20 bc 01 14 0b bc
       0.013012466 0.0054229917 -0.009789535 -0.008488656
000060 46 a0 03 bc 77 20 6d 3b d7 e5 12 3c 09 6c ba 3b
       -0.008033818 0.003618268 0.008965931 0.0056891483
000070 93 e6 25 3c 70 9d 62 bc 0b 90 8d ba b5 1e da 3b
       0.010125774 -0.013831481 -0.0010800374 0.0066564926
000080 b3 0e 38 bc 55 55 32 3c 94 75 a7 bb c2 32 11 bc
       -0.011233973 0.010884603 -0.005110452 -0.008862199
000090 35 cb 11 bc 8f ea 4e bb 2d f9 1a 3c 0c ec 13 bc
       -0.008898546 -0.0031572913 0.009458822 -0.009028446
0000a0 84 83 15 3c a2 8a 93 3b 58 a4 ff bb 36 03 94 bb
       0.009125594 0.0045026103 -0.0078015737 -0.0045169843
0000b0 94 a0 1c 3c a3 59 40 bc b9 ab f7 bb 2d 1b 2a bc
       0.009559769 -0.011740121 -0.0075583127 -0.010382456
0000c0 3b 6f 03 bc 18 63 ce 39 d7 bb c3 bb 6f 7b df bb
       -0.008022125 0.00039365212 -0.00597332 -0.0068201344
0000d0 61 91 46 bc 86 db 01 3c 8c 79 07 3c 39 51 bb bb
       -0.012119622 0.007925874 0.008268725 -0.0057164696
0000e0 97 c9 34 3c a8 a9 39 bc d6 eb 34 3c a7 f8 07 bc
       0.011034391 -0.011331953 0.011042556 -0.008299029
0000f0 93 c4 c2 bb 4e 5c 68 3c 55 c7 0e bc 32 96 0d bc
       -0.0059438436 0.014182163 -0.008714517 -0.008641766

SSM_blocks.0.W_bg f4 [32]
000000 00 00 00 00 00 00 00 00 00 00 00 00 00 00 00 00
       0.0 0.0 0.0 0.0
000010 00 00 00 00 00 00 00 00 00 00 00 00 00 00 00 00
       0.0 0.0 0.0 0.0
000020 00 00 00 00 00 00 00 00 00 00 00 00 00 00 00 00
       0.0 0.0 0.0 0.0
000030 00 00 00 00 00 00 00 00 00 00 00 00 00 00 00 00
       0.0 0.0 0.0 0.0
000040 00 00 00 00 00 00 00 00 00 00 00 00 00 00 00 00
       0.0 0.0 0.0 0.0
000050 00 00 00 00 00 00 00 00 00 00 00 00 00 00 00 00
       0.0 0.0 0.0 0.0
000060 00 00 00 00 00 00 00 00 00 00 00 00 00 00 00 00
       0.0 0.0 0.0 0.0
000070 00 00 00 00 00 00 00 00 00 00 00 00 00 00 00 00
       0.0 0.0 0.0 0.0

SSM_blocks.0.W_A.weight f4 [64, 64]
000000 19 3a d9 3c 74 b4 cb 3d 25 0b e8 3c 22 9a 08 3d
       0.026516961 0.09946528 0.028325627 0.033350118
000010 68 a6 54 3d 08 44 99 bd f9 40 48 3d 11 be 94 3d
       0.05191651 -0.07483679 0.048890088 0.07262815
000020 48 65 a6 3d 0f a2 1f bd 9b 6c df bd 83 cd 61 3d
       0.081247866 -0.03897291 -0.10909387 0.055127632
000030 26 b9 85 bd 15 d3 ae bd ff 25 82 3d 62 46 7b bc
       -0.06529455 -0.085363545 0.063549034 -0.015336605
000040 3a b9 b5 bd 21 72 7c bd 38 9c a7 3d c3 23 7d 3c
       -0.0887322 -0.06163228 0.08184093 0.015450421
000050 de d1 94 bd 48 2f f0 3d 3f 4d b4 3d 14 da 98 3d
       -0.072665915 0.11727768 0.08803796 0.0746347
000060 a3 8c a1 ba f2 e9 3f 3d 0d ed 92 3d 10 05 98 bd
       -0.0012325238 0.046853967 0.0717412 -0.074228406
000070 f9 1c d6 3d 92 f1 90 3d e1 fa 10 3d 57 29 86 3d
       0.10454745 0.07077326 0.035395507 0.06550854
000080 2f 07 d3 bd 2b 88 5c bc bd 83 80 bd 27 09 9c 3d
       -0.103041045 -0.013460199 -0.06275127 0.07618933
000090 c4 4d 90 bd 11 15 05 3d fa 3a 76 3c a8 c6 f3 bc
       -0.070460826 0.032490794 0.01502871 -0.029757813
0000a0 b1 a8 7f 3d dd 25 f0 bd 93 fe 75 bd e7 5d 14 bd
       0.062416736 -0.11725972 -0.060057234 -0.036222365
0000b0 14 06 d0 bd fb 80 c4 bd 03 c1 56 3d ec 0c cd bc
       -0.10157409 -0.095949136 0.052430164 -0.025030576
0000c0 30 dc af 3c 2e b0 07 3d 1c 8d 18 be 9d 8b 04 3e
       0.021467298 0.033127002 -0.14897579 0.12943883
0000d0 4d 26 32 bc 4c 4e 80 3d 1e c2 ef 3d a6 b2 9c bd
       -0.010873389 0.06264934 0.11706947 -0.07651262
0000e0 ff c4 eb bd 84 f2 ea 3d 09 e6 cc bd e6 8e 7b bd
       -0.115121834 0.114720374 -0.10004813 -0.061415575
0000f0 c6 c9 d3 3d 10 02 f7 3c 2b 1b cf 3d ed 3b 8a bd
       0.103412196 0.03015235 0.10112604 -0.06749711
000100 83 d1 ab bd e4 64 a2 bd db d4 aa bc 55 29 6f 3d
       -0.083895706 -0.079293996 -0.02085345 0.058389027
000110 24 fd b5 bd 22 d5 d4 bd c5 fa 04 3d b1 5a 68 3c
       -0.08886173 -0.10392214 0.032465715 0.014181779
000120 ae 78 b6 bd 26 7b f8 bd 9e e7 2e 3d b6 71 a0 bd
       -0.089097366 -0.12132864 0.042701356 -0.07834189
000130 b4 61 af bd d0 c9 fa bc a2 82 8e bd ec d1 e5 bd
       -0.08563557 -0.03061381 -0.0695851 -0.1122168
000140 9c b5 b3 3d 28 1f c5 bd 5b 54 a3 bd 98 ee a6 3d
       0.087748736 -0.09625083 -0.07975074 0.08150977
000150 50 fa 01 3e 40 1f 27 3d ee 4a 75 3c d0 68 44 bb
       0.12693143 0.040801287 0.014971478 -0.00299697
000160 b6 c6 6b bd f1 ce ed bd 20 5f 86 3d fb 8a 23 3d
       -0.057562552 -0.116117366 0.065611124 0.039927464
000170 8c e2 31 bd b6 31 4b bd 85 1b 0a 3c 91 d4 6e bc
       -0.043428943 -0.049607955 0.008429413 -0.014577047
000180 b1 1f 03 be c9 6d 78 bd 9a 7e d7 bd 85 59 a2 3c
       -0.12805058 -0.060651574 -0.10522194 0.019818077
000190 fe 3c e7 3c 31 2c 8a 3d f7 b6 2d bd ad c1 2a 3d
       0.028227326 0.0674671 -0.042410817 0.04168861
0001a0 f3 fa 84 3d 87 82 db bc 2e bd d8 bd 6d 6c 06 3e
       0.06493177 -0.026795639 -0.10582958 0.13127299
0001b0 df 54 f1 bc 01 f3 65 bd 33 5a 16 bd 14 47 b7 bd
       -0.029459415 -0.05613995 -0.036707114 -0.08949104
0001c0 ae d0 0c bd 95 3f fa 3d f5 a5 d0 bc c2 79 d4 bd
       -0.0343787 0.122191586 -0.02546976 -0.10374786
0001d0 cd d9 06 3d e0 13 78 bd 04 7b 4e 3c 67 c2 c2 bb
       0.032922555 -0.06056583 0.012602571 -0.0059435847
0001e0 01 54 00 bd 1c df 0c 3d 31 7b c1 3d 13 41 e3 3d
       -0.031330112 0.03439246 0.09447325 0.11096396
0001f0 25 dd a2 bc f6 cb 2b bd 19 77 fd bb 3e 8c 37 3d
       -0.01988084 -0.04194256 -0.007735145 0.04481148
000200 0f 29 9e bd 87 7a 8a bb 68 58 3b bd 6c cb 2c 3d
       -0.07722675 -0.004226032 -0.045738608 0.042186186
000210 63 93 eb bd c9 42 89 bd 98 a3 b9 bd b5 f3 e0 3c
       -0.11502721 -0.067021914 -0.09064406 0.027459959
000220 e8 3b e3 bd 5b 16 e8 bd 82 3b 02 3d 57 30 23 3d
       -0.110954106 -0.11332389 0.031795032 0.039841022
000230 06 c8 e8 bd 7c f1 ad bd a7 e9 f3 bd 1d 19 f9 bd
       -0.113662764 -0.08493325 -0.119098 -0.12162993
000240 f2 19 6d 3d ab c4 12 3c 60 32 a3 bd fa aa 98 3c
       0.05788607 0.008958022 -0.07968593 0.018636215
000250 09 d9 ee bd ef 19 62 bd 35 c7 e8 3c 40 7b 8a bc
       -0.1166249 -0.055200513 0.028415302 -0.016904473
000260 14 2e 70 bc 7e f5 6c 3c d3 50 c4 bc 3e 24 9f bc
       -0.014659423 0.014462827 -0.023964321 -0.019426461
000270 0c 87 43 bd 14 ca cd 3d fc c0 92 3c 4c f9 9d bd
       -0.047736213 0.10048309 0.017914288 -0.07713565
000280 8f e1 80 bc 4f fa 0c bd 06 2a 23 3d 8f 9e 44 3d
       -0.015732555 -0.0344184 0.039835 0.048002776
000290 a1 37 0a bd 23 8d cb bb 39 e5 05 bd f1 2a 32 3d
       -0.033744458 -0.006211893 -0.032689307 0.043497983
0002a0 c7 fd 0a 3d 5a a6 a7 bc 64 be f8 bd 83 9b a3 bd
       0.033933427 -0.020465065 -0.12145689 -0.07988646
0002b0 04 d2 46 3c b8 63 7b 3d 1c e7 e3 3d f2 6a 5f 3d
       0.012135033 0.061374396 0.11128065 0.05454535
0002c0 fd 7e 94 3c ea 43 82 3c 4e b0 11 3d ba 96 78 3d
       0.018126959 0.015901525 0.035568528 0.06069062
0002d0 09 40 b3 3b 6b 8b 4d bd 88 19 65 bd 40 b8 e6 3c
       0.00547028 -0.050181787 -0.05593255 0.02816403
0002e0 06 f3 d3 3d 02 08 3b bc 29 72 9e bd 13 5b 94 3d
       0.103490874 -0.011415483 -0.07736618 0.072439335
0002f0 de 98 82 3d bb 2c 71 bc 1d bd fb 3c af 11 90 3d
       0.06376813 -0.014720137 0.030729825 0.07034623
000300 39 b9 0d 3c 9b b1 34 3b 09 3a 63 bd be dd 69 bd
       0.008650118 0.0027571681 -0.05547527 -0.057096235
000310 b7 c4 f5 bd 11 23 94 bd 5b 9e c9 bd 49 2a 8d 3c
       -0.12000411 -0.07233251 -0.09844657 0.017232077
000320 b1 11 41 bd 52 c5 16 3d 3c d5 bf 3d 6c 7f 30 3d
       -0.047136012 0.036809273 0.09366843 0.04309027
000330 a2 57 e7 bc b6 a9 80 bd 72 a8 d7 ba 75 45 0c bd
       -0.028240029 -0.0628237 -0.0016453399 -0.034245927
000340 ec 5c a1 bc 09 14 aa bd e7 96 08 3d 81 4f f5 bd
       -0.019697629 -0.08304603 0.033347037 -0.11978055
000350 63 51 a8 bd 39 e4 12 bd 4a 2b b5 3d 1d 55 38 3d
       -0.08218648 -0.03586218 0.08846147 0.045003045
000360 19 92 7f bd f2 fd ce bd c4 9b 9f 3c a5 61 be 3c
       -0.06239519 -0.1010703 0.019483455 0.02323992
000370 7f e0 ba bc 4a 2b 1d 3d e7 e1 fc 3d be 3f 14 bd
       -0.022812126 0.03837136 0.12347775 -0.0361936
000380 49 05 80 bc 9d c9 08 bd 70 69 5d bd ab 6e c7 3d
       -0.01562752 -0.0333954 -0.05405563 0.09737905
000390 bd 4a 9e bd 83 07 61 bd de 94 b6 3b c6 8a 96 3d
       -0.07729099 -0.054938804 0.0055719456 0.07350688
0003a0 06 db 92 3c 4e 0f 81 3d e2 e7 55 bd 43 4f db 3c
       0.017926704 0.06301747 -0.052223094 0.026771193
0003b0 d0 f0 ff 3c b9 2a b3 bd b0 5b 0a bd f0 9e 0e bc
       0.031242758 -0.08748383 -0.033778846 -0.008704886
0003c0 74 b0 ab bd 30 41 59 3d ee 61 c7 bd 36 5b 13 bd
       -0.08383265 0.053040683 -0.097354755 -0.035975657
0003d0 54 5f 37 3b a9 6c cb 3d c9 c2 4a 3d 6f bc 03 3e
       0.0027980404 0.09932835 0.049502168 0.1286485
0003e0 f0 8b ec 3d 91 9d 7a 3b 29 d0 88 bd 39 cb 4e bc
       0.115501285 0.003824089 -0.066803284 -0.012621694
0003f0 62 7b 2c 3d 29 68 ab bd 5c 8c 13 bc c6 58 80 3d
       0.042109855 -0.08369476 -0.009005632 0.06266932

SSM_blocks.0.W_A.bias f4 [64]
000000 67 24 b9 bd b2 34 c3 bc eb 31 62 bd ab 52 fd bd
       -0.09040146 -0.023828838 -0.055223387 -0.12369283
000010 66 66 f5 bd 70 96 d0 3d ff 99 af 3d 92 ca 4e bd
       -0.119824216 0.10184944 0.08574294 -0.050486155
000020 61 90 75 bd c2 92 c3 3d c1 f1 84 3c fe bf ef bd
       -0.059952144 0.09549476 0.016228558 -0.117065415
000030 8e 91 09 3d 36 88 aa bd b3 01 dc 3d 65 50 89 3d
       0.033586077 -0.083267614 0.107425116 0.06704787
000040 cd 1c fc bd fc 6e e2 3d 92 ee 83 bc f2 6a 23 3c
       -0.12310181 0.11056325 -0.01610497 0.009974228
000050 c4 28 8a bc 06 84 c3 bd 4e e6 f6 bd 91 05 6b bd
       -0.016865142 -0.09546666 -0.12055646 -0.057378355
000060 17 dd de 3d d2 ae 37 3d f3 c9 ae 3d cc d6 e6 3c
       0.10882013 0.044844456 0.085346125 0.028178595
000070 fc 8e 02 3e 78 2e b2 3d 54 17 2a bd 37 05 f3 3c
       0.12749857 0.087002695 -0.041526154 0.029665573
000080 59 96 9c 3d 2b e7 29 bd 11 05 e6 bd 32 4b 26 bd
       0.07645864 -0.041480225 -0.11231435 -0.040599056
000090 07 7f a3 3c 1c 4a 4d 3d 38 4b ff 3d ae 33 a0 3d
       0.019958032 0.050119504 0.12465519 0.07822357
0000a0 1b 2b d5 bd 7a 9f c6 b9 1b 0b ca 3d 67 b2 6e 3d
       -0.10408612 -0.00037884322 0.098653995 0.058275606
0000b0 17 d5 2e 3d cc 33 96 3d 3b 07 53 bd 44 2e e0 3d
       0.042683687 0.07334098 -0.051520567 0.109463245
0000c0 c1 d4 45 bd ab f8 d6 bc 0f 2d fa 3a 6c 76 c0 3c
       -0.0482986 -0.026241621 0.0019086915 0.023493968
0000d0 e2 ff 41 bd 8c e4 d2 3d 4f 40 04 3e 3a 00 df 3d
       -0.04736317 0.10297498 0.12915157 0.10888715
0000e0 26 16 d8 3d 25 52 6c 3c 23 13 de 3c 01 8d 3d 3d
       0.105510995 0.014423882 0.027108734 0.04627705
0000f0 22 72 fd bd 64 af 6a bd 2a c5 3d 3d 67 3f 37 3d
       -0.12375285 -0.05729617 0.04633061 0.0447382

SSM_blocks.0.W_B.weight f4 [64, 1]
000000 0b af f0 3d 1e 27 a1 be 26 3c 48 3f ed 41 3d bf
       0.11752137 -0.31475157 0.7821678 -0.7392872
000010 30 30 41 bf 4a b5 70 bf a1 5f ab 3e 7d e2 b2 bd
       -0.75464153 -0.94026625 0.33471397 -0.087346055
000020 f1 bd e6 be fc a0 a6 be 27 86 1e 3f 78 87 36 3e
       -0.4506679 -0.32544696 0.6192345 0.17825115
000030 b6 31 2c 3d 58 5c 79 be 9d ce 25 bf 04 71 ab 3d
       0.042039596 -0.24351633 -0.6476839 0.083711654
000040 97 41 6d 3f 65 9f a1 3e 05 0a a5 3e 79 f7 7f 3f
       0.9267821 0.3156692 0.32234207 0.9998699
000050 6d 92 54 3f a2 e6 05 bf 0c 4b 7b 3e f7 0a 2a 3f
       0.8303593 -0.5230504 0.24540347 0.6642298
000060 77 9d 57 3f e3 8f cc 3c 09 8f 68 3f c1 d0 49 3f
       0.8422465 0.024970954 0.90843254 0.7883416
000070 15 7c 4f bf 2c c4 3f bf 8b 14 d9 bd 87 22 2c 3f
       -0.8104871 -0.7490871 -0.105996214 0.67240185
000080 a8 b2 63 bf a6 73 e5 be 2d a8 1a 3e 1c 7c bf 3e
       -0.8894448 -0.44814795 0.15103216 0.37399375
000090 64 b2 e0 be 75 2f 93 3e 35 a1 25 bf 82 13 bb 3e
       -0.438861 0.28747144 -0.6469911 0.3653832
0000a0 a9 36 43 be 00 8a 59 bf c0 06 24 3f b9 f0 32 3f
       -0.1906382 -0.84976196 0.640728 0.69898564
0000b0 ff 2e 38 3f 36 3e 43 bf d3 b1 fd be 48 d3 3c 3f
       0.7194671 -0.762668 -0.49549732 0.7375989
0000c0 1a 03 10 bf 76 b5 e1 bd 26 af 05 3f 18 0d b4 3e
       -0.5625473 -0.11020939 0.5222038 0.3516624
0000d0 6f f1 28 be dc 30 97 3e 9e b4 30 bf 75 fb 10 bf
       -0.1649835 0.29529464 -0.690256 -0.5663369
0000e0 64 88 6f 3d c0 c3 5c bf 69 5a 57 3f 7e 52 37 3f
       0.05847968 -0.8623619 0.8412233 0.7161025
0000f0 a4 a4 79 bf 7b 1b 53 3f 38 0e e0 be 6d a9 f5 3c
       -0.97516847 0.82463807 -0.43760848 0.029988015

SSM_blocks.0.W_B.bias f4 [64]
000000 6d ab 80 bf b7 98 51 3f 3c 1a 79 3e 90 a4 25 3f
       -1.0052315 0.8187365 0.24326414 0.6470423
000010 bf f1 90 3e aa 8b 82 3d 9f d4 21 3f c6 8e 09 bf
       0.28309438 0.06374295 0.6321506 -0.5373348
000020 c6 4d 42 bf ee 1c f3 bd 6b 36 af be c6 86 08 3f
       -0.7589992 -0.11870752 -0.34221205 0.5333065
000030 08 2f 7a bf 2f 0f 25 3e 9d c0 9a 3e 21 5d 59 3f
       -0.97728014 0.16119073 0.30225077 0.8490773
000040 c3 40 8f bd 0f 74 66 be 8d 93 24 bf 75 05 56 3f
       -0.06994774 -0.2250521 -0.64287645 0.83602077
000050 a0 d1 b3 be 0d db 3a bf 36 17 15 bf 4f 35 a7 be
       -0.3512087 -0.72990495 -0.5823854 -0.3265786
000060 df 29 1b bf 76 0a 7d 3f f1 9e 3f be 1e 72 d8 3e
       -0.60610765 0.9884409 -0.18712975 0.42274565
000070 3c 31 49 bf 25 69 6d 3d 85 90 e7 be 9e fd fb 3e
       -0.7859075 0.0579616 -0.45227447 0.49216932
000080 c1 92 2f 3e 41 4c 82 be 5c f8 1c bf bc fa 97 be
       0.17145826 -0.25448802 -0.61316466 -0.29683483
000090 f0 0f 7d 3d dd 3e 19 3c a2 cc f9 bd a0 07 97 be
       0.061782777 0.009353367 -0.12197234 -0.29498005
0000a0 36 fc d1 3e 46 f9 e4 3d 92 ab 61 3d 65 ab 42 bd
       0.41012734 0.11180358 0.055095263 -0.047526736
0000b0 30 74 7b bf 46 a5 16 3f 26 c4 2e bf b1 c3 3d 3f
       -0.98224163 0.5884594 -0.6826805 0.74126726
0000c0 56 34 5f bf 9e fe cd 3d c8 b0 38 3f 5f bc 74 bf
       -0.87189233 0.1005833 0.72144747 -0.9559993
0000d0 cf ad 38 3f 55 1b b8 be 65 32 9f bd 05 77 65 bf
       0.7214021 -0.35958353 -0.07773284 -0.89634734
0000e0 d2 47 0b bf aa 68 57 3f 2d 7a 55 3d b1 75 96 be
       -0.54406464 0.8414408 0.05211847 -0.29386666
0000f0 78 63 e5 3e 4e 2d 1b 3c 21 66 36 be 86 ce c4 be
       0.4480245 0.009471251 -0.17812397 -0.38438815

SSM_blocks.0.W_E.weight f4 [32, 32]
000000 2c 83 16 3e c8 c7 02 bd 7c 71 99 bd 7a 20 71 bd
       0.14698476 -0.031928807 -0.074923486 -0.058868863
000010 24 ad 08 3e cc 8a d8 bd 6c f4 d3 3d 93 99 20 3d
       0.13347298 -0.105733484 0.10349354 0.03920896
000020 cf 6a aa bc c8 0e 07 3c 66 c3 d8 bd c5 99 b6 3d
       -0.020802883 0.00824327 -0.10584144 0.08916048
000030 2f c3 74 3d 12 7a 29 3e 93 1f 98 bd 62 63 26 bd
       0.059756454 0.16550472 -0.07427897 -0.040622123
000040 61 60 bf 3c e1 70 92 bd 1e af db bd 3a 50 99 bc
       0.023361387 -0.07150436 -0.1072676 -0.018715013
000050 de 93 cb 3d 85 8b df 3d 34 04 f7 3b 8e 67 19 be
       0.09940313 0.10915283 0.007538343 -0.14980909
000060 0d a0 06 3d 84 8b cd bd bd f5 ff bd d9 5d 14 be
       0.03286748 -0.10036376 -0.12498043 -0.14488925
000070 fc 65 a7 bc 73 e6 24 be 1f 1b 11 be e5 31 b5 3c
       -0.020434372 -0.16103534 -0.14170502 0.022118518
000080 c0 48 33 be ec f0 87 3c ef 63 89 bd bc 45 04 be
       -0.1750822 0.016594373 -0.06708514 -0.12917227
000090 c5 97 ff bb 83 50 f4 3d eb 08 0e 3e 57 53 15 bc
       -0.0078000748 0.11929419 0.1387059 -0.009114108
0000a0 9f 49 8a 3d ff c3 f7 bd 08 7d fb 3d bd 7f be 3c
       0.06752323 -0.1209793 0.12279707 0.02325427
0000b0 ed 8e 1a 3e 75 8d fe 3d c1 12 8a bd a4 3b cc bd
       0.15093584 0.124293245 -0.06741858 -0.09972313
0000c0 a0 7e af bd 74 40 ab bd 85 c8 06 3e 49 a6 77 bd
       -0.08569074 -0.08361903 0.1316243 -0.060461316
0000d0 58 cb 92 bd 0d c9 7a 3b 13 83 08 bd 1b c0 c7 3d
       -0.07167691 0.0038266808 -0.033328127 0.09753438
0000e0 fe 62 18 bc 6a bf c0 3d 51 2f f7 bd c8 b3 23 be
       -0.009300945 0.09411509 -0.12069572 -0.1598655
0000f0 9f 5d 75 bc b8 e5 2a 3e be 74 9d bd eb aa 9c 3b
       -0.014975934 0.16689193 -0.076882824 0.004781117
000100 4b a2 e3 3d 54 fe c3 3d c9 fd 28 be b3 4b d1 bd
       0.11114939 0.095699936 -0.16503061 -0.102195166
000110 b9 26 9e 3c 3f 9e 0d 3d c0 af 97 3d c8 f4 69 bd
       0.019305574 0.034574743 0.074065685 -0.057118207
000120 72 a3 cb 3c 64 ba 02 3e 80 6b 5b bc b4 7d f1 3d
       0.02485821 0.12766415 -0.013392329 0.11791554
000130 47 ae be bd 20 2a 16 bc 56 ea ea 3d 35 60 c2 bd
       -0.093105845 -0.009165317 0.11470477 -0.09491006
000140 1c 37 d7 3c 40 b4 9f bd 16 3c 82 bb 20 e0 a3 bd
       0.026271395 -0.07798052 -0.003974448 -0.08001733
000150 1f ef 2f be 62 bb 5f bc 67 16 03 bc e2 c4 14 3e
       -0.17181061 -0.013655515 -0.008000947 0.1452823
000160 20 18 ba 3c d5 a5 ae bc 40 39 1c 3e 36 5a c4 bd
       0.022716582 -0.02131931 0.15256214 -0.09587519
000170 d6 b9 07 3d 26 2d 41 3d ef a3 a9 3d d7 45 bb 3c
       0.03313621 0.047162198 0.08283221 0.02286045
000180 84 12 d7 bd 3e 76 21 3e 01 2b da bd c9 29 20 be
       -0.105015785 0.15767762 -0.106527336 -0.1564094
000190 35 9a 65 3d 1a 32 59 3d b2 ed 17 3e 46 9c 2c 3d
       0.056055266 0.053026296 0.14836767 0.04214122
0001a0 ee 4f b4 3b 26 e8 3a 3b 29 3e 91 bd 5b aa 05 bd
       0.0055026924 0.002851972 -0.07091934 -0.032633167
0001b0 5c 57 30 be 1b 88 c6 3d f5 4e c5 bd 6f 1c ba 3d
       -0.17220825 0.09693929 -0.096342005 0.090874545
0001c0 fb 75 eb 3c ab 49 90 bc 67 89 19 3e ce 6e 20 be
       0.02874278 -0.017613253 0.14993821 -0.15667269
0001d0 7f 1c 2a bd 01 f1 e9 bd b8 f9 f0 bd 60 95 98 bc
       -0.041531082 -0.11422921 -0.1176638 -0.018625915
0001e0 95 99 0f 3e bc 64 cb bd c9 2a e2 bd 07 45 6c 3d
       0.1402343 -0.09931323 -0.11043317 0.057683017
0001f0 19 37 ec 3d 0a 37 ab 3d 27 be 77 bd 67 05 0a be
       0.115339465 0.08360107 -0.060484078 -0.13478623
000200 50 65 db bb 1f f9 10 be 62 a8 1a 3e 9e 49 f0 3d
       -0.006695427 -0.14157532 0.15103295 0.11732791
000210 d5 a7 73 3d cc ad 8a bc bb f6 a5 bd 17 1f 08 be
       0.05948623 -0.016928576 -0.08103701 -0.1329311
000220 f5 71 3d bd 3d 12 1a 3e 3d 87 0a bd 74 2c 1e be
       -0.046251256 0.1504602 -0.03382038 -0.15446645
000230 26 8e 1f be 7e a9 ee 3d 45 1a be 3b 93 c7 e0 3d
       -0.15581569 0.11653422 0.0058014714 0.10975566
000240 b5 ed 07 3e ab ef 49 bd 9e f7 18 3d 61 3a 0d be
       0.13274272 -0.04930083 0.03734552 -0.13791801
000250 f7 7a 00 be bd cd 43 bc 56 64 18 be 9d 67 f6 3d
       -0.12546907 -0.011950907 -0.14882025 0.120314814
000260 d5 7b 8f 3d 46 c5 95 bb 59 1b 84 bd 39 b2 b5 bd
       0.07006041 -0.004570636 -0.06450529 -0.08871884
000270 0d e8 16 3e ce 20 16 be c6 27 a4 bd 84 05 1b 3e
       0.14736958 -0.14660951 -0.08015399 0.15138823
000280 b2 40 be 3d a3 71 12 be 0c 56 01 be e6 b2 5b bd
       0.092896834 -0.14301161 -0.1263048 -0.053637408
000290 6b 75 86 bd 34 55 ec 3c e8 b0 19 be 14 c4 31 3e
       -0.065653645 0.028849222 -0.1500889 0.17359954
0002a0 ed 67 02 3e 6c 40 c4 3d d9 dc 5d bc bf 9e 33 be
       0.12734957 0.095826 -0.013541424 -0.17541026
0002b0 f9 a4 bc 3d bd 74 34 be 6d 6b c1 bd 0d bc fe bd
       0.092111535 -0.17622657 -0.09444318 -0.124382116
0002c0 88 78 65 3d 17 b4 89 3d b3 72 0b 3e ae 6d a6 bd
       0.05602315 0.067238025 0.13617973 -0.081263885
0002d0 f8 d8 28 3e 14 1a 0e 3c 69 ad 29 3e 9c c8 a4 bd
       0.16489017 0.00867321 0.16570057 -0.08046076
0002e0 7c c1 ac 3d 5f 03 65 bd 38 6a 29 3e f5 07 30 be
       0.08435342 -0.055911418 0.16544425 -0.17190535
0002f0 a7 9d d0 ba 5d d1 36 bd 4f db 3e bd 5d 1c eb 3d
       -0.0015916125 -0.044633258 -0.046595868 0.11480019
000300 46 a5 c4 3d 36 16 15 3e a3 8b 23 bd 4a 51 cb 3c
       0.09601836 0.14559254 -0.03992809 0.024819035
000310 97 5f 0b be 1e 3f 89 3d 91 99 06 3e 36 a1 04 bd
       -0.13610683 0.06701492 0.13144518 -0.032380305
000320 a3 a5 83 3d 4c 18 2a 3d 67 4d 94 3c 8f 32 00 3e
       0.06428077 0.041527078 0.018103315 0.12519287
000330 63 24 0c bc 12 a8 f4 bd d4 82 97 3d 56 2f 06 bc
       -0.008553597 -0.11946119 0.07398 -0.008189997
000340 e8 19 1e be 05 6a b5 3c 0f 59 d5 bd bf 1e 22 be
       -0.1543957 0.02214528 -0.10417377 -0.15832041
000350 26 dc 0f be a1 1a 12 3e bb b7 cb bd 02 3c b4 3d
       -0.14048824 0.1426797 -0.09947153 0.08800508
000360 7f 70 07 3d 97 6f 21 be 33 d2 00 bd 52 eb 13 be
       0.03306627 -0.15765224 -0.03145046 -0.14445236
000370 96 a4 62 bc 72 23 23 be be c7 01 3d 92 91 31 3e
       -0.013833186 -0.1593149 0.03168463 0.17340687
000380 d1 6d 0e 3e e4 fc 3f 3d 72 d6 0c bd ef 1d bf 3d
       0.13909079 0.046872035 -0.0343842 0.09331881
000390 75 b1 92 bd 50 05 c8 3c bc 26 1c be 20 b9 10 3e
       -0.071627535 0.024416596 -0.15249151 0.1413312
0003a0 36 a2 e8 bc 99 5d b2 3d 80 8a 4f bc 32 09 f8 3d
       -0.02839766 0.087092586 -0.012667298 0.12111129
0003b0 f4 a8 24 bd bd e2 9e 3d 27 3a 4b bd 35 5a e8 3d
       -0.04020019 0.07758091 -0.049616005 0.113453306
0003c0 76 ae 77 bd d4 13 16 bd cf 04 91 bd cd 41 22 3e
       -0.060469113 -0.036640003 -0.07080995 0.15845414
0003d0 37 a6 d4 bd bf 87 33 be 5b 3a 17 be ff be d0 3d
       -0.103832655 -0.17532252 -0.14768355 0.101926796
0003e0 1e b4 fe bd a2 5e 8f bd 1c 5b 13 be 1b 8c 6a bd
       -0.124366984 -0.07000472 -0.14390224 -0.05726252
0003f0 41 e8 c3 bb 14 87 db bc 43 88 0e 3e bf c2 cd 3d
       -0.0059786146 -0.026797809 0.13919167 0.100469105

SSM_blocks.0.W_E.bias f4 [32]
000000 9f d1 d5 bd 09 3d 82 bd 85 5e f4 3d db 3f ba 3d
       -0.10440373 -0.06359298 0.11932091 0.09094211
000010 10 ab b5 bd f0 07 05 3e c6 bf 9d bd a2 39 49 3d
       -0.08870518 0.12991309 -0.077025935 0.04912723
000020 97 a8 76 bd d4 2c cb bd 82 bc a7 bd 19 df dc 3d
       -0.060219374 -0.0992066 -0.08190252 0.1078474
000030 1c dd 0a 3d 24 5f e3 bd ab 2e 9a 3d fe 3f 4e 3d
       0.033902273 -0.11102131 0.075284325 0.050353996
000040 a4 a6 01 3d 58 f8 a1 bc 00 eb c6 3b e6 3d 31 3e
       0.03165306 -0.01977174 0.0060704947 0.17308769
000050 d7 98 0b 3e f9 f5 0b be ad a0 f9 3d 73 83 ae bc
       0.13632523 -0.1366805 0.121888496 -0.021302914
000060 cd 1a c0 3d bf 2b ef bd 65 28 16 be a7 9a bc 3d
       0.09380112 -0.11678266 -0.14663847 0.09209185
000070 0a 8f d6 3c 0d c7 35 3b b1 7a 83 bd 71 5b 15 3e
       0.026191253 0.0027737052 -0.06419886 0.14585663

SSM_blocks.0.W_F.weight f4 [32, 1]
000000 f4 4d e7 3e 0c d9 b3 3e c8 4d ec be 70 18 aa be
       0.4517666 0.3512653 -0.46153092 -0.3322177
000010 42 0a 28 bf f8 e2 cb be 02 9d 58 bf 80 5d 26 bc
       -0.6564065 -0.398216 -0.84614575 -0.010154128
000020 28 a6 7e 3e a6 a9 42 bf d0 63 47 bf 48 ac e0 be
       0.24868071 -0.7604011 -0.77886677 -0.4388144
000030 1a f8 1d bf ea e4 4b 3f f8 f3 6a be de 7d 77 bf
       -0.617067 0.7964617 -0.22944629 -0.96676433
000040 80 53 89 3d c0 d8 b5 3c 74 c4 f1 3e f4 e6 b3 be
       0.067053795 0.022198081 0.47220194 -0.3513714
000050 b6 c3 22 bf 26 bf 05 bf c8 72 5a bf f0 9c 1c 3f
       -0.6357988 -0.52244794 -0.8533139 0.6117697
000060 c0 5c 72 3d b8 a8 0b be 46 4f 13 bf c2 ba 3a bf
       0.059170485 -0.1363858 -0.57542837 -0.7294122
000070 d4 ae 4d 3f fc 1c 2f 3f 26 ea 5e bf c4 3f 3f bf
       0.8034489 0.684036 -0.8707603 -0.74706674

SSM_blocks.0.W_F.bias f4 [32]
000000 fc 8e cc be 9e e5 36 3f c4 a8 2c 3f 84 da b8 3e
       -0.39952838 0.7144412 0.67445016 0.36104214
000010 18 83 23 3e 3c 31 7c bf 30 a6 03 be 84 70 04 bf
       0.15967977 -0.98512626 -0.12856364 -0.51734185
000020 44 96 cf 3e dc e6 93 be 18 b6 43 be de 96 4f bf
       0.4054433 -0.2888707 -0.19112432 -0.8108958
000030 38 fe f2 be ac 52 30 bf 78 b9 2c 3f 96 6e 52 bf
       -0.4745958 -0.6887615 0.674705 -0.8219999
000040 c0 83 39 be ee 90 62 3f d0 12 04 bf 98 f6 19 bf
       -0.18116665 0.88502395 -0.51591206 -0.601419
000050 f8 16 05 be 00 b8 41 3f 10 f3 08 be e8 ac 3e be
       -0.12997043 0.75671387 -0.13373971 -0.18620646
000060 0c 75 f8 3e cc 4b 58 bf 56 91 2d 3f 18 b3 4d be
       0.485268 -0.84490657 0.6779989 -0.2008785
000070 ee 00 33 3f fc fd 79 bf 08 91 39 bf c0 49 00 be
       0.69923294 -0.97653174 -0.72486925 -0.12528133

W_C.weight f4 [1, 64]
000000 9d f4 e1 3d 94 49 42 bd d1 37 d7 3d 50 cc b5 3b
       0.110329844 -0.04743345 0.10508693 0.0055480376
000010 c5 b1 8d 3d 1b 3f 89 bd fe e0 d7 3d 60 d4 33 bd
       0.069186725 -0.067014895 0.10540961 -0.04390371
000020 54 29 ce 3b 35 37 98 3d 59 6c c0 bd 53 c6 b7 bc
       0.006291548 0.07432405 -0.09395666 -0.022433436
000030 00 92 40 3d 22 62 c2 bd 32 95 88 bd 31 50 e3 bc
       0.047014236 -0.094913736 -0.06669082 -0.0277482
000040 18 25 38 3d 56 1b ae bd 2c 2d ac 3d 96 fe 85 3d
       0.04495725 -0.08501308 0.08407053 0.06542699
000050 fc f2 c6 bc a4 05 4c bc ae 28 86 3d 99 2f b9 3d
       -0.024285786 -0.012452517 0.06550728 0.09042282
000060 6f 72 ad 3d 39 85 6e 3d e6 ab bd bd c3 79 25 bb
       0.08469092 0.05823252 -0.09261303 -0.0025249578
000070 26 65 b4 bd a7 3c 69 3d 99 a2 a5 bd 41 48 07 bd
       -0.08808355 0.05694261 -0.08087654 -0.03302789
000080 de 2d b7 3d 0f ea df bd 9d 68 10 bb ba 8e 8e 3b
       0.08944295 -0.10933315 -0.002203501 0.0043505104
000090 95 0d cf 3d 2d 80 f6 bc 96 f2 ad bd 29 cd eb 3c
       0.101100124 -0.030090416 -0.08493535 0.028784351
0000a0 96 06 af bd c9 a8 2a 3c 25 19 9c 3d 4e a7 b6 3c
       -0.08546178 0.010416218 0.076219834 0.022296574
0000b0 31 55 05 bd c1 91 e6 3d ac 60 64 3d d3 73 fe 3c
       -0.032551948 0.11258269 0.055756256 0.031061089
0000c0 32 fe ee 3d 91 21 0c 3b 9f 21 e2 3c 5b 20 22 bc
       0.11669578 0.0021382312 0.027603922 -0.009895409
0000d0 ec 93 8d 3d 5b 3f 05 bd bf ce 85 bd 70 b7 f0 3c
       0.069129795 -0.032531124 -0.06533574 0.029384345
0000e0 fa d3 60 bd a2 71 83 3d 22 13 6f bc 5b b9 a9 3d
       -0.054889657 0.06418158 -0.014591964 0.08287307
0000f0 db 16 11 39 ac d3 13 bd 0a 84 b6 3d 6e c5 e1 3d
       0.00013836792 -0.036090538 0.08911903 0.11023985

W_J.weight f4 [1, 32]
000000 b9 26 34 be 0c 7f 21 3d 54 28 a4 3d b1 64 14 3e
       -0.17592897 0.039427802 0.080155045 0.14491536
000010 b7 93 19 3e 90 45 a4 3d 8b 11 0a 3d 28 72 ce 3d
       0.14997755 0.080210805 0.033708137 0.10080367
000020 08 7c 32 be b3 36 e8 3d 49 92 15 3e 50 90 92 3d
       -0.17430127 0.11338558 0.14606585 0.07156432
000030 f4 3a ec 3d fe 83 6c bd 46 e7 fc 3c 78 c0 c3 bd
       0.11534682 -0.057743065 0.030871999 -0.09558195
000040 7e e8 ee 3d cd 2a 66 3d 26 96 1e 3e 68 9a ae bd
       0.11665438 0.05619316 0.15486965 -0.085255444
000050 ce 13 d8 3d 3d 17 13 be e4 d3 fe 3d 37 c9 0d be
       0.105506524 -0.14364333 0.12442759 -0.13846289
000060 0f b0 1f bd 80 03 96 3d 0b ff 0d 3e 21 49 9c bd
       -0.038986262 0.07324886 0.13866822 -0.07631136
000070 66 4b d4 3d 43 ce 65 3d d2 bc 01 be 95 d5 c9 3c
       0.103659436 0.05610491 -0.12669685 0.024637977
