weight/best_BELGIUM_model.pth (torch, 28517 bytes, 12 tensors)

SSM_blocks.0.W_bh f4 [64]
0	0xbcf93757	-0.030421896
1	0xbcab51d4	-0.020913042
2	0xbb98e94c	-0.004666483
3	0x3c31288c	0.01081289
4	0x3ad970e7	0.0016589434
5	0x3b0400b9	0.0020142032
6	0x3c6269b9	0.013819152
7	0x3a5c841f	0.00084120216
8	0xbc821ed8	-0.015883848
9	0x3bc1b4bd	0.0059114383
10	0xbc5a3ecd	-0.013320637
11	0x3ccd4087	0.025055183
12	0xbbbc59d6	-0.005748014
13	0x37b8d885	2.2035334e-05
14	0xbb4d23e7	-0.0031301917
15	0xbc4e59d7	-0.012594662
16	0xbc24c40a	-0.010056505
17	0xbd03ce6b	-0.032179277
18	0xbc6d32c0	-0.014477432
19	0xbbd4cb98	-0.006493997
20	0xbc8664d5	-0.016405502
21	0xbc2b3100	-0.010448694
22	0x3bf39552	0.007433572
23	0xbc4d7b7b	-0.012541647
24	0xbca8fa32	-0.020627115
25	0x3c0903f5	0.00836276
26	0xbbc5722a	-0.0060255723
27	0x3c4184c3	0.011811438
28	0xbb97aa4b	-0.004628455
29	0x3b55ab84	0.0032603452
30	0xb9a65502	-0.00031725323
31	0x3bb3ced9	0.0054873046
32	0xb9c757fe	-0.00038021797
33	0xb99e165b	-0.00030152765
34	0xb9a8ec67	-0.0003221959
35	0x3c1b2d65	0.009471272
36	0xbca6446b	-0.020296296
37	0x3b8b1385	0.0042442703
38	0x3a8b5d1e	0.001063261
39	0x3c9fabcb	0.019491097
40	0xbcd92dfa	-0.026511181
41	0xbc562519	-0.013070368
42	0x3cce919c	0.025215916
43	0xbc41745c	-0.011807527
44	0xbb125a91	-0.0022331814
45	0x3b316d3e	0.002707317
46	0x3c6ee8c6	0.014581865
47	0xbb9c0cd9	-0.0047622737
48	0xbbfb14b6	-0.007662381
49	0x3ad80a6f	0.0016482602
50	0x3c2f1f4a	0.010688612
51	0x3c139628	0.009007968
52	0x3ab852b5	0.0014062735
53	0xbc55cf02	-0.013049843
54	0xbc33a7e0	-0.0109653175
55	0xbb20f313	-0.0024558946
56	0x3a18a8cc	0.00058234925
57	0x3b614161	0.0034371244
58	0x3a4eda6d	0.00078908243
59	0x3c1bac3a	0.009501511
60	0xbb272cdd	-0.0025508918
61	0x3b3d1e26	0.0028857081
62	0x3a793288	0.0009506126
63	0xbce11603	-0.027476316

SSM_blocks.0.W_bg f4 [32]
0	0x00000000	0.0
1	0x00000000	0.0
2	0x00000000	0.0
3	0x00000000	0.0
4	0x00000000	0.0
5	0x00000000	0.0
6	0x00000000	0.0
7	0x00000000	0.0
8	0x00000000	0.0
9	0x00000000	0.0
10	0x00000000	0.0
11	0x00000000	0.0
12	0x00000000	0.0
13	0x00000000	0.0
14	0x00000000	0.0
15	0x00000000	0.0
16	0x00000000	0.0
17	0x00000000	0.0
18	0x00000000	0.0
19	0x00000000	0.0
20	0x00000000	0.0
21	0x00000000	0.0
22	0x00000000	0.0
23	0x00000000	0.0
24	0x00000000	0.0
25	0x00000000	0.0
26	0x00000000	0.0
27	0x00000000	0.0
28	0x00000000	0.0
29	0x00000000	0.0
30	0x00000000	0.0
31	0x00000000	0.0

SSM_blocks.0.W_A.weight f4 [64, 64]
0	0x3bfb939e	0.0076775094
1	0xbe422159	-0.18958034
2	0xbe815c27	-0.2526562
3	0x3e5b0d6d	0.2139184
4	0x3deedbf6	0.11663048
5	0x3da99fa6	0.08282404
6	0x3da15ecb	0.078794084
7	0x3df6a265	0.12042693
8	0x3d700906	0.058602355
9	0x3d2823f7	0.041049924
10	0x3dcb5455	0.099281944
11	0x3dadcfc1	0.084868915
12	0x3e84438b	0.2583278
13	0x3c1d018d	0.009582889
14	0x3d3c3de4	0.04595746
15	0xbcf03983	-0.029324299
16	0xbb4a8d1f	-0.0030906869
17	0x3db08a36	0.08620112
18	0xbc1aefe5	-0.009456609
19	0x3d0560bb	0.032562952
20	0xbe164051	-0.14672972
21	0xbe371dfc	-0.17882532
22	0x3d7343cf	0.05939084
23	0x3d04ee9b	0.032454114
24	0xbbc22e93	-0.0059259622
25	0xbe1c9d44	-0.15294367
26	0xbd092f69	-0.03349248
27	0x3d850953	0.06495919
28	0xbe0082d9	-0.12549914
29	0x3d469a7f	0.048487183
30	0x3d5ece61	0.054396037
31	0x3e22cac4	0.15897661
32	0xbd2fd6a7	-0.042929318
33	0x3d3d32e2	0.046191104
34	0xbdd1059e	-0.102061495
35	0x3dd47c74	0.103753
36	0x3d0c7cfb	0.03429888
37	0xbcb9f57d	-0.022700066
38	0x3dfdfee3	0.124021314
39	0x3e0dc0d8	0.13843095
40	0x3dbc0664	0.091809064
41	0x3d49adf9	0.04923818
42	0xbca005c6	-0.019534003
43	0xbe839a9f	-0.25703904
44	0xbd34b526	-0.04411807
45	0xbd01c426	-0.031681202
46	0xbd8e650c	-0.06952867
47	0xbe1fb563	-0.15596537
48	0xbc627e29	-0.013824024
49	0xbd5c3c56	-0.05376848
50	0x3b0270f3	0.0019903749
51	0x3e46c546	0.19411191
52	0x3d329765	0.043601412
53	0xbdf4d73e	-0.11955117
54	0x3dbf558e	0.0934249
55	0xbc560df3	-0.013064849
56	0xbe9acb6b	-0.3023332
57	0xbd8324b9	-0.06403489
58	0x3c29ac82	0.0103560705
59	0xbdde5f83	-0.10858061
60	0xbacecdd6	-0.0015777897
61	0x3e66d0dd	0.22540613
62	0x3e3b2182	0.18274501
63	0xbdb871d2	-0.090060845
64	0x3bc748a0	0.0060816556
65	0xbde8f29e	-0.113744006
66	0xbd13d009	-0.03608707
67	0xbcdf0a52	-0.0272266
68	0xbde2f31e	-0.11081527
69	0x3dd75dbd	0.10515926
70	0xbdaabbe6	-0.0833662
71	0x3c06e411	0.008233086
72	0xbe11ea34	-0.14249498
73	0xba42d4bb	-0.0007432212
74	0x3ce40b5d	0.02783745
75	0x3c802589	0.015642898
76	0xbdee89bf	-0.11647367
77	0x3d8dda7c	0.06926438
78	0x3da50e84	0.08059409
79	0xbde27368	-0.11057168
80	0xbdb2a501	-0.08722878
81	0xbdd801de	-0.10547231
82	0x3bb04fb2	0.005380594
83	0x3da280e2	0.07934739
84	0xbd7e0ef1	-0.062025968
85	0x3db740ab	0.08947881
86	0xbbb4322b	-0.0054991446
87	0xbe104224	-0.1408773
88	0xbbffb650	-0.0078037158
89	0xbcd52d59	-0.0260226
90	0x3d596273	0.053072404
91	0x3daaaa6d	0.083332874
92	0x3dcbdb05	0.09953884
93	0x3b473c57	0.0030400956
94	0x3cd1423d	0.02554428
95	0x3d5a83c9	0.053348336
96	0xbe06ad1b	-0.13151972
97	0x3dc5436f	0.096320026
98	0x3d226f84	0.03965713
99	0x3dac1081	0.08401585
100	0xbceb8375	-0.028749207
101	0x3c53e761	0.012933583
102	0x3d367c84	0.04455234
103	0xbd138da0	-0.036023736
104	0x3d7575b5	0.059926707
105	0x3d777b46	0.060420297
106	0xbd16bfa1	-0.036803845
107	0xbde869fa	-0.113483384
108	0xbdd7dc86	-0.105401084
109	0xbdda639c	-0.1066353
110	0x3ca2861f	0.019839345
111	0xbcde693f	-0.027149795
112	0xbd075d75	-0.033048112
113	0x3ddaac2c	0.106773704
114	0xbd753b14	-0.059870794
115	0xbdc15a60	-0.09441066
116	0xbdd0a684	-0.1018801
117	0xbe0196cc	-0.1265518
118	0xbcefe1ad	-0.029282415
119	0x3cf51254	0.029915966
120	0x3d859336	0.06522219
121	0x3e214bb4	0.15751535
122	0xbbf02cfc	-0.0073295813
123	0x3d759ad8	0.059962124
124	0x3de17ccb	0.110101305
125	0x3d84d48c	0.064858526
126	0xbe0152c5	-0.1262923
127	0x3d1610bc	0.036637053
128	0x3d17da82	0.03707362
129	0xbd61d054	-0.055130318
130	0x3d9c265b	0.07624503
131	0x3be64059	0.007026714
132	0xbd77742b	-0.06041352
133	0x3c9ba371	0.018998833
134	0x3d9c192a	0.07621987
135	0x3deb4bab	0.11489042
136	0xbd93ac1e	-0.07210563
137	0xbd892acc	-0.06697616
138	0x3c645eb2	0.013938593
139	0xbd9f15c2	-0.07767822
140	0x3b078fc2	0.0020685052
141	0x3d8cd531	0.068766005
142	0xbd5dee9b	-0.05418263
143	0x3c82c1c1	0.01596153
144	0x3d1ff8c6	0.03905561
145	0x3df42510	0.119211316
146	0xbcd5ce5c	-0.026099376
147	0x3d622450	0.05521041
148	0xbd657e1b	-0.056028467
149	0xbce5ff8f	-0.028075961
150	0x3d9e0037	0.07714885
151	0xbb51dd92	-0.0032022935
152	0x3d2029cf	0.03910237
153	0xbdd1bf16	-0.10241525
154	0xbd8c10c7	-0.068391375
155	0xbdd9fc99	-0.10643882
156	0x3d86e186	0.06585984
157	0x3cb2cfd9	0.021827625
158	0x3d1a59dd	0.037683357
159	0xbd04d020	-0.032425046
160	0xbd515352	-0.05110485
161	0xbd1eb435	-0.038746078
162	0x3da88f9a	0.08230515
163	0xbdd6da41	-0.104908474
164	0xbd0bc577	-0.034123864
165	0x3debb51b	0.115091525
166	0xbe20aa55	-0.15689977
167	0xbdc12dc3	-0.094325565
168	0x3df8793a	0.12132497
169	0xbcd8b90c	-0.026455425
170	0xbd2bd690	-0.04195267
171	0x3cb95b1e	0.022626456
172	0xbd99cf9f	-0.07510304
173	0xbd8b4840	-0.0680089
174	0xbdd8e8b0	-0.105912566
175	0x3d47b141	0.048753027
176	0xbd89e80e	-0.06733714
177	0xbe008f33	-0.12554626
178	0xbd736d9c	-0.059430704
179	0xbe17882d	-0.1479804
180	0xbde70c8f	-0.11281692
181	0x3d8180f6	0.063234255
182	0xbc7744b4	-0.015092064
183	0xbd6b8a94	-0.057505205
184	0xbc4eac72	-0.012614356
185	0x3c0dbbc1	0.008650721
186	0x3d3de357	0.046359386
187	0x3cb13aa8	0.021634415
188	0x3da887ff	0.08229064
189	0xbda1cb01	-0.07900048
190	0xbdfdee91	-0.123990186
191	0xbdd1e89c	-0.10249445
192	0xbe1f13ce	-0.15534899
193	0xbd869331	-0.06571043
194	0x3e2ff433	0.17182998
195	0x3ab66901	0.0013916792
196	0xbdb49ce0	-0.08818984
197	0x3d2a2b50	0.041545212
198	0xbcef367b	-0.029200783
199	0xbd2e4c35	-0.042553145
200	0xbce07d0f	-0.027403383
201	0xbc4b5f5b	-0.012412871
202	0xbd297ce5	-0.041378874
203	0xbc04fd70	-0.008117065
204	0xbb288c38	-0.0025718343
205	0xbe006e78	-0.1254214
206	0xbd83b413	-0.06430831
207	0xbdae5304	-0.08511928
208	0x3ddc406f	0.10754477
209	0xbdbb4a2c	-0.091450065
210	0x3de56968	0.11201745
211	0x3cfd9ad3	0.030957615
212	0x3d85a1a0	0.06524968
213	0x3dba0ad1	0.09084094
214	0x3db6ed4f	0.08931982
215	0x3ca487e6	0.020084333
216	0xbdbe5a91	-0.09294618
217	0xbdc8bee5	-0.09802035
218	0xbd9a7258	-0.075413406
219	0x3de3e7de	0.111282095
220	0x3df2b1cb	0.118503176
221	0xbd0efcdb	-0.03490911
222	0x3dbf353c	0.093363255
223	0xbcdbde31	-0.026839348
224	0xbd305557	-0.043050136
225	0xbca23b76	-0.019803744
226	0x3ca833f0	0.020532578
227	0xbd8c47a8	-0.06849605
228	0xbdccf8c1	-0.100083835
229	0xbd6ed310	-0.058306754
230	0xbcc47262	-0.023980323
231	0x3d9f81cf	0.07788431
232	0x3ca5ac34	0.020223714
233	0x3d9d5adc	0.07683346
234	0xbd31da70	-0.04342121
235	0xbd192831	-0.037391845
236	0x3c5dc0a0	0.013534695
237	0xbe05d293	-0.13068609
238	0xbe05cf0c	-0.13067263
239	0xbd1f159b	-0.038838964
240	0x3d9c3ba9	0.07628567
241	0x3bf8d128	0.0075932927
242	0x3d958665	0.07301024
243	0xbd90381b	-0.07041951
244	0xbc60cd2e	-0.013720794
245	0x389dd9a0	7.526879e-05
246	0xbd5a6552	-0.053319283
247	0x3daa8be7	0.083274655
248	0xbd57a4b4	-0.052647308
249	0x3d0e080e	0.03467565
250	0xbc7d9a34	-0.015478659
251	0xbdfba182	-0.122866645
252	0xbd1eb83c	-0.03874992
253	0x3dc33b39	0.0953278
254	0x3dd66429	0.10468323
255	0xbd88838a	-0.06665714

SSM_blocks.0.W_A.bias f4 [64]
0	0xbddd4981	-0.108050354
1	0xbe11f6b3	-0.14254265
2	0x3d24034c	0.040042207
3	0xbdb06cc9	-0.08614499
4	0x3dc180ab	0.094483696
5	0x3da6afea	0.08139022
6	0x3de144f7	0.10999482
7	0xbd82855b	-0.06373092
8	0x3d60872b	0.054816406
9	0x3de1f4b7	0.11033004
10	0xbda5a3a5	-0.08087853
11	0xbdae9a61	-0.08525539
12	0xbdfe52c2	-0.124181286
13	0x3ca3f2b3	0.020013189
14	0x3d2c8ac7	0.042124536
15	0x3d88cd88	0.06679827
16	0x3d8cc5e8	0.06873685
17	0xbd24a066	-0.04019203
18	0xbb197e78	-0.0023421329
19	0x3dcef6ee	0.10105692
20	0x3db99cd4	0.09063116
21	0xbd3af4fc	-0.04564379
22	0x3d4068cd	0.046974946
23	0x3d9f0b3e	0.07765816
24	0xbd777573	-0.060414743
25	0x3d0e0587	0.03467324
26	0x3ddb7611	0.10715879
27	0x3d70df42	0.058806665
28	0x3dac6208	0.084171355
29	0x3cf99910	0.030468494
30	0x3d1403e6	0.03613653
31	0x3ddddae7	0.10832768
32	0xbd619b29	-0.055079613
33	0x3dc11e30	0.09429586
34	0x3dbfcc64	0.09365156
35	0x3dd49b97	0.10381239
36	0x3dcea115	0.10089318
37	0xbd358b86	-0.044322513
38	0x3dedb0f0	0.11606014
39	0xbc5465af	-0.012963696
40	0x3d950bd2	0.07277645
41	0x3c07daf5	0.0082919495
42	0x3dd1e0e6	0.10247974
43	0xbb8e7f39	-0.004348662
44	0xbcd9391a	-0.026516486
45	0xbda7a4be	-0.08185719
46	0x3d132785	0.03592636
47	0x3dcd724f	0.10031568
48	0xbd92451f	-0.0714209
49	0x3d979293	0.07401004
50	0xbdc65745	-0.09684614
51	0xbdec8937	-0.11549609
52	0x3d8e200f	0.069397084
53	0xbc9e35f7	-0.019312842
54	0x3d775505	0.060383815
55	0xbd39acd6	-0.045330845
56	0x3dfce5b2	0.123484984
57	0xbd91c7a3	-0.07118156
58	0x3d3006bd	0.042975176
59	0xbdd434eb	-0.10361656
60	0xbdc23c30	-0.09484136
61	0x3dffc01f	0.12487816
62	0x3d9b7a37	0.0759167
63	0xbdc893ea	-0.09793837

SSM_blocks.0.W_B.weight f4 [64, 1]
0	0xbef6150e	-0.48062938
1	0xbf2f6360	-0.6851101
2	0x3f6b1fb8	0.91845274
3	0x3ee155b3	0.44010696
4	0xbde5d120	-0.11221528
5	0x3ef4201b	0.47680745
6	0x3e11b795	0.14230187
7	0x3f628f9b	0.88500375
8	0x3ee3859d	0.44437876
9	0xbe0c3e77	-0.13695703
10	0xbf1d9daa	-0.615687
11	0x3edd6317	0.43239662
12	0xbef55818	-0.47918773
13	0xbebe21c7	-0.37135145
14	0xbf5d75c2	-0.8650781
15	0xbf62d04d	-0.8859909
16	0xbf181c37	-0.5941805
17	0xbe37ab53	-0.17936449
18	0x3e9cd10e	0.30628246
19	0xbe4ee1d0	-0.20203328
20	0xbecea930	-0.40363455
21	0xbf3e2177	-0.74269813
22	0x3f7f76e3	0.9979078
23	0xbf03be52	-0.5146228
24	0xbf69f47f	-0.91388696
25	0xbe326052	-0.17419556
26	0xbf399e47	-0.7250714
27	0x3ef83ccd	0.48483887
28	0xbf0f18eb	-0.55897397
29	0x3f22c61a	0.6358353
30	0x3b980478	0.0046392046
31	0x3f0a9a91	0.541421
32	0xbe18d964	-0.14926678
33	0x3f04bf9e	0.51854885
34	0x3f03d791	0.51500803
35	0x3eda5300	0.4264145
36	0xbf543d09	-0.8290563
37	0x3d0e434b	0.034732144
38	0xbeb26a54	-0.34846747
39	0x3f352272	0.70755684
40	0xbc99e055	-0.018783728
41	0xbe5807c9	-0.2109672
42	0xbed29a99	-0.41133574
43	0x3da95c76	0.08269589
44	0xbf324622	-0.69638264
45	0xbf075033	-0.5285675
46	0x3f4a753f	0.79085153
47	0xbf0b01ba	-0.5429951
48	0x3f3a1820	0.7269306
49	0xbe253ec1	-0.1613722
50	0x3e78d440	0.24299717
51	0x3f703df0	0.9384451
52	0xbe05cd18	-0.13066518
53	0xbf536972	-0.8258277
54	0xbeded55d	-0.43522158
55	0x3eb1fd5c	0.3476361
56	0x3f1dd904	0.61659265
57	0x3f33ed7b	0.7028424
58	0x3e2939e7	0.16525994
59	0x3eac4b97	0.3365142
60	0x3e530b64	0.20609814
61	0x3f373ab8	0.7157397
62	0x3eda228f	0.4260449
63	0xbf4c835b	-0.7988793

SSM_blocks.0.W_B.bias f4 [64]
0	0xbe1c3760	-0.15255499
1	0x3f6e63ce	0.9312104
2	0x3f79e253	0.9761097
3	0x3f20b6e7	0.62779087
4	0x3f26fdc3	0.6523096
5	0x3dbd8af0	0.09255016
6	0xbee91e41	-0.45530894
7	0xbf61329c	-0.8796785
8	0x3f5e3f28	0.8681512
9	0xbe2aff22	-0.16698888
10	0x3e41028c	0.18848628
11	0xbca86e43	-0.02056039
12	0xbf2d6e30	-0.6774626
13	0xbee1e3a1	-0.4411898
14	0xbe3f296e	-0.18668148
15	0x3d480bb9	0.048839305
16	0xbed99dbc	-0.42503154
17	0x3f32da49	0.69864327
18	0x3ec81936	0.39081734
19	0xbf01ee2d	-0.5075405
20	0x3eb2bba4	0.34908783
21	0xbda38fae	-0.07986389
22	0x3e8b434b	0.27199778
23	0x3f3c52ab	0.7356364
24	0x3ee87761	0.4540358
25	0xbf0b991c	-0.545305
26	0xbe6a905d	-0.22906633
27	0xbe59bde0	-0.21263838
28	0xbe278842	-0.16360572
29	0xbe08a8f2	-0.13345698
30	0x3f28324d	0.6570175
31	0x3eb863ce	0.36013645
32	0xbe4a975e	-0.19784304
33	0xbef57eb8	-0.4794824
34	0xbf6530c3	-0.8952753
35	0xbf085a3a	-0.53262675
36	0xbd147a01	-0.036249164
37	0x3e7ed654	0.24886447
38	0xbf4a46b3	-0.7901413
39	0xbd49d2a7	-0.04927316
40	0x3f238451	0.63873774
41	0x3f4bfbbb	0.79680985
42	0xbf44f3aa	-0.769343
43	0x3f6e5470	0.9309759
44	0x3ee8508b	0.4537395
45	0x3f04a247	0.51810116
46	0xbf7a5968	-0.97792673
47	0xbf1f3bac	-0.6220043
48	0x3f4f50df	0.80982774
49	0x3d1ff86f	0.039055284
50	0x3e4be5af	0.19911836
51	0x3ec45b0d	0.38350716
52	0x3f7aff78	0.98046064
53	0xbead289a	-0.3382004
54	0xbe047697	-0.12935863
55	0xbf592e56	-0.8483633
56	0x3e9dc313	0.30812892
57	0x3f4ffef1	0.81248385
58	0x3f6fb730	0.93638897
59	0xbf38515f	-0.7199916
60	0xbf57154a	-0.8401686
61	0x3e8b7f67	0.27245638
62	0xbe0fa904	-0.14029318
63	0x3f01ef31	0.507556

SSM_blocks.0.W_E.weight f4 [32, 32]
0	0xbe2b0ee5	-0.167049
1	0xbd38f549	-0.045155797
2	0x3cdad100	0.026710987
3	0x3e1000a3	0.14062743
4	0xbd11a3d1	-0.035556618
5	0x3deee643	0.11665013
6	0xbe01278d	-0.12612744
7	0x3ddbb020	0.107269526
8	0x3c253781	0.010084034
9	0xbde69f1e	-0.11260818
10	0xbe2e130e	-0.16999456
11	0xbdbf09a6	-0.09328012
12	0xbc8b021f	-0.016968785
13	0x3d89078b	0.06690892
14	0xbda55b61	-0.0807407
15	0x3e2b17eb	0.16708343
16	0xbe2af8d6	-0.16696486
17	0x3ddb9c3a	0.10723157
18	0x3ded1df5	0.115779795
19	0xbdde006d	-0.10839925
20	0xbce9983e	-0.028514978
21	0xbdfbb1d3	-0.12289777
22	0xbde4c974	-0.11171237
23	0xbcb74e7a	-0.022376288
24	0xbde662df	-0.11249327
25	0x3d104f80	0.035232067
26	0x3c5926ca	0.013253877
27	0x3ac2e8fd	0.0014870461
28	0x3de9af0b	0.1141034
29	0x3cee5192	0.02909163
30	0x3d095ea7	0.033537533
31	0xbe0e4e5d	-0.1389708
32	0x3df23ce6	0.11828022
33	0x3d3d1082	0.04615832
34	0x3da84faf	0.082183234
35	0xbe30a57d	-0.17250629
36	0xbe2cf4c8	-0.16890252
37	0x3d246bb9	0.040141795
38	0x3d184a4a	0.037180223
39	0xbce6eb19	-0.028188275
40	0xbc2aaa73	-0.010416615
41	0x3e12ddfd	0.14342494
42	0xbdec8c04	-0.11550143
43	0x3dad6610	0.084667325
44	0x3cc9f1d0	0.024651438
45	0x3d36d1fc	0.04463385
46	0xbdcd254b	-0.10016879
47	0x3d4e828d	0.05041747
48	0xbe2b2b04	-0.16715628
49	0xbe003485	-0.12520035
50	0xbdc19630	-0.09452474
51	0x3dcc12e2	0.09964539
52	0x3df0be2d	0.11755023
53	0xbba25ccc	-0.00495491
54	0x3e0205d2	0.12697533
55	0xbe117926	-0.1420637
56	0xbc77c5dd	-0.015122858
57	0xbe23016d	-0.15918513
58	0x3d981df6	0.074275896
59	0x3d4ba515	0.04971798
60	0xbe132757	-0.14370476
61	0xbc2aa360	-0.010414928
62	0x3da2d866	0.07951431
63	0x3c2d4cc3	0.010577383
64	0xbdb80ded	-0.08987031
65	0xbd15e983	-0.036599647
66	0xbe34e188	-0.17664158
67	0x3e30aec9	0.17254175
68	0x3a49e26f	0.0007701283
69	0xbde02a8b	-0.109456144
70	0x3e0207ea	0.12698331
71	0x3d5f4f87	0.054519203
72	0xbd294f75	-0.04133554
73	0x3ab7ba9f	0.0014017409
74	0xbbde7442	-0.0067887614
75	0xbd554fe9	-0.05207816
76	0xbd7d6c13	-0.061870646
77	0xbb939320	-0.0045036227
78	0x3d647489	0.0557752
79	0x3e13dd92	0.14439991
80	0xbcca55d3	-0.024699127
81	0x3d922fe1	0.071380384
82	0x3ce2a1fa	0.027665127
83	0xbde909a3	-0.11378791
84	0xbdcdfdd6	-0.10058181
85	0x3db403a4	0.08789757
86	0x3d2e0595	0.042485792
87	0xbd2702b4	-0.040774062
88	0x3e0f5eef	0.14001058
89	0xbe018350	-0.12647748
90	0xbd989075	-0.07449428
91	0xbde3f911	-0.1113149
92	0x3d79c5da	0.0609797
93	0xbe267745	-0.16256435
94	0x3c87d4f3	0.016581034
95	0xbbfcb506	-0.0077120094
96	0xbc13bb9b	-0.009016897
97	0xbde3fefe	-0.1113262
98	0xbdff33c0	-0.124610424
99	0xbe0fca4f	-0.14042018
100	0xbde78e71	-0.113064654
101	0x3dc54d74	0.09633914
102	0xbdd44a34	-0.103657156
103	0xbe18c66f	-0.14919446
104	0x3e159186	0.14606294
105	0xbc9c0eea	-0.01905008
106	0x3d61e550	0.05515033
107	0x3ddb40b0	0.107056975
108	0xbdf11721	-0.117719896
109	0x3d6e844e	0.058231644
110	0xbd483a91	-0.04888398
111	0x3d35ff1c	0.044432744
112	0x3d85ce5d	0.06533501
113	0xbd9931fa	-0.074802354
114	0xbd6393eb	-0.055560987
115	0x3e2e887c	0.17044252
116	0xbd311a40	-0.043237925
117	0x3b888a96	0.0041669114
118	0x3e0ddd29	0.13853897
119	0x3d0985fc	0.033575043
120	0x3dab4187	0.08362108
121	0x3cac41eb	0.021027526
122	0xbd843cf2	-0.06456937
123	0x3df3f803	0.11912539
124	0xbc8680b2	-0.016418789
125	0x3e1d3c40	0.15355015
126	0x3c27fead	0.0102535905
127	0xbdf194af	-0.11795937
128	0xbd6c1141	-0.057633642
129	0x3d6f678d	0.058448363
130	0xbcace95f	-0.021107374
131	0x3bcb2759	0.006199759
132	0x3d0185f6	0.031621896
133	0xbce86f9c	-0.028373532
134	0xbd9d0fa9	-0.076690026
135	0x3c706244	0.014671866
136	0xbd70af68	-0.05876103
137	0x3db7f196	0.08981626
138	0x3db23ccb	0.087030016
139	0xbc35bc2e	-0.011092229
140	0x3e20a6df	0.15688656
141	0x3d07833c	0.03308414
142	0xbd0f39c9	-0.034967218
143	0xbd987e92	-0.07446016
144	0x3ad24a29	0.001604383
145	0x3e130d90	0.14360642
146	0x3e046b25	0.12931497
147	0x3c56dc6c	0.013114076
148	0x3d7a3281	0.06108332
149	0xbe0cdf06	-0.13756952
150	0x3be8b783	0.0071019544
151	0xbe088b04	-0.1333428
152	0xbdf30275	-0.11865703
153	0xbd3c9672	-0.046041913
154	0xbe327919	-0.17429008
155	0xbd223834	-0.03960438
156	0xbd686a9d	-0.0567423
157	0xbdf68213	-0.120365284
158	0xbe1eea48	-0.15519059
159	0x3cc3d732	0.023906324
160	0x3e0df88e	0.13864347
161	0x3db32e48	0.08749062
162	0xbe040031	-0.12890698
163	0x3d93bdce	0.07213937
164	0x3d490ab9	0.04908249
165	0xbe0f7214	-0.14008361
166	0x3da1ee33	0.07906761
167	0x3dd8e499	0.105904765
168	0xbd0cae90	-0.034346163
169	0x3e06c30e	0.13160345
170	0x3da6af27	0.081388764
171	0x3dff2b60	0.12459445
172	0x3e10ec6e	0.14152691
173	0x3e1fae3b	0.15593807
174	0xbe1edc0f	-0.15513633
175	0x3e06ac65	0.13151701
176	0x3e1351ad	0.14386626
177	0x3d969a6c	0.073536724
178	0x3e2724db	0.16322653
179	0xbe078cce	-0.13237306
180	0x3d53b95e	0.05169045
181	0x3e03c7ec	0.12869233
182	0x3dd6ef70	0.10494888
183	0xbe28f62e	-0.1650016
184	0xbde699e7	-0.11259823
185	0x3d63b1b5	0.055589397
186	0xbe10dba4	-0.14146286
187	0x3d90cba4	0.07070091
188	0xbba9c9da	-0.0051815333
189	0xbd869d01	-0.06572915
190	0x3deaa15f	0.1145656
191	0x3e04d950	0.12973523
192	0x3b25f792	0.0025324565
193	0x3e1ae303	0.1512566
194	0x3c4b7f4c	0.012420487
195	0xbe2b2ba5	-0.16715868
196	0xbdf0c526	-0.11756353
197	0xbd5b0608	-0.05347255
198	0x3b69d803	0.0035681732
199	0xbc609bfa	-0.013709063
200	0x3e29a984	0.16568571
201	0x3d215621	0.03938878
202	0xbd265f57	-0.040618267
203	0xbdbfc4ca	-0.093637064
204	0xbdadcaa9	-0.0848592
205	0xbdb362ac	-0.087590545
206	0xbe1ff0a7	-0.15619145
207	0xbdfaac9d	-0.122399546
208	0xbc20d854	-0.009817202
209	0x3dcc7c16	0.09984605
210	0xbe306374	-0.17225438
211	0xbe2c2cec	-0.16814011
212	0x3da83c70	0.082146525
213	0x3c5ffaab	0.013670604
214	0x3cdd1cf5	0.026991347
215	0x3a7520e6	0.00093509105
216	0xbe0ab538	-0.13545692
217	0x3c674cdb	0.014117445
218	0x3dc3d1f8	0.09561533
219	0xbe1190e1	-0.14215423
220	0x3e0edc8a	0.13951316
221	0xbd4637f8	-0.04839322
222	0xbd82e907	-0.06392103
223	0xbd9f44c8	-0.07776791
224	0xbdbb6025	-0.091491975
225	0xbb0f8c57	-0.0021903717
226	0xbe0cf799	-0.13766326
227	0x3e0e08eb	0.1387059
228	0xbde848f3	-0.11342039
229	0x3d3660ef	0.044526037
230	0xbe1793a1	-0.1480241
231	0xbd8812da	-0.06644221
232	0xbca23ffb	-0.019805899
233	0xbca3022c	-0.019898497
234	0x3dc440f7	0.095827036
235	0x3d9b6dc8	0.075892985
236	0xbe0f1e0b	-0.13976304
237	0x3e0d9d4c	0.13829535
238	0x3d7d96a8	0.061911255
239	0x3ce7a8f5	0.028278807
240	0x3dc780a7	0.09741335
241	0xbd759c22	-0.059963353
242	0xbd1116dc	-0.03542219
243	0x3d87f27b	0.06638046
244	0xbdf7a2f3	-0.12091627
245	0x3bbb5182	0.0057165036
246	0x3da28353	0.07935204
247	0x3e1ebd78	0.15501964
248	0x3e0f8cf1	0.14018609
249	0x3d3b931d	0.045794595
250	0x3dd231ad	0.10263381
251	0xbd85e5c6	-0.065379664
252	0x3dd64f17	0.10464304
253	0x3d18f760	0.03734529
254	0xbd925b12	-0.071462765
255	0x3e30059b	0.17189638

SSM_blocks.0.W_E.bias f4 [32]
0	0x3e136e07	0.14397441
1	0xbc95b66d	-0.018275464
2	0xbdca93eb	-0.09891494
3	0x3ce91d4b	0.02845635
4	0xbd991209	-0.07474143
5	0x3e075e68	0.13219607
6	0xbbe0ffae	-0.006866417
7	0xbd6f2b01	-0.05839062
8	0x3e06c5ca	0.13161388
9	0xbd6c98d2	-0.05776293
10	0xbd0edca5	-0.03487839
11	0x3d16ab65	0.03678455
12	0xbe100769	-0.14065327
13	0xbdc7572b	-0.09733423
14	0x3e1614ab	0.14656322
15	0xbd91009c	-0.07080194
16	0x3e1bda5b	0.15220015
17	0xbdbea515	-0.09308831
18	0x3d4202d9	0.047365997
19	0xbc575b59	-0.013144338
20	0xbe2c1047	-0.16803084
21	0x3d9ff247	0.078098826
22	0x3e1aa340	0.15101337
23	0x3e14c527	0.14528333
24	0x3c832b87	0.016011966
25	0xbcb0a040	-0.021560788
26	0xbe08a776	-0.13345131
27	0x3d1b660c	0.037939116
28	0x3d84e7bc	0.06489512
29	0x3cb54497	0.022127433
30	0xbe331644	-0.17488962
31	0xbd55ebb8	-0.052226752

SSM_blocks.0.W_F.weight f4 [32, 1]
0	0x3e097358	0.13422906
1	0x3f638bc2	0.8888513
2	0x3f7abbda	0.9794289
3	0xbef12d94	-0.47105086
4	0x3f459618	0.7718215
5	0xbecec09c	-0.40381324
6	0xbdf715f0	-0.12064731
7	0xbd5b5040	-0.05354333
8	0xbf42b0be	-0.7605094
9	0xbf445188	-0.76686907
10	0x3f6ce7e0	0.92541313
11	0x3e0a3818	0.1349796
12	0x3e924bac	0.28573358
13	0xbc0e2400	-0.008675575
14	0xbe7eab70	-0.24870086
15	0xbf5757d2	-0.8411838
16	0x3edecea0	0.43517017
17	0x3f088af6	0.5333704
18	0xbe8bfb64	-0.27340233
19	0x3f6c25b8	0.92245054
20	0x3f50fc6c	0.81635165
21	0xbeaab54c	-0.33341444
22	0xbf0e7350	-0.556447
23	0xbebc8a1c	-0.3682412
24	0x3c5b3f80	0.013381839
25	0xbf0c233a	-0.5474125
26	0x3f04ad64	0.51827073
27	0x3f365b38	0.7123294
28	0xbe33d5b0	-0.17561984
29	0xbe7bb200	-0.2457962
30	0x3e050bf8	0.12992847
31	0x3f2e3028	0.6804223

SSM_blocks.0.W_F.bias f4 [32]
0	0xbf08ab3e	-0.53386295
1	0xbed38a60	-0.4131651
2	0x3f6ca04e	0.92432106
3	0x3f63b6ca	0.8895079
4	0x3f3f6f82	0.7477952
5	0xbf169b42	-0.58830655
6	0x3f26eed0	0.6520815
7	0xbf75e52e	-0.96052825
8	0x3f5a6dde	0.85323894
9	0x3f743076	0.95386446
10	0xbf7c7c40	-0.9862709
11	0x3e673590	0.22579026
12	0xbe4fe5a0	-0.20302439
13	0xbf2c1b40	-0.6722908
14	0xbf799e56	-0.97507226
15	0x3e81b8d4	0.25336325
16	0xbf46fcca	-0.77729475
17	0x3ece6da4	0.40318024
18	0xbed54be8	-0.41659474
19	0xbef81058	-0.4844997
20	0x3ee0daf0	0.43917036
21	0x3ed9abbc	0.42513835
22	0x3e3bbea0	0.18334436
23	0xbf239470	-0.6389837
24	0xbf21eeba	-0.6325489
25	0xbe91fc0c	-0.2851261
26	0x3dbdb7d0	0.09263575
27	0xbe489890	-0.19589448
28	0xbe742458	-0.23841989
29	0xbe33ced0	-0.17559361
30	0x3f6b884a	0.92004836
31	0x3ee88ff8	0.4542234

W_C.weight f4 [1, 64]
0	0xbd679718	-0.05654058
1	0xbc1aae05	-0.009440904
2	0xbd29b9fb	-0.04143713
3	0x3a83f2e8	0.0010066899
4	0x3df0d46e	0.11759268
5	0xbc9eb6e5	-0.01937432
6	0xbcdbdc7b	-0.026838532
7	0x3a9c4393	0.0011921994
8	0x3ba208cc	0.0049448963
9	0x3da64024	0.081177026
10	0x3c4f3680	0.012647271
11	0x3cc84b2a	0.024449904
12	0x3cd711f1	0.026253672
13	0x3c11c27f	0.008896469
14	0x3d13bc8e	0.03606849
15	0x3cd8ca18	0.026463553
16	0xbdedbe3d	-0.11608551
17	0xbbdd8fbc	-0.0067615192
18	0xbd3d17a2	-0.046165116
19	0x3ddf23af	0.10895478
20	0xbdcb89c8	-0.09938389
21	0xbdb29d1a	-0.08721371
22	0x3dc8f482	0.09812261
23	0xbdfaf54c	-0.12253818
24	0xbc7990d8	-0.015232287
25	0xbcc51309	-0.024056928
26	0x3d308d4c	0.0431035
27	0xbccc75fa	-0.0249586
28	0xbe11d814	-0.14242584
29	0xbd47e315	-0.048800547
30	0x3da4fbeb	0.08055862
31	0x3d3607a5	0.044440884
32	0x3c0f3ac8	0.008742042
33	0xbc74ee1c	-0.014949348
34	0xbd5f0505	-0.054448146
35	0x3dad4938	0.08461231
36	0xbd6c569b	-0.05769978
37	0x3d1c6270	0.038179815
38	0xbbc62090	-0.006046362
39	0x3c582502	0.013192417
40	0x3c412510	0.011788622
41	0xbdf806d5	-0.12110678
42	0xbb1b139e	-0.0023662816
43	0xbd92fa11	-0.07176603
44	0xbd896223	-0.06708171
45	0x3ddaefae	0.106902465
46	0x3db82066	0.089905545
47	0x3d7261e3	0.059175383
48	0xbd961d64	-0.073298246
49	0x3c838df4	0.0160589
50	0x3c962f44	0.018333085
51	0x3cb1b6a4	0.021693535
52	0x3d9c8d73	0.07644167
53	0xbd9ae7f2	-0.07563771
54	0xbd6fe40d	-0.058567096
55	0xbd8777a2	-0.06614615
56	0x3cdcc6f0	0.02695033
57	0x3cadcc89	0.021215694
58	0x3db017dd	0.085983016
59	0x3dbfdc0e	0.09368144
60	0xbd8f4c8c	-0.06997022
61	0x3e0fd343	0.14045434
62	0xbbb946a5	-0.0056541734
63	0xbcb8432b	-0.022492966

W_J.weight f4 [1, 32]
0	0xbe2795ed	-0.16365786
1	0xbe22fd57	-0.15916954
2	0x3d726e98	0.0591875
3	0x3d39f856	0.045402847
4	0xbd14f76e	-0.03636878
5	0x3d9c71b1	0.076388724
6	0xbe1df285	-0.15424545
7	0x3ce185fb	0.027529707
8	0x3c8e242f	0.017351238
9	0xbd9a6d95	-0.07540432
10	0x3c2c17a4	0.010503683
11	0x3db755d7	0.089519195
12	0x3dbdf80d	0.092758276
13	0x3da0e7b5	0.078566946
14	0xbc41690e	-0.011804832
15	0x3e008d63	0.12553935
16	0xbdcee453	-0.10102143
17	0xbda4af0d	-0.08041201
18	0xbd7ca19c	-0.06167756
19	0x3bebe17b	0.00719851
20	0x3e234cbd	0.15947242
21	0x3dd84f21	0.10561968
22	0xbe189d21	-0.1490369
23	0x3a334b71	0.000683955
24	0xbdb0ad0b	-0.08626755
25	0x3cb175b3	0.021662569
26	0x3e070d7b	0.13188736
27	0x3e228025	0.15869196
28	0xbca0cf2f	-0.019630043
29	0xbd75671c	-0.059912786
30	0xbd9c2721	-0.07624651
31	0xbd46aefa	-0.048506714
