weight/best_ARGENTINA_model.pth (torch, 28561 bytes, 12 tensors)

SSM_blocks.0.W_bh f4 [64]
0.012300895 -0.0016545032 -0.06479141 -0.030886523 -0.015575775 0.019868389 -0.025643528 -0.03988061
-0.010515903 0.020411098 -0.014889588 0.0017998192 -0.022212308 -0.055408053 -0.029377786 -0.0076088593
0.04417265 0.057852577 0.023609502 0.033693258 -0.0070996624 0.0041482807 -0.027164392 0.032812476
-0.006293975 -0.02922956 -0.0029583655 0.00365561 0.002785759 -0.01653552 -0.039873566 -0.020104304
-0.0044796183 -0.005334754 0.017725883 -0.039774124 0.005716911 0.019588755 -0.032363497 0.009363552
0.021292407 -0.011907382 0.0011555849 -0.06065471 0.023383072 -0.017087325 0.018203624 0.0038425387
0.049671944 0.04025447 -0.01824088 -0.0321145 -0.023219457 -0.0366759 -0.036269702 0.026143687
-0.071573965 0.0041415445 -0.059664994 -0.030006777 -0.037809346 0.034256782 -0.009340549 -0.019446837
00000000: b189 493c eadb d8ba 5cb1 84bd bc05 fdbc
00000010: 8931 7fbc 08c3 a23c 6012 d2bc da59 23bd
00000020: e54a 2cbc 2d35 a73c 75f3 73bc e9e7 eb3a
00000030: 96f6 b5bc 8ef3 62bd afa9 f0bc bd53 f9bb
00000040: 61ee 343d d3f6 6c3d b768 c13c f101 0a3d
00000050: 49a4 e8bb 4dee 873b dc87 debc 6066 063d
00000060: b03d cebb d572 efbc 23e1 41bb f592 6f3b
00000070: 4891 363b 8075 87bc 7752 23bd c8b1 a4bc
00000080: c3c9 92bb 29cf aebb df35 913c 31ea 22bd
00000090: ed54 bb3b 9978 a03c 968f 04bd 9569 193c
000000a0: 6a6d ae3c 2e17 43bc ff76 973a 1371 78bd
000000b0: db8d bf3c b8fa 8bbc c41f 953c 1ad3 7b3b
000000c0: cf74 4b3d dfe1 243d e66d 95bc 7e8a 03bd
000000d0: bb36 bebc 7839 16bd 8a8f 14bd 492b d63c
000000e0: 5f95 92bd cbb5 873b 4863 74bd c6d0 f5bc
000000f0: f9dd 1abd d750 0c3d 1a09 19bc f94e 9fbc

SSM_blocks.0.W_bg f4 [32]
0.0 0.0 0.0 0.0 0.0 0.0 0.0 0.0
0.0 0.0 0.0 0.0 0.0 0.0 0.0 0.0
0.0 0.0 0.0 0.0 0.0 0.0 0.0 0.0
0.0 0.0 0.0 0.0 0.0 0.0 0.0 0.0
00000000: 0000 0000 0000 0000 0000 0000 0000 0000
00000010: 0000 0000 0000 0000 0000 0000 0000 0000
00000020: 0000 0000 0000 0000 0000 0000 0000 0000
00000030: 0000 0000 0000 0000 0000 0000 0000 0000
00000040: 0000 0000 0000 0000 0000 0000 0000 0000
00000050: 0000 0000 0000 0000 0000 0000 0000 0000
00000060: 0000 0000 0000 0000 0000 0000 0000 0000
00000070: 0000 0000 0000 0000 0000 0000 0000 0000

SSM_blocks.0.W_A.weight f4 [64, 64]
0.06830371 0.12676501 -0.06329973 -0.09420189 0.08369352 0.04066304 0.053045966 -0.11637533
0.045434207 -0.04435802 -0.059268825 0.052192293 0.08392407 -0.023855517 0.13633126 0.11111235
0.07042624 0.11352186 0.07770157 -0.11598846 0.07128448 0.1015549 -0.078001685 0.05327675
0.023040025 -0.0632731 -0.023070386 0.073150694 0.044317424 -0.029522091 0.0044275504 0.059697762
-0.07021524 -0.09050001 -0.0603388 0.03402913 0.0077824625 -0.09512652 0.010449024 -0.003541495
0.039213195 -0.026091708 0.08816919 0.030115627 0.025535109 -0.063820705 -0.10768194 -0.10671952
-0.015892824 0.03179671 0.07115444 -0.10257326 -0.100089386 0.015235015 0.0015593386 -0.009515357
-0.016821094 -0.0457946 -0.01965994 0.07274082 0.021361127 0.057443384 0.06703408 -0.075883046
-0.05299268 -0.01581466 0.014598845 0.11949025 0.0852234 -0.2102122 0.0533673 -0.05490093
0.15436052 -0.12402784 -0.034369793 -0.015293554 0.08475391 0.11637031 -0.04321279 0.04656256
-0.0086895535 0.20828576 -0.118242115 0.025732558 0.10164076 -0.10165209 0.11162067 -0.005360935
0.13360529 0.048974168 0.01731375 -0.13597934 0.029511848 0.012376521 -0.09084814 0.0851501
0.0983686 0.112550214 -0.11084816 -0.004310967 0.07809166 0.1137783 -0.018199755 -0.05466912
0.033614926 -0.034382366 0.12618832 -0.114569284 0.030838102 0.0011369458 -0.056773465 0.0045121564
0.16915958 -0.04611979 -0.06810328 -0.08488354 -0.16284177 -0.015578031 -0.10013641 0.009969241
-0.029096289 -0.13074648 0.13700677 -0.05049911 -0.052094124 0.0029247394 0.010111218 0.007526671
0.06924577 -0.0883466 0.06181361 -0.07503392 0.030233469 0.0013311225 -0.03156656 -0.022534719
0.15865633 0.038862236 0.058863755 0.02397112 0.12503816 -0.120957606 -0.14055137 0.03537101
0.10144583 -0.08964339 0.03366884 -0.011860557 -0.09326306 -0.16548629 0.002249209 -0.074099354
-0.0320365 -0.06823126 -0.0063443324 0.037541796 0.047434498 0.0875023 -0.1746557 0.040317267
-0.10161424 0.11338642 -0.09154518 -0.100719824 0.0014811744 0.061124742 -0.032145485 0.17011702
-0.058742374 -0.116792336 0.11615124 -0.03156315 -0.034290884 -0.08618047 -0.059553187 -0.13699588
-0.08481577 0.061317526 -0.058009136 -0.034927696 -0.021832852 -0.093921386 -0.1008734 -0.05328564
-0.103716016 0.15405586 -0.11866049 -0.0933526 0.047662567 0.07395101 0.10949875 -0.082369976
0.0535617 0.124381624 0.066494115 -0.010010261 -0.045571793 -0.09485574 0.014928376 0.032719165
0.05289376 -0.06762514 -0.051617634 0.025825204 0.09841515 -0.021265587 0.016570307 -0.07520157
0.028963313 0.015233184 0.04271756 -0.0660786 -0.09073738 -0.12552923 0.03466043 -0.08400844
0.049969845 -0.05945801 0.008147445 0.10896864 0.009715986 -0.12666242 0.04681383 0.09993997
0.12375237 -0.038624972 0.06738716 0.0635468 -0.0064527113 0.016036475 0.022112763 0.111316845
0.032124802 -0.14576945 0.12877864 0.11514416 0.088504225 -0.016730502 0.024383234 0.011826103
0.04575655 -0.101396956 -0.025737813 0.06495771 -0.021912925 -0.07318444 -0.11641156 -0.0866211
0.09989379 -0.1386172 0.03558629 -0.0005552487 -0.11087462 0.10320379 -0.00040881464 -0.09649933
00000000: d1e2 8b3d b0ce 013e 4aa3 81bd ecec c0bd
00000010: 8267 ab3d 4a8e 263d ba46 593d 3056 eebd
00000020: 3819 3a3d c1b0 35bd dec3 72bd 96c7 553d
00000030: 62e0 ab3d a56c c3bc 6c9a 0b3e df8e e33d
00000040: a23b 903d 267e e83d 0022 9f3d 5c8b edbd
00000050: 99fd 913d 04fc cf3d 59bf 9fbd b938 5a3d
00000060: 6fbe bc3c 5495 81bd 1bfe bcbc 08d0 953d
00000070: 3086 353d 50d8 f1bc fc14 913b a485 743d
00000080: 02cd 8fbd 1258 b9bd d125 77bd 2162 0b3d
00000090: 0704 ff3b b1d1 c2bd 6232 2b3c 6d18 68bb
000000a0: 049e 203d 47be d5bc 0c92 b43d 0cb5 f63c
000000b0: 012f d13c 6eb4 82bd 5988 dcbd c48f dabd
000000c0: ab31 82bc 443d 023d 6bb9 913d ee11 d2bd
000000d0: aafb ccbd 499c 793c b962 cc3a 4de6 1bbc
000000e0: 64cc 89bc 1e93 3bbd e20d a1bc 24f9 943d
000000f0: 88fd ae3c c149 6b3d 2a49 893d 9268 9bbd
00000100: da0e 59bd bf8d 81bc fe2f 6f3c 4eb7 f43d
00000110: 9b89 ae3d de41 57be ac97 5a3d ccdf 60bd
00000120: af10 1e3e 4f02 febd 57c7 0cbd d191 7abc
00000130: 7593 ad3d 8f53 ee3d e5ff 30bd 62b8 3e3d
00000140: a15e 0ebc dd48 553e ec28 f2bd 16cd d23c
00000150: 0829 d03d f92e d0bd 6199 e43d c8aa afbb
00000160: d3cf 083e 2399 483d 91d5 8d3c 2b3e 0bbe
00000170: d5c2 f13c e4c6 4a3c 970e babd 2d63 ae3d
00000180: 7a75 c93d ba80 e63d 5c04 e3bd 0343 8dbb
00000190: 85ee 9f3d 9904 e93d a717 95bc baec 5fbd
000001a0: ceaf 093d 86d4 0cbd 8337 013e 4da3 eabd
000001b0: 30a0 fc3c 9205 953a 4b8b 68bd b6da 933b
000001c0: 2b38 2d3e 1be8 3cbd bc79 8bbd 6cd7 adbd
000001d0: febf 26be ff3a 7fbc 5114 cdbd 0756 233c
000001e0: 575b eebc 68e2 05be 814b 0c3e 28d8 4ebd
000001f0: a660 55bd fcac 3f3b 86a9 253c 4ba2 f63b
00000200: bad0 8d3d 10ef b4bd 4530 7d3d 62ab 99bd
00000210: 2eac f73c 0f79 ae3a f04b 01bd bb9a b8bc
00000220: ce76 223e 022e 1f3d 1f1b 713d 155f c43c
00000230: 010a 003e 9fb8 f7bd b3ec 0fbe 31e1 103d
00000240: d5c2 cf3d f496 b7bd 56e8 093d c852 42bc
00000250: b400 bfbd 3d75 29be 7767 133b 67c1 97bd
00000260: b438 03bd d5bc 8bbd 1ee4 cfbb 6dc5 193d
00000270: ad4a 423d 6834 b33d f2d8 32be b823 253d
00000280: 201b d0bd 2437 e83d 0a7c bbbd 3246 cebd
00000290: f723 c23a f05d 7a3d fcaa 03bd 2833 2e3e
000002a0: d89b 70bd d230 efbd b4e0 ed3d 5d48 01bd
000002b0: 9974 0cbd 637f b0bd 0bee 73bd a648 0cbe
000002c0: e4b3 adbd 1628 7b3d fd9a 6dbd 5810 0fbd
000002d0: cfda b2bc db59 c0bd b796 cebd 0b42 5abd
000002e0: 1069 d4bd d2c0 1d3e 4504 f3bd a62f bfbd
000002f0: d339 433d a173 973d e140 e03d 97b1 a8bd
00000300: 8363 5b3d cbbb fe3d 112e 883d 1402 24bc
00000310: 7da9 3abd ba43 c2bd 2696 743c 8804 063d
00000320: 21a7 583d 0d7f 8abd 036d 53bd 618f d33c
00000330: e28d c93d 2b35 aebc 74be 873c 4803 9abd
00000340: 7844 ed3c 9b94 793c 9cf8 2e3d 3854 87bd
00000350: 85d4 b9bd bc8a 00be 18f8 0d3d 9e0c acbd
00000360: 2ead 4c3d 3e8a 73bd dc7c 053c f32a df3d
00000370: cd2f 1f3c cbb3 01be dcbf 3f3d 54ad cc3d
00000380: e271 fd3d 3835 1ebd 4802 8a3d d324 823d
00000390: 4471 d3bb ed5e 833c d325 b53c 16fa e33d
000003a0: 4c95 033d 9644 15be 8cde 033e b4d0 eb3d
000003b0: b441 b53d 680e 89bc 59bf c73c 45c2 413c
000003c0: 386b 3b3d 35a9 cfbd 1bd8 d2bc 8c08 853d
000003d0: bc82 b3bc b9e1 95bd 2f69 eebd 6766 b1bd
000003e0: 1e95 cc3d abf1 0dbe eec2 113d 1c8e 11ba
000003f0: 3c12 e3bd 825c d33d 2c56 d6b9 71a1 c5bd

SSM_blocks.0.W_A.bias f4 [64]
-0.074270055 -0.07131988 -0.15748724 -0.1014005 -0.09617142 -0.0850633 0.09872603 -0.020979613
-0.00718681 0.10499589 -0.08508145 -0.08401493 0.02746261 -0.07478486 0.075471655 -0.07327716
0.12707606 0.1492679 0.08819525 -0.022738112 -0.12602034 -0.060794853 -0.04362775 0.112542234
0.061955594 -0.04618983 0.05727663 -0.045317456 -0.08600599 -0.07859204 0.07189127 -0.12915452
0.11972223 0.03761958 -0.004379484 -0.10155096 0.08592889 -0.07847466 0.021969156 0.08722404
0.12279048 -0.096710265 0.064535946 0.042580884 0.08715858 -0.032881595 0.10419943 0.046607997
0.07351797 0.05993886 0.09032221 -0.09828636 0.07042785 0.043965425 0.0521992 -0.04298334
-0.17333484 0.107563004 0.03497925 -0.14608128 -0.0715352 -0.04350536 -0.035890948 -0.02714529
00000000: e61a 98bd 2810 92bd 5644 21be 11ab cfbd
00000010: 85f5 c4bd ab35 aebd df30 ca3d 70dd abbc
00000020: 557f ebbb 1608 d73d 2f3f aebd 0510 acbd
00000030: 44f9 e03c ce28 99bd e290 9a3d 5612 96bd
00000040: 3a20 023e afd9 183e b69f b43d 4745 babc
00000050: 7a0b 01be 0604 79bd 03b3 32bd 8b7c e63d
00000060: 26c5 7d3d 8c31 3dbd e69a 6a3d cc9e 39bd
00000070: e923 b0bd ddf4 a0bd bb3b 933d 1541 04be
00000080: ee30 f53d fd16 1a3d c681 8fbb f3f9 cfbd
00000090: 7cfb af3d 53b7 a0bd a9f8 b33c 84a2 b23d
000000a0: 9379 fb3d 0810 c6bd 6c2b 843d 4b69 2e3d
000000b0: 3380 b23d daae 06bd 8366 d53d 07e8 3e3d
000000c0: 9790 963d 7382 753d dafa b83d 5c4a c9bd
000000d0: 7a3c 903d 1715 343d d4ce 553d 4c0f 30bd
000000e0: b07e 31be fe49 dc3d 6746 0f3d 5596 15be
000000f0: 0c81 92bd ad32 32bd 6302 13bd cd5f debc

SSM_blocks.0.W_B.weight f4 [64, 1]
0.50458544 -0.30164325 -0.95419526 -0.36701724 -0.6347563 0.55812705 -0.8277453 -0.34075895
-0.69643754 0.900503 -0.071925595 0.53658444 -0.912431 -0.69746614 -0.8136964 0.22872235
0.6799171 0.2447148 -0.151865 0.58438385 -0.639449 0.27356339 -0.9573837 0.29718083
-0.37750122 -0.022998134 -0.14191984 0.007722126 -0.13520163 -0.5770308 -0.73737603 -0.4204261
-0.1997857 0.40399638 -0.14147644 -0.47223005 -0.43185565 0.5922201 -0.90469563 0.67179364
0.3834512 0.27996278 -0.92809653 -0.13961609 0.48546153 -0.43278643 0.306659 0.10422141
0.6084524 0.9552591 -0.690924 -0.54474866 -0.7310511 -0.78010017 -0.7534659 0.8282371
-0.8221703 0.079504736 -0.613531 -0.9813452 -0.92111325 0.97301954 -0.47996652 -0.33219242
00000000: 832c 013f fc70 9abe 2446 74bf afe9 bbbe
00000010: 647f 22bf 6ae1 0e3f 1ee7 53bf f577 aebe
00000020: bb49 32bf 5d87 663f ba4d 93bd 995d 093f
00000030: 1495 69bf 248d 32bf 684e 50bf 3136 6a3e
00000040: 0c0f 2e3f 8496 7a3e 8082 1bbe 2e9a 153f
00000050: eeb2 23bf 8010 8c3e 1917 75bf 1628 983e
00000060: d747 c1be 9566 bcbc 6f53 11be e309 fd3b
00000070: 4c72 0abe 4ab8 13bf adc4 3cbf 1742 d7be
00000080: 9f94 4cbe 9dd8 ce3e 33df 10be 23c8 f1be
00000090: 2f1c ddbe bd9b 173f 229a 67bf abfa 2b3f
000000a0: b753 c43e 4857 8f3e bc97 6dbf 85f7 0ebe
000000b0: 6a8e f83e 2f96 ddbe 6902 9d3e 0972 d53d
000000c0: 89c3 1b3f dc8b 743f 65e0 30bf a674 0bbf
000000d0: 2a26 3bbf a5b4 47bf 24e3 40bf 5907 543f
000000e0: c179 52bf 61d3 a23d 5e10 1dbf 7039 7bbf
000000f0: 14ce 6bbf cf17 793f 2cbe f5be 2015 aabe

SSM_blocks.0.W_B.bias f4 [64]
0.16813926 -0.4300018 0.71267706 0.6317955 -0.5891884 1.0168632 0.35968938 0.57134193
-1.0027187 0.14634529 0.6469447 -0.5408254 -0.43984058 0.8795339 0.3426917 0.8785591
-0.13084507 -0.31479308 -0.89096767 -0.17972815 0.1445045 0.4922098 -0.17188586 -0.26592526
-0.44070646 0.8666016 -0.095208876 -0.5494693 -0.52911395 0.9258587 0.49385178 0.8531039
-0.103253484 0.3857756 0.12908502 0.63026 -0.87127215 -0.15892112 0.4379618 -0.60568446
-0.7023708 0.85040426 -0.6845161 0.5990937 -0.5340317 0.12062894 -0.11616338 0.2949391
-0.08242064 -0.024879372 -0.47629422 -0.06099465 -0.46022812 0.1792904 0.8116875 0.4452149
0.8446873 -0.27432775 -0.10345355 -0.24368106 0.9064306 -0.13456155 -0.66884106 0.2687725
00000000: b32c 2c3e 3229 dcbe 0172 363f 5abd 213f
00000010: 0dd5 16bf 9328 823f 3529 b83e 7743 123f
00000020: 1659 80bf 8adb 153e 2b9e 253f 8973 0abf
00000030: c932 e1be 2229 613f 4975 af3e 40e9 603f
00000040: 40fc 05be 8f2c a1be 7516 64bf a80a 38be
00000050: fdf8 133e ec02 fc3e d902 30be 5b27 88be
00000060: 47a4 e1be 9ad9 5d3f dffc c2bd 05aa 0cbf
00000070: 0374 07bf 1305 6d3f 24da fc3e 0465 5a3f
00000080: 9076 d3bd 6184 c53e dd2e 043e b858 213f
00000090: b10b 5fbf 38bc 22be 873c e03e 230e 1bbf
000000a0: 93ce 33bf 18b4 593f 723c 2fbf 345e 193f
000000b0: 4db6 08bf 4e0c f73d 11e7 edbd 4202 973e
000000c0: 27cc a8bd d3cf cbbc d6dc f3be 87d5 79bd
000000d0: 05a3 ebbe e797 373e c1ca 4f3f 35f3 e33e
000000e0: 6d3d 583f b074 8cbe 74df d3bd 8787 79be
000000f0: d60b 683f 81ca 09be 2b39 2bbf 8d9c 893e

SSM_blocks.0.W_E.weight f4 [32, 32]
-0.119348936 -0.06528332 0.16757597 0.062664166 -0.03418668 0.018698575 -0.16441707 -0.11178054
0.031692933 -0.015475037 0.01976468 0.004140232 -0.15244222 0.037020084 -0.056073956 0.15557148
0.100733854 0.16082114 0.04955496 0.0073697767 -0.067569785 0.030885758 -0.05478966 0.16945313
0.012778398 0.045716055 -0.12707984 -0.09406451 0.14505771 0.06981351 0.14430548 -0.057522167
-0.033897698 0.077739544 0.17664996 0.10822548 0.040361043 -0.07190621 0.12709631 0.034776587
0.0023992094 -0.1464996 0.16122596 0.058992393 -0.08580352 -0.15361357 -0.14491424 -0.14782901
-0.07400312 0.16480695 0.15657924 -0.095755406 -0.06578577 0.040929943 -0.00300585 0.10139773
0.11507822 -0.086034656 -0.0049556685 -0.08207742 -0.007875918 0.16834214 0.13420804 0.06905493
-0.13489218 -0.14928685 -0.014121322 -0.09867692 0.03470755 0.020211332 -0.11100829 -0.005799069
0.00059536635 -0.01107813 -0.0700893 0.16533951 -0.022707246 -0.041844845 -0.06137877 -0.09798877
0.082752846 0.08407934 -0.04055648 -0.04360064 -0.082093 0.036193922 0.039890096 0.011735874
-0.1219212 -0.026368374 0.032596562 -0.09679589 -0.03568405 -0.039118767 -0.16334711 -0.022665879
0.04713554 -0.10275884 -0.11823232 0.0986742 -0.08400552 -0.01274312 -0.12502085 -0.027687613
-0.16063951 0.15333654 -0.13841006 -0.09761766 -0.15159172 -0.09090618 0.1115504 -0.06337605
-0.14734493 -0.068637535 -0.114272475 -0.14422706 0.1408658 0.027046539 0.007195352 -0.07332673
0.027801916 -0.012539467 -0.044455208 0.032739673 -0.0011848533 -0.16055642 -0.060170125 0.021629235
-0.039982796 -0.00975649 -0.049989723 0.16925818 0.057753213 -0.103687145 -0.0070889946 0.05777612
0.098450825 -0.07804778 -0.115745 -0.0106836995 0.103186145 0.041952614 0.06052557 0.011841368
0.09723638 0.10955253 0.16784091 -0.08136887 -0.1368925 -0.063251145 0.06251844 -0.02067029
0.12658328 0.16076313 -0.049227793 0.0643539 -0.04914156 -0.17443646 0.17361191 -0.0748379
-0.10203248 0.103224225 -0.08325374 0.12258552 -0.16713956 -0.0669081 0.01404293 0.085084416
0.009265479 -0.12644118 0.10618572 0.11859092 0.097840495 0.0354408 -0.085811384 -0.0857552
0.056203622 0.14478646 0.076448925 0.07610903 0.008272225 0.15524815 -0.11647193 -0.061581854
0.09632928 0.13785155 -0.11147934 -0.123188935 0.0013970416 0.1563807 -0.1001611 0.03765705
0.011166365 -0.07684681 0.16213378 0.14669925 -0.16020682 0.14672826 0.11602222 0.17173202
-0.15943405 0.06256384 -0.0783618 0.020097999 -0.17141207 0.17246233 0.11455132 -0.14524552
0.08382009 -0.08204757 -0.04186634 -0.118675135 -0.007299581 -0.09818384 0.07909872 0.14932118
-0.105951674 0.11465498 -0.031103635 0.09647675 -0.11832114 0.04350933 -0.05993893 -0.014754094
0.15033568 -0.093693666 -0.028905362 0.10542986 -0.14448617 -0.09640337 -0.07086512 0.1264223
0.061522808 0.006565172 -0.10662758 -0.025928972 -0.12491978 -0.09640746 -0.06317246 -0.12652509
-0.045223948 -0.017449258 -0.00918658 -0.10202209 -0.16771862 -0.06131692 -0.17436692 -0.12977497
0.07696712 -0.036249388 -0.0675081 0.13118759 0.075782835 0.018215215 0.061459966 -0.0071891565
00000000: 376d f4bd 43b3 85bd 0999 2b3e 1256 803d
00000010: 5507 0cbd c12d 993c f35c 28be 32ed e4bd
00000020: 73d0 013d 028b 7dbc 8ae9 a13c c9aa 873b
00000030: d019 1cbe 5fa2 173d cead 65bd 214e 1f3e
00000040: 8d4d ce3d 4cae 243e 24fa 4a3d 2b7e f13b
00000050: 0762 8abd 2104 fd3c 1f6b 60bd 1f85 2d3e
00000060: 7c5c 513c c240 3b3d 3821 02be e5a4 c0bd
00000070: 028a 143e 63fa 8e3d d1c4 133e 5d9c 6bbd
00000080: 50d8 0abd e935 9f3d bae3 343e 52a5 dd3d
00000090: 9f51 253d 9043 93bd 8925 023e e571 0e3d
000000a0: 0e3c 1d3b fe03 16be 6b18 253e 02a2 713d
000000b0: c2b9 afbd e04c 1dbe 6664 14be 7d60 17be
000000c0: f38e 97bd 27c3 283e 4f56 203e 691b c4bd
000000d0: b1ba 86bd 28a6 273d cbfd 44bb 9da9 cf3d
000000e0: 21ae eb3d f032 b0bd 2963 a2bb 3518 a8bd
000000f0: ff09 01bc e261 2c3e d56d 093e ac6c 8d3d
00000100: 2d21 0abe a7de 18be 1e5d 67bc 2017 cabd
00000110: 8129 0e3d 3c92 a53c 5058 e3bd 1e06 bebb
00000120: 5c12 1c3a 0c81 35bc fb8a 8fbd c34e 293e
00000130: 8c04 babc 8065 2bbd 4e68 7bbd 56ae c8bd
00000140: 537a a93d ca31 ac3d 8d1e 26bd 9696 32bd
00000150: 6020 a8bd 1440 143d cc63 233d d347 403c
00000160: d2b1 f9bd 7d02 d8bc f983 053d ec3c c6bd
00000170: 7029 12bd 003b 20bd 7744 27be cbad b9bc
00000180: 3211 413d 3a73 d2bd c923 f2bd b315 ca3d
00000190: 160b acbd 85c8 50bc 7705 00be 22d1 e2bc
000001a0: af7e 24be 4104 1d3e 5ebb 0dbe c5eb c7bd
000001b0: dc3a 1bbe 052d babd 8974 e43d 4dcb 81bd
000001c0: 97e1 16be d691 8cbd b007 eabd 42b0 13be
000001d0: 203f 103e b490 dd3c fdc6 eb3b 532c 96bd
000001e0: d8c0 e33c 5672 4dbc aa16 36bd 091a 063d
000001f0: 144d 9bba e768 24be f374 76bd cb2f b13c
00000200: 00c5 23bd afd9 1fbc 06c2 4cbd 0452 2d3e
00000210: a28e 6c3d ed59 d4bd cc4a e8bb a7a6 6c3d
00000220: 96a0 c93d 84d7 9fbd b70b edbd af0a 2fbc
00000230: 4253 d33d 81d6 2b3d a9e9 773d 4c02 423c
00000240: de23 c73d 145d e03d 7dde 2b3e b9a4 a6bd
00000250: 8c2d 0cbe d189 81bd ab09 803d bd54 a9bc
00000260: 0c9f 013e 179f 243e 15a3 49bd facb 833d
00000270: a948 49bd 799f 32be 52c7 313e 9d44 99bd
00000280: 68f6 d0bd 3967 d33d f080 aabd 1e0e fb3d
00000290: a226 2bbe 1d07 89bd 5114 663c bd40 ae3d
000002a0: 3cce 173c cc79 01be e677 d93d ccdf f23d
000002b0: 9960 c83d 5f2a 113d e1bd afbd 6ca0 afbd
000002c0: c535 663d e742 143e 4191 9c3d 0ddf 9b3d
000002d0: 3a88 073c 5ff9 1e3e d688 eebd 413d 7cbd
000002e0: 4948 c53d f528 0d3e 484f e4bd 7b4a fcbd
000002f0: f01c b73a 4322 203e 4321 cdbd 473e 1a3d
00000300: 21f3 363c dc61 9dbd 6606 263e 5438 163e
00000310: 420d 24be ef3f 163e 0f9d ed3d 85da 2f3e
00000320: ae42 23be 7821 803d 277c a0bd 8fa4 a43c
00000330: a586 2fbe f799 303e e299 ea3d 3ebb 14be
00000340: dea9 ab3d 8e08 a8bd 0a7c 2bbd f30b f3bd
00000350: 5331 efbb 9c14 c9bd 82fe a13d a7e7 183e
00000360: 31fd d8bd 3bd0 ea3d 0dcd febc 9a95 c53d
00000370: 5b52 f2bd d736 323d 8682 75bd 28bb 71bc
00000380: 99f1 193e 77e2 bfbd f0ca ecbc 9ceb d73d
00000390: 2ff4 13be 216f c5bd bb21 91bd d974 013e
000003a0: 57ff 7b3d a820 d73b 905f dabd ff68 d4bc
000003b0: f1d5 ffbd 4671 c5bd 9060 81bd cb8f 01be
000003c0: bf3c 39bd bff1 8ebc 4f83 16bc f5f0 d0bd
000003d0: 6ebe 2bbe 7327 7bbd 3e8d 32be bbe3 04be
000003e0: f0a0 9d3d 3d7a 14bd b041 8abd 0a56 063e
000003f0: 0834 9b3d 1338 953c 72bd 7b3d 0493 ebbb

SSM_blocks.0.W_E.bias f4 [32]
-0.05389235 0.09135814 0.0461607 -0.14068034 0.13412155 0.16128972 -0.16242278 -0.16002576
0.06120093 -0.0023560931 -0.012235125 -0.039456233 -0.0510741 0.13863102 0.06586977 0.1590893
-0.03342658 0.09561421 0.076281935 -0.0071057687 -0.16441715 -0.1124268 -0.0017615486 0.06917467
0.026267959 0.101165414 0.08433312 0.17020707 0.15972166 -0.09302519 -0.03680564 0.0889258
00000000: 3abe 5cbd fa19 bb3d 0113 3d3d 820e 10be
00000010: 2957 093e 2229 253e 2852 26be cbdd 23be
00000020: d4ad 7a3d af68 1abb d575 48bc dc9c 21bd
00000030: 1333 51bd 4af5 0d3e bbe6 863d 4ee8 223e
00000040: 4fea 08bd 62d1 c33d b439 9c3d 82d7 e8bb
00000050: f85c 28be 0640 e6bd c3e3 e6ba 73ab 8d3d
00000060: e72f d73c d02f cf3d d8b6 ac3d c34a 2e3e
00000070: 138e 233e fe83 bebd 83c1 16bd bb1e b63d

SSM_blocks.0.W_F.weight f4 [32, 1]
-0.3628409 -0.041450858 -0.53539336 -0.50474346 -0.94997036 -0.57056904 0.23373711 -0.28912652
-0.6720042 -0.840227 0.6054145 -0.32538784 0.6190814 -0.8362862 0.6915884 -0.6513996
0.24976003 0.10628855 0.10437608 0.20699036 -0.1602658 0.29659796 0.6176851 -0.4921906
-0.06748223 -0.63971734 -0.8851284 0.6665616 -0.5966958 -0.14418077 -0.379117 -0.6951406
00000000: 48c6 b9be 60c8 29bd 8a0f 09bf de36 01bf
00000010: 4231 73bf d010 12bf c858 6f3e 6408 94be
00000020: 7808 2cbf 1e19 57bf 72fc 1a3f 3c99 a6be
00000030: 1e7c 1e3f da16 56bf f00b 313f 20c2 26bf
00000040: 18c1 7f3e d0ad d93d 20c3 d53d 48f5 533e
00000050: b81c 24be b0db 973e 9c20 1e3f 6800 fcbe
00000060: 2034 8abd 84c4 23bf c697 62bf c8a3 2a3f
00000070: 0ec1 18bf 20a4 13be a01b c2be bcf4 31bf

SSM_blocks.0.W_F.bias f4 [32]
0.34578264 -0.6746751 -0.2593354 0.11926162 -0.7451128 -0.0872376 0.3936745 -0.027531385
0.8726343 -0.7630724 0.17186809 -0.7704692 -0.2519598 0.38425314 0.09367454 -0.8816619
0.7757225 -0.7145568 -0.63739204 0.14855075 0.25797045 -0.32795644 0.70974016 0.29640162
-0.6811211 -0.791152 -0.07277024 -0.14411128 -0.2769053 -0.487594 0.26971877 -0.7922375
00000000: 6c0a b13e 82b7 2cbf 9cc7 84be 703f f43d
00000010: b6bf 3ebf a0a9 b2bd b48f c93e 8089 e1bc
00000020: f664 5f3f b658 43bf 30fe 2f3e 783d 45bf
00000030: e000 81be d4bc c43e 70d8 bf3d 98b4 61bf
00000040: c095 463f 32ed 36bf 202c 23bf b01d 183e
00000050: b414 843e e8e9 a7be 88b1 353f f4c1 973e
00000060: f45d 2ebf f088 4abf 9008 95bd e891 13be
00000070: 88c6 8dbe eca5 f9be 9418 8a3e 14d0 4abf

W_C.weight f4 [1, 64]
-0.04673593 -0.0095205195 -0.006849926 0.005090126 0.050258018 -0.008314814 -0.037489608 -0.02937061
-0.005468269 0.08085201 0.02433975 -0.08574469 0.024296286 -0.025834924 -0.044537317 0.03793209
-0.04039565 0.026819495 0.010299987 -0.0073211393 0.10077715 0.07692528 0.012818453 -0.030460205
-0.09616464 -0.0036617375 -0.009597004 -0.08239446 -0.021519003 0.089236654 -0.02413367 0.05689829
0.013876927 0.0084298635 -0.066598825 -0.0968726 -0.0355709 0.0767968 -0.07049171 0.06821202
-0.069579095 -0.00080312067 0.018118607 0.027592896 -0.027748713 0.03266264 0.018046215 -0.01270949
-0.02925467 0.034298085 -0.08809045 -0.012149814 -0.10496267 -0.048034683 -0.0006434782 0.07860981
-0.013285944 -0.07813693 0.021595446 0.0013208812 -0.0875396 0.12335119 -0.05106861 0.055035654
00000000: 2d6e 3fbd f4fb 1bbc 5875 e0bb 12cb a63b
00000010: 5adb 4d3d dc3a 08bc b48e 19bd a29a f0bc
00000020: 2a2f b3bb bd95 a53d 2864 c73c e99a afbd
00000030: 0109 c73c c3a3 d3bc c36c 36bd ae5e 1b3d
00000040: e975 25bd 8fb4 db3c 47c1 283c 2be6 efbb
00000050: 4064 ce3d 008b 9d3d 7d04 523c ae87 f9bc
00000060: f7f1 c4bd c3f9 6fbb c13c 1dbc 6dbe a8bd
00000070: 9f48 b0bc b5c1 b63d f9b3 c5bc 2e0e 693d
00000080: 0d5c 633c 691d 0a3c f764 88bd 2465 c6bd
00000090: cbb2 11bd a447 9d3d f55d 90bd beb2 8b3d
000000a0: 7c7f 8ebd 8488 52ba 796d 943c 7f0a e23c
000000b0: 4551 e3bc 43c9 053d a8d5 933c 773b 50bc
000000c0: 7da7 efbc 267c 0c3d c468 b4bd 0310 47bc
000000d0: abf6 d6bd 04c0 44bd 17af 28ba 2efe a03d
000000e0: 4aad 59bc 4106 a0bd efe8 b03c 6b21 ad3a
000000f0: f647 b3bd 8c9f fc3d 522d 51bd 116d 613d

W_J.weight f4 [1, 32]
-0.077976316 0.039741643 -0.14448445 -0.12156026 -0.09401995 0.03686946 -0.14577897 0.12258701
0.030144202 0.06972414 -0.043588743 0.01099159 0.09925468 -0.095524386 -0.12093823 0.067573726
0.06850153 0.015990905 -0.09306425 0.12630777 -0.059354 0.094305396 -0.13496365 -0.1447094
0.11812477 0.18263198 0.09141345 0.042423137 0.04124269 0.04690347 -0.0029218607 0.045468494
00000000: 0cb2 9fbd 22c8 223d bbf3 13be 96f4 f8bd
00000010: 888d c0bd 6e04 173d 1547 15be e60e fb3d
00000020: f9f0 f63c 88cb 8e3d 1c8a 32bd 1216 343c
00000030: 0a46 cb3d 4aa2 c3bd 76ae f7bd 1864 8a3d
00000040: 884a 8c3d 5cff 823c 7898 bebd d356 013e
00000050: 2e1d 73bd 3023 c13d e933 0abe b32e 14be
00000060: 66eb f13d e103 3b3e fa36 bb3d e2c3 2d3d
00000070: 18ee 283d da1d 403d b07c 3fbb 2c3d 3a3d
