weight/best_AUSTRIA_model.pth (torch, 28517 bytes, 12 tensors)

SSM_blocks.0.W_bh f4 [64]
00000000: d847 0fba 538a 923c 19d4 b83b 25b6 3bbd
00000010: e3e5 f73c 9218 da3c ceb5 43bd 896c b23b
00000020: c9fe 72bb 98a1 a63c ec66 69bd 5bae 03bd
00000030: 0907 60bb 9853 9a3c 9a72 a0bc ef85 69bd
00000040: b8a7 143d f9aa fc3b f71c f63b 3a37 d63c
00000050: 61c2 76bb 7869 dcbc f99e fbbc 9c68 013c
00000060: 6fa3 d7bb 83ba a03c b68c f03c 5aec de3c
00000070: 73e5 fe3a e9e6 8b3c e27d 253d 7592 573c
00000080: da76 72bb b567 11bc db7c acbb 02c0 30bd
00000090: 5984 873c 0dce bf3b af0b 25bb eb75 6d3d
000000a0: 6299 4a3d 64b7 0bbd 37f1 5abc 1994 8d3b
000000b0: 244f 16bd 9c67 ae3c cc04 843d ca9c 10bd
000000c0: 2b5d 0abc db42 ad3c c694 47bc bfbf acba
000000d0: 109a a33c cf38 28bc 41ae 8b3c d5e4 6f3b
000000e0: ff16 56bd 7362 ae3c c821 19bd c665 2abb
000000f0: d84e 0cbb 155a fb3c 2c4b 743b 2c41 a4bc
-0.00054657226 0.017888224 0.0056405184 -0.045828003 0.030260986 0.026623044 -0.047780804 0.0054450673
-0.0037078133 0.020340726 -0.05698292 -0.0321487 -0.003418388 0.018838689 -0.019585896 -0.057012495
0.03629276 0.007710811 0.007510777 0.026149381 -0.003765248 -0.02690576 -0.030715453 0.007898476
-0.006580762 0.019620186 0.029363971 0.02721231 0.0019447043 0.01707788 0.040403254 0.013157477
-0.003699711 -0.008874823 -0.0052639074 -0.043151863 0.0165426 0.0058534206 -0.0025183966 0.057973783
0.049462683 -0.03411044 -0.013363174 0.004320633 -0.036696568 0.02128964 0.064462274 -0.035305776
-0.008445065 0.021150043 -0.012181466 -0.0013179703 0.019970924 -0.0102674505 0.017050864 0.00366049
-0.052268025 0.021287179 -0.037385732 -0.0026000603 -0.00214093 0.030682603 0.0037276251 -0.020050608

SSM_blocks.0.W_bg f4 [32]
00000000: 0000 0000 0000 0000 0000 0000 0000 0000
00000010: 0000 0000 0000 0000 0000 0000 0000 0000
00000020: 0000 0000 0000 0000 0000 0000 0000 0000
00000030: 0000 0000 0000 0000 0000 0000 0000 0000
00000040: 0000 0000 0000 0000 0000 0000 0000 0000
00000050: 0000 0000 0000 0000 0000 0000 0000 0000
00000060: 0000 0000 0000 0000 0000 0000 0000 0000
00000070: 0000 0000 0000 0000 0000 0000 0000 0000
0.0 0.0 0.0 0.0 0.0 0.0 0.0 0.0
0.0 0.0 0.0 0.0 0.0 0.0 0.0 0.0
0.0 0.0 0.0 0.0 0.0 0.0 0.0 0.0
0.0 0.0 0.0 0.0 0.0 0.0 0.0 0.0

SSM_blocks.0.W_A.weight f4 [64, 64]
00000000: e0d0 b1bc b144 a23d dc7a 77bd 6003 cf3d
00000010: 5932 e63d 30ef 9e3b ae4d 89bd fbfb 63bd
00000020: 4718 153d ac30 533d 841e dd3d 3cf1 b3bd
00000030: 0d63 04ba 85a3 fdbd 8af0 cc3d 0089 02bd
00000040: 9636 01be e9f1 d03d 7c75 80bd cd28 943d
00000050: cd33 d23d 4bb3 46bd 3f1a a13c 53c7 04bc
00000060: 5578 0cbe abc5 a63d fdb8 c53d 8af8 0dbe
00000070: 3421 71bd 8a5b c8bd 01d1 bebc cf7d 01be
00000080: 6f70 cc3c 16c6 04bd b264 9f3d ef65 8cbd
00000090: e9d5 cebd 1fc2 0b3d 8742 89bc 01df c83d
000000a0: a827 da3c 119b ef3d 3dd1 8fbd 5a03 a5bd
000000b0: 477d 933b 7582 c5bd aa5e d73c d4cd b8bd
000000c0: af6c a23d 4e80 843d fcff f2bd faa7 85bd
000000d0: 0c15 4abd d741 12bd 9e2e 973c 0b14 0c3c
000000e0: 9b9f 5e3d 082c a63d 63b2 c43c 1ca8 0d3e
000000f0: d590 303d 6321 08be 0d4f bebd 21e2 8fbd
00000100: 5a22 233d de1c 493d 0b84 aabd 4ccc fc3b
00000110: 7efa c5bd 11be 9ebd 0f5d 4d3d 696e abbd
00000120: 2d0b aabd 61b6 b13d 40cd e03d e0b8 49bd
00000130: be73 12bd b25c dfbd 6c8b e93c d400 8f3d
00000140: c026 0e3d aff3 0cbe a9cc 0cbe 8736 ad3d
00000150: 9875 803d 0f57 903d 5a9d 88bd cf27 8d3d
00000160: 236f 333d 0233 b8bc b488 97bd 141c 2d3b
00000170: 1a34 02bd a930 633d 5b50 463d ad3f 66bd
00000180: 55f5 1d3d e4f0 8ebd 6726 a03d cb92 a03d
00000190: cc9d b6bd 7154 063e cd2f 17be 1b31 e3bd
000001a0: 2ab7 a0bc a2ad 3d3d 7c54 6a3d d745 7cbd
000001b0: 0e4a c9bd ba46 ce3d 38e2 d3bd 2648 07bd
000001c0: 356c 8bbc 4f06 b93d fd89 04bd ec3d 94bd
000001d0: bf9b d5bd 2971 b33b c080 363d dfa0 84bd
000001e0: 7c16 d6bd bf91 75bb 3d3d c73c 029a 9fbd
000001f0: 3ee3 b33d 3aca 23bc 3e2a e7bd 2ebe 34bc
00000200: f56b 623c 2dab bb3d 1954 fabd 66a6 65bd
00000210: 2eba 553d b61b d03c 44b9 cf3d 8be5 b9bd
00000220: 85c3 a83d 6be8 0ebd 5597 89bd c1b7 fabd
00000230: a349 4d3d c19b 073c 4e21 dc3c e198 a4bd
00000240: d87f 3e3d 7baf d13d 815a df3d 1047 213d
00000250: 07ab d9bd a523 b13d f93c d83d 68d1 4d3d
00000260: b5b9 8a3d 1c5e bfbd 1883 383d 3f56 213c
00000270: cff2 713d bddc dabd 67d9 6fbd 2168 c8bd
00000280: c0c3 883d 20f1 14be a430 d63d 0d47 d33d
00000290: 4a96 e2bc 9e20 ae3d b56b 18be 5f1c ff3c
000002a0: 7a06 a0bd 4390 ddbc e5fb f43d 526c 36bd
000002b0: b0a5 8bbd 8689 4fbd cfc0 263d 02ba 0ebe
000002c0: 9adc 3dbd 67f1 28bb c624 633d 8d18 31bc
000002d0: 658f bdbc 9670 bebd 5b16 2c3c e710 d6bd
000002e0: 35a6 093a e071 043e 58e3 cebd f0de 29bd
000002f0: 3f2b 583d 2b24 b5bd 026a 2abe 7d90 b23d
00000300: 70a4 54bc 92c7 b53d bb0d b6bd 97b4 83bd
00000310: b561 14be a67c 50bd 4d20 5bbd 0cd7 05be
00000320: 0fed 08be ade8 e83d edf5 f23a ab2e 8a3d
00000330: 9cbe 293d 3a03 88bc abe9 c1bd d12a 5d3d
00000340: b6ab c23c 3d5b 05bd 37ed b2bd 67bd b93d
00000350: b9e3 a9bd d49e a2bd 6c49 87bd f0c8 0bbe
00000360: 162a 64bd 6c27 743d 77d7 de3c 6802 b9bd
00000370: e220 66bd 1755 84bc 7bb5 043e 9260 e13d
00000380: 6bc6 a7bc fb7e 0b3e 4557 b1bd 7298 06bd
00000390: 1756 433e 2864 ac3d c2ca b3bc c8b5 603d
000003a0: f42a 043d 5659 2fbc 1fd1 1cbe a27b a63c
000003b0: fb26 75bc b1c9 303e 2782 d5bc 78a4 02ba
000003c0: 7137 a4bd 88ba a4bd 6912 b3bd 42f7 3abe
000003d0: 61f7 123d c5a9 3f3d fd22 95bd 7373 653d
000003e0: 5a13 50bd 5286 86bd 5dfc 873d 316a 873c
000003f0: 9ea0 c1bd ea27 bf3b bd7a b4bd be48 9dbd
-0.021706045 0.07923258 -0.060419902 0.101080656 0.11240072 0.0048502907 -0.06704269 -0.05566023
0.036400106 0.05156009 0.10796836 -0.08786246 -0.000505016 -0.123847045 0.10006817 -0.031868935
-0.12618479 0.10202391 -0.06272408 0.07234345 0.102637865 -0.04851083 0.019665835 -0.008104163
-0.13717778 0.08143171 0.09654424 -0.13864341 -0.058869556 -0.09783085 -0.02329302 -0.12645648
0.024955956 -0.032415472 0.07782878 -0.0685538 -0.10099394 0.034120675 -0.016755356 0.098081596
0.026630238 0.116994984 -0.07022331 -0.0805728 0.004501018 -0.09644023 0.026290257 -0.090236336
0.07930886 0.06469785 -0.118652314 -0.065261796 -0.049336478 -0.03570732 0.018454846 0.0085497005
0.05435143 0.08113867 0.024010843 0.1383366 0.043106873 -0.13293986 -0.092924215 -0.070255525
0.039827682 0.049099796 -0.083259664 0.007714784 -0.09666918 -0.07751096 0.050137576 -0.083706684
-0.08302913 0.08677364 0.10976648 -0.049248576 -0.03575491 -0.10906352 0.028508864 0.0698258
0.034704924 -0.13764833 -0.13749947 0.08457666 0.06272429 0.07047855 -0.066706374 0.068923585
0.04380716 -0.02248526 -0.07399121 0.002641444 -0.03178797 0.055466328 0.048416477 -0.05621307
0.038564045 -0.0697954 0.07819825 0.078404985 -0.08916816 0.1311815 -0.14764328 -0.110933505
-0.01961859 0.046308167 0.057209477 -0.061590042 -0.09828578 0.10072084 -0.10345882 -0.03302779
-0.01701937 0.090344064 -0.03235816 -0.07238373 -0.10430097 0.005476136 0.04455638 -0.06475996
-0.10453507 -0.0037470905 0.024321193 -0.077930465 0.087835774 -0.009996945 -0.11287354 -0.0110316705
0.013819684 0.091635086 -0.122230716 -0.056066893 0.052179508 0.025403839 0.101427585 -0.09076985
0.082404174 -0.03488962 -0.067183174 -0.122420795 0.050119054 0.008276881 0.02687135 -0.08036972
0.04650864 0.10238548 0.10905934 0.03937441 -0.10628324 0.08649377 0.105585046 0.050248533
0.06773702 -0.09344122 0.045046896 0.009847223 0.05906945 -0.10686634 -0.05855694 -0.09785486
0.06677961 -0.14545107 0.10458496 0.10316286 -0.027659554 0.08502315 -0.14884837 0.031141458
-0.07813735 -0.027046328 0.119621076 -0.044536896 -0.06818712 -0.050668262 0.04071122 -0.13938144
-0.04635296 -0.0025778653 0.05545499 -0.010809076 -0.023139665 -0.09298818 0.010503377 -0.104524426
0.0005250902 0.12934065 -0.10101956 -0.041472375 0.052775618 -0.08844789 -0.16642001 0.08718965
-0.012978658 0.08875956 -0.08889338 -0.06430929 -0.14490397 -0.050900124 -0.0534976 -0.13070315
-0.1337168 0.113725044 0.0018536426 0.067471825 0.041441545 -0.016603101 -0.09468397 0.05399591
0.023763519 -0.032557715 -0.087366514 0.09069329 -0.08295388 -0.0794045 -0.06605801 -0.1365087
-0.0557042 0.059607908 0.027202351 -0.09033662 -0.056183703 -0.016153855 0.12959854 0.110047475
-0.020480355 0.13622658 -0.086592235 -0.032860227 0.1907581 0.08417541 -0.021947268 0.05486086
0.032267526 -0.010702452 -0.15314148 0.020322625 -0.014962907 0.17264439 -0.026063038 -0.0004983614
-0.08018387 -0.080433905 -0.08743746 -0.18258384 0.03588045 0.046792764 -0.07282064 0.056018304
-0.050799705 -0.06568588 0.06639931 0.016530128 -0.094544634 0.0058336155 -0.08812473 -0.0767989

SSM_blocks.0.W_A.bias f4 [64]
00000000: 9cc8 a23d 1edb 6e3b b3b4 bdbc 4317 6abd
00000010: b961 1d3e 32cf 38bd 3eea ebbc e229 ad3d
00000020: ce3e 00bd c56e 193d c74a 80bd 3b9a 9f3d
00000030: 60d4 aabd c1c2 a4b9 2729 8e3d 5c39 e8bd
00000040: 29b3 c53d 7d81 dbbd 40c1 6cbd 71e5 983d
00000050: ff28 b7bd 15de 833d 5763 24bd 5b10 9bbd
00000060: 5340 9e3d 56eb 0bbd 244d 1b3e e2aa 34bd
00000070: 7918 4bbd 6614 cfbd f005 a33d 248b 8f3d
00000080: 487d 4a3c 8fef be3d 42da 8d3d 6c18 bebd
00000090: 6dd2 a53d af28 0abd c9e6 e8bd 8bb4 b33c
000000a0: 0847 3b3d d569 8d3d 52c2 b03d 5518 863d
000000b0: 8799 18be 2768 963d 0065 5ebd 3f29 823d
000000c0: 2057 92bd f099 473d b122 6e3d eb6a 46bd
000000d0: 960d ec3d 2d4b 883d d630 29bd 005c e0bd
000000e0: 4ac8 34bd 907d 6abd 57e6 11be d5a1 7b3d
000000f0: 4ca2 a23d 32ca d13d a601 c23d 9ef6 52bd
0.079484195 0.0036446522 -0.023157453 -0.05715109 0.1536931 -0.04511947 -0.028798219 0.08455254
-0.031309895 0.037459154 -0.06264263 0.07793089 -0.083412886 -0.0003142562 0.06941443 -0.113390654
0.09653313 -0.10718057 -0.057801485 0.074656375 -0.08943366 0.06438843 -0.0401338 -0.07571479
0.077271126 -0.03415998 0.15166146 -0.04410828 -0.049583886 -0.101113126 0.07960117 0.07008961
0.012358971 0.09323036 0.06926395 -0.09282002 0.08096776 -0.033730205 -0.11372144 0.021936676
0.045722038 0.069049515 0.08630814 0.0654761 -0.14902316 0.07344084 -0.05429554 0.06355523
-0.07145524 0.04873079 0.058138553 -0.04844181 0.11526029 0.06654964 -0.04130634 -0.109550476
-0.044136323 -0.057248652 -0.14248024 0.061433632 0.07941112 0.10243644 0.09472971 -0.051504724

SSM_blocks.0.W_B.weight f4 [64, 1]
00000000: 1df8 e23e cebf 823f 79b1 203e abb0 30bf
00000010: 2faf 3b3f 3707 ca3e 169b 53bf 331d 1bbe
00000020: 7b3e 16bf 4658 2d3f 377d 5abf e747 c9be
00000030: 2146 f03e d9c0 423f 2067 eebd 98cd a0be
00000040: 8a0b 373e 5543 423f b0fe 153f 1fc7 2d3f
00000050: 88a3 5abe 7a31 21bf a23a dd3e 8b83 ac3b
00000060: 5c9b 52bf 9383 653e 17c6 6abc b883 253f
00000070: d298 c3bd 1f36 993e 9494 cf3e 6d52 553f
00000080: 78bd 84bf fac2 ddbd 4b07 f7be 5a7c 51be
00000090: a41c 3e3f 29bb 05bf 1a55 a43e 2c65 593f
000000a0: a87a 0dbe 617f 8d3c 1358 53bf 7a5d 0fbf
000000b0: 4234 19bf 5c46 8fbe ae9d 2b3f 0a7a c5be
000000c0: 31b1 f4be 80c1 95bc 4ded 4bbf 3d9d 2e3f
000000d0: 5313 1b3f 6a58 0ebf 98a0 253f 2609 6abe
000000e0: cdf8 07bf c622 b03e 6994 30bf f482 9c3e
000000f0: db72 433e ee2a 173f bebd b0be 2880 72bf
0.4432992 1.0214784 0.156927 -0.69019574 0.73314184 0.3945863 -0.8265852 -0.15147857
-0.5868909 0.6771282 -0.8534731 -0.3931267 0.46928504 0.7607551 -0.11640763 -0.31406856
0.17875496 0.7588399 0.5859175 0.6788196 -0.21351445 -0.6296612 0.43208796 0.0052647046
-0.8226831 0.22413473 -0.014329455 0.6465411 -0.095506325 0.29924104 0.40543044 0.83328897
-1.0370321 -0.108282045 -0.48247752 -0.20457593 0.7426245 -0.5223871 0.32096177 0.8492
-0.13816321 0.017272653 -0.82556266 -0.5600201 -0.59845364 -0.27983367 0.67037475 -0.3856967
-0.47791436 -0.018280745 -0.7965897 0.68208677 0.6057636 -0.5560366 0.6469817 -0.22855052
-0.53114015 0.3440153 -0.68976456 0.3056866 0.19086783 0.5904988 -0.34519762 -0.947268

SSM_blocks.0.W_B.bias f4 [64]
00000000: a38d fe3e c5b8 37bc 6ee4 d7bd 90b0 573f
00000010: 312f 2fbe 694f 303c eb44 363e 6263 493e
00000020: efd1 3bbe 23f0 d7be 4801 4d3f 8bfa 99be
00000030: f53b 653e c883 af3e cfc1 f5be cb2b 6a3f
00000040: 4d8c 11bf 701a 853e 87f3 fbbe 318b 10bf
00000050: 0f7f 9bbd 55e3 353f 07ca 753f bddf 15bf
00000060: 034f 0bbf 389c 64bf c284 74bf 5aea d8bc
00000070: f1f8 48bd c0e8 a93e c1e2 24be 0b07 a1be
00000080: 60ea 02be df73 69bf 8971 34be 28ab 1e3f
00000090: ece3 08bf 856a 7abf 51f7 59be 6edc 52bf
000000a0: 1523 5dbf 9c59 1c3f a167 093f 4cb5 24bf
000000b0: 47ba d83e 2d18 75bf 732a 6cbf 2ee6 283f
000000c0: eba2 773f 32ad e13d b64b cebe 8230 e73e
000000d0: b454 e33c beab 0ebf 94d3 523f 244a 53bf
000000e0: a66f 183f 8b08 5c3e ae5b bd3e 6c01 943e
000000f0: 02a7 fd3e b45f 59be 3499 62bf 1c4c f7be
0.49717435 -0.011213486 -0.105416164 0.8425379 -0.17107846 0.01076112 0.17799728 0.19666818
-0.18341802 -0.42175397 0.8008008 -0.30073962 0.22386153 0.3428023 -0.47999427 0.9147307
-0.56854707 0.25996733 -0.49209234 -0.5646239 -0.07592594 0.71050006 0.96011394 -0.5854452
-0.5441744 -0.8930087 -0.9551507 -0.026478935 -0.049065534 0.33185387 -0.16102125 -0.31450686
-0.1278472 -0.9119243 -0.17621435 0.61979914 -0.5347278 -0.97818786 -0.2128575 -0.823676
-0.86381656 0.61074233 0.5367375 -0.6433914 0.42329618 -0.95740014 -0.9225227 0.65976226
0.9673297 0.110193625 -0.40292138 0.45154196 0.02775035 -0.5573081 0.8235409 -0.82535005
0.5954536 0.21487634 0.3698401 0.28907335 0.4954148 -0.21227914 -0.8851502 -0.48300254

SSM_blocks.0.W_E.weight f4 [32, 32]
00000000: 93ad 123e c584 ccbd b644 80bd 283c 163e
00000010: 23d2 cbbd e1b2 563d 87d3 e5bc f724 2f3e
00000020: 677b 213e b55f 073e 9d1e 1dbe 2ca5 2dbe
00000030: a5b5 8c3d d14a 033d d5c2 06be 595f 24bd
00000040: d376 01bd dbed 63bd 4855 14be 94a6 d73d
00000050: e4eb 45bd 813a 82bd 1f64 0e3e 1870 ba3d
00000060: b626 02be 61e6 babb 5f77 67bc 2dbe 6ebd
00000070: d65a 4bbd 73dc 15be 0e7a 8f3d aab1 d23c
00000080: 6161 32be f6ee bf3d 8c93 90bd 2ceb 4bbd
00000090: abd0 0a3d 3492 1f3e 8c15 ebbc bc9f d13d
000000a0: 89b1 c0bd 803e 0e3e 903d bd3d 799b ea3d
000000b0: 8818 02bd 3a54 f3bd acd1 b63d d051 2cbe
000000c0: dc20 933d 9dbd a23d 62aa 1dbe e5bb 203e
000000d0: dd01 3cbd 0ccd 773d 4d6b 423d 51e4 2e3e
000000e0: 383e 3a3d 5820 8a3d 26b1 e0bc 9efc 023e
000000f0: a67d e2bc e43e 5a3d a50a 22be 7d97 e13c
00000100: a2fd 413d faab 26be fcb4 d3bd 1d6d adbc
00000110: 5797 313d 4438 c03d 59e4 263e aa99 0fbe
00000120: 892c a43d cb8b c93d d6a7 1fbe 6392 043c
00000130: a5d1 ecbd c2dd 053e 98d1 c73d cdf6 1d3e
00000140: 6e1d 903d 8db7 69bd 756d f03d cfc8 f6bb
00000150: 82ec 2d3e d5a2 053e e17e d53d 88c9 1d3e
00000160: b6c3 31be 5744 d83a 0268 29bc d89a 1fbe
00000170: 8619 2abe 99ec 2d3e 3624 36bc 2ef7 f83d
00000180: 475f 33be fa9e 91bd 80ac 1d3e 48e7 bfbd
00000190: f895 a9bc bc2d 0e3e 534b 4b3d c5c8 133e
000001a0: ad37 2dbe 0232 f83d 0119 f8bd 29af f93d
000001b0: 6ab8 17be 66c6 1e3d 3dc6 0b3e 435f 82bc
000001c0: e66a febb f493 a6bd c5e1 aebd a579 523d
000001d0: 5f4d 663d 4d0d 0abe 8c00 363d 6643 02be
000001e0: b339 eb3d 14f6 1b3b 0e2b b73d 679e c2bd
000001f0: 9f5b 16be a7a9 19bd 170d d53b 8789 223e
00000200: 37d4 b23d ef76 40bd d51a e6bd ff84 88bd
00000210: 7eca ed3d 4b39 b63d 4f25 e6bd 81de 193e
00000220: f618 d23d 11cc 913d 1731 13be 6832 2c3e
00000230: 2f05 8f3d 8097 31be fbb2 f93d 26f9 1bbd
00000240: 3609 a5bd 6a10 debd 4186 9d3c 1b04 01be
00000250: 3727 d6bd 3d60 5abd 4a90 26be 1600 c23c
00000260: fab6 2e3e 9194 1abe cfe9 cc3d 9605 dcbd
00000270: 1f32 62bc 3722 9cbd 30cd eb3d 0f37 b2bd
00000280: 1b3a b7bd 37b9 d5bd ac11 cfbc 963b 4c3d
00000290: 12cc 413d 6842 62bd da25 a4bc 9b09 da3d
000002a0: 6dbe b6bd ddf0 0e3e f08b b13d 39da 3f3a
000002b0: c4e9 803d b5a2 113e f4cd 303e f7a5 923d
000002c0: 048e fdbd 6723 9fbd a1cb 25be d5a5 1dbd
000002d0: 9b24 07be 2f70 ea3d b0a6 fbbd aa8a b43d
000002e0: e951 d13d 7535 843d ee22 c73d 9a86 1c3e
000002f0: 204b 34be 9059 013e 7e0f 86bd e01f 9ebc
00000300: a9b8 14bd 8b01 643c e58f 05be 0c62 2b3e
00000310: 08a5 9ebb aaf3 913d 8bba 073e 29ab abbd
00000320: da99 a2bd 4dfe 40bd 02e5 c13d 21e7 04bd
00000330: beb6 ddbd 0791 6b3d 7b06 27be 7992 11bd
00000340: 9ccd debd 8163 18be 0680 2b3e 7ab2 743d
00000350: 25c1 cdbd 7c6a 423d 8f76 893d f30c 29be
00000360: 4cab bb3d e036 c03d 6c83 f03d ac2d e6bd
00000370: ea16 c6bc f655 8cbd 2010 c53d ca64 6b3d
00000380: f273 39bd 6a59 b1bd 374a 113e 5d1b f53d
00000390: 3c58 7c3d ba24 67bd 7817 e1bd 4d21 133d
000003a0: 5798 d2bd e62d 163e 27cd 6f3c 03c1 e0bd
000003b0: c1fe 2d3e 7845 f1bc 1c37 8bbc 6183 dfbd
000003c0: 0954 e3bd cade a33d c8f5 d3bb 7629 ffbb
000003d0: de8f 1d3e 7a14 d8bc 94ec cdbd 8c9d b8bd
000003e0: 7f75 d1bb 4c0f dabd b375 6e3d 033a 833d
000003f0: 1cc5 143e 9bcd 8a3d 6319 eabd 65d5 ac3c
0.14324026 -0.09986261 -0.062631056 0.14671385 -0.0995219 0.052416686 -0.028054966 0.17103945
0.1576973 0.13220103 -0.1534371 -0.1695754 0.068705834 0.032053772 -0.1316026 -0.040129993
-0.03160746 -0.05564676 -0.14485657 0.10529819 -0.048320666 -0.06358815 0.1390538 0.091034114
-0.1271008 -0.005703733 -0.014127581 -0.058286835 -0.049647175 -0.14634876 0.07005702 0.025719482
-0.1741996 0.0937175 -0.07059392 -0.049784824 0.033890408 0.15583116 -0.028696798 0.10235545
-0.09408862 0.1389103 0.09240258 0.11455435 -0.031761676 -0.11881299 0.089267105 -0.16828084
0.07184002 0.07946322 -0.15397027 0.15696676 -0.045900214 0.060498282 0.04746561 0.17079283
0.045469493 0.0674445 -0.027428221 0.12791678 -0.027647804 0.053282633 -0.15824373 0.027538056
0.047361024 -0.16276541 -0.103372544 -0.021170193 0.04335722 0.09385732 0.16298045 -0.14023462
0.08016307 0.098411165 -0.15591368 0.008091542 -0.11563424 0.13072875 0.09756774 0.15426178
0.07036863 -0.057059813 0.11739627 -0.0075312625 0.16984752 0.13050397 0.10424591 0.1540891
-0.17359814 0.0016499859 -0.010339739 -0.15586412 -0.16611299 0.16984786 -0.011117032 0.12156521
-0.17516814 -0.071104005 0.15397835 -0.09370285 -0.020701393 0.13884634 0.04963238 0.14432056
-0.1691577 0.12118913 -0.12114144 0.12191612 -0.14816442 0.038763426 0.1364984 -0.015914565
-0.007764208 -0.081336886 -0.08539156 0.05138554 0.05622613 -0.13481636 0.044434115 -0.12721023
0.11485615 0.0023797797 0.08943759 -0.09502869 -0.14683388 -0.03751531 0.0065018046 0.15872775
0.08731883 -0.046988424 -0.112355866 -0.06665992 0.11610888 0.088976465 -0.11237585 0.15026285
0.10258667 0.07119001 -0.14374195 0.16816103 0.069834106 -0.17342949 0.12192341 -0.038079403
-0.080583975 -0.108429745 0.019229056 -0.12599222 -0.104566984 -0.053314436 -0.1626598 0.023681682
0.17061988 -0.15095736 0.10005533 -0.10743253 -0.013805895 -0.076237135 0.11513746 -0.08701908
-0.089466296 -0.104357176 -0.025276981 0.049861513 0.047313757 -0.05523911 -0.02003758 0.10646363
-0.089230396 0.1395907 0.08669269 0.00073185895 0.06294587 0.14222224 0.17266065 0.071605615
-0.12380603 -0.07770424 -0.1619096 -0.038488228 -0.13197558 0.114471786 -0.122876525 0.088155106
0.10220701 0.064555086 0.09723459 0.15285721 -0.17606783 0.12631822 -0.06545924 -0.019302309
-0.03630892 0.0139163835 -0.13043173 0.1673662 -0.0048414506 0.07126553 0.13254754 -0.083822556
-0.07939501 -0.04711752 0.09467508 -0.032446984 -0.10825871 0.057511356 -0.16311066 -0.035540078
-0.108790606 -0.14881708 0.16748056 0.05974052 -0.10046605 0.047464833 0.067120664 -0.16508846
0.09163532 0.093854666 0.11743817 -0.1123918 -0.024180848 -0.06852333 0.09622216 0.057469167
-0.04527659 -0.086596325 0.14188467 0.1196811 0.061607584 -0.05643151 -0.109908044 0.03592043
-0.10282963 0.14665946 0.0146363145 -0.10974314 0.16991712 -0.02945207 -0.016994052 -0.109137304
-0.11100013 0.08001478 -0.0064685084 -0.007786925 0.15386912 -0.026376951 -0.10054889 -0.09014425
-0.0063921805 -0.10647449 0.058217715 0.06407549 0.14528316 0.067774974 -0.114306234 0.021097848

SSM_blocks.0.W_E.bias f4 [32]
00000000: 9439 0cbe 52d9 903d db07 d2bd 73e8 2f3d
00000010: a971 043e d194 a1bd a3c1 143e 43db 3fbd
00000020: 791b a73c 5e6c ef3d 4f57 2c3c a4af ccbd
00000030: 922d 773a 2fe4 813d 2c0d e13d b7cc 62bd
00000040: 0b98 0cbd 5a22 103e e23a 143b b0d2 2a3d
00000050: 7125 ff3c 6113 ee3d cdfe 70bd 0caa 233e
00000060: 78a7 c73d 7e4b 87bd bf03 17be acc4 2fbe
00000070: f4b7 643d d57c 013e abb7 32be 9144 d9bd
-0.1369384 0.070727006 -0.102554046 0.04294629 0.12933983 -0.078897126 0.14526992 -0.046839964
0.020398842 0.11690591 0.010518863 -0.09994438 0.0009429093 0.06342351 0.109888405 -0.055371013
-0.034324687 0.14075604 0.0022618105 0.041704834 0.031145783 0.1162479 -0.058836747 0.15982836
0.09748739 -0.06606196 -0.14747523 -0.17164868 0.055839494 0.12645276 -0.17452876 -0.10608781

SSM_blocks.0.W_F.weight f4 [32, 1]
00000000: a0ab 643d 9040 983e c88a 60be 9827 6cbf
00000010: a043 f2bd 801b b13d 54f8 8d3e 280e 86be
00000020: 7e2f 5a3f 4063 a8bd 9a6c 52bf 742b 823e
00000030: c6c4 5abf 98ab 7f3f d8d3 25be e8f1 4abe
00000040: 7474 a9be c82a 503e 2c89 a23e 608d 4c3f
00000050: 80fc 1d3d b646 113f f247 11bf e0b5 74bd
00000060: bc0b 803e 20e1 713f 20ec 2fbf 8eb5 303f
00000070: a022 3bbe 2033 dc3e c044 18be b6ea 78bf
0.055827737 0.29736757 -0.21927941 -0.92247915 -0.11829305 0.08647823 0.27728522 -0.26182675
0.8522872 -0.082220554 -0.8219696 0.25423777 -0.854565 0.99871206 -0.16194093 -0.19818842
-0.3309666 0.2032882 0.3174528 0.7990322 0.03857088 0.5674852 -0.56750405 -0.059743762
0.25008953 0.9448414 -0.68719673 0.6902703 -0.18274927 0.43007755 -0.14869976 -0.9723314

SSM_blocks.0.W_F.bias f4 [32]
00000000: 7c22 12bf 240f e4be 76ad 4abf 4618 0dbf
00000010: a424 25bf a012 193d 008d f2bc a4f3 92be
00000020: a88f f5be e408 e1be f2fe 193f e84a 18be
00000030: 381b 353e 18dd 13be 8832 633e bc68 86be
00000040: 4476 a4be 6872 8c3e dce8 b53e c20a 2d3f
00000050: b879 5f3f 2874 313f 70f8 1dbf 2a78 713f
00000060: dcfa e53e 5099 7cbe d8e5 d6be 6eae 37bf
00000070: 70e9 a63e 5c30 5cbf 0011 a63d ead9 763f
-0.5708387 -0.445428 -0.7917093 -0.55115163 -0.64509034 0.037371278 -0.02960825 -0.28701508
-0.47961164 -0.43952096 0.6015464 -0.14872324 0.17686164 -0.1443981 0.22187245 -0.2625178
-0.3212148 0.27431035 0.3552922 0.6759454 0.87295103 0.69317865 -0.6170721 0.9432398
0.44917953 -0.24667859 -0.41972232 -0.71750534 0.32599974 -0.8601129 0.08108711 0.9642626

W_C.weight f4 [1, 64]
00000000: b0c6 9abd 561d af3d abc1 4c3c 2ebc 023c
00000010: f0cc 273d b83b d83c 3c40 c6bc aedc 02be
00000020: 91cb 20be c89d 453d a9e5 ae3b 0ed5 4a3d
00000030: b1ca f63d cca1 023e 22d0 113d 1ddb 06bc
00000040: 4d48 77bd 7c79 d43d 7a64 123e ac90 ffbc
00000050: 8aac 3d3d 602a aabd 23d7 ad3d c2bf d0bd
00000060: 9fdb 563a f3ef 90bd 5e65 6b3c e0ad 0a3d
00000070: da15 bc3c 350a 073c baa1 14bd 6551 733d
00000080: 4203 0bbe 270f 1c3d b5b3 daba de7f b83d
00000090: 244f d63d 73b0 11be 7135 193e 1365 64bc
000000a0: d0f4 88bd 4d42 863c 1e50 d4bd 58bf c5bc
000000b0: 749f fb3c db01 8c3d a462 2c3c 1f2e e3bc
000000c0: 87e3 02be b573 dc3c d073 dcbd e369 35bd
000000d0: 33b7 88bd 1bff c6bd 29ae ac3d c0df 7abd
000000e0: 8c2c 4a3d b438 183d 72fc 95bc da26 cb3d
000000f0: aadd 2939 eb9e 563d 2888 ae3c a6c6 26bc
-0.07557428 0.08550517 0.012497346 0.007979436 0.040966928 0.026395664 -0.024200551 -0.12779495
-0.15702654 0.048246175 0.005337436 0.04951959 0.12050379 0.12757033 0.03559888 -0.008230952
-0.060371686 0.10374734 0.14296141 -0.031196915 0.046307124 -0.08308864 0.084883 -0.10192825
0.0008196178 -0.07077017 0.01436743 0.033857226 0.022959638 0.00824218 -0.036287047 0.059403796
-0.13575462 0.038100388 -0.0016685637 0.09008764 0.104643136 -0.14227466 0.14961793 -0.013940114
-0.06687319 0.016389037 -0.10366844 -0.024139091 0.030715682 0.068362914 0.010521565 -0.027731953
-0.12782107 0.026910642 -0.10764277 -0.044290435 -0.066755675 -0.09716626 0.08431656 -0.06124854
0.04935889 0.03716345 -0.018308852 0.0991952 0.00016199672 0.05239765 0.021305159 -0.010179197

W_J.weight f4 [1, 32]
00000000: b11f 2b3d e507 ed3d a5af 25be bb6d 54bd
00000010: 8f73 c63d 0747 3b3d efc6 2d3e a994 f3bd
00000020: abd4 9cbd cdfa 14bd 49b9 60bd b966 f73d
00000030: 5d6d 31be 67a9 4c3d 49ee 66bd c390 3dbd
00000040: cb1b 12bd 059d d8bd b73f ddbd 7137 f33d
00000050: ba82 edbc 1593 1b3e 1330 9abd 0b90 dcbd
00000060: 8a3e 5f3c c73f d1bd 4751 af3d 33a3 013e
00000070: 0524 15be 11cd 24be 3166 6ebd bf6f c03d
0.04177827 0.115737714 -0.16180284 -0.05186246 0.0969001 0.045722034 0.16970418 -0.11893589
-0.07657751 -0.036371995 -0.0548642 0.1208014 -0.17326875 0.049966242 -0.05637959 -0.046280634
-0.035671037 -0.10576824 -0.10803168 0.11875809 -0.028993 0.15192826 -0.07528701 -0.107696615
0.01362575 -0.10217243 0.08560424 0.12659912 -0.14564522 -0.16093852 -0.058202926 0.09396314
